PPO/PPO4_Trained/PPO4_DoubleInvPendulum.pth (torch, 410281 bytes, 18 tensors)

actor.0.weight f4 [128, 6]
0.85765713 -0.088146515 0.12572777 0.65718037 1.1414725 -0.57117087 -0.67501104 0.04415722
0.09918775 0.07668589 -0.5149675 -0.36141458 -0.37032175 -0.08214533 -0.112893894 -0.20743294
-0.7900698 0.16410784 -1.2186378 0.31917906 -0.24814147 -0.12865832 -1.2581965 0.6774318
-1.0389155 0.22223158 -0.24884968 -0.12755547 -1.495752 0.5447956 -1.2478875 0.09720952
0.13031586 -0.5195001 -1.2951785 0.033781826 0.7735955 0.13473743 -0.14401749 -0.11564181
1.3065625 -0.78192145 0.7346743 0.15919 0.30898917 0.45543528 1.0234371 -0.41610917
0.87552786 0.16338566 -0.2198096 0.40426478 1.1336173 0.22625518 -0.9409247 0.060756136
-0.17304891 -0.56049174 -0.70502216 -0.48694816 0.85598415 0.19519854 -0.0026776514 0.4567769
1.8329905 -0.8024268 -1.2639344 -0.24598798 0.370883 0.10815072 -1.7147311 0.662332
0.8120327 -0.3594088 0.14510046 0.35491753 0.5263609 -0.04886177 -0.048953317 -0.19163185
-0.2904519 0.73210967 -0.90131795 0.470498 -0.2517811 -0.21254408 0.27799106 0.11829723
-0.9461182 -0.17422144 -0.33433622 0.32608825 0.040854044 -0.28318 -1.4984174 0.00022918075
1.4002903 0.3022644 -0.11112582 0.3623427 1.012905 -0.46555364 -0.8364779 0.2016358
-0.26136482 -0.0726642 -1.7457343 0.48707592 -0.6167472 -0.2144672 0.29820803 0.35681626
-0.89002573 0.44893593 -0.5436141 -0.06597338 0.113738246 -0.27400833 -0.40451893 -0.029844064
0.7975084 0.33430946 -0.15230557 0.39771187 1.5553576 -0.67308474 -1.3536398 0.35234582
-0.23247091 -0.4582779 -1.484599 0.8559527 1.3437927 0.31146806 0.04336686 0.30060548
1.405157 -0.6580548 0.36960813 0.23789884 -0.2685897 -0.19143483 1.5170497 -0.3884416
1.2659092 -0.050515246 -0.35599068 0.6007648 1.3574995 -0.8544145 -0.12817398 0.18196757
0.13148513 -0.03867773 -0.7334441 0.24162114 -0.9463343 0.00044738548 -0.1129488 0.16242568
-1.1963611 0.26183027 0.44858405 -0.013540229 -0.060629915 0.31959224 0.7575193 0.10082313
0.4368164 0.06475817 -0.3422739 0.4694139 0.981624 -0.33597597 -1.3493189 0.1890588
-0.3109411 -0.35991305 -0.98455966 0.49593985 0.6951975 0.20788154 0.06134481 -0.18258101
1.3112044 -0.788713 1.1965237 -0.33387554 0.19690722 -0.0028210983 1.0716639 -0.25960588
1.5657512 0.34642696 0.008481231 0.40812117 1.8238195 -1.0841175 1.1506352 -0.29082838
0.3714212 0.6313834 1.5789176 -0.47692084 -1.129499 -0.1159728 0.085353844 -0.35479486
-1.804226 0.36886063 -1.0755727 -0.22171322 0.27091756 -0.54476064 -1.1367291 0.39242774
0.41202638 -0.13943878 -0.25703302 0.34806228 0.38845998 -0.15028699 1.0074579 -0.15212041
0.015126684 0.29590762 0.9574735 -0.51772046 -0.9382443 0.05635018 -0.19397347 -0.57177263
-1.1060435 0.12649165 0.43611345 -0.11501831 -0.05444172 0.06534327 0.16812882 0.18774216
-0.983342 -0.003415418 -0.15192065 -0.659474 -1.2245672 0.54326206 -1.0916711 0.005709174
-0.04087044 0.33252913 -1.8165969 0.28736687 0.6851783 0.06846493 -0.08367489 0.11595003
00000000: 6b8f 5b3f 2986 b4bd c8be 003e f93c 283f
00000010: c51b 923f 4138 12bf 86cd 2cbf 33de 343d
00000020: f222 cb3d 7e0d 9d3d e9d4 03bf 550b b9be
00000030: d09a bdbe d03b a8bd ea34 e7bd 4d69 54be
00000040: 0442 4abf e30b 283e 53fc 9bbf 706b a33e
00000050: cc18 7ebe 02bf 03be 950c a1bf 2c6c 2d3f
00000060: 2ffb 84bf ad90 633e 73d2 7ebe e79d 02be
00000070: cd74 bfbf b977 0b3f c7ba 9fbf c915 c73d
00000080: 8571 053e f5fd 04bf 69c8 a5bf d05e 0a3d
00000090: 5b0a 463f 9cf8 093e 5279 13be 9dd5 ecbd
000000a0: 713d a73f 012c 48bf 9d13 3c3f b402 233e
000000b0: d433 9e3e d02e e93e fdff 823f 430c d5be
000000c0: 9822 603f 924e 273e c515 61be cbfb ce3e
000000d0: 5f1a 913f 70af 673e 71e0 70bf 6ddb 783d
000000e0: bc33 31be 637c 0fbf 557c 34bf 4551 f9be
000000f0: c721 5b3f 20e2 473e 897b 2fbb a9de e93e
00000100: 6f9f ea3f d86b 4dbf 9ac8 a1bf 46e4 7bbe
00000110: 60e4 bd3e 207e dd3d 4f7c dbbf 978e 293f
00000120: 60e1 4f3f 6e04 b8be 3795 143e c0b7 b53e
00000130: 97bf 063f 4823 48bd 4683 48bd 243b 44be
00000140: 1db6 94be 8a6b 3b3f c6bc 66bf 1de5 f03e
00000150: 74e9 80be 28a5 59be d854 8e3e d145 f23d
00000160: cd34 72bf 1b67 32be 1e2e abbe 0af5 a63e
00000170: 9256 273d f8fc 90be 24cc bfbf 3d50 7039
00000180: b63c b33f 66c2 9a3e ef95 e3bd fb84 b93e
00000190: dfa6 813f 0c5d eebe 6a23 56bf 9d79 4e3e
000001a0: 9cd1 85be f8d0 94bd 3974 dfbf 0462 f93e
000001b0: 25e3 1dbf 4a9d 5bbe b9ae 983e 9fb0 b63e
000001c0: bad8 63bf eeda e53e 4b2a 0bbf 0d1d 87bd
000001d0: 99ef e83d d24a 8cbe 1b1d cfbe 8a7b f4bc
000001e0: 8329 4c3f 9c2a ab3e fef5 1bbe e4a0 cb3e
000001f0: f515 c73f 484f 2cbf 1244 adbf ac66 b43e
00000200: db0c 6ebe 67a3 eabe 5707 bebf b71f 5b3f
00000210: 6601 ac3f be78 9f3e 73a1 313d f6e8 993e
00000220: 2fdc b33f 4876 28bf 473d bd3e c19b 733e
00000230: 9784 89be 7e07 44be af2e c23f d1e1 c6be
00000240: 5009 a23f 13e9 4ebd 6944 b6be b9cb 193f
00000250: 8bc2 ad3f e9ba 5abf 0a40 03be b555 3a3e
00000260: 0aa4 063e 8a6c 1ebd fec2 3bbf 886b 773e
00000270: f742 72bf 108f ea39 b351 e7bd eb52 263e
00000280: 5c22 99bf 9e0e 863e cfac e53e d6d7 5dbc
00000290: 1357 78bd 98a1 a33e c9ec 413f 5b7c ce3d
000002a0: 66a6 df3e ee9f 843d 863e afbe 0557 f03e
000002b0: b64b 7b3f 0b05 acbe 7bb6 acbf a198 413e
000002c0: ac33 9fbe 8646 b8be 1a0c 7cbf d4eb fd3e
000002d0: 77f8 313f e6de 543e b244 7b3d 84f6 3abe
000002e0: 8cd5 a73f 18e9 49bf b027 993f bcf1 aabe
000002f0: 0ca2 493e 2de2 38bb 482c 893f 10eb 84be
00000300: 896a c83f e05e b13e dcf4 0a3c 42f5 d03e
00000310: eb72 e93f 5dc4 8abf 0448 933f 75e7 94be
00000320: eb2a be3e 58a2 213f f919 ca3f f82e f4be
00000330: 6c93 90bf 2683 edbd ffcd ae3d aca7 b5be
00000340: e1f0 e6bf 4ddb bc3e 5eac 89bf ca08 63be
00000350: b5b5 8a3e 6f75 0bbf 5780 91bf 4aec c83e
00000360: 1ff5 d23e 0ac9 0ebe d599 83be 3835 b23e
00000370: 3ae4 c63e d5e4 19be 61f4 803f 74c5 1bbe
00000380: e9d5 773c 3481 973e fc1c 753f 5489 04bf
00000390: c730 70bf 72cf 663d fba0 46be b15f 12bf
000003a0: d592 8dbf 0787 013e 434a df3e b88e ebbd
000003b0: 48fe 5ebd b1d2 853d f629 2c3e 7b3f 403e
000003c0: 4dbc 7bbf 35d5 5fbb 1691 1bbe 4ad3 28bf
000003d0: 9ebe 9cbf 3913 0b3f e1bb 8bbf 0614 bb3b
000003e0: c367 27bd 4241 aa3e 3f86 e8bf c021 933e
000003f0: d867 2f3f 5737 8c3d be5d abbd 3677 ed3d

actor.0.bias f4 [128]
-0.19038925 -0.21947946 0.3579452 0.03102381 0.14458011 0.1924436 -0.21732236 -0.19884534
0.15051416 0.17702463 0.00086080073 -0.084545724 0.2201708 -0.25804886 0.13871267 -0.26046258
0.29042432 0.10368286 -0.22401612 0.32386467 -0.29489368 -0.134968 0.09583814 0.11696015
0.2843248 -0.2913822 -0.30595064 -0.050332997 0.18449232 -0.19018541 -0.04110041 0.17803623
-0.02673368 -0.141961 0.042967018 -0.30883843 0.3244695 0.20544739 0.24846119 0.26913118
0.1834034 0.056350004 -0.07779043 -0.04569626 0.26195422 0.2536609 0.024502138 0.03494211
0.07660203 -0.2642159 0.108096726 0.10204871 -0.0039289617 0.11015523 0.06084131 -0.100350805
-0.029775245 0.36875305 -0.13938826 0.2792598 0.16823864 -0.07276892 -0.18159756 -0.06003143
0.21697918 0.24831404 0.35982993 0.10735222 -0.014212269 0.07159728 -0.28418285 -0.3348842
-0.053409234 0.3545066 0.3359264 0.2651441 -0.15255164 -0.014421904 -0.13836552 0.13870104
0.35699996 -0.2808746 -0.3498824 -0.09024525 0.4362123 0.2307529 0.05377461 0.2238784
0.26672456 0.19778036 -0.17483239 -0.36336902 -0.0579735 0.3254289 -0.42409194 0.16275452
-0.2536103 -0.2223872 -0.2207831 0.17028004 0.23371139 0.19691122 -0.15898387 0.19462088
-0.1317348 0.0029075374 0.20769762 -0.116289444 -0.017894058 -0.21304584 -0.02597718 0.38009906
0.14678957 -0.23658288 0.20511952 -0.2712027 0.11750614 -0.25757992 -0.34118402 0.22810788
-0.085943945 -0.05161584 0.10170437 -0.14235166 -0.29542574 -0.12953512 0.28555736 -0.14040112
00000000: 66f5 42be 39bf 60be 9844 b73e a525 fe3c
00000010: cf0c 143e ef0f 453e c189 5ebe 1d9e 4bbe
00000020: 6220 1a3e f245 353e 5ca7 613a 4f26 adbd
00000030: 7474 613e fb1e 84be b20a 0e3e 5a5b 85be
00000040: 7fb2 943e ae57 d43d 7b64 65be 97d1 a53e
00000050: 4efc 96be 0d35 0abe c946 c43d ce88 ef3d
00000060: 0593 913e 0c30 95be 90a5 9cbe f929 4ebd
00000070: 8eeb 3c3e f7bf 42be e758 28bd 214f 363e
00000080: 9700 dbbc 395e 11be 2ffe 2f3d 1220 9ebe
00000090: de20 a63e cd60 523e 9c6c 7e3e 90cb 893e
000000a0: 1ace 3b3e 43cf 663d 9750 9fbd 002c 3bbd
000000b0: dd1e 863e d7df 813e b5b8 c83c 751f 0f3d
000000c0: 86e1 9c3d 4e47 87be d161 dd3d eafe d03d
000000d0: 85be 80bb 1199 e13d bd34 793d b984 cdbd
000000e0: 37eb f3bc 33cd bc3e ccbb 0ebe 24fb 8e3e
000000f0: c046 2c3e df07 95bd b6f4 39be 84e3 75bd
00000100: ca2f 5e3e 0946 7e3e a13b b83e 7bdb db3d
00000110: 94da 68bc 98a1 923d 6a80 91be f175 abbe
00000120: a4c3 5abd e481 b53e 8cfe ab3e f8c0 873e
00000130: 7f36 1cbe da49 6cbc b1af 0dbe a507 0e3e
00000140: b3c8 b63e ccce 8fbe c923 b3be 80d2 b8bd
00000150: 3857 df3e 7d4a 6c3e c442 5c3d 6140 653e
00000160: 1f90 883e ef86 4a3e 4307 33be 810b babe
00000170: 9f75 6dbd 9e9e a63e 9422 d9be 1fa9 263e
00000180: 36d9 81be 78b9 63be f714 62be e45d 2e3e
00000190: 0a52 6f3e 18a3 493e abcc 22be b24a 473e
000001a0: 7de5 06be 628c 3e3b afae 543e 2929 eebd
000001b0: 8f96 92bc b028 5abe 18ce d4bc 589c c23e
000001c0: 0150 163e c842 72be da0a 523e 15db 8abe
000001d0: 0fa7 f03d 84e1 83be acaf aebe 1d95 693e
000001e0: 6103 b0bd 226b 53bd 614a d03d a2c4 11be
000001f0: 0b42 97be dba4 04be 9334 923e 50c5 0fbe

actor.2.weight f4 [128, 128]
-0.046782766 0.09614311 0.089169584 -0.09045046 0.025117807 -0.033295438 -0.019525906 0.0147100035
-0.08016252 0.014752478 0.045842845 0.0026573022 -0.092989385 0.058367062 0.091525815 0.053438004
0.09127056 0.004247266 -0.003705714 0.05871143 0.09344578 -0.00896904 -0.04647002 -0.044827297
0.06694526 0.003050303 0.043138523 -0.018314097 -0.02579778 0.058830854 0.04222585 -0.040165223
-0.028048871 -0.040707298 -0.02244897 0.005375279 -0.008475275 -0.011935438 -0.012363433 0.031050444
-0.06605366 0.043656975 0.02262434 -0.059667837 0.04881675 0.005908534 0.040096473 0.059076287
-0.09557169 -0.052815344 0.08302612 0.05842179 0.045031212 0.025338547 -0.038120646 0.034792937
0.011320216 0.07304123 0.0161476 0.016629217 0.08038995 0.06971032 0.067286685 -0.072327055
0.037674088 0.030341951 -0.15031268 0.001025859 0.01861811 0.0075239483 0.039704785 0.008764684
0.020409843 -0.01948674 0.010693546 0.046119794 0.09854995 -0.035360266 0.026443271 -0.057937413
0.053697467 -0.090710185 0.019121397 0.07667926 -0.09042367 0.08290928 -0.10963515 0.09493978
-0.066141486 0.06948023 0.0321423 0.081294 0.029431632 0.048705176 0.02400706 0.054675784
-0.06664552 -0.042264637 0.08120808 -0.018504797 -0.0077664633 0.04222426 -0.020268029 0.005469287
-0.07305282 -0.038651876 0.106786214 -0.00035073663 -0.08076453 0.011276121 0.008156601 -0.047617864
-0.022074645 -0.06401618 0.025131378 -0.010164001 0.07390072 -0.005342222 -0.08207833 0.02999024
0.09419204 -0.08036371 0.08237945 0.08267082 0.027348235 -0.047809318 0.037389018 -0.07035472
0.14233147 0.052088555 0.024665833 -0.1457397 -0.11322228 0.053543627 0.037540827 0.08078206
0.062044416 0.067964725 0.016646395 -0.12756598 -0.066351645 0.008770393 0.011082171 -0.0137624
-0.01251531 -0.41473472 -0.055366956 -0.0021150403 0.41582915 -0.17226772 -0.02834196 0.03952703
0.017718885 0.04477486 -0.09271143 0.028537309 0.024146093 0.027094586 0.02589419 -0.039366867
0.07162962 0.24499388 -0.5934993 -0.02322667 -0.06983107 0.056169745 -0.0800654 0.04403215
-0.06858408 -1.3009403 -0.0093119 -0.08957325 0.065989554 0.021734849 0.074945286 -0.31145623
-0.08291092 -0.013976689 0.077746905 0.24567126 -0.087892555 -0.033375956 -0.020436099 -0.020678252
-0.022443607 0.021787696 -0.06581891 -0.041746497 0.024184149 -0.16385671 0.07789598 0.088366136
-0.07396208 -0.06622317 -0.41578022 0.049444348 -0.68219614 -0.043511044 -0.113603726 -0.025014028
-0.025873978 0.024809977 -0.018935703 -0.043053456 0.1434448 0.016625969 0.15461805 0.03945259
0.05071486 -0.21769665 0.15258142 0.030133817 -0.046198964 0.08666161 -0.11697204 0.021865234
-0.05071532 -0.015883617 0.5159808 0.59527254 0.28949925 -0.049024146 -0.01792417 0.11312168
0.018032663 0.095569514 0.14061873 -0.051271237 0.0085756 -0.006080017 0.058419235 -0.046188068
0.036967617 -0.041289493 0.20313859 0.32808685 -0.067759916 -0.003533358 0.021773277 0.051846486
0.089118846 -0.104470626 -0.011778091 -0.08947129 0.02474559 -0.018315712 -0.12203884 -0.28010046
0.10283802 0.05455711 -0.107947424 0.02885538 -0.22166713 0.10086906 0.012206562 0.03132972
00000000: 499f 3fbd aee6 c43d 8b9e b63d 173e b9bd
00000010: dcc3 cd3c cc60 08bd cbf4 9fbc 3a02 713c
00000020: 3f2c a4bd 61b4 713c b5c5 3b3d 2226 2e3b
00000030: 3871 bebd 4d12 6f3d e371 bb3d cfe1 5a3d
00000040: 0fec ba3d a62c 8b3b 90db 72bb 657b 703d
00000050: 8060 bf3d e1f2 12bc 5957 3ebd d49c 37bd
00000060: 991a 893d 98e7 473b 05b2 303d 7207 96bc
00000070: de55 d3bc 9ff8 703d 03f5 2c3d 4a84 24bd
00000080: bfc6 e5bc b2bc 26bd e7e6 b7bc 1c23 b03b
00000090: e1db 0abc db8c 43bc ff8f 4abc 805d fe3c
000000a0: 2447 87bd a8d1 323d ae56 b93c 4366 74bd
000000b0: 13f4 473d 609c c13b 333c 243d faf9 713d
000000c0: 17bb c3bd e754 58bd 9909 aa3d b04b 6f3d
000000d0: a672 383d c992 cf3c 6524 1cbd 0a83 0e3d
000000e0: 6d78 393c a496 953d f947 843c ff39 883c
000000f0: 7ca3 a43d 49c4 8e3d 9acd 893d 3520 94bd
00000100: 2550 1a3d af8f f83c 91eb 19be 1e76 863a
00000110: 0285 983c 748b f63b 7ca1 223d c099 0f3c
00000120: 8b32 a73c a8a2 9fbc fc33 2f3c 1ce8 3c3d
00000130: 8ed4 c93d edd5 10bd 8f9f d83c c84f 6dbd
00000140: e0f1 5b3d 43c6 b9bd 7aa4 9c3c 040a 9d3d
00000150: 0c30 b9bd 57cc a93d 6588 e0bd ca6f c23d
00000160: 3075 87bd a74b 8e3d a5a7 033d 787d a63d
00000170: 9b1a f13c 147f 473d 74aa c43c b7f3 5f3d
00000180: 727d 88bd af1d 2dbd 6c50 a63d 5f97 97bc
00000190: d17d febb 58f3 2c3d 2309 a6bc b437 b33b
000001a0: b89c 95bd 6e51 1ebd bbb2 da3d 13e3 b7b9
000001b0: e067 a5bd 7bbf 383c 44a3 053c f30a 43bd
000001c0: e3d5 b4bc ea1a 83bd 52e0 cd3c e986 26bc
000001d0: 4359 973d ce0d afbb af18 a8bd 17ae f53c
000001e0: c2e7 c03d bb95 a4bd 8fb6 a83d 524f a93d
000001f0: 6809 e03c b4d3 43bd 3a25 193d 2316 90bd
00000200: 57bf 113e cf5a 553d 0010 ca3c ca3c 15be
00000210: 15e1 e7bd 9050 5b3d 69c4 193d 1171 a53d
00000220: 4922 7e3d 1731 8b3d 055e 883c a8a0 02be
00000230: 5fe3 87bd b2b1 0f3c ff91 353c b07b 61bc
00000240: 040d 4dbc 1c58 d4be 76c8 62bd 7d9c 0abb
00000250: 8fe7 d43e f366 30be 662d e8bc 18e7 213d
00000260: 3227 913c d865 373d 7ddf bdbd 13c7 e93c
00000270: 07ce c53c 77f5 dd3c 0d20 d43c 273f 21bd
00000280: 8db2 923d addf 7a3e 92ef 17bf dc45 bebc
00000290: 9803 8fbd 3f12 663d 54f9 a3bd 0e5b 343d
000002a0: cf75 8cbd 3685 a6bf f090 18bc 2e72 b7bd
000002b0: 8825 873d 480d b23c ea7c 993d 3177 9fbe
000002c0: 33cd a9bd 7cfe 64bc c539 9f3d 3f91 7b3e
000002d0: 0301 b4bd 3ab5 08bd 9b69 a7bc 7065 a9bc
000002e0: a8db b7bc 1c7c b23c 11cc 86bd 60fe 2abd
000002f0: d61d c63c 0eca 27be ed87 9f3d 4ef9 b43d
00000300: 6e79 97bd 03a0 87bd 25e1 d4be 2886 4a3d
00000310: 68a4 2ebf a338 32bd 12a9 e8bd 38ea ccbc
00000320: aaf5 d3bc 4b3e cb3c 0c1f 9bbc d258 30bd
00000330: 32e3 123e 2f33 883c 3254 1e3e 0a99 213d
00000340: 63ba 4f3d dfeb 5ebe 4e3e 1c3e 32db f63c
00000350: 203b 3dbd a47b b13d 098f efbd b81e b33c
00000360: deba 4fbd 5c1e 82bc 5117 043f c863 183f
00000370: 3f39 943e 8bcd 48bd b5d5 92bc 57ac e73d
00000380: 3cb9 933c f3b9 c33d 5bfe 0f3e ca01 52bd
00000390: ac80 0c3c e13a c7bb 0249 6f3d b32f 3dbd
000003a0: 5b6b 173d 2c1f 29bd 9003 503e 00fb a73e
000003b0: b6c5 8abd e98f 67bb df5d b23c fb5c 543d
000003c0: f183 b63d b2f4 d5bd e5f8 40bc b93c b7bd
000003d0: 43b7 ca3c d50a 96bc 80ef f9bd 5469 8fbe
000003e0: bd9c d23d 4777 5f3d 8a13 ddbd 1e62 ec3c
000003f0: b5fc 62be 7094 ce3d 08fe 473c 9853 003d

actor.2.bias f4 [128]
-0.052161746 -0.06133902 -0.086444914 -0.07658738 0.04071015 0.07250506 0.029907636 0.029806023
-0.005487649 -0.016512332 -0.07356974 0.017149577 -0.021997921 -0.011348193 0.0026532519 -0.06132496
-0.022234654 0.05914745 0.08479083 0.013900343 0.036657166 -0.05283875 -0.0243321 -0.06488664
-0.047366183 -0.07126291 0.033253264 0.027982706 0.025485283 0.024652492 -0.00378039 0.03266867
0.050326653 0.025796413 0.027498057 -0.04854244 0.07933206 -0.05462171 0.013489676 0.04426931
0.023863921 -0.085074045 0.061336204 0.039857678 -0.024600739 0.06499069 0.05800774 -0.0051023453
0.038081598 -0.07049953 -0.016552541 0.009710459 0.06508992 0.034880355 -0.075027294 0.014508605
0.008245944 -0.053939257 0.043157335 0.08485874 0.035263564 0.011915398 -0.060584635 -0.054226536
-0.073869385 -0.013173234 -0.034808323 0.06309653 -0.025301576 -0.05529247 -0.009462544 0.06037014
-0.08622637 -0.03637521 0.021950128 0.055905893 0.07982435 0.017485205 0.011124525 -0.015461484
0.055096768 0.095850244 -0.002979859 -0.0062744096 -0.004960095 -0.011846191 -0.033216804 0.043137968
-0.040448613 0.07196842 0.0004009715 0.042056974 0.023044026 0.026013771 0.040712092 -0.02859933
-0.015069985 0.052160878 -0.081011854 -0.072084844 0.053525817 0.0829463 -0.029646393 -0.015152417
-0.0016998561 -0.03764423 -0.09163704 0.008251954 -0.04215061 -0.031455636 -0.018338544 -0.022890724
-0.003127617 -0.07001408 -0.05161848 0.071428336 -0.04072668 -0.0041747787 0.03671355 0.001222711
0.042254478 0.0703931 0.06478425 0.027959742 0.031208416 -0.0022994871 -0.079480074 -0.008789233
00000000: 8ea7 55bd a03e 7bbd 080a b1bd d8d9 9cbd
00000010: b0bf 263d 887d 943d dc00 f53c c32b f43c
00000020: bcd1 b3bb df44 87bc bbab 96bd 457d 8c3c
00000030: fc34 b4bc c5ed 39bc 2ee2 2d3b e22f 7bbd
00000040: 7325 b6bc 9944 723d d1a6 ad3d 44be 633c
00000050: d325 163d 726d 58bd 1d54 c7bc 49e3 84bd
00000060: 0b03 42bd 4af2 91bd 9334 083d fd3b e53c
00000070: 83c6 d03c 06f4 c93c 6bc0 77bb 95cf 053d
00000080: 5223 4e3d 0053 d33c 9b43 e13c 70d4 46bd
00000090: d978 a23d 04bb 5fbd cd03 5d3c bc53 353d
000000a0: 457e c33c 4d3b aebd ac3b 7b3d ce41 233d
000000b0: 7d87 c9bc d719 853d 8699 6d3d 9331 a7bb
000000c0: 73fb 1b3d 0f62 90bd 3299 87bc 9e18 1f3c
000000d0: dd4d 853d b4de 0e3d e9a7 99bd 80b5 6d3c
000000e0: ff19 073c 69ef 5cbd bfc5 303d 6bca ad3d
000000f0: 8770 103d cd38 433c 9827 78bd a51c 5ebd
00000100: d548 97bd 8cd4 57bc 2c93 0ebd c138 813d
00000110: 4045 cfbc 5b7a 62bd c908 1bbc ae46 773d
00000120: 7397 b0bd 2cfe 14bd c1d0 b33c 94fd 643d
00000130: f37a a33d 223d 8f3c a443 363c 2a52 7dbc
00000140: 26ad 613d 224d c43d bd49 43bb 9099 cdbb
00000150: 4b88 a2bb 8716 42bc 580e 08bd 70b1 303d
00000160: 72ad 25bd 2e64 933d 7c39 d239 ef43 2c3d
00000170: d3c6 bc3c d51a d53c b9c1 263d 2449 eabc
00000180: 19e8 76bc a5a6 553d 8be9 a5bd 38a1 93bd
00000190: e33d 5b3d c0df a93d fedc f2bc d841 78bc
000001a0: b5cd deba d630 1abd 33ac bbbd 3433 073c
000001b0: 1ea6 2cbd a0d7 00bd b73a 96bc 5485 bbbc
000001c0: b5f8 4cbb 8b63 8fbd e66d 53bd 0549 923d
000001d0: 05d1 26bd 95cc 88bb f360 163d 6043 a03a
000001e0: 0813 2d3d 422a 903d 9bad 843d d40b e53c
000001f0: cba8 ff3c feb2 16bb 73c6 a2bd b700 10bc

actor.4.weight f4 [128, 128]
0.05419469 0.17582469 0.032873277 0.024073817 -0.029100763 -0.08646739 0.14384264 0.1116259
-0.013824565 -0.004205126 -0.008336537 -0.010847537 0.19620799 -0.0021891866 0.0045543257 -0.1780392
0.036685254 -0.039588798 -0.07727663 0.08124548 0.15279305 -0.0040769735 -0.04467301 -0.026638139
0.035644688 0.17727618 -0.025837427 0.030197686 0.22041382 -0.09454318 0.107248336 0.09218558
0.004662181 -0.0076924455 0.020651776 0.010143927 -0.13774112 0.000851774 -0.057325948 0.019844968
0.034437377 -0.011767592 -0.0075501027 -0.06706883 -0.022845257 0.02795666 -0.087856606 -0.044989973
-0.05367506 -0.016562019 -0.15587321 0.0033129842 -0.09808793 0.031147942 0.09114373 -0.11208368
0.046761446 0.014074369 0.059104595 -0.008440575 0.058427922 0.019177744 -0.011091942 0.15287463
0.19226098 -0.007383032 -0.1278393 0.033094168 0.09375822 -0.11794532 -0.10572914 -0.08869659
0.030376976 -0.07781291 -0.10362354 -0.04442924 -0.026143594 -0.011475228 -0.087265156 0.009787062
0.06464501 0.02337124 0.13976236 0.06969616 0.05440771 -0.045652885 -0.1133977 0.024167076
-0.02144865 0.11976988 0.028779987 -0.06814788 0.028773066 0.079929605 0.003732223 0.083364196
-0.021494422 -0.08311213 0.016545853 0.012671614 -0.059972394 -0.042679057 0.004588458 0.032373324
0.09944989 -0.10200084 -0.18007858 0.042297386 -0.008341025 -0.19989337 0.057930343 -0.03278127
0.047444053 0.06755257 -0.002064207 0.12976134 -0.022856599 0.031018186 -0.07610026 0.11305738
-0.013079048 0.003932636 -0.16283715 -0.08100636 -0.009816542 0.017269783 0.023306282 -0.04255986
0.06443919 0.009237298 -0.011476687 0.0008634302 0.069495015 -0.13703035 0.09181505 0.04383903
0.01860644 0.038128108 0.07741726 -0.06038069 0.17186877 0.06896997 -0.016226007 -0.15631473
-0.009882757 0.010261901 -0.05278751 0.21324173 0.052277483 -0.06190129 0.016877864 -0.04622579
0.077529185 0.10306626 0.022950657 -0.03617999 0.20680127 -0.011925803 -0.018691598 0.2068322
0.00020471294 0.07163771 0.055391967 0.007579764 -0.14818166 0.029140383 0.006653638 -0.04537489
0.00042527937 -0.06841858 0.035710063 -0.086708896 -0.12638909 0.09231852 -0.021602 -0.021210896
0.011856252 -0.050015282 -0.26558757 -0.014093957 -0.0025869834 0.02832919 0.18236838 -0.16770494
-0.006060485 0.014440607 -0.06762602 -0.042004876 -0.012054256 0.122733034 -0.13003433 0.11864377
0.08232194 0.11541089 -0.01855 0.1091578 0.08514068 0.026247835 -0.13709232 -0.044477563
0.063714094 0.012930027 -0.14325826 -0.07463675 -0.086710595 0.120867975 -0.055188794 -0.06315561
0.022521222 -0.06365925 0.08125971 0.107604235 -0.01409472 -0.0023240042 -0.03286283 -0.04700947
0.0046215053 0.07535499 -0.020122178 0.019617153 -0.053173743 0.1182718 -0.013787616 -0.032507442
-0.076399446 0.03158318 -0.036292568 0.041822094 0.009699752 -0.05429312 0.07336737 0.12510154
0.05482375 -0.10187956 -0.091491535 -0.07642895 -0.059824582 -0.19346404 0.036622833 -0.07447007
0.11947497 0.09592478 0.04201804 0.17003722 -0.107325174 -0.09398463 -0.14095202 0.05650764
-0.023908902 0.074269496 -0.2362745 -0.051964186 0.005431774 -0.032486193 0.07558298 -0.12536027
00000000: 40fb 5d3d 630b 343e 21a6 063d 7436 c53c
00000010: b964 eebc d115 b1bd 7c4b 133e 1f9c e43d
00000020: 6e80 62bc 27cb 89bb f895 08bc deb9 31bc
00000030: bfea 483e 7578 0fbb 743c 953b e84f 36be
00000040: 4743 163d dd27 22bd 3643 9ebd 0864 a63d
00000050: c875 1c3e 2298 85bb 0cfb 36bd 3a38 dabc
00000060: 2a00 123d e387 353e 03a9 d3bc 2361 f73c
00000070: 29b4 613e db9f c1bd 04a5 db3d cbcb bc3d
00000080: 35c5 983b e910 fcbb ea2d a93c b732 263c
00000090: 020c 0dbe 9649 5f3a 9dce 6abd ea91 a23c
000000a0: 350e 0d3d dccc 40bc da66 f7bb 625b 89bd
000000b0: fa25 bbbc 5e05 e53c 2aee b3bd 6847 38bd
000000c0: 61da 5bbd 12ad 87bc 3a9d 1fbe a71e 593b
000000d0: 53e2 c8bd f829 ff3c 90a9 ba3d 218c e5bd
000000e0: ee88 3f3d 2f98 663c a917 723d 564a 0abc
000000f0: 1e52 6f3d a51a 9d3c faba 35bc 2b8b 1c3e
00000100: 10e0 443e 5ced f1bb 4ee8 02be c08d 073d
00000110: 4f04 c03d 518d f1bd 8588 d8bd 8fa6 b5bd
00000120: 23d9 f83c 605c 9fbd 9438 d4bd 6ffb 35bd
00000130: 172b d6bc 9802 3cbc 13b8 b2bd ea59 203c
00000140: 9a64 843d 0b75 bf3c dd1d 0f3e dcbc 8e3d
00000150: 9eda 5e3d 85fe 3abd 0e3d e8bd 08fa c53c
00000160: 14b5 afbc e949 f53d 02c4 eb3c 1e91 8bbd
00000170: 7eb5 eb3c 22b2 a33d 5098 743b d9ba aa3d
00000180: 1215 b0bc b136 aabd 2b8b 873c 9a9c 4f3c
00000190: 9da5 75bd 3cd0 2ebd c75a 963b e499 043d
000001a0: 62ac cb3d d1e5 d0bd 8566 38be 0640 2d3d
000001b0: cba8 08bc d9b0 4cbe 5e48 6d3d a745 06bd
000001c0: b254 423d 0059 8a3d a647 07bb 28e0 043e
000001d0: c33d bbbc da19 fe3c 74da 9bbd a18a e73d
000001e0: 8149 56bc 58dd 803b c8be 26be aae6 a5bd
000001f0: 90d5 20bc 5c79 8d3c d1ec be3c 3f53 2ebd
00000200: b2f8 833d 0958 173c b708 3cbc d257 623a
00000210: 6753 8e3d af51 0cbe 8709 bc3d 8e90 333d
00000220: 886c 983c 382c 1c3d f18c 9e3d be51 77bd
00000230: 5efe 2f3e 2140 8d3d 67ec 84bc f810 20be
00000240: 4aeb 21bc 8821 283c b737 58bd 0a5c 5a3e
00000250: ea20 563d 358c 7dbd 7243 8a3c 4157 3dbd
00000260: 9fc7 9e3d 6714 d33d 0403 bc3c 7831 14bd
00000270: b6c3 533e 7164 43bc 1f1f 99bc d2cb 533e
00000280: 36a8 5639 cbb6 923d b0e2 623d ab5f f83b
00000290: efbc 17be d0b7 ee3c c306 da3b 05db 39bd
000002a0: 08f8 de39 0a1f 8cbd b744 123d 6f94 b1bd
000002b0: 246c 01be 7e11 bd3d adf6 b0bc 79c2 adbc
000002c0: ba40 423c d3dc 4cbd 18fb 87be 57ea 66bc
000002d0: 618a 29bb 9e12 e83c c7be 3a3e d8ba 2bbe
000002e0: 0897 c6bb 4c98 6c3c 837f 8abd 4e0d 2cbd
000002f0: 377f 45bc 755b fb3d b827 05be 81fb f23d
00000300: 6898 a83d 8b5c ec3d 2bf6 97bc 208e df3d
00000310: 3d5e ae3d b305 d73c ee61 0cbe 1b2e 36bd
00000320: 897c 823d 77d8 533c 4bb2 12be 27db 98bd
00000330: 5395 b1bd a189 f73d a50d 62bd ba57 81bd
00000340: 6d7e b83c c85f 82bd 7e6b a63d 9c5f dc3d
00000350: 8aed 66bc 524e 18bb 2d9b 06bd 018d 40bd
00000360: ff6f 973b b853 9a3d 44d7 a4bc 27b4 a03c
00000370: b6cc 59bd 7c38 f23d 74e5 61bc 8626 05bd
00000380: 5077 9cbd 5d5d 013d 84a7 14bd a54d 2b3d
00000390: b5eb 1e3c 7662 5ebd a241 963d 9e1a 003e
000003a0: de8e 603d 3ba6 d0bd ea5f bbbd c886 9cbd
000003b0: 9f0a 75bd 701b 46be d301 163d c483 98bd
000003c0: 4baf f43d 3674 c43d 1c1b 2c3d 3d1e 2e3e
000003d0: 4dcd dbbd 047b c0bd ba55 10be 8e74 673d
000003e0: 9adc c3bc 9b1a 983d f1f1 71be 66d8 54bd
000003f0: 06fd b13b 3e10 05bd 40cb 9a3d 715e 00be

actor.4.bias f4 [128]
0.069962524 0.06269882 -0.0038699328 0.044582132 0.05591373 0.0042456435 -0.0487374 -0.052288774
0.004240539 -0.031198435 -0.02863257 -0.02541035 0.019195527 -0.05150584 0.034561295 0.0040921248
-0.019833675 0.029085433 -0.015543035 -0.0012466351 -0.051604576 -0.065325625 0.0691405 0.017743994
0.07483286 -0.0074889534 -0.042810928 -0.02307151 -0.0656957 0.04477489 0.06936987 0.038551264
0.020398794 0.020315468 0.069780126 0.036721114 -0.039796807 0.017301634 -0.072403446 0.029775532
0.019352155 -0.025760049 0.010235861 -0.0054239263 0.028897323 0.00211861 -0.037128817 -0.026376138
-0.023468688 -0.05789033 -0.03372091 0.005379986 0.019908456 0.01431736 0.0490068 -0.04281661
-0.022514585 -0.00100779 -0.03854029 0.058407288 -0.009880089 -0.011921536 0.05839112 0.050809413
0.0517723 -0.032445915 -0.040127415 0.04189455 -0.014493778 -0.071473226 -0.009780746 0.042044446
0.014583842 -0.030126397 -0.0093823075 -0.0456271 0.05049889 0.03504164 0.0443734 -0.03315077
-0.017704753 -0.0068454295 -0.026123127 0.049088743 0.0056661684 0.064213276 0.03359938 -0.046779856
-0.05252687 -0.07406374 -0.026338924 -0.045718916 -0.050408427 0.027723735 -0.017113252 0.027093755
-0.027512383 0.038868997 -0.024395728 0.033498593 -0.015593428 0.015410021 0.03806205 0.020430446
0.038691446 0.0487977 0.0027586948 0.019526321 0.011028588 0.04057484 -0.008385039 -0.036304373
-0.061199132 0.010675125 0.05668072 0.0470103 -0.0068695797 0.013383057 -0.03785724 -0.052459363
-0.016840134 0.06651291 0.022931874 0.032125756 0.018671436 0.09471465 -0.010797525 -0.06253444
00000000: 8348 8f3d 3d68 803d b39e 7dbb c19b 363d
00000010: cc05 653d 0a1f 8b3b dea0 47bd c12c 56bd
00000020: 38f4 8a3b dc93 ffbc da8e eabc 5e29 d0bc
00000030: f03f 9d3c caf7 52bd 2590 0d3d 3b17 863b
00000040: 3b7a a2bc 9344 ee3c 37a8 7ebc 2266 a3ba
00000050: 525f 53bd 71c9 85bd 8999 8d3d da5b 913c
00000060: f841 993d e565 f5bb 835a 2fbd 7700 bdbc
00000070: 788b 86bd e065 373d ca11 8e3d eee7 1d3d
00000080: 5f1b a73c a06c a63c e2e8 8e3d e168 163d
00000090: fa01 23bd 28bc 8d3c 4248 94bd d1eb f33c
000000a0: 6988 9e3c bd06 d3bc 50b4 273c 31bb b1bb
000000b0: 14ba ec3c 61d8 0a3b 6314 18bd c512 d8bc
000000c0: 6841 c0bc 691e 6dbd f01e 0abd 984a b03b
000000d0: 0f17 a33c 5c93 6a3c 5bbb 483d 7860 2fbd
000000e0: 8270 b8bc d217 84ba 6cdc 1dbd 7b3c 6f3d
000000f0: 19e0 21bc 8c52 43bc 872b 6f3d 881d 503d
00000100: 310f 543d 02e6 04bd a55c 24bd 9f99 2b3d
00000110: 5077 6dbc 8e60 92bd 6c3f 20bc cc36 2c3d
00000120: 11f1 6e3c a2cb f6bc 40b8 19bc 7be3 3abd
00000130: edd7 4e3d d387 0f3d e2c0 353d 1ac9 07bd
00000140: 8f09 91bc a04f e0bb 2b00 d6bc 4711 493d
00000150: 44ab b93b 4082 833d 819f 093d 3c9c 3fbd
00000160: 6a26 57bd bbae 97bd bac4 d7bc c243 3bbd
00000170: 1179 4ebd e31c e33c 1731 8cbc b9f3 dd3c
00000180: a661 e1bc 1935 1f3d 8dd9 c7bc d235 093d
00000190: 947b 7fbc 507a 7c3c f4e6 1b3d c05d a73c
000001a0: ec7a 1e3d 19e0 473d 38cb 343b aaf5 9f3c
000001b0: 40b1 343c ce31 263d 6761 09bc e5b3 14bd
000001c0: f1ab 7abd b8e6 2e3c 0b2a 683d df8d 403d
000001d0: 361a e1bb 9c44 5b3c 3110 1bbd a1df 56bd
000001e0: 52f4 89bc ec37 883d a0db bb3c 4c96 033d
000001f0: d7f4 983c c1f9 c13d 1ae8 30bc 0e12 80bd

actor.7.weight f4 [128, 128]
-0.095777154 0.053733874 -0.11883473 -0.011323453 0.013779914 0.022893528 -0.030212171 -0.07867417
-0.019292297 0.087667935 0.005696377 -4.580767e-05 0.0470333 0.04217731 0.022174163 0.031538766
-0.022525458 -0.12622385 0.018520925 -0.021196324 0.07561276 -0.054560587 0.0032743337 0.09395722
-0.0820199 0.08757341 0.041629124 0.061918948 -0.059430216 -0.039480746 0.13542993 0.06328843
0.04985427 -0.048959628 -0.025538143 -0.005206999 -0.0739797 0.0066922987 -0.024450598 0.06595333
0.009567968 0.07635732 -0.12607534 0.0394256 -0.009282996 -0.064104445 -0.006314821 0.013629073
-0.04967549 -0.043537393 -0.0066749696 -0.03872071 -0.031814437 -0.058368478 0.002465596 -0.1849977
-0.09407986 0.13357086 -0.022269187 -0.058686804 0.009439858 0.09211136 0.09893784 -0.07024791
0.006785784 -0.04880779 -0.058906972 0.069054194 -0.0060725813 -0.029204026 0.019211369 0.10118697
-0.007909242 -0.10240601 0.011032011 -0.044926643 -0.009104244 0.15328622 0.0035206906 -0.07524732
-0.007978626 -0.071175255 0.05563794 0.0363806 0.16007988 0.045276713 0.08654939 -0.13584459
-0.06352738 0.12225194 0.002619979 0.0018509442 0.043057065 0.010216324 0.08719674 -0.050956354
0.002165352 0.1513322 0.15123966 -0.05274707 0.059203643 -0.021026554 0.013773732 0.01520426
-0.10752931 -0.048972324 -0.047970608 0.06937559 0.031034304 0.12251794 -0.032410756 0.082563
-0.020975392 0.035262074 -0.015019085 -0.04745547 0.007912084 -0.008496936 -0.035458304 0.05467017
0.124223456 -0.0031399922 -0.12657388 -0.057298668 -0.0009108821 0.021082062 0.12902702 -0.018095693
-0.21011557 -0.14576104 0.027367044 -0.016049076 -0.015622197 0.016770491 0.20488699 -0.0020304227
0.014399935 0.17975049 -0.18011405 0.035670437 -0.003537998 0.049460188 -0.051461227 -0.08853733
-0.00024705965 -0.065950625 -0.11727328 -0.051507775 0.02054102 -0.007583416 0.013331093 -0.007095074
0.036410064 0.00934814 0.23338328 0.019452978 -0.26162693 0.08156159 -0.0016548553 -0.02457755
0.03575719 -0.22438349 -0.21364383 0.0140219685 -0.13754779 -0.07349054 0.019288003 -0.0027804226
0.02800507 -0.13810663 0.058679186 -0.04887195 0.039046228 0.23473911 -0.12099516 0.004329887
-0.12526345 0.0034014294 0.027475942 0.23086467 -0.21041903 -0.0074747875 0.073321894 0.03660724
0.15321271 0.014601915 0.10774049 -0.28221834 0.15590778 0.01286092 -0.02933037 -0.17575808
-0.24429974 0.0008408279 0.03757811 -0.023813354 -0.16198012 0.16033025 -0.21007277 0.008100864
0.025820423 -0.021173766 -0.14884934 -0.0070262663 0.045470938 0.016162282 0.010056878 -0.002505896
-0.14698696 0.19630098 -0.14042093 -0.101258226 -0.023256967 0.025821535 0.025772411 -0.00562547
0.13763277 0.005671382 -0.012352551 0.0066498066 0.17576344 0.13470499 0.22408584 0.19605373
-0.024847781 -0.05990008 -0.01671053 0.13935418 -0.09445644 -0.04951208 -0.08087171 -0.031805158
-0.15561639 -0.0011502873 0.08880273 0.056844246 -0.07946008 -0.044614755 -0.19182937 -0.0025053606
0.017068323 -0.08374027 -0.23425773 -0.0065813423 -0.026634527 -0.0124568185 -0.03852435 -0.021372454
-0.028603554 -0.024076836 0.05811501 -0.0026078266 0.037169162 0.004508454 0.014608103 0.044981647
00000000: d026 c4bd 0d18 5c3d 9f5f f3bd 0186 39bc
00000010: 26c5 613c 358b bb3c 847f f7bc ec1f a1bd
00000020: e10a 9ebc 3f8b b33d aca8 ba3b 9c21 40b8
00000030: fda5 403d 1dc2 2c3d 97a6 b53c cb2e 013d
00000040: 4f87 b8bc d340 01be 32b9 973c eaa3 adbc
00000050: ddda 9a3d ec7a 5fbd 3496 563b a56c c03d
00000060: 0dfa a7bd b059 b33d 4d83 2a3d b99e 7d3d
00000070: 196d 73bd 90b6 21bd 25ae 0a3e 5d9d 813d
00000080: fe33 4c3d e489 48bd 5e35 d1bc 799f aabb
00000090: ab82 97bd 124b db3b 9f4c c8bc 8a12 873d
000000a0: f7c2 1c3c 3a61 9c3d e519 01be bd7c 213d
000000b0: b517 18bc 3149 83bd 8fec cebb 7a4c 5f3c
000000c0: 8778 4bbd 4454 32bd b4b9 dabb 9b99 1ebd
000000d0: db4f 02bd c913 6fbd d695 213b 0970 3dbe
000000e0: f1ac c0bd cdc6 083e df6d b6bc 9361 70bd
000000f0: a2a9 1a3c e1a4 bc3d ec9f ca3d 23de 8fbd
00000100: 485b de3b adea 47bd 7048 71bd 496c 8d3d
00000110: 81fc c6bb 483d efbc 2961 9d3c 1d3b cf3d
00000120: c495 01bc 3eba d1bd 9cbf 343c 0005 38bd
00000130: f829 15bc 10f7 1c3e 63bb 663b 441b 9abd
00000140: c8b8 02bc 55c4 91bd 9ce4 633d d303 153d
00000150: fbeb 233e 1374 393d ce40 b13d d81a 0bbe
00000160: a51a 82bd 3a5f fa3d f4b3 2b3b 629b f23a
00000170: 9b5c 303d 5e62 273c 3494 b23d 9cb7 50bd
00000180: 94e8 0d3b d4f6 1a3e 92de 1a3e 500d 58bd
00000190: 857f 723d e13f acbc 38ab 613c 4a1b 793c
000001a0: 5438 dcbd 3497 48bd d47c 44bd ca14 8e3d
000001b0: a73b fe3c b0ea fa3d 24c1 04bd ca16 a93d
000001c0: 96d4 abbc f76e 103d 9c12 76bc ab60 42bd
000001d0: b0a1 013c bc36 0bbc ba3c 11bd d4ed 5f3d
000001e0: de68 fe3d 54c8 4dbb 959c 01be 02b2 6abd
000001f0: 43c8 6eba 4ab4 ac3c a91f 043e 6b3d 94bc
00000200: 8928 57be 6242 15be da30 e03c 5a79 83bc
00000210: 3ef4 7fbc 4562 893c e5cd 513e d710 05bb
00000220: b4ed 6b3c 8310 383e d16f 38be 2a1b 123d
00000230: c2dd 67bb c496 4a3d 02c9 52bd 0f53 b5bd
00000240: c987 81b9 1f11 87bd f92c f0bd d1f9 52bd
00000250: a445 a83c 4e7e f8bb a86a 5a3c cb7d e8bb
00000260: b822 153d f128 193c 07fc 6e3e da5b 9f3c
00000270: f7f3 85be c309 a73d bbe7 d8ba dc56 c9bc
00000280: 2276 123d c9c4 65be 73c5 5abe 66bc 653c
00000290: 54d9 0cbe 3582 96bd e001 9e3c c037 36bb
000002a0: e36a e53c d36b 0dbe 9659 703d f42d 48bd
000002b0: f0ee 1f3d 735f 703e 4fcc f7bd bae1 8d3b
000002c0: 1045 00be 84ea 5e3b 3a15 e13c ca67 6c3e
000002d0: 1678 57be 10ef f4bb ca29 963d 79f1 153d
000002e0: cbe3 1c3e df3c 6f3c 0ca7 dc3d ec7e 90be
000002f0: 4aa6 1f3e 9cb6 523c 3e46 f0bc edf9 33be
00000300: b629 7abe 016b 5c3a 81eb 193d 3914 c3bc
00000310: 1ede 25be 9d2d 243e 511d 57be 7cb9 043c
00000320: 5a85 d33c 9b74 adbc f66b 18be 983c e6bb
00000330: bc3f 3a3d c366 843c 9bc5 243c f539 24bb
00000340: c083 16be 2003 493e 81ca 0fbe 7960 cfbd
00000350: 6585 bebc af87 d33c aa20 d33c dd55 b8bb
00000360: 9bef 0c3e 00d7 b93b 5b62 4abc 9fe6 d93b
00000370: 55fb 333e 1bf0 093e c276 653e 4fc2 483e
00000380: 938d cbbc c959 75bd 85e4 88bc ddb2 0e3e
00000390: 6172 c1bd 2ecd 4abd 11a0 a5bd 2046 02bd
000003a0: e759 1fbe 3dc5 96ba 35de b53d 83d5 683d
000003b0: f7bb a2bd f6bd 36bd eb6e 44be fa30 24bb
000003c0: ded2 8b3c 0580 abbd 42e1 6fbe 4da8 d7bb
000003d0: a730 dabc af17 4cbc b5cb 1dbd 4915 afbc
000003e0: 0052 eabc c93c c5bc 010a 6e3d 12e8 2abb
000003f0: b13e 183d a7bb 933b d356 6f3c ad3e 383d

actor.7.bias f4 [128]
-0.013317166 -0.015245161 0.0145024 0.0076073753 -0.019308269 0.021695307 0.033142038 -0.008990306
-0.02511172 0.009040269 -0.021766149 0.016673667 -0.034577224 0.018689582 -0.0096290745 0.06452947
-0.041793212 -0.003523341 -0.021820439 -0.019720733 0.026131427 0.00031984452 0.0065707657 -0.009404832
0.028740415 0.014269794 -0.005123933 -0.023359105 -0.02046872 0.018313223 0.012501108 -0.0023421247
-0.010967563 0.028539151 0.011851804 -0.0005861436 -0.015424553 -0.008058219 0.021484995 -0.015807135
0.021453898 0.0040538684 0.0092542255 -0.022826515 0.019815931 -0.044414375 -0.009965725 -0.03849998
-0.039968606 0.037595958 -0.0062634926 -0.009197266 0.002386017 0.022530315 -0.009869357 -0.022091892
0.009591033 -0.01874377 -0.00701012 0.02625064 0.022007035 0.015657349 -0.020359002 -0.02333779
0.0217027 -0.016011043 -0.036669172 0.015530351 -0.018393619 0.004414537 -0.035590094 0.043120828
-0.010711993 -0.009731959 0.005994653 -0.016157325 0.029094113 -0.02244735 0.006143946 -0.014670628
-0.051455595 -0.008432377 0.0150939245 -0.0024440107 0.030534433 0.002893815 0.0015020375 0.019337365
-0.00021438983 -0.0041332426 -0.015012672 -0.022050211 0.017607855 0.039734747 -0.008318406 0.022943309
0.0005233357 0.025455797 0.013037619 -0.003778033 -0.036651235 0.008852186 0.0054674055 -0.012833168
0.0070250244 0.00088952895 -0.037707858 0.0013944624 -0.02728562 0.043665465 -0.007623876 -0.01698007
-0.009335802 0.031194624 -0.025923613 0.028683623 -0.021022376 -0.01510709 -0.0060724076 0.03593408
0.00080672634 -0.009894038 -0.03847767 -0.021565892 0.07166439 -0.0019091697 0.02112139 -0.0055132727
00000000: 3e30 5abc d7c6 79bc 799b 6d3c 4a47 f93b
00000010: 602c 9ebc 5bba b13c f2bf 073d 144c 13bc
00000020: 18b7 cdbc a31d 143c ec4e b2bc 3797 883c
00000030: d9a0 0dbd e51a 993c 44c3 1dbc 0728 843d
00000040: 5c2f 2bbd dae7 66bb c7c0 b2bc 608d a1bc
00000050: 9311 d63c ceb0 a739 944f d73b b916 1abc
00000060: 0571 eb3c dbcb 693c aae6 a7bb 985b bfbc
00000070: 04ae a7bc 9d05 963c 73d1 4c3c 557e 19bb
00000080: 4bb1 33bc f0ca e93c 122e 423c 6ea7 19ba
00000090: 44b7 7cbc 9f06 04bc 4d01 b03c f77d 81bc
000000a0: 16c0 af3c 50d6 843b 099f 173c acfe babc
000000b0: 0555 a23c d9eb 35bd 4847 23bc 28b2 1dbd
000000c0: 1fb6 23bd 38fe 193d fc3d cdbb 21b0 16bc
000000d0: b95e 1c3b 7f91 b83c 15b3 21bc 0efa b4bc
000000e0: b523 1d3c 898c 99bc 26b5 e5bb 950b d73c
000000f0: 1948 b43c d743 803c ecc7 a6bc e52e bfbc
00000100: dcc9 b13c 9729 83bc 6a32 16bd 0373 7e3c
00000110: 37ae 96bc d2a7 903b ebc6 11bd 779f 303d
00000120: 5b81 2fbc cb72 1fbc cb6e c43b 5e5c 84bc
00000130: c756 ee3c 81e3 b7bc 2853 c93b 135d 70bc
00000140: 1ac3 52bd f427 0abc 824c 773c b22b 20bb
00000150: 5923 fa3c 29a6 3d3b 04e0 c43a 6569 9e3c
00000160: d5cd 60b9 2770 87bb b6f7 75bc a5a2 b4bc
00000170: 593e 903c e7c0 223d ec49 08bc 9bf3 bb3c
00000180: 7730 093a ad88 d03c bd9b 553c e098 77bb
00000190: 9b1f 16bd c208 113c ec27 b33b 3542 52bc
000001a0: 2d32 e63b 472f 693a 8e73 1abd 65c6 b63a
000001b0: 1886 dfbc 8fda 323d b5d1 f9bb ca19 8bbc
000001c0: 31f5 18bc de8b ff3c c25d d4bc ebf9 ea3c
000001d0: 1e37 acbc ba83 77bc 0cfb c6bb 9d2f 133d
000001e0: 7d7a 533a 9a1a 22bc c39a 1dbd f4aa b0bc
000001f0: c8c4 923d 1b3d faba c406 ad3c afa8 b4bb

actor.10.weight f4 [1, 128]
-0.00048485526 0.0012558615 -0.0013813028 -0.0021016768 -0.00013505564 0.0015590392 0.00030338397 0.0016765458
0.0014945836 0.00057299924 -0.0016889506 0.002557761 -0.0013797956 -0.0011906784 -0.0008376716 0.0012175213
-0.00010930958 0.0010377701 0.0015560036 0.0019477746 0.0015345233 -8.526853e-06 0.00031972237 0.00036663152
-0.0009464385 -0.0002537211 -0.00011188155 0.0007605043 0.0007714712 0.0010317204 0.0008128194 0.0016008979
0.0011263203 -0.0024111806 -0.0010080227 0.0007863345 -0.0012784654 0.0005456089 0.0016603725 -0.0022778222
-0.0016825498 -0.0013917792 0.001212569 -0.0009105043 0.0012491063 0.0013267563 0.0012338936 -0.0015443184
0.00070862495 0.003309946 -0.00028066966 -0.0017259088 -0.0008511097 -0.000744454 0.00091939047 -0.00056840054
-2.640175e-05 -0.0047655515 -0.0014159287 0.0011312742 0.0016439146 0.0020360823 -0.00014227109 -0.0008917041
0.0026171543 -0.0037708692 0.001271057 -0.00022552266 -0.0016733966 -0.0006100904 0.00033692428 0.000281163
0.0022688329 -0.0002998964 -0.0012420391 0.00034418254 -0.0010618488 -0.0008712214 0.0003629468 0.0006405212
-0.0011855016 0.0009953679 0.0018674784 0.00057455275 -0.0012436239 0.0012599477 0.0018556627 -0.0016123331
-0.00028195232 0.00048516796 0.0011981534 0.0010986179 0.0007558461 -0.0004534879 -0.0010993776 -0.0017934465
-0.0019358665 0.0013500364 0.001257577 -0.00081129826 -0.0005883176 0.0017953988 8.98556e-05 0.00031275785
0.00050259195 -0.00069472234 -0.00030318103 0.0002361426 -0.0008002861 -3.4280647e-06 0.0013599215 0.0010036665
-0.0002796178 0.001133337 -5.1912713e-05 0.0027106325 -0.00069680536 6.2854815e-07 -0.00023058578 -0.0001618585
0.00068320305 0.00067308237 -0.0007620071 0.0020728006 0.0013430233 0.0023968357 -0.0017024595 -0.0004059665
00000000: 2c34 feb9 b89b a43a d50c b5ba 49bc 09bb
00000010: b99d 0db9 ad58 cc3a 820f 9f39 8bbf db3a
00000020: e7e5 c33a 5435 163a c75f ddba 1ca0 273b
00000030: 42da b4ba 8a10 9cba 3197 5bba 3c95 9f3a
00000040: 223d e5b8 c905 883a d1f2 cb3a 784c ff3a
00000050: 0f22 c93a 8e0e 0fb7 69a0 a739 7338 c039
00000060: 6a1a 78ba df05 85b9 f3a1 eab8 945c 473a
00000070: 8e3c 4a3a cb3a 873a 6313 553a 38d5 d13a
00000080: 0aa1 933a e604 1ebb a11f 84ba 0422 4e3a
00000090: 2e92 a7ba 3207 0f3a dba0 d93a 8447 15bb
000000a0: 0189 dcba 5c6c b6ba 10ef 9e3a e9ae 6eba
000000b0: 0db9 a33a 8ee6 ad3a 99ba a13a ba6a caba
000000c0: 04c3 393a aeeb 583b d826 93b9 e437 e2ba
000000d0: 011d 5fba 7627 43ba 4003 713a b700 15ba
000000e0: 5479 ddb7 5828 9cbb af96 b9ba 4347 943a
000000f0: 9f78 d73a cb6f 053b 9b2e 15b9 40c1 69ba
00000100: 9084 2b3b b020 77bb 9899 a63a 477a 6cb9
00000110: df55 dbba 79ee 1fba 36a5 b039 0f69 9339
00000120: b3b0 143b 6a3b 9db9 ebcb a2ba 6673 b439
00000130: bc2d 8bba ae62 64ba e549 be39 a6e8 273a
00000140: d562 9bba 0177 823a 2dc6 f43a 959d 163a
00000150: 1801 a3ba d424 a53a b539 f33a ec54 d3ba
00000160: 00d3 93b9 245e fe39 5b0b 9d3a 80ff 8f3a
00000170: f923 463a 1ec2 edb9 fe18 90ba 1412 ebba
00000180: e7bc fdba b4f3 b03a 48d5 a43a 4ead 54ba
00000190: 5339 1aba 9653 eb3a dc70 bc38 a6f9 a339
000001a0: 60c0 033a 071e 36ba 45f4 9eb9 0c9d 7739
000001b0: 4bca 51ba b40d 66b6 653f b23a 768d 833a
000001c0: aa99 92b9 7b8c 943a dabc 59b8 dea4 313b
000001d0: d1a9 36ba 80b9 2835 66c9 71b9 8fb8 29b9
000001e0: fb18 333a cb71 303a 6ec1 47ba d3d7 073b
000001f0: 6208 b03a 3b14 1d3b 1025 dfba e7d7 d4b9

critic.0.weight f4 [128, 6]
-0.82908034 0.00236127 -0.034559913 -0.16446501 -0.3140891 -0.14964868 -0.47551227 -0.025178753
0.14945583 -0.3587412 0.36556497 0.19130734 0.18032363 -0.1958614 0.22818404 0.1981601
-0.45123038 0.43971258 -0.3539951 0.21868238 -0.016252385 0.028388605 -0.55098057 -0.32643443
-0.051139243 -0.2493645 0.37921396 0.41585925 0.38519302 -0.23013127 -0.46712688 -0.00010447744
0.16617827 -0.33790112 -0.0019609092 0.11081983 -5.429935 -0.3415607 0.15258637 1.2694324
-1.5432413 2.3721907 0.82373494 -0.03408962 -0.1753873 0.1817841 0.64448726 -0.30800447
-0.29764944 -0.03695379 0.28406307 0.56246847 0.11730832 0.44584864 0.3414573 0.10019777
0.05079627 -0.5338153 0.56853956 0.17925723 -1.0729862 -0.2710031 0.27658305 -1.3024758
1.0996134 0.24974722 0.47011444 -0.14723489 0.22022489 0.88183933 -0.3231564 0.7994863
0.45044172 -0.09325169 0.13545251 0.24236025 -0.5706614 -0.3450448 0.362722 -0.08761429
0.03720034 0.53080726 -0.052393 -0.11173984 0.3376614 0.018638456 0.029417217 0.09247349
0.6046597 -0.048724733 0.44579107 0.0003026778 -0.3597818 0.1320434 -0.02080511 -0.18863927
0.2602713 0.19345059 -0.2047411 0.033681862 0.5072355 -0.08389492 0.43039298 -0.3775646
0.20295359 -0.36193308 0.19179876 0.014794278 -0.24594142 -0.15699059 -0.048382096 -0.18326996
-0.16494432 -0.33039966 0.07302356 0.08085743 0.049196072 -0.048336715 0.24980037 -0.07564445
7.061105 -0.014969344 0.07543446 0.008815972 2.5811586 -1.3756454 -0.3616292 -0.17768385
-0.053035792 -0.27768582 -0.17293409 0.2213682 0.009826576 0.16540608 -0.13134386 -0.26945898
0.6489002 -0.44861346 -0.58850247 -0.20390584 0.07828225 0.34450614 -0.33216703 0.08520592
0.43625432 -0.044436593 -0.1072575 0.522685 0.59327954 -0.5512053 -4.491207 -0.09308914
-0.144395 1.7567588 -2.0694144 3.0926046 0.25546345 -0.20009856 0.11712255 0.036017317
-0.0971425 0.446096 1.2674284 0.10939365 -0.032253 -0.49881852 2.648292 -0.054098934
0.15654252 0.103407845 0.072261125 0.18752022 -0.6142721 -0.11745172 0.04255328 0.08365926
-0.18019557 0.5502513 -0.2982488 -0.0803914 -0.79213476 0.2659803 -0.25940987 -0.757079
-0.48304307 -0.72439516 -0.27418244 0.09026227 -0.18122846 -0.48309684 -0.27345908 -0.26304114
0.24817194 -0.2875783 -0.122963615 -0.4006204 0.016333748 -0.024867497 -0.62417406 0.0047126226
0.00801207 -1.0772 0.6174907 -0.062249426 -0.51746744 0.047856767 0.119369894 0.4150691
0.307488 0.07873133 3.0265965 0.40702543 -0.2201323 -0.04289799 0.4024111 -0.7501196
-0.4713204 -0.11871772 -0.06059493 -0.15563044 -0.043789245 -0.00035630073 -0.7460207 -0.39425784
0.12073488 -0.02902703 -0.38547528 -0.0829409 -0.5351751 -0.18377878 -0.16380689 -0.35111237
0.055506628 0.38288796 0.09901806 -0.20850885 -0.048518244 -0.028691571 0.19986954 -0.4138946
-0.00622701 -0.12571539 0.20413184 -0.9143108 1.1047263 -0.5876026 0.008186632 -0.30153695
0.06728982 0.5321015 0.46037143 0.03775604 0.7991488 -0.22770904 0.1478446 -0.25285003
00000000: 9c3e 54bf 89bf 1a3b b28e 0dbd 8469 28be
00000010: 49d0 a0be 813d 19be 5876 f3be ac43 cebc
00000020: f30a 193e edac b7be 552b bb3e 12e6 433e
00000030: c2a6 383e e48f 48be 14a9 693e 7bea 4a3e
00000040: ab07 e7be 0222 e13e d93e b5be 46ee 5f3e
00000050: b923 85bc 388f e83c 100d 0dbf 6a22 a7be
00000060: 6277 51bd 6859 7fbe 5528 c23e 81eb d43e
00000070: 0538 c53e 88a7 6bbe 412b efbe e61a dbb8
00000080: a32a 2a3e 6001 adbe 9982 00bb 82f5 e23d
00000090: 07c2 adc0 0be1 aebe 9a3f 1c3e c37c a23f
000000a0: ee88 c5bf f9d1 1740 4be0 523f 8fa1 0bbd
000000b0: ba98 33be 9c25 3a3e 1efd 243f c3b2 9dbe
000000c0: 8265 98be db5c 17bd b770 913e effd 0f3f
000000d0: 583f f03d 4646 e43e 7ed3 ae3e 7d34 cd3d
000000e0: c00f 503d 1fa8 08bf cf8b 113f 358f 373e
000000f0: 9d57 89bf ebc0 8abe 4b9c 8d3e 87b7 a6bf
00000100: 22c0 8c3f bcbd 7f3e d7b2 f03e bec4 16be
00000110: a282 613e 39c0 613f c174 a5be 22ab 4c3f
00000120: 4ca0 e63e befa bebd 10b4 0a3e 492d 783e
00000130: de16 12bf b6a9 b0be b3b6 b93e 1f6f b3bd
00000140: 625f 183d fce2 073f 0b9a 56bd dbd7 e4bd
00000150: f4e1 ac3e adaf 983c 60fc f03c be62 bd3d
00000160: faca 1a3f 9693 47bd ba3e e43e bab0 9e39
00000170: 5235 b8be 6336 073e 7a6f aabc a72a 41be
00000180: 4842 853e e917 463e a7a7 51be fef5 093d
00000190: 30da 013f 1ad1 abbd 785c dc3e 2650 c1be
000001a0: 11d3 4f3e 4b4f b9be e566 443e b363 723c
000001b0: 11d8 7bbe 24c2 20be 4e2c 46bd 1fab 3bbe
000001c0: 2ae7 28be 252a a9be 608d 953d 9598 a53d
000001d0: d281 493d b8fc 45bd abcb 7f3e 7aeb 9abd
000001e0: 92f4 e140 fb41 75bc 627d 9a3d de70 103c
000001f0: b431 2540 2615 b0bf 7627 b9be c1f2 35be
00000200: 0f3c 59bd d62c 8ebe a215 31be 58ae 623e
00000210: a6ff 203c 3660 293e 017f 06be 87f6 89be
00000220: 531e 263f aab0 e5be 19a8 16bf b1cc 50be
00000230: 7252 a03d 1c63 b03e cc11 aabe 7180 ae3d
00000240: ba5c df3e 2503 36bd d2a9 dbbd afce 053f
00000250: 2be1 173f ca1b 0dbf f8b7 8fc0 85a5 bebd
00000260: 48dc 13be 79dd e03f 4971 04c0 3ced 4540
00000270: 1bcc 823e a3e6 4cbe f3dd ef3d e586 133d
00000280: a6f2 c6bd b266 e43e 183b a23f c709 e03d
00000290: b91b 04bd 2465 ffbe 9e7d 2940 d896 5dbd
000002a0: af4c 203e 7ec7 d33d a4fd 933d 4d05 403e
000002b0: f040 1dbf 878a f0bd 594c 2e3d 8c55 ab3d
000002c0: 3085 38be 45dd 0c3f 11b4 98be 3fa4 a4bd
000002d0: 58c9 4abf 922e 883e 5fd1 84be eecf 41bf
000002e0: 6c51 f7be f671 39bf a461 8cbe 6ddb b83d
000002f0: f493 39be 7858 f7be d402 8cbe 54ad 86be
00000300: c920 7e3e 773d 93be 59d4 fbbd 1e1e cdbe
00000310: 5ace 853c ecb6 cbbc dfc9 1fbf 586c 9a3b
00000320: 0f45 033c b1e1 89bf df13 1e3f 41f9 7ebd
00000330: bf78 04bf 7505 443d 3478 f43d f083 d43e
00000340: 116f 9d3e e43d a13d c2b3 4140 a365 d03e
00000350: 5d6a 61be ceb5 2fbd d408 ce3e d707 40bf
00000360: e850 f1be 4722 f3bd 6432 78bd 965d 1fbe
00000370: 5a5c 33bd e0cd bab9 36fb 3ebf 2adc c9be
00000380: d943 f73d 18ca edbc 045d c5be ebdc a9bd
00000390: 3c01 09bf 8130 3cbe febc 27be 00c5 b3be
000003a0: eb5a 633d e409 c43e fbc9 ca3d 5883 55be
000003b0: 11bb 46bd 960a ebbc 9aaa 4c3e fee9 d3be
000003c0: f20b ccbb 89bb 00be f007 513e 4610 6abf
000003d0: ac67 8d3f 206d 16bf 3921 063c 0d63 9abe
000003e0: 3fcf 893d ce37 083f ceb5 eb3e 14a6 1a3d
000003f0: 0495 4c3f 8f2c 69be 9364 173e 8f75 81be
