PPO/PPO4_Trained/PPO_DoubleInvPendulum_800K.pth (torch, 410281 bytes, 18 tensors)

actor.0.weight f4 [128, 6]
00000000: 6b99 5d3f 6d13 b7bd 481d ff3d 5da8 383f
00000010: 422e 7f3f 8b17 05bf b794 2bbf 3b80 cf3d
00000020: 461b 203e 9e5d 153d 9b72 e5be 5af9 a3be
00000030: 33ee c5be 08e8 9cbd 3209 dcbd 2e35 8cbe
00000040: 3ecc 15bf 8a44 da3d 9c22 9bbf bc3c a43e
00000050: 2f8a 7cbe 6506 35be b648 8abf 696c 223f
00000060: 235d 84bf 8194 643e ebe0 7dbe 610a 38be
00000070: 92ae a9bf c8dc 003f f8bf 96bf 6058 d13d
00000080: 648c 0a3e 8b1a 03bf 941f 7abf 77ec 593d
00000090: 5422 403f db59 073e 9106 16be 3fbe 97bd
000000a0: c100 853f 55b8 3cbf da79 383f 5dc8 263e
000000b0: 751e a03e 459f fe3e 26cc 643f 33d8 c9be
000000c0: 9d22 423f 304e 453e 6665 43be 84de a23e
000000d0: dde0 2a3f c92c 243e 0ee0 44bf c154 993d
000000e0: d02a 22be 5fd8 c4be c46d 31be e7ca 9dbe
000000f0: 126e 543f f3c0 493e 1a47 4fba 66e5 fa3e
00000100: e92a ca3f 066d 45bf 6add 9ebf 169d 7abe
00000110: 6f7f be3e bee5 913d a641 bcbf 463d 203f
00000120: c3e4 563f 73f4 bebe c3fc 063e 4ca0 fa3e
00000130: 506e 0a3f 54ae a33c f155 5c3d f0fe 49be
00000140: 7392 97be 8853 453f 3748 19bf a984 083f
00000150: 1e7a 39be 8511 49be 8d9c 963e 20f6 fa3d
00000160: 7f24 26bf 00c5 16be c9cc 82be 9fd7 a83e
00000170: e45e 363d d940 8abe 8a8e 95bf 60f6 e53c
00000180: 5604 b93f d339 9d3e a978 d9bd 2b4c f03e
00000190: 1210 693f 56b5 bdbe 69f4 4ebf 91b0 4e3e
000001a0: 98bd 85be eb22 cebd 5f4f c2bf d268 ec3e
000001b0: 940e 12bf 2b35 60be d65c 963e 0c01 ac3e
000001c0: 9d5d 1ebf e1dc da3e fa1e 05bf e76b 47bd
000001d0: e115 063e f582 aebe 1bc3 8dbe aa82 80bd
000001e0: a3f6 453f 6905 ab3e f32f 1cbe feb3 dc3e
000001f0: 30bb a83f 183a 24bf 4e82 acbf 41b7 b43e
00000200: cc7f 6dbe 992b 02bf f074 a2bf bb6c 4d3f
00000210: e196 b03f 8e93 a23e 370d 4b3d 7a0d d63e
00000220: d565 a93f f814 10bf c8e3 a73e 5271 753e
00000230: b593 88be 4a6d 33be 0f11 a93f bc0f c3be
00000240: 50ee a43f 6c63 59bd 8886 b7be 0cdb 2f3f
00000250: 4300 963f 42cd 43bf a49e edbd e6ba 413e
00000260: f9ef 0d3e f0ea 91bd c925 1dbf 51c6 613e
00000270: 5ec2 78bf 216e 09bc f395 f9bd e3a0 813d
00000280: af2a 87bf 562c 433e b957 b23e dbd0 39bd
00000290: 2d8b bdbd 88f0 803e 82bc dd3e 6bd8 b03c
000002a0: 9fa8 d33e 3c9b 7e3d de8b b0be 53dc ff3e
000002b0: e6f9 4c3f a2eb 9fbe 9306 a8bf 3d68 3e3e
000002c0: 02d2 a0be c722 c3be 7d67 4abf ee2f f93e
000002d0: aada 273f 7511 5a3e 8b21 883d cecb 22be
000002e0: 5b9e 833f e413 43bf acb6 973f 150e acbe
000002f0: ee7a 473e 2c42 303d cb48 573f d725 5fbe
00000300: 675f c13f 2fcd b23e bf50 393c 80d3 d53e
00000310: 0edb c33f 4c4b 8abf fc4d 903f 2e24 95be
00000320: aef5 bd3e 8489 2a3f 8348 a93f e969 e3be
00000330: 2a75 8bbf 7ba0 edbd cc98 ae3d 9e9d bfbe
00000340: ec8d c5bf a6c4 b53e 1668 87bf 2b31 66be
00000350: d418 893e 0a75 14bf 1dbc 75bf 71f6 b93e
00000360: c59b dd3e 59f7 16be 92a2 87be 8b4f da3e
00000370: d8e8 903e 230e d2bd 82e4 793f 454b 1ebe
00000380: d54d 503c a760 a33e b902 383f e9f3 fcbe
00000390: 9e7e 5abf 9bae 6a3d baa8 45be 9e3b 0dbf
000003a0: bc45 42bf f746 253e 6061 ba3e 9ec9 06be
000003b0: e996 92bd e7c0 0dbd 370c 903c d921 d43d
000003c0: 7534 77bf dc4a 88bb c864 1cbe 0f16 32bf
000003d0: 800b 87bf 7339 043f 002b 88bf 4b0b bc3b
000003e0: fb87 27bd 6b46 9a3e 9abf c6bf cd22 833e
000003f0: e8e9 2a3f f025 863d eb51 b1bd 0831 1d3e
0.8656222 -0.08939252 0.12456757 0.721319 0.9967996 -0.5198905 -0.67023796 0.1013188
0.15635404 0.036466233 -0.44814 -0.32026178 -0.38658294 -0.07661444 -0.10743941 -0.27384323
-0.58514774 0.10657604 -1.2119937 0.32077587 -0.24662088 -0.1767822 -1.080344 0.6344667
-1.0340923 0.22322275 -0.2479283 -0.17972709 -1.32564 0.50336885 -1.1777334 0.10221934
0.13530117 -0.51212376 -0.97704434 0.053204026 0.7505238 0.13217871 -0.14650942 -0.074093334
1.0390855 -0.7371877 0.7206093 0.1628737 0.31273237 0.49730888 0.89374006 -0.3942276
0.75834066 0.19268107 -0.19081649 0.3181039 0.66749364 0.16032709 -0.7690438 0.07486869
-0.15836644 -0.38446328 -0.17327029 -0.30818865 0.82980454 0.1970251 -0.00079070183 0.49003142
1.5794345 -0.7711948 -1.241132 -0.24473986 0.372066 0.07123898 -1.4707534 0.62593496
0.8394281 -0.37295875 0.13182358 0.48950422 0.54074574 0.019980587 0.053792898 -0.19726157
-0.2960392 0.77080584 -0.59875816 0.53327423 -0.1811299 -0.1963559 0.29416314 0.12253976
-0.6489944 -0.14723587 -0.25546864 0.32977006 0.04452409 -0.270026 -1.1684124 0.028071582
1.4454448 0.3070818 -0.10618717 0.46933112 0.91040146 -0.3705241 -0.8084169 0.20184542
-0.2612121 -0.10065254 -1.5180472 0.46173722 -0.57053494 -0.21895282 0.29367703 0.3359455
-0.6186159 0.42746642 -0.5200039 -0.048686888 0.13094284 -0.34084287 -0.27687916 -0.06274922
0.7732946 0.33402565 -0.15252666 0.43106073 1.3182125 -0.64151144 -1.3477266 0.35296062
-0.23193282 -0.50847775 -1.2691936 0.80244035 1.3796045 0.317532 0.04957315 0.41807157
1.3234202 -0.56281996 0.3279097 0.2396901 -0.26675192 -0.17522159 1.3208331 -0.38097942
1.2885227 -0.05307333 -0.35844827 0.68693614 1.171883 -0.76485074 -0.11602524 0.18918952
0.13861074 -0.07124889 -0.6138578 0.22048308 -0.9717158 -0.008388073 -0.12186804 0.06329515
-1.0559901 0.19059882 0.34832552 -0.045365196 -0.09255061 0.2518351 0.43307883 0.021587571
0.41339585 0.06215976 -0.3448171 0.49972782 0.80068815 -0.3123446 -1.3127006 0.18594451
-0.31410223 -0.3811247 -0.7906416 0.4866938 0.6556803 0.21295722 0.06647023 -0.15898058
1.0282701 -0.76202226 1.1852622 -0.33604494 0.19480488 0.043031856 0.8409545 -0.21791779
1.510724 0.34922168 0.011310755 0.41762924 1.5301225 -1.0804229 1.1273799 -0.29129165
0.371015 0.6661608 1.3225254 -0.4441674 -1.0895131 -0.11602875 0.085252374 -0.3742494
-1.5433936 0.35501593 -1.057864 -0.22479694 0.26776755 -0.5799109 -0.95990163 0.36320832
0.43282905 -0.14742793 -0.2649122 0.4263881 0.28302646 -0.102566026 0.976143 -0.154584
0.012713869 0.31909677 0.71879154 -0.4940484 -0.8534945 0.057295423 -0.19302645 -0.55169094
-0.75887656 0.16140352 0.36402416 -0.13162848 -0.0715769 -0.034607794 0.01758395 0.103580184
-0.9656442 -0.0041593146 -0.1527282 -0.6956491 -1.0550385 0.5165016 -1.0638123 0.005738651
-0.040901165 0.3013185 -1.5527222 0.25612488 0.6676316 0.06550205 -0.08658203 0.15350735

actor.0.bias f4 [128]
00000000: 732b 44be 8048 26be f310 ba3e ff54 053d
00000010: 20ff 143e c61a 4a3e 2416 61be cec6 47be
00000020: 695b 383e be6b 433e 2503 353b 71bd aabd
00000030: f593 533e 9b0e 87be 3588 1e3e 1484 83be
00000040: 8430 973e 699d d43d f810 6abe 49a4 ae3e
00000050: 8d17 97be 93a5 09be 7dca d03d 0e5d f33d
00000060: 4e4b 903e 7b86 91be 1233 a1be 6cfd a7bd
00000070: a755 3a3e cd04 46be ef3a 13bd e528 343e
00000080: 5a74 c3bc 9bc4 11be 4a71 2f3d d9bd 9fbe
00000090: 4611 a23e baef 4f3e 614b 7f3e a76a 813e
000000a0: 76f8 3a3e 879d 663d ff3c a5bd cda3 2fbd
000000b0: 16ce 853e 1872 873e e830 4c3d 874b 0e3d
000000c0: e0bd 9a3d c6d3 88be cb50 da3d a76f d03d
000000d0: 99ee 043a 38f8 ed3d f254 863d 8a88 d0bd
000000e0: e1e9 e0bc d85e bc3e 4c0e 18be 7f98 973e
000000f0: 2993 2d3e 3095 97bd a490 34be 3e8d 88bd
00000100: d4c1 583e 096d 7a3e ee31 b83e a068 e83d
00000110: ecab 69bc 74d5 843d dee5 91be 1ab4 a9be
00000120: f8de 87bd 057f b43e 1905 ab3e 69b9 763e
00000130: 6d43 1cbe 9a10 23bc b00a 0fbe ccbb 103e
00000140: beff b73e 7390 8fbe 3a6e b3be 79f8 c3bd
00000150: bb57 de3e 4991 723e 5e84 5e3d 66da 8c3e
00000160: 1f99 8a3e b250 473e c8b4 32be 640c babe
00000170: 169f 6ebd 9ecf a33e 20d8 d7be 19f8 253e
00000180: e3fa 83be eb66 64be 2660 63be 1f35 313e
00000190: abb9 6f3e e12f 523e ae66 28be ef48 493e
000001a0: 51ff 10be c34f 9eba a844 543e 39ca eebd
000001b0: 53b3 2fbd 903e 57be dfd8 7bbc 68c4 bf3e
000001c0: caa3 183e 73e9 6ebe f01b 523e 3c19 89be
000001d0: 37bc cc3d 8cb0 80be a22d afbe ebbd 693e
000001e0: d68d adbd 5b5c 45bd 1e68 d63d 3b70 0fbe
000001f0: ce74 97be ded7 0abe 356a 953e 22b5 0dbe
-0.191572 -0.16238594 0.36341056 0.03255176 0.14550447 0.19736776 -0.21981102 -0.19509432
0.1800362 0.19084069 0.0027620282 -0.08336914 0.2066191 -0.2637833 0.15481646 -0.25686705
0.29529202 0.10381586 -0.22858036 0.34109715 -0.29510155 -0.13442068 0.101948716 0.11882983
0.28182453 -0.28422913 -0.31484276 -0.08202633 0.18196736 -0.19337769 -0.035944875 0.17593725
-0.023859192 -0.14235155 0.04283265 -0.3119953 0.31653804 0.20306292 0.24931099 0.25276682
0.18258843 0.056302574 -0.08068275 -0.042880822 0.26133794 0.26454234 0.049851328 0.034739997
0.07555747 -0.2672407 0.10659941 0.10177546 0.0005070954 0.116196096 0.06559171 -0.10182293
-0.027455272 0.3679111 -0.14849204 0.29608533 0.16950668 -0.07401502 -0.17633301 -0.06667565
0.2116769 0.24455656 0.35975593 0.11348081 -0.014262181 0.064860255 -0.28495687 -0.3314522
-0.06634325 0.35253158 0.33402327 0.24094166 -0.15260096 -0.009952689 -0.1396892 0.14134139
0.35937303 -0.28039894 -0.35045034 -0.09568877 0.43426308 0.23688234 0.054325454 0.27510375
0.27069947 0.19464377 -0.17451775 -0.36337578 -0.058257185 0.31994337 -0.42157078 0.16207923
-0.2577735 -0.22304885 -0.22204646 0.1730542 0.2341067 0.20526077 -0.16445419 0.19656728
-0.14159895 -0.0012078214 0.20729315 -0.11659665 -0.042895626 -0.2101996 -0.01537153 0.37454534
0.1490623 -0.23331241 0.2051847 -0.26777065 0.09996837 -0.25134695 -0.34214503 0.22826354
-0.08474319 -0.04818378 0.104690775 -0.14007656 -0.29581302 -0.1355891 0.29182592 -0.13838628

actor.2.weight f4 [128, 128]
00000000: 86b2 52bd dbb9 a13d cacc b13d a65d a8bd
00000010: f6db 043d 3651 11bd 2fd8 dfbc 6b65 6b3c
00000020: 910c 89bd 00bd 9dbc e2e6 273d 39a3 683c
00000030: 2236 b5bd b90e 733d a6df b53d 80e7 4c3d
00000040: 9e6b ba3d d101 013c bd8d 2c3c fdd2 6b3d
00000050: e460 973d d06d f43b 2f85 43bd bfa9 5dbd
00000060: 0f0c 813d 790c d83b 6c35 303d 3e9f 69bc
00000070: dbb7 e4bc c6a6 753d 9281 153d 9a9e 27bd
00000080: a2f0 05bd b63a 9abc 5b4c 81bd ee8f c83b
00000090: fef1 15bc fddc 14bd ad80 11bd 4e7b 583d
000000a0: 1b6f 7dbd 1381 2d3c a91a d23c 8ed3 63bd
000000b0: 6998 963d 9e1c 983b f975 4e3d 6ae3 7c3d
000000c0: 6a26 b3bd 7ab4 45bd 4893 9f3d 8a93 323d
000000d0: a3bc 423d a705 cd3c fc75 15bd b696 40bb
000000e0: 5cc3 403c af4c 783d f7e2 8f3c d8cd 843c
000000f0: 3518 823d 9274 9a3d 1179 683d ac89 90bd
00000100: 1846 2e3d 5d7e 1f3d 0b38 edbd 99ed e3bb
00000110: f334 143c 5e4e e53b 2093 8d3d 1370 293c
00000120: 826c 9a3c 529b 04bc e4af fc3b 537e 823d
00000130: 4e74 413d dfed 20bd de29 873c 89e9 93bd
00000140: 31ed 4b3d 972b 84bd 8f1f 263d 12ef 9c3d
00000150: 86b2 b7bd a602 aa3d 865b 8abd 02c3 be3d
00000160: 27bd 82bd 91b8 9a3d fe22 b7bb 3f3d 8e3d
00000170: fc4c 5e3d 2f31 503d f9d0 b13c 24a8 823d
00000180: 138b 57bd 1d7e 8bbc ec39 9e3d 49b9 8abc
00000190: ec8d e0bc c166 273d 9515 b0bc 8ca5 1f3c
000001a0: 7443 95bd 449a 15bd 52b9 933d 8cc8 ddbb
000001b0: bb3d a1bd c3e4 8b3c 70d6 73bc e229 47bd
000001c0: ebfb c1bc a721 77bd cb12 d3bc c4a4 833a
000001d0: 7562 9f3d bd19 10bc 8b5c b5bd 33b4 8c3d
000001e0: 3c79 b43d 6881 a4bd c8ff ab3d 77f5 ac3d
000001f0: 9de8 09bc b8c0 52bd 5d54 213d d58e 94bd
00000200: 859a 113e bc0e 4f3d 0622 cb3c c150 15be
00000210: a85b e4bd d8ea 573d c89f 1c3d 6408 a23d
00000220: 02d9 703d b638 a13d 290d 653c 74ca 00be
00000230: a857 86bd d800 253c e0a3 263c 5f3f 68bc
00000240: a501 68bc 6cee c0be 34c5 5dbd 109f 63bb
00000250: 5f10 c43e 07c8 2cbe e1cd f6bc 1421 0c3d
00000260: 7865 973c 7c3b 313d 6d34 babd 2a19 f33c
00000270: 2724 ce3c 44ad eb3c d2be c63c 5a36 2bbd
00000280: 6eb3 8e3d 33c9 633e 10ef 00bf b11b acbc
00000290: 867b 8bbd 22bc 573d 445b 99bd f8c6 433d
000002a0: 687f 81bd d7ea 82bf e5b4 1fbc 63cb b8bd
000002b0: e614 6f3d b8c9 a63c 950d 923d 0bd2 98be
000002c0: 39ac a0bd eee9 3cbc 0ad9 9e3d 2c0f 773e
000002d0: 8c3e b6bd 4dea 0cbd cfaa b2bc c983 06bd
000002e0: b619 ccbc ae43 ae3c ea8b 84bd 6630 31bd
000002f0: 54f3 dd3c 67db 22be 5455 9b3d e0a5 b63d
00000300: ca52 93bd 04bc 83bd d4cd c9be 7f9f 443d
00000310: 5a40 0dbf 9d06 2cbd 43f8 d7bd a1a6 ecbc
00000320: f370 c9bc 4a02 e83c dd00 9abc 434b 32bd
00000330: a235 073e af18 703c ae55 1e3e 3f80 183d
00000340: 934c 473d 0674 56be 12b5 103e f66b 023d
00000350: 9229 35bd 2881 ad3d 6545 e7bd 616e b63c
00000360: 9a77 5bbd 0e16 55bc a449 d23e ca19 033f
00000370: f9ee 863e 88bc 45bd 2e35 96bc 812e e33d
00000380: 0d8e a33c 70bc b93d 34d7 0f3e f08e 5cbd
00000390: c3db e03c 02f5 e8bb 029e 723d a9de 3ebd
000003a0: 6001 1e3d 8788 20bd 827f 4d3e a019 9c3e
000003b0: 5248 88bd 1401 85bb a0ef 993c 26cb 5d3d
000003c0: 95e2 b13d 5a11 d8bd ce3e 2abb 3611 babd
000003d0: 4833 d63c 4a24 a3bc 2365 f2bd 02d2 87be
000003e0: 777d cb3d 5607 513d e73e d8bd bdff ea3c
000003f0: e7ec 54be 02af d03d f5fb 313c 1bac eb3c
-0.051439784 0.07896777 0.086816385 -0.08220987 0.032436334 -0.03547784 -0.027324764 0.014367442
-0.0669185 -0.019255161 0.04099167 0.014199072 -0.08848216 0.059340212 0.08880548 0.050025463
0.091025576 0.007873968 0.01053184 0.05757426 0.07391527 0.0074593797 -0.047734436 -0.05411696
0.06301128 0.0065932837 0.043019697 -0.014259158 -0.0279197 0.0599735 0.03650052 -0.04092274
-0.03270019 -0.018826824 -0.06313392 0.0061206734 -0.009151934 -0.036343563 -0.035523105 0.052851968
-0.061873537 0.010589856 0.025647478 -0.055621676 0.07353289 0.0046420833 0.050405476 0.061740316
-0.08747561 -0.04826782 0.077917635 0.043597735 0.04754318 0.02502711 -0.03648947 -0.0029386706
0.011765327 0.060620006 0.01756428 0.016211435 0.063522734 0.07541765 0.056756083 -0.07057509
0.042547315 0.03893887 -0.11582955 -0.006955814 0.009045827 0.0069978675 0.069128275 0.010341662
0.018850569 -0.008093672 0.0077113975 0.06371751 0.047230057 -0.03928935 0.016499456 -0.07222278
0.04978675 -0.064536266 0.04055744 0.076627865 -0.089695975 0.083012864 -0.06755738 0.093145385
-0.06383734 0.075547345 -0.005588888 0.069452755 0.054272637 0.050828155 0.021706091 0.063797265
-0.052622866 -0.017027909 0.077258915 -0.016934054 -0.027411424 0.040869478 -0.021494666 0.009744059
-0.07288256 -0.036524072 0.072130814 -0.006768292 -0.07873102 0.017076856 -0.014882669 -0.048623927
-0.023679694 -0.060334828 -0.025765797 0.0010043611 0.07782451 -0.008795199 -0.08855542 0.06870308
0.08812186 -0.08032495 0.08398396 0.08445256 -0.008417276 -0.051453322 0.039387096 -0.072538055
0.14219101 0.05055116 0.024796497 -0.14581586 -0.111502945 0.0527142 0.038238317 0.07911757
0.058800705 0.07872145 0.013980188 -0.1257723 -0.06559688 0.010071002 0.010170907 -0.014175265
-0.014160548 -0.376819 -0.054143146 -0.003473226 0.3829374 -0.1687318 -0.030127468 0.034211233
0.018481001 0.04326962 -0.09092031 0.029675085 0.025163723 0.028769143 0.024260912 -0.04179988
0.06967817 0.2224472 -0.5036478 -0.021009298 -0.068106696 0.05266965 -0.07488111 0.047797173
-0.06323129 -1.0227917 -0.009747718 -0.09023168 0.05836954 0.020359859 0.07131497 -0.2984775
-0.07845349 -0.011530383 0.07756241 0.24126881 -0.088986486 -0.034403134 -0.021809964 -0.032840524
-0.024914604 0.021272507 -0.06471999 -0.043259047 0.027093567 -0.15904008 0.075846344 0.08918357
-0.07193525 -0.064323455 -0.39414847 0.04800367 -0.5517632 -0.041998494 -0.10545399 -0.028888049
-0.024589991 0.028321404 -0.01879924 -0.043528806 0.13204053 0.0146543225 0.15462372 0.03723168
0.04865701 -0.20942697 0.14131573 0.03184124 -0.044229098 0.084719 -0.11292533 0.02226943
-0.053580858 -0.0130057465 0.41071808 0.51211226 0.26354197 -0.0482755 -0.018335905 0.11092854
0.019965196 0.09069145 0.14046937 -0.053847253 0.02744854 -0.0071092853 0.05923272 -0.046599064
0.03857553 -0.039192703 0.20068172 0.304883 -0.06654419 -0.0040589664 0.01879102 0.054148816
0.08685795 -0.105501845 -0.0025977376 -0.09085314 0.0261475 -0.019914765 -0.118356965 -0.2652741
0.0993604 0.051032387 -0.10558873 0.028686399 -0.20793496 0.1018963 0.010863294 0.02876859

actor.2.bias f4 [128]
00000000: df69 51bd 4c67 80bd 2ba5 abbd c44a 9fbd
00000010: 5282 2a3d ebe5 973d d7fc f03c e703 fa3c
00000020: d28e babb d613 7dbc d32e 99bd d7b9 8a3c
00000030: c486 b2bc 4058 22bc e9c8 843c e791 7dbd
00000040: 8605 b5bc 5349 783d 35af c03d f26a 623c
00000050: d3ae 193d 471c 5cbd e98e eabc 1cbb 81bd
00000060: 9dd0 3bbd b03c 8dbd 6cb5 073d 6bf7 713c
00000070: d405 d13c 95fe be3c 04aa 7ebb 73db 083d
00000080: 1e16 1d3d 882e d73c 029c e23c 42a7 4bbd
00000090: aab1 9f3d 9b23 60bd e045 743c bb89 2f3d
000000a0: 126f b83c 1db1 acbd 2814 5c3d a78d 223d
000000b0: 24bc c5bc 0d78 6a3d 88b1 883d 0a24 96bb
000000c0: f35b 153d 4ed7 91bd bf99 8abc 8c72 ac38
000000d0: faed 8b3d 71aa 093d da66 98bd b6c3 593c
000000e0: bbe3 943c 6bd5 5cbd 6e42 433d 19c6 a83d
000000f0: 7b92 163d eac9 3d3c 3901 7bbd 1f66 61bd
00000100: fa43 93bd 3b39 43bc f3d9 0ebd c228 883d
00000110: 9d34 d7bc 1cca 68bd f530 32bc bf7e 793d
00000120: da34 c4bd b3d0 d5bc 7de3 b83c cdbb 653d
00000130: e888 a83d 4948 9f3c 932f 2a3c ede5 7dbc
00000140: ba6c 6a3d 4213 da3d 7823 ccbb 8f07 8abc
00000150: def4 66bb deef 56bc 8d28 14bd a3da 333d
00000160: fb75 0bbd 9bf2 923d 0e06 103a 3909 283d
00000170: 41bd 873c 0bde 943c d8aa 243d 6aab e5bc
00000180: 5624 91bc 4c9c 753d 201b a6bd 51a8 91bd
00000190: 551a 4e3d 3ac1 a23d 0b33 f8bc 2334 7cbc
000001a0: d4ca 85bc 51f9 1cbd a79b bbbd df80 c63b
000001b0: 4f67 2fbd 4f6f 00bd 5b98 d7bc 1e2f c0bc
000001c0: b72f 05bc 19ae 91bd 88fa 51bd 1f03 923d
000001d0: 81cc 21bd 32db 9e3b cc93 113d e20f e33a
000001e0: f815 2c3d ba4c 8c3d f633 853d c959 df3c
000001f0: e437 013d c41a 58bb 45c6 aebd 9550 0f3a
-0.051126357 -0.06269702 -0.08381113 -0.07777932 0.04162819 0.074169 0.029417438 0.030519439
-0.005693295 -0.015446624 -0.07479634 0.016934318 -0.021792777 -0.009908736 0.016209083 -0.06190672
-0.02209736 0.060616802 0.09408418 0.013819443 0.03752024 -0.053737905 -0.028632598 -0.063345164
-0.045853246 -0.06896341 0.033132 0.014768462 0.025515474 0.023314754 -0.0038858661 0.033412408
0.03835117 0.026267305 0.027662281 -0.049720056 0.077975586 -0.054721456 0.014909238 0.04285596
0.0225139 -0.08432219 0.05373016 0.03968587 -0.024137564 0.057243396 0.066744864 -0.004581933
0.036464643 -0.07121144 -0.016919015 8.222935e-05 0.068325 0.03360981 -0.074414924 0.01329129
0.018174997 -0.05391447 0.047670774 0.08240909 0.03676079 0.011583785 -0.061280463 -0.05502903
-0.071907 -0.0119155 -0.03487582 0.06648399 -0.026270205 -0.05683337 -0.01087593 0.06091189
-0.09580393 -0.026100492 0.022569412 0.056087304 0.08229238 0.019443648 0.010387319 -0.015496713
0.057232596 0.106482044 -0.006229814 -0.016849307 -0.0035241167 -0.013118712 -0.036171485 0.04390968
-0.03404806 0.071751796 0.0005494066 0.04102442 0.016569735 0.018172285 0.04020199 -0.028035838
-0.017717522 0.05996351 -0.081106424 -0.07112182 0.05031808 0.07947011 -0.030297777 -0.01539329
-0.016332068 -0.038323704 -0.09160548 0.006057843 -0.042823132 -0.031356152 -0.026317766 -0.023459967
-0.008129052 -0.071132846 -0.051264316 0.071295016 -0.03950167 0.0048479075 0.03554134 0.0017323459
0.04201314 0.06850572 0.065040514 0.027264493 0.031547442 -0.0032974938 -0.08533911 0.0005467025

actor.4.weight f4 [128, 128]
00000000: 0f02 9a3d 1649 243e 5ea7 0b3d 6307 9e3a
00000010: 1e1a 14bd adc0 8fbd 3331 fc3d 75c7 af3d
00000020: 9c66 f6bb e6bc 00bc 6d6d fabc c1ae 56bc
00000030: 0f4b 263e a333 09bc 13a5 843c 0481 3bbe
00000040: ecea f53c ec29 41bd 084d 8dbd 3d0f b53d
00000050: eed1 253e 1a68 46bc 2074 16bd eec5 86bc
00000060: e108 033d 07f3 2e3e f53a 833b cecc 9f3c
00000070: f405 3c3e a4e7 b7bd f383 ef3d 2369 733d
00000080: 888f e2bb 54be 4bbb a7d2 463c 69b4 bb3b
00000090: ea14 0fbe 8549 5ebc eacb 6bbd 9232 dc3c
000000a0: a01b 0c3d ce75 adbc 32a4 80bc 43f1 95bd
000000b0: 2b39 f6bc bba2 9f3c 1ff0 9dbd b50e 00bd
000000c0: 286e 5bbd 37a6 f4bc 6339 d5bd 85a0 1dbc
000000d0: 78db b3bd cf4b 1a3d 9063 cc3d e934 eabd
000000e0: ff16 683d 6ecd 353c 0fb0 773d 31bb bfbc
000000f0: 7fa7 783d 9ed8 9dbc 4eb2 a43b 2a89 113e
00000100: 0320 443e bdd3 02bb 8920 aebd f1c5 293d
00000110: f8e4 cf3d 7e7b c6bd 0654 dfbd b936 89bd
00000120: bf9e a33c 3700 8fbd c560 8cbd 0910 17bd
00000130: 157b 1bbd 9be6 48bc ed78 aabd 4aa1 7dbb
00000140: 6607 503d 46eb 083d db72 ff3d 105d 503d
00000150: 2ba3 763d e275 84bd e57a e8bd fd46 273d
00000160: 3c34 e4ba 85e3 f33d 35ee 133d 490f cbbd
00000170: 30a1 5a3c e758 953d 5e66 153c 11cf bf3d
00000180: 4666 b3bc 3c7e 97bd 65a6 0b3c 2b34 003c
00000190: c4ad 73bd d280 6dbd 3f2e 44bc cf80 023d
000001a0: bcf7 be3d 0243 d6bd bc73 11be a4f0 ef3c
000001b0: 936b 3f3b 83b3 22be 61bc 383d 49bd afbc
000001c0: 3909 243d 77bb 563d 47cb 9bbc 7107 f03d
000001d0: 2b54 fcbc 98af 633d 52f2 6dbd 0278 c63d
000001e0: f3f2 d9bc 0883 05bc 9e6a 06be f6cf c5bd
000001f0: 6bdf 60bc 9034 933c bb2e 923b 27d1 ebbc
00000200: 70a1 b23d 6d45 203c 6cf9 cabc 1ecd 7bbc
00000210: 2e4a 8c3d e133 07be 1c33 b03d 806f a33c
00000220: 4ed3 ec3c b503 ec3c 24ec 453d f23b 5bbd
00000230: e487 163e c0a4 633d 42db 1fbc 0908 20be
00000240: f9eb b9bc 2754 bbbb 874d 48bd 59a4 5e3e
00000250: 0255 623d 52e2 91bd 2f9c c13c 09bb bdbc
00000260: 2dd3 923d 0fae af3d 261f 773d 6ffe 2dbd
00000270: b264 383e f1a5 873b 208b 9abc 7712 403e
00000280: 5da5 39bc 831f 963d 2d10 5d3d cdee 4a3c
00000290: 3ce8 0fbe 1a9f b13c f99b 083c c3f2 dfbc
000002a0: 2d8e 97bb 74d7 acbd 3e5d 083d a12b c2bd
000002b0: 4d17 04be 13d4 b43d 2b1b 59bc b621 9cbc
000002c0: 3a28 8e3c 77ad f0bc 8595 6abe 7931 c2bc
000002d0: ab5f bc3c abb1 0b3d 18af 423e b464 25be
000002e0: db50 9dba 01af 423c a6ef a3bd c7a6 76bd
000002f0: b69b 32bc c29b aa3d c3c4 f4bd 5a97 c93d
00000300: bdd9 8e3d 2d26 e83d 12f3 723c 6cd0 e93d
00000310: dfdc 903d 9f3e 533d 6efd 08be 08a8 0cbd
00000320: e531 693d 4dcd 853c 653a ebbd 762f 8fbd
00000330: 62a6 b1bd b401 023e 1e8c 70bd 3732 b0bd
00000340: 0579 14bb d63c 70bd db1e 873d bc7d b43d
00000350: 6293 eebc 2e30 9dbc 1773 c6bc a180 bdbc
00000360: 6085 dd3c 3360 b43d 5a40 41bc 75a2 40bc
00000370: 10ca c9bd 235c ee3d 1116 f8ba 1307 d6bc
00000380: bd80 89bd d116 183d db9e 5fbd c321 d33c
00000390: 4c25 7d3c a829 7dbd 1220 8b3d 2965 083e
000003a0: e477 5e3d a4c5 cabd 8efa 8bbd 9bc3 c5bd
000003b0: ecc6 5fbd f552 29be d711 933c cc95 64bd
000003c0: 7518 f63d 998b b53d 57e2 d23c 585e 293e
000003d0: 36ee e6bd f79c 94bd f7e4 fbbd e94b 4c3d
000003e0: d149 32bd 4303 903d 714c 60be 4740 6ebd
000003f0: 425d 7d3b d153 cabc 05cd 223d 041c e8bd
0.07519924 0.16043505 0.03409516 0.0012056645 -0.03615772 -0.07019172 0.123140715 0.08582965
-0.007519556 -0.007857537 -0.030569756 -0.013103188 0.1623957 -0.008374128 0.016191995 -0.18310934
0.030019246 -0.04715912 -0.06899458 0.08840797 0.16193363 -0.012109781 -0.03673184 -0.016451802
0.03199089 0.17084895 0.004004831 0.019506838 0.18361646 -0.08979729 0.11695089 0.059426438
-0.006914083 -0.0031088786 0.012135184 0.0057282937 -0.13972822 -0.013567333 -0.057567514 0.026879583
0.034206033 -0.021174338 -0.015703294 -0.07321408 -0.030056557 0.019486776 -0.07711815 -0.031264026
-0.05357185 -0.029864414 -0.10411336 -0.00962079 -0.08782095 0.037669953 0.099799275 -0.11435873
0.056662556 0.011096342 0.060470637 -0.02340469 0.06070661 -0.01926833 0.0050261384 0.1421248
0.19152837 -0.0019962632 -0.08502299 0.041448537 0.10151094 -0.09691523 -0.10904698 -0.06699891
0.019973157 -0.06982463 -0.06854395 -0.036880527 -0.037959177 -0.012262012 -0.08323846 -0.0038700872
0.050788306 0.0334275 0.12473079 0.05087 0.060214203 -0.06467797 -0.11351565 0.040839184
-0.0017410587 0.1190863 0.036115844 -0.09915025 0.013344094 0.072923474 0.0091186445 0.09365667
-0.021899354 -0.07397124 0.008523558 0.007824938 -0.059491888 -0.05798418 -0.011973917 0.031861123
0.09324595 -0.104619995 -0.14204305 0.029289551 0.0029208406 -0.15888791 0.045101527 -0.021452563
0.040047858 0.052424874 -0.019017829 0.11720169 -0.030801853 0.05558738 -0.058092423 0.096908584
-0.026605105 -0.008148916 -0.13126609 -0.09658806 -0.013725142 0.0179694 0.004461137 -0.028786255
0.08722198 0.009782177 -0.024777137 -0.015368728 0.06850086 -0.13203384 0.08603498 0.019950628
0.028909352 0.028810361 0.048320904 -0.053523965 0.14700276 0.05557704 -0.009756865 -0.15628065
-0.022695528 -0.005716819 -0.04890206 0.21742381 0.05525685 -0.07123245 0.023634044 -0.023160474
0.07169185 0.08578121 0.06033244 -0.042478975 0.18007162 0.004139655 -0.018865168 0.18757044
-0.01133093 0.07330229 0.053970505 0.012386036 -0.14053434 0.02168231 0.008337968 -0.027337437
-0.004625103 -0.08439532 0.033292048 -0.09480978 -0.12899514 0.088295124 -0.013251106 -0.019059043
0.017353166 -0.02937959 -0.229086 -0.023705231 0.022994837 0.034104984 0.19012105 -0.16151696
-0.0012002246 0.0118825445 -0.08004694 -0.060217645 -0.010901382 0.0833049 -0.11951592 0.09843321
0.06975124 0.113354065 0.01482846 0.114167064 0.07073378 0.051573392 -0.13377926 -0.034339935
0.05693235 0.016333247 -0.11485747 -0.06991474 -0.08674313 0.12695962 -0.058727376 -0.08603328
-0.002265514 -0.058651768 0.06597682 0.088130444 -0.029123012 -0.019188013 -0.024224801 -0.023132624
0.027041137 0.08807411 -0.011795128 -0.011757483 -0.098529935 0.116386674 -0.0018927475 -0.02612642
-0.06714008 0.037131134 -0.054594856 0.025772935 0.015450787 -0.061807305 0.06793226 0.1331984
0.054313555 -0.09900978 -0.06834899 -0.096564494 -0.054633066 -0.16535552 0.017952843 -0.05580692
0.120163836 0.08864517 0.025742693 0.16539896 -0.11275904 -0.07256501 -0.12299531 0.04987708
-0.043527428 0.07031872 -0.2190416 -0.05816677 0.0038660322 -0.02469817 0.039746303 -0.113334686

actor.4.bias f4 [128]
00000000: f1d2 943d 37ae 6d3d fb8e b4bb 7f92 203d
00000010: 1f52 723d 3a2f c9ba 9ebf 06bd 6374 60bd
00000020: 21f1 2237 a9c5 e4bc fee6 28bd 5419 d0bc
00000030: b515 b43c 9c34 4bbd dd8a 193d 1fe9 83bc
00000040: db39 b0bc 5922 003d 363f a6bc 3d94 d63b
00000050: 1e28 3ebd 2a18 4dbd b228 9d3d 5432 9d3c
00000060: 97fd 9e3d d916 58bc 3d0f 27bd 7d8a dabc
00000070: 72f0 a2bd ff2a 2d3d f0f0 993d ea48 073d
00000080: b9ce d23c e6b3 263c 3d44 943d 91f0 383d
00000090: b25d 3dbd 6515 5d3c 4fad 95bd 7abf 013d
000000a0: 953b c53c e9c5 11bd 29a0 943b 097a 233a
000000b0: 94ed 143d 7163 243b f87f 3fbd d05d bdbc
000000c0: 3813 12bd 9fd1 81bd f5ee dbbc 9b2b 933b
000000d0: 2f68 a83c ab19 883c c1bd 403d 02b3 57bd
000000e0: ea78 bebc 1264 5eba c6ee 38bd b86a 823d
000000f0: f395 87bb 605d 8cbc c448 743d 9b61 4b3d
00000100: bcbf 463d e8d0 18bd d4ee 1ebd 7a67 213d
00000110: 779a 87bc a26e 91bd 18f1 b0bc fb18 1e3d
00000120: efc5 883c bf29 e9bc 20bd 75bc f5f4 3cbd
00000130: ce67 5b3d f2d0 383d 4d65 583d cf6e 1abd
00000140: 1f67 f0bc d91d 01bc 0201 d5bc b203 3f3d
00000150: e660 e53a 5b70 8c3d e9d5 023d 05fb 57bd
00000160: 1e4e 4abd f138 9abd d6cd 04bd 4436 36bd
00000170: 4a93 2fbd 939a 033d 5b59 0bbc 5903 f03c
00000180: 8ae4 f0bc 7189 153d a1ce debc 36b5 343d
00000190: e102 bbbc a392 873c 140e 293d a5b2 c23c
000001a0: 5a4f b83c 518f 483d bf1e 303c eafc d33c
000001b0: 65ab 253c c3f5 353d ca9e 70bc c616 12bd
000001c0: fb91 8bbd a589 65bb fecd 5f3d 3953 3e3d
000001d0: 3d5b 993b ea6e 143c 1a9f 16bd fbf2 54bd
000001e0: d2dc 90bc 7239 8b3d 9070 d23c 9cfd fb3c
000001f0: 18b5 c03c 37c0 c13d c159 11bb 6333 88bd
0.072667964 0.058027472 -0.0055102087 0.03920221 0.059160348 -0.0015349158 -0.032897584 -0.054798495
9.712095e-06 -0.027926283 -0.041235916 -0.025402702 0.021983007 -0.04961072 0.037485946 -0.016102372
-0.021511963 0.031282756 -0.020293813 0.006548433 -0.046424977 -0.050071873 0.07673778 0.019189037
0.07763212 -0.013189041 -0.040786017 -0.026677364 -0.079560176 0.042277332 0.07516658 0.03302852
0.025733339 0.010174727 0.07239578 0.045151297 -0.046231933 0.01349387 -0.073084466 0.031676747
0.024076262 -0.035589132 0.004535694 0.0006236141 0.036359385 0.0025083686 -0.0467529 -0.023116022
-0.03566286 -0.0633881 -0.026847342 0.004491282 0.020557491 0.016613802 0.047055963 -0.05266095
-0.023251016 -0.00084835396 -0.045149587 0.06368011 -0.0041377484 -0.017134368 0.059639707 0.04965363
0.048522696 -0.037308604 -0.038801983 0.039405324 -0.016553147 -0.0710118 -0.021599337 0.038598042
0.016695945 -0.028462289 -0.014998704 -0.046132047 0.053565793 0.04512114 0.052830983 -0.03770333
-0.029346047 -0.007880651 -0.026001457 0.046634383 0.0017500191 0.068573676 0.031942282 -0.052729625
-0.049390905 -0.07530392 -0.032422863 -0.044485345 -0.042865075 0.032129835 -0.008505191 0.029298471
-0.02940585 0.036508027 -0.027198138 0.04411813 -0.022828521 0.016549414 0.04127319 0.023766825
0.022498775 0.048964802 0.010749518 0.025877435 0.010111664 0.04442383 -0.014686296 -0.03566625
-0.06814953 -0.003502467 0.05463981 0.046466086 0.004680066 0.009059647 -0.036772825 -0.051989537
-0.01768342 0.06798066 0.02568844 0.030760579 0.023523852 0.0946049 -0.0022178742 -0.06650426

actor.7.weight f4 [128, 128]
00000000: 5f1b 93bd 3531 503d 78ab 4dbe a20b 943c
00000010: abea dfbc c4a7 6c3d ef06 a0bc 0317 f5bd
00000020: 8239 823b 0a64 653d 1f3a 953c 792b 763d
00000030: 2237 d33d aa70 423d 95d7 133d 3a29 a8bb
00000040: 13b1 9cbd 375b 2fbe 1768 ac3c 5fee 46bd
00000050: 359f b53d d44e 6bbd 3681 5f3d ce76 043e
00000060: ca37 e0bc d370 053e 42b3 323b 5181 053e
00000070: 4585 87bc 7786 b5bd 37bd 3a3e f30e 833d
00000080: 9c16 543d 64c3 0dbd 56e6 b5bc db83 dfbc
00000090: efb7 59bd 84a5 493d af0a 59bd 937f fe3d
000000a0: fffd 67bc dba9 a13d b612 50be 020e cd3d
000000b0: c907 d6bd c2e4 96bd 2e45 283c aac1 85bc
000000c0: 3ae6 98bc 4d64 85bd 8c65 8dbb 8b8e 03bd
000000d0: 78b7 13bd a983 5abc 98d7 2ebc 596d 7bbe
000000e0: 38eb a3bd bf8c 083e 9ea0 febc 6a33 42bd
000000f0: 5228 8d3b d8f3 043e b849 143e bf2b 52bd
00000100: f5ea 673d 0ce1 67bd f526 d0bd 0b85 033e
00000110: 24bc 85bc 4cfb 3dbd e101 f13c ccef 1f3e
00000120: aa98 4abd a806 0bbe 64c7 e83c 2f02 98bd
00000130: a4c5 71bd abe0 2e3e 06b1 15bd de8c cabd
00000140: cedf 94bc b9b4 b6bd aff3 4f3d 1508 3b3d
00000150: 3f54 503e 57f3 f73d 6f25 e93d b63d 56be
00000160: 02d6 b9bd 42ab b03d 6f4c 53bd 7111 823d
00000170: 40b5 6a3d 6016 df3b 1964 6c3d aff9 a3bd
00000180: f4f5 c43b d081 0d3e 8852 2a3e 0250 36bd
00000190: 9b21 803d b396 1f3c 4e78 d93c ab31 7b3d
000001a0: b8c3 b1bd 6b76 ddbd 7ecf 59bd 60ce cb3d
000001b0: ae6e 1c3d b4e9 133e 4829 81bc 2124 1b3e
000001c0: ea60 c43b 0f37 143d 3d5e 4bbb d2b0 3cbd
000001d0: 099f 5fbc 9192 173c 803e 843c 3961 fa3d
000001e0: 9ea2 273e 6055 fe3c e2fc 4abe f91a 97bd
000001f0: a594 b3bc bfce 193d 012d 4d3e 9d45 67bd
00000200: 85bc 47be 0f34 dbbd 3876 053d c9c4 49bb
00000210: 99ac fcbc ce36 8ebc 30c9 3e3e 8009 00bc
00000220: 5d17 153c 1287 143e f9f1 0abe 9ec6 e83a
00000230: b2a1 bebc 362e 5c3d 2b46 95bd d254 49bd
00000240: b8dc b93c 7b9f 78bd a991 8dbd 5490 2fbd
00000250: 5ad7 8b3c a9f0 fcbc 93ad bc3b cd07 16bd
00000260: 1990 ae3c 0331 5c3d 4526 3a3e 74cf 00bd
00000270: 6369 67be 87ed 713d ed90 e3bb 3b00 05bd
00000280: 9c2e 023c 6e11 50be 7e0b 36be 9fe9 073d
00000290: 23dd e3bd 7af2 a8bd 6835 203d c10d 8cbd
000002a0: 4f19 ddba 8a5b e6bd b4c1 7f3d 663b 9fbd
000002b0: 3b09 a03c 8fbb 5c3e 1987 d0bd 5f00 8b3c
000002c0: 6b77 b0bd d2d8 ecbc 9849 263d 853a 243e
000002d0: b551 34be d2d7 7f3b 0ba1 b23d ee3d 833d
000002e0: 95f5 b43d 4946 1a3d 652c da3d a9ae 77be
000002f0: 898f da3d 4bda 303c df8e debc 4446 0ebe
00000300: 0084 50be 2a39 e5bb e249 7b3d 0052 53bd
00000310: 7f0e efbd c8be 173e b466 29be 2d7c 1dba
00000320: bfcc 2f3d bcdc 493b 73b3 a9bd bf6e e13c
00000330: 6fd1 953d c21e 7d3c 8c47 e9bc c998 bd3c
00000340: 9d9b b4bd 3787 1f3e 85f2 c9bd 9d05 a7bd
00000350: bb7d 15bd fb3a e3bb 56e4 c83c 54f6 4bbb
00000360: 9b01 993d 77d2 5bbb da61 29bc 8796 9abb
00000370: 76f9 023e 932a 973d fd89 5d3e 24fc 1b3e
00000380: 5206 64bc f478 03bd ff6e 31bd e2db 9b3d
00000390: 8def 95bd b60f 7bbd b9b5 82bd 341f 32bd
000003a0: 79b1 ecbd c9d2 e13b 95f6 913d fe9a 923d
000003b0: d75b a5bd 81b1 33bd dd88 35be bc78 0dbd
000003c0: ecf2 8eb9 5181 27bd f866 40be 26b1 4a3c
000003d0: 21b1 62bc 1c18 c2bc 08b5 93bd 871d a8bc
000003e0: 234c 09bd debb 01bd 547d 503d 5487 acbc
000003f0: 63f7 c73a 695d 97ba a6f6 023d 3896 2a3d
-0.07182955 0.050828177 -0.20084941 0.018071953 -0.027333578 0.05777718 -0.019534556 -0.1196728
0.0039741406 0.056003608 0.01821619 0.060100053 0.1031325 0.047470726 0.036094267 -0.0051318677
-0.07650962 -0.1712464 0.021045728 -0.048567172 0.08868257 -0.057448223 0.054566585 0.12935945
-0.027370352 0.1303132 0.002726749 0.13037612 -0.01654304 -0.08863538 0.18236242 0.06399336
0.051779374 -0.034610167 -0.02220456 -0.027284553 -0.05315393 0.049230114 -0.052988704 0.124266766
-0.0141596785 0.078937255 -0.20319638 0.100124374 -0.10450704 -0.07367851 0.0102704 -0.016327698
-0.018664468 -0.065132715 -0.004315084 -0.03211836 -0.03606364 -0.013337054 -0.010671519 -0.24553432
-0.08003849 0.1333494 -0.031082448 -0.047412314 0.004307785 0.12983644 0.14481246 -0.05131125
0.056620557 -0.056611106 -0.101636805 0.1284372 -0.016325064 -0.046382234 0.029419841 0.15618819
-0.049461998 -0.13576758 0.02841539 -0.074222915 -0.059026375 0.17077892 -0.036545776 -0.098901495
-0.018173125 -0.08921189 0.050769504 0.045662005 0.20344637 0.1210696 0.11384093 -0.20921978
-0.09074022 0.08626415 -0.051586565 0.06350983 0.05730176 0.006808087 0.057712648 -0.08006608
0.006010765 0.13819051 0.16633046 -0.044509895 0.0625641 0.009740519 0.026546624 0.061326664
-0.086799085 -0.10813602 -0.053176396 0.09951472 0.03819149 0.1444462 -0.015766755 0.15150501
0.0059929984 0.03618532 -0.0031031512 -0.046067066 -0.013648757 0.009251253 0.016143084 0.12225575
0.16370627 0.03104657 -0.1982303 -0.073781915 -0.021921465 0.037550684 0.20036699 -0.056462873
-0.19505508 -0.10703289 0.032583445 -0.003078746 -0.03084402 -0.017360117 0.18631434 -0.007814765
0.0090998085 0.1450465 -0.13568868 0.0017759388 -0.023270462 0.053755008 -0.07288774 -0.049153157
0.022688255 -0.060698967 -0.06912548 -0.04286225 0.017070461 -0.030876474 0.0057579963 -0.036628533
0.021308945 0.05375768 0.18178661 -0.031447843 -0.22598796 0.059064414 -0.0069447667 -0.032470923
0.007945683 -0.20319149 -0.17777821 0.033181783 -0.11126163 -0.08249374 0.039113432 -0.06838561
-0.0016868504 -0.112479284 0.06244059 -0.07775001 0.019535651 0.21555923 -0.10182018 0.01696795
-0.08616527 -0.028911982 0.04059753 0.16037948 -0.17609294 0.003903855 0.08722123 0.064082965
0.088359036 0.037664685 0.10652999 -0.24187721 0.106719084 0.010794233 -0.027167736 -0.13893992
-0.20362854 -0.00699534 0.061349757 -0.051591873 -0.11672687 0.14818871 -0.16543084 -0.00060075783
0.04291987 0.0030801734 -0.0828618 0.027518628 0.07315337 0.015449228 -0.028476499 0.023144143
-0.088187434 0.15578924 -0.0986071 -0.081553675 -0.03649686 -0.0069345213 0.024522942 -0.0031122165
0.07471009 -0.0033542195 -0.010338271 -0.0047176513 0.12790474 0.07381167 0.2163467 0.15232903
-0.0139175225 -0.03209777 -0.043318745 0.07610299 -0.07321081 -0.06129428 -0.06382317 -0.04348679
-0.11557288 0.0068915826 0.0712711 0.07158469 -0.08074158 -0.043870453 -0.1772799 -0.03453897
-0.00027265341 -0.04089481 -0.1878928 0.012371337 -0.013836176 -0.023693137 -0.07212263 -0.020521892
-0.033519875 -0.031673305 0.050900772 -0.021060623 0.0015256222 -0.0011548224 0.031973504 0.041647166

actor.7.bias f4 [128]
00000000: 9cf2 3ebc 12cb 16bd bd55 f8ba 925b 3a3c
00000010: deaf 21bd c76e 803b dae4 3d3c 424f 7d3b
00000020: 584a afbc 3356 123d 9601 91bc 015e dd3c
00000030: f0fb 48bd 3b3f e93c 04e1 77bb bdce e03b
00000040: 89e4 31bd 8de4 a43c 2b3d 2fb8 1dc4 aa3c
00000050: ffba 053d 05c2 a43c 264f 9e3b d8ba a1bc
00000060: 1437 0a3c 5c7a 023d 5180 86bc a8fd 3cbd
00000070: 8445 c1bc 8197 983c 2e42 ac3b e268 90bb
00000080: 15f9 15bd 6d68 e93c a796 7b3c dca7 8d3c
00000090: 05b3 9bbc 7dd2 8a3c d45c 563d 0960 0bbd
000000a0: 7364 393c 4a76 343c f15f 063b 5cba c9bc
000000b0: e4cb 653c b45b 5abd e3a9 a8bb 528b 8bba
000000c0: 4656 4cbd 744b 633c e817 a2bb 1bfe 34bc
000000d0: f247 223c b715 293d f8ce 29bb 01ee 3fbc
000000e0: 03a6 acbc ab07 26bd 96b1 24bd 2a6f 703c
000000f0: 0384 103d 28c1 c33c a988 4dbc c760 843d
00000100: 975c d23c d17a 5ebb 9ebd 5ebd 8646 293c
00000110: 4102 65bc 6f94 773c 4c1b b0bc bc07 523c
00000120: 476a 64ba 573c 22bd 9673 5a3d 26e2 54bc
00000130: f99b 003d b9c7 25bc 1d86 053c e6bd 28bd
00000140: 1c5d bfbc c9fb dabc 43ef 043d 8889 e53c
00000150: 9298 2d3d a16e 5e3c d344 143c a58f 653c
00000160: 4629 ccbc 17d8 6ebc 09d1 e5bb df3b b63b
00000170: 50ce e43c a60e 173d c96b 26bd ded6 073c
00000180: 34c9 a5bc 85a9 d53c a218 32bc 8af4 76bc
00000190: e48a d2bc 5fb0 aaba 4de3 293d f6e0 d4bb
000001a0: 7a70 3b3c 5650 bc3c 90fa 47bd 36c2 343b
000001b0: 1a51 0fbd 1c22 f63c 256d 29bc 752b 3c3c
000001c0: 23a0 5e3c 5fce f8ba 59e7 aebc 09bb 003d
000001d0: 7150 4bbc c953 ce3b ca16 3bbc f5ed 213d
000001e0: 2902 62bd 99ca 37bc 17e1 11bd d600 d9bc
000001f0: 1c5f 813d 73eb 45bb 3c71 e63c 2307 3bbd
-0.011654522 -0.036814757 -0.001894645 0.011374371 -0.03947436 0.0039194557 0.011590207 0.0038651978
-0.021397755 0.035726737 -0.017700952 0.027022364 -0.04906839 0.028472533 -0.0037823329 0.0068605826
-0.04343084 0.020128513 -4.178022e-05 0.020845467 0.032649036 0.020112047 0.0048312126 -0.019742414
0.008435983 0.031854972 -0.016418608 -0.046140343 -0.023592718 0.01862693 0.0052569127 -0.0044070343
-0.036614496 0.028492177 0.015355743 0.017291956 -0.019006262 0.016946072 0.05233462 -0.034027133
0.011315453 0.01101453 0.0020503963 -0.024624996 0.014025662 -0.05331011 -0.005147205 -0.0010646379
-0.049886964 0.01387297 -0.0049466975 -0.011046912 0.009904848 0.041280475 -0.0025910717 -0.011714459
-0.021075254 -0.040534656 -0.04020842 0.014674941 0.035282146 0.023895815 -0.012544789 0.06463771
0.025678916 -0.0033947716 -0.05438005 0.0103317555 -0.013977588 0.015111073 -0.021497391 0.012819227
-0.00087133463 -0.039608326 0.053332888 -0.012993371 0.031398747 -0.010118418 0.008149651 -0.041196726
-0.023359828 -0.026731389 0.03245474 0.028019682 0.04238183 0.013576181 0.009049612 0.014011298
-0.024922024 -0.014577887 -0.0070134443 0.0055613364 0.027930409 0.036879204 -0.040630136 0.008290974
-0.020237543 0.02608181 -0.010870131 -0.015072951 -0.025700994 -0.0013022533 0.041476537 -0.006496544
0.011440391 0.022987526 -0.04882294 0.002758158 -0.034989454 0.030045561 -0.0103409635 0.01148497
0.013587984 -0.0018982402 -0.02135055 0.03142837 -0.012409315 0.006296609 -0.011419008 0.039533574
-0.05517784 -0.011217737 -0.035615053 -0.026489656 0.06316969 -0.0030200153 0.028130166 -0.045661103

actor.10.weight f4 [1, 128]
00000000: d7a9 b7b9 e665 453a 8966 88b9 42cf 0bba
00000010: da25 c93a 71b4 ff39 f26d dc3a 04d8 1f3a
00000020: d3e6 f23a 1e8a 7c3a b744 103a efa0 8a3a
00000030: 7693 5bba d0fa b5ba 9a44 70ba 79a9 8e3a
00000040: 73e0 47ba 5624 423a 848e 743a e3d9 923a
00000050: fd28 2f3a fb31 36ba 9025 a2ba c444 4f3a
00000060: eb67 93b9 39fe 36ba 84fd eb39 a576 663a
00000070: 8816 b8b7 3a4c 2d39 72be 913a c2b1 3d3a
00000080: 001d 4ab8 8ebb dcb7 a81f 34ba 9528 503a
00000090: 499b 03b9 c8be 4d3a d0b1 7eb9 2c45 bdba
000000a0: 87a5 a8ba 34cf 4dba 2569 ce38 f4c0 86ba
000000b0: 8c30 2b3a abcc 8b3a e5d4 593a 1ccc 80ba
000000c0: b98d b43a 726f afb9 0e0a e4b9 9b5b afba
000000d0: 78ae d0ba f2ef f3b9 9e4a 423a 219e 5db9
000000e0: cf55 46ba dbab 48ba 18fd b6b9 2474 893a
000000f0: b21b dc3a 293e 913a c2ed 3b3a 5a1a b9b9
00000100: 0e1b 943a 23d0 c8ba f4b2 e637 2d95 9539
00000110: 905d 6bba 5717 81ba 9465 7aba 588d 923a
00000120: 05ca 333a 89bb e2b9 8810 23ba efb3 723a
00000130: f93a bfba 0ad5 4cba 158c 633a 0530 1539
00000140: 269b 18ba 4396 fd39 5f9d f139 95ae a53a
00000150: 3a65 0cba f4bd c039 066c 163a 5616 42ba
00000160: 2eb1 2eba 735e 6d3a cff9 bd3a 5709 8c3a
00000170: aea0 563a 84cb 69ba e891 9eba f8e3 57ba
00000180: 3ddf a4b9 f3f2 af3a bd67 8d39 cab1 56ba
00000190: f1d5 0dba bdd0 de39 6608 5f3a b35f 863a
000001a0: d3e9 a03a 3462 e8ba ad46 6cba a01f 8339
000001b0: d561 b8b9 40ad 8539 7f03 9d3a 4c13 4a3a
000001c0: e6c0 5eb8 37c0 963a 26d5 0239 bc66 483a
000001d0: f6c9 45ba 6a3f 07ba f12b 403a 1ad3 95ba
000001e0: 0391 2b3a b00d 96ba 0104 36ba faa3 d239
000001f0: 612d 633a 6f86 803a 8347 8dba 7f8b ac3a
-0.0003503102 0.00075301377 -0.00026016336 -0.0005333313 0.0015346364 0.0004877183 0.0016817434 0.00060975575
0.0018531926 0.0009633618 0.00055034034 0.0010576526 -0.00083761604 -0.0013883952 -0.0009165496 0.0010884247
-0.0007624693 0.0007405927 0.0009329098 0.0011203851 0.0006681828 -0.00069501967 -0.0012370814 0.000790667
-0.0002811545 -0.0006980631 0.00045011577 0.0008791483 -2.1945001e-05 0.00016526962 0.0011119379 0.0007236266
-4.818756e-05 -2.631338e-05 -0.0006871172 0.00079406175 -0.00012550982 0.0007848558 -0.00024289568 -0.001444017
-0.0012866714 -0.0007851005 9.84243e-05 -0.0010280893 0.00065303664 0.0010665854 0.0008309617 -0.0009826454
0.0013775147 -0.00033461634 -0.0004349504 -0.0013378741 -0.0015921136 -0.00046527345 0.00074116315 -0.0002113511
-0.0007565887 -0.0007655003 -0.00034902315 0.0010486883 0.0016792922 0.0011081147 0.00071689126 -0.00035305583
0.0011299567 -0.0015320819 2.7501468e-05 0.0002853064 -0.00089784805 -0.0009848875 -0.00095518795 0.001118104
0.00068584114 -0.00043245804 -0.000622042 0.00092583796 -0.0014589719 -0.0007813728 0.00086802366 0.00014227636
-0.0005821459 0.00048367874 0.00046084353 0.001264053 -0.000535566 0.0003676262 0.00057381426 -0.0007403841
-0.0006663975 0.00090549065 0.0014494004 0.0010683936 0.0008187395 -0.0008918571 -0.0012097927 -0.0008235569
-0.00031446843 0.0013423845 0.00026970907 -0.0008189945 -0.0005410603 0.00042498662 0.00085080264 0.0010251909
0.0012276716 -0.0017729462 -0.0009013217 0.0002500983 -0.00035168105 0.00025496818 0.0011979191 0.0007708564
-5.3108575e-05 0.0011501376 0.0001247717 0.0007644703 -0.0007545048 -0.0005159291 0.00073307665 -0.0011430711
0.0006544741 -0.0011448171 -0.00069433457 0.00040176493 0.0008666125 0.0009805689 -0.0010778758 0.0013164132

critic.0.weight f4 [128, 6]
00000000: 5306 5ebf a170 a83d dcf8 573d 5521 63be
00000010: dd7c d1be b43f 2dbe 7c3b febe 6e42 3dbd
00000020: 2883 103e be70 babe efad 913e 1b63 0c3e
00000030: 4ad3 303e 437d 4bbe 52ed 643e 5a83 273e
00000040: 4e37 edbe 0188 d43e 1c2d dcbe b695 813e
00000050: 7a8b 923c db68 03bd 169b fbbe 8eec b4be
00000060: eaf5 98ba 037a 8abe 4d44 c43e bfd9 e03e
00000070: e845 853e 6278 28be 7eca f7be 4dce 673d
00000080: c1df 683e 5683 90be 804e d63d 9727 183e
00000090: f949 aec0 d2ef b0be 3436 173e 1a03 a13f
000000a0: 7c9e bebf bbc9 1940 ec48 523f e463 f8bc
000000b0: 7e32 24be 6aa2 2d3e f7aa 243f 536d 96be
000000c0: 7f49 dbbe 4aaa a3bc 48ba 963e ee0a c43e
000000d0: f028 be3d 6fab bf3e 9568 ab3e 69a8 e83d
000000e0: 657e 453d 9047 ccbe ac96 f63e 020c d43d
000000f0: 9551 5abf 0996 8cbe 309d 8b3e 8102 6bbf
00000100: 82f7 4c3f 94a8 793e 589c 003f 5aec 14be
00000110: a569 633e be1b 243f b90a 743e 691b 573f
00000120: 7375 c13e 4e72 dfbd 6b6c d23d f321 1f3e
00000130: 2781 f1be 1c7a a7be d2f7 ca3e 43e9 9ebd
00000140: 0725 2e3d 1f7d 183f 8c77 64bd ddd8 dfbd
00000150: 5323 b93e 00c8 a43c ee7d 213d e3ca dd3d
00000160: 6e2f 023f 7b74 74bd 94c6 e43e 75b3 18bc
00000170: da1f b6be 4d4a d43d e55f 41bd 61fa 32be
00000180: cfa3 b83e 76f0 5b3e 8be0 37be 92dc 073e
00000190: c6d6 c63e 7781 51bd 49ae e93e 0754 bcbe
000001a0: 5622 583e 1405 94be dbfe 373e 6c85 c53c
000001b0: a03b 8abe 725c f0bd 9e03 8fbc 20d5 66be
000001c0: 3f1b 81be 44ae adbe 7820 f33d dfb9 a83d
000001d0: 93e3 733d fff3 f33c 1f5e 213e aa89 01bd
000001e0: a933 dc40 a26d 03bd 8ff8 363d 00f4 2abe
000001f0: 849d 1c40 2b54 c8bf 608c abbe 3ad5 4cbe
00000200: b458 bebd da12 b5be c6c9 1fbe b750 4e3e
00000210: b351 543d 1a24 373e 2089 f2bd ad84 5bbe
00000220: 3e0c 163f 39a1 dcbe a4c0 27bf 67cf 74be
00000230: 65a2 2d3d f461 743e 52fa 9bbe cfcc 163d
00000240: 5cbd e53e b27d 43bd 3b27 b8bd 8057 0a3f
00000250: 5ede 163f a725 09bf 7341 97c0 788c d4bd
00000260: 0494 1fbe 6b03 cd3f 8a08 f5bf e4a0 2e40
00000270: 38f6 7b3e b906 51be 46be e63d 2f27 26bc
00000280: f9e9 29be 6d6d d73e fe8a a23f 7972 e63d
00000290: ed1a f2bc bd4a f63d efe4 ff3f fd28 85be
000002a0: a47d 103e 32b9 da3d aa15 993d 42fb f33d
000002b0: e61b 0abf 6cc7 f2bd 9508 653c 01fa e43d
000002c0: 31e4 18be 1cfa fd3e 4d22 9bbe 0b1f cebd
000002d0: 5de0 1bbf c61e 9b3e b755 5ebe baab 1abf
000002e0: 5031 36bf d69f 11bf 0685 8bbe 8b7f f93d
000002f0: be19 0cbe c6c1 fcbe 48d4 a4be be5b 7fbe
00000300: 0352 893e 8d24 8abe 29bd adbd 6741 c4be
00000310: fc75 2c3c 27ad 783b b1db 02bf c514 153d
00000320: f0f6 243d b347 5fbf 42c2 0b3f 44e9 c8bc
00000330: d980 01bf d1e5 0f3d 5bc7 da3d fb4d f43e
00000340: ea1d 563e f785 c53c 9f62 4040 8aa8 d63e
00000350: d0cf 56be 3b32 abbd 99d1 083f 9852 47bf
00000360: aac1 ebbe 125f d7bd effb 88bd 37ac 1fbe
00000370: 0914 51bd e0eb a83c 8419 43bf 389c 9ebe
00000380: 106f 733e 90cf 97bd 5bc2 eabe 4d74 b5bd
00000390: 36b5 02bf ef9b 17be 8e82 06be 3b48 bebe
000003a0: c041 5d3d 752a bc3e 24d4 ce3d 267e 52be
000003b0: a302 f5bc 0ee6 fbbc b3d7 323e 072b cfbe
000003c0: 35da 783e 20d1 0fbe 0244 443e 94fc 0fbf
000003d0: d45f 453f dfa3 e3be 1da0 f2bc 27b2 96be
000003e0: 7b84 853d 8494 e63e 8cbe b43e a600 863d
000003f0: b86c 3c3f ec03 6abe 1d49 143e f32b a7be
-0.867284 0.08224607 0.052727565 -0.22180684 -0.40915576 -0.16918832 -0.49654758 -0.04620593
0.14112532 -0.3641414 0.28453013 0.1370968 0.172681 -0.19872002 0.22356156 0.163587
-0.46331257 0.41510013 -0.43003166 0.25309533 0.017888773 -0.03208242 -0.4914176 -0.35336727
-0.0011669968 -0.27046213 0.3833336 0.43916127 0.26029897 -0.16452172 -0.48396677 0.056593228
0.22741605 -0.282252 0.104641914 0.14858852 -5.44653 -0.34557968 0.1476677 1.2579072
-1.4892116 2.4029377 0.8214252 -0.030321069 -0.16034886 0.16956487 0.6432337 -0.29380283
-0.4282951 -0.019978661 0.29438996 0.3828959 0.09285152 0.3743548 0.33478227 0.11360247
0.048216242 -0.39898348 0.4816183 0.10353853 -0.85280734 -0.27458218 0.27268362 -0.91800696
0.80065167 0.24380714 0.5023856 -0.14543286 0.22208269 0.6410483 0.23832215 0.840262
0.3778492 -0.10910474 0.10274585 0.15540294 -0.47168848 -0.3271035 0.39642197 -0.07759335
0.04251578 0.5956592 -0.05577807 -0.10930035 0.36159763 0.020114899 0.039426737 0.10829713
0.5085362 -0.059681397 0.44682753 -0.00932013 -0.35571176 0.10365734 -0.047210593 -0.17478324
0.36062476 0.21478447 -0.1795675 0.13267735 0.38835734 -0.051148858 0.45640782 -0.36782858
0.21106848 -0.28910124 0.17968313 0.024111472 -0.26998615 -0.117363825 -0.01745778 -0.22542238
-0.252161 -0.33922017 0.11871427 0.08238577 0.059543204 0.029779432 0.1575856 -0.031625427
6.881306 -0.032086976 0.044670638 -0.16694641 2.447114 -1.5650686 -0.33505535 -0.20003214
-0.092942625 -0.35365945 -0.15604314 0.20147978 0.051835727 0.17884865 -0.11842561 -0.2143733
0.5861243 -0.43091753 -0.6552832 -0.23907243 0.0423912 0.23865491 -0.30464417 0.036816414
0.44871032 -0.047727294 -0.089918576 0.54039764 0.58933055 -0.5357308 -4.7267394 -0.10378355
-0.15583807 1.6016668 -1.9143231 2.72857 0.24605644 -0.2041272 0.112667605 -0.010141178
-0.1659316 0.42075673 1.2698667 0.11252303 -0.029553855 0.12025974 1.999174 -0.26007834
0.14110428 0.106798545 0.07474835 0.11913158 -0.5394882 -0.11854443 0.013979097 0.11180497
-0.14930798 0.4960488 -0.30299607 -0.10064515 -0.60889226 0.30296916 -0.21712385 -0.60418284
-0.71168995 -0.56884515 -0.27249926 0.1218253 -0.13681695 -0.49366587 -0.32193208 -0.2493734
0.26820382 -0.2698101 -0.08483345 -0.38331148 0.010526177 0.0037945004 -0.5111647 0.03639676
0.04027456 -0.8721878 0.5459329 -0.024525292 -0.5058723 0.03513128 0.10682555 0.47715744
0.20909849 0.024111731 3.0060194 0.4192546 -0.20977712 -0.0835919 0.5344482 -0.77860403
-0.4604619 -0.1051618 -0.066886775 -0.15593038 -0.051044498 0.020620286 -0.7621081 -0.3097856
0.23772836 -0.07412636 -0.45851406 -0.08860073 -0.51057756 -0.14805578 -0.1313574 -0.37164482
0.054017782 0.36751142 0.10099056 -0.20555934 -0.029908484 -0.030749347 0.17465095 -0.40462515
0.2430199 -0.14044619 0.19166568 -0.5624478 0.7709935 -0.4446096 -0.029617364 -0.29432794
0.06519409 0.45035183 0.35301626 0.065430924 0.7360339 -0.22853059 0.14481016 -0.32650718
