PPO/PPO4_Trained/PPO_DoubleInvPendulum_200K.pth (torch, 410281 bytes, 18 tensors)

actor.0.weight f4 [128, 6]
0.42242345 -0.08611789 0.12899478 0.8980221 0.34443802 -0.13483532 -0.40313387 0.24513964
0.30040646 0.030995674 -0.49231827 -0.30123663 0.014670625 -0.069951475 -0.10196566 -0.44568735
-0.053876624 -0.2190792 -0.76418036 0.31949228 -0.24901737 -0.3580254 -0.37552202 0.2281438
-0.5681505 0.21875298 -0.2535655 -0.3515027 -0.61382496 0.08348005 -0.8522682 0.11386652
0.14600365 -0.72536165 -0.39525872 -0.27149007 0.31159788 0.121619254 -0.15593056 0.109612286
0.32930052 -0.39557487 0.10118728 0.18738113 0.33854935 0.5025563 -0.033036314 0.13561396
0.70377386 0.31507197 -0.067397065 0.49375448 0.2912909 0.33505607 -0.556599 0.1808016
-0.05269681 -0.45059094 0.022043323 -0.38652247 0.22997707 0.22493114 0.028526751 0.5519747
0.5616322 -0.1413586 -0.7729835 -0.24658182 0.36898762 -0.11198107 -0.6820519 0.18965417
0.46687534 -0.38316286 0.12268067 0.62707543 0.1965144 0.2591255 0.23757796 -0.2241746
-0.32304338 0.55147207 -0.05441791 0.19874236 0.08928159 -0.15127128 0.33877203 -0.043750957
-0.2491767 -0.28828382 0.12396532 0.3388023 0.052503407 -0.47329676 -0.49556145 -0.31193644
0.9227194 0.3345948 -0.07778289 0.6011332 0.18307513 0.11543171 -0.19595675 0.18150088
-0.2830199 -0.17126036 -0.49031025 -0.19101349 -0.15228635 -0.25769624 0.25459376 0.14257167
0.16388154 0.05204536 -0.21323378 -0.014362898 0.1644545 -0.48056126 0.04041289 -0.18438679
0.2610827 0.34487 -0.14025606 0.59216815 0.43062875 -0.1251856 -0.8760548 0.34597683
-0.24001895 -0.6790897 -0.48310527 0.3445381 0.844506 0.34711137 0.08031054 0.53841937
0.57147646 -0.090461366 -0.2104938 0.27738023 -0.2281162 -0.076779544 0.424059 0.17384131
0.8588868 -0.05877546 -0.3627423 0.85687685 0.5316567 -0.42886502 0.11932969 0.24233499
0.19105886 -0.28100377 -0.28972027 0.06384321 -0.4746302 -0.045630157 -0.1599427 -0.05744742
-0.37101027 -0.16979368 0.24412456 -0.13408273 -0.1809971 0.4522909 0.115686156 0.16258197
-0.0014856464 0.05941718 -0.34643006 0.6856181 0.14137757 0.08358054 -0.84164506 0.14353502
-0.35741964 -0.5027954 0.02571593 0.021046441 0.21937408 0.26402116 0.11845391 0.008048763
0.20382321 -0.2922237 0.7690084 -0.33584145 0.1963806 0.2342707 0.19604401 0.13168937
0.8740485 0.3835655 0.046940543 0.42139047 0.42386806 -0.4040256 0.65387017 -0.28383824
0.37962294 0.843406 0.55750924 -0.010765444 -0.56768405 -0.12812133 0.07200613 -0.5373943
-0.64544827 -0.1762952 -0.4943019 -0.25960395 0.23205766 -0.63289845 -0.0783212 -0.17897955
0.08810688 -0.16575542 -0.28223622 0.573355 -0.13268955 0.10414015 0.46805707 -0.1943616
-0.025319844 0.42118552 -0.18718596 -0.026762465 -0.35904977 0.03701473 -0.21426119 -0.6666783
0.18263222 -0.37495294 0.30908728 -0.288471 -0.22865018 0.08104632 -0.031474464 0.11716783
-0.39988658 -0.022321852 -0.17241654 -0.79028714 -0.16292723 -0.056985624 -0.34925845 -0.01659751
-0.06397272 0.22932974 -0.34892485 -0.38305813 0.28057092 0.061566547 -0.08948654 0.34199888
00000000: e347 d83e 945e b0bd 3517 043e c7e4 653f
00000010: 2e5a b03e 4512 0abe 9067 cebe e305 7b3e
00000020: e0ce 993e a4ea fd3c 2411 fcbe b03b 9abe
00000030: 105d 703c b842 8fbd 5fd3 d0bd 2231 e4be
00000040: bcad 5cbd 4c56 60be 53a1 43bf 7e94 a33e
00000050: 69fe 7ebe 1b4f b7be 6c44 c0be 879e 693e
00000060: 5072 11bf c800 603e 56d3 81be 29f8 b3be
00000070: a223 1dbf 97f7 aa3d 402e 5abf da32 e93d
00000080: fb81 153e 4db1 39bf 5a5f cabe bf00 8bbe
00000090: c289 9f3e 8413 f93d 43ac 1fbe 687c e03d
000000a0: 149a a83e ca88 cabe 473b cf3d d7e0 3f3e
000000b0: 5756 ad3e 88a7 003f 1651 07bd 63de 0a3e
000000c0: 862a 343f 1d51 a13e 7907 8abd 63cd fc3e
000000d0: 1524 953e 788c ab3e 467d 0ebf 0e24 393e
000000e0: 9cd8 57bd dbb3 e6be 3394 b43c 46e6 c5be
000000f0: 1c7f 6b3e 5954 663e efb0 e93c 374e 0d3f
00000100: 21c7 0f3f 4fc0 10be 3fe2 45bf f27f 7cbe
00000110: f2eb bc3e 5556 e5bd f49a 2ebf b434 423e
00000120: 490a ef3e ec2d c4be 0140 fb3d 0488 203f
00000130: 123b 493e 19ac 843e a347 733e 078e 65be
00000140: f165 a5be 462d 0d3f 50e5 5ebd 1e83 4b3e
00000150: 44d9 b63d dce6 1abe 8773 ad3e 3434 33bd
00000160: 2d28 7fbe f099 93be 88e1 fd3d 7f77 ad3e
00000170: d00d 573d f453 f2be 3bba fdbe 22b6 9fbe
00000180: 5737 6c3f 0250 ab3e a34c 9fbd dee3 193f
00000190: 0c78 3b3e 7667 ec3d e3a8 48be 5edb 393e
000001a0: fce7 90be e05e 2fbe f209 fbbe 0a99 43be
000001b0: f4f0 1bbe c3f0 83be 1d5a 823e 4ffe 113e
000001c0: 90d0 273e 842d 553d f559 5abe 5c52 6bbc
000001d0: c366 283e 200c f6be fd87 253d e4cf 3cbe
000001e0: a2ac 853e cd92 b03e 499f 0fbe 5598 173f
000001f0: 5f7b dc3e a730 00be 2145 60bf e023 b13e
00000200: 87c7 75be d3d8 2dbf 9359 f7be 4c67 b03e
00000210: 8c31 583f 95b8 b13e da79 a43d dad5 093f
00000220: 484c 123f cf43 b9bd b08b 57be c804 8e3e
00000230: 4b97 69be 983e 9dbd 431e d93e 7503 323e
00000240: 01e0 5b3f 89be 70bd 5cb9 b9be 485c 5b3f
00000250: a71a 083f 3294 dbbe 2063 f43d aa26 783e
00000260: efa4 433e badf 8fbe 3756 94be 3bc0 823d
00000270: bb02 f3be b0e6 3abd 05c8 23be fc4d 6bbd
00000280: 0ff5 bdbe 65de 2dbe cafb 793e fc4c 09be
00000290: 4e57 39be ac92 e73e ddec ec3d e37b 263e
000002a0: 05ba c2ba 6e5f 733d 485f b1be ab84 2f3f
000002b0: 48c5 103e 462c ab3d 0d76 57bf d8fa 123e
000002c0: b5ff b6be 33b7 00bf 37aa d23c 9669 ac3c
000002d0: 99a3 603e c82d 873e f797 f23d f5de 033c
000002e0: 08b7 503e 589e 95be bcdd 443f 69f3 abbe
000002f0: ff17 493e a9e4 6f3e c3bf 483e 94d9 063e
00000300: a4c1 5f3f b262 c43e ba44 403d 7ec0 d73e
00000310: 3c05 d93e 72dc cebe 0964 273f 3f53 91be
00000320: f05d c23e 75e9 573f edb8 0e3f 8b61 30bc
00000330: be53 11bf 3d32 03be f377 933d ac92 09bf
00000340: 193c 25bf bb86 34be 2315 fdbe cfea 84be
00000350: 86a0 6d3e a205 22bf de66 a0bd 6a46 37be
00000360: 6171 b43d cabb 29be 4481 90be 65c7 123f
00000370: c5df 07be 6e47 d53d 2da5 ef3e ba06 47be
00000380: 906b cfbc a1a5 d73e adad 3fbe f53c dbbc
00000390: 5fd5 b7be c29c 173d 4967 5bbe 6eab 2abf
000003a0: f103 3b3e d5f9 bfbe b040 9e3e 79b2 93be
000003b0: 4623 6abe 9dfb a53d 5eeb 00bd b0f5 ef3d
000003c0: efbd ccbe 51dc b6bc f68d 30be 4250 4abf
000003d0: 65d6 26be c269 69bd 01d2 b2be 80f7 87bc
000003e0: 2104 83bd 6ad5 6a3e 47a6 b2be 3220 c4be
000003f0: fea6 8f3e 342d 7c3d b844 b7bd 7a1a af3e

actor.0.bias f4 [128]
-0.18750875 -0.018691173 0.36934814 0.030446816 0.1402175 0.20832716 -0.22960585 -0.16972567
0.30318826 0.2964665 0.031586703 -0.08603293 0.1970604 -0.2909648 0.19946052 -0.24859354
0.32356188 0.082547404 -0.2679043 0.37489724 -0.28338078 -0.14223234 0.13230388 0.15722628
0.2768801 -0.231204 -0.352778 -0.17065519 0.18004201 -0.236554 0.0158622 0.17689855
0.011474084 -0.1340905 0.02987708 -0.3475962 0.29886714 0.16413018 0.22823608 0.09524133
0.16349 0.033272173 -0.08388838 -0.038178023 0.26840997 0.312375 0.16150485 0.022205101
0.04648014 -0.30588877 0.10705566 0.12469517 0.012504275 0.13009156 0.080547914 -0.14309315
0.004765233 0.36896566 -0.1642953 0.33913112 0.16522823 -0.09499305 -0.18375044 -0.07836002
0.1805611 0.20806348 0.35435134 0.16626568 -0.00210864 0.019440657 -0.30367997 -0.29247883
-0.102720045 0.33060607 0.33226243 0.09439509 -0.11574055 0.03928691 -0.13794468 0.17017221
0.39112934 -0.28746918 -0.34407684 -0.1355143 0.41257188 0.2902202 0.04702806 0.370938
0.31104383 0.15889335 -0.14580561 -0.34709498 -0.04566987 0.30969912 -0.41883898 0.16969901
-0.29438153 -0.21570101 -0.21960613 0.20395932 0.35101914 0.2238 -0.17441724 0.19759172
-0.19254418 -0.038671114 0.21436124 -0.10420009 -0.16841555 -0.20363088 0.06472787 0.34282523
0.18923011 -0.22534946 0.29531753 -0.2573479 0.05070794 -0.22564466 -0.36037868 0.21840508
-0.06701415 -0.005136239 0.11867515 -0.14003126 -0.30875748 -0.15714337 0.3036353 -0.11134369
00000000: 4b02 40be 3b1e 99bc 331b bd3e 9a6b f93c
00000010: 2d95 0f3e b753 553e cc1d 6bbe 91cc 2dbe
00000020: 7e3b 9b3e 75ca 973e 0f61 013d 0832 b0bd
00000030: 34ca 493e 57f9 94be 613f 4c3e 4e8f 7ebe
00000040: e7a9 a53e 9d0e a93d c12a 89be 88f2 bf3e
00000050: 4917 91be 5ba5 11be ab7a 073e edff 203e
00000060: 3ac3 8d3e bec0 6cbe 519f b4be 3cc0 2ebe
00000070: ef5c 383e 363b 72be 72f1 813c e524 353e
00000080: ccfd 3b3c 054f 09be c7c0 f43c 21f8 b1be
00000090: 1d05 993e be11 283e b8b6 693e e30d c33d
000000a0: ec69 273e 6748 083d accd abbd 8f60 1cbd
000000b0: 086d 893e 9eef 9f3e 8761 253e 79e7 b53c
000000c0: f661 3e3d 749d 9cbe ff3f db3d 2e60 ff3d
000000d0: bbde 4c3c b936 053e 4ef6 a43d 0387 12be
000000e0: ac25 9c3b 11e9 bc3e 073d 28be 98a2 ad3e
000000f0: 9731 293e b78b c2bd 1329 3cbe 387b a0bd
00000100: 02e5 383e 980e 553e 8a6d b53e 8d41 2a3e
00000110: 1c31 0abb 0342 9f3c f17b 9bbe c9bf 95be
00000120: e35e d2bd 3345 a93e 4d1e aa3e 3752 c13d
00000130: 6209 edbd 50eb 203d 5f41 0dbe a041 2e3e
00000140: 1b42 c83e 292f 93be d72a b0be 43c4 0abe
00000150: 9f3c d33e be97 943e 7fa0 403d 96eb bd3e
00000160: 2341 9f3e f0b4 223e 114e 15be 6fb6 b1be
00000170: 5410 3bbd e290 9e3e 1072 d6be 94c5 2d3e
00000180: 2db9 96be bae0 5cbe 6ee0 60be b6da 503e
00000190: c8b8 b33e d42b 653e 6f9a 32be 7c55 4a3e
000001a0: 4d2a 45be 9a65 1ebd 8381 5b3e db66 d5bd
000001b0: 2075 2cbe 9d84 50be 0c90 843d ca86 af3e
000001c0: 8ac5 413e 02c2 66be dc33 973e 1bc3 83be
000001d0: 21b3 4f3d 650f 67be 8e83 b8be 95a5 5f3e
000001e0: b73e 89bd e54d a8bb f50b f33d 5b64 0fbe
000001f0: 7615 9ebe 31ea 20be 1676 9b3e 2908 e4bd

actor.2.weight f4 [128, 128]
-0.06506904 0.075775705 0.08104433 -0.078105405 0.0521125 -0.038705558 -0.026719125 0.011930587
-0.06881523 -0.024834882 0.04015 0.036580734 -0.08192869 0.06256932 0.08455829 0.045373492
0.090201646 0.02083734 0.017709598 0.053990662 0.08137214 0.018623833 -0.049469735 -0.05493355
0.062977694 0.0016187739 0.045823134 -0.010101317 -0.020946328 0.06326156 0.031590093 -0.04334645
-0.035051096 -0.04052042 -0.045002997 0.0061803237 -0.0043899254 -0.026082847 -0.03187845 0.057676002
-0.060429107 0.06322895 0.031970512 -0.059640348 0.0823223 0.0017846744 0.0471766 0.06582801
-0.08846967 -0.047194872 0.070142016 0.058321483 0.044941742 0.022335626 -0.038742844 0.009719659
0.010981869 0.034465242 0.020645706 0.014113161 0.059924904 0.070552416 0.025864143 -0.06625891
0.044227637 0.04414278 -0.06094683 -0.01286615 0.053286258 0.00859258 0.06914446 0.008666638
0.020699115 -0.007941022 0.01192622 0.068536885 0.029893197 -0.040975537 0.011804063 -0.07500603
0.04728233 -0.051068835 0.017396325 0.07891955 -0.08745263 0.07888278 -0.04579848 0.09043216
-0.06776877 0.07775057 -0.039285712 0.055335905 0.043138396 0.057729878 0.018065214 0.06477448
-0.044416163 -0.013122306 0.06858717 -0.018936386 -0.02058986 0.03799175 -0.019616725 0.008752873
-0.070479654 -0.03453567 0.043672036 -0.0015892735 -0.075871445 0.017973851 -0.015649676 -0.047157634
-0.024788264 -0.062640645 -0.030480176 -0.0060087396 0.08085762 -0.010603647 -0.08944529 0.07728081
0.08867631 -0.08272046 0.066181734 0.08165229 -0.002645268 -0.049377955 0.037133105 -0.074030705
0.056727704 0.05080534 0.03877828 -0.0823242 -0.009593395 0.06159129 0.0041203075 0.07125476
0.046419945 0.07381922 -0.027151942 -0.018476844 -0.080173895 0.013167522 0.009475442 -0.00028223047
-0.02777672 -0.025173252 -0.05397515 -0.0048120557 0.006895348 0.00084568455 -0.04838288 -0.012798225
-0.025814809 0.053215437 -0.080055244 0.02997876 0.0048242863 0.041254517 0.0074372706 -0.083670035
0.045181096 -0.04653397 -0.0017144107 0.0024504007 -0.06755717 0.025637273 -0.011374163 0.05612899
0.036778286 -0.05376704 -0.04141252 -0.05401587 -0.045071777 0.013468635 0.05710243 -0.034612577
0.013663605 0.01735203 0.0071861655 0.044783976 -0.074138515 -0.028759686 -0.020142643 -0.07170831
-0.053462423 -0.08597108 -0.06585978 -0.05062931 0.082007006 -0.07511791 0.07839504 0.08060973
-0.045026124 -0.044848904 0.024549743 0.038655538 -0.05435089 -0.03700956 0.08350221 -0.060143568
-0.027930506 0.07974367 -0.04628077 -0.03950637 -0.067461036 -0.009263032 0.08767121 -0.013431765
0.030506691 0.03489934 -0.058027506 0.042325623 -0.026317157 0.071185105 0.033880368 0.024432741
-0.07477859 0.018114801 -0.05337389 -0.08106989 0.029887289 -0.062320612 0.013872946 0.04077042
0.034782123 0.012636279 0.064549774 -0.080370374 0.03385299 -0.0046586986 0.039596934 0.001656272
0.04822673 -0.022298345 0.033344116 0.018764112 -0.06532573 0.037259236 -0.0046504578 0.07222166
0.06067302 -0.076344304 -0.0021701227 -0.067192025 0.040613823 -0.03784109 -0.061861116 0.049868625
0.020395199 0.0122435335 -0.06372663 0.06974683 -0.0043401425 0.083447166 0.015046864 -0.0077659613
00000000: eb42 85bd 4b30 9b3d 92fa a53d baf5 9fbd
00000010: eb73 553d b889 1ebd 11e2 dabc 8278 433c
00000020: 00ef 8cbd 8672 cbbc 5474 243d aed5 153d
00000030: 3bca a7bd 5824 803d e62c ad3d 8ed9 393d
00000040: a4bb b83d 12b3 aa3c b813 913c 5025 5d3d
00000050: 70a6 a63d 0291 983c c7a0 4abd 0102 61bd
00000060: 73fa 803d 0a2d d43a 0ab1 3b3d ff7f 25bc
00000070: a297 abbc 478f 813d 9d64 013d 0c8c 31bd
00000080: bd91 0fbd bdf8 25bd 1055 38bd 5084 ca3b
00000090: 5dd9 8fbb b2ab d5bc fa92 02bd ac3d 6c3d
000000a0: 8384 77bd 2e7e 813d 83f3 023d 7049 74bd
000000b0: 9898 a83d bceb e93a 403c 413d d6d0 863d
000000c0: 962f b5bd 694f 41bd 9ea6 8f3d 82e2 6e3d
000000d0: d514 383d 34f9 b63c d1b0 1ebd 343f 1f3c
000000e0: 4ced 333c 6d2b 0d3d 2f21 a93c e33a 673c
000000f0: d173 753d c97d 903d 0ae1 d33c c0b2 87bd
00000100: 0a28 353d 0fcf 343d 62a3 79bd 8bcc 52bc
00000110: b142 5a3d e5c7 0c3c 9c9b 8d3d 84fe 0d3c
00000120: 3191 a93c 0f1b 02bc 3166 433c 115d 8c3d
00000130: 94e2 f43c f7d5 27bd d465 413c c39c 99bd
00000140: 1eab 413d 8e2d 51bd bd82 8e3c 93a0 a13d
00000150: 5d1a b3bd 4c8d a13d 3097 3bbd 7f34 b93d
00000160: 5aca 8abd b13b 9f3d 0eea 20bd e7a7 623d
00000170: e3b1 303d 2a76 6c3d 80fd 933c 7ca8 843d
00000180: b9ed 35bd f1fe 56bc 6e77 8c3d 7b20 9bbc
00000190: 11ac a8bc 3d9d 1b3d 41b3 a0bc 3668 0f3c
000001a0: a357 90bd 4675 0dbd 73e1 323d 2b4f d0ba
000001b0: 7d62 9bbd e63d 933c c033 80bc 5d28 41bd
000001c0: c210 cbbc bd49 80bd 90b1 f9bc f6e4 c4bb
000001d0: ae98 a53d ebba 2dbc 182f b7bd 6745 9e3d
000001e0: ed9b b53d 5869 a9bd 4a8a 873d 5139 a73d
000001f0: 3c5c 2dbb 8a40 4abd e218 183d 699d 97bd
00000200: 4f5b 683d 4319 503d f9d5 1e3d 9799 a8bd
00000210: 9d2d 1dbc 2647 7c3d a503 873b 04ee 913d
00000220: d722 3e3d 882e 973d c06d debc c05c 97bc
00000230: 3632 a4bd 97bc 573c e23e 1b3c 55f8 93b9
00000240: 018c e3bc 2338 cebc 0c15 5dbd 73ae 9dbb
00000250: 5ff2 e13b eeb0 5d3a 202d 46bd a5af 51bc
00000260: 9479 d3bc 6ef8 593d 01f4 a3bd 0496 f53c
00000270: 0c15 9e3b 7ffa 283d 59b4 f33b 325b abbd
00000280: d00f 393d 679a 3ebd 14b6 e0ba e796 203b
00000290: 6a5b 8abd 4205 d23c b35a 3abc 83e7 653d
000002a0: d4a4 163d d43a 5cbd 2da0 29bd bf3f 5dbd
000002b0: 2f9d 38bd 8dab 5c3c 3de4 693d ebc5 0dbd
000002c0: 50dd 5f3c d825 8e3c ed79 eb3b 676f 373d
000002d0: efd5 97bd 6f99 ebbc 2f02 a5bc cedb 92bd
000002e0: 6afb 5abd 9b11 b0bd 7ee1 86bd ae60 4fbd
000002f0: 4af3 a73d 6bd7 99bd 948d a03d b716 a53d
00000300: 506d 38bd 7cb3 37bd 8b1c c93c 4555 1e3d
00000310: 0a9f 5ebd 5697 17bd 3503 ab3d 1a59 76bd
00000320: 84ce e4bc a650 a33d e890 3dbd 6ed1 21bd
00000330: 0329 8abd f9c3 17bc f78c b33d e810 5cbc
00000340: 2be9 f93c 9cf2 0e3d 40ae 6dbd a25d 2d3d
00000350: 1497 d7bc 7fc9 913d 24c6 0a3d 2c27 c83c
00000360: 8425 99bd 7e65 943c 959e 5abd f807 a6bd
00000370: 30d6 f43c e643 7fbd 5a4b 633c e2fe 263d
00000380: b377 0e3d 6508 4f3c ac32 843d 3999 a4bd
00000390: 6fa9 0a3d ffa7 98bb 6530 223d 4417 d93a
000003a0: 6489 453d 05ab b6bc d793 083d 32b7 993c
000003b0: 7fc9 85bd 249d 183d de62 98bb f3e8 933d
000003c0: 4684 783d 675a 9cbd 9e38 0ebb f99b 89bd
000003d0: ae5a 263d 42ff 1abd 1562 7dbd 0b43 4c3d
000003e0: d513 a73c 1a99 483c 1b83 82bd 6dd7 8e3d
000003f0: c137 8ebb 59e6 aa3d 1f87 763c 9b79 febb

actor.2.bias f4 [128]
-0.052434683 -0.065865785 -0.079286404 -0.081241496 0.04350318 0.07824589 0.025604915 0.030104553
-0.010660906 -0.015994634 -0.079232655 0.01900853 -0.026184764 -0.009676421 -0.0017633679 -0.06054202
-0.022706047 0.061552912 0.07076787 0.012799979 0.037863743 -0.057017278 -0.033411033 -0.0662128
-0.042208944 -0.069528565 0.034009475 0.035386547 0.022138203 0.02395026 -0.005373811 0.02813385
0.056085166 0.026780708 0.025109159 -0.055040307 0.079341784 -0.056568243 0.020037591 0.04429271
0.019111875 -0.08158646 0.062234882 0.038232263 -0.022101864 0.07818096 0.051729385 -0.0057943724
0.035788298 -0.07185016 -0.011879927 0.013405757 0.06315514 0.034423944 -0.0754628 0.014956747
-0.0011078827 -0.052240092 0.046476148 0.085509256 0.037132062 0.007386427 -0.058621794 -0.056873016
-0.073363975 -0.01179499 -0.033203326 0.06400858 -0.021983832 -0.054578174 -0.011266187 0.06297762
-0.07182004 -0.04369425 0.02585926 0.056060687 0.0818179 0.014000926 0.0123660695 -0.0114770355
0.056451913 0.08327394 0.00042682898 -0.011581755 -0.0043162797 -0.010983721 -0.033498064 0.04619279
-0.04218591 0.06981468 -0.0027441804 0.04586947 0.014675275 0.038998704 0.03989109 -0.032965638
-0.0178661 0.036180757 -0.08336763 -0.06734314 0.050565023 0.08650524 -0.033824213 -0.017936721
0.011809601 -0.035935786 -0.08539554 0.011529973 -0.040353026 -0.032360986 -0.02217871 -0.024557931
0.001246412 -0.07563084 -0.05479761 0.06826321 -0.03603068 -0.0057465616 0.035294876 -0.0012453126
0.04506669 0.06595747 0.067431584 0.030465348 0.028059449 -0.0045461818 -0.08683004 -0.011426301
00000000: c0c5 56bd a4e4 86bd e960 a2bd f161 a6bd
00000010: 6430 323d 623f a03d 66c1 d13c d39d f63c
00000020: 15ab 2ebc 2e07 83bc bb44 a2bd c7b7 9b3c
00000030: 6e81 d6bc da89 1ebc cf20 e7ba e9fa 77bd
00000040: 0802 babc e81e 7c3d bfee 903d 01b7 513c
00000050: 0317 1b3d f38a 69bd 02da 08bd 949a 87bd
00000060: 49e3 2cbd fe64 8ebd 854d 0b3d 7cf1 103d
00000070: 2d5b b53c 5633 c43c cb16 b0bb f678 e63c
00000080: 8fb9 653d 3763 db3c b9b1 cd3c f271 61bd
00000090: f27d a23d 1ab4 67bd e025 a43c 466c 353d
000000a0: 8290 9c3c cd16 a7bd 01ea 7e3d 6f99 1c3d
000000b0: f80e b5bc 571d a03d 31e2 533d b8de bdbb
000000c0: c096 123d 2d26 93bd 06a4 42bc d2a3 5b3c
000000d0: 7b57 813d 1f00 0d3d 3e8c 9abd 250d 753c
000000e0: 6036 91ba b5f9 55bd c65d 3e3d 7a1f af3d
000000f0: ca17 183d d709 f23b 681d 70bd aef3 68bd
00000100: da3f 96bd c63f 41bc 3600 08bd ee16 833d
00000110: 7017 b4bc 5d8d 5fbd d095 38bc 69fa 803d
00000120: 6316 93bd bef8 32bd ccd6 d33c e49f 653d
00000130: 2590 a73d 2464 653c 0e9b 4a3c 2d0a 3cbc
00000140: 1f3a 673d 878b aa3d 04c8 df39 67c1 3dbc
00000150: 946f 8dbb 11f5 33bc 4435 09bd a734 3d3d
00000160: 22cb 2cbd 00fb 8e3d b5d7 33bb a0e1 3b3d
00000170: 9170 703c 1bbd 1f3d d764 233d fa06 07bd
00000180: ed5b 92bc 4632 143d a6bc aabd 33eb 89bd
00000190: 451d 4f3d a929 b13d 428b 0abd 08f0 92bc
000001a0: 0f7d 413c 6731 13bd dbe3 aebd 36e8 3c3c
000001b0: 3749 25bd f48c 04bd 20b0 b5bc b72d c9bc
000001c0: a65e a33a 58e4 9abd 7573 60bd 95cd 8b3d
000001d0: e894 13bd a74d bcbb 5c91 103d c239 a3ba
000001e0: d997 383d b614 873d 9219 8a3d 7792 f93c
000001f0: eedc e53c 23f8 94bb f3d3 b1bd 6135 3bbc

actor.4.weight f4 [128, 128]
0.07297706 0.059879385 0.08740748 -0.05507358 -0.025758432 -0.01668898 0.027105061 0.009513771
-0.019408751 -0.04348063 -0.017436221 0.02277511 0.04704125 -0.0093951505 0.06076879 -0.12886615
0.0089698015 -0.07099806 -0.022112435 0.064572036 0.124961175 0.0050397646 -0.0744017 0.047270875
0.035054587 0.12608291 0.0022889934 -0.02384944 0.09241827 -0.046509434 0.07690131 -0.038934723
-0.050966427 -0.024664823 -0.07139682 0.0032817726 -0.08119251 -0.0053425776 -0.07127483 0.051367916
0.06906099 0.069023184 -0.025462186 -0.04402129 0.0037181454 -0.057037268 -0.0418297 -0.013256264
-0.022153106 -0.0097634345 0.04171528 -0.028463595 -0.03281137 0.08277757 0.06355235 -0.064803235
0.09136296 0.016705351 0.031529598 -0.049843524 0.06975374 -0.043127935 0.033913158 0.10020555
0.12957506 -0.019545235 -0.012227174 0.015953965 0.075459965 -0.05220913 -0.071031034 0.03273443
-0.015029646 -0.044114493 0.00014570897 -0.012618488 -0.012049331 -0.053820636 -0.038837086 0.057003684
0.006017255 0.07549 0.07631867 -0.0060015074 0.09388218 -0.058445208 -0.07048079 0.032026008
0.02905425 0.028535573 0.03616021 -0.072255746 -0.0040542963 0.08140713 0.011548309 0.09829477
0.026059795 -0.021638947 -0.030741839 0.011591293 -0.010127338 -0.055635586 -0.047580443 0.016513638
0.051736396 -0.06189658 -0.08274744 0.020152042 0.031531326 -0.053140238 0.0036158385 -0.015621207
0.0023726777 0.008540209 -0.08028143 0.038787697 0.011478112 0.052029137 -0.040841956 0.058663044
-0.016066622 -0.041587863 -0.042401813 -0.092145026 -0.028581914 0.036338627 -0.051149108 0.04684521
0.08970696 -0.06128787 0.022262385 -0.058219723 0.028499784 -0.086096056 0.012503689 -0.04765317
-0.011156018 0.042634185 0.04797715 -0.06724258 0.001588659 0.089910306 0.029195098 -0.17572744
0.010599747 0.011588851 0.00064991787 0.24392581 0.0759194 -0.06314264 0.04623145 -0.007852835
0.11908104 0.11807789 0.061982512 -0.0891882 0.069233604 -0.012975449 0.011474747 0.054295156
-0.06534838 0.11493578 0.00042557422 -0.028031135 -0.15130213 0.017979164 0.023629388 -0.04728367
0.017456293 -0.05242471 0.0015623688 -0.08779328 -0.14983356 0.045220193 0.06035716 -0.055480637
-0.009902378 0.0044906884 -0.06968442 -0.072923385 0.076513045 0.08402853 0.20636961 -0.17536117
0.04653575 -0.0063827843 -0.04834969 -0.057417743 0.0038949288 0.03201739 -0.03282762 0.10204893
0.06811523 0.13475227 0.10819543 0.13444075 0.08801529 0.06927863 -0.16264744 0.022893503
0.012577294 0.08870999 -0.057464812 -0.06646178 -0.065388486 0.09227321 0.027110448 -0.021402227
0.01883914 -0.008392167 0.035284013 0.01573875 -0.0017483504 -0.04284044 -0.05126631 -0.021353945
0.071897134 0.02950396 -0.019769866 -0.018831637 -0.121663906 0.077864796 -0.032550998 -0.04980225
-0.09115114 0.06372671 -0.06446401 0.0799712 0.009604404 -0.066774234 0.0033933844 0.04222128
0.011094536 -0.10253989 0.02061992 -0.08201505 -0.09202274 -0.052991144 -0.021940451 -0.10116251
0.0692058 0.020061098 -0.013751585 0.07189602 -0.12100054 -0.033509314 -0.07655146 -6.064239e-05
-0.060778752 0.038832378 -0.061813336 -0.0678361 -0.03498862 -0.060763676 0.0048496514 -0.06254745
00000000: ff74 953d 1644 753d b102 b33d d694 61bd
00000010: 5903 d3bc 54b7 88bc 6f0b de3c a6df 1b3c
00000020: 1aff 9ebc bf18 32bd 68d6 8ebc de92 ba3c
00000030: 53ae 403d 1eee 19bc b2e8 783d 7df5 03be
00000040: 13f6 123c 6e67 91bd 2325 b5bc 583e 843d
00000050: a5eb ff3d 9c24 a53b eb5f 98bd 1b9f 413d
00000060: 6695 0f3d e11b 013e f002 163b e75f c3bc
00000070: ca45 bd3d ad80 3ebd 6f7e 9d3d 047a 1fbd
00000080: 2cc2 50bd e20d cabc 7f38 92bd 0213 573b
00000090: 4248 a6bd ca10 afbb 8af8 91bd 2a67 523d
000000a0: d96f 8d3d 075c 8d3d 1396 d0bc ab4f 34bd
000000b0: 21ac 733b e99f 69bd 9f55 2bbd cd30 59bc
000000c0: 6e7a b5bc d0f6 1fbc a4dd 2a3d 7c2c e9bc
000000d0: 3765 06bd 4987 a93d bc27 823d 8fb7 84bd
000000e0: 811c bb3d a9d9 883c 2e25 013d b928 4cbd
000000f0: 0ddb 8e3d eba6 30bd 86e8 0a3d 9138 cd3d
00000100: 53af 043e 541d a0bc 7c54 48bc e4b1 823c
00000110: c18a 9a3d 3ed9 55bd b878 91bd 8a14 063d
00000120: e83e 76bc 66b1 34bd 74c9 1839 c6bd 4ebc
00000130: 8f6a 45bc 0773 5cbd a313 1fbd b27c 693d
00000140: 652c c53b 809a 9a3d f64c 9c3d 4ba8 c4bb
00000150: 4d45 c03d 3e64 6fbd 3c58 90bd b42d 033d
00000160: 2e03 ee3c 6fc3 e93c ba1c 143d d2fa 93bd
00000170: e7d9 84bb c8b8 a63d 1e35 3d3c c54e c93d
00000180: 5a7b d53c 2944 b1bc 4fd6 fbbc 68e9 3d3c
00000190: 22ed 25bc 24e2 63bd b6e3 42bd 9c47 873c
000001a0: 8be9 533d 4587 7dbd 7d77 a9bd e515 a53c
000001b0: fe26 013d 94a9 59bd b4f7 6c3b 17f0 7fbc
000001c0: ed7e 1b3b 3cec 0b3c 976a a4bd d9df 1e3d
000001d0: b10e 3c3c 811c 553d e549 27bd a948 703d
000001e0: 269e 83bc 0958 2abd 86ad 2dbd 88b6 bcbd
000001f0: 9e24 eabc d0d7 143d ba81 51bd c3e0 3f3d
00000200: 48b8 b73d fd08 7bbd 9b5f b63c ce77 6ebd
00000210: 6178 e93c 2153 b0bd 46dc 4c3c f82f 43bd
00000220: bbc7 36bc 2fa1 2e3d b083 443d 7ab6 89bd
00000230: 8d3a d03a e522 b83d 8f2a ef3c e5f1 33be
00000240: 90aa 2d3c 2adf 3d3c 405f 2a3a b0c7 793e
00000250: a17b 9b3d ee50 81bd 305d 3d3d 2da9 00bc
00000260: c3e0 f33d d2d2 f13d 60e1 7d3d 4ea8 b6bd
00000270: 59ca 8d3d fa96 54bc 9400 3c3c 9964 5e3d
00000280: 5fd5 85bd 7363 eb3d 9b1f df39 8da1 e5bc
00000290: f2ee 1abe 0a49 933c 6b92 c13c 86ac 41bd
000002a0: 8000 8f3c 4bbb 56bd 66c8 cc3a f7cc b3bd
000002b0: f86d 19be cf38 393d 1239 773d aa3f 63bd
000002c0: 953d 22bc a026 933b b5b6 8ebd db58 95bd
000002d0: dfb2 9c3d 2617 ac3d 8e52 533e e191 33be
000002e0: 459c 3e3d ad26 d1bb 530a 46bd de2e 6bbd
000002f0: 1042 7f3b ab24 033d 4176 06bd 08ff d03d
00000300: ff7f 8b3d 80fc 093e 9195 dd3d d6aa 093e
00000310: 5c41 b43d f4e1 8d3d 0d8d 26be 288b bb3c
00000320: ff10 4e3c 95ad b53d 3960 6bbd 1d1d 88bd
00000330: 66ea 85bd bdf9 bc3d bb16 de3c b953 afbc
00000340: 8a54 9a3c 4d7f 09bc f885 103d 8dee 803c
00000350: e828 e5ba 7579 2fbd 9ffc 51bd 78ee aebc
00000360: ce3e 933d 4ab2 f13c 6af4 a1bc ce44 9abc
00000370: ed2a f9bd 9477 9f3d 3254 05bd 72fd 4bbd
00000380: 73ad babd 2683 823d b505 84bd f1c7 a33d
00000390: ca5b 1d3c eec0 88bd 8b63 5e3b 39f0 2c3d
000003a0: dbc5 353c 6f00 d2bd 1beb a83c 82f7 a7bd
000003b0: 6b76 bcbd 3e0d 59bd 76bc b3bc 4a2e cfbd
000003c0: c5bb 8d3d 2c57 a43c 544e 61bc 383e 933d
000003d0: 22cf f7bd 1041 09bd 03c7 9cbd 455a 7eb8
000003e0: 24f3 78bd b30e 1f3d fb2f 7dbd a7ed 8abd
000003f0: 3a50 0fbd 55e3 78bd d3e9 9e3b e118 80bd

actor.4.bias f4 [128]
0.056149527 0.0695548 0.00069366425 0.047454413 0.06813753 -0.046812307 -0.008073741 -0.06379935
0.008622833 -0.02661574 -0.015276266 -0.045755934 0.007323483 -0.061230283 0.028681463 -0.06943092
-0.021377465 0.034961376 -0.029851226 0.015807077 -0.0368173 -0.04439977 0.055458847 -0.004941387
0.060945023 -0.031967483 -0.044624995 -0.045948662 -0.082309365 0.043467853 0.074565515 0.035031393
0.039447926 -0.0038569358 0.06977515 0.061338656 -0.047464337 -0.014160388 -0.06565051 0.040044323
0.011382636 -0.034265433 -0.021681095 -0.0012981589 0.04836908 0.02503425 -0.06372382 -0.0027120195
-0.03377536 -0.060416136 -0.038876094 0.015951876 0.035128187 0.01927104 0.07043774 -0.052949533
-0.03798941 -0.042105697 -0.051074274 0.07225458 -0.024979472 -0.041377544 0.06550076 0.07330114
0.043336663 -0.029673252 -0.038760632 0.048739634 -0.004339059 -0.065169916 -0.014117282 0.040075354
0.04311413 -0.013447982 -0.017362177 -0.053598356 0.06727222 0.022964817 0.059506558 -0.046652455
-0.03509515 -0.00036404427 -0.02213003 0.03231793 -0.028205162 0.05533376 0.055746432 -0.06263806
-0.05098138 -0.053921577 -0.032351714 -0.06673678 -0.039092056 0.035440113 0.017823348 0.028029853
-0.06810879 0.06054836 -0.04357149 0.027251972 -0.017664373 0.00781797 0.0346494 0.03559022
-0.00034028504 0.048812073 -9.275355e-05 0.04539821 0.026482405 0.038696066 -0.030124264 -0.03282614
-0.07256747 0.0020331105 0.050477147 0.045458306 0.022664359 -0.014074013 -0.041937925 -0.06564415
-0.03626023 0.056581248 0.02492182 0.047978286 0.04965619 0.0698495 -0.0014793358 -0.023565648
00000000: 0cfd 653d bf72 8e3d 05d7 353a 8f5f 423d
00000010: b08b 8b3d 43be 3fbd b947 04bc 3ca9 82bd
00000020: c846 0d3c 4109 dabc 4e49 7abc 936a 3bbd
00000030: d4f9 ef3b 9bcc 7abd 63f5 ea3c cc31 8ebd
00000040: cb1f afbc a933 0f3d 8f8a f4bc d87d 813c
00000050: bdcd 16bd 89dc 35bd d128 633d 5ceb a1bb
00000060: 7da1 793d 56f0 02bd b3c8 36bd aa34 3cbd
00000070: d091 a8bd 590b 323d ceb5 983d 147d 0f3d
00000080: 2694 213d a5c4 7cbb 46e6 8e3d 3e3e 7b3d
00000090: f769 42bd f900 68bc c673 86bd 8405 243d
000000a0: 3c7e 3a3c e959 0cbd 8d9c b1bc fc26 aaba
000000b0: a81e 463d a114 cd3c a281 82bd 23bc 31bb
000000c0: 0858 0abd e976 77bd 8a3c 1fbd 82ad 823c
000000d0: 93e2 0f3d 4dde 9d3c a941 903d 9ce1 58bd
000000e0: c99a 1bbd 0677 2cbd 4233 51bd 36fa 933d
000000f0: c0a1 ccbc 807b 29bd 4325 863d e81e 963d
00000100: c981 313d 5215 f3bc 78c3 1ebd 36a3 473d
00000110: aa2e 8ebb ce77 85bd 2c4c 67bc 0e26 243d
00000120: 7198 303d ed54 5cbc 203b 8ebc f389 5bbd
00000130: 05c6 893d b620 bc3c 26bd 733d a516 3fbd
00000140: efbf 0fbd 32dd beb9 094a b5bc ce5f 043d
00000150: 830e e7bc a7a5 623d 5f56 643d 6248 80bd
00000160: dad1 50bd dfdc 5cbd 3b83 04bd 4bad 88bd
00000170: fe1e 20bd a729 113d 4502 923c dd9e e53c
00000180: 9f7c 8bbd 8f01 783d 0578 32bd 873f df3c
00000190: e0b4 90bc f116 003c 87ec 0d3d 0dc7 113d
000001a0: 4968 b2b9 2bef 473d af84 c2b8 79f3 393d
000001b0: a1f1 d83c c47f 1e3d 29c7 f6bc b474 06bd
000001c0: 419e 94bd ef3d 053b 20c1 4e3d 7d32 3a3d
000001d0: 9baa b93c b096 66bc 1ac7 2bbd 7170 86bd
000001e0: 9b85 14bd bdc1 673d d828 cc3c e184 443d
000001f0: 4a64 4b3d 410d 8f3d 46e6 c1ba bf0c c1bc

actor.7.weight f4 [128, 128]
-0.0971574 0.057034206 -0.092317894 -0.058156595 -0.05142659 0.051366553 -0.01754024 -0.03550234
-0.052782003 0.07954759 0.030755572 -0.01613869 0.0917319 0.024040489 0.04351273 0.06595193
-0.023326129 -0.07339535 0.02108458 -0.009215996 0.117005855 -0.06347716 0.028548453 0.02402815
-0.04894073 0.090215966 0.042326313 -0.016933218 -0.009276583 -0.053151514 0.10552088 0.01668719
0.065658905 -1.5389815e-05 -0.02167759 -0.090296954 -0.09611102 -0.011173674 0.057143103 0.046089415
0.014505391 0.033478536 -0.09925555 -0.05543212 0.032439955 -0.06820918 -0.035657596 0.027760915
-0.06071987 -0.018017482 -0.045819912 0.024474282 -0.08357553 -0.04877617 -0.028792765 -0.058239017
-0.03839343 -0.02567704 -0.028025609 -0.100037135 0.0016598064 -0.021212578 0.06335994 -0.0972119
0.04494917 -0.063143775 -0.009060501 0.052133474 -0.024516866 -0.0149744125 0.03643711 0.04785788
-0.06410016 0.003673488 -0.01779199 -0.0025263457 -0.016807154 0.018689923 0.028413916 -0.07908226
-0.050381184 -0.056880496 -0.022591311 0.050009355 0.11978187 0.090130664 0.01362726 -0.08180225
-0.055743363 0.056583084 0.038101945 -0.004254566 0.06303386 0.046266757 0.06465721 -0.077575594
0.018555611 0.063618205 0.07600312 -0.01228616 0.041696794 -0.0155854495 0.001730511 -0.052466583
0.011521121 -0.07308156 -0.034604754 0.029043265 0.03378144 0.058681853 -0.034574155 0.09371371
-0.008129311 0.030787481 -0.025807923 -0.017811175 -0.082120605 -0.06646126 -0.07714222 0.015370034
0.028253991 0.060371444 -0.08988976 -0.031181492 -0.0013057442 0.067708254 0.102698475 0.018626412
-0.05180039 0.09247625 0.04912803 -0.017846799 -0.012738814 -0.0060863593 0.06499672 -0.036909893
0.013418054 0.049063265 -0.0076077385 0.00040158094 -0.04426112 0.048425343 -0.057281222 0.06069361
-0.0033706236 -0.042489566 0.045385942 -0.0489331 0.057644077 0.022903124 -0.004650536 -0.056436237
0.022318458 0.07499684 0.06802112 -0.045162994 -0.07234355 0.076563984 0.017223483 0.019135943
-0.04114163 -0.047558993 -0.056696244 -0.011312009 0.028945269 -0.08016968 0.07497554 -0.043682836
0.001260059 -0.04185781 0.07907703 -0.06446797 0.003952193 0.045301735 0.031656377 0.01726785
0.019281462 -0.056337137 0.048903044 0.023622995 -0.051470425 0.04748087 0.0858612 0.068047896
-0.028899489 0.018342752 0.017599361 -0.06442585 0.025131973 -0.01170281 -0.03171553 -0.057386044
-0.05815063 -0.042143676 0.08553425 -0.035411213 0.015135299 0.062326096 -0.034714956 -0.050985586
0.037930366 0.0011283217 0.015100381 0.06937418 0.06511588 -0.035925154 0.0023004273 -0.0029072952
0.061918437 0.00094873644 0.038899772 0.048705008 -0.037983563 -0.03917305 0.051334597 0.04577019
-0.06658444 -0.036988016 -0.015059214 -0.04460913 0.030697862 -0.041423798 0.068655506 0.03208104
-0.011333905 0.065681726 -0.028113257 0.00096447754 0.055706307 -0.029049503 0.050179966 -0.057180826
-0.0018781818 0.0715931 -0.028798277 0.06576247 0.012190152 -0.066413626 -0.057844277 -0.060743973
-0.034685846 0.042989098 -0.051551983 -0.048482567 -0.084037356 -0.044387814 -0.078536674 -0.019323448
-0.016549174 0.03018508 0.07565867 -0.020609442 0.0027906774 0.0448012 0.05091445 0.03746155
00000000: 75fa c6bd b39c 693d 2a11 bdbd 9c35 6ebd
00000010: b0a4 52bd bc65 523d 8db0 8fbc e76a 11bd
00000020: f131 58bd d9e9 a23d 1cf3 fb3c 4935 84bc
00000030: efdd bb3d 8ff0 c43c 683a 323d ce11 873d
00000040: 7016 bfbc 4d50 96bd 92b9 ac3c b0fe 16bc
00000050: c4a0 ef3d 5000 82bd 72de e93c afd6 c43c
00000060: 1376 48bd 26c3 b83d 5b5e 2d3d 88b7 8abc
00000070: cffc 17bc 67b5 59bd 551b d83d 93b3 883c
00000080: 2d78 863d 6019 81b7 3495 b1bc 9ced b8bd
00000090: dbd5 c4bd c911 37bc e30e 6a3d 41c8 3c3d
000000a0: 05a8 6d3c ca20 093d 7e46 cbbd ca0c 63bd
000000b0: c2df 043d 41b1 8bbd b30d 12bd dc6a e33c
000000c0: 66b5 78bd 6699 93bc a9ad 3bbd 4a7e c83c
000000d0: a629 abbd 85c9 47bd cede ebbc 098c 6ebd
000000e0: 6e42 1dbd a858 d2bc f695 e5bc 45e0 ccbd
000000f0: dc8d d93a 00c6 adbc dbc2 813d 0817 c7bd
00000100: 9f1c 383d 8651 81bd 7f72 14bc e989 553d
00000110: 98d7 c8bc 3d57 75bc 143f 153d a006 443d
00000120: f246 83bd e7be 703b 82c0 91bc 0c91 25bb
00000130: 28af 89bc 9c1b 993c 4dc4 e83c e1f5 a1bd
00000140: 805c 4ebd 86fb 68bd 6a11 b9bc 9cd6 4c3d
00000150: 3250 f53d 6d96 b83d df44 5f3c f087 a7bd
00000160: 2753 64bd aac3 673d c910 1c3d e369 8bbb
00000170: e517 813d 3682 3d3d 006b 843d f4df 9ebd
00000180: f001 983c 434a 823d 86a7 9b3d e44b 49bc
00000190: 42ca 2a3d 1d5a 7fbc 50d2 e23a 33e7 56bd
000001a0: 15c3 3c3c c9ab 95bd b7bd 0dbd 24ec ed3c
000001b0: 685e 0a3d 625c 703d a19d 0dbd f9ec bf3d
000001c0: cd30 05bc 0736 fc3c 236b d3bc bee8 91bc
000001d0: d92e a8bd d71c 88bd befc 9dbd 98d2 7b3c
000001e0: ea74 e73c 0c48 773d 1f18 b8bd 5470 ffbc
000001f0: 8125 abba a0aa 8a3d 9453 d23d 6b96 983c
00000200: a52c 54bd 3064 bd3d 793a 493d 7333 92bc
00000210: 75b6 50bc 1570 c7bb 001d 853d d42e 17bd
00000220: 66d7 5b3c 90f6 483d 564a f9bb 488b d239
00000230: 264b 35bd a759 463d b79f 6abd dd99 783d
00000240: aee5 5cbb 8a09 2ebd 9ce6 393d 136e 48bd
00000250: 321c 6c3d 559f bb3c 8663 98bb af29 67bd
00000260: 33d5 b63c f197 993d a84e 8b3d d5fc 38bd
00000270: db28 94bd 94cd 9c3d 4318 8d3c fbc2 9c3c
00000280: 2084 28bd 38cd 42bd 523a 68bd 0156 39bc
00000290: a11e ed3c 0030 a4bd c78c 993d c6ec 32bd
000002a0: 9028 a53a 1873 2bbd 23f3 a13d c807 84bd
000002b0: 6681 813b 508e 393d 1eaa 013d 4e75 8d3c
000002c0: 28f4 9d3c c5c1 66bd 8f4e 483d 0385 c13c
000002d0: a7d2 52bd 4d7b 423d ffd7 af3d b25c 8b3d
000002e0: 9fbe ecbc 8a43 963c 892c 903c b3f1 83bd
000002f0: 91e1 cd3c 25bd 3fbc 25e8 01bd a10d 6bbd
00000300: 5b2f 6ebd d99e 2cbd 952c af3d 590b 11bd
00000310: 0cfa 773c a649 7f3d 4531 0ebd 43d6 50bd
00000320: df5c 1b3d 32e4 933a 9767 773c 0d14 8e3d
00000330: 795b 853d 4126 13bd c4c2 163b 5288 3ebb
00000340: 309e 7d3d a0b4 783a 5e55 1f3d e77e 473d
00000350: a794 1bbd ec73 20bd 3a44 523d 8679 3b3d
00000360: 6c5d 88bd bf80 17bd ecba 76bc 10b8 36bd
00000370: 157a fb3c 00ac 29bd 429b 8c3d 6967 033d
00000380: d8b1 39bc 2484 863d c64d e6bc fed4 7c3a
00000390: 4c2c 643d 39f9 edbc 8289 4d3d 7136 6abd
000003a0: 532d f6ba 679f 923d 5dea ebbc 79ae 863d
000003b0: 34b9 473c de03 88bd 1fee 6cbd acce 78bd
000003c0: bf12 0ebd 5615 303d 2c28 53bd a895 46bd
000003d0: c71b acbd ffcf 35bd d6d7 a0bd 354c 9ebc
000003e0: 2292 87bc b346 f73c eff2 9a3d 22d5 a8bc
000003f0: cce3 363b 7781 373d ac8b 503d 4871 193d

actor.7.bias f4 [128]
-0.024674 -0.00021570027 -0.013923653 0.016364478 -0.018600719 -0.008220761 0.018867655 0.04549805
-0.012703832 0.021819944 -0.0155010335 -0.00030396646 -0.03172775 0.033209674 0.009887151 0.027976075
-0.020546108 0.04463206 -0.0053383075 0.026629463 0.020691644 -0.012943267 0.024687821 0.02449677
0.024448337 -0.0027812645 0.023893671 -0.040533494 -0.0070545524 0.04132519 0.008114646 0.011323066
-0.021030825 0.02181047 0.015332196 0.029906735 -0.00053618854 0.033482317 0.035519894 -0.017580539
-0.008203149 0.022203216 -0.020792445 -0.012295202 0.02690288 -0.024847656 0.0011000802 -0.014682432
-0.01615262 0.037561618 -0.016905885 -0.017815964 -0.025161363 -0.011644782 0.0024790023 0.014517011
-0.025881706 -0.03349274 -0.02277285 0.031301588 0.02030441 0.0006476428 0.008409086 -0.01433737
-0.0053164302 -0.0061729853 -0.019934587 -0.007309415 -0.015895223 0.003733137 -0.022251729 0.005515268
-0.014135031 -0.0024577302 -0.009852674 0.0054811174 0.015271244 -0.00027260353 0.0015842937 -0.015675826
-0.012877802 -0.011165084 0.0009138783 -0.019423958 0.007967286 -0.013115549 -0.0026760022 -0.02582338
-0.016079841 -0.0067572687 0.04814397 0.027707571 0.011472841 -0.026027465 -0.036605805 -0.024860024
-0.028632144 0.019507619 -0.040821344 0.004338426 -0.00939717 0.04145895 0.03428143 -0.018809356
0.005146302 0.03095477 -0.04762784 0.012920139 -0.026888728 0.010750166 -0.034784205 -0.014130053
0.019292528 0.0027086318 -0.00044113383 0.013576772 0.011317546 -0.030743767 0.0005980426 0.010449736
-0.012145054 -0.010316038 -0.025021277 -0.017275672 0.03539834 -0.028412662 -0.02444181 -0.02027609
00000000: 2121 cabc 9a2d 62b9 0920 64bc cc0e 863c
00000010: 8960 98bc 5fb0 06bc 5790 9a3c 2a5c 3a3d
00000020: bc23 50bc bdbf b23c 0cf8 7dbc b05d 9fb9
00000030: f5f4 01bd de06 083d b8fd 213c 152e e53c
00000040: 5050 a8bc 1bd0 363d f8ec aebb 0826 da3c
00000050: 8681 a93c ff0f 54bc 1d3e ca3c 73ad c83c
00000060: e147 c83c e045 36bb a9bc c33c 7306 26bd
00000070: e029 e7bb 9a44 293d 4bf3 043c 6284 393c
00000080: d648 acbc dfab b23c e433 7b3c f8fe f43c
00000090: 018f 0cba c124 093d 4f7d 113d 1005 90bc
000000a0: 8066 06bc 85e3 b53c eb54 aabc d171 49bc
000000b0: 6e63 dc3c 508d cbbc 9130 903a 958e 70bc
000000c0: 8052 84bc 36da 193d 367e 8abc c9f2 91bc
000000d0: 341f cebc c1c9 3ebc c276 223b c2d8 6d3c
000000e0: df05 d4bc af2f 09bd 218e babc 1836 003d
000000f0: 6f55 a63c 93c6 293a 43c6 093c 4ae7 6abc
00000100: 7335 aebb c146 cabb dc4d a3bc d183 efbb
00000110: b336 82bc a5a7 743b 4249 b6bc 6cb9 b43b
00000120: 9e96 67bc df11 21bb 1c6d 21bc f29a b33b
00000130: 3d34 7a3c 3aec 8eb9 13a8 cf3a 976a 80bc
00000140: 6bfd 52bc c2ed 36bc 5691 6f3a fe1e 9fbc
00000150: 3889 023c 9ae2 56bc de5f 2fbb 8e8b d3bc
00000160: dfb9 83bc 146c ddbb 9d32 453d fdfa e23c
00000170: 95f8 3b3c 8d37 d5bc f8ef 15bd 40a7 cbbc
00000180: f58d eabc 71ce 9f3c 4834 27bd 5b29 8e3b
00000190: 96f6 19bc dcd0 293d af6a 0c3d 1416 9abc
000001a0: 4fa2 a83b dc94 fd3c 6915 43bd feae 533c
000001b0: c045 dcbc 7721 303c e279 0ebd bd81 67bc
000001c0: 5d0b 9e3c 4d83 313b fb47 e7b9 1c71 5e3c
000001d0: 3a6d 393c 5ada fbbc f6c5 1c3a 5f35 2b3c
000001e0: 0cfc 46bc 9904 29bc 6cf9 ccbc b685 8dbc
000001f0: dafd 103d acc1 e8bc 313a c8bc 0b1a a6bc

actor.10.weight f4 [1, 128]
-0.0060124025 0.002281802 -0.0031560604 -0.004069827 -0.0040219557 0.0047224304 -0.0038982667 0.005578795
0.004230442 0.004694692 0.0026860985 -0.0022264475 -0.005516086 0.0018072157 -0.0054866015 0.005544109
0.0037210113 0.0081584 0.0051527633 0.0011393052 0.003566873 -0.005730345 -0.0023734747 0.007028044
0.0041300543 -0.0056266966 -6.924437e-05 0.0029345828 0.0041406085 -0.0015574725 0.003998397 0.004534518
0.005431735 -0.0024923405 -0.0052306633 0.0026302713 0.0031793697 0.0034321554 -0.006149885 0.0029838579
-0.005809655 -0.004473753 -0.004508976 0.0027460372 0.0051129344 0.004053903 0.0021889864 -0.00503403
0.010671217 -0.0039095874 -0.004182991 0.004346857 -0.003680163 -0.00228754 0.002515923 -0.004984286
-0.0051192124 0.004850008 -0.005438547 0.0044672606 -0.0072201244 -0.0010906915 0.003651557 -0.005054039
-0.0032746948 0.004871065 0.002546364 0.0061493474 -0.0061760573 -0.0036623918 -0.0024889598 0.0035477518
0.005112273 -0.003364256 -0.0061578015 0.00088979193 -0.0032156894 -0.0054303096 -0.00283862 0.0018109648
-0.0065054297 0.0037803953 0.005006044 -0.00013546992 -0.0040598474 -0.0041515674 -0.004918923 -0.0019524205
-0.006569714 0.005011054 0.004043198 0.0032336356 -0.0073355488 -0.0016409134 -0.0022732338 -0.004854887
0.004494819 -0.0018303042 0.0015325363 0.003151225 -0.0045889206 0.0072811046 -0.0034780644 0.0019945174
-0.00064441207 0.0065018972 -0.0049908576 0.0017085911 -0.0052404166 -0.0037206772 0.0060284357 -0.0061304797
-0.0039979154 0.0050906804 0.0004963434 -0.0078070275 0.004219231 -0.0049044387 0.004464783 -0.004001143
0.0061058784 0.0042374963 -0.0032161546 0.0057695354 0.0056853127 -0.006295534 -0.0045856494 0.0054454394
00000000: b003 c5bb 498a 153b e8d5 4ebb 2f5c 85bb
00000010: 9cca 83bb 9ebe 9a3b 107a 7fbb 53ce b63b
00000020: 859f 8a3b eed5 993b 4109 303b 97e9 11bb
00000030: 48c0 b4bb 19e0 ec3a f3c8 b3bb 5bab b53b
00000040: 36dc 733b cfaa 053c 83d8 a83b bd54 953a
00000050: 33c2 693b 9ec5 bbbb 4c8c 1bbb 824b e63b
00000060: 6855 873b 2760 b8bb 4a37 91b8 2152 403b
00000070: f1ad 873b 1b24 ccba fc04 833b 4b96 943b
00000080: b2fc b13b 8956 23bb fc65 abbb a160 2c3b
00000090: f95c 503b 03ee 603b f984 c9bb d48c 433b
000000a0: eb5e bebb 8f98 92bb 08c0 93bb dcf6 333b
000000b0: 678a a73b 9ad6 843b 1975 0f3b 81f4 a4bb
000000c0: 54d6 2e3c ff1b 80bb 7911 89bb 1470 8e3b
000000d0: e42e 71bb 8dea 15bb 2fe2 243b 3953 a3bb
000000e0: 11bf a7bb d1ec 9e3b d735 b2bb 1962 923b
000000f0: cb96 ecbb 89f5 8eba f64e 6f3b 5a9c a5bb
00000100: 439c 56bb 749d 9f3b e6e0 263b 7780 c93b
00000110: 8660 cabb bd04 70bb d11d 23bb 6681 683b
00000120: db84 a73b d97a 5cbb 62c7 c9bb ed40 693a
00000130: 51be 52bb bdf0 b1bb 2408 3abb e55d ed3a
00000140: 802b d5bb 82c0 773b be09 a43b ee0c 0eb9
00000150: 7808 85bb df09 88bb eb2e a1bb 5ce8 ffba
00000160: c146 d7bb c533 a43b ce7c 843b 67eb 533b
00000170: 0b5f f0bb eb13 d7ba 89fa 14bb be15 9fbb
00000180: 4649 933b d1e6 efba 63df c83a c884 4e3b
00000190: a85e 96bb 5596 ee3b 3df0 63bb 73b6 023b
000001a0: c3ed 28ba de0d d53b 598a a3bb cef2 df3a
000001b0: cdb7 abbb 9bd6 73bb 2f8a c53b 31e2 c8bb
000001c0: f200 83bb b9cf a63b 0b1d 023a 18d2 ffbb
000001d0: 7a41 8a3b 6ab5 a0bb 504d 923b 051c 83bb
000001e0: d213 c83b b2da 8a3b 1fc6 52bb 5f0e bd3b
000001f0: dc4b ba3b c44a cebb 3743 96bb a86f b23b

critic.0.weight f4 [128, 6]
-0.6905906 0.0874368 0.06421387 -0.09233804 -0.2547507 -0.14882317 -0.31711566 0.025866333
0.2809165 -0.36791703 -0.021787094 0.2578789 0.26110676 -0.20825599 0.22348048 0.19255866
-0.4317453 0.38349003 -0.11425135 0.37308705 0.13622242 0.030046124 -0.24550253 -0.37760544
-0.04591914 -0.26197594 0.40431675 0.14021616 -0.016140316 -0.17983091 -0.29937384 0.15048532
0.3230754 -0.053816363 0.32163393 0.12348291 -3.502521 -0.33161038 0.1585216 0.47616085
-0.55984026 2.1521652 0.6162346 -0.025066594 -0.21534167 -0.13917267 0.5031447 -0.38597825
-0.3434803 0.042906404 0.3697395 0.3800272 -0.09879511 0.30951214 0.37548682 0.24045171
0.23323922 -0.41776073 0.2845914 0.24706343 -0.16753405 -0.22766523 0.31684303 0.028660204
-0.07876075 0.39770868 -0.9665872 -0.20753291 0.1620189 0.20123889 -0.34790558 1.344529
0.46629247 0.051173344 0.26196113 0.3439323 -0.25691804 -0.37945116 0.041858025 -0.09878597
-0.042682752 0.27735928 -0.24695192 -0.16715437 0.24605955 -0.073063955 -0.027795162 -0.17192645
0.30691716 -0.16075687 0.13684416 0.010684125 -0.28428075 -0.008358227 -0.0027637593 -0.2886307
0.4321292 0.17280701 -0.23206362 0.034004457 0.1003465 0.15954696 0.4240611 -0.33184192
0.24291466 -0.2574121 0.24334642 0.019824676 0.09588876 -0.103730835 0.0022517412 0.14339057
0.07866468 -0.41658434 0.15485173 0.10297233 0.061853204 0.10605537 0.035445772 -0.111806996
2.463228 -0.003942208 0.06779788 -0.535065 1.0443834 -1.7538824 -0.3492622 -0.2598313
-0.16455168 -0.34659564 -0.25055426 0.16561292 0.14271459 0.19928749 -0.0949684 -0.13884693
0.4079784 -0.33123842 -0.6069041 -0.30978614 0.012222053 0.24846159 -0.30131045 0.11009211
0.4934287 -0.053482354 -0.08693268 0.57810193 0.5463781 -0.47043005 -3.6183193 -0.0916881
-0.14641525 0.6289996 -0.71043384 2.3064547 0.31920955 -0.24296135 0.07777983 0.0018645129
-0.117093734 0.3338247 0.10008083 0.113987565 -0.027938163 -0.031615037 0.027324975 -0.15336142
0.21882166 0.23864678 0.20241274 0.002006352 -0.34534022 -0.07106116 0.09424675 0.098647185
-0.11605213 0.47379485 -0.2572358 -0.10734588 -0.07738422 0.2994804 -0.1526872 0.19316843
-0.24008732 -0.11372713 -0.16806814 0.07911496 -0.17410006 -0.389045 -0.2919411 -0.31557557
0.6260879 -0.2668295 -0.0795249 -0.028801877 0.22737147 -0.047875606 -0.24793927 0.10780596
0.05088498 -0.39829823 0.4549587 -0.037020534 -0.46066213 0.15988183 0.23172344 0.53135985
0.028874526 0.17170216 1.839028 0.38502622 -0.24911454 -0.3519844 0.5785253 -1.055024
-0.3539905 -0.122776054 -0.17456219 0.110955104 0.18758436 -0.102865204 -0.45669577 -0.3171903
0.22072534 0.16430074 -0.20330378 -0.25174302 -0.34294024 -0.2509225 -0.28573933 -0.38250497
-0.087458074 0.21734104 0.10143337 -0.1690447 0.03698982 -0.06560873 0.083796605 -0.35352576
0.31212395 -0.09333401 0.24420998 -0.072890505 0.29051325 -0.34419695 -0.12213471 -0.2527685
0.04703176 0.29201633 0.40530884 0.13571385 0.8394618 -0.060475107 0.31772348 -0.11895479
00000000: 8cca 30bf 1112 b33d 9082 833d ba1b bdbd
00000010: af6e 82be 1a65 18be fc5c a2be a2e5 d33c
00000020: 4ad4 8f3e 9f5f bcbe d97a b2bc b408 843e
00000030: c9af 853e 0f41 55be 11d8 643e 192e 453e
00000040: b80d ddbe ce58 c43e 9dfc e9bd 4405 bf3e
00000050: e47d 0b3e 4a23 f63c 0465 7bbe 8055 c1be
00000060: b515 3cbd b621 86be 9b02 cf3e d394 0f3e
00000070: b238 84bc 9825 38be 8747 99be d318 1a3e
00000080: 246a a53e 8c6e 5cbd 34ad a43e 9ce4 fc3d
00000090: 4e29 60c0 d6c8 a9be 7c53 223e 5bcb f33e
000000a0: b151 0fbf 13bd 0940 8dc1 1d3f 7558 cdbc
000000b0: 8782 5cbe 4883 0ebe 17ce 003f f19e c5be
000000c0: a6dc afbe a0be 2f3d 7f4e bd3e ed92 c23e
000000d0: 1755 cabd 6078 9e3e cf3f c03e f938 763e
000000e0: 43d6 6e3e bce4 d5be f7b5 913e 32fe 7c3e
000000f0: 0c8e 2bbe 1321 69be 4039 a23e cec8 ea3c
00000100: 514d a1bd 79a0 cb3e 4272 77bf 8283 54be
00000110: 48e8 253e 9111 4e3e ae20 b2be 8719 ac3f
00000120: e3bd ee3e 249b 513d c51f 863e e517 b03e
00000130: c38a 83be 6c47 c2be 5273 2b3d 4c50 cabd
00000140: 1cd4 2ebd 0902 8e3e f7e0 7cbe 842a 2bbe
00000150: 09f7 7b3e 8ea2 95bd aeb2 e3bc 7d0d 30be
00000160: 3f24 9d3e 739d 24be e020 0c3e 780c 2f3c
00000170: 3f8d 91be f2f0 08bc 3020 35bb 67c7 93be
00000180: 0a40 dd3e 52f4 303e 16a2 6dbe 4248 0b3d
00000190: 7782 cd3d 4760 233e 891e d93e 2fe7 a9be
000001a0: 9fbe 783e 85cb 83be ce2f 793e 5c67 a23c
000001b0: 5461 c43d d570 d4bd f391 133b fad4 123e
000001c0: f31a a13d 8b4a d5be 7491 1e3e 28e3 d23d
000001d0: c959 7d3d 8f33 d93d 962f 113d 11fb e4bd
000001e0: 87a5 1d40 a32d 81bb 9dd9 8a3d 05fa 08bf
000001f0: 5bae 853f 387f e0bf 7fd2 b2be 9c08 85be
00000200: 3c80 28be fc74 b1be a648 80be 6f96 293e
00000210: c623 123e 0512 4c3e cb7e c2bd e42d 0ebe
00000220: 8be2 d03e 1598 a9be 115e 1bbf 4a9c 9ebe
00000230: 013f 483c b76c 7e3e 5d45 9abe f977 e13d
00000240: b0a2 fc3e 5010 5bbd c309 b2bd 7dfe 133f
00000250: 6fdf 0b3f 35dc f0be 8b92 67c0 f8c6 bbbd
00000260: e1ed 15be 1e06 213f fede 35bf f49c 1340
00000270: 6f6f a33e dcca 78be 084b 9f3d ac62 f43a
00000280: d7ce efbd 12eb aa3e 2ef7 cc3d 5072 e93d
00000290: 93de e4bc c57e 01bd a0d8 df3c c70a 1dbe
000002a0: c912 603e d25f 743e 4945 4f3e 007d 033b
000002b0: 6fd0 b0be 8388 91bd 7104 c13d 8907 ca3d
000002c0: bdac edbd 3d95 f23e 69b4 83be 28d8 dbbd
000002d0: 9e7b 9ebd 7f55 993e 095a 1cbe f2cd 453e
000002e0: 73d9 75be c5e9 e8bd 0e1a 2cbe 0607 a23d
000002f0: 4947 32be e830 c7be 4e79 95be 1f93 a1be
00000300: 4c47 203f e09d 88be f3dd a2bd eaf1 ebbc
00000310: 11d4 683e 3619 44bd cbe3 7dbe 5fc9 dc3d
00000320: c56c 503d bfed cbbe 59f0 e83e d8a2 17bd
00000330: e8db ebbe 10b8 233e e948 6d3e 3307 083f
00000340: 458a ec3c b1d2 2f3e 4565 eb3f 2822 c53e
00000350: e217 7fbe 4d37 b4be 3c1a 143f 070b 87bf
00000360: 3e3e b5be 0372 fbbd 6ec0 32be 6e3c e33d
00000370: 1d16 403e feaa d2bd 07d4 e9be c466 a2be
00000380: d305 623e 743e 283e de2e 50be 76e4 80be
00000390: dd95 afbe ea78 80be 6d4c 92be b1d7 c3be
000003a0: 381d b3bd a68e 5e3e 4cbc cf3d 0e1a 2dbe
000003b0: a382 173d df5d 86bd 8e9d ab3d 5401 b5be
000003c0: b6ce 9f3e e725 bfbd 2e12 7a3e 9e47 95bd
000003d0: 27be 943e 953a b0be c321 fabd df6a 81be
000003e0: 60a4 403d 2a83 953e a484 cf3e 92f8 0a3e
000003f0: f8e6 563f bfb4 77bd a7ac a23e 929e f3bd
