PPO/PPO4_Trained/PPO_DoubleInvPendulum_100K.pth (torch, 410281 bytes, 18 tensors)

actor.0.weight f4 [128, 6]
00000000: 7e11 ec3d c0bf b9bd c39f ff3d feaa 3c3f
00000010: 281a 2b3e cc6c 47bc 788b 71be 8e41 843e
00000020: d155 a03e 8ad3 ef3d 38f2 cabe 118f bdbe
00000030: 7d46 633e 8501 86bd b14d c8bd 075e acbe
00000040: 0916 883d 69e7 9bbe 67f2 f5be a38d a63e
00000050: 4175 79be 5af7 59be 8a35 59be 70f3 e43d
00000060: d55b 56be 8363 653e 9bb0 7ebe d910 2cbe
00000070: 224d d3be 4326 50bd fd0a 2bbf 8cc0 f63d
00000080: 8de4 1b3e 3c5d 20bf 4192 90be c974 b7be
00000090: 7ecc 983d 921d e03d fa8d 2bbe 43c2 76bc
000000a0: e1dd 363e 5c65 87be 3839 6ebe 395c 3f3e
000000b0: f045 ad3e 2fa6 a23e 2490 70be c48f 8b3e
000000c0: 6880 f23e a5db a23e d84c 83bd 45c8 be3e
000000d0: d56e 2e3e dfcf d23e 0ce4 c5be e625 413e
000000e0: 1534 39bd 06dd babe 7c5f e93d 6215 e5be
000000f0: 6487 04be 35b1 663e 086b ef3c eaaf bd3e
00000100: 4387 c23e ee59 00bd 1dc7 1cbe 6462 70be
00000110: a09b c23e d779 573e 6e9e aebe 9bc3 b7bc
00000120: e19d 733e 929a c6be c153 f23d 45be 013f
00000130: 3bb1 843d 7d1a b43e eb59 073c 4a00 72be
00000140: 2d63 abbe 4c63 e33e 6760 34be 7123 8f3e
00000150: ea83 8e3e bcfb 11be e1b7 b13e b358 533d
00000160: 620d 13be 9115 babe 7154 a63e 78c2 b03e
00000170: 7bd8 6f3d 0890 bcbe 8e7e c1be 1610 ccbe
00000180: 6682 fa3e e2dd ab3e 044b 9cbd 9845 bc3e
00000190: 5a25 60bd 0f15 843e 0b19 f33d e652 3b3e
000001a0: 8d5b 90be 10e0 b7bb 11f7 a1be 9b6b 9bbe
000001b0: 8409 84be fd71 89be 6b12 7a3e c94d a93d
000001c0: 8910 c73d f08d d83d 3500 813b e61b e9bb
000001d0: db70 2f3e 77ba bdbe cca6 223e f6f5 86be
000001e0: e459 46be cb57 af3e 17a9 11be 2506 b43e
000001f0: 1847 3a3e 01eb ee3c acb2 bdbe 675f b33e
00000200: aec4 71be 63cb d3be 9eae 53be 61a8 323e
00000210: 6607 d13e f7bb b23e bd3e a93d b017 a23e
00000220: a570 bb3e 3039 e83c 3722 aebe 0ef4 983e
00000230: 4f7a 53be e694 0bbe 047c b63e 15cd 693e
00000240: 8cf5 173f 877e 87bd 8f45 bdbe f87a 363f
00000250: 2472 b83e 0577 94be 06fe 9f3e 2dbc 883e
00000260: dd75 5c3e d83f 42be f65d 3dbe 60d2 03bc
00000270: a299 3abe be9c 45bd bec7 26be 96dc c43d
00000280: 44f8 5bbe a7ce 88be c7cf f13d 82d9 1cbe
00000290: a46c 4cbe 26cb c63e 019f 203d 721a 663e
000002a0: 37c3 73be f66b 5d3d 6eed b3be ecf5 0f3f
000002b0: aa96 ad3b da53 373e 9572 00bf a613 113e
000002c0: 2e20 b8be d72c a3be 96c4 5a3e 35bf c2bd
000002d0: a7a6 9b3e 0389 933e 9099 113e be9b 393d
000002e0: 82cd 7c3e f7c4 a6be a67d 033f b03b aebe
000002f0: ade9 443e fb38 d03d 092e 503d 5d21 6c3e
00000300: 5e7b d23e b49d c73e 6d90 5b3d 974d 403e
00000310: 5037 433e fcdc 81be 4bb5 673e 21fa 92be
00000320: ffec c03e 5227 1f3f 7b93 a63e d2d0 093e
00000330: 2850 5abe 7776 00be 1926 983d 1a03 b5be
00000340: 4ed1 e6be b481 9abe b017 2dbe 403e 85be
00000350: 9ba0 6c3e 661c edbe 9a65 cf3d 7f71 97be
00000360: 1722 09be dca2 2ebe e3c6 92be f958 eb3e
00000370: cba9 82be 92f3 3f3e 4620 b63e f38e 53be
00000380: 2681 18bd 1b50 b93e 9e44 81be bb31 a73c
00000390: 941f 29be 6619 1e3d c61f 5abe cfd3 0ebf
000003a0: ea51 9b3e 2a00 eebe 7d87 0c3e e863 9cbe
000003b0: 0ff2 7abe 1688 c6b9 b220 fdbd 0b57 403e
000003c0: 9484 9ebd 0af4 a7bc 950e 2fbe 1487 1fbf
000003d0: 421c 453c 886a 2cbe 2bde b0be 62b7 6cbd
000003e0: 6505 d7bd f184 653e 4142 b5be 3283 c0be
000003f0: 5af4 cf3c a271 673d a6db c0bd c64c 563e
0.11526774 -0.090697765 0.12481644 0.73698413 0.16709197 -0.012171935 -0.2358836 0.25831264
0.31315473 0.1171027 -0.39637923 -0.37023214 0.22194858 -0.065432586 -0.097804435 -0.33665487
0.06644828 -0.3044999 -0.480365 0.32529935 -0.24361135 -0.21285763 -0.2121183 0.111792445
-0.20933469 0.22401242 -0.24872057 -0.16803302 -0.41269785 -0.05081774 -0.6681364 0.12048444
0.15223904 -0.62642264 -0.28236583 -0.35831288 0.07460879 0.1094314 -0.16753379 -0.015060964
0.17858078 -0.2644452 -0.23264015 0.18687524 0.3384242 0.31767413 -0.23492485 0.27258122
0.4736359 0.318082 -0.06411141 0.3726217 0.17034467 0.41174218 -0.38650548 0.18862113
-0.045215685 -0.36496753 0.11395165 -0.44742876 -0.12942272 0.22528537 0.029225841 0.37048274
0.37993822 -0.031335764 -0.1531033 -0.23475033 0.38009357 0.21042572 -0.34105247 -0.02243214
0.23790695 -0.38789803 0.11832381 0.50680953 0.064791165 0.3517646 0.008261184 -0.23632923
-0.33474103 0.44411695 -0.176149 0.27956727 0.27835017 -0.14256185 0.347106 0.051598262
-0.14360574 -0.3634458 0.324863 0.34523368 0.05855606 -0.36828637 -0.37791866 -0.39856023
0.4892761 0.3356772 -0.076314956 0.36771846 -0.05472312 0.25797316 0.11870011 0.18293342
-0.28194848 -0.005611427 -0.3163381 -0.30355534 -0.2578851 -0.2684478 0.24421088 0.082667895
0.09719951 0.105739474 0.0039367923 -0.0071139215 0.17132895 -0.37056324 0.1588394 -0.26359528
-0.19370228 0.34246668 -0.14224659 0.35160938 0.18191183 0.029164793 -0.37050378 0.35033724
-0.23610184 -0.4136611 -0.2067208 0.17447044 0.40825957 0.3490903 0.082639195 0.31658697
0.36609378 0.028347582 -0.3401048 0.298737 -0.20652126 -0.13631019 0.3564149 0.22832139
0.5935905 -0.0661593 -0.36967131 0.71281385 0.36024582 -0.28997055 0.31248492 0.26706067
0.21529336 -0.18969667 -0.18492875 -0.008045763 -0.18222669 -0.048245184 -0.16287133 0.09612386
-0.21481425 -0.26720163 0.118072085 -0.15317348 -0.19963318 0.38826865 0.039214138 0.22471026
-0.23804937 0.054058038 -0.35142082 0.5623462 0.0052975016 0.1790308 -0.5017484 0.14167652
-0.3596205 -0.31870148 0.21364054 -0.09509126 0.30400583 0.2881547 0.14218736 0.045314543
0.2468777 -0.32572147 0.513636 -0.34029913 0.19229765 0.10167118 0.050825153 0.23059602
0.41109747 0.38987505 0.053604532 0.18779598 0.19064069 -0.2536391 0.22627752 -0.28706458
0.37680814 0.62169373 0.32534394 0.13458565 -0.2131964 -0.12545191 0.074291416 -0.3535393
-0.45081562 -0.3017708 -0.16903567 -0.26024055 0.23108141 -0.4631073 0.10126801 -0.29578778
-0.1339191 -0.17054313 -0.28667364 0.45966318 -0.25520167 0.18745258 0.35571498 -0.2066
-0.03723254 0.36193928 -0.25247663 0.020409456 -0.16515952 0.03859844 -0.21301183 -0.55791944
0.30335933 -0.464845 0.1372356 -0.30544972 -0.245064 -0.00037866895 -0.12359752 0.18783204
-0.07740131 -0.02050211 -0.17095406 -0.6231549 0.012030663 -0.16837513 -0.345445 -0.057792075
-0.10499076 0.22413994 -0.3540211 -0.37600094 0.02538507 0.056504853 -0.094168946 0.20927724

actor.0.bias f4 [128]
00000000: d259 44be b64e c0bb 7e43 bf3e a418 133d
00000010: b69b 143e 64c6 5b3e 3e20 77be 51fb 2dbe
00000020: c0e5 9c3e 13a5 9b3e 970d 043d c520 99bd
00000030: 6e44 453e f301 9bbe 1ad8 543e 114d 78be
00000040: 1a63 a63e d759 ab3d a084 8ebe dd7e c33e
00000050: e623 92be 6e91 0dbe 59d1 093e d918 373e
00000060: 852c 8a3e 1cdb 53be 4c1a b6be 7bed 41be
00000070: 2132 333e 336f 74be da8c 223d f7e7 303e
00000080: 8b2f 943c a040 0cbe 4ef7 033d 1073 b2be
00000090: b9b8 963e 9bcf 1b3e 770b 6b3e 7e2d a13d
000000a0: 38f6 283e 7a84 00bc f480 b5bd e26e 00bd
000000b0: bcc5 873e 3827 a33e 2930 343e 56d6 c63c
000000c0: 1c13 363d 4f6a 9fbe 8816 d03d e8e8 fd3d
000000d0: 5586 ae3c 3a18 0c3e 63dc b43d 6b04 33be
000000e0: 0586 c83b f91a b63e bc1c 2ebe 09e1 ad3e
000000f0: 6c0f 2d3e 31d4 c0bd 03cf 37be 0985 abbd
00000100: 5c05 363e 01ac 343e 6a8f b33e 413e 353e
00000110: bd38 033b 07c3 973c e3d2 9bbe c950 94be
00000120: 494a e8bd 7772 a93e dc4f a73e 2a82 b63d
00000130: aaa6 e0bd a2f6 383d 98eb 12be 51bd 313e
00000140: 6d99 c83e 451d 91be 7aab b1be 6331 0dbe
00000150: b97c d33e 4612 a33e d7a8 323d 75e3 c13e
00000160: aca0 a03e 7390 213e 4316 06be d972 b2be
00000170: 9cfd 43bd 8f92 9b3e f7b0 d3be 2b61 2a3e
00000180: 481d a7be 1038 60be 8edd 65be d011 513e
00000190: 9dc3 b83e e355 6c3e 3eaf 38be 1ad9 4f3e
000001a0: f247 49be b88a 57bd 006f 573e 68bc d4bd
000001b0: 7b25 47be ba97 48be 4c17 ab3d 02f7 af3e
000001c0: 7477 433e 0852 5fbe ed9e a03e 707d 7dbe
000001d0: e7f2 3b3d 5f7f 66be 7d06 b8be 1b13 653e
000001e0: b6a3 8abd 6457 483b e188 063e a109 0bbe
000001f0: 150a 9dbe 3b11 2ebe 6d6f 9e3e b011 e3bd
-0.19174889 -0.005868758 0.3735618 0.03591217 0.14512524 0.21462399 -0.24133393 -0.16990401
0.30644035 0.3039938 0.032239523 -0.074769534 0.19264385 -0.30274925 0.20785561 -0.24248149
0.32497483 0.08366745 -0.2783556 0.38182727 -0.28543013 -0.13825008 0.13458766 0.17880572
0.2698709 -0.20689052 -0.35566938 -0.18938248 0.17499591 -0.23870544 0.039685108 0.17275988
0.018089077 -0.13696527 0.03221827 -0.3485341 0.29437807 0.15215914 0.22953592 0.07870005
0.16500175 -0.007844085 -0.088624865 -0.031355746 0.26518047 0.3186586 0.17596497 0.024272125
0.044451818 -0.31135795 0.101605475 0.12397939 0.021304289 0.13681117 0.08831098 -0.17482154
0.006119492 0.35567454 -0.17003149 0.3396075 0.16900414 -0.09415472 -0.17950062 -0.08374984
0.17775482 0.1764374 0.35070354 0.17699529 0.0020022832 0.018525613 -0.3043433 -0.28967884
-0.11342294 0.33095142 0.32678115 0.089115456 -0.10969289 0.045157082 -0.14347684 0.17357375
0.39179555 -0.28342643 -0.3470114 -0.13788371 0.41306093 0.3184988 0.04361805 0.37868848
0.31372583 0.15777759 -0.1309443 -0.34853247 -0.047849283 0.30385253 -0.4134595 0.16638629
-0.32639527 -0.21896386 -0.22447798 0.20416951 0.3608674 0.23079638 -0.180356 0.20297661
-0.19656351 -0.052622527 0.21038437 -0.10387498 -0.19447891 -0.19589129 0.08354053 0.3436814
0.19088537 -0.21808636 0.3137125 -0.24754882 0.045885947 -0.22509526 -0.3594245 0.2237057
-0.06769507 0.0030569667 0.13138153 -0.13577892 -0.30671754 -0.1699876 0.30944386 -0.11087358

actor.2.weight f4 [128, 128]
00000000: ff32 86bd b99b 9b3d fbe3 a93d 4b04 a0bd
00000010: 0d52 563d e61d 1dbd ae8f d8bc 02ea 413c
00000020: 0803 8dbd f81d c6bc a6e9 253d 68f0 143d
00000030: 8234 aabd 155a 7f3d a7d3 ad3d d6cc 3b3d
00000040: 6fbf b83d 4450 b43c b757 8e3c 4aaf 5e3d
00000050: 9826 a73d 4dda 9c3c e9c0 49bd fdd7 5fbd
00000060: 4837 813d 6617 d73a f278 3b3d 2546 2abc
00000070: c91e afbc 19bf 813d d809 033d 3119 3fbd
00000080: d126 0ebd 99e2 34bd b421 34bd 17a2 d13b
00000090: 517a a0bb 19bc dabc eab1 e3bc 1841 6b3d
000000a0: 933c 74bd 1374 813d ad45 fd3c 587c 74bd
000000b0: 9324 8f3d 0321 003b e25c 413d 1efd 863d
000000c0: 480e b6bd a035 42bd 4d80 8f3d f194 683d
000000d0: 527e 383d f1f7 b83c bbf5 1dbd 31cd 233c
000000e0: 7870 333c 895b 0f3d f26d a53c 2f1d 693c
000000f0: a854 813d 613d 903d a726 fa3c d4e6 88bd
00000100: c599 333d 5b43 333d f43f 74bd 2e25 4abc
00000110: b92d 6b3d 89d0 0d3c c92d 8b3d 1a15 0c3c
00000120: d924 a93c 7b96 ffbb 54ff 3a3c 6aa6 8b3d
00000130: 1a0f 033d 5ce4 26bd 5629 433c 0e13 98bd
00000140: b5a1 423d 27a5 4abd 5bd6 113c 4887 a13d
00000150: e047 b3bd a6df a13d 50dd 4bbd bc8a b93d
00000160: 6e29 8bbd f6db 9e3d 64a6 1dbd e361 5f3d
00000170: f6ca 1f3d 9658 6a3d e9bc 973c ad54 713d
00000180: 2ea8 38bd 15db c1bc 7d36 8c3d 9944 9cbc
00000190: bcc7 a6bc 95b3 1c3d 8734 a3bc e774 173c
000001a0: 2a9a 90bd dc0d 0dbd 9e2f 3c3d a1f8 48bb
000001b0: f79d 9bbd 7f18 903c da77 7dbc 3f37 40bd
000001c0: 4bd1 c9bc b93d 80bd 8724 f8bc 977c bfbb
000001d0: 2823 a53d ee36 29bc 1e25 b6bd 9727 9a3d
000001e0: 81b6 b53d 7679 a9bd fdd5 873d aa8a a93d
000001f0: d501 bfba 391e 4abd 5f8e 183d fd7d 97bd
00000200: f400 5b3d f289 4d3d f728 1c3d d2cb a5bd
00000210: 857b d5bb fedb 7b3d b421 823b fab6 903d
00000220: 52ee 393d 5285 953d 0179 edbc 81df 8cbc
00000230: 6750 a4bd 1a2d 643c f788 0e3c 8d1e 8eb9
00000240: b510 ebbc 9edd bdbc 2492 5abd 6e22 b6bb
00000250: e154 3cb9 95fc 003c ae11 4bbd deff 63bc
00000260: ef85 ddbc aba5 583d b94e a2bd f630 fa3c
00000270: 7952 993b a4ff 2b3d fddf cd3b f2e1 aabd
00000280: 1a2d 343d bacf 5ebd e49d 9c3b edcd 623b
00000290: 9e9e 88bd a4e1 d73c b6e9 4ebc 648f 693d
000002a0: ad8d 203d 4696 5abd 70c9 2abd edcf 59bd
000002b0: 4afd 54bd e01d 503c e7a0 663d fc79 ecbc
000002c0: 90aa 853c a5ba 973c 9b56 ab3b c13e 2e3d
000002d0: a92b 98bd f3c1 eebc a66c aabc d30e 93bd
000002e0: f3c3 60bd 99fa b2bd 13ca 85bd 3c92 52bd
000002f0: b3ab ac3d c350 95bd 3288 9d3d bfeb a53d
00000300: c58a 33bd 401d 34bd e1ea cf3c 3064 1a3d
00000310: 9373 69bd 42ad 14bd 9035 b13d be6b 7abd
00000320: e52f e0bc 4564 a53d 162a 3dbd ad15 1ebd
00000330: ab85 8fbd b9b7 2abc 436a b13d cc8e 72bc
00000340: 6d66 f23c 9344 2f3d 2a9e 8dbd 87f3 303d
00000350: 5bad cebc 5090 8f3d cae8 203d 2ab1 c23c
00000360: e2fe 9abd 6717 9d3c e9df 61bd 74e3 abbd
00000370: 8281 e03c e7cc 7ebd 6ba4 733c 6764 103d
00000380: e335 113d 4241 0d3c 2f00 7e3d eb7a a7bd
00000390: 6db9 083d 4d62 a9bb a75c 213d 0039 333b
000003a0: 51fa 483d 615f b0bc 86db f43c 1950 853c
000003b0: aeb5 84bd 7fae 1b3d aadb b8bb 23e7 953d
000003c0: e8c6 723d a08c 9bbd b1b1 36bb 996e 8abd
000003d0: fdaa 293d 8bbe 1fbd 5e45 74bd c609 683d
000003e0: 1583 923c 2721 323c 9442 82bd 33c1 903d
000003f0: 2115 573a f767 ab3d 9efb 6c3c ed88 17bc
-0.065526955 0.07598061 0.08295437 -0.07813319 0.052324343 -0.03835859 -0.0264357 0.011835577
-0.06885344 -0.024184212 0.040506028 0.03636208 -0.08310796 0.06234177 0.08487635 0.045849644
0.09020888 0.02201093 0.01737581 0.054366387 0.08161658 0.019147063 -0.04925624 -0.05464934
0.06309372 0.0016410172 0.04576964 -0.0103927 -0.021376984 0.06335277 0.03199181 -0.046654884
-0.034704987 -0.044161413 -0.043977454 0.0063974964 -0.0048973938 -0.02670102 -0.027794797 0.057435125
-0.05962808 0.063209675 0.030917013 -0.059688896 0.06989398 0.0019550927 0.04720772 0.06591247
-0.08889443 -0.047414422 0.07006893 0.056782667 0.045042343 0.022579165 -0.038564425 0.009997652
0.010952108 0.034999404 0.020194028 0.014228149 0.06314975 0.07042957 0.030536009 -0.06684652
0.043847818 0.043765407 -0.059631303 -0.012337966 0.05741665 0.008655676 0.06795842 0.008549953
0.020647453 -0.007799921 0.011413414 0.0681885 0.031996824 -0.040745124 0.011911711 -0.074255094
0.047517497 -0.049473908 0.008901204 0.07887131 -0.087539434 0.07903986 -0.049771607 0.090596646
-0.067950115 0.07756798 -0.03848876 0.05453671 0.039011918 0.05721339 0.018522697 0.058918644
-0.045082264 -0.023664037 0.0684633 -0.019075679 -0.020358913 0.0382572 -0.019922508 0.00924418
-0.070606545 -0.034437045 0.04594385 -0.0030665773 -0.07598489 0.017589806 -0.015470469 -0.046927687
-0.024635931 -0.06261773 -0.030290855 -0.0058437097 0.08063346 -0.010328038 -0.08893798 0.075270824
0.088727005 -0.0827512 0.06632612 0.08278401 -0.001457269 -0.04934523 0.03724515 -0.07397077
0.053467706 0.050180383 0.038125005 -0.08095516 -0.006514969 0.061489098 0.003971303 0.0706615
0.045393296 0.073008195 -0.028988363 -0.017196419 -0.08023148 0.013926769 0.008699647 -0.00027107113
-0.02869449 -0.023176964 -0.053362027 -0.0055583036 -0.00017960697 0.00787272 -0.049577408 -0.013915984
-0.027041404 0.05289237 -0.079251714 0.030540925 0.004679021 0.041991845 0.006282805 -0.08343877
0.043988325 -0.054397322 0.004779564 0.0034607605 -0.06670879 0.026352711 -0.012628963 0.057021514
0.039197613 -0.05336597 -0.041696012 -0.05317681 -0.051999368 0.012702435 0.056305792 -0.02886676
0.016316682 0.018521616 0.00522883 0.042540316 -0.074302025 -0.029145217 -0.02080376 -0.07180562
-0.05487437 -0.08739204 -0.06532683 -0.05140899 0.084311865 -0.07290795 0.07691993 0.081016056
-0.043833513 -0.043973207 0.025380554 0.037693202 -0.056994986 -0.036298044 0.08652794 -0.061137907
-0.027366588 0.080757655 -0.046182714 -0.03859489 -0.07007917 -0.010419779 0.08662846 -0.014804553
0.029589856 0.042790007 -0.06914933 0.043200996 -0.025229147 0.07009947 0.039284505 0.023766119
-0.07568146 0.019176198 -0.055145178 -0.083929926 0.027405504 -0.06220713 0.014870743 0.035252
0.03545178 0.008621516 0.062011894 -0.081777416 0.03337996 -0.005169189 0.039395 0.0027347207
0.049066845 -0.021529855 0.029889833 0.016273545 -0.06479965 0.03800821 -0.0056414204 0.073194765
0.059271723 -0.075951815 -0.0027876908 -0.06759376 0.041422833 -0.039000075 -0.059636466 0.056649946
0.01788477 0.010872162 -0.06360355 0.070681 0.00082047476 0.08369439 0.014464287 -0.009248954

actor.2.bias f4 [128]
00000000: a11a 56bd fc70 88bd 51b2 a1bd bb3c a9bd
00000010: e59c 263d 3ea3 a53d a276 b73c b8de ee3c
00000020: 2e40 52bc c26b 52bc 7611 a8bd 4541 813c
00000030: 2e39 e9bc 205d 01bc d749 c238 a02e 82bd
00000040: f5e2 a9bc 880c 853d bb31 933d 72df 823c
00000050: e747 273d 2093 76bd 7600 ffbc 3084 88bd
00000060: 99ae 20bd ce03 8abd de72 163d a49d 083d
00000070: 0fb2 9d3c 0be1 aa3c 0b35 0bbb a790 e63c
00000080: d656 5f3d 59cf f53c 483c c23c c573 6bbd
00000090: c60f 9d3d 0691 75bd 0c0b af3c 8557 283d
000000a0: a863 8d3c e10f abbd 451d 733d 99a7 1f3d
000000b0: 9747 d0bc 1dfb a03d 0ad3 593d 199b 0fbc
000000c0: 2162 063d feb6 97bd 87e7 49bc b66a 383c
000000d0: d434 863d 8c05 173d 69c3 94bd 02f2 453c
000000e0: 9996 5c3a 41c1 63bd 059b 4a3d f9ec b03d
000000f0: 8175 1d3d eee1 993b a343 67bd 7786 63bd
00000100: 9696 90bd 9c22 03bc c29b 03bd 556d 8a3d
00000110: c7b1 98bc 7191 59bd 1337 6fbc 2871 863d
00000120: 1e4a 97bd 3fd8 2bbd 4bab f13c 7c28 653d
00000130: db55 a93d 9522 823c 9635 543c a5eb 68bc
00000140: bd33 6d3d 1ce9 ae3d d959 00ba 3f6c 71bc
00000150: 921e dcbb e0d5 15bc 382a 16bd 1dd3 423d
00000160: d520 1ebd 4c64 943d 8f28 98ba 348e 333d
00000170: 500a 513c a811 1c3d ecec 163d 51e2 16bd
00000180: 8c50 aabc 9b91 1c3d e4ac a8bd 0810 84bd
00000190: f030 433d f981 ae3d c546 16bd 0a3e aebc
000001a0: 4a95 3b3c 195e 1fbd 67b9 aabd 8983 7b3c
000001b0: 1821 2dbd 18e2 f5bc bd4f c6bc 84f5 d8bc
000001c0: eb85 823a 3729 9fbd 11c4 67bd 4d33 883d
000001d0: 7b6a 1ebd f8c9 66bb c045 153d bf08 68bb
000001e0: 4c78 303d 4b7d 853d 45b9 923d 79ee f23c
000001f0: 7baa d83c 5f05 fcbb fc7e b6bd 9079 18bc
-0.05227149 -0.06662175 -0.07895339 -0.082635365 0.04067697 0.080877766 0.022395436 0.029158935
-0.012832684 -0.012843074 -0.082064554 0.015778193 -0.028469648 -0.007895738 9.2643946e-05 -0.06356549
-0.020738104 0.06496531 0.0718722 0.015975688 0.040840056 -0.060198903 -0.03112815 -0.06665838
-0.03922901 -0.06739007 0.03673064 0.033353463 0.019249944 0.020859262 -0.0021241333 0.028145147
0.054526173 0.030006098 0.023710385 -0.057483453 0.07669024 -0.05995276 0.021367572 0.04109909
0.017259434 -0.08352638 0.059354085 0.038978193 -0.025424762 0.07860396 0.05317978 -0.0087650055
0.032808427 -0.0740795 -0.012323267 0.011255911 0.06553045 0.036870524 -0.07263834 0.012081625
0.0008414775 -0.055604223 0.049464244 0.08638949 0.03844214 0.0046961224 -0.056460988 -0.055548158
-0.07059972 -0.008003857 -0.032130964 0.06759135 -0.018639458 -0.05311722 -0.014600533 0.065645516
-0.073871836 -0.041954275 0.029500624 0.055946812 0.08268329 0.01588563 0.012952229 -0.014216338
0.05791067 0.08540556 -0.0004896201 -0.014735281 -0.0067175115 -0.00914523 -0.036661357 0.047564615
-0.03860553 0.072456926 -0.0011608767 0.043836787 0.012758806 0.038102776 0.03684704 -0.036836926
-0.02079036 0.038224798 -0.08236101 -0.0644837 0.047654092 0.08520884 -0.036688585 -0.021269817
0.0114491675 -0.038908098 -0.08336144 0.015351185 -0.04226789 -0.030015036 -0.024207944 -0.026484258
0.0009958124 -0.07771533 -0.056583468 0.0665041 -0.038675766 -0.0035215598 0.036443472 -0.0035405604
0.043083474 0.06518038 0.071642436 0.029654728 0.026448479 -0.00769107 -0.08910939 -0.0093063265

actor.4.weight f4 [128, 128]
00000000: 18b1 a13d a55d 613d a004 ac3d b004 61bd
00000010: 6998 37bc 9201 6abc 7a2d fd3c 4a54 4d3c
00000020: 63eb 91bc 7687 86bd 138c 02bd b150 303d
00000030: 8ec8 613d a604 c7bc 8d90 593d db53 a5bd
00000040: 8af9 6fbb 98c7 9dbd 20a8 aebc b39a 49ba
00000050: 05b1 a13d 8ea6 f33a 0300 a4bd ccda 2a3d
00000060: ccff a43c 484e c43d 5284 c13a 347f 47bc
00000070: 7a41 a33d 6700 0dbc 3791 5c3d fd6f 14bd
00000080: e703 3dbd 0ae6 37bd 6430 91bd 986c cfba
00000090: d704 5ebd 67a8 30bc 996b 9dbd d796 913d
000000a0: b812 a23d cab9 8e3d e8fd c1bc 535b 1cbd
000000b0: 1723 913d 8b59 7bbd b04d 46bd 74f6 cf39
000000c0: ede1 5cbc 56d6 84bc 7c11 183d cb55 e6bc
000000d0: 2f4d 2fbd deee a83d ba5a a53c 2f55 2ebc
000000e0: 1cbb a83d 5898 b33c 310a 9c3c e8d6 7abd
000000f0: 6561 913d 421b 36bd 73aa 0f3d 513c 963d
00000100: c537 b43d 3503 49bd 9261 95bc a07c 9cbb
00000110: b5a8 933d 16d1 4abd 4b4f 1ebd 4522 e03c
00000120: 6e98 0abc 6abf 46bd e431 323b e6ce 17bc
00000130: 688d 41bc ba57 70bd 7e78 08bd bdb5 5f3d
00000140: bbfe abbc 091c 8b3d 2ee8 923d 93b6 e13b
00000150: 3b83 ba3d ac4c 8dbd dc06 6fbd d784 fd3c
00000160: 8d0c 0a3d c6f7 f73c 4dad ef3c 5777 70bd
00000170: 38fb f23b ea0a af3d fef9 213d 7c37 b93d
00000180: 09c9 4a3d 4aa1 bfbc 02b0 ddbc 5898 42bb
00000190: 39f0 563c dda7 21bd dc8d 3ebd e2c2 9c3c
000001a0: 6c92 763d e184 eabc d5b1 aabd e201 a73c
000001b0: 92d9 503d bd03 86bd 7102 233c 32a5 8a3b
000001c0: 9a96 3b3c 100e d43b 59e5 a2bd d5ee 253d
000001d0: e307 e23c f115 2b3d a06d 44bd 01be 673d
000001e0: 2fc2 e1bb 8ec1 2bbd bcec 2dbd cf4a b0bd
000001f0: cea6 9ebc 13d3 533d 269b 1ebd 52d1 2c3d
00000200: 5677 ba3d 5875 91bd 9fbb 803c 340e 73bd
00000210: 1c4f 773d 8a9f bdbd 59b8 bb3c 8566 26bd
00000220: 6cd6 0ebc 150c 5fbb f137 1a3d 80c3 6abb
00000230: 9c46 ea3b 03ce 793d 724a a13c 6cf7 cabd
00000240: f962 bebc 0fe4 833b 14a9 f8b7 1cc9 053e
00000250: e991 debb 1037 8dbd 90f0 d93c 7c76 6ebc
00000260: e067 b53d c48b ac3d 7c32 873d 813c 98bd
00000270: 7536 8e3d aaa2 173d 550c 05bd 3286 6f3d
00000280: f6ab 67bd 7784 a13d afee 823b 43b4 0abd
00000290: 0306 a2bd 0873 4c3c 6602 c23c ae50 0cbc
000002a0: 829d 563c 96c9 54bd f0d0 5b3b 7621 aabd
000002b0: c067 03bd 6b35 5c3d e9bb 5f3d ee65 e8bc
000002c0: 8ba0 133c 18a6 5abb 21df 9cbd b95b 8bbd
000002d0: b116 7e3d cf6c 9b3d aac4 073e b583 a1bd
000002e0: fa11 0a3d 3fda 8fba 3cb6 8bbd f2cb 95bd
000002f0: 0cd9 413c b38e 0c3d 5e4f 11bd 87b7 463d
00000300: 32c3 adbb bdfe 803d 3bb3 c23d 259c ab3d
00000310: a76e ab3d 5bdb a43d 2740 d4bd 0276 0c3d
00000320: 86bc 013d 913a aa3d 6646 64bd 63ff 84bd
00000330: dca1 7ebd 06ef b13d 4d4c 013d d213 f9bc
00000340: e12a 55bc c9fb a6bc 6cf8 e33c da8e f53c
00000350: 3a18 31bc fc98 1abd fe3e 09bd 8326 03bc
00000360: e3cb 9d3d bfdf 0f3d a9e6 a7bc 03f4 2238
00000370: d320 ccbd 5113 b23d dd71 553c 1dfb 79bd
00000380: dd3b 54bd dc24 6f3d 5a5f 81bd f9c4 6a3d
00000390: 3a0f 613d 64b1 36bd 90a8 823b 1008 2d3d
000003a0: 2226 b73c c621 09bd 3da5 ba3c 5bf4 a8bd
000003b0: 0e2a 8bbd c86d 89bd 302c 07bc 9af5 a2bd
000003c0: 792b a53d f885 c03c ebca 8bbc 5044 8d3d
000003d0: 0df9 b3bd 82ef 69bd 0c72 9fbd eb22 eabb
000003e0: dae0 6cbd 6793 f43c eb59 78bd 64fb 65bd
000003f0: 92dc 8ebc b0b6 1bbd a8c7 c83c 50bd 88bd
0.07895106 0.055020947 0.0839932 -0.05493611 -0.011205771 -0.014282601 0.030905474 0.012532303
-0.017812436 -0.06568806 -0.031871866 0.043045703 0.055122904 -0.024294209 0.05311637 -0.08072635
-0.0036617243 -0.07704085 -0.021320403 -0.00076905935 0.07895092 0.0018589066 -0.08007815 0.041712567
0.020141505 0.095852435 0.0014764166 -0.012176324 0.07971473 -0.008606053 0.053849425 -0.036239613
-0.0461463 -0.044897117 -0.07089308 -0.001582521 -0.054203834 -0.010782338 -0.07686538 0.071088485
0.079137266 0.0696903 -0.023680642 -0.03817303 0.07086771 -0.06136469 -0.048413932 0.0003966574
-0.013481599 -0.016215485 0.03712605 -0.028117081 -0.042798217 0.08248685 0.020184863 -0.010640427
0.08238813 0.02192323 0.019047828 -0.061240107 0.07098655 -0.04445959 0.035074662 0.07335723
0.087997 -0.049075324 -0.018235002 -0.0047755986 0.07209913 -0.049515806 -0.03864984 0.027360091
-0.008459194 -0.04852239 0.0027190382 -0.009265637 -0.011813499 -0.058677413 -0.033318035 0.05461668
-0.020995488 0.06792457 0.07173191 0.0068882196 0.091070615 -0.068993896 -0.05835615 0.030947132
0.033703376 0.030269515 0.029257441 -0.05870756 0.0074152015 0.085470036 0.03954505 0.09043786
0.04950813 -0.023392338 -0.027061466 -0.0029692855 0.013118797 -0.039466728 -0.046522006 0.019135896
0.060198233 -0.028627815 -0.083347 0.02038664 0.05098874 -0.06543682 0.009949313 0.0042311186
0.01144948 0.006471403 -0.07953901 0.04051097 0.027591651 0.04176897 -0.04795611 0.056577686
-0.0068896036 -0.041932635 -0.042462096 -0.086080186 -0.019366648 0.051714968 -0.03872218 0.04219181
0.09104793 -0.0710246 0.015714465 -0.059339717 0.06037818 -0.09258945 0.022915052 -0.040625114
-0.008718114 -0.00340343 0.037651006 -0.0035822093 0.0071495306 0.060987484 0.019688819 -0.09910473
-0.023240553 0.0040249894 -2.9642637e-05 0.13064998 -0.006792296 -0.06895268 0.026603967 -0.014554616
0.08857703 0.08425096 0.06601426 -0.07433415 0.069439806 0.037020363 -0.032482464 0.058477588
-0.05656048 0.07886594 0.0039957385 -0.033863317 -0.07911303 0.012478597 0.023682784 -0.008564157
0.013099076 -0.05195006 0.0033541285 -0.083071634 -0.032081366 0.05376188 0.054622564 -0.028368916
0.009010444 -0.003336316 -0.07659746 -0.06804604 0.06203336 0.07589113 0.13258615 -0.07886449
0.03370855 -0.0010975077 -0.06821868 -0.0731429 0.011831533 0.034315776 -0.03547608 0.04851487
-0.00530281 0.062985875 0.09506842 0.083793916 0.08370715 0.08049651 -0.103637986 0.03429223
0.03167393 0.08311952 -0.0557312 -0.06494024 -0.06216608 0.08688168 0.031566907 -0.030404959
-0.013010711 -0.020383732 0.027828418 0.029975343 -0.010808999 -0.037743554 -0.03350734 -0.008004787
0.07704904 0.03512549 -0.02049573 3.8851063e-05 -0.09967198 0.086950906 0.013027635 -0.061030496
-0.051814903 0.05838476 -0.06317015 0.057316754 0.05494616 -0.044602767 0.0039873794 0.042244017
0.02235705 -0.033479474 0.02278387 -0.08249732 -0.06795131 -0.06710392 -0.008250281 -0.07957001
0.080649324 0.023501381 -0.017064532 0.06897795 -0.08787737 -0.057113178 -0.077854246 -0.007145276
-0.057831623 0.029855443 -0.060632627 -0.056147948 -0.01743916 -0.03801602 0.024509266 -0.066767335

actor.4.bias f4 [128]
00000000: 79fd 833d 88bc a23d a7dd fc3a 92cc 3f3d
00000010: 935e 9a3d 5d34 5abd 9661 47bc 0235 99bd
00000020: d8cc cf3b a907 febc ba8a 2abc 4a96 54bd
00000030: c4b6 ee3a 5e84 8bbd 6410 fb3c 1bb0 89bd
00000040: 1616 9fbc acc2 203d 9350 e3bc 3417 8d3c
00000050: 0566 1ebd e6db 3cbd cd93 5a3d cfd9 09bc
00000060: 5c94 983d 0cbc 29bd 3124 57bd d4a0 58bd
00000070: e500 9dbd 48d3 433d d407 9e3d 58f9 143d
00000080: 2b42 303d 1de3 423b c85e 983d 13cb 903d
00000090: 17ab 45bd 8ffa 95bc cf90 8cbd eea5 0d3d
000000a0: b7ed 4e3c 71a0 12bd d956 d7bc 5cee 0bbc
000000b0: fb4a 523d 6e6d c33c 1dc8 89bd 371c d639
000000c0: be5e 1abd 1d92 7dbd 8d8b 26bd f381 783c
000000d0: 6eb8 293d 6e3b 873c b7b1 a13d 8120 51bd
000000e0: 0b98 2bbd 3388 2bbd 8ab1 57bd aa3e 973d
000000f0: 62ca e8bc 8f23 3ebd ae55 883d 09e2 9f3d
00000100: 418b 403d 9ce0 eabc 88bc 21bd 9c9e 543d
00000110: cfa2 8f3b b7fc 9abd 67c1 49bc 9166 2f3d
00000120: fee9 363d 819c 6fbc d09c 8fbc a9a0 65bd
00000130: 518a 9c3d 6868 c43c 36cc 8b3d 0165 3cbd
00000140: a165 0ebd b2a8 e1bb eb6b bdbc 8989 183d
00000150: b3aa 0dbd c51f 673d fd90 893d dd1c 84bd
00000160: dcdc 5dbd 8bb6 88bd ab5e 01bd eb4f 99bd
00000170: cd7e 39bd 84c7 123d d1f4 723c 45b6 e43c
00000180: 90b9 8abd 7a74 923d c509 52bd 5e37 d63c
00000190: 2d07 83bc da22 c23b 1737 193d 3422 123d
000001a0: 2dfd 513b 43b1 5d3d 3483 70bb ee07 513d
000001b0: 5695 f53c 518e 223d e92f f7bc 7e60 1ebd
000001c0: 049e 9ebd 2193 853a 11b4 603d 94c9 2f3d
000001d0: 2f45 e13c 14c7 9fbc 7fea 5abd 9fb4 96bd
000001e0: a824 23bd 75f9 783d 6954 de3c 4ee0 5c3d
000001f0: 93a1 613d 3285 933d 16ed 8bbb f8a9 f8bc
0.064448304 0.07946116 0.0019292132 0.046825953 0.0753757 -0.053272594 -0.012169262 -0.074808136
0.006341558 -0.031009512 -0.010409052 -0.05190114 0.0018212427 -0.068123564 0.030647464 -0.067230426
-0.019419711 0.039248154 -0.027748382 0.017222978 -0.038671512 -0.04610815 0.05336361 -0.008413746
0.07450172 -0.0414391 -0.05252475 -0.052887753 -0.07666186 0.047808915 0.07716337 0.036370605
0.043031853 0.002973742 0.07439953 0.07069983 -0.048258867 -0.018307952 -0.068635575 0.03458207
0.012629918 -0.03579754 -0.02628653 -0.008540716 0.05134104 0.023855891 -0.06727622 0.00040838282
-0.03768801 -0.061906923 -0.04066043 0.015167701 0.04143565 0.01650783 0.078952245 -0.05105639
-0.041893046 -0.041877937 -0.05265955 0.07384999 -0.028416816 -0.04642063 0.06656967 0.07806785
0.047007803 -0.028671555 -0.039486438 0.051909074 0.004383422 -0.07567733 -0.012314177 0.042822424
0.044656746 -0.014624716 -0.017530829 -0.05606142 0.07643569 0.023975566 0.068260595 -0.045994762
-0.03476489 -0.006886565 -0.023122748 0.03724054 -0.03458662 0.056426782 0.067171074 -0.06450818
-0.054165706 -0.06675442 -0.031584423 -0.07485946 -0.045286942 0.035834804 0.014828877 0.027918944
-0.067736745 0.071511224 -0.05127885 0.026149448 -0.015994633 0.005924565 0.037406053 0.03567715
0.0032041774 0.054124128 -0.0036699297 0.051032953 0.029978435 0.039686505 -0.030174213 -0.03866624
-0.07744983 0.0010190943 0.054859225 0.04291685 0.02749881 -0.019504108 -0.05344629 -0.073586695
-0.03982988 0.060784776 0.02713986 0.05392485 0.05508573 0.07203139 -0.004270206 -0.030354485

actor.7.weight f4 [128, 128]
00000000: e4a4 a9bd 41be 683d cb77 a5bd ff52 8dbd
00000010: 79c0 30bd 1741 333d 1a3f c9bc 7f37 e3bc
00000020: c0f4 9ebd 0b35 923d 8e23 173d 9202 f2bc
00000030: 612d a33d 7309 1d3c 0711 ef3c ad6f 8d3d
00000040: 2691 4ebc 2898 84bd ad3f 0e3d fe08 b5ba
00000050: ca95 cf3d 6943 66bd 143e c93c 816e 9d3c
00000060: 64e9 81bd 10d0 ad3d bbac f23c 7eee 03bd
00000070: c9c2 f8ba 503d 01bd 5fa0 be3d aaa8 483c
00000080: 29bd 7f3d 020d e63b cb9d 18bc 5764 a7bd
00000090: f472 a6bd 4958 a8bc 1f78 8a3d 03c6 023d
000000a0: b732 233b 3888 193d 6c10 b3bd ad9d 70bd
000000b0: f567 593d c8b4 9dbd bbe4 ddbc ae6e 163d
000000c0: 7d0a 25bd cb9e 27bc 3519 69bd c440 9b3c
000000d0: c5a4 9dbd b977 7dbd a576 a9bc ba04 45bd
000000e0: a317 6abd 134e 9cbc 06af 1fbd b2e4 c9bd
000000f0: f57d 4cbb ff8b b2bc fa51 583d 76e2 a7bd
00000100: a16a 493d 8118 61bd 8599 603b 8a4c 333d
00000110: 319a 66bc c0d9 01bd 5edb 2a3d 2528 093d
00000120: 6c4f 59bd 7663 bf3a 3250 d9ba bd12 2f3c
00000130: e0ba c7bb 669c 0e3c de7f 4b3d d76d a4bd
00000140: dc41 27bd e4c2 97bd 2d06 4ebc 51f2 8e3d
00000150: b79a db3d 6839 a83d 8892 c43b 2692 95bd
00000160: 133a 83bd d165 8d3d 6afa 493d b38d 6fbc
00000170: 7287 423d e5f1 b83c fcbc 7b3d 24f4 b0bd
00000180: 207a 013b f925 9e3d 73f5 903d 0a5d 82bc
00000190: ad1a 363d 0beb a9bc ec23 673c 8330 96bd
000001a0: 528a 2e3c 0901 7cbd e4d6 0fbd 6e9b f13c
000001b0: d25a 3b3d 7941 6a3d fff5 d8bc 7a0c b73d
000001c0: 6af2 a1bc 799d 573d 9547 dbbc dec8 b7bc
000001d0: aba6 8dbd 28ef b4bd 0a46 99bd b9d8 48ba
000001e0: 289b bf3c 2de8 473d e111 9bbd fa1a 60bc
000001f0: e4a1 d23a 65b1 623d 63db b23d 96e2 043d
00000200: 1154 6dbd 03d2 aa3d 7049 393d 529e 1fbc
00000210: d779 85bc 09e3 43bc 6362 933d 10d7 1ebd
00000220: 3f51 e43c 4e0b 2b3d edd9 29bc b843 403b
00000230: 1678 16bd e2ac 6c3d 6a9a 67bd 493e 833d
00000240: df24 90bc 3141 2cbd f80c 463d be65 6ebd
00000250: 88f1 763d a14d d33c 8281 83bc 9f92 37bd
00000260: 2b3f 0f3d 92ff 923d bb50 6a3d e3cb 14bd
00000270: 36e3 97bd eb8a 903d 9002 823c 8b21 6f3c
00000280: e799 41bd 8e1a 19bd 3014 75bd 862b 38bc
00000290: edba c33c 29c8 9bbd dd4e 7f3d a245 22bd
000002a0: da8a 44bb 7f4e 32bd 704e a83d a873 89bd
000002b0: 5a06 05b9 ae3b 2b3d c6c2 d93c 9b4b a23c
000002c0: 281d 5a3c 9b29 6abd e964 623d c5b5 bb3c
000002d0: 8ca3 26bd ad0c 413d 9a00 c13d db3d a23d
000002e0: 9d7d f8bc 2a90 f43c b5e9 543c 636e 9fbd
000002f0: ab67 063d d304 4bbc d681 e3bc 6b3a 8bbd
00000300: e1c8 5bbd 9290 67bd 495d a53d bae8 35bd
00000310: 6e32 9b3c 471a 7b3d 2730 0fbd 39c4 44bd
00000320: a688 3f3d 8707 b53b 02e8 f83b 7626 893d
00000330: a7e4 733d dc39 00bd 2ae7 1a3c ecab 20bc
00000340: 72b7 963d d37a 90bb 74e9 133d 2be0 233d
00000350: 1880 30bd 53c7 17bd 1e75 7b3d dbf8 623d
00000360: e0cc 94bd f909 22bd a9ae 4bbc 6c53 3dbd
00000370: ed39 063d 0eba 08bd adc4 853d 1ca3 3a3d
00000380: 4837 88bc 6d84 423d 9b93 18bd a40f 0bbb
00000390: 0f1c 623d 8298 f1bc 96ef 393d a53c 67bd
000003a0: ec7f 34ba 4c7c 493d 2f98 d2bc 0a5c 7e3d
000003b0: dfc1 863c da5a 96bd de54 73bd 4bcd 86bd
000003c0: 42f1 0dbd cdab dd3c 2d7c 31bd a729 8fbd
000003d0: da71 97bd df28 ffbc e750 8fbd de1d 19bc
000003e0: 9797 a5bc d5de 0b3d 3f89 ab3d 57d9 99bc
000003f0: a84e b4bb 2137 3b3d 78ca 6e3d 8e02 263d
-0.082834035 0.056822065 -0.08079489 -0.06900596 -0.043152306 0.043763246 -0.024566222 -0.027736424
-0.07761526 0.071390234 0.036899142 -0.029542241 0.0796764 0.009584772 0.029182924 0.06906066
-0.012607848 -0.06474334 0.034728695 -0.0013811884 0.10135992 -0.05621663 0.024565734 0.019217731
-0.06343344 0.084869504 0.02962338 -0.032209866 -0.0018978949 -0.031552613 0.09307932 0.012247244
0.062436257 0.0070205936 -0.0093149645 -0.08173435 -0.08127394 -0.02054991 0.067611925 0.03192712
0.0024902055 0.037483424 -0.087433666 -0.05874412 0.053077657 -0.07700497 -0.027086606 0.036726646
-0.040293206 -0.01023073 -0.056908805 0.018951781 -0.07697443 -0.061881755 -0.020686457 -0.04810021
-0.057151448 -0.019080197 -0.038985275 -0.09858073 -0.0031203006 -0.021795271 0.052812554 -0.08197491
0.049173955 -0.05495501 0.0034271192 0.043774165 -0.014074848 -0.031701803 0.04171311 0.03348555
-0.05305426 0.0014601785 -0.0016579686 0.01068562 -0.0060952753 0.0087042805 0.04968249 -0.08028763
-0.040834293 -0.07410219 -0.012574715 0.06979812 0.10722869 0.082140744 0.005998913 -0.07303266
-0.06407561 0.069041856 0.04931108 -0.014621186 0.047492452 0.022576282 0.061459526 -0.08640316
0.001975663 0.077220865 0.07078066 -0.015913505 0.044459034 -0.02074196 0.014107686 -0.073334716
0.010653095 -0.061524425 -0.035117045 0.02949306 0.04574091 0.057191346 -0.026484488 0.089379266
-0.019768912 0.052640412 -0.026767531 -0.022434648 -0.06916555 -0.08834678 -0.07484062 -0.0007661689
0.023389414 0.048805404 -0.075717695 -0.013678307 0.0016069976 0.055344958 0.08733251 0.03244265
-0.0579415 0.08340838 0.04523605 -0.009742336 -0.01629345 -0.011955985 0.071965 -0.03877932
0.027870772 0.041758828 -0.010366899 0.0029337239 -0.036735617 0.05778206 -0.056543745 0.06408364
-0.017595707 -0.04205436 0.04835221 -0.058202498 0.060288936 0.025793852 -0.016052965 -0.044817563
0.03497235 0.071776524 0.057205897 -0.036327254 -0.07416384 0.070577465 0.015870363 0.0145954
-0.047265913 -0.03737884 -0.059833705 -0.011240846 0.023892844 -0.07606537 0.06233107 -0.03961719
-0.0029989989 -0.04353189 0.08218086 -0.06711513 -0.00012686235 0.04180496 0.026582133 0.019811442
0.013312615 -0.057168584 0.055272017 0.022913823 -0.040683314 0.04713123 0.09423943 0.07921954
-0.030333335 0.029853899 0.012995173 -0.077847265 0.03281371 -0.012391287 -0.027771872 -0.06798252
-0.05365837 -0.056534357 0.08074433 -0.0444114 0.018944945 0.061304357 -0.03495803 -0.048038695
0.046761177 0.005524579 0.007596017 0.06696789 0.05954423 -0.03130518 0.009454528 -0.009806614
0.07359208 -0.004409173 0.03611131 0.040008705 -0.04309091 -0.037055325 0.06139099 0.05541311
-0.07265639 -0.039560292 -0.012431779 -0.046222135 0.032770086 -0.03338056 0.065316536 0.04556571
-0.016627923 0.047489572 -0.037250143 -0.002121904 0.05520254 -0.029491667 0.045394503 -0.05645432
-0.0006885517 0.049190804 -0.025707332 0.062099494 0.016449867 -0.07341547 -0.059407108 -0.06582125
-0.03465391 0.02705946 -0.043331314 -0.069903664 -0.07394762 -0.031147419 -0.06997853 -0.0093455
-0.020213885 0.034148056 0.08375787 -0.018780394 -0.0055025406 0.045706872 0.058298558 0.04052978

actor.7.bias f4 [128]
00000000: 4e8d 09bd f846 8539 dbb3 2fbc a911 203c
00000010: 2fdc 1dbc d811 5abc 985c 363d 96fe 523d
00000020: c243 19bc c2bb 023d bd83 9bbc 5713 49bb
00000030: 689a 14bd 04fb f93c 1d52 6b3c 2431 5f3d
00000040: ecc7 9dbc c16a 203d e172 cebb 81d2 053d
00000050: bf8a e63c a808 80bc 1591 f23c c906 b73c
00000060: 7c95 243d ad93 43bb 83df eb3c 5aa0 75bd
00000070: 5a1a 893b 2a74 593d 3baf 453c 6612 4d3c
00000080: 7245 9ebc d319 fa3c b3ba de3c f801 253d
00000090: fea6 d9bb 45aa 1e3d 1f6d 143d 9011 5fbd
000000a0: 43bc bbbc 21a2 013d a6cd 28bd 0c5c 94ba
000000b0: 4449 fd3c c127 0abd 1799 c33b 7984 dbbc
000000c0: 74ce 86bc 4769 193d 5469 b6bc ae20 f0bc
000000d0: a5f6 bbbc a3f1 15bc 217b ca3a c93a 393c
000000e0: c934 0cbd 2802 05bd da51 07bd 168c 2a3d
000000f0: b382 a93c 41cb 6abb 4112 423c bd48 b7bc
00000100: 5fd8 86bb 89e4 8fbb 02d0 8cbc cfb9 94bc
00000110: 4ec2 dfbc d2e7 a73b 317a cdbc cfa8 823b
00000120: c2d8 e7bc c208 1fb9 07a2 ebbb d479 4a3c
00000130: 5e25 e13c a3d5 0c3c 5f62 ec3b ddcd 97bc
00000140: ee5e 84bc ea3e 2fbc 97d3 da39 fe23 acbc
00000150: 5195 113c 6b12 80bc 0642 8fbc dba5 2cbd
00000160: 2660 77bc 7f6c 17bc 5c39 843d b271 013d
00000170: a5fd 523d 9aa7 64bd e369 3bbd 4d75 d7bc
00000180: 12a2 f7bc e0db 7b3c 5aa1 f6bc 71c6 983b
00000190: 3d98 31bc 54db 663d 389b e03c 9336 a9bc
000001a0: bfad 573b 43a4 4b3d 7be0 52bd 70db a83c
000001b0: 163c 0dbd 6c81 a73b 6d0e 6abd efcb 65bc
000001c0: ca4f 8c3c c41e deba bcb4 24bc 2e6d 953c
000001d0: 2718 4e3c cc25 18bd 46a8 313a e9c6 543c
000001e0: 237b e0bc eae5 61bc 47ee 7ebc 65ba 72bc
000001f0: 7582 613d ccf9 21bd 3d46 40bd f145 1cbd
-0.033582024 0.00025420613 -0.010724033 0.0097698355 -0.009635015 -0.013309918 0.044521898 0.051512323
-0.009354534 0.03191734 -0.018983716 -0.0030681693 -0.036280066 0.030515201 0.014362839 0.054490224
-0.01926037 0.03916431 -0.0063003157 0.032671455 0.028142331 -0.015629128 0.029610196 0.022342103
0.040181622 -0.002984266 0.028793102 -0.059967376 0.0041840496 0.0530893 0.012065704 0.012516594
-0.019320223 0.030529892 0.027188634 0.04028508 -0.0066422215 0.0387366 0.03623688 -0.05446011
-0.022916919 0.03164876 -0.041211747 -0.0011318936 0.030918725 -0.03372932 0.0059691775 -0.026796566
-0.016455866 0.037453916 -0.022267021 -0.029312458 -0.022944758 -0.009151849 0.0015448072 0.011305519
-0.034230027 -0.03247276 -0.033037044 0.041637503 0.020692205 -0.0035826715 0.011845172 -0.022373552
-0.004115149 -0.004391257 -0.01718903 -0.018155007 -0.027314331 0.0051240707 -0.02508268 0.0039874087
-0.0283016 -0.00015166684 -0.007190946 0.012358148 0.027483638 0.008595857 0.007213875 -0.01853078
-0.016158547 -0.010696152 0.00041737847 -0.021013256 0.008885697 -0.015633782 -0.017487537 -0.04215036
-0.015098607 -0.009242176 0.06456253 0.03160257 0.051511426 -0.0558239 -0.04575528 -0.02630105
-0.030228648 0.0153722465 -0.030106235 0.004662328 -0.010839519 0.05636151 0.027417764 -0.020655906
0.0032909957 0.0497172 -0.051483613 0.020612448 -0.03448113 0.005111864 -0.057142664 -0.014025672
0.01712789 -0.0016946425 -0.010052856 0.018240537 0.012579001 -0.03714542 0.0006777089 0.012986877
-0.027402466 -0.013787726 -0.015559739 -0.014814948 0.055056054 -0.039544865 -0.046941984 -0.03815264

actor.10.weight f4 [1, 128]
00000000: 1b77 47bc bf5a 663c caa4 32bc b5a4 3ebc
00000010: 4625 24bc 3a0b a83c 67dc c7bb 1915 9f3b
00000020: 5f84 833c 5cf2 1d3c cb5b 503c c5ac ffbb
00000030: 0156 1abc a08e 2a3c 40b3 e8bb ebab 073c
00000040: 7684 813c 068a a43c 7bc5 fd3b eb55 573c
00000050: 82e8 203b d594 69bc 6ff4 e0bc beae 06bc
00000060: 1645 013c 131d 42bc d1c9 353c 5eaa 52bb
00000070: e33a 073c 967e 1abb 6f98 eb3b 4c2c 543c
00000080: e058 ab3c f6f0 343c bb7e a7bb 04e0 2a3c
00000090: eb0e 8a3c 4f04 063c 8111 95ba 0254 42bb
000000a0: 2a26 e5bb feb3 38bc ddbf 3f3c 647f 023c
000000b0: b903 143c 3b66 323c 97d1 12bc 189f c1bb
000000c0: 9462 623c 4876 473c 25f0 3cbc 0c2b 0a3c
000000d0: 5dad 1abc 80fa 1fbc 40c2 853c 4c01 22bc
000000e0: 4c00 06bc 2bb9 933c 6181 5fbc e387 b03b
000000f0: eb68 f8bc 7dd5 59bc fcb4 7d3c 87e8 15bc
00000100: e912 23bc 85c8 0b3c 0f7f 94bc fc76 093c
00000110: 0b9f f0bb 0b15 dcbb 95cf afbb 627e 4c3c
00000120: 83da 113c ffad f2bb 855e 0ebc 2320 453c
00000130: 13f8 06bc fbdb 44bc fee9 c23c 1647 243c
00000140: e4ce 1bbc 8a14 3b3c bb2f 95bc a9f8 a5bc
00000150: b784 47bc 097b 0fbc a204 29bc d621 8ebb
00000160: 2b64 85bc 9dcb a3bc a0c4 7639 d636 cb3c
00000170: a1d8 c53a ad84 98b9 e112 c63b 5ee6 68bc
00000180: b293 623c fb02 56bc df57 933c e732 873c
00000190: 0c81 1fbc 57e6 e739 1fce 84bc d9eb 853c
000001a0: 8c00 8dbc 7eff 123b 01a8 19bc 514f 373c
000001b0: 15cf 37bc 4f8f 3ebc b5ed 223c 9ee6 62bc
000001c0: 9b8a 84bc e800 2c3c 42d8 c93b b8da 3dbc
000001d0: 5855 a03c c223 b2bc 1f0b 713c 400a 71bc
000001e0: 08fa f33b 184a 233c f8fc dcbb 4b07 003d
000001f0: 0b7c 1f3c ce87 31bc d7fa 05bc 445f d13b
-0.012174393 0.0140597215 -0.010903547 -0.011635949 -0.010018652 0.020513166 -0.006099272 0.00485481
0.01605433 0.0096403025 0.012717198 -0.007802578 -0.009419919 0.010409981 -0.0071014464 0.0082807345
0.015810233 0.020085346 0.007744489 0.013143043 0.0024552648 -0.014256676 -0.027460305 -0.008220373
0.0078900065 -0.011847752 0.01109548 -0.0032145004 0.008253786 -0.0023573986 0.0071898024 0.012950014
0.020916402 0.011043778 -0.005111543 0.010429386 0.016852817 0.008179738 -0.0011373014 -0.0029652123
-0.006993075 -0.011273382 0.011703459 0.007964943 0.009034091 0.010888631 -0.008961103 -0.005908858
0.013817448 0.012174197 -0.011531864 0.008433115 -0.009440747 -0.009764314 0.016327977 -0.0098880045
-0.008178782 0.01803263 -0.013641686 0.0053872927 -0.030323466 -0.0132955285 0.015485045 -0.009149677
-0.009953239 0.008531694 -0.018126993 0.0083901845 -0.007343178 -0.0067163757 -0.005365322 0.012481304
0.008902195 -0.007405996 -0.008689527 0.012031588 -0.008237856 -0.012015338 0.023793217 0.010026714
-0.009509776 0.011418471 -0.018211236 -0.020260172 -0.012177638 -0.008757361 -0.010316046 -0.0043375297
-0.016283115 -0.019994551 0.00023533637 0.024806421 0.0015094468 -0.0002909055 0.006044731 -0.01421508
0.013829159 -0.013062234 0.017986236 0.016503764 -0.009735357 0.0004423137 -0.016211567 0.016347812
-0.017212175 0.0022430117 -0.009378434 0.011188344 -0.011218806 -0.011630847 0.009944369 -0.013848929
-0.016179373 0.010498263 0.006159813 -0.011587791 0.019571945 -0.021745566 0.014712124 -0.014711916
0.0074455775 0.009966396 -0.0067440234 0.031256955 0.009734164 -0.010835601 -0.008177481 0.0063895304

critic.0.weight f4 [128, 6]
00000000: 54b4 12bf 95fe ea3d aade ba3d 1a76 2a3b
00000010: 8882 51be 5fcc 99bd 6d54 90be dacc 8a3d
00000020: d843 a53e f512 a6be a9a4 883d d40a 943e
00000030: 1e0b 563e ba60 80be 1748 3a3e ba3d 203e
00000040: 8403 ddbe d45c aa3e cbde 983d 5725 c33e
00000050: ba9b 133e 9beb 99bd 73f6 14be 1d0c c6be
00000060: 0f96 d53c c0f9 88be a663 cb3e 77fe 453e
00000070: d9b3 393d 5bd4 6fbe 4fbb 27be 2580 533e
00000080: f34a c23e a74b cf3c 0710 be3e ac24 3f3e
00000090: c32d 07c0 3771 aabe 9384 203e 0368 3d3e
000000a0: 3b4e b6be 04f1 b33f f439 083f 68f3 ddbd
000000b0: 9299 98be f49d 4abe 5f6f df3e 7710 b0be
000000c0: b754 8cbe cf60 5c3d c2cb c23e 1599 283e
000000d0: 4f86 a9bd 0308 213e ea14 b53e 1810 9f3e
000000e0: 4865 9b3e be5e a3be f72b 8b3e ee49 863e
000000f0: e291 6d3c 0693 5cbe 3674 a83e c6c4 efbd
00000100: e2bf 9dbc 8f05 d23e 3caf 81bf 480e 50be
00000110: 1b6b 2a3e 25fb 603e abc7 cfbe 8f9f a83f
00000120: 015b f83e b8a6 e23d eeb9 a43e be5c e13e
00000130: 310f 79be 9c83 a6be ef36 83bd 26ab fabd
00000140: 49e0 87bd ffba 6b3e 0f29 90be 6284 4ebe
00000150: 0cf9 1b3e 6b2e e1bd 0ff2 84bd c66b b8be
00000160: 18dc 843e 093c a8be c945 03bc 5c03 c938
00000170: 24e8 96be 1df4 043e f07f 88bd cb65 80be
00000180: 5f2a 8c3e 628f 0c3e 14f3 88be 047f ee3d
00000190: af0c 853d f293 203e be21 d33e b32c b1be
000001a0: 272b 6a3e 3e83 8ebe 900e 763e 89c0 ab3b
000001b0: 0905 963d 37b7 bebd fb63 543c b351 b73d
000001c0: f259 613d 0965 c3be 9084 0e3d b227 df3d
000001d0: 8c0e 8b3d bbc1 f33d fbe4 223c 57b0 c3bd
000001e0: f180 a13f 2ace 54bb 78c3 8d3d 6bec 5c3d
000001f0: 51e0 623f 66f4 6fbf 9529 d8be 2b1f 8ebe
00000200: ae99 3abe bd17 a4be 6888 89be ec0a 293e
00000210: a893 c33d 1a2c 553e 6c3e b0bd 31cc e0bd
00000220: 5076 d23e 6b55 a7be 581c 28bf d658 b1be
00000230: b7cf c7bc a9d5 0c3e 9302 acbe 14c0 a33d
00000240: 1823 aa3e cb52 c2bd ba44 00be 7785 d33e
00000250: a518 ba3e 3518 9dbe 4145 13c0 2ba3 bebd
00000260: 92d5 17be e6ae cd3e f04c eebe 9c5f de3f
00000270: a37c 793e 38fb 80be 14a0 8b3d a3eb 51bd
00000280: 1495 0fbe b664 9c3e 6a0f b93c fa9e 163e
00000290: 4eeb a93b fdd7 883d 004c 953d f60f 22be
000002a0: 95d3 c93e 20c6 8c3e f531 743e 5859 8fbd
000002b0: 64f2 a1be 91c0 a8bd e450 a13d 8634 8c3d
000002c0: 65f5 15be 81fa e43e c9ca 86be 0e85 03be
000002d0: aa9a 253c c804 a13e a5bd 0cbe 836f b23e
000002e0: 3fe7 3abe 672e edbc f1c3 30be 2ac2 833d
000002f0: 3629 41be 8ee8 88be ab5a 96be f364 88be
00000300: b277 e63e 97d9 a7be d42e 10be 896f a2bd
00000310: 2953 433e 22fe 0dbe c2f4 91be 2df0 163e
00000320: f546 ba3d a217 c0be e078 d83e 0858 a63c
00000330: b259 8cbe 99ff 303e 414c 7a3e 20e2 ab3e
00000340: 76f1 ab3d b079 bf3d e0e0 e63f 2ebd c43e
00000350: 5aff 7fbe 6a7b bcbe e75f 0a3f b465 a5bf
00000360: 3586 91be 315e 0fbe a88e 44be 3f50 203c
00000370: 4742 563e 2798 ebbd df89 04bf 485d b6be
00000380: afaa 3c3e 8a73 033e da56 8abe 9d01 26be
00000390: e71f 30be 60f6 82be 38e1 94be 02ab 0bbf
000003a0: 9d6b 33bd 4152 1f3e d907 80bb 429b 29be
000003b0: ec04 263d 7706 ab3c 4581 8b3d c180 92be
000003c0: de6a 953e 5fe9 94bd c2c2 873e f3d3 c7bc
000003d0: 75b5 833e 3a56 7cbe db04 36be 18d0 54be
000003e0: ffb8 bc3d 4937 423e 745c ba3e b6f1 1e3e
000003f0: 94dd 343f ab6f 50bd dda0 a73e f160 5dba
-0.5730641 0.11474339 0.09124501 0.0026010335 -0.2045995 -0.07509684 -0.28189412 0.067773536
0.32278323 -0.32436338 0.066720314 0.2891451 0.20902678 -0.25073797 0.18191563 0.15648547
-0.43166745 0.33273947 0.074643694 0.38114426 0.14414874 -0.07515641 -0.14547138 -0.38681117
0.02607253 -0.26753044 0.39724463 0.19335352 0.04533753 -0.23420851 -0.16380046 0.20654352
0.37947807 0.025304629 0.37121603 0.18666333 -2.112168 -0.332895 0.15675573 0.18496709
-0.3560656 1.4057927 0.5321343 -0.10837442 -0.29804665 -0.19786817 0.43639657 -0.34387562
-0.27408382 0.05380326 0.3804608 0.16464646 -0.082775705 0.15725712 0.3536752 0.31066966
0.3035071 -0.3190822 0.2718198 0.2622828 0.014500113 -0.2154046 0.32901162 -0.117074534
-0.019256536 0.41019866 -1.0131602 -0.20317948 0.1664242 0.21970804 -0.40582022 1.3173693
0.4850693 0.11066955 0.32173103 0.4401607 -0.24322201 -0.32522285 -0.06406962 -0.12239675
-0.06634576 0.23020552 -0.28156325 -0.20167688 0.15231723 -0.10995182 -0.064914815 -0.36019725
0.25949168 -0.32858303 -0.008012244 9.5850526e-05 -0.29473984 0.12983747 -0.06665027 -0.25077662
0.27376077 0.13726571 -0.26747954 0.1164532 0.0649656 0.15681437 0.4123668 -0.34604415
0.22868024 -0.27834505 0.24028993 0.005241458 0.07325179 -0.09312289 0.01296329 0.0895113
0.05501742 -0.3816302 0.03479439 0.10896243 0.06789884 0.119021855 0.0099422885 -0.095551185
1.2617475 -0.0032471516 0.06922048 0.053936403 0.8862353 -0.937323 -0.42219225 -0.27758154
-0.18222687 -0.3204936 -0.26861882 0.16508073 0.095496476 0.20817605 -0.08605656 -0.109764464
0.4110589 -0.32682356 -0.6566825 -0.3463809 -0.024391038 0.1375338 -0.33595714 0.0799562
0.332299 -0.09488448 -0.12526217 0.41312763 0.36346927 -0.3068253 -2.301102 -0.093084656
-0.14827564 0.401725 -0.46543074 1.7372928 0.24363951 -0.25191665 0.06817642 -0.05125011
-0.14021713 0.30545586 0.022590358 0.14709082 0.005185521 0.066818215 0.072898865 -0.15826401
0.39419237 0.27494907 0.23847182 -0.06999463 -0.31630242 -0.08239854 0.07876757 0.068459556
-0.14644392 0.4472237 -0.26326588 -0.12843725 0.010107676 0.3144896 -0.13744219 0.34850702
-0.18252276 -0.02895279 -0.17262246 0.06433518 -0.18863377 -0.26739925 -0.2936605 -0.26639518
0.45013195 -0.32783195 -0.14080364 -0.0793143 0.19074692 -0.13866475 -0.28507048 0.14740057
0.09095565 -0.3751803 0.4227972 0.020305648 -0.27412182 0.17285003 0.24443151 0.33570957
0.083956644 0.09349382 1.8037376 0.38425583 -0.24999753 -0.36812907 0.54052585 -1.2921662
-0.28422704 -0.14000775 -0.19195044 0.009784757 0.2092372 -0.1150363 -0.51772875 -0.35618043
0.18424486 0.12837043 -0.27019387 -0.16211553 -0.1719967 -0.25578594 -0.29078078 -0.5455781
-0.0438038 0.15558721 -0.0039071855 -0.16563132 0.040532038 0.020877106 0.068117656 -0.28613856
0.29183096 -0.072710745 0.26515776 -0.024393057 0.25724378 -0.24642268 -0.1777529 -0.20782506
0.09214973 0.18966402 0.3639866 0.15521893 0.706506 -0.050887745 0.32739916 -0.00084449264
