PPO/PPO4_Trained/PPO_DoubleInvPendulum_900K.pth (torch, 410281 bytes, 18 tensors)

actor.0.weight f4 [128, 6]
0.9061473 -0.08888985 0.12503779 0.66464037 1.0795408 -0.52589667 -0.64122945 0.06039898
0.11551108 0.13655302 -0.40819678 -0.29725254 -0.42420644 -0.079012215 -0.10982225 -0.21100599
-0.68846 0.10867725 -1.2543714 0.32013223 -0.24723 -0.12187157 -1.1744155 0.64241785
-1.0791138 0.22284643 -0.24828047 -0.12516735 -1.420267 0.50522643 -1.2512833 0.09989821
0.1329895 -0.48439562 -1.1394817 0.031145366 0.80646634 0.13327213 -0.14544526 -0.12660794
1.192343 -0.7366069 0.75815994 0.16114344 0.31096628 0.4465906 0.95762694 -0.40161583
0.8612782 0.1775448 -0.20591909 0.3583348 0.9432456 0.20386559 -0.9199708 0.05887827
-0.17448124 -0.5041703 -0.47726887 -0.43299237 0.88055855 0.19609062 -0.0017561 0.4395384
1.7130417 -0.77364826 -1.2932063 -0.24523833 0.37159848 0.12216564 -1.6010783 0.6282428
0.8288303 -0.36782777 0.13687514 0.38180748 0.5642101 -0.017718805 -0.032043252 -0.1943466
-0.29313168 0.7732789 -0.77129257 0.48993453 -0.2571255 -0.20364252 0.2868738 0.149069
-0.80422956 -0.18025127 -0.33155468 0.32810012 0.042862207 -0.24329816 -1.3394114 0.0020155031
1.470346 0.30479634 -0.10850698 0.39621136 0.9739146 -0.39230403 -0.8598695 0.20182455
-0.26120958 -0.052956462 -1.6351346 0.46133932 -0.64029324 -0.21673025 0.29591882 0.37152284
-0.7826566 0.4120207 -0.5680234 -0.056040794 0.12360359 -0.28371078 -0.37449342 -0.06783926
0.8232881 0.33409134 -0.15249196 0.38103285 1.4425259 -0.6446904 -1.3927752 0.3527428
-0.2321192 -0.45216817 -1.3852112 0.8101699 1.4062138 0.31465358 0.046637286 0.34104973
1.3898708 -0.5833859 0.3829005 0.2387548 -0.2677194 -0.21318057 1.4185679 -0.3795362
1.3232 -0.052004743 -0.35742265 0.61729485 1.286029 -0.78121156 -0.15142122 0.18585348
0.13532767 -0.029941687 -0.6716755 0.22783336 -1.0156357 -0.004261914 -0.11773044 0.12997971
-1.1498353 0.18949102 0.42322743 -0.02711097 -0.074317865 0.26986447 0.5956121 0.0585093
0.45962858 0.0632715 -0.34373498 0.45218873 0.8943399 -0.31609792 -1.3627367 0.18749155
-0.31252575 -0.33757555 -0.88928753 0.48727587 0.7189834 0.21050385 0.06399244 -0.19997528
1.1914234 -0.7529211 1.2339797 -0.3351009 0.19572699 -0.01359942 0.96175516 -0.2177883
1.5802358 0.34786695 0.009940542 0.38382792 1.691978 -1.062223 1.1805092 -0.29114112
0.37114397 0.6142526 1.4565965 -0.44004723 -1.1462882 -0.11592159 0.08538138 -0.32840845
-1.6743573 0.35007265 -1.0991366 -0.22332165 0.2692753 -0.52830994 -1.0469902 0.37294275
0.46613854 -0.143857 -0.26137716 0.36806285 0.34562275 -0.110631414 1.0292847 -0.15350085
0.013770227 0.27870932 0.848797 -0.4958064 -0.92594594 0.056907427 -0.19339815 -0.52466387
-0.93601406 0.14313886 0.40696868 -0.11560899 -0.055326514 0.028137298 0.04309609 0.124845795
-1.0095572 -0.0037585124 -0.15229554 -0.6457979 -1.1417023 0.52122724 -1.116194 0.005802539
-0.04080912 0.35311267 -1.6923189 0.25671518 0.7186289 0.06678277 -0.08531999 0.1018378
00000000: 45f9 673f e20b b6bd e809 003e df25 2a3f
00000010: 652e 8a3f 2aa1 06bf 9d27 24bf ec64 773d
00000020: 1391 ec3d 8ed4 0b3e 2bff d0be 7c31 98be
00000030: 9631 d9be 28d1 a1bd 7dea e0bd f411 58be
00000040: ea3e 30bf 2e92 de3d 3e8f a0bf 5fe8 a33e
00000050: dc29 7dbe cd97 f9bd 3f53 96bf 7f75 243f
00000060: 6720 8abf db31 643e 3c3d 7ebe df2b 00be
00000070: 4fcb b5bf 8556 013f 0d2a a0bf 6f97 cc3d
00000080: 662e 083e b402 f8be 89da 91bf 9124 ff3c
00000090: 9474 4e3f 7d78 083e 9aef 14be 83a5 01be
000000a0: b29e 983f 4592 3cbf c516 423f c902 253e
000000b0: f936 9f3e 86a7 e43e 0a27 753f 97a0 cdbe
000000c0: ba7c 5c3f 4ece 353e 74dc 52be a977 b73e
000000d0: 8b78 713f 24c2 503e 3583 6bbf 572a 713d
000000e0: 36ab 32be 4e11 01bf 965c f4be 2db1 ddbe
000000f0: 496c 613f fbcb 483e f02c e6ba 2d0b e13e
00000100: f344 db3f d00d 46bf c987 a5bf c21f 7bbe
00000110: 2842 be3e fb31 fa3d 22f0 ccbf 85d4 203f
00000120: 392e 543f ec53 bcbe ff28 0c3e 457c c33e
00000130: 1370 103f 0727 91bc c93f 03bd cc02 47be
00000140: 5b15 96be 9bf5 453f 6e73 45bf b3d8 fa3e
00000150: f4a5 83be aa87 50be 1fe1 923e 8ba5 183e
00000160: fde1 4dbf ca93 38be 89c1 a9be bdfc a73e
00000170: 4890 2f3d 2723 79be d571 abbf 8816 043b
00000180: 4c34 bc3f 440e 9c3e e838 debd 37dc ca3e
00000190: 7852 793f 13dc c8be 6820 5cbf 18ab 4e3e
000001a0: 43bd 85be e0e8 58bd 174c d1bf ab34 ec3e
000001b0: 42ea 23bf 89ee 5dbe ac82 973e 3e38 be3e
000001c0: 2f5c 48bf 61f4 d23e fb69 11bf 088b 65bd
000001d0: e123 fd3d 8a42 91be 9abd bfbe 4fef 8abd
000001e0: 02c3 523f 050e ab3e da26 1cbe bd16 c33e
000001f0: b0a4 b83f 6e0a 25bf 7546 b2bf b49a b43e
00000200: a8b0 6dbe 9682 e7be 9a4e b1bf 4b67 4f3f
00000210: d0fe b33f 461a a13e bd06 3f3d 129e ae3e
00000220: 49e7 b13f c758 15bf 890b c43e 237c 743e
00000230: 8412 89be 024c 5abe a293 b53f 9252 c2be
00000240: 9e5e a93f ed02 55bd 1a00 b7be 0907 1e3f
00000250: 999c a43f 7bfd 47bf 2a0e 1bbe 6050 3e3e
00000260: 5693 0a3e 4548 f5bc edf2 2bbf 264d 693e
00000270: 5a00 82bf 87a7 8bbb a81c f1bd 6719 053e
00000280: ce2d 93bf ef09 423e 44b1 d83e d317 debc
00000290: f733 98bd ad2b 8a3e 097a 183f 73a7 6f3d
000002a0: 7054 eb3e 7d94 813d 08fe afbe 4885 e73e
000002b0: 76f3 643f 96d7 a1be 286e aebf c9fd 3f3e
000002c0: 6003 a0be b4d6 acbe 59a8 63bf 397c f93e
000002d0: 4c0f 383f 528e 573e 780e 833d 52c6 4cbe
000002e0: 9080 983f 70bf 40bf 0cf3 9d3f 5892 abbe
000002f0: a86c 483e 1ad0 5ebc 9635 763f e503 5fbe
00000300: 2b45 ca3f 9e1b b23e a8dd 223c 1885 c43e
00000310: bc92 d83f ecf6 87bf ed1a 973f 7310 95be
00000320: 9506 be3e a93f 1d3f c171 ba3f df4d e1be
00000330: 92b9 92bf 4c68 edbd 6fdc ae3d 2725 a8be
00000340: 5751 d6bf b93c b33e 82b0 8cbf 6eae 64be
00000350: 74de 893e 523f 07bf c603 86bf 5af2 be3e
00000360: b6a9 ee3e 404f 13be 3ad3 85be bc72 bc3e
00000370: 77f5 b03e b992 e2bd 9abf 833f 542f 1dbe
00000380: 859c 613c fdb2 8e3e c34a 593f 56da fdbe
00000390: cb0a 6dbf c317 693d 2a0a 46be 5f50 06bf
000003a0: 9e9e 6fbf fe92 123e 335e d03e 68c4 ecbd
000003b0: 0e9e 62bd 3180 e63c 8785 303d 27af ff3d
000003c0: 2c39 81bf 6051 76bb 5df3 1bbe 0353 25bf
000003d0: 4d23 92bf 266f 053f 72df 8ebf 3a23 be3b
000003e0: 7727 27bd 2fcb b43e e89d d8bf 2c70 833e
000003f0: 10f8 373f 68c5 883d 3fbc aebd 5690 d03d

actor.0.bias f4 [128]
-0.19112912 -0.20328633 0.3610716 0.031970035 0.14518881 0.19511506 -0.21877928 -0.19688387
0.16480817 0.17496213 0.0017640493 -0.08380514 0.21171167 -0.26079297 0.14759725 -0.2584686
0.29295287 0.10385954 -0.22629099 0.33380267 -0.29510063 -0.13457723 0.09901599 0.11782986
0.2828359 -0.28750294 -0.31065857 -0.063849375 0.18301599 -0.19176653 -0.0384645 0.17681985
-0.025280414 -0.1422639 0.04300431 -0.3104587 0.32005042 0.20408103 0.24899143 0.26868424
0.18305074 0.05643141 -0.079463884 -0.044126906 0.2615289 0.2596834 0.026954021 0.03492835
0.07611904 -0.26570594 0.10719695 0.101795085 -0.0015153444 0.11336304 0.06335549 -0.10111401
-0.028674575 0.3681971 -0.14444304 0.28966755 0.16903351 -0.07334741 -0.17875868 -0.06379081
0.2141581 0.24654022 0.35989723 0.110563904 -0.014134967 0.068121955 -0.28449878 -0.3331746
-0.060203284 0.35358143 0.33478326 0.2539213 -0.15268782 -0.012047727 -0.13917892 0.14000565
0.35814637 -0.28052944 -0.3502753 -0.09321164 0.43530673 0.23370698 0.054160275 0.24496962
0.26870182 0.19621341 -0.1747881 -0.36347213 -0.05822636 0.3223431 -0.422583 0.16229868
-0.25570682 -0.22284114 -0.22157536 0.1716215 0.23377609 0.20156705 -0.16207813 0.19577281
-0.13683315 0.00084698066 0.2073625 -0.1165475 -0.031963337 -0.2114417 -0.021117331 0.37703124
0.14790444 -0.2346987 0.20534784 -0.26925138 0.10749055 -0.25403118 -0.3416096 0.22829142
-0.08537066 -0.049858313 0.10328858 -0.14102878 -0.2955217 -0.13286436 0.2890171 -0.13946155
00000000: 5ab7 43be 4b2a 50be 60de b83e 03f3 023d
00000010: 60ac 143e 3ecc 473e ad07 60be ed9b 49be
00000020: 79c3 283e 4629 333e ac37 e73a 07a2 abbd
00000030: f2ca 583e a886 85be bc23 173e ff55 84be
00000040: ebfd 953e 4fb4 d43d d3b8 67be 2fe8 aa3e
00000050: 6e17 97be 9dce 09be e5c8 ca3d c850 f13d
00000060: decf 903e 9633 93be a40e 9fbe 76c3 82bd
00000070: 8b68 3b3e 725e 44be f48c 1dbd 4310 353e
00000080: df18 cfbc a1ad 11be 4a25 303d 71f4 9ebe
00000090: a6dd a33e 9efa 503e 9cf7 7e3e fb90 893e
000000a0: a771 3b3e 9f24 673d f6bd a2bd 6abe 34bd
000000b0: 1ee7 853e 39f5 843e aece dc3c 0811 0f3d
000000c0: 4de4 9b3d 9c0a 88be 138a db3d f179 d03d
000000d0: 859e c6ba e22a e83d 86c0 813d dd14 cfbd
000000e0: f1e6 eabc 5584 bc3e e0e8 13be 4e4f 943e
000000f0: 1f17 2d3e 2b37 96bd 840c 37be c2a4 82bd
00000100: 434c 5b3e 0a75 7c3e 7344 b83e 546f e23d
00000110: 5996 67bc 8683 8b3d d3a9 91be dc95 aabe
00000120: b897 76bd a008 b53e b668 ab3e f901 823e
00000130: 325a 1cbe d463 45bc eb84 0ebe a45d 0f3e
00000140: f65e b73e 8ea1 8fbe 4957 b3be bfe5 bebd
00000150: 86e0 de3e e250 6f3e 2ad7 5d3d 51d9 7a3e
00000160: 4993 893e 2bec 483e a7fb 32be 0519 babe
00000170: c37e 6ebd 280a a53e cd5c d8be a031 263e
00000180: 01ec 82be 7830 64be a7e4 62be 8cbd 2f3e
00000190: 0063 6f3e 9867 4e3e cff7 25be ab78 483e
000001a0: fd1d 0cbe e907 5e3a d656 543e 75b0 eebd
000001b0: fdeb 02bd 2c84 58be 41fe acbc 3d0a c13e
000001c0: 4374 173e db54 70be b446 523e 51db 89be
000001d0: 0124 dc3d 6010 82be 74e7 aebe 3ac5 693e
000001e0: d0d6 aebd 3b38 4cbd f788 d33d d969 10be
000001f0: 9f4e 97be 980d 08be 0dfa 933e 02cf 0ebe

actor.2.weight f4 [128, 128]
-0.04731025 0.079537615 0.08223253 -0.08772318 0.025676312 -0.038117733 -0.022019086 0.011710298
-0.07172559 -0.0032139276 0.039669473 0.0071608755 -0.087290384 0.061385114 0.08598417 0.047213364
0.08821269 -0.013506557 0.0068717673 0.054996368 0.08676114 -0.0010567714 -0.050277468 -0.05146327
0.06684904 0.0023344676 0.045416772 -0.011744251 -0.024336368 0.06239337 0.036022104 -0.031691194
-0.033831313 -0.009068184 -0.07532945 0.00876641 -0.0061776047 -0.024601351 -0.03804937 0.053412862
-0.06120382 -0.021542288 0.030064607 -0.059745323 0.079094425 0.0025352174 0.049284056 0.05915647
-0.087174185 -0.046942282 0.082521334 0.052539933 0.043931283 0.021859234 -0.03977637 0.017539384
0.009153866 0.06725614 0.020204045 0.01357226 0.062934525 0.07543492 0.05084513 -0.06761461
0.043761924 0.038455863 -0.13238814 -0.0060444768 -0.0028915869 0.010147065 0.059780125 0.009118718
0.022031298 -0.008931871 0.012946688 0.060542364 0.07361146 -0.040888198 0.022685414 -0.070178114
0.048409432 -0.07734789 0.0424 0.07923734 -0.087407425 0.08139005 -0.08816425 0.09124981
-0.06584158 0.07642456 0.014485969 0.083781675 0.07025574 0.054150008 0.01899923 0.06666611
-0.055404797 -0.017967114 0.081203796 -0.019385362 -0.0073669264 0.038169764 -0.01777194 0.005434065
-0.07029464 -0.034910344 0.08839742 0.010304731 -0.076191455 0.012489025 -0.01016492 -0.045929924
-0.026132878 -0.064050086 -0.015498787 -0.005780171 0.07906219 -0.010388464 -0.08533452 0.049949806
0.08688645 -0.08199102 0.07448264 0.0799299 -0.004681055 -0.047567327 0.036091957 -0.074524604
0.14187694 0.050801978 0.025035597 -0.14579469 -0.112323835 0.05320327 0.0380034 0.079908885
0.059872277 0.077828504 0.015226571 -0.12695001 -0.06624225 0.009378661 0.010596163 -0.013834068
-0.013351139 -0.39533854 -0.055175938 -0.0027474458 0.39710584 -0.16988565 -0.029237935 0.03722237
0.017971521 0.04403847 -0.09184384 0.028971238 0.024504956 0.027972367 0.025152024 -0.040600207
0.0706347 0.23017816 -0.54209095 -0.02197161 -0.06906403 0.052624438 -0.07588644 0.046237063
-0.06511459 -1.1899482 -0.009609535 -0.08979969 0.062062766 0.021049693 0.07202848 -0.30417088
-0.08050145 -0.012792529 0.07754608 0.2419377 -0.08845916 -0.033858396 -0.021135828 -0.02338215
-0.023792082 0.021510657 -0.06533317 -0.04247362 0.025950419 -0.16158967 0.07678023 0.08864551
-0.07300494 -0.06538643 -0.39970782 0.04893243 -0.6131268 -0.042702083 -0.10934392 -0.02677871
-0.025207376 0.026384853 -0.01875837 -0.04402404 0.1425392 0.015566215 0.15457003 0.038380735
0.049711145 -0.2115838 0.14386927 0.031022254 -0.045232065 0.08573162 -0.1173182 0.022427507
-0.05222891 -0.014590483 0.4724469 0.5612278 0.27512896 -0.048795346 -0.017942892 0.11104868
0.018639827 0.09176555 0.14038722 -0.05267322 0.024387859 -0.006575361 0.0587314 -0.046236467
0.037779704 -0.040211674 0.2025349 0.3181092 -0.06717604 -0.0038724586 0.020535212 0.052990068
0.08789865 -0.10489332 -0.013021381 -0.090010844 0.025368419 -0.019129269 -0.11986791 -0.2718015
0.10096033 0.05277627 -0.107662715 0.029117838 -0.21347532 0.10139319 0.011521341 0.030010933
00000000: 65c8 41bd 9ee4 a23d 8769 a83d 36a8 b3bd
00000010: 2157 d23c 5721 1cbd 5f61 b4bc 8ddc 3f3c
00000020: dee4 92bd c2a0 52bb 757c 223d c7a5 ea3b
00000030: 4dc5 b2bd f56e 7b3d 7818 b03d cd62 413d
00000040: dba8 b43d 9b4a 5dbc 902c e13b df43 613d
00000050: d3af b13d 5d83 8aba bfef 4dbd 26cb 52bd
00000060: 26e8 883d defd 183b f006 3a3d f56a 40bc
00000070: 105d c7bc 3190 7f3d ea8b 133d a0ce 01bd
00000080: b492 0abd b892 14bc 5446 9abd fda0 0f3c
00000090: 816d cabb c688 c9bc a8d9 1bbd 72c7 5a3d
000000a0: dbb0 7abd 7479 b0bc 0d4a f63c 83b7 74bd
000000b0: 42fc a13d e425 263b 14de 493d 0e4e 723d
000000c0: 6188 b2bd 8d46 40bd f200 a93d 1d34 573d
000000d0: 4af1 333d 2312 b33c 8cec 22bd c1ae 8f3c
000000e0: 19fa 153c 96bd 893d f482 a53c 2f5e 5e3c
000000f0: d1e3 803d a07d 9a3d fc42 503d 8779 8abd
00000100: b43f 333d e583 1d3d c290 07be bf10 c6bb
00000110: c780 3dbb e03f 263c 01dc 743d ad66 153c
00000120: fb7a b43c fb56 12bc 581e 543c 45fb 773d
00000130: 9bc1 963d 627a 27bd c3d6 b93c 8bb9 8fbd
00000140: f848 463d 9268 9ebd 9fab 2d3d 3047 a23d
00000150: aa02 b3bd d4af a63d 758f b4bd 2ee1 ba3d
00000160: f3d7 86bd 7b84 9c3d 8f56 6d3c ba95 ab3d
00000170: 3ee2 8f3d 66cc 5d3d 46a4 9b3c 3e88 883d
00000180: 24f0 62bd c52f 93bc 2d4e a63d 0dce 9ebc
00000190: 4266 f1bb e657 1c3d 7696 91bc 3e10 b23b
000001a0: a3f6 8fbd 26fe 0ebd b509 b53d 2dd5 283c
000001b0: 440a 9cbd c49e 4c3c c48a 26bc 0421 3cbd
000001c0: 9e14 d6bc b12c 83bd a0ee 7dbc 9767 bdbb
000001d0: 5ceb a13d 6034 2abc ddc3 aebd 2b98 4c3d
000001e0: 86f1 b13d e8ea a7bd 5b8a 983d 4ab2 a33d
000001f0: 8963 99bb f5d5 42bd 29d5 133d 5ba0 98bd
00000200: 3048 113e bc15 503d 7417 cd3c 344b 15be
00000210: 0a0a e6bd aceb 593d 74a9 1b3d 45a7 a33d
00000220: a23c 753d 8d64 9f3d de78 793c 2fff 01be
00000230: 04aa 87bd f5a8 193c 879b 2d3c 49a8 62bc
00000240: bcbe 5abc d069 cabe 2a00 62bd 7e0e 34bb
00000250: 7551 cb3e 81f6 2dbe 6584 efbc 7c76 183d
00000260: 0339 933c af61 343d a018 bcbd 1755 ed3c
00000270: 9ebe c83c 4e26 e53c 9e0b ce3c 674c 26bd
00000280: eda8 903d d3b3 6b3e 79c6 0abf cefd b3bc
00000290: 7171 8dbd b98c 573d 5a6a 9bbd 1363 3d3d
000002a0: cc5a 85bd 3950 98bf 5071 1dbc e6e8 b7bd
000002b0: 8735 7e3d 6870 ac3c ab83 933d 49bc 9bbe
000002c0: f2dd a4bd c197 51bc 7bd0 9e3d 84be 773e
000002d0: 132a b5bd 1aaf 0abd 0b25 adbc ec8b bfbc
000002e0: 9de7 c2bc 1e37 b03c 66cd 85bd d2f8 2dbd
000002f0: f995 d43c c377 25be f43e 9d3d c78b b53d
00000300: 9d83 95bd 52e9 85bd 81a6 ccbe 5f6d 483d
00000310: e1f5 1cbf 61e8 2ebd b5ef dfbd 065f dbbc
00000320: b37f cebc 0c25 d83c 27ab 99bc 8d52 34bd
00000330: ccf5 113e 7009 7f3c 9b47 1e3e 1e35 1d3d
00000340: ea9d 4b3d 6ca9 58be 7752 133e 6222 fe3c
00000350: 4245 39bd 0f94 af3d 8644 f0bd e4b9 b73c
00000360: fbed 55bd ec0c 6fbc 8fe4 f13e a0ac 0f3f
00000370: b4dd 8c3e a1dd 47bd f9fc 92bc 7e6d e33d
00000380: 8db2 983c 94ef bb3d abc1 0f3e e0bf 57bd
00000390: 0cc9 c73c 2076 d7bb 5690 703d 7362 3dbd
000003a0: e4be 1a3d ffb4 24bd 4f65 4f3e 36df a23e
000003b0: 9793 89bd 13c9 7dbb 7639 a83c 1d0c 593d
000003c0: 3504 b43d 4fd2 d6bd a157 55bc 9b57 b8bd
000003d0: 6ed1 cf3c fcb4 9cbc 4f7d f5bd 9129 8bbe
000003e0: 4ac4 ce3d ee2b 583d 457e dcbd 8888 ee3c
000003f0: 4699 5abe 3ca7 cf3d 02c4 3c3c 7dd9 f53c

actor.2.bias f4 [128]
-0.054413445 -0.062019758 -0.08173874 -0.07720673 0.044261012 0.073416054 0.029537372 0.030007545
-0.0056394157 -0.015755938 -0.0743072 0.016576525 -0.021985838 -0.009414818 0.009707043 -0.061687887
-0.023067672 0.060301963 0.08993457 0.01388001 0.037345175 -0.05309195 -0.02717208 -0.06316493
-0.046825074 -0.069553114 0.03235827 0.020118099 0.025476158 0.02372153 -0.0042415457 0.032960538
0.042579994 0.025916083 0.027587082 -0.04928189 0.078040384 -0.05534717 0.014520474 0.043285944
0.023394119 -0.08260309 0.057706885 0.039737627 -0.024384446 0.060952127 0.062274117 -0.002984755
0.037666548 -0.07050795 -0.016631147 0.0055793812 0.06480333 0.034581892 -0.07454597 0.013520827
0.014120111 -0.051565167 0.04541646 0.08251036 0.035354313 0.011591645 -0.06065561 -0.055344883
-0.07229619 -0.012333464 -0.034722675 0.06463514 -0.02729703 -0.056026153 -0.010368113 0.06071872
-0.09122394 -0.030964715 0.022467854 0.056508508 0.08143171 0.015991714 0.0108032925 -0.0153890615
0.055918816 0.10144947 -0.004166842 -0.01153455 -0.0031018169 -0.013826398 -0.03412155 0.0437605
-0.03810299 0.07178566 0.0003393816 0.044198867 0.020023117 0.021756895 0.041080374 -0.027413743
-0.01695536 0.056113247 -0.079684295 -0.071465105 0.052059688 0.07960926 -0.030146357 -0.01531109
-0.009897622 -0.038474824 -0.091675416 0.0056963433 -0.04228793 -0.031277888 -0.0233021 -0.02220612
-0.0048326943 -0.070751324 -0.051612347 0.071255416 -0.03769668 -0.0002239328 0.036127858 0.0013755291
0.042678885 0.06731383 0.06493714 0.032448135 0.030584367 -0.0027659032 -0.083040185 -0.0035176596
00000000: a2e0 5ebd 6e08 7ebd a466 a7bd 901e 9ebd
00000010: 094b 353d 285b 963d 5cf8 f13c 62d2 f53c
00000020: d9ca b8bb 9912 81bc 602e 98bd 7ecb 873c
00000030: a51b b4bc 9c40 1abc 4a0a 1f3c 70ac 7cbd
00000040: 6af8 bcbc 31ff 763d 9e2f b83d fb68 633c
00000050: 41f7 183d f276 59bd fb97 debc 9d5c 81bd
00000060: a6cb 3fbd dd71 8ebd 1b8a 043d b6ce a43c
00000070: 60b3 d03c a753 c23c aafc 8abb a101 073d
00000080: 5c68 2e3d f74d d43c 4efe e13c cfdb 49bd
00000090: a3d3 9f3d b7b3 62bd 48e7 6d3c 9a4c 313d
000000a0: 06a5 bf3c cf2b a9bd 0e5e 6c3d ecc3 223d
000000b0: e4c1 c7bc f0a8 793d 2513 7f3d e19b 43bb
000000c0: 3d48 1a3d 7966 90bd 0b3e 88bc 3ed3 b63b
000000d0: 9cb7 843d bea5 0d3d 8fab 98bd 7586 5d3c
000000e0: 0a58 673c ff35 53bd 9c06 3a3d 31fb a83d
000000f0: afcf 103d e2ea 3d3c 0472 78bd 51b1 62bd
00000100: 0610 94bd 4c12 4abc 5d39 0ebd 6e5f 843d
00000110: 059e dfbc ae7b 65bd 05df 29bc 31b4 783d
00000120: 9ed3 babd b7a9 fdbc 810e b83c 7775 673d
00000130: abc5 a63d 0e01 833c 4b00 313c 6722 7cbc
00000140: 210b 653d bdc4 cf3d 018a 88bb 69fb 3cbc
00000150: da47 4bbb 1e88 62bc 0ac3 0bbd 363e 333d
00000160: e111 1cbd 5c04 933d 07ef b139 df09 353d
00000170: 8507 a43c 843b b23c e543 283d c992 e0bc
00000180: f8e5 8abc 01d7 653d 8531 a3bd 4c5c 92bd
00000190: 8a3c 553d 2e0a a33d 7ef5 f6bc 5edb 7abc
000001a0: a329 22bc c797 1dbd 52c0 bbbd 64a8 ba3b
000001b0: 1c36 2dbd 3e1d 00bd 0ce4 bebc 9ce9 b5bc
000001c0: 945b 9ebb 12e6 90bd 7867 53bd 5cee 913d
000001d0: d567 1abd 81cf 6ab9 cefa 133d 194b b43a
000001e0: 0ed0 2e3d d5db 893d c3fd 843d 56e8 043d
000001f0: 118c fa3c 2844 35bb f910 aabd 8988 66bb

actor.4.weight f4 [128, 128]
0.06328095 0.17007892 0.03675603 0.012562564 -0.030649135 -0.07961469 0.13608648 0.09972486
-0.008754516 -0.007497252 -0.026860964 -0.01378702 0.18147172 -0.011942364 0.013014927 -0.18284188
0.036185402 -0.04617781 -0.07150507 0.08434881 0.1578475 -0.012511663 -0.042725403 -0.021286756
0.034201495 0.17104077 -0.006901179 0.022548346 0.20333228 -0.09039542 0.1171395 0.08179214
-0.0032520948 -0.003502292 0.01831247 0.0075347866 -0.1394023 -0.0009513126 -0.05407262 0.024452494
0.02900877 -0.009689301 -0.012699963 -0.0697576 -0.028804962 0.021758595 -0.08035458 -0.035938013
-0.055320278 -0.024948519 -0.1334133 -0.005737376 -0.09429144 0.035971835 0.09689966 -0.11368028
0.05301982 0.018934961 0.061977554 -0.013802182 0.062442306 -0.006852632 -0.004024682 0.14380471
0.19138727 -0.003883046 -0.10709788 0.0428188 0.099126294 -0.103179395 -0.108611 -0.07967207
0.023154905 -0.072021574 -0.08497686 -0.044587187 -0.028154079 -0.012596439 -0.089672 -0.0003170976
0.053243227 0.03023737 0.1271607 0.056676798 0.055834416 -0.05737848 -0.11547175 0.036820453
-0.0070514767 0.124162965 0.033633158 -0.07603639 0.018206893 0.07506786 0.006082873 0.08870053
-0.022402676 -0.0763648 0.01072576 0.0071947756 -0.06106696 -0.04834244 -0.0027005214 0.0357462
0.09516714 -0.10554004 -0.16252625 0.037075408 -0.0022477019 -0.18147826 0.056331683 -0.022115385
0.042802 0.059697926 -0.012121657 0.12585436 -0.026908016 0.050364677 -0.066870525 0.10802181
-0.023534762 -0.00687373 -0.14967626 -0.088123135 -0.0128775 0.017039971 0.022853872 -0.032702472
0.08550023 0.014370394 -0.011597983 -0.0024682954 0.07795404 -0.13881592 0.094652966 0.036252085
0.027921548 0.028888583 0.060663693 -0.055264752 0.16518249 0.06224571 -0.012759275 -0.15470573
-0.01891961 0.0033104322 -0.05124717 0.21034849 0.05052502 -0.06549606 0.009333844 -0.031076059
0.070598625 0.0899517 0.04425671 -0.039018914 0.19934286 0.0012567558 -0.018956997 0.20296364
-0.0071868757 0.07034035 0.059313018 0.013190231 -0.1418022 0.03730092 0.005042781 -0.03108815
-0.0029329553 -0.06670787 0.036091663 -0.08854603 -0.12600756 0.090243995 -0.016816111 -0.021045066
0.016582401 -0.031663403 -0.25440654 -0.019182716 0.008436328 0.028563721 0.18402112 -0.16135146
-0.0042718565 0.0125034675 -0.07321209 -0.053747084 -0.008739289 0.10227664 -0.12931228 0.10377742
0.07239015 0.11164002 -0.007485614 0.11313874 0.07735947 0.039352175 -0.13326277 -0.045009047
0.060478404 0.014323892 -0.13268593 -0.07136165 -0.081388295 0.11905584 -0.061784085 -0.07888337
0.0041659824 -0.061871767 0.0703643 0.09561222 -0.01778377 -0.012993474 -0.026463987 -0.035539176
0.020644393 0.08644134 -0.013560158 0.008077386 -0.07583699 0.117903054 -0.0053702565 -0.03020579
-0.069402024 0.03464988 -0.053699646 0.029204704 0.014318511 -0.042684764 0.07553654 0.13374968
0.055294897 -0.099096455 -0.08576716 -0.085946195 -0.06238701 -0.18629327 0.030483373 -0.060939934
0.11932279 0.09683838 0.036409926 0.17330183 -0.104732335 -0.07958831 -0.13461979 0.058192737
-0.037734747 0.06185927 -0.23344614 -0.047691435 0.006115402 -0.025633376 0.06021725 -0.11812652
00000000: 7199 813d 2b29 2e3e 7e8d 163d 36d3 4d3c
00000010: e513 fbbc 070d a3bd 415a 0b3e 8c3c cc3d
00000020: 1a6f 0fbc 82ab f5bb 860b dcbc f4e2 61bc
00000030: b9d3 393e e8a9 43bc 8f3c 553c e73a 3bbe
00000040: 2537 143d f124 3dbd 4071 92bd 12bf ac3d
00000050: c6a2 213e b8fd 4cbc d500 2fbd 9061 aebc
00000060: de16 0c3d 5025 2f3e 4923 e2bb 4fb7 b83c
00000070: 5636 503e 3c21 b9bd d6e6 ef3d a382 a73d
00000080: 1921 55bb b686 65bb 0804 963c 5fe6 f63b
00000090: 7abf 0ebe 8261 79ba 407b 5dbd 9950 c83c
000000a0: cda3 ed3c e0bf 1ebc 8113 50bc 13dd 8ebd
000000b0: 62f8 ebbc 153f b23c f190 a4bd bd33 13bd
000000c0: 8497 62bd d660 ccbc 7f9d 08be 9900 bcbb
000000d0: df1b c1bd 3457 133d 5473 c63d 35d1 e8bd
000000e0: 502b 593d 7e1d 9b3c 2ddc 7d3d 8c22 62bc
000000f0: 81c3 7f3d 0b8c e0bb 7be1 83bb 8b41 133e
00000100: 06fb 433e b47a 7ebb 2256 dbbd c462 2f3d
00000110: ba02 cb3d b84f d3bd 726f debd 1c2b a3bd
00000120: 5baf bd3c 0c80 93bd 5908 aebd 0ea1 36bd
00000130: 62a3 e6bc 4b61 4ebc f4a5 b7bd 1f40 a6b9
00000140: 9215 5a3d 5cb4 f73c 6a36 023e ee25 683d
00000150: a1b2 643d b205 6bbd 747c ecbd 0bd1 163d
00000160: 1310 e7bb 2749 fe3d ecc2 093d f8b8 9bbd
00000170: 9f26 953c 2ebd 993d d652 c73b a0a8 b53d
00000180: d185 b7bc 2665 9cbd 19bb 2f3c 27c2 eb3b
00000190: 5921 7abd b902 46bd 3bfb 30bb 9b6a 123d
000001a0: fde6 c23d 6025 d8bd 486d 26be 62dc 173d
000001b0: 2e4e 13bb 70d5 39be 0dbc 663d 532b b5bc
000001c0: 2651 2f3d d085 743d ea99 46bc f7df 003e
000001d0: 336e dcbc 314b 4e3d 6af3 88bd 8a3a dd3d
000001e0: f9cb c0bc 073d e1bb bc44 19be e779 b4bd
000001f0: 26fc 52bc 6997 8b3c 0b38 bb3c 07f3 05bd
00000200: bf1a af3d cd71 6b3c 7705 3ebc 20c3 21bb
00000210: 5ea6 9f3d c325 0ebe 6ad9 c13d 117d 143d
00000220: bbbb e43c c0a7 ec3c 7e7a 783d 4b5d 62bd
00000230: 9925 293e 5cf5 7e3d 470c 51bc 2e6b 1ebe
00000240: 4cfd 9abc d6f3 583b 8de8 51bd 9865 573e
00000250: 53f3 4e3d cc22 86bd fbec 183c 3893 febc
00000260: 0396 903d 9938 b83d 8646 353d 4cd2 1fbd
00000270: 8920 4c3e bab9 a43a b44b 9bbc b3d5 4f3e
00000280: e27f ebbb 9a0e 903d 35f2 723d d71b 583c
00000290: 9934 11be d9c8 183d ea3d a53b 93ac febc
000002a0: d336 40bb 239e 88bd dad4 133d 9f57 b5bd
000002b0: 2008 01be d8d1 b83d f1c1 89bc b466 acbc
000002c0: d1d7 873c 7cb1 01bd 9341 82be 1225 9dbc
000002d0: 8638 0a3c 77fe e93c 0870 3c3e 5139 25be
000002e0: eefa 8bbb 58db 4c3c 38f0 95bd e725 5cbd
000002f0: 3c2f 0fbc 6a76 d13d 706a 04be 4289 d43d
00000300: 4941 943d 86a3 e43d e249 f5bb 49b5 e73d
00000310: a46e 9e3d bf2f 213d 0976 08be 685b 38bd
00000320: 34b8 773d c2ae 6a3c d2de 07be 0f26 92bd
00000330: e8ae a6bd 8cd3 f33d 4f11 7dbd 9b8d a1bd
00000340: cb82 883b 406d 7dbd 281b 903d 57d0 c33d
00000350: 45af 91bc 94e2 54bc 01cb d8bc 8791 11bd
00000360: 6e1e a93c 2808 b13d 6d2b 5ebc 0357 043c
00000370: 6c50 9bbd 2877 f13d faf8 afbb 2272 f7bc
00000380: a622 8ebd 08ed 0d3d 29f4 5bbd b43e ef3c
00000390: 3098 6a3c 38d6 2ebd e7b2 9a3d adf5 083e
000003a0: e77c 623d 15f3 cabd b1a6 afbd 8f04 b0bd
000003b0: 8589 7fbd aac3 3ebe 44b8 f93c 279c 79bd
000003c0: 825f f43d 3353 c63d 9322 153d 0976 313e
000003d0: e87d d6bd 32ff a2bd c5d9 09be 825b 6e3d
000003e0: c08f 1abd 2560 7d3d 810c 6fbe 1858 43bd
000003f0: b663 c83b 16fd d1bc 5da6 763d 51ec f1bd

actor.4.bias f4 [128]
0.07146241 0.058021612 -0.0058191074 0.040174413 0.05941525 8.634468e-06 -0.039133377 -0.051356614
0.0034725082 -0.025408998 -0.037209537 -0.022889901 0.020902527 -0.052617613 0.039635412 -0.011685584
-0.021696629 0.031918652 -0.012984338 0.0007428137 -0.04664255 -0.050905656 0.07316185 0.019381432
0.07738053 -0.014478379 -0.042977322 -0.020699978 -0.07435704 0.04452919 0.07566924 0.03671082
0.02399983 0.01755576 0.07234703 0.04071181 -0.042890638 0.014300219 -0.07214126 0.030836472
0.019359663 -0.030318072 0.0060487646 -0.0024445562 0.035908647 0.004350632 -0.04122919 -0.021348193
-0.030786704 -0.06045473 -0.027956506 0.0044541573 0.018107379 0.01754582 0.047711633 -0.04968421
-0.021524878 0.0005224298 -0.042196788 0.059418622 -0.009975249 -0.016618809 0.05839288 0.048512865
0.050752833 -0.038857397 -0.036444027 0.041102238 -0.018095573 -0.064514935 -0.020034567 0.04020374
0.014827775 -0.029866753 -0.011972136 -0.0452923 0.05359432 0.041958105 0.04932942 -0.032812495
-0.024523878 -0.008911827 -0.025888102 0.048468497 -0.0014204768 0.06701275 0.030728526 -0.053386513
-0.05065533 -0.07720653 -0.028908206 -0.04465496 -0.044233855 0.03351242 -0.0142769925 0.026454227
-0.02806467 0.036654018 -0.029377647 0.04653906 -0.01934011 0.01488285 0.04322482 0.02150634
0.032756273 0.0515537 0.009577786 0.02352533 0.007707224 0.04152219 -0.013340866 -0.03576089
-0.06777203 0.0014878585 0.059796456 0.037920292 -0.0010040893 0.01128117 -0.040551957 -0.057451002
-0.012975919 0.06988163 0.023225253 0.026193475 0.020967443 0.091621526 -0.009411124 -0.06510219
00000000: e25a 923d 12a8 6d3d 36ae bebb ed8d 243d
00000010: 685d 733d c2dc 1037 524a 20bd 505b 52bd
00000020: 0593 633b 8826 d0bc 0769 18bd 9a83 bbbc
00000030: c73b ab3c 9185 57bd be58 223d e474 3fbc
00000040: 21bd b1bc 22bd 023d 43bc 54bc 62b9 423a
00000050: 420c 3fbd 7382 50bd e1d5 953d cfc5 9e3c
00000060: af79 9e3d b936 6dbc fd08 30bd 0093 a9bc
00000070: 8148 98bd 3d64 363d 79f8 9a3d 165e 163d
00000080: 4b9b c43c 19d1 8f3c ae2a 943d 6dc1 263d
00000090: 18ae 2fbd 774b 6a3c ccbe 93bd c59c fc3c
000000a0: 2898 9e3c 9b5d f8bc b734 c63b d934 20bb
000000b0: f214 133d bf8f 8e3b f0df 28bd 68e2 aebc
000000c0: 6634 fcbc 619f 77bd 0b05 e5bc 2ef4 913b
000000d0: ed55 943c 40bc 8f3c 466d 433d ac81 4bbd
000000e0: f154 b0bc acf3 083a 8ad6 2cbd f160 733d
000000f0: 3a6f 23bc 2b24 88bc 5f2d 6f3d 6db5 463d
00000100: 34e2 4f3d ef28 1fbd 5546 15bd d25a 283d
00000110: 2b3d 94bc 6820 84bd 881f a4bc adac 243d
00000120: 32f0 723c 1fab f4bc c726 44bc 6b84 39bd
00000130: b885 5b3d 43dc 2b3d a50d 4a3d 6566 06bd
00000140: 4de6 c8bc e902 12bc 4913 d4bc e786 463d
00000150: 4b2f baba fb3d 893d 64ba fb3c d1ab 5abd
00000160: f77b 4fbd 751e 9ebd e7d0 ecbc 1fe8 36bd
00000170: 8f2e 35bd 5244 093d 0cea 69bc 89b6 d83c
00000180: e1e7 e5bc 8622 163d 64a9 f0bc be9f 3e3d
00000190: 266f 9ebc 33d7 733c 820c 313d 102e b03c
000001a0: 712b 063d f929 533d 25ec 1c3c 31b8 c03c
000001b0: e28c fc3b 2c13 2a3d a693 5abc 037a 12bd
000001c0: 10cc 8abd 3f04 c33a 21ed 743d 4f52 1b3d
000001d0: a59b 83ba a8d4 383c cf19 26bd be51 6bbd
000001e0: f398 54bc 1a1e 8f3d e342 be3c b393 d63c
000001f0: eac3 ab3c 11a4 bb3d 1d31 1abc 4c54 85bd

actor.7.weight f4 [128, 128]
-0.0599629 0.06276491 -0.16846585 -0.00018577497 -0.013218594 0.048484128 -0.021092081 -0.11596012
0.005261867 0.060331397 0.022965312 0.02723309 0.09693208 0.04709251 0.037724417 0.010511704
-0.053967115 -0.15219274 0.023224749 -0.03316001 0.07942212 -0.046516962 0.036445975 0.13587531
-0.0422197 0.11013685 0.007443386 0.08485687 -0.015776135 -0.07620274 0.15583904 0.061545853
0.03524912 -0.019467847 -0.010017679 -0.032057937 -0.045809217 0.04814856 -0.05197422 0.099334225
0.008020785 0.09362637 -0.17107278 0.08131277 -0.08892168 -0.07268585 0.022503927 -0.0019363231
-0.03260651 -0.06199701 0.008540173 -0.047055926 -0.015185043 -0.020750228 0.004204003 -0.2129475
-0.10137839 0.12730822 -0.03872007 -0.042226274 -0.008356499 0.11737753 0.1288395 -0.048883773
0.051726766 -0.053924825 -0.08874444 0.096003994 0.010222933 -0.045758456 0.032053504 0.14321491
-0.036454912 -0.13536671 0.033650227 -0.06259283 -0.03227687 0.18275139 -0.02492568 -0.08623927
-0.006931305 -0.09322503 0.07506879 0.057875942 0.18621677 0.09122094 0.11222868 -0.17356072
-0.07949413 0.103604905 -0.032750692 0.033140432 0.042730704 0.001017582 0.068936564 -0.084967256
0.020161225 0.1579871 0.16842192 -0.06261912 0.075723335 0.0021379783 0.029794706 0.04277018
-0.09694735 -0.050918803 -0.06993845 0.097274184 0.05106993 0.13849723 -0.0062576807 0.10842794
0.01464805 0.0384206 0.0002871839 -0.06326374 -0.013729963 0.007909812 -0.00127734 0.08761468
0.14142793 0.02059618 -0.16634448 -0.06255218 -0.037472557 0.02827098 0.15373051 -0.039447367
-0.20488851 -0.1521933 0.030895842 -0.008820883 -0.007242408 -0.002119647 0.20669968 -0.015611107
0.025792878 0.16253415 -0.16998251 0.014477998 -0.013026024 0.055825233 -0.06100616 -0.06004112
0.017862609 -0.056033313 -0.0852969 -0.05532225 0.01078814 -0.018306807 0.008223124 -0.006881987
0.026519865 0.02912367 0.22132313 0.0034355733 -0.2431586 0.08698738 -0.002487797 -0.012724554
0.036005087 -0.21262422 -0.21073419 0.028376425 -0.15371352 -0.08218339 0.027083168 -0.03149611
0.028065262 -0.13381997 0.071688876 -0.07613298 0.025315292 0.23197113 -0.10893684 0.00067043613
-0.09747634 0.013875011 0.011627843 0.19628118 -0.19995154 -0.010145464 0.08141769 0.047601003
0.12984167 0.03226642 0.115968086 -0.2746882 0.14789656 0.011907631 -0.026319882 -0.15564646
-0.24255763 -0.008808818 0.052951097 -0.056553885 -0.15904392 0.15282662 -0.19718008 -0.0028728403
0.039636288 -0.0017904631 -0.12441589 0.0020019172 0.0486006 0.013308779 -0.0025005755 -0.00088661315
-0.108009696 0.19084737 -0.14035237 -0.11554627 -0.020705111 0.007270138 0.032137997 0.0003324413
0.09932611 0.0048904456 -0.014545338 0.009484986 0.1641804 0.09990132 0.247186 0.18948808
-0.025945676 -0.053754773 -0.026872706 0.10420676 -0.093965076 -0.059438918 -0.07277109 -0.035965797
-0.14528939 -0.0034272396 0.07714205 0.06955398 -0.08566821 -0.074110754 -0.19824252 -0.024244778
-0.006205051 -0.079681605 -0.21949291 0.025643362 -0.025120506 -0.024529023 -0.071798824 -0.019701535
-0.022768563 -0.030640254 0.060681246 -0.027587071 0.025860257 -0.0126663465 0.022826001 0.06274405
00000000: a89b 75bd e48a 803d 5082 2cbe 97cc 42b9
00000010: cd92 58bc 4b97 463d 4dc9 acbc 807c edbd
00000020: bd6b ac3b 0e1e 773d c021 bc3c ee17 df3c
00000030: 5484 c63d 13e4 403d eb84 1a3d 4839 2c3c
00000040: 9f0c 5dbd 6ad8 1bbe d441 be3c cad2 07bd
00000050: 10a8 a23d 9288 3ebd 6048 153d e622 0b3e
00000060: 90ee 2cbd 6e8f e13d a6e7 f33b 70c9 ad3d
00000070: f43c 81bc 2f10 9cbd 4594 1f3e 8117 7c3d
00000080: 6261 103d 097b 9fbc 3121 24bc 2f4f 03bd
00000090: 72a2 3bbd 6d37 453d ebe2 54bd be6f cb3d
000000a0: 9c69 033c 2fbf bf3d b42d 2fbe 4f87 a63d
000000b0: 921c b6bd 52dc 94bd 285a b83c 39cc fdba
000000c0: 678e 05bd 94f0 7dbd 15ec 0b3c b7bd 40bd
000000d0: b0ca 78bc 62fc a9bc bcc1 893b e90e 5abe
000000e0: 799f cfbd 165d 023e f098 1ebd 75f5 2cbd
000000f0: b2e9 08bc a163 f03d 80ee 033e 5a3a 48bd
00000100: 72df 533d 47e0 5cbd a5bf b5bd be9d c43d
00000110: 177e 273c 386d 3bbd 894a 033d eea6 123e
00000120: bf51 15bd 929d 0abe d2d4 093d ab30 80bd
00000130: c034 04bd 2e23 3b3e f130 ccbc 379e b0bd
00000140: 0020 e3bb c4ec bebd aabd 993d 530f 6d3d
00000150: 9caf 3e3e 0bd2 ba3d 26d8 e53d e7b9 31be
00000160: d2cd a2bd cf2e d43d 9725 06bd 43be 073d
00000170: 6406 2f3d 6360 853a 9d2e 8d3d 5003 aebd
00000180: 2729 a53c 5fc7 213e cc76 2c3e 743e 80bd
00000190: d614 9b3d 531d 0c3b 0714 f43c c92f 2f3d
000001a0: 558c c6bd 3c90 50bd e43b 8fbd b037 c73d
000001b0: b42e 513d 38d2 0d3e 3b0d cdbb 780f de3d
000001c0: 60fe 6f3c eb5e 1d3d 2c91 9639 6b90 81bd
000001d0: a4f3 60bc 2898 013c 6b6c a7ba 536f b33d
000001e0: 7cd2 103e 52b9 a83c 3556 2abe 5b1b 80bd
000001f0: d37c 19bd 8b98 e73c 886b 1d3e 9093 21bd
00000200: 4bce 51be 8fd8 1bbe 4719 fd3c 7785 10bc
00000210: b951 edbb c7e9 0abb 15a9 533e bbc5 7fbc
00000220: 964b d33c 5a6f 263e e50f 2ebe 2035 6d3c
00000230: 1b6b 55bc 00a9 643d 98e1 79bd aded 75bd
00000240: 9b54 923c 3083 65bd 24b0 aebd 9599 62bd
00000250: bdc0 303c 28f8 95bc 48ba 063c 4b82 e1bb
00000260: 3040 d93c c394 ee3c 88a2 623e 5b27 613b
00000270: 91fe 78be 7126 b23d 4f0a 23bb a67a 50bc
00000280: 127a 133d 2aba 59be b4ca 57be ad75 e83c
00000290: 1467 1dbe c44f a8bd 85dd dd3c 1102 01bd
000002a0: 1fe9 e53c 1a08 09be 9ed1 923d 9ceb 9bbd
000002b0: 0462 cf3c d789 6d3e 471a dfbd 35c0 2f3a
000002c0: ada1 c7bd 0454 633c b582 3e3c effd 483e
000002d0: 19c0 4cbe 2939 26bc 51be a63d 45f9 423d
000002e0: 37f5 043e cb29 043d ad80 ed3d efa3 8cbe
000002f0: 3272 173e 3918 433c cb9c d7bc c961 1fbe
00000300: 0761 78be dc52 10bc 40e3 583d 0ca5 67bd
00000310: 69dc 22be 957e 1c3e 93e9 49be 4346 3cbb
00000320: a959 223d f9ad eaba c2cd febd 9932 033b
00000330: 6c11 473d 110d 5a3c b2e0 23bb 9a6b 68ba
00000340: 3034 ddbd 7e6d 433e 88b8 0fbe 86a3 ecbd
00000350: c49d a9bc 563a ee3b 22a3 033d 844b ae39
00000360: 7d6b cb3d 0840 a03b 924f 6ebc ea66 1b3c
00000370: e81e 283e 1099 cc3d 541e 7d3e 2a09 423e
00000380: 078c d4bc f72d 5cbd 2624 dcbc 5b6a d53d
00000390: c370 c0bd 3976 73bd 0209 95bd df50 13bd
000003a0: bec6 14be 8a9b 60bb a7fc 9d3d 5172 8e3d
000003b0: d172 afbd 61c7 97bd 1600 4bbe fc9c c6bc
000003c0: be53 cbbb 1c30 a3bd c0c2 60be 0712 d23c
000003d0: 85c9 cdbc 17f1 c8bc 430b 93bd 1d65 a1bc
000003e0: 2385 babc 4501 fbbc e68c 783d 48fe e1bc
000003f0: e4d8 d33c 8286 4fbc 98fd ba3c f47f 803d

actor.7.bias f4 [128]
-0.013125098 -0.038184192 0.011786147 0.017072909 -0.022122357 0.003397482 0.025943961 -0.0043501644
-0.031461764 0.02953829 -0.019770768 0.020133443 -0.056444358 0.02209235 -0.012313876 0.040679462
-0.04963053 0.002310299 -0.0014233864 -0.008072907 0.018984688 0.012422173 0.02105233 -0.024079958
0.017414907 0.03558126 -0.011420283 -0.041075684 -0.038645416 0.01367231 0.015348794 -0.0025664822
-0.021830847 0.04300438 0.0041754297 0.022475677 -0.00059069414 0.01879509 0.04213123 -0.007674671
0.020141533 0.0059476877 -0.006069641 -0.012985608 0.029341664 -0.04164305 -0.00982924 -0.0017916926
-0.04361271 0.01942353 -0.026525237 -0.009683708 0.007822366 0.031224111 -0.010636673 0.0031365855
-0.003408699 -0.027069366 -0.033565216 0.027996326 0.017026586 0.0076580597 -0.016394036 0.034740012
0.02036524 0.0047006635 -0.056525894 -0.00125066 0.0016034275 0.0035258445 -0.027713267 0.018045623
-0.011673847 -0.01836927 0.023212275 -0.01941323 0.026941808 -0.0103388745 0.003454522 -0.04791414
-0.041768808 -0.022939568 0.009031491 -0.0027923046 0.038115814 0.0051251845 0.0020423054 0.021943487
-0.02061673 -0.017600488 -0.012413356 -0.001898988 0.0045718327 0.032366846 -0.03200878 0.023482112
0.0003545378 0.018891564 -0.0052035293 -0.0041648187 -0.019446682 -0.02032017 0.0236497 -0.004780687
0.0087627685 -0.0017193942 -0.036163244 0.0006746906 -0.02605979 0.035278652 0.005717459 0.0005902909
-0.00072180846 -8.81807e-05 -0.0078097964 0.010180394 -0.013103837 -0.009349637 -0.012683215 0.036248684
-0.020266006 -0.0011270159 -0.037862014 -0.013387796 0.07091511 -0.004134646 0.0072410903 -0.021550337
00000000: a70a 57bc 0767 1cbd af1a 413c 7cdc 8b3c
00000010: f239 b5bc 4aa8 5e3b 6e88 d43c d38b 8ebb
00000020: 0dde 00bd 49fa f13c 4ef6 a1bc e4ee a43c
00000030: 3332 67bd 04fb b43c 24c0 49bc 829f 263d
00000040: 6249 4bbd 6368 173b ec90 baba 3a44 04bc
00000050: c785 9b3c 5f86 4b3c f075 ac3c 5543 c5bc
00000060: b5a9 8e3c a8bd 113d 231c 3bbc fa3e 28bd
00000070: a84a 1ebd d301 603c 8279 7b3c 6d32 28bb
00000080: 9bd6 b2bc 5c25 303d 0bd2 883b e91e b83c
00000090: d0d8 1aba 29f8 993c cc91 2c3d ce7b fbbb
000000a0: dbff a43c d2e4 c23b d7e3 c6bb 96c1 54bc
000000b0: ee5d f03c e791 2abd d20a 21bc 3ad7 eaba
000000c0: 3ea3 32bd 181e 9f3c 744b d9bc 6aa8 1ebc
000000d0: 6229 003c b5c9 ff3c 7145 2ebc 2c8f 4d3b
000000e0: 7b64 5fbb 93c0 ddbc ae7b 09bd 8d58 e53c
000000f0: 577b 8b3c 76f0 fa3b c94c 86bc 8b4b 0e3d
00000100: 01d5 a63c 0608 9a3b b287 67bd 30ed a3ba
00000110: 192a d23a db11 673b ef06 e3bc 6ad4 933c
00000120: aa43 3fbc 277b 96bc ab27 be3c 7e08 9fbc
00000130: 11b5 dc3c 6264 29bc 4365 623b 9e41 44bd
00000140: c515 2bbd c3eb bbbc d2f8 133c 19ff 36bb
00000150: 541f 1c3d 2af1 a73b 33d8 053b d4c2 b33c
00000160: 6be4 a8bc e62e 90bc 6461 4bbc 77e7 f8ba
00000170: 50cf 953b 1993 043d a31b 03bd 8f5d c03c
00000180: 42e1 b939 7bc2 9a3c 5e82 aabb 0879 88bb
00000190: a64e 9fbc 7c76 a6bc 04bd c13c 4fa7 9cbb
000001a0: b791 0f3c 4c5d e1ba e91f 14bd b8dd 303a
000001b0: 577b d5bc 5980 103d 8659 bb3b c0bd 1a3a
000001c0: bf37 3dba a7ed b8b8 52e9 ffbb abcb 263c
000001d0: 7ab1 56bc 382f 19bc 42cd 4fbc 8079 143d
000001e0: e504 a6bc 61b8 93ba 3315 1bbd 7c58 5bbc
000001f0: f13b 913d ed7b 87bb ab46 ed3b 558a b0bc

actor.10.weight f4 [1, 128]
-0.00056926487 0.0008117267 -0.0007420901 -0.00022538312 0.00077405875 0.0016056203 0.00034644778 0.0012644471
0.0015083771 0.000105757805 -0.0011509643 0.001183174 0.00021499283 -0.00049070176 -8.578915e-05 0.0006912057
-0.00037625412 0.0015617531 0.0006322514 0.0006772037 0.0010527223 -0.00033228405 -0.001337833 0.0009897217
-0.00042207347 -0.0005272012 0.001250448 0.000577581 0.0005535379 0.0014419936 0.00059703283 0.0011295322
0.0010961972 -0.00092100305 -0.00048631144 0.0009024937 -0.00095026655 0.0007738678 0.0009737121 -0.0012422022
-0.0012393829 -0.0006661311 0.00125338 -0.0011025552 0.0007153427 0.0008371499 0.000743942 -0.00060951
0.00043794385 -0.00028737588 -0.00088869384 -0.0008845753 -0.0016264918 -0.00088659907 0.0005471771 -0.0014610487
-0.00038812822 -0.0012495721 -0.00051172636 0.00047015442 0.0013938544 0.001971427 0.0013712964 -1.8067292e-05
0.0010119048 -0.0012925575 0.00070502574 0.0007371127 -0.00036102693 -0.0010394225 -0.0005811965 0.0005024926
0.0016346469 -0.0012900103 -0.00029536278 0.0007569384 -0.0004990257 -0.0011633866 0.0015777941 0.0007158625
-0.0006437095 0.0010439671 0.0009399776 0.0008631725 -0.00069866126 0.001431032 0.0016386484 -0.0013407513
-0.00086782256 0.0009953284 0.0012166331 0.0013658752 0.00090530276 -0.0006147263 -0.0011343532 -0.0010340901
-0.0013958429 0.00034656114 0.0018460663 -0.0012732616 -0.0005014259 2.7873872e-05 0.0011234737 0.000552214
0.00058910716 -0.0016902537 -0.0009880206 0.0011273402 -0.001031717 -0.0010490188 0.00055069587 0.0015695024
-0.00073561387 0.0006405584 0.0011538782 0.001196054 -0.0008162318 -0.0011959736 0.00025806727 -0.0013529097
0.00016235054 -0.0013497643 -0.0002594241 0.0015888744 0.00052890345 0.00076123746 -0.0007063552 0.00030987256
00000000: b83a 15ba 0fca 543a d388 42ba d254 6cb9
00000010: 34ea 4a3a ad73 d23a 6fa3 b539 cebb a53a
00000020: bdb4 c53a 4aca dd38 f4db 96ba bb14 9b3a
00000030: b36f 6139 70a2 00ba b3e9 b3b8 0832 353a
00000040: f943 c5b9 bdb3 cc3a acbd 253a 5f86 313a
00000050: 80fb 893a 6936 aeb9 3a5a afba 8db9 813a
00000060: be49 ddb9 e033 0aba 13e6 a33a ce68 173a
00000070: 4d1b 113a 4701 bd3a 3282 1c3a d00c 943a
00000080: 46ae 8f3a 786f 71ba 9ef7 feb9 5495 6c3a
00000090: 4f1b 79ba 64dd 4a3a b740 7f3a 64d1 a2ba
000000a0: ca72 a2ba 4d9f 2eba 7448 a43a 9d83 90ba
000000b0: d685 3b3a 2e74 5b3a 1a05 433a 86c7 1fba
000000c0: d49b e539 f0aa 96b9 3cf7 68ba d8e2 67ba
000000d0: 0230 d5ba a86a 68ba 6f70 0f3a a980 bfba
000000e0: b07d cbb9 afc8 a3ba 6025 06ba 0f7f f639
000000f0: feb1 b63a 0e33 013b 12bd b33a 378f 97b7
00000100: e4a1 843a 086b a9ba 7ad1 383a cc3a 413a
00000110: 3748 bdb9 3b3d 88ba 705b 18ba b5b9 033a
00000120: a641 d63a 9015 a9ba ecda 9ab9 476d 463a
00000130: 0cd1 02ba c77c 98ba fccd ce3a b8a8 3b3a
00000140: 9dbe 28ba b9d5 883a d468 763a 8746 623a
00000150: 5d26 37ba 7791 bb3a ebc7 d63a 26bc afba
00000160: 967e 63ba ae75 823a 6f77 9f3a 2b07 b33a
00000170: d751 6d3a 9525 21ba 94ae 94ba 4e8a 87ba
00000180: b7f4 b6ba a6b2 b539 b5f7 f13a 92e3 a6ba
00000190: 1f72 03ba afd2 e937 8641 933a 74c2 103a
000001a0: 506e 1a3a 818b ddba 7880 81ba 43c3 933a
000001b0: ae3a 87ba 3b7f 89ba 935c 103a c3b7 cd3a
000001c0: 36d6 40ba 26eb 273a ba3d 973a eac4 9c3a
000001d0: 64f8 55ba 37c2 9cba 344d 8739 1e54 b1ba
000001e0: a43c 2a39 93ea b0ba 5003 88b9 c741 d03a
000001f0: 1ca6 0a3a c88d 473a b22a 39ba 6476 a239

critic.0.weight f4 [128, 6]
-0.87802947 0.062460963 0.028095402 -0.2237771 -0.3892284 -0.1748981 -0.505798 -0.06177988
0.12012186 -0.3813116 0.3260379 0.15008417 0.15403542 -0.18401003 0.23878177 0.17283885
-0.47289053 0.41629606 -0.41840982 0.22518541 -0.009867004 -0.015144201 -0.5044791 -0.35672674
-0.01144394 -0.2575288 0.39185575 0.46870396 0.3220405 -0.19095246 -0.49667656 0.03142628
0.19779032 -0.3278858 0.095985666 0.10914616 -5.4196825 -0.35718623 0.13682248 1.2780411
-1.5303677 2.3961356 0.829192 -0.031896297 -0.16586483 0.18478024 0.6505498 -0.29366055
-0.3585022 -0.03682907 0.28004935 0.49200892 0.101104654 0.40467167 0.3330279 0.08810276
0.03053582 -0.5182682 0.50879765 0.1421721 -1.0320506 -0.2773149 0.26999074 -1.2184509
0.9487955 0.22322947 0.4853115 -0.14513598 0.22233224 0.82423574 0.081574835 0.8109638
0.43654257 -0.07797141 0.15030342 0.23153025 -0.59570616 -0.3547571 0.37789628 -0.07669419
0.045351923 0.5570635 -0.07630829 -0.11875979 0.34475634 0.0103069125 0.034415003 0.10272049
0.5289093 -0.054174285 0.43491113 0.0112276925 -0.34553283 0.094587214 -0.044715386 -0.18559772
0.27467927 0.20007534 -0.19513316 0.046429828 0.44153753 -0.07193908 0.4480594 -0.3627186
0.21831974 -0.34198743 0.12208694 0.029003896 -0.27655295 -0.12316865 -0.011694709 -0.22303905
-0.22077796 -0.33916757 0.1234224 0.08343613 0.0623591 0.0016231945 0.14687473 -0.023130424
6.969148 -0.032288346 0.051221933 -0.085603625 2.5180376 -1.4783101 -0.3349789 -0.17794408
-0.05664182 -0.24016063 -0.13576292 0.21127562 0.03155871 0.16339491 -0.13332416 -0.24252415
0.6196952 -0.4346317 -0.6038839 -0.17992753 0.1001654 0.32742122 -0.3463186 0.058890745
0.44434273 -0.06288061 -0.13037801 0.532021 0.5751886 -0.5386853 -4.695412 -0.11448041
-0.16634159 1.6556697 -2.0403402 2.718952 0.23573528 -0.21004952 0.10582795 0.015763858
-0.109189585 0.42629573 1.0801319 0.11700852 -0.024961283 -0.49005368 2.253635 -0.21007526
0.16307706 0.1095454 0.0782596 0.16976316 -0.5840609 -0.11916442 0.030245276 0.10450769
-0.15826945 0.53146434 -0.2923203 -0.0941612 -0.79470134 0.2971814 -0.22586717 -0.7600016
-0.5606895 -0.7324757 -0.28162745 0.10378597 -0.1649456 -0.49819207 -0.3085684 -0.25618094
0.251825 -0.26993206 -0.09683378 -0.39529797 0.009422824 -0.017841 -0.5808564 0.027615948
0.03188571 -0.9946424 0.670312 -0.024769304 -0.56818897 0.06054783 0.1313465 0.3698049
0.2662327 0.06165803 3.0150628 0.41786003 -0.20947015 -0.06016857 0.55144304 -0.7628642
-0.47248468 -0.10356158 -0.04075701 -0.16637453 -0.06983329 0.013195555 -0.76002336 -0.33276618
0.19327767 -0.07084599 -0.465142 -0.084028274 -0.51627463 -0.15846293 -0.14210786 -0.31845945
0.10942977 0.37294957 0.096664704 -0.21635818 -0.05973865 -0.036149617 0.17150779 -0.40796646
0.15423006 -0.14110549 0.18936348 -0.7232897 0.79459393 -0.47104836 0.011660782 -0.28999606
0.07666252 0.50128615 0.34473592 0.056976516 0.7823721 -0.23581915 0.15163189 -0.26902086
00000000: 8ac6 60bf 11d7 7f3d 5428 e63c d325 65be
00000010: f248 c7be 7d18 33be fa7b 01bf e60c 7dbd
00000020: 7302 f63d 463b c3be 71ee a63e aaaf 193e
00000030: 76bb 1d3e 206d 3cbe 3583 743e abfc 303e
00000040: b51e f2be c224 d53e d039 d6be 0197 663e
00000050: 37a9 21bc 621f 78bc 8b25 01bf e3a4 b6be
00000060: 5d7f 3bbc d1da 83be 51a1 c83e f7f9 ef3e
00000070: 7ee2 a43e 0b89 43be 644c febe d8b8 003d
00000080: 8c89 4a3e a6e0 a7be 2294 c43d 0688 df3d
00000090: 0a6e adc0 1de1 b6be 311b 0c3e da96 a33f
000000a0: 17e3 c3bf 495a 1940 ed45 543f b1a5 02bd
000000b0: 78d8 29be 0837 3d3e 6f8a 263f ad5a 96be
000000c0: 9a8d b7be 14da 16bd a162 8f3e 98e8 fb3e
000000d0: f50f cf3d 2031 cf3e a282 aa3e 386f b43d
000000e0: 4226 fa3c 3aad 04bf 9040 023f 9095 113e
000000f0: 3c1a 84bf 38fc 8dbe 3a3c 8a3e 33f6 9bbf
00000100: 43e4 723f 4496 643e c07a f83e 879e 14be
00000110: 10ab 633e 1d01 533f b510 a73d 539b 4f3f
00000120: 8282 df3e 79af 9fbd 24e9 193e 4416 6d3e
00000130: 3380 18bf b9a2 b5be 9f7b c13e d811 9dbd
00000140: f0c2 393d b79b 0e3f 8547 9cbd 5538 f3bd
00000150: e783 b03e 53de 283c bff6 0c3d 1f5f d23d
00000160: 9a66 073f dbe5 5dbd acac de3e 5bf4 373c
00000170: aee9 b0be f1b6 c13d 7b27 37bd 540d 3ebe
00000180: c3a2 8c3e 8de0 4c3e fdd0 47be 342d 3e3d
00000190: 3511 e23e cc54 93bd 0b68 e53e 41b6 b9be
000001a0: 368f 5f3e fa18 afbe b808 fa3d 9499 ed3c
000001b0: 5998 8dbe d83f fcbd 2a9b 3fbc 5964 64be
000001c0: 9e13 62be 5fa7 adbe e2c4 fc3d 90e0 aa3d
000001d0: 416c 7f3d 5fc1 d43a 5466 163e 047c bdbc
000001e0: 4303 df40 c940 04bd 17ce 513d f450 afbd
000001f0: 8727 2140 4439 bdbf 5b82 abbe f936 36be
00000200: 4101 68bd abec 75be 6f05 0bbe a358 583e
00000210: b543 013d ff50 273e 2186 08be 4058 78be
00000220: 58a4 1e3f 0c88 debe 2398 1abf ec3e 38be
00000230: 8423 cd3d c1a3 a73e ac50 b1be 6c37 713d
00000240: e480 e33e 8dc7 80bd d081 05be 8732 083f
00000250: 8f3f 133f 48e7 09bf d140 96c0 b574 eabd
00000260: 7355 2abe fcec d33f ef94 02c0 4f03 2e40
00000270: 9764 713e 3917 57be 53bc d83d 3523 813c
00000280: ca9e dfbd 6f43 da3e c341 8a3f 2aa2 ef3d
00000290: 9b7b ccbc 51e8 fabe 8e3b 1040 f81d 57be
000002a0: acfd 263e 5759 e03d 9246 a03d 65d6 2d3e
000002b0: 0485 15bf 7a0c f4bd f1c4 f73c 2108 d63d
000002c0: 6311 22be 0c0e 083f 02ab 95be 96d7 c0bd
000002d0: 8c71 4bbf 2928 983e b949 67be 778f 42bf
000002e0: 5989 0fbf 8783 3bbf 7931 90be bd8d d43d
000002f0: 80e7 28be 0813 ffbe adfc 9dbe 262a 83be
00000300: 35ef 803e 8934 8abe ca50 c6bd 7f64 cabe
00000310: 3062 1a3c 4a27 92bc 01b3 14bf d73a e23c
00000320: 979a 023d e2a0 7ebf 9199 2b3f ffe8 cabc
00000330: d574 11bf 0001 783d b27f 063e 1157 bd3e
00000340: a74f 883e 218d 7c3d caf6 4040 c0f1 d53e
00000350: 587f 56be 5273 76bd 5f2b 0d3f 114b 43bf
00000360: 83e9 f1be 1818 d4bd d3f0 26bd 165e 2abe
00000370: c204 8fbd 2b32 583c e490 42bf 5460 aabe
00000380: 95ea 453e b417 91bd 1827 eebe 0417 acbd
00000390: 932a 04bf 1b44 22be b984 11be 1e0d a3be
000003a0: b71c e03d 3ff3 be3e 25f8 c53d 008d 5dbe
000003b0: 84b0 74bd 9f11 14bd bd9f 2f3e fbe0 d0be
000003c0: 7cee 1d3e f57d 10be 80e8 413e 8429 39bf
000003d0: 826a 4b3f 402d f1be dd0c 3f3c 5d7a 94be
000003e0: 3d01 9d3d 4a54 003f 3a81 b03e 3560 693d
000003f0: 8a49 483f 937a 71be 6445 1b3e 1abd 89be
