PPO/PPO4_Trained/PPO_DoubleInvPendulum_300K.pth (torch, 410281 bytes, 18 tensors)

actor.0.weight f4 [128, 6]
0.45417824 -0.09397306 0.120620206 0.90909046 0.38321882 -0.18803504 -0.43501592 0.23894669
0.29433542 0.026731545 -0.51929766 -0.27409652 -0.016818766 -0.064257376 -0.0956095 -0.45645097
-0.09036936 -0.17396027 -0.7944922 0.32608056 -0.24202658 -0.36800867 -0.4126889 0.28315276
-0.6001349 0.22616342 -0.24566254 -0.36303192 -0.6534449 0.13627242 -0.88305724 0.11856555
0.15103655 -0.7358314 -0.43001547 -0.22544347 0.34360254 0.119985536 -0.15805288 0.11955098
0.36456615 -0.4441623 0.1323362 0.17489871 0.3253954 0.51443934 0.0056337253 0.0793999
0.72951794 0.3012331 -0.081490256 0.50511235 0.32078823 0.28483972 -0.5614514 0.17459856
-0.05863287 -0.44225076 0.0122280605 -0.36578792 0.26210862 0.21133569 0.014272729 0.5634052
0.60308826 -0.19915572 -0.8043244 -0.24091317 0.37521574 -0.12314493 -0.721871 0.24340686
0.49779817 -0.3895702 0.11564712 0.63671565 0.23346905 0.20993726 0.26278746 -0.2182504
-0.3174819 0.5501526 -0.033927865 0.18415242 0.08940814 -0.15817995 0.33186626 -0.034874767
-0.25256255 -0.2777373 0.09517077 0.3423151 0.056393806 -0.4807227 -0.5291732 -0.26403728
0.952895 0.3208755 -0.091973655 0.6131611 0.22488305 0.048189364 -0.22741675 0.19288395
-0.27096456 -0.18166135 -0.5306598 -0.13299575 -0.19081831 -0.23449077 0.27782828 0.13005525
0.12974398 0.09312589 -0.24225247 -0.013272657 0.16603917 -0.48736545 0.009380091 -0.14949924
0.29425606 0.33508053 -0.15075944 0.60409385 0.4740756 -0.18221322 -0.9052638 0.3546047
-0.23096693 -0.69046986 -0.5237447 0.40527964 0.87623805 0.33295393 0.06553541 0.5507428
0.6159549 -0.15438807 -0.18271694 0.2556758 -0.2502905 -0.06641005 0.46052906 0.09371286
0.89149207 -0.064323746 -0.36909437 0.8673887 0.5689419 -0.47749153 0.14201283 0.22066575
0.16957411 -0.2674547 -0.2673785 0.02771669 -0.5054368 -0.030075446 -0.14392926 -0.07041073
-0.4088515 -0.10998103 0.21184088 -0.10973032 -0.15640502 0.43887323 0.081775606 0.20646237
0.030739293 0.054254636 -0.35200638 0.69498795 0.17851493 0.030384542 -0.86777234 0.15822789
-0.3423868 -0.513739 -0.009280416 0.087878115 0.24962822 0.23399198 0.087952696 0.020092692
0.2397879 -0.36314413 0.80201066 -0.3421843 0.18926652 0.24458957 0.23480855 0.08352687
0.90681404 0.36674714 0.02958017 0.43543732 0.47423175 -0.48184392 0.68446493 -0.29274666
0.37020293 0.85501546 0.5985781 -0.068445474 -0.59845674 -0.1183639 0.08221675 -0.5482785
-0.6857474 -0.11572836 -0.5205554 -0.24542004 0.24659994 -0.6422623 -0.11365296 -0.11896556
0.121416956 -0.17161901 -0.28859332 0.5852698 -0.095306784 0.05665166 0.45205274 -0.16869505
-9.446366e-05 0.409177 -0.20649765 -0.0032427588 -0.3855641 0.044800017 -0.20612273 -0.67670727
0.15192567 -0.32116702 0.27980158 -0.26806843 -0.20824894 0.065772675 -0.06465343 0.15630719
-0.43189242 -0.011883527 -0.16127267 -0.8010776 -0.20324662 -0.0012139906 -0.3618654 -0.00013408015
-0.04725003 0.22280285 -0.3671175 -0.34151924 0.31128272 0.055637717 -0.09584777 0.3520738
00000000: 0d8a e83e f374 c0bd ba07 f73d 27ba 683f
00000010: 4235 c43e 428c 40be 68ba debe 71ae 743e
00000020: 22b3 963e 1dfc da3c b1f0 04bf 6156 8cbe
00000030: 82c7 89bc 5f99 83bd eace c3bd f1b3 e9be
00000040: 9213 b9bd a422 32be d763 4bbf 08f4 a63e
00000050: d1d5 77be a26b bcbe f64b d3be 66f9 903e
00000060: 71a2 19bf 6297 673e f68e 7bbe 52df b9be
00000070: 2a48 27bf ff8a 0b3e 0a10 62bf 7fd2 f23d
00000080: 53a9 1a3e 725f 3cbf fd2a dcbe a7da 66be
00000090: acec af3e faba f53d 9dd8 21be 25d7 f43d
000000a0: 6aa8 ba3e 3e69 e3be 2483 073e a618 333e
000000b0: 3a9a a63e 4cb2 033f 1d9b b83b 6a9c a23d
000000c0: b0c1 3a3f 3a3b 9a3e 5de4 a6bd 0b4f 013f
000000d0: 5b3e a43e 83d6 913e 47bb 0fbf f7c9 323e
000000e0: 0529 70bd b16e e2be 3458 483c 8e48 bbbe
000000f0: 1a33 863e 6268 583e 2ad8 693c 533b 103f
00000100: fe63 1a3f 7aef 4bbe 34e8 4dbf f1b1 76be
00000110: 471c c03e 6933 fcbd 8acc 38bf a63f 793e
00000120: 67df fe3e bf75 c7be 66d8 ec3d ccff 223f
00000130: 8312 6f3e cbf9 563e 148c 863e 087d 5fbe
00000140: fd8c a2be cdd6 0c3f f2f7 0abd 7492 3c3e
00000150: 9d1b b73d edf9 21be 60ea a93e d8d8 0ebd
00000160: e14f 81be 9533 8ebe e5e8 c23d ed43 af3e
00000170: 31fd 663d 4921 f6be e577 07bf e52f 87be
00000180: edf0 733f cb49 a43e af5c bcbd 20f8 1c3f
00000190: be47 663e 3662 453d f0df 68be 5f83 453e
000001a0: debb 8abe 6f05 3abe 52d9 07bf 0a30 08be
000001b0: e065 43be 591e 70be 823f 8e3e 342d 053e
000001c0: 9bdb 043e c9b8 be3d 0811 78be 8f75 59bc
000001d0: 2c06 2a3e f787 f9be f4ae 193c 5416 19be
000001e0: bba8 963e ad8f ab3e af60 1abe e5a5 1a3f
000001f0: 09ba f23e 1a96 3abe 5ebf 67bf bf8e b53e
00000200: 9882 6cbe a2c2 30bf 2214 06bf d080 cf3e
00000210: 2351 603f f078 aa3e 6e37 863d 7bfd 0c3f
00000220: 38af 1d3f e817 1ebe 261a 3bbe f0e7 823e
00000230: 1426 80be fe01 88bd 77ca eb3e 87ec bf3d
00000240: d338 643f 2bbc 83bd f0f9 bcbe 300d 5e3f
00000250: 2da6 113f c579 f4be d06b 113e 34f6 613e
00000260: d6a4 2d3e d3ef 88be d6e5 88be 1d0e e33c
00000270: 4e64 01bf c860 f6bc 3162 13be 8033 90bd
00000280: fc54 d1be bc3d e1bd d1ec 583e 4aba e0bd
00000290: a328 20be feb3 e03e f879 a73d df6a 533e
000002a0: f8d0 fb3c 1c3a 5e3d 2e3a b4be bbea 313f
000002b0: 9ecc 363e 01e9 f83c 5426 5ebf 7e06 223e
000002c0: 534d afbe 6684 03bf e30c 18bc 71f9 b33d
000002d0: 8a9e 7f3e 989b 6f3e 8b20 b43d 6e99 a43c
000002e0: f68a 753e 07ee b9be 9250 4d3f c832 afbe
000002f0: 15cf 413e b075 7a3e a771 703e 2310 ab3d
00000300: f724 683f 48c6 bb3e 1d52 f23c a4f1 de3e
00000310: 81ce f23e 3fb4 f6be 1839 2f3f e4e2 95be
00000320: 3d8b bd3e 4be2 5a3f 6a3c 193f 242d 8cbd
00000330: 7634 19bf c668 f2bd 4161 a83d fb5b 0cbf
00000340: 248d 2fbf fe02 edbd 1e43 05bf 644f 7bbe
00000350: b284 7c3e 4d6b 24bf e2c2 e8bd 37a4 f3bd
00000360: 74a9 f83d e5bc 2fbe 81c2 93be 3ed4 153f
00000370: 3430 c3bd 920b 683d 7573 e73e 65be 2cbe
00000380: cb1a c6b8 a67f d13e 1f74 53be 7784 54bb
00000390: a868 c5be 3980 373d d611 53be b03c 2dbf
000003a0: 6792 1b3e 0170 a4be 2742 8f3e 4440 89be
000003b0: 363f 55be d3b3 863d 0469 84bd fe0e 203e
000003c0: 0121 ddbe 20b3 42bc aa24 25be 6c13 4dbf
000003d0: e21f 50be c41e 9fba 6c46 b9be de97 0cb9
000003e0: 3f89 41bd 6e26 643e d3f6 bbbe 9cdb aebe
000003f0: 7360 9f3e 60e4 633d d64b c4bd 0443 b43e

actor.0.bias f4 [128]
-0.19565532 -0.024717167 0.3753124 0.03731545 0.1479194 0.21327616 -0.23149753 -0.18248229
0.28919616 0.290347 0.017704826 -0.08007398 0.19037555 -0.28517276 0.19259296 -0.24483384
0.30954143 0.094229504 -0.24449669 0.3761976 -0.2934835 -0.13331021 0.11784588 0.13530971
0.27105182 -0.25302893 -0.3369872 -0.14608338 0.1745962 -0.22164273 -0.014446234 0.17026639
-0.0056844656 -0.14329642 0.039938778 -0.333182 0.29272553 0.1898668 0.23625582 0.1158335
0.17422546 0.049892448 -0.09009261 -0.0333265 0.25940534 0.29498738 0.14219964 0.032463137
0.060437683 -0.28848827 0.09986261 0.11353635 0.014811399 0.13436152 0.08215011 -0.13122182
-0.008884683 0.36407274 -0.1665064 0.32512245 0.1735294 -0.08258736 -0.1795177 -0.08332791
0.19624588 0.22763212 0.36173433 0.14752127 -0.0047730333 0.03369787 -0.29101264 -0.30813417
-0.10104212 0.34383178 0.32638544 0.08988381 -0.1479172 0.0225446 -0.14517358 0.15408629
0.37605408 -0.2786536 -0.353356 -0.12140457 0.4247743 0.26412287 0.057785295 0.37208623
0.29636708 0.17366692 -0.16437985 -0.35871914 -0.055682015 0.3066181 -0.4115203 0.16095084
-0.27444792 -0.22454438 -0.2272616 0.19095346 0.3441974 0.2275508 -0.18005212 0.20421487
-0.17688781 -0.019101273 0.20591162 -0.11443013 -0.14758128 -0.19840007 0.044909876 0.355198
0.1740341 -0.22005458 0.2773438 -0.25764117 0.06818482 -0.23919028 -0.3491563 0.22767146
-0.078765295 -0.022306236 0.11560271 -0.13297132 -0.2984734 -0.15570566 0.30862927 -0.124308236
00000000: de59 48be a87b cabc f228 c03e 16d8 183d
00000010: 2f78 173e 1165 5a3e b00d 6dbe a3dc 3abe
00000020: 8511 943e 5da8 943e b609 913c d4fd a3bd
00000030: cff1 423e 2a02 92be 1737 453e b9b5 7abe
00000040: 377c 9e3e 66fb c03d 575d 7abe f99c c03e
00000050: 7843 96be 7982 08be 2e59 f13d a18e 0a3e
00000060: 4ec7 8a3e 028d 81be 9689 acbe e296 15be
00000070: 59c9 323e 50f6 62be e6af 6cbc 505a 2e3e
00000080: c144 babb 4cbc 12be d896 233d d596 aabe
00000090: 1fe0 953e 716c 423e 0ced 713e 1d3a ed3d
000000a0: 2968 323e 065c 4c3d 7982 b8bd 5e81 08bd
000000b0: c7d0 843e 9608 973e c89c 113e 11f8 043d
000000c0: 818d 773d bcb4 93be c584 cc3d bf85 e83d
000000d0: 83ab 723c 1196 093e 513e a83d 035f 06be
000000e0: 1091 11bc be67 ba3e a780 2abe 7376 a63e
000000f0: b1b1 313e 9023 a9bd 7dd3 37be d3a7 aabd
00000100: aef4 483e 6518 693e 3e35 b93e d10f 173e
00000110: 1b67 9cbb c706 0a3d 9cff 94be c3c3 9dbe
00000120: 2cef cebd b80a b03e fe1b a73e 0115 b83d
00000130: 9b77 17be 74af b83c 62a8 14be ccc8 1d3e
00000140: 298a c03e afab 8ebe 14eb b4be f6a2 f8bd
00000150: 047c d93e 1d3b 873e 46b0 6c3d 1682 be3e
00000160: 6dbd 973e bed5 313e 3153 28be 09aa b7be
00000170: d312 64bd 0cfd 9c3e cab2 d2be 4cd0 243e
00000180: 7084 8cbe f6ee 65be 44b7 68be 4e89 433e
00000190: a43a b03e 1403 693e 955f 38be b41d 513e
000001a0: 1422 35be 467a 9cbc 7fda 523e 585a eabd
000001b0: 8c1f 17be 6329 4bbe 6bf3 373d 83dc b53e
000001c0: ff35 323e fd55 61be 0200 8e3e 8be9 83be
000001d0: 7ca4 8b3d 4cee 74be 9dc4 b2be b522 693e
000001e0: b34f a1bd 91bb b6bc 1dc1 ec3d a229 08be
000001f0: 81d1 98be 4e71 1fbe a804 9e3e 5195 febd

actor.2.weight f4 [128, 128]
-0.047426783 0.05542445 0.05681956 -0.09489743 0.036737274 -0.059547175 -0.009343338 -0.00795104
-0.08843031 -0.04632866 0.018778596 0.023450984 -0.059375014 0.083074786 0.064187445 0.02419451
0.07009313 0.03920942 0.036438044 0.033265118 0.054239985 0.017363794 -0.07018131 -0.07350845
0.081634656 -0.017252466 0.06575367 0.010138504 -0.0005054539 0.083115146 0.010952175 -0.01870554
-0.05660537 -0.05502908 -0.02414368 0.02553474 0.016566914 -0.009068495 -0.028014516 0.077863924
-0.041492566 0.06991416 0.053761303 -0.07867143 0.09657555 -0.018738572 0.027292822 0.08994461
-0.06539361 -0.026386581 0.08813513 0.04079493 0.02534267 0.001876184 -0.05882342 0.02418088
-0.009025894 0.047749832 0.04170934 -0.006179521 0.034179505 0.09183807 0.0015960867 -0.045144983
0.066009566 0.06466824 -0.055211227 -0.033693675 0.023302782 0.028401302 0.09773006 -0.011108589
0.04055967 0.012934064 0.032161474 0.08929157 0.004336252 -0.06202134 0.02822841 -0.09825842
0.026571702 -0.0440965 0.0102956705 0.09903883 -0.0670438 0.060143843 -0.028707989 0.07037326
-0.08712554 0.098491296 -0.06289499 0.033227548 0.032466747 0.078766175 -0.0026851904 0.090390205
-0.024205294 0.007996307 0.08662453 -0.038750455 -0.040287275 0.017299112 0.0003709056 -0.010442402
-0.05011748 -0.016361129 0.03858744 -0.026467256 -0.056019608 4.2890104e-05 -0.035449296 -0.027512899
-0.04511562 -0.08165359 -0.049838454 -0.024244947 0.101840205 -0.031636376 -0.07020913 0.09899997
0.06694005 -0.10277763 0.049751706 0.060438395 0.015623323 -0.03040175 0.017331759 -0.09478215
0.06256098 0.05171166 0.042703226 -0.08814029 -0.018101325 0.061871633 0.0071710614 0.07204388
0.047572944 0.075715065 -0.022632113 -0.02551647 -0.08153256 0.012017815 0.010949423 0.00055798853
-0.026487404 -0.0341901 -0.05399271 -0.0035140016 0.05304741 -0.01611408 -0.04611825 -0.011786329
-0.022763455 0.053020645 -0.08101081 0.029078498 0.004373826 0.039692584 0.010088945 -0.0828801
0.048701923 -0.015247683 -0.039580487 0.00120912 -0.069422655 0.02405984 -0.003376324 0.054582894
0.029257111 -0.053576164 -0.042303 -0.05554415 -0.04388149 0.014795266 0.058535855 -0.07530211
0.0014125446 0.014564026 0.01104709 0.062275954 -0.0747102 -0.028252758 -0.01974037 -0.06954202
-0.05110213 -0.07718111 -0.066890016 -0.049707316 0.08328985 -0.082054645 0.09494321 0.07960174
-0.049104482 -0.047152482 -0.0029131656 0.04090791 -0.036571324 -0.0375153 0.056186892 -0.0579797
-0.027942004 0.07490658 -0.046189237 -0.04113435 -0.054414257 -0.006272356 0.093473665 -0.0068707615
0.032151323 0.014203988 -0.031773858 0.04132222 -0.028179554 0.07209265 0.007171376 0.024993181
-0.07371866 0.015467602 -0.04445146 -0.051546615 0.0474753 -0.06360657 0.012850984 0.038074967
0.03338702 0.007384136 0.068468764 -0.07819337 0.033745166 -0.0038710102 0.040973987 -0.0020405464
0.047019243 -0.022181898 0.054981407 0.06647464 -0.065687165 0.034184407 -0.0032830588 0.07091767
0.06302252 -0.0785711 -0.0011112612 -0.06773648 0.038340565 -0.035295498 -0.06682907 0.011685242
0.030249342 0.015500517 -0.06014796 0.06802501 -0.030832896 0.084728755 0.01490103 -0.003806413
00000000: 9642 42bd c004 633d a0bb 683d 9559 c2bd
00000010: d379 163d bde7 73bd cd14 19bc 1445 02bc
00000020: f31a b5bd 1fc3 3dbd 92d5 993c 471c c03c
00000030: 3733 73bd 1d23 aa3d b574 833d 9133 c63c
00000040: fd8c 8f3d 0f9a 203d 0f40 153d 0141 083d
00000050: bf2a 5e3d 843e 8e3c 38bb 8fbd 998b 96bd
00000060: 1230 a73d 0b55 8dbc dca9 863d f81b 263c
00000070: 7080 04ba 4638 aa3d c070 333c 5c3c 99bc
00000080: 08db 67bd 2c66 61bd f8c8 c5bc 3b2e d13c
00000090: 56b7 873c 0694 14bc b37e e5bc 1f77 9f3d
000000a0: 1cf4 29bd 282f 8f3d d034 5c3d 7d1e a1bd
000000b0: 67c9 c53d a281 99bc 3295 df3c e134 b83d
000000c0: 16ed 85bd ac28 d8bc 3180 b43d 9618 273d
000000d0: 6e9b cf3c 4aea f53a d4f0 70bd fb16 c63c
000000e0: 58e1 13bc 5495 433d 6ad7 2a3d 947d cabb
000000f0: cfff 0b3d 9915 bc3d c833 d13a f2e9 38bd
00000100: 0630 873d c870 843d 2b25 62bd 6102 0abd
00000110: 7ae5 be3c d9a9 e83c b326 c83d cd00 36bc
00000120: e621 263d 65e9 533c c0bb 033d 80de b63d
00000130: 1e17 8e3b 170a 7ebd 443f e73c b63b c9bd
00000140: e6ac d93c 889e 34bd 2caf 283c dfd4 ca3d
00000150: 434e 89bd 6459 763d 042d ebbc db1f 903d
00000160: e06e b2bd ceb5 c93d 17cf 80bd 9c19 083d
00000170: dafb 043d 2950 a13d 05fa 2fbb 801e b93d
00000180: 2e4a c6bc f102 033c 3468 b13d ccb8 1ebd
00000190: 4504 25bd deb6 8d3c 1b76 c239 9c16 2bbc
000001a0: fd47 4dbd c607 86bc dd0d 1e3d dcd1 d8bc
000001b0: d174 65bd e6e4 3338 4833 11bd bb62 e1bc
000001c0: 28cb 38bd ff39 a7bd 6823 4cbd 579d c6bc
000001d0: 9991 d03d 2595 01bd cec9 8fbd 7fc0 ca3d
000001e0: dd17 893d 147d d2bd 72c8 4b3d 408e 773d
000001f0: f7f8 7f3c 170d f9bc 55fb 8d3c 251d c2bd
00000200: f91f 803d 9bcf 533d 94e9 2e3d e582 b4bd
00000210: 3b49 94bc 1c6d 7d3d 39fb ea3b be8b 933d
00000220: d9db 423d 8010 9b3d fb66 b9bc eb07 d1bc
00000230: 8bfa a6bd 5fe6 443c 3565 333c fa45 123a
00000240: 1dfc d8bc eb0a 0cbd 7627 5dbd 2a4b 66bb
00000250: 3e48 593d ad01 84bc 7de6 3cbd 721b 41bc
00000260: 6d7a babc 2d2c 593d ffe8 a5bd 0836 ee3c
00000270: 5052 8f3b b194 223d 1a4c 253c 0bbd a9bd
00000280: ab7b 473d 6bd1 79bc 261f 22bd 567b 9e3a
00000290: 772d 8ebd 2419 c53c 5145 5dbb 5092 5f3d
000002a0: 9cac ef3c ae72 5bbd e945 2dbd 4382 63bd
000002b0: 14bd 33bd d867 723c 4bc3 6f3d fe37 9abd
000002c0: 2225 b93a f49d 6e3c dbfe 343c 1215 7f3d
000002d0: a901 99bd 5472 e7bc 8eb6 a1bc 0c6c 8ebd
000002e0: 7850 51bd 2111 9ebd a2fd 88bd e699 4bbd
000002f0: de93 aa3d 440c a8bd 9671 c23d 3d06 a33d
00000300: c821 49bd f622 41bd cfea 3ebb 0d8f 273d
00000310: d0cb 15bd a5a9 19bd 3a24 663d 1f7c 6dbd
00000320: a1e6 e4bc 9f68 993d ed30 3dbd 7e7c 28bd
00000330: 7ce1 5ebd 5688 cdbb 1f6f bf3d 2024 e1bb
00000340: 1bb1 033d d8b7 683c 4e25 02bd 7d41 293d
00000350: cfd8 e6bc 50a5 933d ddfd ea3b 80be cc3c
00000360: cff9 96bd d36b 7d3c bc12 36bd 8b22 53bd
00000370: 7675 423d 2944 82bd ef8c 523c 7ff4 1b3d
00000380: d4c0 083d 9ff6 f13b 5a39 8c3d d823 a0bd
00000390: 5f38 0a3d c6b0 7dbb 57d4 273d b0ba 05bb
000003a0: 4097 403d d0b6 b5bc 2f34 613d db23 883d
000003b0: fe86 86bd f304 0c3d 9628 57bb 493d 913d
000003c0: f311 813d e3e9 a0bd bda7 91ba 6cb9 8abd
000003d0: ff0a 1d3d 0392 10bd aedd 88bd 7573 3f3c
000003e0: 78cd f73c e1f5 7d3c b55d 76bd b250 8b3d
000003f0: 4595 fcbc 4586 ad3d 7323 743c 0375 79bb

actor.2.bias f4 [128]
-0.07270213 -0.06532512 -0.0684295 -0.07480056 0.034941528 0.07974778 0.020666623 0.032517698
-0.024406465 -0.006133593 -0.07095381 0.009772071 -0.029283993 0.00020967715 0.0058004856 -0.069675185
-0.01398415 0.07029309 0.081770025 0.021923978 0.046890795 -0.059560247 -0.024342647 -0.0695393
-0.03329616 -0.059129335 0.030063467 0.027161146 0.018899584 0.01436694 0.0038190128 0.020077035
0.047503524 0.03544028 0.039830487 -0.06580696 0.06966319 -0.06596327 0.011620558 0.0344117
0.02307748 -0.07287799 0.05173352 0.036067545 -0.03096329 0.07592876 0.06017869 -0.015181903
0.026598772 -0.07753412 -0.0060886424 0.0028662875 0.07179027 0.050620276 -0.06556979 0.0055266055
0.012591973 -0.06196272 0.05502925 0.09444304 0.038995977 0.009069109 -0.048041146 -0.046773374
-0.06316972 -0.0029102853 -0.025056923 0.07249506 -0.012067124 -0.06344563 -0.019497395 0.068347365
-0.08028703 -0.037734866 0.029197527 0.058652088 0.083613776 0.0028566762 0.02496486 -0.0012888209
0.066718765 0.09157231 0.0018561142 -0.018260924 0.011070849 -0.022954086 -0.042240597 0.04099299
-0.039836522 0.06107178 0.0010872431 0.035356104 0.0069563226 0.03329042 0.031069413 -0.032538507
-0.026689962 0.03953494 -0.072033346 -0.057906557 0.040491786 0.07626611 -0.04448199 -0.024535887
0.0070734094 -0.04542627 -0.08017027 0.017279059 -0.05026297 -0.026372198 -0.033021674 -0.035105787
0.0031029882 -0.07202165 -0.047341526 0.076169975 -0.045191117 0.0044614123 0.029495599 -0.013579543
0.03887538 0.048913926 0.07456622 0.020939643 0.017661024 -0.013803059 -0.09685461 -0.005271138
00000000: dbe4 94bd 2dc9 85bd c424 8cbd 0931 99bd
00000010: d91e 0f3d ce52 a33d 0d4d a93c 4731 053d
00000020: 11f0 c7bc 4ffc c8bb 3b50 91bd 091b 203c
00000030: fce4 efbc c8dc 5b39 0012 be3b ddb1 8ebd
00000040: c71d 65bc d3f5 8f3d 0b77 a73d ea99 b33c
00000050: 9010 403d 72f5 73bd 3b6a c7bc 9f6a 8ebd
00000060: 8e61 08bd 9a31 72bd a947 f63c 0d81 de3c
00000070: 4dd3 9a3c 5063 6b3c 6748 7a3b 9878 a43c
00000080: 0e93 423d d429 113d 4b25 233d cdc5 86bd
00000090: 93ab 8e3d c017 87bd 2764 3e3c 48f3 0c3d
000000a0: fc0c bd3c 0e41 95bd 87e6 533d 90bb 133d
000000b0: baa6 fdbc 8a80 9b3d ee7d 763d 84bd 78bc
000000c0: abe5 d93c 35ca 9ebd 3c83 c7bb 53d8 3b3b
000000d0: c706 933d 3557 4f3d 7449 86bd 8718 b53b
000000e0: 904e 4e3c 9fcc 7dbd 5a66 613d 5a6b c13d
000000f0: 3fba 1f3d 9a96 143c cbc6 44bd 7095 3fbd
00000100: 205f 81bd 7cba 3ebb 2d44 cdbc 4a78 943d
00000110: 30b5 45bc c8ef 81bd 00b9 9fbc b4f9 8b3d
00000120: 876d a4bd e08f 1abd a72f ef3c 2c3d 703d
00000130: b33d ab3d 1337 3b3b 1b83 cc3c a7ed a8ba
00000140: d9a3 883d 438a bb3d dc48 f33a ef97 95bc
00000150: 8262 353c 350a bcbc 7a04 2dbd 44e8 273d
00000160: 9f2b 23bd 6726 7a3d d381 8e3a 90d1 103d
00000170: ddf1 e33b 895b 083d 4885 fe3c 1947 05bd
00000180: e8a4 dabc 64ef 213d 3886 93bd 6d2f 6dbd
00000190: b7da 253d 6831 9c3d bf32 36bd 7cff c8bc
000001a0: 0fc8 e73b e610 3abd 4f30 a4bd d08c 8d3c
000001b0: 8be0 4dbd 820a d8bc bc41 07bd 16cb 0fbd
000001c0: 815b 4b3b 1680 93bd 30e9 41bd 01ff 9b3d
000001d0: 521a 39bd 0a31 923b c1a0 f13c bb7c 5ebc
000001e0: ca3b 1f3d f859 483d 2db6 983d 9d89 ab3c
000001f0: daad 903c 3a26 62bc b65b c6bd 83b9 acbb

actor.4.weight f4 [128, 128]
0.047460604 0.07118534 0.11510875 -0.057810333 -0.03928734 -0.020742947 0.0359092 0.016503464
-0.045648992 -0.0012601116 -0.023352947 -0.020870522 0.05494198 -0.00018513585 0.048107218 -0.1969334
0.02330457 -0.048388314 -0.02039057 0.12197 0.19328882 0.0016997188 -0.04935485 0.02442233
0.051660195 0.17585628 -0.014684422 -0.014065516 0.06742963 -0.09448237 0.12902209 -0.06693715
-0.03947216 0.014023175 -0.061481837 -0.0070745316 -0.14572169 -0.0067360117 -0.05916467 0.015931495
0.06280179 0.068815656 -0.02997293 -0.048077215 -0.054816265 -0.044562116 -0.0188546 -0.043044638
-0.0663984 -0.014852106 0.038025044 -0.051663615 -0.044988718 0.092625424 0.13012359 -0.12341387
0.1022316 -0.00024194346 0.06494932 -0.04756333 0.072127864 -0.06595853 0.065377705 0.14356852
0.19180694 0.024116809 -0.009065048 0.051943034 0.1100063 -0.06922878 -0.112700276 0.015755933
-0.009545754 -0.02929415 -0.013499973 -0.013670437 -0.015420277 -0.062825195 0.010483849 0.064703934
0.04413325 0.074445345 0.08446157 0.014074905 0.11234619 -0.07671565 -0.11393578 0.027186474
0.029749926 0.016708082 0.029799487 -0.07780669 -0.003786269 0.06618077 -0.011000006 0.09550096
-0.014762243 -0.030615607 0.009988385 0.031215193 -0.064432 -0.053656027 -0.059945714 -0.018898657
0.06282224 -0.11846928 -0.089757115 0.03403813 0.0009781452 -0.048804175 0.008535229 -0.041834675
-0.006400366 -0.013681704 -0.06157824 0.046088178 -0.0213237 0.07587449 -0.026905622 0.034522202
-0.041063398 -0.056925 -0.031163843 -0.09005189 -0.03411063 0.0086665675 -0.040679947 0.03725109
0.09462926 -0.06877753 0.014133031 -0.060145903 0.03413291 -0.09365105 -0.0047312 -0.05472075
-0.008934246 0.06863243 0.043102976 -0.0925814 0.030118013 0.08430732 0.032093894 -0.19694276
0.00020870513 0.023900075 -0.00842982 0.2638072 0.09827866 -0.07039253 0.04752597 0.009662487
0.107623935 0.11879257 0.05884158 -0.08156355 0.0739344 -0.0327794 0.011621301 0.06553261
-0.058458973 0.11741906 0.0001909459 -0.026185848 -0.17590916 0.01620432 0.00060368923 -0.0665377
0.016866308 -0.045983024 0.0084282495 -0.08811489 -0.17140004 0.04223921 0.04300172 -0.05414075
-0.019603364 -0.0028917957 -0.07737613 -0.065370895 0.057145473 0.09207182 0.23544893 -0.20407735
0.04949223 -0.010195976 -0.04489786 -0.06942987 0.0038211343 0.034412123 -0.039429493 0.12470953
0.10520428 0.15158498 0.10291926 0.14959204 0.09825488 0.08177484 -0.17326319 0.033583656
0.0133868335 0.06432101 -0.040860552 -0.05792691 -0.062214796 0.089148514 0.01008072 -0.03566228
0.025099257 -0.0071921283 0.034226343 0.04196537 0.004203043 -0.032882772 -0.06000989 -0.03368113
0.061668783 0.026548993 -0.014186817 -0.021112397 -0.12912013 0.09450893 -0.04060317 -0.046481267
-0.093235 0.07519861 -0.06919879 0.07938213 -0.018555429 -0.061920084 -0.0027513097 0.06590714
0.019805904 -0.13395819 0.022509169 -0.084209725 -0.09241032 -0.052501068 -0.021141417 -0.09652814
0.09219961 0.028861316 -0.011376107 0.10336724 -0.14050524 -0.03177337 -0.091008455 -0.014215797
-0.07137282 0.031122673 -0.081223786 -0.06906618 -0.029296359 -0.06386674 -0.00012666255 -0.06500176
00000000: 0d66 423d 9fc9 913d 23be eb3d 87ca 6cbd
00000010: c3eb 20bd 1ded a9bc 8615 133d 4632 873c
00000020: 70fa 3abd 542a a5ba ae4e bfbc a8f8 aabc
00000030: d70a 613d 0721 42b9 130c 453d e9a8 49be
00000040: 3ae9 be3c d332 46bd 200a a7bc 68cb f93d
00000050: 81ed 453e 19c9 de3a 5028 4abd 5711 c83c
00000060: a499 533d ab13 343e ee96 70bc 0d73 66bc
00000070: 8c18 8a3d f97f c1bd 5e1e 043e 5816 89bd
00000080: 8fad 21bd 76c1 653c 61d4 7bbd 79d1 e7bb
00000090: 1138 15be c3b9 dcbb a756 72bd c482 823c
000000a0: 3a9e 803d 39ef 8c3d ca89 f5bc 9dec 44bd
000000b0: 0587 60bd c486 36bd f674 9abc 934f 30bd
000000c0: e2fb 87bd 3f56 73bc 26c0 1b3d 3a9d 53bd
000000d0: 1746 38bd 66b2 bd3d 1e3f 053e 69c0 fcbd
000000e0: cd5e d13d 34b2 7db9 2604 853d c4d1 42bd
000000f0: c6b7 933d 4415 87bd bfe4 853d a003 133e
00000100: 0a69 443e 9d90 c53c 9185 14bc 38c2 543d
00000110: fc4a e13d d2c7 8dbd 67cf e6bd 9612 813c
00000120: cb65 1cbc 49fa efbc fe2e 5dbc f8f9 5fbc
00000130: 54a5 7cbc 7faa 80bd 73c4 2b3c 7f83 843d
00000140: 11c5 343d cd76 983d 30fa ac3d 6e9a 663c
00000150: c215 e63d 181d 9dbd 2a57 e9bd 2bb6 de3c
00000160: 1eb6 f33c 63df 883c 0e1e f43c 1d59 9fbd
00000170: 0e23 78bb c989 873d 5f39 34bc 0296 c33d
00000180: 56dd 71bc 95cd fabc 53a6 233c 01b7 ff3c
00000190: edf4 83bd 6cc6 5bbd a389 75bd 5bd1 9abc
000001a0: f2a8 803d 06a0 f2bd 94d2 b7bd 916b 0b3d
000001b0: 1b35 803a e3e6 47bd 58d7 0b3c d65a 2bbd
000001c0: 29ba d1bb 3a29 60bc 7739 7cbd f5c6 3c3d
000001d0: 0aaf aebc 1664 9b3d 2e69 dcbc 2767 0d3d
000001e0: 1832 28bd 302a 69bd 514b ffbc 206d b8bd
000001f0: 97b7 0bbd 38fe 0d3c 04a0 26bd 9994 183d
00000200: fccc c13d 3cdb 8cbd 3a8e 673c 8d5b 76bd
00000210: f3ce 0b3d 1fcc bfbd 2f08 9bbb dd22 60bd
00000220: f260 12bc 298f 8c3d bf8c 303d 519b bdbd
00000230: 0dba f63c 51a9 ac3d e374 033d 5dab 49be
00000240: dbd7 5a39 17ca c33c 3a1d 0abc bd11 873e
00000250: 5246 c93d f529 90bd 97aa 423d 684f 1e3c
00000260: f069 dc3d 8549 f33d de03 713d ca0a a7bd
00000270: eb6a 973d b143 06bd 4567 3e3c f635 863d
00000280: ad72 6fbd 6779 f03d a638 4839 b483 d6bc
00000290: 8821 34be ecbe 843c e640 1e3a eb44 88bd
000002a0: 362b 8a3c b258 3cbd a416 0a3c 9475 b4bd
000002b0: 7e83 2fbe 0603 2d3d 9222 303d b1c2 5dbd
000002c0: 3c97 a0bc 4884 3dbb 6077 9ebd 2de1 85bd
000002d0: 5f11 6a3d 2690 bc3d 8619 713e a7f9 50be
000002e0: 5db8 4a3d 060d 27bc d2e6 37bd 3f31 8ebd
000002f0: ff6b 7a3b baf3 0c3d d280 21bd b667 ff3d
00000300: 5775 d73d 1839 1b3e 55c7 d23d a82e 193e
00000310: db39 c93d 9179 a73d e86b 31be 048f 093d
00000320: 7354 5b3c bcba 833d 655d 27bd c544 6dbd
00000330: f1d4 7ebd 7f93 b63d 9b29 253c 9c12 12bd
00000340: f59c cd3c f2ab ebbb ec30 0c3d e1e3 2b3d
00000350: aeb9 893b 16b0 06bd eecc 75bd 39f5 09bd
00000360: 6898 7c3d 467d d93c d36f 68bc e8f3 acbc
00000370: 1138 04be e68d c13d 824f 26bd 2463 3ebd
00000380: fef1 bebd bb01 9a3d 18b8 8dbd 1993 a23d
00000390: 8e01 98bc ea9f 7dbd 514f 34bb 53fa 863d
000003a0: fe3f a23c 562c 09be 2665 b83c 2676 acbd
000003b0: 9f41 bdbd 5c0b 57bd c430 adbc 8cb0 c5bd
000003c0: 26d3 bc3d 916e ec3c da62 3abc 34b2 d33d
000003d0: 9be0 0fbe cb24 02bd a462 babd 60e9 68bc
000003e0: ea2b 92bd faf4 fe3c a858 a6bd 9272 8dbd
000003f0: ebfe efbc 91cc 82bd b8d0 04b9 a51f 85bd

actor.4.bias f4 [128]
0.0678423 0.070980005 0.005807528 0.04060444 0.06645982 -0.050944634 -0.018513959 -0.04166997
-0.00073702383 -0.031403758 -0.017959036 -0.047799304 0.00516124 -0.06549564 0.017038982 -0.036555137
-0.023026804 0.044505447 -0.024064418 0.03087229 -0.048805077 -0.040816844 0.05187584 0.00073435524
0.06481974 -0.047290925 -0.05674314 -0.035538502 -0.075097285 0.03609994 0.061509717 0.022522544
0.023533123 -0.0017097517 0.092012696 0.08379321 -0.04033368 -0.004709108 -0.059347626 0.032720413
0.015850557 -0.027245604 0.008683529 -0.0027796254 0.049937915 0.020704262 -0.055334892 0.0005765098
-0.01196915 -0.044638354 -0.035676125 0.006614307 0.032421194 0.00083394814 0.07612323 -0.05166307
-0.050507892 -0.05228174 -0.061469786 0.08168394 -0.037764497 -0.041641906 0.054421674 0.08172187
0.050603867 -0.020132504 -0.04399546 0.038775556 -0.0064518834 -0.059610646 -0.0035897582 0.018325353
0.039077006 -0.010621001 -0.003120632 -0.047004126 0.08343344 0.024420673 0.07726077 -0.04298398
-0.044785816 -0.00814755 -0.011133412 0.052092977 -0.016677734 0.052894138 0.04676639 -0.04153427
-0.05267183 -0.04664554 -0.019096676 -0.06927977 -0.04323004 0.02808728 0.010485716 0.014087611
-0.059300233 0.058394294 -0.03658678 0.020329185 -0.0045392197 0.006599062 0.04180613 0.014240673
-0.0070422096 0.051239748 0.0007591286 0.029649723 0.025890654 0.028285565 -0.030206254 -0.049071867
-0.08807436 0.01213798 0.061044928 0.032436512 0.03410055 -0.020668563 -0.042657577 -0.07126507
-0.02748735 0.04312036 0.040678017 0.044667266 0.05150912 0.058134202 -0.0063143214 -0.035083354
00000000: e7f0 8a3d f75d 913d 134d be3b d750 263d
00000010: 161c 883d 52ab 50bd 96aa 97bc 21ae 2abd
00000020: d534 41ba 3aa1 00bd d41e 93bc 34c9 43bd
00000030: 9f1f a93b 9422 86bd 5695 8b3c d7ba 15bd
00000040: b5a2 bcbc 584b 363d be22 c5bc e2e7 fc3c
00000050: d5e7 47bd 902f 27bd c37b 543d bf81 403a
00000060: 36c0 843d 21b4 41bd 7f6b 68bd d290 11bd
00000070: 9bcc 99bd 88dd 133d 9df1 7b3d 3381 b83c
00000080: 89c8 c03c bf19 e0ba 2771 bc3d c69b ab3d
00000090: ee34 25bd dc4e 9abb 7f16 73bd d705 063d
000000a0: 07d9 813c 2c32 dfbc 5c45 0e3c 602a 36bb
000000b0: b38b 4c3d fc9b a93c d7a6 62bd eb20 173a
000000c0: 411a 44bc b5d6 36bd 2121 12bd d4bc d83b
000000d0: 16cc 043d 509d 5a3a 7fe6 9b3d a89c 53bd
000000e0: 5de1 4ebd 6125 56bd bec7 7bbd e949 a73d
000000f0: f2ae 1abd b490 2abd 43e9 5e3d cc5d a73d
00000100: 0046 4f3d ecec a4bc 9534 34bd 1ed3 1e3d
00000110: 526a d3bb 4b2a 74bd 2642 6bbb 0d1f 963c
00000120: 360f 203d b503 2ebc 8483 4cbb 6687 40bd
00000130: 27df aa3d dd0d c83c e53a 9e3d f80f 30bd
00000140: 5571 37bd 4d7d 05bc ea68 36bc 725f 553d
00000150: be9f 88bc 86a7 583d 1d8e 3f3d d71f 2abd
00000160: 6bbe 57bd 650f 3fbd a270 9cbc 8de2 8dbd
00000170: fc11 31bd 4c17 e63c 48cc 2b3c b9cf 663c
00000180: cde4 72bd db2e 6f3d 05dc 15bd 6489 a63c
00000190: bcbd 94bb f23c d83b e83c 2b3d b651 693c
000001a0: 56c2 e6bb c5e0 513d 4200 473a fae3 f23c
000001b0: a318 d43c 21b7 e73c 1b73 f7bc 95ff 48bd
000001c0: 5460 b4bd 61de 463c 3f0a 7a3d 26dc 043d
000001d0: 05ad 0b3d 1e51 a9bc b6b9 2ebd 6cf3 91bd
000001e0: 272d e1bc f99e 303d fe9d 263d 06f5 363d
000001f0: 3afb 523d 211e 6e3d 5ee8 cebb 90b3 0fbd

actor.7.weight f4 [128, 128]
-0.10261147 0.049756277 -0.13633962 -0.054572985 -0.043215826 0.06287421 -0.0025307925 -0.06432693
-0.043284312 0.0813666 0.014896608 -0.025394304 0.10709398 0.017808441 0.06133567 0.059073377
-0.022604477 -0.066648684 0.014253364 -0.019927712 0.10571724 -0.041542716 0.04229022 0.028267598
-0.04715814 0.08751049 0.049265586 -0.004572624 0.004571303 -0.049916435 0.14742345 0.037951097
0.086990766 -0.023593513 -0.06994905 -0.08819489 -0.08994082 -0.0029331816 0.05147421 0.04729116
0.035574924 0.04598337 -0.09921232 -0.045121647 0.026222132 -0.04318131 -0.049873713 0.013361835
-0.08534063 -0.05736543 -0.045626882 0.009005169 -0.08810319 -0.023756543 -0.049915556 -0.08564707
-0.035432644 -0.012669509 0.008353903 -0.09909873 0.015462866 -0.029162284 0.05556834 -0.10379528
0.06542325 -0.06609583 -0.041104093 0.05903417 -0.059153587 -0.0032661129 0.015688002 0.06707052
-0.06960377 -0.0051388172 -0.024163155 0.008972648 -0.032296382 0.036397003 0.018114358 -0.07821706
-0.0571864 -0.053501595 -0.026136264 0.036481924 0.104850486 0.09847328 0.023503259 -0.108165
-0.0727603 0.058915004 0.0078796 -0.011250025 0.055517998 0.07745066 0.0750866 -0.06945841
0.02159058 0.05623293 0.08384075 -0.015450796 0.012679616 -0.008096007 0.007610514 -0.0096579455
-0.0015876279 -0.058774672 -0.016987689 0.017553862 0.03366493 0.06855236 -0.029020716 0.09050267
0.0028894 0.008147896 -0.023577163 0.012090768 -0.101153895 -0.05383978 -0.07922448 0.016238043
0.034539297 0.058987003 -0.11462324 -0.03610188 0.011688254 0.054813962 0.10683173 -0.0014310018
-0.021476327 0.10555261 0.08589819 -0.050221097 0.018241497 -0.015209463 0.050439194 -0.006899606
-0.0010551334 0.036899626 0.015193984 -0.0186869 -0.06284667 0.020556508 -0.10844317 0.07272961
0.019317418 -0.037751988 0.068405524 -0.028218752 0.030422566 0.020372199 0.00020586285 -0.075086035
0.0071899993 0.051614694 0.046748027 -0.029058108 -0.08053824 0.08491056 -0.018355673 -0.02906412
-0.08736544 -0.031335674 -0.046243258 0.023944724 0.034682117 -0.12782203 0.09266174 -0.038520623
-0.047423802 -0.04682384 0.1032675 -0.1081086 0.024912897 0.016190125 0.0649041 0.045733448
0.043445166 -0.016575454 0.02240044 0.015563315 -0.013280676 0.0271799 0.110130504 0.08584237
-0.042269375 0.016188405 -0.008556582 -0.05565529 -0.010203834 -0.02711247 -0.04841708 -0.009664501
-0.0466827 -0.014918932 0.116540544 -0.06424788 0.061499774 0.03890379 -0.002628583 -0.064557105
0.05542222 0.02107159 0.05657827 0.08311952 0.09735093 -0.034809615 0.0253139 0.0335315
0.06367969 0.00013694292 0.059618704 0.07296354 -0.0878993 -0.06283171 0.017629657 0.05607481
-0.064098716 -0.0032626626 0.0036563212 -0.055067662 0.023343954 -0.050464347 0.03354473 0.0016871899
-0.02148984 0.10236706 -0.050363973 -0.0155519135 0.065592766 -0.052902434 0.066352494 -0.11920207
0.0004635409 0.07728042 -0.042798337 0.057464927 0.018098366 -0.0939483 -0.03019897 -0.059682164
-0.04808903 0.08634158 -0.04673084 -0.09652557 -0.065988325 -0.088367075 -0.09995121 -0.04613434
-0.03837992 -0.0025203738 0.11241746 -0.014028287 0.01670983 0.024455136 0.019856751 0.046317015
00000000: f625 d2bd 3dcd 4b3d 9d9c 0bbe ec87 5fbd
00000010: 1403 31bd 32c4 803d a7db 25bb d6bd 83bd
00000020: e44a 31bd 88a3 a63d e710 743c b707 d0bc
00000030: 1754 db3d 02e3 913c 1d3b 7b3d edf6 713d
00000040: 062d b9bc 1b7f 88bd f186 693c 713f a3bc
00000050: 4882 d83d b228 2abd 8238 2d3d 7391 e73c
00000060: e528 41bd b338 b33d b6ca 493d f3d5 95bb
00000070: deca 953b 2d75 4cbd 2cf6 163e 9c72 1b3d
00000080: 3728 b23d 2f47 c1bc 7341 8fbd 869f b4bd
00000090: e532 b8bd 9f3a 40bb 9fd6 523d 60b4 413d
000000a0: 03b7 113d 0f59 3c3d d42f cbbd 7ad1 38bd
000000b0: cccf d63c e3de 30bd 6148 4cbd 99eb 5a3c
000000c0: 11c7 aebd 03f8 6abd 41e3 3abd 6b8a 133c
000000d0: 726f b4bd 159d c2bc 4174 4cbd bb67 afbd
000000e0: d221 11bd c693 4fbc cfde 083c 46f4 cabd
000000f0: f657 7d3c bee5 eebc a19b 633d 9f92 d4bd
00000100: a0fc 853d 405d 87bd c45c 28bd d0cd 713d
00000110: 084b 72bd 480c 56bb 2084 803c 455c 893d
00000120: 6c8c 8ebd 8663 a8bb cff1 c5bc 0302 133c
00000130: 3649 04bd 0615 153d 9064 943c 4430 a0bd
00000140: 493c 6abd 7d24 5bbd b81b d6bc 126e 153d
00000150: dabb d63d 5cac c93d e889 c03c 9d85 ddbd
00000160: 5a03 95bd dc50 713d 7019 013c 0652 38bc
00000170: d766 633d 749e 9e3d 01c7 993d 3640 8ebd
00000180: bade b03c 8054 663d b3b4 ab3d 5625 7dbc
00000190: 2abe 4f3c 1da5 04bc 9e61 f93b 5c3c 1ebc
000001a0: f417 d0ba b6bd 70bd c429 8bbc 1ecd 8f3c
000001b0: 3de4 093d 2e65 8c3d dabc edbc 7759 b93d
000001c0: 175c 3d3b c17e 053c e524 c1bc 5b18 463c
000001d0: c629 cfbd 1a87 5cbd 7240 a2bd a505 853c
000001e0: 1479 0d3d 5b9c 713d 97bf eabd 91df 13bd
000001f0: 1780 3f3c 9b84 603d 98ca da3d 7490 bbba
00000200: 1fef afbc f72b d83d 64eb af3d a3b4 4dbd
00000210: 316f 953c 1d31 79bc 5499 4e3d 1716 e2bb
00000220: 674c 8aba 1024 173d 30f0 783c 4515 99bc
00000230: c1b5 80bd 1f66 a83c 7417 debd 43f3 943d
00000240: 903f 9e3c d4a1 1abd 3218 8c3d 032b e7bc
00000250: bf38 f93c 99e3 a63c e3dc 5739 b5c6 99bd
00000260: 169a eb3b ee69 533d dc7a 3f3d 450b eebc
00000270: 3cf1 a4bd 96e5 ad3d a35e 96bc e117 eebc
00000280: a7ec b2bd d659 00bd 9269 3dbd ba27 c43c
00000290: d60e 0e3d c7e3 02be 70c5 bd3d cdc7 1dbd
000002a0: 763f 42bd 5bca 3fbd e97d d33d 0b68 ddbd
000002b0: 2216 cc3c 27a1 843c 71ec 843d ff52 3b3d
000002c0: 8ff3 313d 3fc9 87bc 2181 b73c 46fd 7e3c
000002d0: 3197 59bc 62a8 de3c 1a8c e13d 20ce af3d
000002e0: a722 2dbd 8c9d 843c e830 0cbc cdf6 63bd
000002f0: fb2d 27bc f81a debc fd50 46bd db57 1ebc
00000300: 5c36 3fbd 896e 74bc cfac ee3d 6494 83bd
00000310: 30e7 7b3d 9559 1f3d 4e44 2cbb 8436 84bd
00000320: 6902 633d 549e ac3c 9ebe 673d 913a aa3d
00000330: ed5f c73d 8794 0ebd 195f cf3c 5358 093d
00000340: 7f6a 823d 5698 0f39 be32 743d e96d 953d
00000350: 8c04 b4bd e9ad 80bd 126c 903c b3ae 653d
00000360: 3046 83bd 65d2 55bb e49e 6f3b a18e 61bd
00000370: d23b bf3c b4b3 4ebd 3366 093d b324 dd3a
00000380: 760b b0bc d2a5 d13d 744a 4ebd 74cd 7ebc
00000390: 8055 863d 39b0 58bd d1e3 873d 3720 f4bd
000003a0: 6807 f339 3245 9e3d 4f4d 2fbd 5860 6b3d
000003b0: 0643 943c f767 c0bd d563 f7bc 4975 74bd
000003c0: 01f9 44bd dbd3 b03d d668 3fbd 33af c5bd
000003d0: e324 87bd ccf9 b4bd 38b3 ccbd 5df7 3cbd
000003e0: 4334 1dbd db2c 25bb 203b e63d e6d6 65bc
000003f0: 0ee3 883c 2356 c83c a0aa a23c e9b6 3d3d

actor.7.bias f4 [128]
-0.022328883 0.00117006 -0.025757957 0.01036324 -0.02662 0.0023450165 0.012990557 0.042725496
-0.0027934713 0.031709734 -0.022973202 0.010288277 -0.033674724 0.051228203 -0.004555996 0.03485423
-0.027379489 0.04555604 -0.003126601 0.042263195 0.030496486 -0.014626121 0.00716036 0.028689248
0.022394313 -0.0045879916 0.02729413 -0.031849973 0.006136497 0.040215775 0.019041887 0.01481968
-0.02075626 0.027876103 0.0064440602 0.044926234 0.011465647 0.041810002 0.037129086 -0.02586418
-0.01369694 0.006322085 -0.0050207344 -0.012766145 0.049148586 -0.019503416 -0.006663353 -0.01727231
-0.032577176 0.032838013 -0.01614746 -0.026800731 -0.02543363 -0.017897084 0.003233684 0.011702997
-0.044060323 -0.049665578 -0.027218465 0.028042467 0.02922131 0.012761358 -0.0022017576 -0.013201077
-0.007225147 0.004211296 -0.044141367 -0.00048222576 -0.025163852 0.0053986814 -0.030088743 0.0025182415
-0.0018179292 -0.011853089 -0.02490147 -0.003087813 0.02065789 -0.007951503 0.002771579 -0.007965178
-0.01814779 -0.0027240221 0.008431422 -0.010332039 0.01484039 -0.017301193 -0.018220438 -0.027335122
-0.012385758 -0.019414065 0.045484066 0.02637239 0.03028561 -0.030843109 -0.047464795 -0.022537073
-0.0048570437 -0.00013287128 -0.052252624 0.013523657 -0.0011276964 0.039366826 0.053061947 -0.016404917
-0.0074795815 0.021102322 -0.04235227 0.02718089 -0.04455377 0.021938933 -0.028859153 0.016011333
0.016077384 0.00178674 0.019585371 0.014631305 0.018135883 -0.03696367 -0.002814448 0.03351643
-0.001780295 -0.0030314368 -0.044124823 -0.0048065623 0.04155943 -0.04101746 -0.043954518 -0.008821371
00000000: 10eb b6bc b35c 993a 5a02 d3bc 94ca 293c
00000010: 3012 dabc d9ae 193b 58d6 543c ee00 2f3d
00000020: ac12 37bb 11e2 013d 4c32 bcbc 2990 283c
00000030: 82ee 09bd aad4 513d 774a 95bb 4fc3 0e3d
00000040: f34a e0bc f898 3a3d a9e7 4cbb 2c1c 2d3d
00000050: c4d3 f93c 66a2 6fbc 74a1 ea3b b705 eb3c
00000060: 4774 b73c dd56 96bb f097 df3c 1e75 02bd
00000070: ab14 c93b 4cb9 243d bbfd 9b3c 3ece 723c
00000080: 0809 aabc 6d5c e43c b228 d33b 9204 383d
00000090: 69da 3b3c f740 2b3d ab14 183d 1ee1 d3bc
000000a0: 2169 60bc 7e29 cf3b f984 a4bb 1829 51bc
000000b0: 0750 493d a1c5 9fbc 4258 dabb a97e 8dbc
000000c0: a56f 05bd 2781 063d ae47 84bc 358d dbbc
000000d0: 305a d0bc e89c 92bc 37ec 533b edbd 3f3c
000000e0: 9978 34bd 226e 4bbd 42f9 debc 51b9 e53c
000000f0: 8761 ef3c 0415 513c 5d4b 10bb 5449 58bc
00000100: edc0 ecbb e9fe 893b 94cd 34bd 3fd3 fcb9
00000110: 6c24 cebc 6ce7 b03b ab7c f6bc 1509 253b
00000120: 9547 eeba 7533 42bc 2bfe cbbc e85c 4abb
00000130: bc3a a93c 0547 02bc 61a3 353b 6180 02bc
00000140: adaa 94bc 8285 32bb f223 0a3c b647 29bc
00000150: 1b25 733c 3bbb 8dbc 0743 95bc e8ed dfbc
00000160: a2ed 4abc 3f0a 9fbc 804d 3a3d e90a d83c
00000170: 8719 f83c b0aa fcbc 726a 42bd ab9f b8bc
00000180: d627 9fbb 5d53 0bb9 d906 56bd 5492 5d3c
00000190: 36cf 93ba 1c3f 213d 7c57 593d 9b63 86bc
000001a0: 4717 f5bb c7de ac3c 9379 2dbd 75aa de3c
000001b0: 047e 36bd 47b9 b33c 086a ecbc 332a 833c
000001c0: b8b4 833c 0c31 ea3a 8071 a03c 24b8 6f3c
000001d0: b491 943c 3867 17bd 9a72 38bb 8648 093d
000001e0: ca58 e9ba 12ab 46bb 3bbc 34bd 5e80 9dbb
000001f0: 393a 2a3d ed01 28bd a709 34bd 8387 10bc

actor.10.weight f4 [1, 128]
-0.012763451 0.011204648 -0.012557937 -0.012616422 -0.013514818 0.011182943 -0.007604293 0.011561005
0.009844904 0.010868447 0.0135288425 -0.012027256 -0.010045119 0.010876358 -0.016201368 0.004616867
0.014562369 0.013956622 0.014859054 0.013656693 0.0083123045 -0.014181044 -0.0142196175 0.02145701
0.019769177 -0.014195981 0.010076987 0.018414838 0.012868233 -0.012092923 0.011529939 0.013963668
0.010344428 -0.013404849 -0.010742663 0.010806235 0.0151928775 0.008187427 -0.01183776 0.015846806
-0.010555618 -0.0071910233 -0.010872883 0.007194179 0.008219364 0.007574221 0.010448025 -0.0093894815
0.011244217 -0.009600684 -0.010760476 0.01575065 -0.009519426 -0.007470658 0.012547837 -0.017233584
-0.00773104 0.0126560675 -0.012409055 0.0059603634 -0.011228865 -0.004628984 0.00019185168 -0.007242329
-0.015521056 0.010958299 0.011801559 0.008755926 -0.016104452 -0.009462436 -0.009849314 0.014327253
0.012784596 -0.016490059 -0.010331875 0.0061185504 -9.169041e-05 -0.008628888 -0.012905451 0.011894121
-0.009913547 0.016010035 0.011343348 -0.014858359 -0.018518068 -0.013873147 -0.014009377 -0.0112217665
-0.010089586 0.009970509 0.0054325876 0.011008641 -0.010730831 -0.007305645 -0.014290798 -0.008478031
0.016393524 -0.017631063 -0.01202974 0.0074020145 -0.013339854 0.01735565 -0.007611262 0.0074040624
-0.019809818 0.007033392 -0.013518948 0.0046219355 -0.0037303742 -0.01261815 0.011183454 -0.013939718
-0.005968691 0.0066755884 0.01257015 -0.0082262345 0.013183031 -0.014184508 0.010911175 -0.014729089
0.0083318865 0.011803703 -0.017307937 0.009599104 0.00729756 -0.017266015 -0.010386619 0.009606973
00000000: cb1d 51bc b393 373c cebf 4dbc 1cb5 4ebc
00000010: 416d 5dbc aa38 373c 6f2d f9bb 5f6a 3d3c
00000020: 854c 213c 9211 323c 14a8 5d3c f80d 45bc
00000030: 4894 24bc c032 323c bbb8 84bc 1649 973b
00000040: 0197 6e3c 51aa 643c 6473 733c 52c0 5f3c
00000050: 5530 083c 9c57 68bc 66f9 68bc 9dc6 af3c
00000060: f8f2 a13c 4396 68bc f219 253c b7da 963c
00000070: 48d5 523c 6521 46bc 12e8 3c3c dec7 643c
00000080: ad7b 293c 03a0 5bbc ff01 30bc a20c 313c
00000090: 8ceb 783c 8f24 063c 2af3 41bc 29d1 813c
000000a0: 79f1 2cbc ada2 ebbb 2d24 32bc 26bd eb3b
000000b0: 83aa 063c 2c31 f83b 312e 2b3c 57d6 19bc
000000c0: aa39 383c 304c 1dbc b54c 30bc 8207 813c
000000d0: 5ef7 1bbc 6ccc f4bb 7195 4d3c 722d 8dbc
000000e0: aa54 fdbb 655b 4f3c 594f 4bbc 274f c33b
000000f0: 46f9 37bc bbae 97bb cb2b 4939 0f51 edbb
00000100: 074c 7ebc 708a 333c 535b 413c 0475 0f3c
00000110: 7ced 83bc 5508 1bbc 045f 21bc dbbc 6a3c
00000120: 7b76 513c 2916 87bc 0647 29bc 1f7e c83b
00000130: ea49 c0b8 2e60 0dbc 6271 53bc 8fdf 423c
00000140: 6e6c 22bc 7a27 833c 73d9 393c 7970 73bc
00000150: 34b3 97bc 324c 63bc 9687 65bc 80db 37bc
00000160: ca4e 25bc 595b 233c d903 b23b 965d 343c
00000170: 5ed0 2fbc 3164 efbb f423 6abc 70e7 0abc
00000180: b64b 863c 056f 90bc 6318 45bc 998c f23b
00000190: 678f 5abc 702d 8e3c e567 f9bb c79d f23b
000001a0: 3348 a2bc 5e78 e63b 947e 5dbc 9b73 973b
000001b0: 4b79 74bb 5bbc 4ebc ce3a 373c 6a63 64bc
000001c0: 0295 c3bb e5be da3b 08f3 4d3c 54c7 06bc
000001d0: a4fd 573c 2366 68bc c9c4 323c 4752 71bc
000001e0: 7782 083c 5264 413c 60c9 8dbc 8f45 1d3c
000001f0: 5f20 ef3b 7571 8dbc a32c 2abc 9166 1d3c

critic.0.weight f4 [128, 6]
-0.67317253 0.07018098 0.047857534 -0.05923656 -0.2495654 -0.15008558 -0.25318736 0.010725557
0.26522452 -0.29636547 0.09726674 0.14323327 0.29328996 -0.23381305 0.20008288 0.20767556
-0.41247508 0.38332814 -0.1155197 0.36165345 0.12486353 0.051677674 -0.2281685 -0.3653136
-0.009690172 -0.25500157 0.41131753 0.11594515 -0.045059763 -0.15827486 -0.34116888 0.1507346
0.32522884 -0.09862557 0.3055509 0.09507203 -3.6019359 -0.3368772 0.15339272 0.49446297
-0.6161528 2.203772 0.6750756 -0.056533784 -0.24165975 -0.082744 0.44998106 -0.3193669
-0.3347992 0.026925486 0.3536328 0.40132442 -0.08181952 0.29183036 0.24204685 0.22369228
0.21657513 -0.50200325 0.32540724 0.11800393 -0.1795571 -0.23091808 0.31399858 0.12455395
-0.01409425 0.39393204 -1.0033677 -0.15832035 0.20979387 0.37905887 -0.24364096 1.2183836
0.43579248 -0.0036158813 0.20746897 0.32418272 -0.25043204 -0.39966142 0.0984313 -0.08845415
-0.034794245 0.31795454 -0.20659955 -0.19839272 0.35528764 -0.057725947 -0.012659457 -0.07593717
0.29662633 -0.109946445 0.209184 0.012220546 -0.2818322 0.0034706616 -0.03761477 -0.23857884
0.41798162 0.16057885 -0.22738723 -0.060220547 0.16684808 0.14246291 0.38861358 -0.3683808
0.20461673 -0.29436767 0.21592793 0.050290797 0.0051608193 -0.12504941 -0.018203674 0.016485225
-0.09409147 -0.25958404 0.123529315 0.08051139 0.040046442 0.07048062 -0.009817307 -0.07837447
2.5609257 0.0065699453 0.07799545 -0.6022414 1.0497477 -1.9515468 -0.34067544 -0.22252671
-0.13124843 -0.34195712 -0.16735639 0.1838214 0.11398413 0.13649455 -0.1572814 -0.12924045
0.41184473 -0.321652 -0.545979 -0.28047732 0.043532576 0.29125786 -0.33206648 0.14185125
0.4203193 -0.10441304 -0.14133568 0.539007 0.5171809 -0.45686698 -3.6732602 -0.09718179
-0.1518261 0.66400915 -0.7409126 2.3303506 0.33895335 -0.23491774 0.088017434 0.012826881
-0.12250477 0.36580697 0.25752738 0.10743311 -0.03571725 0.07151062 0.13731493 -0.23817444
0.23300433 0.22780012 0.19097906 0.061942305 -0.30135325 -0.0943204 0.08200367 0.119858995
-0.09694695 0.4626457 -0.24363312 -0.114606746 -0.08008132 0.29125154 -0.165155 0.13395065
-0.2159666 -0.11544542 -0.1709294 0.07808232 -0.17352408 -0.41623917 -0.33486772 -0.28516197
0.46490404 -0.2908585 -0.10061894 -0.20824957 0.17117964 -0.013058925 -0.24475156 0.06248648
0.0078051356 -0.38938102 0.46744987 -0.106981516 -0.33264965 0.1434297 0.21522371 0.6147499
0.07313573 0.14776815 1.8897411 0.40383506 -0.22966723 -0.34836298 0.53981364 -0.9905401
-0.33032382 -0.10460214 -0.15137772 0.15603076 0.2944578 -0.05515135 -0.43503866 -0.31964612
0.21963161 0.20232718 -0.23361617 -0.21189901 -0.3102689 -0.2151433 -0.20041658 -0.2864311
0.0058207386 0.28305152 0.040687412 -0.1879247 0.018836116 -0.07292244 0.041703995 -0.32345706
0.4011762 -0.10907154 0.22887582 -0.021929825 0.3090224 -0.33452126 -0.17165872 -0.2785268
0.030050019 0.22844458 0.35028994 0.10229325 0.7995378 -0.08436793 0.29316333 -0.1891941
00000000: 0955 2cbf 0cbb 8f3d 4306 443d 09a2 72bd
00000010: 128e 7fbe 09b0 19be c6a1 81be 3fba 2f3c
00000020: 82cb 873e 37bd 97be c933 c73d beab 123e
00000030: 1a2a 963e b06c 6fbe 87e2 4c3e e7a8 543e
00000040: ef2f d3be 9643 c43e 9895 ecbd a42a b93e
00000050: 73b8 ff3d f8ab 533d 01a5 69be 620a bbbe
00000060: 87c3 1ebc 918f 82be 3698 d23e a774 ed3d
00000070: 9690 38bd ce12 22be b0ad aebe 2c5a 1a3e
00000080: 6584 a63e 34fc c9bd 2b71 9c3e 20b5 c23d
00000090: 1e86 66c0 2b7b acbe fb12 1d3e 402a fd3e
000000a0: 31bc 1dbf 9a0a 0d40 c1d1 2c3f f88f 67bd
000000b0: a775 77be b075 a9bd eb63 e63e 0f84 a3be
000000c0: cd6a abbe d692 dc3c 5c0f b53e 657a cd3e
000000d0: fe90 a7bd ca6a 953e 21db 773e 970f 653e
000000e0: dfc5 5d3e 4983 00bf c79b a63e 0bac f13d
000000f0: d1dd 37be ca75 6cbe 6cc4 a03e 2416 ff3d
00000100: 92eb 66bc 76b1 c93e 5a6e 80bf bb1e 22be
00000110: 34d4 563e 0114 c23e 047d 79be fef3 9b3f
00000120: 3120 df3e 6cf8 6cbb bf72 543e 47fb a53e
00000130: a138 80be 6ca0 ccbe 5996 c93d 7327 b5bd
00000140: 6984 0ebd f0ca a23e d58e 53be 7627 4bbe
00000150: 43e8 b53e 0b72 6cbd 9c69 4fbc f284 9bbd
00000160: 68df 973e 9a2b e1bd 5534 563e af38 483c
00000170: 4f4c 90be 0a74 633b f211 1abd 034e 74be
00000180: b001 d63e c86e 243e 33d8 68be d2a9 76bd
00000190: 39da 2a3e cce1 113e 5cf8 c63e 699c bcbe
000001a0: 0c87 513e 5cb7 96be 361c 5d3e b9fd 4d3d
000001b0: 171c a93b f40c 00be df1f 95bc 060c 873c
000001c0: 07b3 c0bd 33e8 84be f0fc fc3d 28e3 a43d
000001d0: bd07 243d 2558 903d c5d8 20bc cb82 a0bd
000001e0: 35e6 2340 b248 d73b 14bc 9f3d 7e2c 1abf
000001f0: 225e 863f 49cc f9bf 036d aebe 0bde 63be
00000200: fd65 06be 0115 afbe 795f 2bbe ad3b 3c3e
00000210: 8370 e93d 3ac5 0b3e 600e 21be 9c57 04be
00000220: 50dd d23e 92af a4be 48c5 0bbf b99a 8fbe
00000230: 374f 323d c01f 953e 9e04 aabe 7441 113e
00000240: 1734 d73e 81d6 d5bd 4dba 10be 5dfc 093f
00000250: f865 043f 78ea e9be b216 6bc0 3f07 c7bd
00000260: 4d78 1bbe 81fc 293f 73ac 3dbf 7724 1540
00000270: 4b8b ad3e 478e 70be 7c42 b43d d727 523c
00000280: c8e3 fabd 0d4b bb3e a1da 833e e405 dc3d
00000290: 404c 12bd 2974 923d 499c 0c3e 00e4 73be
000002a0: b098 6e3e 6f44 693e 0490 433e 37b7 7d3d
000002b0: f94a 9abe 0e2b c1bd 8af1 a73d a278 f53d
000002c0: 1f8c c6bd e6df ec3e f67a 79be f1b6 eabd
000002d0: ad01 a4bd ec1e 953e 641e 29be 5c2a 093e
000002e0: 5926 5dbe a66e ecbd 1e08 2fbe a0e9 9f3d
000002f0: 4cb0 31be 4d1d d5be c873 abbe c000 92be
00000300: e707 ee3e 68eb 94be 4e11 cebd 603f 55be
00000310: b749 2f3e 1af5 55bc 27a0 7abe d3f1 7f3d
00000320: 39c2 ff3b f35c c7be 9755 ef3e 2019 dbbd
00000330: 0e51 aabe 3cdf 123e 9b63 5c3e 4060 1d3f
00000340: 30c8 953d 8950 173e 09e3 f13f 78c3 ce3e
00000350: e32d 6bbe a25c b2be 3a31 0a3f 0994 7dbf
00000360: 3420 a9be a639 d6bd c302 1bbe 87c6 1f3e
00000370: 2cc3 963e 62e6 61bd 63bd debe a8a8 a3be
00000380: 1ce7 603e db2e 4f3e 1439 6fbe 0efc 58be
00000390: 91db 9ebe 864e 5cbe 013a 4dbe 19a7 92be
000003a0: e5bb be3b 21ec 903e d8a7 263d 556f 40be
000003b0: 334e 9a3c 5c58 95bd cfd1 2a3d 2a9c a5be
000003c0: f866 cd3e e660 dfbd 6c5e 6a3e 2da6 b3bc
000003d0: 2f38 9e3e 5f46 abbe 4ec7 2fbe 119b 8ebe
000003e0: 752b f63c 60ed 693e 3459 b33e 207f d13d
000003f0: 82ae 4c3f 18c9 acbd 8119 963e 19bc 41be
