PPO/PPO4_Trained/PPO_DoubleInvPendulum_600K.pth (torch, 410281 bytes, 18 tensors)

actor.0.weight f4 [128, 6]
0.73907506 -0.0905439 0.12348405 0.84399426 0.7190627 -0.50718606 -0.5106961 0.18827663
0.243718 0.044241287 -0.5629374 -0.20535423 -0.26591548 -0.07256064 -0.10337363 -0.39361432
-0.36545622 0.09233921 -1.0865945 0.3221908 -0.24528298 -0.2972545 -0.7658683 0.6161817
-0.91219205 0.22415498 -0.24707079 -0.30535758 -1.0391182 0.48358116 -1.0747321 0.107152924
0.14013724 -0.6604131 -0.6357121 0.02961661 0.60138667 0.12967196 -0.14895912 0.045336716
0.6500317 -0.73544407 0.59944355 0.16573709 0.3156901 0.61218256 0.62280303 -0.38179168
0.7497433 0.22890021 -0.15453102 0.45757246 0.38560015 0.20181437 -0.638193 0.14101608
-0.09195834 -0.40637943 -0.049887948 -0.24361525 0.7173617 0.19872548 0.0009888896 0.6251758
1.2188332 -0.7396691 -1.1115404 -0.24354464 0.37319872 -0.05322159 -1.1021821 0.6079707
0.6976193 -0.37951508 0.12525204 0.5861429 0.39842367 0.015466808 0.089274086 -0.20379576
-0.30273303 0.6079148 -0.26259363 0.44085938 -0.043664515 -0.18133524 0.30917266 0.027432725
-0.3704871 -0.104959145 -0.13250269 0.33310804 0.04779049 -0.40059745 -0.7918557 0.029126784
1.3148345 0.31080207 -0.10249227 0.5739968 0.6960704 -0.35667676 -0.69767576 0.20201668
-0.2611324 -0.23406406 -1.1698679 0.42588454 -0.45967513 -0.22354862 0.2890013 0.19044252
-0.21005747 0.38632256 -0.37635446 -0.036421344 0.14322898 -0.44174072 -0.09113278 -0.028347315
0.6546716 0.3337517 -0.1527262 0.56007427 0.95666504 -0.6162715 -1.2225538 0.35352632
-0.23143972 -0.63324314 -0.92042565 0.78436095 1.2492299 0.32229358 0.054394554 0.53770494
1.082084 -0.5456876 0.22726876 0.24152291 -0.26479718 -0.038377445 1.0148432 -0.33662084
1.1464661 -0.055042706 -0.3603679 0.7967286 0.84425557 -0.76182264 -0.006465482 0.19678457
0.14597617 -0.17725083 -0.40603116 0.22662568 -0.84706503 -0.015588826 -0.12908067 -0.0496979
-0.83134824 0.17317721 0.2917506 -0.07714508 -0.12414831 0.377486 0.17613815 0.027671773
0.29750946 0.059803303 -0.34708974 0.62415946 0.49742815 -0.28499806 -1.2076077 0.18286645
-0.31729034 -0.51163363 -0.47036976 0.44725606 0.5593201 0.21795556 0.07155737 -0.0028437134
0.64287025 -0.71255887 1.0567923 -0.3380521 0.19285572 0.16807297 0.5280352 -0.20372485
1.4131986 0.35208014 0.01425637 0.57137644 1.1505169 -1.0346798 0.99732196 -0.29175225
0.37062088 0.7938715 0.9919961 -0.43077853 -0.971251 -0.11612579 0.085082434 -0.50843346
-1.1922668 0.3244828 -0.9547849 -0.2277006 0.26479915 -0.7079912 -0.6789569 0.3154289
0.30097145 -0.15520504 -0.27259687 0.53372353 0.063628286 -0.11571759 0.86915964 -0.15696423
0.010425582 0.45067027 0.34388036 -0.45994723 -0.76255107 0.058027506 -0.1923888 -0.7026893
-0.3561751 0.1001949 0.31451052 -0.16590825 -0.105242096 0.016958423 -0.042440526 0.0779866
-0.8545037 -0.0048571094 -0.15352297 -0.8254178 -0.7691446 0.4824543 -0.93896776 0.0056440323
-0.041059744 0.16121268 -1.1705724 0.228015 0.54122114 0.062723584 -0.08928621 0.27570978
00000000: 0634 3d3f 156f b9bd 35e5 fc3d 0210 583f
00000010: 7e14 383f f2d6 01bf fbbc 02bf 97cb 403e
00000020: 3691 793e 5a36 353d aa1c 10bf 6148 52be
00000030: 1326 88be ac9a 94bd 8eb5 d3bd d187 c9be
00000040: 141d bbbe 571c bd3d 8715 8bbf 31f6 a43e
00000050: 762b 7bbe be31 98be f20f 44bf 15be 1d3f
00000060: 6b85 69bf e288 653e 2000 7dbe d457 9cbe
00000070: d301 85bf f397 f73e d290 89bf fe72 db3d
00000080: 2380 0f3e d510 29bf 07be 22bf 889e f23c
00000090: 7af4 193f bac8 043e bd88 18be feb2 393d
000000a0: 7a68 263f 1046 3cbf 2275 193f fcb6 293e
000000b0: 22a2 a13e ffb7 1c3f 0570 1f3f 337a c3be
000000c0: 2def 3f3f d164 6a3e 613d 1ebe f046 ea3e
000000d0: 626d c53e 6da8 4e3e 9e60 23bf 8566 103e
000000e0: a754 bcbd f710 d0be 4e57 4cbd 4776 79be
000000f0: 04a5 373f b17e 4b3e a19d 813a 850b 203f
00000100: ba02 9c3f f45a 3dbf f546 8ebf c463 79be
00000110: e713 bf3e e2fe 59bd 4e14 8dbf f8a3 1b3f
00000120: 2e97 323f cd4f c2be 1242 003e 760d 163f
00000130: 30fe cb3e 7f68 7d3c 55d5 b63d d6af 50be
00000140: d3ff 9abe 4ea0 1b3f ac72 86be 52b8 e13e
00000150: 90d9 32bd f2af 39be e14b 9e3e 98ba e03c
00000160: 7cb0 bdbe d2f4 d6bd c9ae 07be 238d aa3e
00000170: f6bf 433d 1c1b cdbe 0eb7 4abf 4b9b ee3c
00000180: 7f4c a83f 7321 9f3e 78e7 d1bd 74f1 123f
00000190: ab31 323f 569e b6be e19a 32bf 76dd 4e3e
000001a0: 25b3 85be 7dae 6fbe 3bbe 95bf 8a0d da3e
000001b0: 8a5a ebbe eee9 64be faf7 933e 5d03 433e
000001c0: 4e19 57be 12cc c53e 88b1 c0be 8c2e 15bd
000001d0: 9eaa 123e d72b e2be d3a3 babd a138 e8bc
000001e0: 8f98 273f 81e1 aa3e 4264 1cbe 0761 0f3f
000001f0: 00e8 743f f8c3 1dbf a57c 9cbf 6701 b53e
00000200: 89fe 6cbe 391c 22bf 04a1 6bbf e1cb 483f
00000210: c4e6 9f3f aa03 a53e d3cc 5e3d 08a7 093f
00000220: ba81 8a3f 2fb2 0bbf 24b9 683e c851 773e
00000230: 7f93 87be ab31 1dbd 62e6 813f 9159 acbe
00000240: 67bf 923f 7674 61bd 2482 b8be 68f6 4b3f
00000250: 2221 583f cf06 43bf 65dc d3bb e581 493e
00000260: c77a 153e 3e81 35be 51e3 cfbe 9010 683e
00000270: 41d9 58bf 4668 7fbc b92d 04be 0690 4bbd
00000280: 3dd3 54bf 5e55 313e 5660 953e 3dfe 9dbd
00000290: 7841 febd d845 c13e 8f5d 343e eaaf e23c
000002a0: 2953 983e 4ff4 743d bfb5 b1be eac8 1f3f
000002b0: e7ae fe3e 44eb 91be e492 9abf 5841 3b3e
000002c0: e173 a2be 6cfa 02bf 4ed4 f0be bffe e43e
000002d0: 9a2f 0f3f be2f 5f3e ac8c 923d 985d 3abb
000002e0: 2593 243f 426a 36bf f844 873f 2a15 adbe
000002f0: f87b 453e 521b 2c3e 512d 073f 3f9d 50be
00000300: b1e3 b43f d943 b43e 8d93 693c ba45 123f
00000310: 2344 933f 6370 84bf 7e50 7f3f 8d60 95be
00000320: 05c2 bd3e 2a3b 4b3f 75f3 7d3f 018f dcbe
00000330: e8a3 78bf 5cd3 edbd b33f ae3d b228 02bf
00000340: 339c 98bf 9c22 a63e c96c 74bf 592a 69be
00000350: c193 873e e93e 35bf 1fd0 2dbf e67f a13e
00000360: ee18 9a3e 12ee 1ebe d191 8bbe 1ba2 083f
00000370: 8c4f 823d 58fd ecbd 3f81 5e3f 3bbb 20be
00000380: 0fd0 2a3c 41be e63e 1611 b03e 347e ebbe
00000390: 8c36 43bf 40ae 6d3d 9201 45be 72e3 33bf
000003a0: 955c b6be fc32 cd3d 8607 a13e dae3 29be
000003b0: 2b89 d7bd 64ec 8a3c 1ed6 2dbd 70b7 9f3d
000003c0: c1c0 5abf 6328 9fbb 2035 1dbe 954e 53bf
000003d0: a9e6 44bf 4004 f73e 3160 70bf 93f1 b83b
000003e0: 432e 28bd f014 253e 51d5 95bf c47c 693e
000003f0: 788d 0a3f 3975 803d b0db b6bd d529 8d3e

actor.0.bias f4 [128]
-0.1925979 -0.07540435 0.36734793 0.033836186 0.14630994 0.2021745 -0.22218731 -0.19209874
0.21642119 0.256883 0.004594684 -0.082305565 0.20015022 -0.27046192 0.16970846 -0.2536628
0.2991295 0.10384893 -0.23331513 0.35325068 -0.2952409 -0.13398501 0.10682072 0.1208019
0.2799791 -0.27676785 -0.3221658 -0.11366382 0.17974247 -0.19659461 -0.030816337 0.17405955
-0.020870518 -0.14268407 0.042600345 -0.31502905 0.30888098 0.20082007 0.24990152 0.21861865
0.18175994 0.05606437 -0.08333378 -0.04047654 0.26082426 0.27345636 0.08392571 0.034510482
0.07450378 -0.27033767 0.105314024 0.101665966 0.0040527238 0.12099068 0.069440044 -0.105149895
-0.025189556 0.36683482 -0.15555899 0.30475357 0.17067075 -0.07536968 -0.1665116 -0.07213311
0.20736963 0.24058995 0.35960546 0.12064597 -0.01444569 0.0586279 -0.28563663 -0.32809755
-0.07845255 0.3504971 0.3322912 0.1923714 -0.15296035 -0.0057767937 -0.14094329 0.14369768
0.3618438 -0.2799622 -0.3509502 -0.10041185 0.43213782 0.24321823 0.055099927 0.33892143
0.27483568 0.19163938 -0.17411113 -0.3632938 -0.058394812 0.31464052 -0.41956663 0.161551
-0.26223394 -0.2235698 -0.2230376 0.17564692 0.27340943 0.21158108 -0.16975206 0.19814244
-0.14967251 -0.005243842 0.20667043 -0.11686528 -0.08296918 -0.20768343 -0.002721932 0.36972955
0.15145329 -0.23075372 0.21094999 -0.26467317 0.087259196 -0.24693374 -0.34291345 0.2284541
-0.083555 -0.045052346 0.108375326 -0.1382661 -0.29614958 -0.14090382 0.2970022 -0.1364949
00000000: 6238 45be 996d 9abd 0715 bc3e d097 0a3d
00000010: 46d2 153e d506 4f3e 1285 63be 88b5 44be
00000020: 849d 5d3e 2b86 833e 018f 963b d28f a8bd
00000030: 2ef4 4c3e fc79 8abe 0ec8 2d3e 17e0 81be
00000040: 8027 993e bfae d43d 29ea 6ebe 46dd b43e
00000050: d129 97be 5e33 09be d2c4 da3d fd66 f73d
00000060: 6c59 8f3e 84b4 8dbe eaf2 a4be 94c8 e8bd
00000070: 690e 383e 1950 49be 8b72 fcbc ab3c 323e
00000080: a6f8 aabc c61b 12be b37d 2e3d 7d4b a1be
00000090: a625 9e3e c7a3 4d3e 2fe6 7f3e 91dd 5f3e
000000a0: 471f 3a3e c1a3 653d e7aa aabd baca 25bd
000000b0: c28a 853e 7902 8c3e 3ee1 ab3d dd5a 0d3d
000000c0: 7095 983d b369 8abe e1ae d73d 3f36 d03d
000000d0: b6cc 843b f6c9 f73d 9536 8e3d d458 d7bd
000000e0: 545a cebc c6d1 bb3e db4a 1fbe a908 9c3e
000000f0: 50c4 2e3e 6b5b 9abd 0482 2abe 86ba 93bd
00000100: b458 543e 365d 763e 351e b83e 3c15 f73d
00000110: 9ead 6cbc cf23 703d f73e 92be 67fc a7be
00000120: bbab a0bd 5b74 b33e 1222 aa3e 02fd 443e
00000130: a3a1 1cbe 424b bdbb 7053 10be 7c25 133e
00000140: 9743 b93e 3557 8fbe bfaf b3be baa4 cdbd
00000150: 2b41 dd3e 330e 793e 76b0 613d 1c87 ad3e
00000160: 43b7 8c3e 1d3d 443e 304a 32be a501 babe
00000170: 662f 6fbd 9018 a13e 70d1 d6be a06d 253e
00000180: 8743 86be 7bef 64be f863 64be c9dc 333e
00000190: 52fc 8b3e b6a8 583e 7cd3 2dbe dae5 4a3e
000001a0: c043 19be 89d4 abbb 6aa1 533e 1057 efbd
000001b0: bfeb a9bd f7aa 54be 7162 32bb 314d bd3e
000001c0: 9216 1b3e b44a 6cbe 4603 583e 3e83 87be
000001d0: f3b4 b23d 33dc 7cbe 5a92 afbe dfef 693e
000001e0: e21e abbd cf88 38bd e2f3 dd3d a195 0dbe
000001f0: eba0 97be 1749 10be ac10 983e 52c5 0bbe

actor.2.weight f4 [128, 128]
-0.055632073 0.07928825 0.09386359 -0.07999305 0.03691602 -0.034185972 -0.02779761 0.013883575
-0.06605072 -0.019267669 0.041197993 0.011478346 -0.09118838 0.059067857 0.08915158 0.051256076
0.09197118 0.01507975 0.008388837 0.05855175 0.080747224 0.009083061 -0.04753877 -0.047831114
0.06267339 0.007919843 0.042311113 -0.015364731 -0.027832128 0.060699575 0.03643174 -0.054110743
-0.032726362 -0.043132402 -0.065806426 0.004377947 -0.010039442 -0.039664745 -0.014642181 0.053804956
-0.05713543 0.010479687 0.02408918 -0.056199916 0.07778089 0.004753825 0.049600676 0.06427778
-0.08788628 -0.049095772 0.07655112 0.041618343 0.048527915 0.026286034 -0.0349963 0.0010981871
0.01224185 0.060604792 0.015824944 0.016707199 0.06477036 0.07072968 0.053581685 -0.07229258
0.042496804 0.03909595 -0.12084697 -0.007138939 0.024656307 0.0064191422 0.0670451 0.011013537
0.017909233 -0.0073330533 0.0067523774 0.06519653 0.051459063 -0.039228775 0.014754763 -0.07265812
0.050140668 -0.065705605 0.0060886997 0.0763378 -0.08935946 0.08408329 -0.07043955 0.09430775
-0.065194614 0.07521062 0.0031696814 0.08000743 0.03295168 0.050726004 0.023205405 0.051222995
-0.052500956 -0.029189222 0.078693554 -0.017914016 -0.015519344 0.04174091 -0.024926476 0.014109813
-0.07323435 -0.038674336 0.07231507 -0.0045406297 -0.07915403 0.016991273 -0.01256756 -0.048185967
-0.022875952 -0.05919255 -0.027599186 0.0015916171 0.07781548 -0.008755427 -0.08837391 0.06538058
0.08715374 -0.08031227 0.07335425 0.091143966 -0.0038079 -0.05189823 0.040707313 -0.07332036
0.14174634 0.04982473 0.024293723 -0.14450139 -0.1081429 0.05187809 0.037643496 0.07776328
0.057714008 0.07698354 0.011131458 -0.121101975 -0.06415073 0.011238535 0.009407504 -0.014692493
-0.015567957 -0.32691073 -0.05153241 -0.0047682645 0.338191 -0.16290106 -0.031751383 0.026389105
0.018705236 0.042346973 -0.08931245 0.030959263 0.025880812 0.030138023 0.022248425 -0.044239163
0.06760652 0.20478924 -0.41106942 -0.019090464 -0.06651341 0.04999816 -0.07540401 0.05045214
-0.05826398 -0.4758299 -0.010333554 -0.09028359 0.050297208 0.019218808 0.07013883 -0.2828321
-0.07313265 -0.008739612 0.07637772 0.23583174 -0.08940893 -0.03516951 -0.02270246 -0.04700637
-0.027139956 0.0186182 -0.06359708 -0.044585694 0.028788818 -0.15254472 0.07487899 0.09017024
-0.069611385 -0.06177449 -0.3607431 0.045829445 -0.36887088 -0.040876668 -0.09200916 -0.033304423
-0.023760347 0.03312594 -0.019708507 -0.042400792 0.08567194 0.0127944285 0.15319574 0.033400543
0.04642037 -0.19781807 0.13704419 0.033279978 -0.042337384 0.08291718 -0.09573269 0.021513369
-0.056079697 -0.009307405 0.24340217 0.3704153 0.2376438 -0.047476932 -0.018894855 0.11128284
0.023622144 0.09048843 0.13954341 -0.0560572 0.02760273 -0.007943202 0.059881918 -0.04649542
0.039945524 -0.037159987 0.18944134 0.2696262 -0.06543357 -0.0034100153 0.015422283 0.056273624
0.08471568 -0.106042124 -0.003830154 -0.09175058 0.027787782 -0.021471336 -0.11558887 -0.23771398
0.09547195 0.047359057 -0.10034536 0.028215773 -0.19689363 0.10231695 0.009994149 0.026129581
00000000: 75de 63bd e161 a23d 8e3b c03d 65d3 a3bd
00000010: 4135 173d 9706 0cbd d0b7 e3bc ef77 633c
00000020: 9a45 87bd 3bd7 9dbc 3abf 283d ac0f 3c3c
00000030: f9c0 babd 23f1 713d 1b95 b63d e4f1 513d
00000040: 635b bc3d 0e11 773c 5571 093c f6d3 6f3d
00000050: cd5e a53d 1ed1 143c 03b8 42bd 8fea 43bd
00000060: e85a 803d 3bc2 013c 6b4e 2d3d 5abc 7bbc
00000070: 3400 e4bc 1ea0 783d 7339 153d 3aa3 5dbd
00000080: 140c 06bd 9aab 30bd 85c5 86bd e274 8f3b
00000090: 797c 24bc 8077 22bd c2e5 6fbc 9662 5c3d
000000a0: d706 6abd feb2 2b3c ac56 c53c e231 66bd
000000b0: 964b 9f3d f9c5 9b3b 142a 4b3d 12a4 833d
000000c0: b9fd b3bd a618 49bd d5c6 9c3d ff77 2a3d
000000d0: 35c5 463d cf55 d73c 4858 0fbd 0bf1 8f3a
000000e0: 0a92 483c bb3c 783d 50a3 813c 89dd 883c
000000f0: 53a6 843d b9da 903d 7878 5b3d 220e 94bd
00000100: 2111 2e3d 1323 203d 9e7e f7bd c3ed e9bb
00000110: 06fc c93c ab57 d23b f14e 893d 1f72 343c
00000120: 62b6 923c 1c4a f0bb 0c43 dd3b c285 853d
00000130: bdc6 523d 5aae 20bd f6bd 713c c8cd 94bd
00000140: 4d60 4d3d a990 86bd b783 c73b fe56 9c3d
00000150: 1802 b7bd dc33 ac3d 9c42 90bd 6c24 c13d
00000160: c184 85bd 0708 9a3d 6eba 4f3b efda a33d
00000170: 57f8 063d 12c6 4f3d 4319 be3c 34cf 513d
00000180: 3e0b 57bd 3c1e efbc 162a a13d 6ac0 92bc
00000190: d944 7ebc 84f8 2a3d 9c32 ccbc d82c 673c
000001a0: e4fb 95bd fb68 1ebd ec19 943d 90c9 94bb
000001b0: 821b a2bd 4831 8b3c 2be8 4dbc a65e 45bd
000001c0: 5966 bbbc e373 72bd b017 e2bc cf9d d03a
000001d0: b95d 9f3d ec72 0fbc 61fd b4bd 41e6 853d
000001e0: a97d b23d c27a a4bd c13a 963d b0a9 ba3d
000001f0: f68d 79bb 3d93 54bd b6bc 263d fc28 96bd
00000200: f425 113e 0415 4c3d a103 c73c 2cf8 13be
00000210: 067a ddbd 1f7e 543d 1130 1a3d 5b42 9f3d
00000220: 8665 6c3d 8ca9 9d3d b860 363c 5004 f8bd
00000230: 7561 83bd d521 383c ef21 1a3c c8b8 70bc
00000240: bf10 7fbc d860 a7be a613 53bd 1a3f 9cbb
00000250: 5f27 ad3e 89cf 26be bd0d 02bd f72d d83c
00000260: b93b 993c 0574 2d3d 72e9 b6bd 489e fd3c
00000270: ff03 d43c 04e4 f63c 5442 b63c 2034 35bd
00000280: 4a75 8a3d 45b4 513e b177 d2be 9b63 9cbc
00000290: 2f38 88bd dfca 4c3d 6b6d 9abd e7a6 4e3d
000002a0: 36a6 6ebd fa9f f3be 114e 29bc 9ae6 b8bd
000002b0: 7204 4e3d c370 9d3c f2a4 8f3d 5ecf 90be
000002c0: 92c6 95bd 9730 0fbc ec6b 9c3d e07d 713e
000002d0: 071c b7bd e70d 10bd 82fa b9bc c089 40bd
000002e0: 9d54 debc 3285 983c 303f 82bd 7d9f 36bd
000002f0: 87d6 eb3c af34 1cbe 285a 993d 2dab b83d
00000300: 6a90 8ebd 3f07 7dbd 52b3 b8be a8b7 3b3d
00000310: a5dc bcbe 4b6e 27bd 4c6f bcbd 386a 08bd
00000320: 0fa5 c2bc 11af 073d bc73 a1bc 74ac 2dbd
00000330: c574 af3d b99f 513c 58df 1c3e 02cf 083d
00000340: 4923 3e3d d290 4abe 5055 0c3e 9650 083d
00000350: f769 2dbd 7cd0 a93d 800f c4bd ce3c b03c
00000360: d3b3 65bd 167e 18bc 6b3e 793e 13a7 bd3e
00000370: e558 733e 2c77 42bd 62c9 9abc 42e8 e33d
00000380: 3a83 c13c ff51 b93d 78e4 0e3e 3c9c 65bd
00000390: 1f1f e23c 3424 02bc be46 753d fb71 3ebd
000003a0: eb9d 233d 1235 18bd e9fc 413e 720c 8a3e
000003b0: 0902 86bd 907a 5fbb bead 7c3c 2c7f 663d
000003c0: 6a7f ad3d 9d2c d9bd 5203 7bbb bae7 bbbd
000003d0: 34a3 e33c a8e4 afbc dcb9 ecbd 4b6b 73be
000003e0: cc86 c33d 92fb 413d de81 cdbd c424 e73c
000003f0: 7c9e 49be 8d8b d13d 80be 233c b40d d63c

actor.2.bias f4 [128]
-0.049358625 -0.06368872 -0.07674479 -0.078829594 0.04706823 0.07591517 0.02900625 0.031472355
-0.0068466165 -0.014743522 -0.075240314 0.016890064 -0.021453887 -0.007556316 0.02510481 -0.0620618
-0.020250851 0.06383355 0.10042933 0.013572699 0.03754315 -0.053237345 -0.03466161 -0.05856929
-0.04379221 -0.0673165 0.033445932 0.0052800463 0.025333239 0.022763643 -0.0021328572 0.03380416
0.030328622 0.02678629 0.027812367 -0.050755728 0.0775358 -0.053052727 0.016036633 0.041898213
0.025304176 -0.08037983 0.048575625 0.040368747 -0.023542598 0.052621324 0.073517755 -0.0068702055
0.035124537 -0.070561096 -0.017389648 -0.00790172 0.07734941 0.032287948 -0.07394026 0.013538295
0.026170556 -0.053903155 0.051876396 0.086453706 0.03948411 0.011594129 -0.061420824 -0.054369643
-0.071555555 -0.011548771 -0.0345456 0.06747293 -0.022143636 -0.057678882 -0.011103706 0.061223537
-0.10150967 -0.018895008 0.023135796 0.05568603 0.08397424 0.011596861 0.009533806 -0.014595484
0.059166647 0.11324088 -0.009662059 -0.025911937 -0.0020729117 -0.012398709 -0.03702489 0.040268257
-0.02789202 0.07128369 -0.00044890706 0.04034515 0.0056402613 0.012247691 0.03819017 -0.03144366
-0.018664395 0.06570698 -0.083528906 -0.068874136 0.04788008 0.08296513 -0.030512668 -0.01513841
-0.025299445 -0.03820845 -0.09156078 0.007971916 -0.044570588 -0.031486828 -0.038051497 -0.026384743
-0.013081322 -0.07155341 -0.05162682 0.07130628 -0.040230144 0.014461854 0.033174705 0.002126665
0.039676297 0.06641638 0.06506348 0.03174488 0.0301974 -0.0041074697 -0.09641498 0.006429039
00000000: 452c 4abd 3b6f 82bd 5f2c 9dbd 6971 a1bd
00000010: 9eca 403d 6a79 9b3d 849e ed3c 28e9 003d
00000020: 9559 e0bb d08e 71bc 9817 9abd 085d 8a3c
00000030: 10c0 afbc f99a f7bb 9aa8 cd3c 8434 7ebd
00000040: 1de5 a5bc 2abb 823d e4ad cd3d 0760 5e3c
00000050: d9c6 193d 670f 5abd 55f9 0dbd 5ae6 6fbd
00000060: 765f 33bd 3cdd 89bd 9afe 083d 3d04 ad3b
00000070: a787 cf3c d27a ba3c 68c7 0bbb 3b76 0a3d
00000080: bb73 f83c ec6e db3c c3d6 e33c 3de5 4fbd
00000090: 17cb 9e3d d14d 59bd 425f 833c 769d 2b3d
000000a0: b44a cf3c 2e9e a4bd 3cf7 463d b359 253d
000000b0: 68dc c0bc 7589 573d 7a90 963d 761f e1bb
000000c0: bfde 0f3d 5682 90bd bc74 8ebc 3776 01bc
000000d0: 5e69 9e3d 5e40 043d fe6d 97bd bacf 5d3c
000000e0: a263 d63c 8ec9 5cbd 587c 543d a40e b13d
000000f0: 17ba 213d 4df5 3d3c 6794 7bbd b4b2 5ebd
00000100: b88b 92bd 0e37 3dbc b07f 0dbd 3f2f 8a3d
00000110: 9266 b5bc b140 6cbd 52ec 35bc 88c5 7a3d
00000120: 4de4 cfbd b4c9 9abc 4887 bd3c 0917 643d
00000130: b0fa ab3d c300 3e3c ae33 1c3c e621 6fbc
00000140: ba58 723d d6ea e73d 9d4d 1ebc 4545 d4bc
00000150: b0d9 07bb f423 4bbc 69a7 17bd 54f0 243d
00000160: ce7d e4bc 2ffd 913d 495b ebb9 f540 253d
00000170: f1d1 b83b 8aaa 483c 4c6d 1c3d 11cb 00bd
00000180: 13e6 98bc 6291 863d 3411 abbd e20d 8dbd
00000190: e71d 443d 9fe9 a93d b4f5 f9bc 1807 78bc
000001a0: c840 cfbc 7780 1cbd 3884 bbbd a49c 023c
000001b0: a68f 36bd 55f8 00bd e3db 1bbd d124 d8bc
000001c0: 0b53 56bc 988a 92bd a576 53bd 0709 923d
000001d0: 5dc8 24bd 69f1 6c3c 33e2 073d 855f 0b3b
000001e0: 9d83 223d 5005 883d 0040 853d eb06 023d
000001f0: 8a60 f73c f497 86bb 3875 c5bd b0aa d23b

actor.4.weight f4 [128, 128]
0.05194048 0.11152773 0.06842605 -0.030277887 -0.012559104 -0.040659938 0.07346735 0.04670459
-0.019520063 -0.006134107 -0.031631317 -0.008545775 0.10925638 -0.021376546 0.02086247 -0.17878562
0.017198171 -0.06579223 -0.068887465 0.09758892 0.16901478 -0.013909887 -0.06868859 -0.010999681
0.032523327 0.17525123 0.003868464 0.020132212 0.12907831 -0.09360855 0.09757798 -0.0069812904
-0.01077371 -0.00476996 -0.014334044 -0.0014830559 -0.1381833 0.010018675 -0.05764656 0.026520954
0.04130376 0.036726825 -0.0024948376 -0.08156453 -0.02757703 0.016085077 -0.07261243 -0.021404205
-0.04440605 0.011700843 -0.026294623 -0.016403288 -0.08017945 0.05162536 0.10257689 -0.11508453
0.053844243 0.03199658 0.045901816 -0.054619454 0.04361288 -0.04114191 0.038014382 0.14455248
0.19283202 0.00066715997 -0.033636235 0.022606127 0.08947381 -0.08360611 -0.10789302 -0.022954632
0.017051853 -0.06612053 -0.0361215 -0.028131334 -0.019047247 -0.03873685 -0.05334706 0.0039319787
0.052124992 0.034321606 0.12951626 0.046339173 0.09274429 -0.07218997 -0.10189999 0.050029546
0.002534957 0.086746976 0.033705514 -0.05290259 0.023201238 0.0696719 0.021218624 0.11132655
-0.01568391 -0.07218556 -0.0065742787 0.012978959 -0.049014356 -0.028806172 -0.048261695 0.007741673
0.08874259 -0.098276086 -0.08452308 0.013782473 0.019469138 -0.09667027 0.04526658 -0.02424592
0.038143393 0.027254814 -0.036258228 0.08484431 -0.0084475735 0.043594267 -0.026857411 0.055595912
-0.025051763 -0.03671085 -0.078576386 -0.081313945 -0.012244278 0.022601742 -0.00065941317 -0.025030337
0.10566948 -0.039221197 -0.0108311605 -0.05428145 0.07485821 -0.105683856 0.03524297 -0.025454996
0.016185736 0.032095484 0.034184385 -0.05432101 0.088958964 0.040975075 -0.005144289 -0.1579176
-0.029563423 -0.016345344 -0.0456206 0.22911057 0.06520724 -0.08379637 0.010511631 -0.017264437
0.07396532 0.089355074 0.06390776 -0.0447361 0.121786565 0.00076564547 -0.029975558 0.121340394
-0.01811445 0.077748835 0.02285627 0.0035876967 -0.14114478 0.043994546 0.014608589 -0.02745365
-0.008867106 -0.069389306 0.043206826 -0.10802376 -0.1319812 0.082967475 -0.008078313 -0.013409982
0.020506421 0.0047961925 -0.1473865 -0.028581887 0.030443441 0.053928375 0.19744891 -0.1646748
-0.0014113536 0.03390668 -0.0871732 -0.099769145 -0.02213848 0.048363935 -0.085024595 0.099247344
0.07183801 0.11792047 0.06409759 0.10574971 0.057461917 0.07325734 -0.13623384 0.011451519
0.05053563 0.019936353 -0.08400773 -0.063864715 -0.07513116 0.11375674 -0.025253752 -0.07715228
-0.0019735014 -0.053769574 0.06554135 0.07989078 -0.012679236 -0.021794626 -0.019472463 -0.010662686
0.034108177 0.0537154 -0.020546261 0.012075174 -0.09652246 0.1132431 0.0061337207 -0.015990123
-0.06660974 0.042494357 -0.08198916 0.030817745 0.019705856 -0.030479688 0.031898253 0.10650445
0.0525424 -0.09805179 -0.013103011 -0.113619514 -0.04942262 -0.101629734 0.019587055 -0.056759518
0.12018275 0.053390067 0.0012878024 0.12848936 -0.10262596 -0.07898485 -0.0908166 0.0053508976
-0.042469963 0.055361975 -0.16967423 -0.04866131 0.0047628973 -0.024801552 0.03568917 -0.10600295
00000000: 8abf 543d a768 e43d f522 8c3d 5509 f8bc
00000010: b3c4 4dbc 098b 26bd 0d76 963d 504d 3f3d
00000020: 8ae8 9fbc 9e00 c9bb d78f 01bd 9403 0cbc
00000030: cfc1 df3d de1d afbc c5e7 aa3c 9413 37be
00000040: 2ee3 8c3c 14be 86bd df14 8dbd b3dc c73d
00000050: 3612 2d3e 4be6 63bc 9aac 8cbd 0238 34bc
00000060: 2e37 053d 0f75 333e 0e86 7d3b 4fec a43c
00000070: 1b2d 043e d7b5 bfbd f7d6 c73d 4fc3 e4bb
00000080: 3784 30bc 534d 9cbb 57d9 6abc 1963 c2ba
00000090: ec7f 0dbe 5e25 243c cd1e 6cbd 7942 d93c
000000a0: 222e 293d de6e 163d 6e80 23bb 4e0b a7bd
000000b0: 39e9 e1bc dac4 833c d3b5 94bd df57 afbc
000000c0: 1ee3 35bd e5b4 3f3c d267 d7bc 3060 86bc
000000d0: 2035 a4bd 1d75 533d d513 d23d 70b1 ebbd
000000e0: c88b 5c3d d90e 033d 8b03 3c3d a6b8 5fbd
000000f0: 6ba3 323d 6b84 28bd f8b4 1b3d 9105 143e
00000100: c275 453e 59e4 2e3a 26c6 09bd 7c30 b93c
00000110: 0b3e b73d ae39 abbd 04f7 dcbd 5a0b bcbc
00000120: 54b0 8b3c 336a 87bd 23f4 13bd af73 e6bc
00000130: f908 9cbc 88aa 1ebd 7282 5abd d4d7 803b
00000140: 0481 553d d094 0c3d e99f 043e 25ce 3d3d
00000150: b8f0 bd3d 56d8 93bd f1b0 d0bd c8eb 4c3d
00000160: 8521 263b 66a8 b13d cb0e 0a3d 63b0 58bd
00000170: 8610 be3c 24b0 8e3d aed2 ad3c 2dff e33d
00000180: 8b7b 80bc 06d6 93bd 0c6d d7bb b3a5 543c
00000190: 47c3 48bd ecfa ebbc 0eae 45bd dcad fd3b
000001a0: adbe b53d f944 c9bd 701a adbd e2cf 613c
000001b0: be7d 9f3c 10fb c5bd 7369 393d 619f c6bc
000001c0: 3f3c 1c3d 7d45 df3c 8283 14bd dbc2 ad3d
000001d0: b167 0abc e78f 323d 1304 dcbc 8ab8 633d
000001e0: 5b39 cdbc 1e5e 16bd a8ec a0bd ed87 a6bd
000001f0: 399c 48bc 4a27 b93c 78dc 2cba 6c0c cdbc
00000200: 3e69 d83d 68a6 20bd 2e75 31bc 3a56 5ebd
00000210: 434f 993d c770 d8bd ef5a 103d ff86 d0bc
00000220: f397 843c 8e76 033d ed04 0c3d b57f 5ebd
00000230: 1e30 b63d 7bd5 273d 6d91 a8bb 27b5 21be
00000240: fe2e f2bc ace6 85bc abdc 3abd f69b 6a3e
00000250: 608b 853d 6e9d abbd fa38 2c3c 266e 8dbc
00000260: 217b 973d cbff b63d 12e2 823d 333d 37bd
00000270: 3c6b f93d 99b5 483a 4d8f f5bc 5081 f83d
00000280: c164 94bc c83a 9f3d 133d bb3c 901f 6b3b
00000290: 4288 10be a033 343d dd58 6f3c 7ae6 e0bc
000002a0: 5747 11bc fb1b 8ebd a4f9 303d 903b ddbd
000002b0: 1426 07be daea a93d e75a 04bc 8bb5 5bbc
000002c0: 15fd a73c 6129 9d3b 7dec 16be 9024 eabc
000002d0: 8664 f93c 00e4 5c3d 0c30 4a3e 83a0 28be
000002e0: 2bfd b8ba bbe1 0a3d dd87 b2bd c453 ccbd
000002f0: c25b b5bc 4319 463d 6021 aebd 3142 cb3d
00000300: ce1f 933d 4a80 f13d 9945 833d 4e93 d83d
00000310: 305d 6b3d f207 963d e280 0bbe 279f 3b3c
00000320: 73fe 4e3d 9051 a33c 3f0c acbd 81cb 82bd
00000330: 5ede 99bd 4bf9 e83d f5e0 cebc 0402 9ebd
00000340: dc55 01bb 7c3d 5cbd 8b3a 863d c79d a33d
00000350: 92bc 4fbc a58a b2bc b784 9fbc 8cb2 2ebc
00000360: 04b5 0b3d ae04 5c3d a250 a8bc f3d6 453c
00000370: 91ad c5bd 00ec e73d 61fd c83b b8fd 82bc
00000380: b06a 88bd 900e 2e3d efe9 a7bd 7f75 fc3c
00000390: 2d6e a13c 8ab0 f9bc bea7 023d 011f da3d
000003a0: b336 573d 60cf c8bd 03ae 56bc 59b1 e8bd
000003b0: 606f 4abd 4023 d0bd 0875 a03c ab7c 68bd
000003c0: 6022 f63d 8baf 5a3d 7acb a83a b792 033e
000003d0: 8f2d d2bd cfc2 a1bd 0efe b9bd 9556 af3b
000003e0: fcf4 2dbd 3dc3 623d 15bf 2dbe 1551 47bd
000003f0: 1412 9c3b a02c cbbc cf2e 123d 1318 d9bd

actor.4.bias f4 [128]
0.058167297 0.050977398 -0.006650076 0.040752865 0.059140794 -0.010569607 -0.015598858 -0.056095526
-0.0016317993 -0.019202404 -0.048936855 -0.026982393 0.015955027 -0.051082414 0.039110057 -0.030120846
-0.026502935 0.031502463 -0.036597226 0.0076382384 -0.042447206 -0.03961342 0.07537513 0.016031587
0.079147145 -0.020719199 -0.025974356 -0.027957555 -0.09097278 0.042716112 0.0790199 0.03319845
0.037211195 -0.0077035134 0.060625296 0.047129456 -0.058823433 0.011858794 -0.07555776 0.03256162
0.022516552 -0.052693155 0.0035331293 -0.0010786904 0.0370612 0.024987191 -0.06890996 -0.022779834
-0.043329626 -0.06212024 -0.02721678 0.019768517 0.015314229 0.016935121 0.049406406 -0.06432945
-0.012574538 -0.006653461 -0.034639932 0.04690458 -0.0010988128 -0.01751536 0.06238162 0.043067936
0.037198033 -0.038469657 -0.04309302 0.040068153 -0.028572502 -0.060022775 -0.035875786 0.03923421
0.015519574 -0.033294156 -0.030378485 -0.05106681 0.058708288 0.0495907 0.055501197 -0.042771846
-0.03671047 0.002125228 -0.042132426 0.038837302 0.0030854328 0.07062917 0.03847783 -0.058117796
-0.04786421 -0.07457677 -0.036421966 -0.046831936 -0.03494798 0.04784543 0.0065766633 0.037257105
-0.03595809 0.029577874 -0.026691195 0.05859203 -0.03822937 0.014639322 0.030970436 0.027219674
0.0036388615 0.04813145 0.021438284 0.03234104 0.0052776383 0.04233208 -0.03504666 -0.034959696
-0.07244141 -0.01140985 0.04389749 0.052232094 0.0061154496 0.0032105432 -0.03252793 -0.051872637
-0.018368702 0.067128874 0.025390781 0.034891166 0.026156891 0.09281747 -0.0026776518 -0.06377865
00000000: d540 6e3d adcd 503d e1e8 d9bb 7aec 263d
00000010: 9e3d 723d 252c 2dbc 5a92 7fbc 6cc4 65bd
00000020: 19e2 d5ba 5c4e 9dbc 0372 48bd 2e0a ddbc
00000030: 1eb4 823c cb3b 51bd de31 203d febf f6bc
00000040: af1c d9bc ba08 013d f9e6 15bd 304a fa3b
00000050: 1fdd 2dbd ae41 22bd 475e 9a3d ad54 833c
00000060: e617 a23d 4fbb a9bc 2cc8 d4bc 3e07 e5bc
00000070: f04f babd 17f7 2e3d 2fd5 a13d 19fb 073d
00000080: c46a 183d c16d fcbb 3b52 783d d10a 413d
00000090: d7f0 70bd 634b 423c 07be 9abd 555f 053d
000000a0: a274 b83c c7d4 57bd 138c 673b d862 8dba
000000b0: 7ccd 173d f0b1 cc3c aa20 8dbd c69c babc
000000c0: 687a 31bd cb71 7ebd baf5 debc 96f1 a13c
000000d0: 88e8 7a3c 86bb 8a3c 5f5e 4a3d 29bf 83bd
000000e0: 6f05 4ebc 4705 dabb 9ae2 0dbd 041f 403d
000000f0: 0a06 90ba 5f7c 8fbc df83 7f3d 0168 303d
00000100: f75c 183d 5c92 1dbd 4e82 30bd 811e 243d
00000110: e110 eabc 71da 75bd 7df2 12bd 0db4 203d
00000120: d045 7e3c 745f 08bd 4ddc f8bc 6e2b 51bd
00000130: 1a78 703d 9e1f 4b3d 3955 633d 8831 2fbd
00000140: b85d 16bd 6947 0b3b 0d93 2cbd dd13 1f3d
00000150: f934 4a3b 07a6 903d ee9a 1d3d ed0c 6ebd
00000160: 430d 44bd b5bb 98bd 332f 15bd d8d2 3fbd
00000170: 9d25 0fbd 92f9 433d 0d81 d73b e89a 183d
00000180: ca48 13bd 4c4d f23c 7ea7 dabc 32fe 6f3d
00000190: 6696 1cbd c4d9 6f3c b6b5 fd3c cbfb de3c
000001a0: f779 6e3b 7c25 453d 579f af3c 0a78 043d
000001b0: 0af0 ac3b 6764 2d3d 168d 0fbd e631 0fbd
000001c0: 295c 94bd 61f0 3abc dbcd 333d 52f1 553d
000001d0: 1c64 c83b fa67 523b 023c 05bd 6778 54bd
000001e0: f679 96bc dd7a 893d 5400 d03c 0aea 0e3d
000001f0: fa46 d63c 1617 be3d 8b7b 2fbb 619e 82bd

actor.7.weight f4 [128, 128]
-0.08725875 0.025260162 -0.23731421 0.05184963 -0.04940464 0.025289757 -0.004587927 -0.14180107
0.04803982 0.055104975 0.019068107 0.09875402 0.11182034 0.016532158 0.051130295 0.005181332
-0.07632228 -0.18374975 0.02669958 -0.029170156 0.0757803 -0.055732656 0.037552245 0.16244149
-0.060337096 0.15095073 0.016933562 0.11577059 -0.017871642 -0.07803303 0.2311191 0.07233631
0.039125696 -0.031986147 -0.031282667 -0.019539248 -0.066484734 0.07380281 -0.045045253 0.17263347
-0.010411453 0.07934554 -0.20703362 0.105343066 -0.12161173 -0.058621358 -0.0028839349 -0.036525838
-0.02871916 -0.07798544 -0.011116283 -0.0174484 -0.06358757 0.02750465 0.007356798 -0.26165375
-0.06639873 0.14197908 -0.02709713 -0.056812953 0.0019700117 0.15288204 0.16732441 -0.061297245
0.042615734 -0.032228954 -0.11559197 0.1437125 -0.018185174 -0.028970294 0.016255617 0.16294716
-0.06794122 -0.19115017 0.04723847 -0.12695876 -0.016285365 0.20036437 0.021225901 -0.1382778
-0.032447975 -0.060924646 0.04062505 0.024067555 0.25883558 0.13992731 0.17444368 -0.25928017
-0.08678162 0.07479617 -0.029933019 0.09453459 0.05529123 0.041512735 0.06355572 -0.061837252
-0.009060939 0.106192686 0.20168813 -0.037330445 0.057959687 0.019498045 0.023126028 0.09180287
-0.080342524 -0.13815318 -0.06530064 0.14890894 0.030265385 0.18402538 -0.02244967 0.22044028
0.004473018 0.020194907 -0.022521745 -0.026696088 -0.03787918 -0.025132028 0.03371176 0.103802346
0.18520577 0.036972973 -0.25173703 -0.031109994 0.017475564 0.0383543 0.230575 -0.04601052
-0.08816996 -0.013121864 0.05316211 -0.009711645 -0.023359524 -0.019467102 0.11898366 -0.03691709
0.018623836 0.09570557 -0.037983906 -0.010933037 -0.028882196 0.058942035 -0.09996121 -0.016672144
0.016006656 -0.078672975 0.014209504 -0.047298055 0.057857953 -0.044873666 0.021434458 -0.060385957
0.06730759 0.07635621 0.093119375 -0.021766702 -0.17040962 0.07713307 -0.017295042 -0.015638586
-0.030322837 -0.11536679 -0.11780886 0.030022861 -0.02767374 -0.09907186 0.048268147 -0.06013818
-0.033285286 -0.057425156 0.09281729 -0.107022986 0.02363493 0.1177151 0.0040259035 0.056808703
0.0025970133 -0.028068557 0.033385105 0.07367163 -0.084403716 0.027185353 0.08709515 0.077570446
0.021432938 0.06166166 0.04532481 -0.123744205 0.01442 0.009738526 -0.036597047 -0.04498388
-0.10158954 -0.039327413 0.0869878 -0.066299796 -0.035587613 0.072246656 -0.07840526 -0.012071195
0.07355467 -0.0003048289 0.030921414 0.031437103 0.04117122 0.0060322727 -0.039153658 0.0437509
0.0066373595 0.052276377 -0.006117442 0.0015204435 -0.05366022 -0.036908522 0.045070775 0.02696779
-0.0063059824 -0.008209622 -0.03241002 0.0027190624 0.055635218 0.02143783 0.13617541 0.06767218
-0.01357717 0.049152005 -0.05658584 0.040324025 -0.012207756 -0.046612415 -0.004082175 -0.07285501
-0.06907683 0.009050776 0.007555954 0.08561909 -0.028788477 -0.0669909 -0.09327415 -0.054659657
0.005718819 0.015943874 -0.13104403 -0.033211797 -0.05545596 -0.059502073 -0.069412336 -0.024437487
-0.051873673 -0.0090357065 0.073899224 -0.06708323 -0.005889648 0.031356987 0.03112347 0.03382085
00000000: b7b4 b2bd 66ee ce3c 7f02 73be 4760 543d
00000010: 855c 4abd 772c cf3c 5256 96bb 4d34 11be
00000020: 67c5 443d c1b5 613d b834 9c3c 8c3f ca3d
00000030: 1002 e53d 736e 873c 006e 513d 2ac8 a93b
00000040: db4e 9cbd e528 3cbe 14b9 da3c 40f6 eebc
00000050: b432 9b3d ed47 64bd 62d0 193d 1057 263e
00000060: 0824 77bd d492 1a3e 41b8 8a3c 2219 ed3d
00000070: 8d67 92bc c8cf 9fbd 7caa 6c3e 0f25 943d
00000080: 4442 203d e803 03bd 4122 00bd c610 a0bc
00000090: 2629 88bd ed25 973d 5f81 38bd d4c6 303e
000000a0: cd94 2abc ea7f a23d 9f00 54be 1bbe d73d
000000b0: 920f f9bd f31c 70bd 6600 3dbb 1e9c 15bd
000000c0: 7244 ebbc d5b6 9fbd 1221 36bc f2ef 8ebc
000000d0: 333a 82bd 6f51 e13c 4b11 f13b 7bf7 85be
000000e0: 0ffc 87bd f762 113e cdfa ddbc b3b4 68bd
000000f0: 501b 013b 1c8d 1c3e 1757 2b3e d212 7bbd
00000100: d68d 2e3d 8202 04bd 7cbb ecbd 5f29 133e
00000110: 13f9 94bc 1c53 edbc 802a 853c 9fdb 263e
00000120: c424 8bbd dfbc 43be 207d 413d 7a01 02be
00000130: e368 85bc 512c 4d3e f1e1 ad3c b298 0dbe
00000140: 2be8 04bd 1f8c 79bd 7466 263d 5229 c53c
00000150: 1986 843e 1b49 0f3e 5da1 323e 5fc0 84be
00000160: 90ba b1bd bc2e 993d 1736 f5bc 5a9b c13d
00000170: 0f79 623d 4209 2a3d 8029 823d 0f49 7dbd
00000180: 5574 14bc 8d7b d93d 5587 4e3e cfe7 18bd
00000190: 2367 6d3d 5dba 9f3c cc72 bd3c 2503 bc3d
000001a0: 9f8a a4bd 0778 0dbe 58bc 85bd 967b 183e
000001b0: 1def f73c 2671 3c3e 5fe8 b7bc 19bb 613e
000001c0: 6592 923b ca6f a53c 867f b8bc c1b1 dabc
000001d0: 3327 1bbd afe1 cdbc 5815 0a3d 5396 d43d
000001e0: 95a6 3d3e f970 173d ade3 80be 63da febc
000001f0: ea28 8f3c 6619 1d3d da1b 6c3e 8775 3cbd
00000200: 7492 b4bd 16fd 56bc 83c0 593d 971d 1fbc
00000210: 795c bfbc 7979 9fbc b5ad f33d 6036 17bd
00000220: 0491 983c 4801 c43d 0395 1bbd 7b20 33bc
00000230: 5b9a ecbc 346d 713d 76b8 ccbd 0594 88bc
00000240: 6420 833c 4c1f a1bd fbce 683c 9bbb 41bd
00000250: 76fc 6c3d 73cd 37bd 5197 af3c 4457 77bd
00000260: 90d8 893d a560 9c3d 5fb5 be3d 1550 b2bc
00000270: dc7f 2ebe f1f7 9d3d 55ae 8dbc 7e1c 80bc
00000280: 9967 f8bc 6c45 ecbd c645 f1bd 81f2 f53c
00000290: 0ab4 e2bc 30e6 cabd d2b4 453d 7453 76bd
000002a0: 2756 08bd a436 6bbd fe16 be3d de2e dbbd
000002b0: 0a9e c13c 9d14 f13d baeb 833b 3eb0 683d
000002c0: a732 2a3b 08f0 e5bc d2be 083d 27e1 963d
000002d0: dbdb acbd d1b3 de3c f15e b23d 41dd 9e3d
000002e0: 2194 af3c f090 7c3d 82a6 393d 9a6d fdbd
000002f0: dd41 6c3c 578e 1f3c c9e6 15bd 0441 38bd
00000300: 2d0e d0bd c815 21bd a926 b23d 30c8 87bd
00000310: 51c4 11bd 0ef6 933d f092 a0bd 43c6 45bc
00000320: d5a3 963d 71d1 9fb9 e84e fd3c 31c4 003d
00000330: 27a3 283d 5faa c53b 965f 20bd 2534 333d
00000340: 357e d93b c11f 563d d374 c8bb 9e49 c73a
00000350: d2ca 5bbd 642d 17bd 229c 383d 8eeb dc3c
00000360: 6aa2 cebb a781 06bc 5ec0 04bd 4c32 323b
00000370: c1e1 633d 639e af3c 9171 0b3e b697 8a3d
00000380: c772 5ebc 9d53 493d 8ec6 67bd ce2a 253d
00000390: 0a03 48bc a9ec 3ebd c4c3 85bb 0235 95bd
000003a0: 2778 8dbd b549 143c f097 f73b 1059 af3d
000003b0: d0d5 ebbc 8632 89bd 8406 bfbd cee2 5fbd
000003c0: ee64 bb3b ba9c 823c 6830 06be 1809 08bd
000003d0: ca25 63bd 72b8 73bd 0e28 8ebd 2031 c8bc
000003e0: 7d79 54bd 800a 14bc 7a58 973d ef62 89bd
000003f0: f3fd c0bb 2f70 003d a6f6 fe3c bb87 0a3d

actor.7.bias f4 [128]
-0.012169423 -0.040212307 -0.008866765 0.037370987 -0.047538932 -0.014788782 0.02603114 0.0058154077
-0.018849587 0.03189214 -0.01974786 0.03187062 -0.04437844 0.03577861 0.0015635731 -0.0027139971
-0.04782403 0.01163239 0.007867739 0.024124889 0.029622393 0.03863233 0.008383693 -0.018767424
0.01019034 0.025056435 -0.032272156 -0.057768483 -0.036844343 0.047035094 -0.01927125 -0.0050669885
-0.038648088 0.07246672 0.036230534 -0.003167162 -0.01959636 0.029686341 0.083320566 -0.06506794
0.015801849 0.027521791 0.0036921632 -0.0652378 0.033915058 -0.064141996 -0.017817969 0.006841215
-0.05551669 0.035801716 -0.006022832 -0.010423442 0.01037653 0.032460622 -0.015283044 0.001417455
-0.022612277 -0.08231783 -0.05404452 0.032107733 0.059278697 0.051295675 -0.04732477 0.07588766
0.034729864 -0.039423566 -0.07331815 0.0042668325 0.004067604 0.02228697 -0.012247436 0.012283811
-0.016808452 -0.042244148 0.06036088 -0.040798556 0.02609785 -0.0058145844 0.039134514 -0.045014642
-0.035010647 -0.03253486 0.00040075215 0.03126937 0.04348911 0.00833982 0.03823368 0.010348989
-0.005900245 -0.04055377 0.009837691 0.014659377 0.03818803 0.004116031 -0.04626554 0.008850078
-0.035110515 0.04019739 -0.012825369 -0.034042332 -0.02296076 -0.0037826155 0.08677932 -0.0019268317
0.016437827 0.03137287 -0.048209276 -0.0055210907 -0.028881315 0.05131483 -0.020648183 0.03846491
0.033896696 -0.018246066 -0.006252532 0.05176006 -0.018435188 0.003119947 -0.038314804 0.041434318
-0.079686426 -0.026484217 -0.031555016 -0.022134136 0.07511218 -0.0028517656 0.019557156 -0.047420837
00000000: 4262 47bc a9b5 24bd e845 11bc 5212 193d
00000010: 2fb8 42bd a64c 72bc 423f d53c 2d8f be3b
00000020: 736a 9abc 55a1 023d 44c6 a1bc c48a 023d
00000030: 2bc6 35bd 978c 123d cff0 cc3a 51dd 31bb
00000040: 21e3 43bd c895 3e3c b0e7 003c 8fa1 c53c
00000050: a9aa f23c ef3c 1e3d c25b 093c 24be 99bc
00000060: 62f5 263c 2743 cd3c cf2f 04bd a59e 6cbd
00000070: 18ea 16bd dfa7 403d bede 9dbc fb08 a6bb
00000080: 754d 1ebd 6f69 943d 7866 143d 2990 4fbb
00000090: 8c88 a0bc c530 f33c f9a3 aa3d 5742 85bd
000000a0: e172 813c 6175 e13c 38f8 713b 659b 85bd
000000b0: 84ea 0a3d e15c 83bd fdf6 91bc 452c e03b
000000c0: 7865 63bd d2a4 123d 2d5b c5bb 16c7 2abc
000000d0: 5202 2a3c 6ef5 043d bc65 7abc e6c9 b93a
000000e0: 623d b9bc 4096 a8bd c95d 5dbd 6683 033d
000000f0: 38ce 723d 6a1b 523d 9ed7 41bd fd6a 9b3d
00000100: e740 0e3d 9b7a 21bd d427 96bd c9d0 8b3b
00000110: 8949 853b 2a93 b63c 78a9 48bc 0a42 493c
00000120: e1b1 89bc 3308 2dbd f83c 773d 631c 27bd
00000130: 29cb d53c 4588 bebb 834b 203d 4661 38bd
00000140: 5367 0fbd 4643 05bd 0b1c d239 5014 003d
00000150: a321 323d bea3 083c eb9a 1c3d ce8e 293c
00000160: d856 c1bb b61b 26bd 442e 213c e22d 703c
00000170: 0d6b 1c3d c5df 863b ef80 3dbd ebff 103c
00000180: 0bd0 0fbd 05a6 243d 7f21 52bc f96f 0bbd
00000190: 3418 bcbc c2e5 77bb 5bb9 b13d be8d fcba
000001a0: 9fa8 863c d780 003d 1777 45bd 44ea b4bb
000001b0: 8298 ecbc 802f 523d 6126 a9bc 628d 1d3d
000001c0: 43d7 0a3d c678 95bc 0ae2 ccbb 5b02 543d
000001d0: 6405 97bc 0678 4c3b fcef 1cbd 08b7 293d
000001e0: a332 a3bd 6ef5 d8bc d53f 01bd a652 b5bc
000001f0: 6ad4 993d b0e4 3abb 5436 a03c 5a3c 42bd

actor.10.weight f4 [1, 128]
-0.00106132 0.0010192229 -0.00079029595 0.00011470151 0.0007271848 0.0002966279 0.001352608 0.0019948052
0.0018283724 0.0014498306 -0.0013682751 0.001506464 -0.00078328204 -0.0010360575 -0.0015706012 0.0012451239
-0.00078245153 0.00047714534 0.00084455294 0.00029167748 0.0012250569 -0.0011323745 -0.0014348697 0.00060604874
-0.0015431239 -0.0022040592 0.0004846222 0.00070190977 -0.00053601916 0.00082835316 0.00054905366 0.0013654552
0.0018117601 0.001339467 -0.0010565256 0.000652487 -0.0015521827 0.00065977307 0.0011868768 -0.0016969173
-0.0012400378 -0.0010771289 0.002257667 -0.0015132261 0.0005799958 0.0022954645 0.0007026143 -0.0016503755
4.988246e-05 0.0004344986 0.0003846665 -0.0015178518 -0.00066675345 -0.0009227372 0.00043758418 -0.0009115343
-0.00036961221 -0.0016617597 -0.00031634377 0.0007256577 0.0024078817 0.0001685529 0.0016335231 -0.0006111318
0.002557253 -0.00083148346 0.0003529045 0.00070768973 -0.00049250573 -0.0010556167 -0.00047588078 0.00051542936
0.0008092862 -0.0014730506 -0.0012980271 0.0023624077 -0.0012587818 -0.00067678676 0.0022535322 0.0012189312
-0.00052334246 0.0013254398 0.00028787027 0.0009559106 -0.0014904403 0.00216426 0.000488294 -0.0011449136
-0.000872694 0.001468832 0.0005727475 0.0009008815 0.00147283 -0.000911101 -0.00024883164 -0.00070752116
-0.00046013054 0.002192413 0.0010356904 -0.0018622116 -0.0007359491 -0.00015615654 0.0008207327 0.0008072978
0.0011529698 -0.0013427268 -0.00021718041 0.0006070753 -0.0020462018 -0.0022466616 0.0014510589 0.001186032
-0.00087189116 0.0013256922 0.00045935143 0.0017098847 -0.00046873724 -0.001619035 0.0018175946 -0.00065450417
0.0011859529 -0.0017521132 -0.0013052818 0.0003845007 0.00095272146 0.0005629158 -0.00046162982 0.0006044553
00000000: fd1b 8bba 7297 853a dd2b 4fba e78b f038
00000010: 8ca0 3e3a b984 9b39 fe49 b13a 47bb 023b
00000020: ffa5 ef3a 3e08 be3a b257 b3ba 8b74 c53a
00000030: 2b55 4dba 52cc 87ba a2dc cdba 6d33 a33a
00000040: 6f1d 4dba 5d29 fa39 fd64 5d3a 4aec 9839
00000050: 1792 a03a 2f6c 94ba 3d12 bcba 3edf 1e3a
00000060: a542 caba fa71 10bb e414 fe39 5e00 383a
00000070: a383 0cba d725 593a 5eee 0f3a 13f9 b23a
00000080: 9578 ed3a 0e91 af3a 1e7b 8aba a90b 2b3a
00000090: 9c72 cbba 9ff4 2c3a fa90 9b3a 196b deba
000000a0: c488 a2ba 732e 8dba 5ef5 133b 7157 c6ba
000000b0: dc0a 183a 816f 163b a62f 383a 6a51 d8ba
000000c0: e238 5138 6acd e339 10ad c939 a8f2 c6ba
000000d0: 11c9 2eba d8e3 71ba 8e6b e539 08f4 6eba
000000e0: 83c8 c1b9 67cf d9ba f1da a5b9 103a 3e3a
000000f0: 8dcd 1d3b 93bd 3039 f11b d63a 5c34 20ba
00000100: 9697 273b e9f7 59ba 0a06 b939 4184 393a
00000110: 801b 01ba 9e5c 8aba a37f f9b9 e11d 073a
00000120: 4726 543a 6013 c1ba 9022 aaba a0d2 1a3b
00000130: b5fd a4ba 646a 31ba ffaf 133b 8bc4 9f3a
00000140: eb30 09ba 61ba ad3a 4bed 9639 1396 7a3a
00000150: e15a c3ba 42d6 0d3b db00 003a ed10 96ba
00000160: 81c5 64ba d385 c03a 6f24 163a 2229 6c3a
00000170: f90b c13a f4d6 6eba 9e75 82b9 f178 39ba
00000180: ad3d f1b9 96ae 0f3b 01c0 873a 7415 f4ba
00000190: b5ec 40ba f4bd 23b9 7026 573a d7a0 533a
000001a0: 3f1f 973a 6ffe afba ecba 63b9 2224 1f3a
000001b0: 9219 06bb ba3c 13bb 7531 be3a a174 9b3a
000001c0: a08f 64ba d9c2 ad3a 1bd5 f039 361e e03a
000001d0: d9c0 f5b9 cd35 d4ba 5b3c ee3a 0893 2bba
000001e0: fa71 9b3a 2aa7 e5ba fd15 abba cf96 c939
000001f0: 0ec0 793a a490 133a e806 f2b9 4f74 1e3a

critic.0.weight f4 [128, 6]
-0.80798244 0.07942695 0.058195017 -0.11229762 -0.30839497 -0.12416297 -0.40337402 -0.057904016
0.19662552 -0.35011396 0.05374369 0.047914054 0.20312658 -0.2112821 0.22366685 0.15662935
-0.4554648 0.40469518 -0.44560897 0.27655843 0.04036169 -0.15691128 -0.43481842 -0.35893273
-0.067029424 -0.24034277 0.4124363 0.20499061 0.04229807 -0.15425105 -0.5223205 0.0703077
0.24639693 -0.26838157 0.18230763 0.12826227 -5.568475 -0.3326786 0.15892427 0.5914072
-1.332328 2.4049096 0.8129685 -0.044115193 -0.21865892 0.15919398 0.5648219 -0.29438826
-0.434889 -0.08262005 0.24923007 0.22016092 -0.19991124 0.24869265 0.22417484 0.10829021
0.10882131 -0.541331 0.31557474 0.07606994 -0.4974431 -0.27391002 0.27087232 -0.026942538
0.10157421 0.092955515 0.5863222 -0.14433533 0.22275715 0.93440294 0.46540684 0.93457544
0.39833716 -0.13764323 0.062952176 0.19391073 -0.35644737 -0.31506115 0.36635336 -0.061348036
0.013710233 0.57662636 -0.06604659 -0.13664454 0.43381065 -0.011666244 0.03519661 0.054667342
0.36419365 -0.05722739 0.42501563 0.01836885 -0.283518 0.052914098 -0.0073072338 -0.18327193
0.48360234 0.17599414 -0.2177377 0.028539961 0.33342606 0.045787442 0.44422448 -0.35049418
0.2067459 -0.298135 0.2515217 0.026591554 -0.26648492 -0.11551905 -0.006504234 -0.20706645
-0.2322464 -0.334617 0.11652642 0.08327544 0.05790036 0.03831625 -0.031653117 -0.028682558
6.710427 -0.0035944392 0.066751994 -0.112418085 2.2191372 -1.7481312 -0.29486182 -0.22406776
-0.12715217 -0.332296 -0.16378894 0.18177827 0.105549976 0.1740545 -0.124809645 -0.12591743
0.48717287 -0.42290372 -0.57425946 -0.21714944 0.08957935 0.29100928 -0.31300142 0.06905394
0.4735727 -0.047483884 -0.08290258 0.59613335 0.59205306 -0.5246548 -5.134509 -0.09266738
-0.14600918 1.0026538 -1.2181922 2.5955503 0.26400584 -0.22119784 0.10504323 -0.040404983
-0.1701725 0.3996773 1.5387064 0.10216176 -0.042148232 0.91936594 0.99780643 -0.38398778
0.08996104 0.14468099 0.107943185 -0.04769517 -0.40434653 -0.10994212 0.004385851 0.13431872
-0.088836186 0.44539258 -0.28304783 -0.09247167 -0.16349764 0.2929373 -0.1674171 -0.016228734
-0.2565206 -0.1721997 -0.19948982 0.12500013 -0.12602864 -0.38245785 -0.32273874 -0.2059967
0.38917774 -0.26512235 -0.062487222 -0.23500617 0.12134875 0.024794973 -0.32388762 -0.0024119758
-0.061392736 -0.45896333 0.34459746 -0.043251034 -0.4800967 0.07108834 0.1421241 0.47739673
0.03506107 0.06788444 2.9321592 0.42050782 -0.21267441 -0.11909543 0.6330829 -0.8278216
-0.30050382 -0.061086487 -0.088896744 0.02778386 0.14959651 0.017942177 -0.7410412 -0.30837438
0.23547235 -0.044034243 -0.43106347 -0.09083078 -0.4589092 -0.15780322 -0.13692473 -0.40817514
-0.10474098 0.34161597 0.11525746 -0.18893677 0.014280653 -0.006020588 0.13791037 -0.39672017
0.46823677 -0.11606452 0.22121303 -0.11418284 0.42915744 -0.4051652 -0.06713819 -0.31642088
0.0005565659 0.32579416 0.28316376 0.09154555 0.7527338 -0.2456512 0.13174158 -0.29663458
00000000: f0d7 4ebf 99aa a23d e65d 6e3d 4bfc e5bd
00000010: f2e5 9dbe 2849 febd 0a87 cebe c32c 6dbd
00000020: 3358 493e 2342 b3be 5822 5c3d 8741 443d
00000030: 6a00 503e 565a 58be ec08 653e 7263 203e
00000040: af32 e9be 3534 cf3e dc26 e4be 1199 8d3e
00000050: 4d52 253d 5aad 20be 85a0 debe 08c6 b7be
00000060: b946 89bd 6a1c 76be da2a d33e 0fe9 513e
00000070: be40 2d3d fdf3 1dbe ccb6 05bf 7cfd 8f3d
00000080: 7a4f 7c3e 4f69 89be daae 3a3e 2f57 033e
00000090: f230 b2c0 d954 aabe 0bbd 223e 7666 173f
000000a0: b989 aabf 0aea 1940 b41e 503f 22b2 34bd
000000b0: 20e8 5fbe bf03 233e 2b98 103f 0fba 96be
000000c0: c5a9 debe b334 a9bd 2b36 7f3e dd71 613e
000000d0: 88b5 4cbe 49a9 7e3e 178e 653e 42c7 dd3d
000000e0: b5dd de3d ab94 0abf 0393 a13e 8fca 9b3d
000000f0: ddb0 febe ef3d 8cbe c7af 8a3e 99b6 dcbc
00000100: 2406 d03d 765f be3d 3619 163f a4cc 13be
00000110: 731a 643e 0835 6f3f ce49 ee3e 5640 6f3f
00000120: d9f2 cb3e 59f2 0cbe 12ed 803d 8990 463e
00000130: 4580 b6be b24f a1be ab92 bb3e 1448 7bbd
00000140: e3a0 603c c99d 133f 6f43 87bd 8cec 0bbe
00000150: 6e1c de3e c623 3fbc 522a 103d ddea 5f3d
00000160: 9777 ba3e 4567 6abd a69b d93e 457a 963c
00000170: 4529 91be 74bc 583d 8571 efbb a3ab 3bbe
00000180: ba9a f73e cf37 343e a2f6 5ebe a3cc e93c
00000190: d2b6 aa3e 9d8b 3b3d 6471 e33e f973 b3be
000001a0: 32b5 533e 27a5 98be 74c7 803e 88d6 d93c
000001b0: b670 88be 4095 ecbd 7821 d5bb 3a09 54be
000001c0: 00d2 6dbe eb52 abbe 67a5 ee3d 508c aa3d
000001d0: ee28 6d3d 80f1 1c3d b3a6 01bd aff7 eabc
000001e0: d1bb d640 af90 6bbb 45b5 883d 743b e6bd
000001f0: 5806 0e40 c3c2 dfbf 21f8 96be 0572 65be
00000200: 2e34 02be b422 aabe 4ab8 27be 1524 3a3e
00000210: 962a d83d 583b 323e 339c ffbd 80f0 00be
00000220: b96e f93e d686 d8be ab02 13bf 6c5c 5ebe
00000230: 6175 b73d 2bff 943e b941 a0be 276c 8d3d
00000240: 1f78 f23e 767e 42bd d4c8 a9bd 329c 183f
00000250: ca90 173f c74f 06bf e64d a4c0 65c8 bdbd
00000260: 6e83 15be f656 803f b9ed 9bbf 7f1d 2640
00000270: c62b 873e b081 62be e820 d73d b27f 25bd
00000280: b341 2ebe 81a2 cc3e 55f4 c43f 2f3a d13d
00000290: a0a3 2cbd 915b 6b3f 3e70 7f3f 0c9a c4be
000002a0: 7e3d b83d 4127 143e 5111 dd3d 035c 43bd
000002b0: 8206 cfbe 5629 e1bd 2fb7 8f3b d98a 093e
000002c0: bfef b5bd 7f0a e43e a5eb 90be c961 bdbd
000002d0: ed6b 27be e1fb 953e 636f 2bbe 1ff2 84bc
000002e0: ab56 83be 1e55 30be 0f47 4cbe 0900 003e
000002f0: a70d 01be 84d1 c3be 033e a5be cdf0 52be
00000300: 4e42 c73e 1ebe 87be 9af2 7fbd 75a5 70be
00000310: b285 f83d d41e cb3c 99d4 a5be 3d12 1ebb
00000320: f376 7bbd 3efd eabe 146f b03e ff27 31bd
00000330: 3ccf f5be c396 913d fb88 113e 586d f43e
00000340: 329c 0f3d ff06 8b3d 7fa8 3b40 cd4c d73e
00000350: 52c7 59be 4ee8 f3bd b911 223f 1eec 53bf
00000360: a3db 99be d335 7abd 7f0f b6bd fa9a e33c
00000370: d42f 193e 79fb 923c e0b4 3dbf 3fe3 9dbe
00000380: aa1f 713e 405d 34bd 5ab4 dcbe 7d05 babd
00000390: 26f6 eabe 2b97 21be ff35 0cbe 55fc d0be
000003a0: 7082 d6bd 4ae8 ae3e 1a0c ec3d a478 41be
000003b0: 66f9 693c 5a48 c5bb 6038 0d3e e81e cbbe
000003c0: bbbc ef3e 3cb3 edbd ab85 623e b1d8 e9bd
000003d0: 86ba db3e d071 cfbe bf7f 89bd eb01 a2be
000003e0: 81e6 113a 7ece a63e d7fa 903e 3c7c bb3d
000003f0: 2ab3 403f fd8b 7bbe 44e7 063e 7de0 97be
