1_pole_inverted_pendulum/1_pole_PPO3_Trained/PPO3_One_Pole_InvPendulum.pth (torch, 109673 bytes, 18 tensors)

actor.0.weight f4 [64, 6]
0.15225853 -0.5125212 0.33370915 0.13727531 0.5130508 0.039083 -0.546051 0.30218545
0.3209203 -0.23573291 -0.016181462 -0.2086668 -0.6496816 -0.1402084 -0.3767203 -0.06503679
-0.36270332 0.025527846 -0.17291935 -0.018731615 -0.20088825 -0.22039014 -0.064639404 0.24435653
0.07999021 0.18767129 0.47533354 -0.2608474 -0.073720634 0.09587457 0.109593526 -0.49578074
0.120677434 0.19160356 0.3122788 0.251497 0.03286931 0.31859735 -0.42120975 -0.09560099
-0.27281576 -0.2734667 0.209627 -0.15428719 -0.58182603 0.29733428 -0.12546283 0.28826034
-0.0020436915 -0.26889592 -0.032351457 0.59691525 0.43101072 0.018011242 -0.4854391 -0.27568853
-0.298912 0.3114523 0.16897513 0.29427552 0.24837877 0.13093744 -0.020146493 -0.42744192
-0.022377389 -0.06804859 -0.031715598 -0.49632832 -0.6396814 -0.1639377 -0.29242772 0.14765613
0.2764978 -0.15755178 0.1605305 -0.011332944 0.5960601 -0.22378725 -0.681398 -0.3946539
0.33093107 -0.29631126 -0.12659195 -0.22151281 0.20956738 -0.25187227 -0.109034225 -0.28519893
0.19465463 0.2652668 0.12425782 0.1513232 0.24595565 -0.44998953 -0.59618735 0.022330942
-0.19217366 0.41966802 0.46786943 -0.15850021 0.49365413 -0.17533477 0.5721648 0.36525717
-0.31845403 -0.19491732 0.47333273 -0.2860942 -0.06830874 0.24238089 -0.07544444 0.27106592
-0.055238005 0.037399847 0.069434956 -0.4880946 0.44638282 0.1978192 0.36579266 0.37729737
0.622603 -0.41526416 -0.09649348 -0.16339798 0.32155013 -0.13527231 0.36207855 -0.2774121
0.17117079 -0.06967572 0.03524295 -0.38567516 -0.053033818 0.4569059 -0.23953998 0.48397118
-0.3266722 0.26706704 0.06386451 -0.36094826 0.15152906 0.4175716 -0.30091614 0.050520547
0.13059445 -0.40458673 -0.20645836 0.3533191 0.41377243 -0.28947088 -0.23054428 -0.26964846
-0.3066278 -0.31146145 -0.5642346 -0.24123633 -0.014434524 0.32211077 -0.18374519 -0.41122833
0.16688517 0.14784686 0.5258015 -0.10787485 -0.28796962 -0.36524954 -0.0032949029 0.06386259
0.33192745 -0.035731588 0.12070298 -0.2989064 -0.31423232 -0.24576955 0.47117674 -0.09347955
-0.4109786 0.42008826 0.53647935 -0.27640364 -0.15450303 -0.13761666 0.26038456 0.26816103
0.29359058 -0.23086792 -0.18585749 -0.32764086 0.4096639 -0.25913075 -0.24245766 -0.04645017
0.3737878 0.30035853 0.29762903 0.565203 0.6284413 0.067584544 0.12676808 0.18291722
0.6151497 0.2093306 -0.35615054 0.07395891 0.12124147 -0.005795789 -0.053137287 0.43774492
-0.41746837 0.35559946 0.44747356 -0.048023283 -0.37502584 0.20312281 0.5828265 0.34930283
-0.50933415 -0.29367694 0.206023 0.17898282 -0.21026833 0.37621203 -0.07798929 -0.43181166
-0.3079995 0.29255962 0.3266723 0.30712685 0.014762189 -0.16874376 0.24929698 0.42607027
-0.03480471 -0.16602741 -0.42930704 -0.0022170686 -0.11183029 -0.3855278 -0.5847053 -0.3693073
-0.095777124 0.43768892 -0.56900394 0.38764223 -0.18669069 0.33159664 -0.22295807 0.02358526
-0.5250232 0.37141362 -0.0040968 -0.03778569 0.050235927 -0.17268555 -0.031678554 0.3272872
00000000: a9e9 1b3e 9734 03bf eddb aa3e e691 0c3e
00000010: 4c57 033f 7f15 203d 00ca 0bbf 0db8 9a3e
00000020: aa4f a43e f863 71be fc8e 84bc c0ac 55be
00000030: 8951 26bf ca92 0fbe 7ce1 c0be 0232 85bd
00000040: 40b4 b9be c61f d13c c511 31be 0b73 99bc
00000050: a6b5 4dbe f4ad 61be aa61 84bd 9938 7a3e
00000060: e8d1 a33d e72c 403e eb5e f33e ca8d 85be
00000070: d8fa 96bd e359 c43d 9272 e03d f9d6 fdbe
00000080: bb25 f73d b933 443e 02e3 9f3e 37c4 803e
00000090: f8a1 063d 311f a33e cea8 d7be 74ca c3bd
000000a0: 82ae 8bbe d403 8cbe 76a8 563e 76fd 1dbe
000000b0: 8df2 14bf 333c 983e 5479 00be dc96 933e
000000c0: 74ef 05bb baac 89be f682 04bd 70cf 183f
000000d0: 70ad dc3e 508c 933c 798b f8be 0c27 8dbe
000000e0: fe0a 99be ad76 9f3e d107 2d3e 48ab 963e
000000f0: 0157 7e3e 7714 063e 420a a5bc abd9 dabe
00000100: c950 b7bc 0f5d 8bbd 37e8 01bd bf1e febe
00000110: 29c2 23bf 49df 27be 16b9 95be 2b33 173e
00000120: 1f91 8d3e 4155 21be 1b62 243e d0ad 39bc
00000130: 6597 183f 7c28 65be 1970 2ebf 1310 cabe
00000140: cc6f a93e 1cb6 97be 52a1 01be 41d4 62be
00000150: d598 563e 67f5 80be 564d dfbd 9805 92be
00000160: 8b53 473e 0dd1 873e e27a fe3d 78f4 1a3e
00000170: ccdb 7b3e 0765 e6be bc9f 18bf 61ef b63c
00000180: 2cc9 44be bade d63e 958c ef3e e14d 22be
00000190: 3cc0 fc3e f58a 33be 6479 123f fd02 bb3e
000001a0: 680c a3be 6898 47be ab58 f23e f07a 92be
000001b0: 74e5 8bbd b232 783e 9d82 9abd 27c9 8a3e
000001c0: 3f41 62bd 9530 193d ea33 8e3d 89e7 f9be
000001d0: 4a8c e43e 1e91 4a3e 2d49 bb3e 1f2d c13e
000001e0: e962 1f3f 819d d4be 609e c5bd cd51 27be
000001f0: 38a2 a43e d384 0abe 5c62 b93e f508 8ebe
00000200: 6547 2f3e 25b2 8ebd e95a 103d 3777 c5be
00000210: fd39 59bd 92ef e93e f849 75be 12cb f73e
00000220: 9441 a7be 03bd 883e 65cb 823d 36ce b8be
00000230: 6f2a 1b3e f2cb d53e ae11 9abe a2ee 4e3d
00000240: 8dba 053e fe25 cfbe d269 53be 3ee6 b43e
00000250: fbd9 d33e 8735 94be cd13 6cbe 5d0f 8abe
00000260: 52fe 9cbe e077 9fbe ae71 10bf a806 77be
00000270: c87e 6cbc b4eb a43e b327 3cbe 858c d2be
00000280: f2e3 2a3e 2b65 173e ed9a 063f 7ded dcbd
00000290: c170 93be fd01 bbbe 4cef 57bb 64ca 823d
000002a0: 65f2 a93e 495b 12bd 2033 f73d 420a 99be
000002b0: 0fe3 a0be 03ab 7bbe 143e f13e 3572 bfbd
000002c0: c96b d2be cf15 d73e b656 093f c784 8dbe
000002d0: 0b36 1ebe 62eb 0cbe 2051 853e 674c 893e
000002e0: 8151 963e a468 6cbe 6d51 3ebe 8bc0 a7be
000002f0: 77bf d13e c9ac 84be d246 78be 8942 3ebd
00000300: 1d61 bf3e 98c8 993e d562 983e 25b1 103f
00000310: 87e1 203f c469 8a3d 7ecf 013e a74e 3b3e
00000320: 737a 1d3f c35a 563e 5d59 b6be c577 973d
00000330: 734d f83d 9aea bdbb 7ca6 59bd 1a20 e03e
00000340: 6abe d5be 2211 b63e 411b e53e 10b4 44bd
00000350: 6303 c0be 6dff 4f3e 1e34 153f d2d7 b23e
00000360: b963 02bf d35c 96be b1f7 523e 4647 373e
00000370: 9550 57be dd9e c03e d9b8 9fbd 6b16 ddbe
00000380: 1cb2 9dbe 60ca 953e 9741 a73e bb3f 9d3e
00000390: 1cdd 713c 2acb 2cbe b547 7f3e e225 da3e
000003a0: 628f 0ebd 1703 2abe 22ce dbbe 3d4c 11bb
000003b0: 4707 e5bd e663 c5be 3faf 15bf d915 bdbe
000003c0: cc26 c4bd c318 e03e 3eaa 11bf 0b79 c63e
000003d0: d82b 3fbe 09c7 a93e 1f4f 64be e035 c13c
000003e0: ec67 06bf ed29 be3e 733e 86bb 2bc5 1abd
000003f0: 30c4 4d3d 7bd4 30be 5fc1 01bd 3092 a73e

actor.0.bias f4 [64]
0.06920706 -0.12105687 -0.07107916 0.3322464 0.11512384 -0.45852816 -0.13508508 0.1654178
-0.118527256 -0.16691804 0.14126918 0.02906798 -0.22304899 0.045688953 0.41412055 0.5213213
-0.16068137 0.027614966 -0.15820986 -0.21166636 0.21756685 0.13857625 0.46549207 0.25413805
0.13654286 0.15957737 -0.28161538 -0.4502983 0.05380239 0.07490507 -0.36767146 -0.35199288
-0.28942794 -0.17010196 0.0118647115 0.22280255 0.439946 -0.37857968 -0.3733033 -0.34847054
0.41625327 0.42527902 -0.057434045 0.33650717 0.12536664 -0.5052377 0.40450382 0.108033344
0.38795492 0.31339785 -0.08652774 -0.02700293 -0.0524051 -0.13608603 -0.07627406 -0.108309224
0.49905226 0.25468588 0.052193094 0.44368497 -0.23383605 0.06910469 -0.19055961 -0.20877393
00000000: 6ebc 8d3d aaec f7bd f391 91bd 331c aa3e
00000010: 0cc6 eb3d 34c4 eabe be53 0abe 4963 293e
00000020: 6bbe f2bd 90ec 2abe dea8 103e f91f ee3c
00000030: f466 64be 5724 3b3d 9c07 d43e 5075 053f
00000040: a889 24be c838 e23c c401 22be 11bf 58be
00000050: d8c9 5e3e efe6 0d3e fa54 ee3e 621e 823e
00000060: e4d1 0b3e 4068 233e e42f 90be 808d e6be
00000070: e55f 5c3d d467 993d 6f3f bcbe 6938 b4be
00000080: e62f 94be 352f 2ebe 3564 423c 5a26 643e
00000090: 9a40 e13e 32d5 c1be 9c21 bfbe bb6a b2be
000000a0: 261f d53e 2cbe d93e f63f 6bbd ab4a ac3e
000000b0: 1d60 003e 4257 01bf 201b cf3e 9640 dd3d
000000c0: 07a2 c63e af75 a03e 7535 b1bd 4035 ddbc
000000d0: bba6 56bd 235a 0bbe 9335 9cbd 3ad1 ddbd
000000e0: c783 ff3e 3066 823e 6dc8 553d ad2a e33e
000000f0: b872 6fbe c286 8d3d 0f22 43be d5c8 55be

actor.2.weight f4 [64, 64]
0.11614295 -0.10502065 -0.2020397 0.10063881 0.0927668 -0.06139607 0.09023585 -0.09019147
0.12305515 -0.10052127 -0.007812627 0.062226254 0.09241427 -0.030772584 -0.04943903 0.08752441
-0.049953204 -0.083874814 -0.0448849 -0.07410727 0.014360019 0.08486515 -0.02416626 -0.0008509546
0.09748656 0.105713174 0.059014242 0.026157344 0.076661274 0.0091522075 -0.110156424 0.07339991
0.025809376 0.033729974 -0.05491045 0.096095204 0.02084962 -0.030521605 -0.09055247 -0.11366981
-0.06290165 -0.05669389 -0.07200017 0.015689181 -0.019449186 -0.0016181109 -0.11449891 0.025080726
0.0017258135 0.17438596 0.089459874 0.01412483 0.018133609 0.021682583 -0.06116233 0.13296406
-0.20746133 0.024003893 -0.019148704 0.071164586 0.110228315 -0.10688504 0.023896843 -0.014759338
-0.14094928 -0.07733072 -0.17154616 0.028461808 -0.080569886 -0.053277202 0.08970724 -0.046215452
-0.027489955 -0.10998057 0.004627717 0.027283208 0.028071318 0.008737607 -0.058390692 -0.047998577
-0.0828583 0.08938001 0.0122358315 -0.09618797 0.0021916232 -0.11284593 0.05451085 -0.08230153
0.042073697 0.06454714 -0.005208348 0.082470596 -0.0941067 0.04624287 0.031719197 0.12546849
-0.18482704 0.122581124 -0.047714934 0.12309789 -0.06477549 0.109180145 -0.08954112 0.048014283
-0.117674455 -0.11967528 0.115804955 -0.041022576 0.10291868 0.055430826 0.0067802323 -0.11336168
0.079871714 0.09412725 -0.0036244276 -0.07223227 0.0826991 -0.047959223 0.07320316 0.106854215
-0.13726866 0.10338722 0.053699758 0.102428466 -0.06147152 0.017104091 0.09713202 -0.03475447
0.012098417 -0.01325741 -0.12929386 0.071569085 -0.03476429 -0.0057540997 -0.035517413 0.03247927
0.08899201 0.06125018 0.09286423 0.059657197 -0.0075325943 -0.033146907 -0.04869292 -0.12237214
0.113597184 0.12827395 -0.12841667 -0.0346422 -0.07115395 0.087092645 -0.07334901 -0.00052662817
0.109192416 -0.11023537 0.06399631 -0.13364391 -0.046375908 0.10382137 -0.10519722 -0.096810944
0.1352601 -0.12603159 -0.091921404 0.03251595 -0.032174636 0.028634934 0.08899736 -0.022284402
-0.089835905 0.015927233 0.005120996 -0.12521179 -0.0822071 -0.06519723 -0.12794495 -0.0724443
0.11016316 0.0309571 0.10863601 -0.0043599536 -0.014726953 0.017813995 -0.081834994 -0.15061086
-0.10276449 -0.10277538 0.070685975 -0.109618105 0.040198214 0.07901416 0.029350223 -0.069271356
0.08367708 -0.0822494 -0.08140053 -0.016706055 -0.10426819 0.11226097 0.073818445 0.015133704
0.015339932 -0.093483 0.076609336 -0.020217659 -0.11306409 -0.08813304 0.00011895826 -0.20903452
0.08362223 -0.078884974 0.04960879 0.0053989547 0.086102635 -0.030956974 -0.021333808 -0.016213803
0.0887956 0.042016305 -0.019911924 0.014147321 0.11212284 0.10810289 -0.07535136 0.054686636
0.0009402123 0.117869735 0.07108117 0.017772278 -0.09927511 0.11443761 -0.084978275 -0.12352878
0.03209313 0.008287139 -0.058169637 -0.1292351 0.02171617 -0.05116332 -0.024722775 0.0817445
-0.054594055 -0.105656356 0.097578004 -0.0989836 -0.092953876 0.12123247 -0.10554538 -0.120968804
0.123873994 0.06889227 -0.08882358 0.104156904 -0.055694267 0.10046157 0.042281285 -0.10333844
00000000: 5bdc ed3d 1115 d7bd 7fe3 4ebe b81b ce3d
00000010: 85fc bd3d 727a 7bbd 93cd b83d 4eb6 b8bd
00000020: 5704 fc3d 18de cdbd 8800 00bc f5e0 7e3d
00000030: b143 bd3d c916 fcbc 9580 4abd ff3f b33d
00000040: bb9b 4cbd 8fc6 abbd 3bd9 37bd 8dc5 97bd
00000050: 4946 6b3c c8cd ad3d 52f8 c5bc 9912 5fba
00000060: 09a7 c73d 2680 d83d ebb8 713d ed47 d63c
00000070: 9600 9d3d 24f3 153c b199 e1bd b152 963d
00000080: 2f6e d33c 7128 0a3d c8e9 60bd 90cd c43d
00000090: d3cc aa3c 7208 fabc 9373 b9bd b8cb e8bd
000000a0: 95d2 80bd da37 68bd d374 93bd 9986 803c
000000b0: e653 9fbc cb16 d4ba 687e eabd 1876 cd3c
000000c0: b134 e23a 3c92 323e bd36 b73d d56b 673c
000000d0: ef8c 943c ac9f b13c 5a85 7abd bb27 083e
000000e0: be70 54be d0a3 c43c bedd 9cbc bdbe 913d
000000f0: 62bf e13d 8be6 dabd 50c3 c33c 27d1 71bc
00000100: 0255 10be 925f 9ebd cca9 2fbe bd28 e93c
00000110: d301 a5bd 3239 5abd 6eb8 b73d 6a4c 3dbd
00000120: 9d32 e1bc 7e3d e1bd 1ba4 973b 0981 df3c
00000130: d2f5 e53c 2e28 0f3c 142b 6fbd 289a 44bd
00000140: 9db1 a9bd de0c b73d cc78 483c 33fe c4bd
00000150: 56a1 0f3b c41b e7bd c546 5f3d b48d a8bd
00000160: 7855 2c3d 4a31 843d caaa aabb 58e6 a83d
00000170: 03bb c0bd 2a69 3d3d fdeb 013d d07a 003e
00000180: 4d43 3dbe d00b fb3d bc70 43bd bf1a fc3d
00000190: 03a9 84bd d799 df3d 5661 b7bd a0aa 443d
000001a0: 4eff f0bd 5018 f5bd 262b ed3d 4a07 28bd
000001b0: 07c7 d23d 6f0b 633d b62c de3b 2b2a e8bd
000001c0: c893 a33d cac5 c03d ce87 6dbb 83ee 93bd
000001d0: 255e a93d e470 44bd 8aeb 953d 62d6 da3d
000001e0: 2890 0cbe aebc d33d 47f4 5b3d 04c6 d13d
000001f0: 90c9 7bbd e11d 8c3c 27ed c63d b45a 0ebd
00000200: 7038 463c 9c35 59bc 9c65 04be d092 923d
00000210: 0065 0ebd e38c bcbb b57a 11bd fc08 053d
00000220: 7141 b63d 78e1 7a3d 9a2f be3d 1b5b 743d
00000230: fbd3 f6bb 0dc5 07bd 3a72 47bd 3f9e fabd
00000240: a4a5 e83d 3f5a 033e a97f 03be fbe4 0dbd
00000250: 2ab9 91bd a15d b23d 0138 96bd 6b0d 0aba
00000260: 46a0 df3d 15c3 e1bd 7f10 833d f3d9 08be
00000270: aaf4 3dbd 4ca0 d43d a471 d7bd d144 c6bd
00000280: a081 0a3e 6d0e 01be 4a41 bcbd 722f 053d
00000290: 8dc9 03bd cf93 ea3c 3f44 b63d c78d b6bc
000002a0: e3fb b7bd d479 823c 07ce a73b 8537 00be
000002b0: 325c a8bd 2086 85bd 0004 03be ad5d 94bd
000002c0: 399d e13d bf99 fd3c 8e7c de3d f1dd 8ebb
000002d0: 5149 71bc a8ee 913c 1b99 a7bd bc39 1abe
000002e0: 3076 d2bd e67b d2bd cfc3 903d 757f e0bd
000002f0: e2a6 243d 2dd2 a13d e16f f03c 24de 8dbd
00000300: e45e ab3d 6072 a8bd 52b5 a6bd 23db 88bc
00000310: 908a d5bd 14e9 e53d 202e 973d 5bf3 773c
00000320: 5754 7b3c 0474 bfbd 5be5 9c3d 819f a5bc
00000330: 258e e7bd 187f b4bd 3b79 f938 250d 56be
00000340: 2242 ab3d 728e a1bd 9632 4b3d b7e9 b03b
00000350: 9456 b03d 7b99 fdbc 3dc4 aebc cfd2 84bc
00000360: 78da b53d 4a19 2c3d 551e a3bc 2aca 673c
00000370: a9a0 e53d 0c65 dd3d d051 9abd 18ff 5f3d
00000380: 9478 763a b065 f13d 0193 913d 2b97 913c
00000390: c050 cbbd 445e ea3d 1709 aebd a8fc fcbd
000003a0: 1674 033d c8c6 073c 4943 6ebd 3556 04be
000003b0: 1ce6 b13c a190 51bd 6b87 cabc a969 a73d
000003c0: 049e 5fbd 5c62 d8bd fad6 c73d eab7 cabd
000003d0: 9a5e bebd bb48 f83d 2d28 d8bd 7ebe f7bd
000003e0: a6b1 fd3d 6417 8d3d 23e9 b5bd 3750 d53d
000003f0: ac1f 64bd ccbe cd3d 242f 2d3d 1ba3 d3bd

actor.2.bias f4 [64]
0.07638835 -0.056036267 -0.1337196 0.06379464 -0.056014538 0.0006496339 0.031893786 -0.025254462
-0.009880256 -0.080293074 0.1490657 -0.068505965 0.08259949 0.10026334 -0.12770498 0.06389635
0.013571597 -0.08477315 0.06487917 0.10037581 0.05843855 0.070445284 -0.18465926 0.15563776
0.01527189 -0.064915314 0.04311617 0.07815556 -0.076744884 -0.028718779 0.0047645704 0.03718462
-0.1051106 -0.035423413 -0.083794534 -0.021129824 -0.055343337 0.0026282365 0.08981069 -0.19358316
0.049755663 -0.03268456 0.06873328 -0.036338113 -0.013340726 -0.12840919 0.032533098 0.18656746
0.050246775 0.061342314 0.0076434575 0.00046500732 -0.17014037 0.17414947 0.047773723 0.11237983
-0.23307475 0.1011615 -0.03107362 0.11384051 0.060587518 0.0777561 0.017132798 0.114284344
00000000: 7f71 9c3d 4986 65bd caed 08be c4a6 823d
00000010: 806f 65bd 314c 2a3a 0fa3 023d 72e2 cebc
00000020: cce0 21bc b270 a4bd aea4 183e db4c 8cbd
00000030: ec29 a93d de56 cd3d 18c5 02be 17dc 823d
00000040: 675b 5e3c 8c9d adbd 5fdf 843d d591 cd3d
00000050: 435d 6f3d 9e45 903d 5117 3dbe 815f 1f3e
00000060: f336 7a3c 52f2 84bd 959a 303d 0610 a03d
00000070: 6c2c 9dbd a543 ebbc 1d20 9c3b e64e 183d
00000080: 3a44 d7bd 2418 11bd 789c abbd 7418 adbc
00000090: b2af 62bd 7e3e 2c3b abee b73d aa3a 46be
000000a0: 98cc 4b3d 3fe0 05bd 09c4 8c3d 46d7 14bd
000000b0: 0f93 5abc b37d 03be 6d41 053d 8a0b 3f3e
000000c0: 90cf 4d3d 1442 7b3d f875 fa3b 3acc f339
000000d0: 4739 2ebe 3d54 323e 61ae 433d 6527 e63d
000000e0: 26ab 6ebe c32d cf3d 1b8e febc 3725 e93d
000000f0: 9e2a 783d 973e 9f3d 155a 8c3c e90d ea3d

actor.4.weight f4 [64, 64]
0.06634208 0.05499027 0.09821343 0.015852422 0.11076281 -0.0022919022 -0.045243613 0.074280694
-0.017034106 -0.0836904 -0.045521133 -0.061620887 0.064189814 0.09441088 -0.07102128 0.0080657825
0.053753443 -0.07582067 0.022420714 0.018880444 -0.10227304 0.13477887 -0.0801843 0.043140683
-0.08685573 -0.06736699 0.047788095 0.084037796 -0.051502068 -0.046631336 -0.013440244 0.08615487
-0.05450237 -0.059274223 -0.051130444 -0.04512709 -0.0750469 -0.10214005 0.044191148 -0.016837642
0.057978507 -0.11200272 0.04072113 -0.13770434 -0.083617344 -0.088142455 -0.1462091 0.005402038
-0.007594255 -0.06880895 -0.04430137 0.027051967 -0.046256647 -0.112521976 -0.07681845 -0.008783137
0.1294299 -0.09387546 -0.0035335973 -0.16210406 -0.13196625 0.10174673 0.06456829 -0.0026737752
-0.099273264 -0.09319931 0.13160153 0.029460512 0.010525153 0.0063759503 -0.1023456 -0.11225527
-0.036041737 0.09223079 0.06402162 0.0021007543 -0.06445245 -0.048081994 -0.06364967 -0.10276256
0.048662886 -0.08070421 0.07255803 -0.13146688 0.022938808 0.014438689 -0.050642613 -0.029035093
-0.053235818 -0.016622556 -0.06257734 -0.028354926 0.01668671 0.022747846 -0.033875067 -0.041158576
0.080818936 0.03365125 -0.034313288 -0.030045161 0.03643678 -0.018632814 0.1316447 0.04685798
0.10563584 -0.07683187 0.060985785 0.055723164 -0.113263376 -0.09699798 -0.09571102 -0.12852567
0.039296836 0.0104332585 0.02261144 -0.07306727 -0.06160239 0.06825804 -0.07410213 -0.011684976
-0.062104136 0.12887447 -0.051143855 0.13559473 -0.061722305 0.002665811 -0.12256116 0.024256676
-0.08785815 -0.060721356 0.047692545 -0.07597494 -0.053679917 0.021395594 -0.015067116 0.01543836
0.10989607 0.078010954 -0.053769365 -0.07810666 0.11756576 -0.07268738 -0.06509378 -0.03210242
-0.06645203 -0.07837134 0.04540242 -0.008017179 -0.12168197 0.081921935 0.09636352 0.094838664
-0.07924037 -0.10154174 -0.10830946 -0.03707339 0.062484216 -0.015153673 -0.0875004 -0.009199252
-0.030275688 0.038702745 0.07494122 -0.038190495 -0.08037667 -0.0697626 -0.03537089 0.067248315
0.11158071 -0.036285218 -0.005836779 0.08867237 -0.0070355497 -0.041150838 0.05075752 0.14948067
0.024064543 0.027282443 0.0072614234 -0.04630471 -0.0013684774 0.11295071 -0.01608462 0.1011802
0.038959745 0.111274876 -0.0046435576 0.012968952 0.010994006 0.0979121 -0.10591012 -0.10836827
-0.020135416 -0.11757446 -0.06313652 -0.06026142 0.10392729 -0.07530622 -0.03682351 -0.07925926
0.11857962 0.04904179 -0.065188475 -0.076173335 0.091728255 -0.1198686 0.08801853 -0.04432429
0.13396545 -0.054328106 0.12520659 0.0024343792 -0.005812832 -0.094809934 0.0285193 -0.05572572
0.108991064 0.04497685 -0.02869903 -0.06694478 -0.049399827 -0.13108811 -0.015587669 0.091903634
0.086935885 -0.024627188 0.116313726 0.010081837 0.04632119 -0.007274267 0.01704522 -0.08423847
0.12710512 -0.088776805 -0.061090626 -0.03872081 0.032690685 0.019347334 0.08516358 0.02938936
-0.031322747 -0.018725842 0.07859535 -0.14199024 0.08572082 -0.1128887 0.017574571 -0.047666308
0.09619874 0.033160172 0.06016528 -0.1144583 -0.050277326 0.04114105 -0.07915261 -0.016769534
00000000: 5bde 873d 7a3d 613d 1f24 c93d f0dc 813c
00000010: 9dd7 e23d bd33 16bb 5e51 39bd 7a20 983d
00000020: 1c8b 8bbc df65 abbd 5e74 3abd 2f66 7cbd
00000030: f375 833d 7e5a c13d 9b73 91bd 5826 043c
00000040: 922c 5c3d de47 9bbd a5ab b73c 29ab 9a3c
00000050: 8774 d1bd 7903 0a3e ab37 a4bd 49b4 303d
00000060: 6be1 b1bd b4f7 89bd 73bd 433d 021c ac3d
00000070: d5f3 52bd 8000 3fbd 7834 5cbc f771 b03d
00000080: e13d 5fbd 87c9 72bd 286e 51bd 2fd7 38bd
00000090: 30b2 99bd cd2e d1bd c701 353d 18ef 89bc
000000a0: df7a 6d3d af61 e5bd 33cb 263d 5e02 0dbe
000000b0: 923f abbd 0884 b4bd d7b7 15be 9403 b13b
000000c0: 3ad9 f8bb b5eb 8cbd 5a75 35bd 169c dd3c
000000d0: 9c77 3dbd ec71 e6bd fe52 9dbd 26e7 0fbc
000000e0: 4689 043e c741 c0bd ed93 67bb 9bfe 25be
000000f0: 2922 07be 9760 d03d 613c 843d 813a 2fbb
00000100: c84f cbbd 48df bebd 8dc2 063e 2c57 f13c
00000110: b171 2c3c 59ed d03b 929a d1bd 17e6 e5bd
00000120: 80a0 13bd 7fe3 bc3d c41d 833d cfac 093b
00000130: a5ff 83bd a0f1 44bd c25a 82bd 2d75 d2bd
00000140: bc52 473d 4048 a5bd 4e99 943d 419f 06be
00000150: 2bea bb3c 4090 6c3c a16e 4fbd 01db edbc
00000160: cd0d 5abd 072c 88bc 8c28 80bd 9748 e8bc
00000170: 91b2 883c b159 ba3c 95c0 0abd e595 28bd
00000180: 6684 a53d e5d5 093d 178c 0cbd 4521 f6bc
00000190: bc3e 153d d8a3 98bc decd 063e 27ee 3f3d
000001a0: 9a57 d83d 075a 9dbd 3bcc 793d f93d 643d
000001b0: a1f6 e7bd e0a6 c6bd 2404 c4bd 3c9c 03be
000001c0: b8f5 203d 42f0 2a3c a03b b93c 4ba4 95bd
000001d0: ca52 7cbd dfca 8b3d dcc2 97bd 5772 3fbc
000001e0: e860 7ebd abf7 033e 387c 51bd 58d9 0a3e
000001f0: 87d0 7cbd e3b4 2e3b 5801 fbbd f0b5 c63c
00000200: f9ee b3bd f5b6 78bd 4259 433d c098 9bbd
00000210: 79df 5bbd d045 af3c 11dc 76bc 2df1 7c3c
00000220: 3111 e13d 35c4 9f3d 443d 5cbd 62f6 9fbd
00000230: 51c6 f03d 1fdd 94bd e34f 85bd d47d 03bd
00000240: 0018 88bd 2781 a0bd e3f7 393d 7c5a 03bc
00000250: 6634 f9bd b0c6 a73d 3d5a c53d c63a c23d
00000260: c648 a2bd 1ef5 cfbd 5ad1 ddbd 44da 17bd
00000270: 73ef 7f3d 1c47 78bc 6933 b3bd 76b8 16bc
00000280: b804 f8bc c586 1e3d c87a 993d a36d 1cbd
00000290: 869c a4bd b2df 8ebd 11e1 10bd 7cb9 893d
000002a0: 6d84 e43d cf9f 14bd 7342 bfbb dc99 b53d
000002b0: 788a e6bb c88d 28bd 1ee7 4f3d 7611 193e
000002c0: 0123 c53c 6e7f df3c 3cf1 ed3b 02aa 3dbd
000002d0: 7b5e b3ba b452 e73d e5c3 83bc 9137 cf3d
000002e0: 4194 1f3d 15e4 e33d fc28 98bb ba7b 543c
000002f0: 3420 343c 2486 c83d 68e7 d8bd 2ff0 ddbd
00000300: 07f3 a4bc e1ca f0bd b84d 81bd aed4 76bd
00000310: d5d7 d43d 263a 9abd 40d4 16bd ae52 a2bd
00000320: dfd9 f23d 0be0 483d 8981 85bd c400 9cbd
00000330: 06dc bb3d ab7d f5bd 0f43 b43d 638d 35bd
00000340: 3d2e 093e 2687 5ebd 2836 003e 1b8a 1f3b
00000350: 9279 bebb b62b c2bd 4fa1 e93c a740 64bd
00000360: b536 df3d a539 383d 3a1a ebbc 581a 89bd
00000370: 7957 4abd f63b 06be 6c63 7fbc f937 bc3d
00000380: 710b b23d f5be c9bc e435 ee3d 4a2e 253c
00000390: 4abb 3d3d f95c eebb 6ba2 8b3c 3885 acbd
000003a0: d827 023e 9dd0 b5bd 2a3a 7abd b699 1ebd
000003b0: abe6 053d 4d7e 9e3c 3e6a ae3d f5c1 f03c
000003c0: 484c 00bd f066 99bc 99f6 a03d e465 11be
000003d0: 668e af3d 3132 e7bd 8cf8 8f3c bf3d 43bd
000003e0: d803 c53d f6d2 073d de6f 763d 1d69 eabd
000003f0: 99ef 4dbd 8583 283d c31a a2bd 4360 89bc

actor.4.bias f4 [64]
0.014884153 0.0992574 -0.031188738 -0.009126372 0.119981445 0.13048147 -0.068462655 -0.06958394
0.09162435 -0.060221978 -0.025937371 -0.08128376 0.10382802 0.068924986 0.037178136 0.011262876
-0.04568457 0.1564589 -0.012733633 0.19404066 0.053796053 -0.008906853 -0.0066339844 -0.058535017
-0.12049307 0.007788101 -0.12226343 0.0054192375 0.04129019 -0.05484276 -0.038475797 -0.14238162
-0.03398336 0.024004843 0.10970604 -0.17531009 -0.027024204 -0.024184927 -0.05804904 0.029601851
-0.15165234 0.072067164 -0.117448315 0.061092373 0.037735492 0.1396107 -0.06898263 0.097964
0.07088284 0.12852113 0.10929393 -0.08274405 0.21040611 -0.14923997 -0.02169944 -0.04548046
0.08024058 0.039194208 0.11325729 0.10900888 -0.083330706 -0.07396917 -0.008045196 0.19729598
00000000: aadc 733c 7747 cb3d 867f ffbc c786 15bc
00000010: d5b8 f53d ef9c 053e 2636 8cbd 0682 8ebd
00000020: 8ca5 bb3d 52ab 76bd 9c7a d4bc 1a78 a6bd
00000030: c9a3 d43d 8b28 8d3d 1a48 183d ed87 383c
00000040: be1f 3bbd c336 203e baa0 50bc 98b2 463e
00000050: 4059 5c3d 0dee 11bc e561 d9bb 6ac2 6fbd
00000060: 12c5 f6bd 5433 ff3b 4065 fabd dc93 b13b
00000070: e71f 293d cda2 60bd cc98 1dbd 7dcc 11be
00000080: 2332 0bbd cea5 c43c 8fad e03d 7d84 33be
00000090: dd61 ddbc 781f c6bc d5c4 6dbd 957f f23c
000000a0: c04a 1bbe f397 933d be88 f0bd ff3b 7a3d
000000b0: 8890 1a3d 1bf6 0e3e c446 8dbd 5aa1 c83d
000000c0: 062b 913d 0b9b 033e 7fd5 df3d b675 a9bd
000000d0: b374 573e 5dd2 18be 06c3 b1bc b849 3abd
000000e0: 2c55 a43d 1b8a 203d 70f3 e73d 0c40 df3d
000000f0: 4aa9 aabd 267d 97bd ffcf 03bc f507 4a3e

actor.6.weight f4 [64, 64]
-0.06379954 0.093952306 0.018718617 -0.018523812 0.05372924 -0.019281076 -0.07213366 -0.052759055
-0.049117368 0.03654913 -0.09009997 0.02429222 0.043173186 -0.0032494871 0.05469287 -0.064629905
0.075916745 0.09484815 -0.044237822 0.089682706 0.012075221 0.00405919 0.05356796 -0.023197096
-0.06628857 0.14243264 -0.101584114 0.120129615 -0.022418825 -0.024816554 0.07238101 0.012494364
-0.01055918 -0.06858267 -0.040499568 -0.04468481 -0.09674032 -0.073421076 0.093674205 -0.028397866
0.118957736 0.12725085 -0.044753194 0.018877646 0.048917342 -0.053559005 0.0690388 -0.073164545
0.06657906 0.1257939 0.09579385 0.07816346 0.016083065 0.036966965 0.11475177 0.08534627
-0.1256399 -0.14297953 -0.1408081 -0.040912777 0.07965672 -0.04507461 0.026646595 0.008609128
-0.04505517 0.04507764 0.06498005 -0.09347495 -0.021958243 -0.013634126 0.010300435 -0.1029743
-0.06270523 0.06831564 -0.09782985 -0.08693567 -0.025624687 -0.057842754 0.03408338 0.09549438
0.18768948 0.0027908548 0.10370567 -0.079742335 -0.03156603 -0.106012926 0.08177644 0.0782188
-0.0057751173 -0.020429939 0.069561526 -0.05037959 -0.006723665 -0.077376924 -0.01070636 0.0065178
-0.11042703 0.12141445 -0.117487945 0.023930382 0.032699246 -0.014690031 -0.035321698 -0.09963519
0.07128584 -0.08360002 -0.040332112 -0.046773776 0.087661125 0.065782174 -0.053738702 -0.11208908
0.07315774 -0.08763876 0.047653623 0.048835922 0.006286592 -0.038881294 0.105350114 0.06553866
-0.09456636 0.13529833 0.075032495 -0.16795287 0.13917848 0.051067688 0.016718253 -0.00010442367
-0.14106075 0.010903169 -0.096549004 -0.090443306 -0.058397353 0.10872042 0.087564886 0.070776656
0.068079606 -0.107329 0.07199788 -0.10732443 0.06821315 -0.05018194 0.014721025 0.0022593003
-0.059327975 0.00370795 0.0028879184 -0.014499186 0.10829869 0.017925635 0.021900082 0.022289077
0.06989067 0.0031511458 -0.072837494 0.0335525 0.013087021 0.044715278 -0.018115314 -0.0797778
0.23550344 -0.13698877 -0.12939385 -0.13924643 -0.067656234 -0.00055988826 0.014992294 -0.121315986
0.18926354 0.17019619 -0.1536345 0.13728857 -0.0147403 -0.07450146 -0.0015032485 0.018078396
-0.16350752 0.22224763 0.1569152 -0.10972541 -0.12647085 -0.033670045 0.09703922 0.1723463
0.028860196 -0.059963103 -0.12526254 0.04651508 -0.079394124 -0.033431306 -0.028858775 0.07198398
-0.078576274 0.023375055 0.04895805 0.08577981 -0.04465628 0.11087045 0.053245153 -0.14475688
-0.048344977 0.0054027946 -0.10317003 -0.11752556 -0.070721135 0.030447843 -0.1358306 -0.1131894
-0.11749665 -0.06460977 -0.075849265 -0.10428555 -0.09114217 0.08381837 0.17121708 -0.07147737
-0.047174715 0.08457535 0.0118803615 -0.04331517 0.09597317 -0.058992554 0.05295217 0.06400041
-0.035408884 -0.06832831 0.034865398 -0.010300726 -0.10825321 0.029173665 -0.13006365 -0.028310189
0.067679144 0.064671025 -0.059713934 -0.17839836 0.0892306 0.032558896 -0.07898645 0.014310177
0.048071153 0.12808286 0.1600602 0.047496032 0.09761496 0.11524592 -0.11079263 0.11904218
-0.12408558 -0.06556134 0.09244553 -0.055261496 0.041905288 -0.08619453 -0.08741178 -0.011086681
00000000: 55a9 82bd 116a c03d c957 993c 40bf 97bc
00000010: 3113 5c3d 59f3 9dbc d0ba 93bd e119 58bd
00000020: 4b2f 49bd 8ab4 153d 5586 b8bd 7a00 c73c
00000030: 5ed6 303d 59f5 54bb a105 603d af5c 84bd
00000040: 3d7a 9b3d bf3f c23d b832 35bd 91ab b73d
00000050: 26d7 453c f402 853b 146a 5b3d d607 bebc
00000060: 4dc2 87bd ddd9 113e 550b d0bd 8406 f63d
00000070: afa7 b7bc 164c cbbc 7f3c 943d 29b5 4c3c
00000080: 6900 2dbc 1275 8cbd e0e2 25bd 6b07 37bd
00000090: ca1f c6bd ca5d 96bd 43d8 bf3d a4a2 e8bc
000000a0: 1da0 f33d 0c4e 023e 204f 37bd 4ba5 9a3c
000000b0: 8d5d 483d b060 5bbd 3764 8d3d 4bd7 95bd
000000c0: 9a5a 883d 1ed0 003e 912f c43d 2a14 a03d
000000d0: a2c0 833c ac6a 173d fa02 eb3d 06ca ae3d
000000e0: bfa7 00be 3a69 12be 0030 10be 2894 27bd
000000f0: 1023 a33d 27a0 38bd f649 da3c 4d0d 0d3c
00000100: c58b 38bd 55a3 383d 4314 853d cb6f bfbd
00000110: c6e1 b3bc ab61 5fbc 28c3 283c 31e4 d2bd
00000120: 9a6b 80bd 12e9 8b3d 045b c8bd 540b b2bd
00000130: ddea d1bc 86ec 6cbd 049b 0b3d 8f92 c33d
00000140: ac31 403e c6e6 363b a363 d43d f34f a3bd
00000150: 624b 01bd 4e1d d9bd 687a a73d 2e31 a03d
00000160: 323d bdbb b05c a7bc 4676 8e3d d45a 4ebd
00000170: 3152 dcbb cb77 9ebd bb69 2fbc 4593 d53b
00000180: 9127 e2bd 24a8 f83d 859d f0bd a609 c43c
00000190: a5ef 053d 75ae 70bc 7cad 10bd 890d ccbd
000001a0: 4ffe 913d 7d36 abbd 4933 25bd dc95 3fbd
000001b0: ad87 b33d ceb8 863d 1d1d 5cbd f68e e5bd
000001c0: bad3 953d f37b b3bd 7230 433d 2d08 483d
000001d0: c2ff cd3b fe41 1fbd cdc1 d73d 2239 863d
000001e0: 02ac c1bd a58b 0a3e a3aa 993d d6fb 2bbe
000001f0: ce84 0e3e 5a2c 513d b8f4 883c 08fe dab8
00000200: 3b72 10be 35a3 323c 7cbb c5bd 573a b9bd
00000210: 1032 6fbd d0a8 de3d 3855 b33d 5af3 903d
00000220: 526d 8b3d 4fcf dbbd a073 933d e9cc dbbd
00000230: 56b3 8b3d 948b 4dbd 7430 713c c510 143b
00000240: e401 73bd 1401 733b 3b43 3d3b fe8d 6dbc
00000250: b4cb dd3d c8d8 923c cd67 b33c 9597 b63c
00000260: d722 8f3d 7483 4e3b d32b 95bd 596e 093d
00000270: f26a 563c 5e27 373d 9166 94bc 8b62 a3bd
00000280: d027 713e c946 0cbe d27f 04be 9e96 0ebe
00000290: 5a8f 8abd 77c5 12ba 3da2 753c 8474 f8bd
000002a0: 4dce 413e e947 2e3e 5d52 1dbe 6095 0c3e
000002b0: 4d81 71bc 3994 98bd a608 c5ba 2519 943c
000002c0: 846e 27be e294 633e 61ae 203e b7b7 e0bd
000002d0: 9381 01be 9ae9 09bd 80bc c63d 8c7b 303e
000002e0: 386c ec3c df9b 75bd d344 00be 9986 3e3d
000002f0: 6399 a2bd 44ef 08bd 3d69 ecbc 566c 933d
00000300: 99ec a0bd 0b7d bf3c 3c88 483d 53ad af3d
00000310: 81e9 36bd 0c10 e33d 9717 5a3d 263b 14be
00000320: 6205 46bd ed09 b13b cf4a d3bd 3eb1 f0bd
00000330: 3ed6 90bd c16d f93c 2d17 0bbe d8cf e7bd
00000340: 15a2 f0bd 2152 84bd dc56 9bbd aa93 d5bd
00000350: bfa8 babd f7a8 ab3d 8853 2f3e ba62 92bd
00000360: 463a 41bd d735 ad3d d9a5 423c 3f6b 31bd
00000370: 958d c43d 2da2 71bd 60e4 583d a612 833d
00000380: e808 11bd b7ef 8bbd 05cf 0e3d 60c4 28bc
00000390: dcb3 ddbd 9cfd ee3c 682f 05be c5ea e7bc
000003a0: 5d9b 8a3d 3e72 843d 9996 74bd 0fae 36be
000003b0: 88be b63d 7a5c 053d a6c3 a1bd 3c75 6a3c
000003c0: 42e6 443d 2728 033e d2e6 233e 338b 423d
000003d0: 5aea c73d 0e06 ec3d 3fe7 e2bd 63cc f33d
000003e0: 9520 febd 0645 86bd 1554 bd3d e159 62bd
000003f0: e1a4 2b3d c286 b0bd f304 b3bd e9a4 35bc

actor.6.bias f4 [64]
-0.08320326 0.0033978259 -0.015822398 -0.053460266 -0.039426126 0.019619403 0.043325275 -0.0836622
-0.0016299832 0.13134192 0.026477227 0.16958591 -0.10091355 0.037892535 0.06809438 -0.009077507
-0.078144506 0.0665325 -0.056474667 0.032345384 0.0022486113 0.01910616 0.11383819 -0.1322048
-0.02583156 0.0053238804 0.0135558825 0.06579772 -0.15450971 -0.1363967 0.16066791 -0.13647044
0.09801611 -0.12284219 -0.12102034 -0.024365935 0.07226826 0.004196113 0.06266421 -0.097285226
-0.06658922 -0.0057207164 0.08012163 -0.016880866 -0.19078319 -0.03616118 0.07814213 0.12426654
-0.026356047 6.0592433e-06 -0.1927494 0.025508434 -0.10663086 0.1333365 -0.07599017 0.0030232177
0.028527768 0.05511431 -0.13781844 -0.057538524 -0.07179295 0.0116088865 0.13099685 -0.04118931
00000000: 7966 aabd 0fae 5e3b f99d 81bc 27f9 5abd
00000010: 4a7d 21bd dfb8 a03c d875 313d 1657 abbd
00000020: 29a5 d5ba 7f7e 063e c5e6 d83c eea7 2d3e
00000030: c3ab cebd 3435 1b3d 1175 8b3d d3b9 14bc
00000040: 3a0a a0bd 3142 883d fb51 67bd 987c 043d
00000050: 705d 133b 8684 9c3c ff23 e93d b260 07be
00000060: b59c d3bc f273 ae3b 7e19 5e3c f4c0 863d
00000070: cb37 1ebe 94ab 0bbe 2186 243e e8be 0bbe
00000080: acbc c83d b094 fbbd 83d9 f7bd 129b c7bc
00000090: 6201 943d 8c7f 893b 1856 803d 7a3d c7bd
000000a0: ee5f 88bd d974 bbbb cf16 a43d be49 8abc
000000b0: ab5c 43be bf1d 14bd fb08 a03d 757f fe3d
000000c0: a3e8 d7bc 8150 cb36 1960 45be 10f7 d03c
000000d0: 4861 dabd 5d89 083e bca0 9bbd 2d21 463b
000000e0: 11b3 e93c 8bbf 613d 4720 0dbe 84ad 6bbd
000000f0: 2f08 93bd 3333 3e3c 0a24 063e 1fb6 28bd

actor.8.weight f4 [1, 64]
0.09130324 -0.06694113 0.10889101 0.101742506 0.11373704 0.15757251 0.057512473 0.18175727
-0.10516121 -0.17804307 0.008413309 0.0708439 -0.25794193 -0.08758206 0.253232 0.04694631
0.07154505 0.013939877 0.006004705 0.10303205 0.080211096 -0.022600748 0.038858604 0.09614999
0.052586623 -0.0055674706 0.06728251 0.148782 -0.015350498 -0.07092178 -0.15822786 -0.13314687
0.037513494 -0.07456702 -0.10327888 -0.1286292 -0.0102556115 -0.058189332 -0.0043053073 -0.026895043
-0.059302174 -0.10537024 0.067507915 -0.08592149 -0.13300335 0.033249095 -0.12148212 0.10710636
-0.120218776 0.14740506 -0.058310054 0.027738 -0.028481813 0.07647953 -0.07288426 -0.08914502
0.08686839 -0.113115706 -0.030456662 0.10387915 0.09426823 0.036308203 -0.12875594 0.01000964
00000000: 31fd ba3d 6e18 89bd 4002 df3d 605e d03d
00000010: f7ee e83d b05a 213e 3392 6b3d 941e 3a3e
00000020: c35e d7bd ec50 36be fad7 093c 9b16 913d
00000030: f710 84be 395e b3bd a0a7 813e c64a 403d
00000040: 3686 923d 1564 643c 1ec3 c43b 7802 d33d
00000050: b745 a43d 3425 b9bc 332a 1f3d 49ea c43d
00000060: 1265 573d 546f b6bb 6acb 893d 4f5a 183e
00000070: a880 7bbc 703f 91bd 7c06 22be a757 08be
00000080: c0a7 193d 98b6 98bd e183 d3bd 5fb7 03be
00000090: 2707 28bc f057 6ebd 8913 8dbb fe52 dcbc
000000a0: d6e6 72bd 5acc d7bd 9741 8a3d 9bf7 afbd
000000b0: 0832 08be 3430 083d 9ecb f8bd 945a db3d
000000c0: 4335 f6bd 5af1 163e 86d6 6ebd cd3a e33c
000000d0: b152 e9bc 4da1 9c3d 5844 95bd aa91 b6bd
000000e0: 0ee8 b13d 35a9 e7bd 4080 f9bc 97be d43d
000000f0: b40f c13d e9b7 143d 99d8 03be 79ff 233c

critic.0.weight f4 [64, 6]
-1.590136 0.14518595 0.47467408 -0.23402557 -0.47660205 0.030788755 -0.1552223 -0.5512379
-0.1920136 0.38661006 -0.27458638 -0.36270496 1.749188 0.55092335 0.21135321 0.6156734
0.8471756 0.38503298 -2.0093582 -0.1876335 0.28206852 -0.42429295 -0.893844 0.38879454
2.7039056 0.44359934 -0.6723454 0.7113375 0.9134036 0.1555502 0.7044763 -0.3434674
0.2464294 0.15576155 0.44960648 -0.32754073 -1.4639671 -0.23786135 0.24109383 -0.08130006
-0.18559545 0.36090255 -0.28818035 0.2086956 0.08472883 0.07693943 0.0071582464 -0.32543838
-0.9800977 -0.1227648 -0.15356493 0.23866422 -0.80409175 -0.05612742 0.69397366 0.19904308
0.23905757 -0.24521942 -0.0028083692 -0.107338 -0.44006333 0.31243664 0.2947102 0.06504782
0.29578617 -0.1927132 -0.8109121 -0.3179914 -0.035394378 -0.09574751 -0.25813568 0.2317447
-1.1222079 -0.09299102 0.04543514 0.4237543 -1.0718973 -0.13901597 0.17159458 -0.3513883
0.18161441 -0.36955124 0.06996587 0.24028659 2.5737414 1.0143962 -0.55762434 0.17712246
1.0970933 0.03245385 -0.5114324 -0.09095153 -0.16536132 0.3427077 -0.83384997 -0.37375295
-1.924653 -0.80210197 -0.34962183 -0.13160919 -0.2338103 0.11856999 1.8293738 0.6166894
-0.17619164 0.64069885 0.6301187 0.3994018 -0.62104166 -0.29246086 -0.5203347 -0.18134515
-0.49572307 -0.012387131 0.6720271 -0.28961155 0.4130357 0.33020768 0.12763366 -0.19239964
-0.0056387526 0.24241634 -0.31275374 0.19544414 -0.35445535 0.3183907 0.5331553 0.32141668
0.09167584 0.16827297 0.40542468 -0.2506576 -0.88448846 -0.2098551 -0.3054009 -0.1722584
0.042338468 -0.22350597 2.1350892 1.3205388 0.12990525 0.8417286 1.0761864 0.012018684
-1.0260639 -0.22814025 -0.06184743 0.2395164 0.023457935 -0.3340644 0.61655515 0.14640808
0.19248042 -0.3736566 0.4230198 -0.38703153 -2.3283617 -0.48790693 -0.05898927 -0.3941093
-0.91636926 0.21101978 -0.7848376 -0.105526276 -0.10963714 -0.29949743 -0.68149626 -0.1832121
-0.41149688 0.1782205 0.22894098 -0.3482362 0.14930707 -0.11340093 0.7711849 0.4157189
0.2738873 -0.32034144 0.21018718 0.27045947 0.9686536 0.17061062 -0.40702984 0.14700538
-0.0899225 0.113333195 0.25664634 0.038364425 -0.044696026 0.17770325 0.25789985 -0.31636855
0.6392983 0.6760474 0.35162997 -0.22105004 0.6425502 -0.32849115 -0.32904002 -0.1862298
0.35532865 -0.09491322 0.38496503 0.22899254 -0.69599694 -0.15605958 -0.15818034 -0.11845208
-0.27473587 -0.33672574 -3.1465971 -0.46077964 -0.2706501 0.110058956 -0.9542291 -0.0034537655
2.4445484 0.3035246 -0.16384386 0.5252484 0.7008862 0.13401714 -0.942251 -0.27689493
0.40511826 -0.16936152 -0.052927185 -0.1079355 -1.2466279 -0.24460256 0.2009833 -0.25878504
-0.5145802 0.056132294 2.8385873 1.3276554 -0.13029958 1.0145116 1.0312556 0.36000913
-0.57444376 -0.0006894702 0.22988138 -0.25779003 -0.037710708 -0.19194297 1.7916138 0.62448436
0.16985953 -0.15272136 0.6911953 0.24195191 -0.50695425 0.5498144 -0.19944367 -0.19367176
00000000: 9489 cbbf a0ab 143e 7b08 f33e 66a4 6fbe
00000010: 2f05 f4be b338 fc3c 98f2 1ebe ed1d 0dbf
00000020: 379f 44be c1f1 c53e 9696 8cbe 77b4 b9be
00000030: 64e5 df3f 5009 0d3f fa6c 583e c69c 1d3f
00000040: 80e0 583f 0b23 c53e 5399 00c0 ff22 40be
00000050: 496b 903e ed3c d9be f6d2 64bf 1410 c73e
00000060: ca0c 2d40 741f e33e d41e 2cbf 371a 363f
00000070: d1d4 693f 8d48 1f3e 8f58 343f f6da afbe
00000080: fd57 7c3e f57f 1f3e d232 e63e 6bb3 a7be
00000090: 4663 bbbf ed91 73be 4de1 763e a580 a6bd
000000a0: bc0c 3ebe 38c8 b83e 608c 93be 4db4 553e
000000b0: 4f86 ad3d 6b92 9d3d b98f ea3b dc9f a6be
000000c0: afe7 7abf 1d6c fbbd 2040 1dbe 6564 743e
000000d0: f5d8 4dbf dee5 65bd 42a8 313f f3d1 4b3e
000000e0: 82cb 743e cd1a 7bbe 9e0c 38bb 06d4 dbbd
000000f0: fb4f e1be b2f7 9f3e 41e4 963e cb37 853d
00000100: 4971 973e 9c56 45be ef97 4fbf c5cf a2be
00000110: b2f9 10bd 4517 c4bd 5c2a 84be 7c4e 6d3e
00000120: 82a4 8fbf 1372 bebd 331a 3a3d 53f6 d83e
00000130: ee33 89bf 345a 0ebe 7db6 2f3e 2be9 b3be
00000140: 21f9 393e d235 bdbe 444a 8f3d b00d 763e
00000150: 2eb8 2440 bcd7 813f 78c0 0ebf 975f 353e
00000160: 8e6d 8c3f 54ee 043d 3ced 02bf cc44 babd
00000170: 7a54 29be 6277 af3e 3177 55bf 8c5c bfbe
00000180: 085b f6bf 8e56 4dbf a201 b3be 8fc4 06be
00000190: f86b 6fbe d3d4 f23d ec28 ea3f 5bdf 1d3f
000001a0: 956b 34be d704 243f 764f 213f 657e cc3e
000001b0: 96fc 1ebf 6ebd 95be a834 05bf 8bb2 39be
000001c0: 6acf fdbe 65f3 4abc f809 2c3f f747 94be
000001d0: 6a79 d33e fb10 a93e 66b2 023e 6904 45be
000001e0: 49c5 b8bb fd3b 783e 4221 a0be 8222 483e
000001f0: 2c7b b5be 1b04 a33e de7c 083f ba90 a43e
00000200: 8bc0 bb3d c04f 2c3e d393 cf3e 3156 80be
00000210: d66d 62bf 41e4 56be 825d 9cbe 8264 30be
00000220: 1a6b 2d3d c0de 64be 4da5 0840 6a07 a93f
00000230: e205 053e 877b 573f 7ac0 893f 04ea 443c
00000240: 1056 83bf 999d 69be bb53 7dbd ca43 753e
00000250: db2a c03c 7d0a abbe 8fd6 1d3f 00ec 153e
00000260: 9619 453e eb4f bfbe 0d96 d83e ff28 c6be
00000270: e103 15c0 f0ce f9be bc9e 71bd b2c8 c9be
00000280: 2d97 6abf 9215 583e 1eeb 48bf 291e d8bd
00000290: 7089 e0bd ba57 99be 8a76 2ebf f49b 3bbe
000002a0: b8af d2be 6f7f 363e 816f 6a3e 044c b2be
000002b0: f4e3 183e bf3e e8bd 606c 453f 1cd9 d43e
000002c0: f53a 8c3e cb03 a4be 4f3b 573e aa79 8a3e
000002d0: aff9 773f 8db4 2e3e 3766 d0be 9488 163e
000002e0: 4a29 b8bd 3c1b e83d 2667 833e 0424 1d3d
000002f0: 2e13 37bd d7f7 353e 730b 843e 0ffb a1be
00000300: 0ea9 233f 7111 2d3f d808 b43e f15a 62be
00000310: 2b7e 243f fe2f a8be ef77 a8be 06b3 3ebe
00000320: a3ed b53e dd61 c2bd 231a c53e 057d 6a3e
00000330: db2c 32bf 15ce 1fbe 07fa 21be 0197 f2bd
00000340: 2eaa 8cbe 5167 acbe d961 49c0 4feb ebbe
00000350: a692 8abe 9766 e13d 5c48 74bf 9258 62bb
00000360: 7b73 1c40 9467 9b3e afc6 27be ae76 063f
00000370: 476d 333f ca3b 093e 5d37 71bf 2cc5 8dbe
00000380: a96b cf3e 1b6d 2dbe 2dca 58bd 4a0d ddbd
00000390: 8191 9fbf 1879 7abe 91ce 4d3e 797f 84be
000003a0: 87bb 03bf faea 653d 6aab 3540 9df0 a93f
000003b0: 416d 05be 84db 813f 2f00 843f 1e53 b83e
000003c0: bf0e 13bf 90bd 34ba 0666 6b3e 0efd 83be
000003d0: 8b76 1abd b38c 44be 9a53 e53f 35de 1f3f
000003e0: a8ef 2d3e fd62 1cbe 2df2 303f 3ec2 773e
000003f0: c1c7 01bf a3c0 0c3f f63a 4cbe e451 46be

critic.0.bias f4 [64]
0.07961087 -0.24852283 0.32964647 0.30992594 0.017508099 0.13822342 0.08807076 -0.11496298
-0.034537163 -0.17155929 0.32441086 0.21354988 0.17920946 0.0033981563 -0.051760823 -0.029571308
-0.14262041 0.30317765 -0.26619595 0.13706826 -0.30910197 -0.3601448 -0.09452038 0.30693144
0.26843175 -0.083039165 -0.1942293 -0.2678608 -0.3435797 -0.28657457 0.017422544 -0.022225397
0.027405512 -0.40009266 -0.24161768 0.05589637 0.18289474 -0.26084086 0.08992621 -0.2510891
-0.09514562 0.40874794 -0.11461793 -0.25963435 0.3859844 -0.3279734 -0.25877562 -0.0030911346
0.014571194 -0.04299478 0.3687556 0.28620443 -0.09235194 0.12549728 -0.20323774 -0.024041895
0.08212864 -0.39692336 -0.13040172 -0.23312612 -0.39528158 0.22916672 -0.2805996 0.37190145
00000000: 060b a33d c57c 7ebe 6cc7 a83e 9dae 9e3e
00000010: 256d 8f3c 718a 0d3e 715e b43d b671 ebbd
00000020: d776 0dbd 3dad 2fbe 2e19 a63e d2ac 5a3e
00000030: af82 373e 9ab3 5e3b 2803 54bd 873f f2bc
00000040: 160b 12be 1a3a 9b3e d64a 88be 9f5b 0c3e
00000050: 9d42 9ebe e664 b8be e793 c1bd 1e26 9d3e
00000060: e36f 893e 7010 aabd 0ce4 46be 0d25 89be
00000070: aee9 afbe e7b9 92be b9b9 8e3c 0912 b6bc
00000080: 8681 e03c f2d8 ccbe a06a 77be 98f3 643d
00000090: c248 3b3e ef8c 85be 3c2b b83d c08e 80be
000000a0: b5db c2bd 6947 d13e cebc eabd cbee 84be
000000b0: bf9f c53e 21ec a7be 3d7e 84be a294 4abb
000000c0: 04bc 6e3c 4b1b 30bd 89cd bc3e 6389 923e
000000d0: 0423 bdbd 5c82 003e 8e1d 50be 82f3 c4bc
000000e0: 0f33 a83d 8a39 cbbe 0788 05be 9db8 6ebe
000000f0: 5962 cabe aeaa 6a3e c0aa 8fbe de69 be3e

critic.2.weight f4 [64, 64]
0.0038065405 0.0561466 -0.09422748 0.08086891 -0.016562011 0.015120632 0.06472537 -0.07319027
0.12566528 0.05125543 0.019991376 -0.08783402 -0.04001043 -0.03217836 -0.03223314 -0.021233547
0.015994191 0.09498745 -0.056428567 -0.093527116 -0.06400483 -0.035817616 -0.0779319 -0.024353651
0.04121768 0.10129958 0.060824536 -0.11372834 -0.08191076 -0.062280044 0.07723863 0.042780817
-0.07346934 0.09915624 -0.057967275 0.3290336 -0.03510257 0.07148093 0.115644105 -0.019632282
0.015064169 -0.110815644 0.101929285 -0.068678595 0.053967755 0.09976069 -0.055183776 0.025894811
-0.014785028 0.044073973 0.06979903 0.037858956 0.08734589 -0.10808884 0.11134999 0.09050646
0.08979709 -0.061697204 0.050854262 0.08047728 -0.078705385 -0.09893934 0.03156468 -0.11067601
-0.04115313 -0.10333763 -0.032884747 -0.096489534 -0.122322135 0.08230124 0.05529531 0.020381048
-0.114527225 -0.08992392 0.06584118 -0.041083027 -0.0068936427 -0.046632633 -0.05496448 0.06517687
0.053764533 0.11349836 0.049272925 -0.08997356 -0.08803922 -0.11992837 0.043156575 -0.016568976
-0.035981342 -0.043146454 -0.01823861 0.09804337 0.10548219 0.10522291 -0.013889415 -0.034814343
-0.06822413 -0.009206875 0.048296064 0.05223563 0.02898943 0.08432186 0.103371084 0.008799285
0.04620666 -0.053738855 0.018944224 0.097748235 -0.08726237 0.05612523 -0.0010926148 0.04016934
0.03542718 0.12102531 0.10358967 -0.015360992 -0.1098429 -0.10402566 -0.06040095 -0.009734778
0.11640052 0.11814202 -0.06039448 0.01220942 0.103496306 0.018734686 -0.0690566 0.019987695
0.04767662 0.0071862834 -0.09803191 -0.067807086 -0.11218963 0.035606302 0.03352059 0.080309264
0.058750365 0.040343873 -0.12680061 -0.04083164 -0.13092993 0.07673957 -0.0518775 0.04818538
0.10280656 0.11229101 -0.01940961 0.014353848 0.11095848 0.049689643 0.033869334 -0.061193395
0.10720812 -0.11562877 -0.074312195 0.024563532 -0.0142564485 0.039818335 -0.031467482 0.09402597
-0.09062239 -0.047465563 0.023397718 0.014225106 0.025558392 -0.05149026 -0.082595184 0.026068661
-0.015590906 0.040245675 -0.06761651 0.07679832 -0.037046134 -0.010559339 0.06030279 -0.03012782
0.020998348 -0.064236425 -0.06415797 -0.032600652 0.06819074 -0.13138591 0.059352823 -0.0671722
-0.007427898 0.08609557 0.0861863 0.03579413 0.07704469 -0.107807115 0.0030029372 0.10831861
0.020516703 0.046534065 0.06980807 -0.08666819 0.09979173 0.033358134 -0.025119588 0.10063217
0.017122507 0.0138793625 0.04018626 0.0582987 0.039771684 -0.016183091 0.11191014 0.042720158
-0.09241151 0.054608416 0.06244658 -0.067128435 0.02305999 -0.053036343 0.07202322 -0.102669366
0.061582766 0.08227863 0.021613006 -0.01736504 -0.0084729055 0.026400764 -0.08706925 0.09035766
0.032135285 -0.068985075 0.11035766 0.06221532 -0.10481034 0.106951796 0.11430854 0.0468571
-0.067368194 0.044023324 -0.06560617 0.0840671 0.082291506 -0.10639304 0.09422591 -0.0021272013
0.062165067 -0.060235344 -0.11976725 0.026363386 0.09022571 -0.0050355378 -0.069863394 0.040486235
-0.12230796 0.056070816 0.013588139 -0.119906425 -0.010906345 -0.0010638048 -0.035435192 -0.02194835
00000000: 2777 793b faf9 653d 56fa c0bd 999e a53d
00000010: 0ead 87bc 87bc 773c bc8e 843d c8e4 95bd
00000020: 66ae 003e 37f1 513d f4c4 a33c 53e2 b3bd
00000030: fae1 23bd 75cd 03bd e606 04bd faf1 adbc
00000040: 4006 833c c888 c23d a421 67bd 258b bfbd
00000050: f714 83bd 7eb5 12bd c39a 9fbd 4f81 c7bc
00000060: dfd3 283d 2776 cf3d 2623 793d 67ea e8bd
00000070: d4c0 a7bd 5c19 7fbd 492f 9e3d f03a 2f3d
00000080: 1877 96bd 6d12 cb3d 186f 6dbd 1877 a83e
00000090: b6c7 0fbd 9864 923d d1d6 ec3d e1d3 a0bc
000000a0: b4cf 763c 50f3 e2bd 4dc0 d03d 5da7 8cbd
000000b0: 4b0d 5d3d 554f cc3d 6208 62bd 5b21 d43c
000000c0: e73c 72bc e986 343d cbf2 8e3d fe11 1b3d
000000d0: 67e2 b23d af5d ddbd 770b e43d 735b b93d
000000e0: 89e7 b73d 35b6 7cbd 8f4c 503d 46d1 a43d
000000f0: 4a30 a1bd b5a0 cabd f749 013d 1baa e2bd
00000100: 2f90 28bd aea2 d3bd 28b2 06bd 4e9c c5bd
00000110: 0784 fabd 8d8d a83d 567d 623d 28f6 a63c
00000120: 408d eabd 082a b8bd bed7 863d ad46 28bd
00000130: 11e4 e1bb dc01 3fbd 6f22 61bd 737b 853d
00000140: 3338 5c3d d471 e83d 68d2 493d 0f44 b8bd
00000150: e84d b4bd 019d f5bd f3c4 303d a9bb 87bc
00000160: 2c61 13bd 56ba 30bd 2369 95bc f6ca c83d
00000170: 0c07 d83d 1c7f d73d 6e90 63bc 7c99 0ebd
00000180: 18b9 8bbd 6fd8 16bc 18d2 453d 07f5 553d
00000190: 3e7b ed3c f0b0 ac3d 38b4 d33d e02a 103c
000001a0: 3243 3d3d 461d 5cbd eb30 9b3c 3a30 c83d
000001b0: 9db6 b2bd 92e3 653d 1236 8fba 9b88 243d
000001c0: 171c 113d 1edc f73d d226 d43d acac 7bbc
000001d0: 50f5 e0bd 680b d5bd fd66 77bd 9e7e 1fbc
000001e0: 6563 ee3d 72f4 f13d 3460 77bd 050a 483c
000001f0: dff5 d33d 7c79 993c 8c6d 8dbd 3cbd a33c
00000200: 8f48 433d ea7a eb3b f4c4 c8bd 71de 8abd
00000210: adc3 e5bd ead7 113d e34c 093d 2f79 a43d
00000220: 39a4 703d 9e3f 253d 05d8 01be 143f 27bd
00000230: 7f12 06be a329 9d3d 807d 54bd 085e 453d
00000240: 3f8c d23d d4f8 e53d e700 9fbc 672c 6b3c
00000250: 333e e33d 5e87 4b3d 92ba 0a3d eda5 7abd
00000260: ee8f db3d c7ce ecbd fe30 98bd 7639 c93c
00000270: e193 69bc 8d18 233d 0ce4 00bd b090 c03d
00000280: 3b98 b9bd 406b 42bd 92ac bf3c 6b10 693c
00000290: d55f d13c 73e7 52bd aa27 a9bd f28d d53c
000002a0: 0071 7fbc a6d8 243d 867a 8abd 7048 9d3d
000002b0: b0bd 17bd 1401 2dbc 0f00 773d 9ece f6bc
000002c0: ba04 ac3c 638e 83bd 4165 83bd 4388 05bd
000002d0: 96a7 8b3d 078a 06be f21b 733d 9491 89bd
000002e0: b965 f3bb e052 b03d 7182 b03d de9c 123d
000002f0: 9bc9 9d3d fac9 dcbd edcc 443b 26d6 dd3d
00000300: a512 a83c 819a 3e3d 89f7 8e3d 187f b1bd
00000310: 9b5f cc3d 8aa2 083d 98c7 cdbc 3d18 ce3d
00000320: 8044 8c3c 4466 633c 599a 243d 9eca 6e3d
00000330: a2e7 223d 6792 84bc 2531 e53d 55fb 2e3d
00000340: 3f42 bdbd 13ad 5f3d fcc7 7f3d a27a 89bd
00000350: 4ee8 bc3c a33c 59bd e980 933d 5144 d2bd
00000360: 363e 7c3d b381 a83d c20d b13c 2141 8ebc
00000370: f1d1 0abc 6a46 d83c 5d51 b2bd 700d b93d
00000380: 4aa0 033d 0c48 8dbd 3203 e23d 7ed5 7e3d
00000390: cea6 d6bd 8b09 db3d 991a ea3d 3bed 3f3d
000003a0: 56f8 89bd cd51 343d 875c 86bd 5f2b ac3d
000003b0: 7388 a83d 98e4 d9bd 84f9 c03d 8468 0bbb
000003c0: cca0 7e3d 56b9 76bd 8848 f5bd 07f8 d73c
000003d0: 42c8 b83d 2701 a5bb 8a14 8fbd e5d4 253d
000003e0: 997c fabd 83aa 653d c9a0 5e3c 8091 f5bd
000003f0: 87b0 32bc 5e6f 8bba 7e24 11bd 07cd b3bc

critic.2.bias f4 [64]
0.0017310063 0.12270462 -0.07013191 -0.043115035 0.1838944 -0.18733455 -0.0439855 -0.009002334
0.05772209 0.0404274 -0.0064234124 0.15678528 0.09236938 -0.0340228 -0.05322458 -0.059021026
-0.033032853 -0.07633985 0.13265203 0.03844414 -0.03476456 -0.1235089 -0.11202421 -0.018167417
-0.05730785 -0.05189473 -0.017134953 -0.1269407 -0.012270223 -0.08312711 0.064551935 -0.02290781
-0.24209142 0.07419647 0.047089566 -0.06933835 -0.019900221 0.14882125 0.10043381 -0.10939004
0.02724723 0.07793536 0.06569392 -0.15347727 0.060205545 0.091444716 -0.0024264161 0.0093632005
-0.0472044 -0.046986792 0.018958218 -0.06137495 -0.057152674 -0.06582776 -0.11688711 -0.019882929
0.20160113 0.09343234 -0.07051543 0.040966198 -0.04153427 -0.051273845 0.051316973 0.10826614
00000000: efe2 e23a 8f4c fb3d 52a1 8fbd 6499 30bd
00000010: d04e 3c3e a1d4 3fbe 242a 34bd 877e 13bc
00000020: 006e 6c3d 3497 253d 7d7b d2bb 528c 203e
00000030: 282c bd3d 7e5b 0bbd 0402 5abd 08c0 71bd
00000040: 754d 07bd 1158 9cbd efd5 073e 9a77 1d3d
00000050: 4965 0ebd 3cf2 fcbd f36c e5bd d6d3 94bc
00000060: a3bb 6abd 928f 54bd 9a5e 8cbc befc 01be
00000070: 0c09 49bc 8c3e aabd ce33 843d 29a9 bbbc
00000080: d0e6 77be 52f4 973d fde0 403d 4401 8ebd
00000090: ca05 a3bc 9964 183e 3eb0 cd3d e307 e0bd
000000a0: 9535 df3c 939c 9f3d 898a 863d 2529 1dbe
000000b0: 179a 763d 5e47 bb3d 8204 1fbb 1c68 193c
000000c0: 6759 41bd 3975 40bd 444e 9b3c 4d64 7bbd
000000d0: ec18 6abd b4d0 86bd 8262 efbd 86e1 a2bc
000000e0: 8770 4e3e 7459 bf3d 656a 90bd 2ccc 273d
000000f0: d71f 2abd 8604 52bd bf31 523d a3ba dd3d
