1_pole_inverted_pendulum/1_pole_PPO3_Trained/PPO_One_Pole_InvPendulum_1000K.pth (torch, 109673 bytes, 18 tensors)

actor.0.weight f4 [64, 6]
0	0xbc7540c4	-0.014969055
1	0xbdd09abe	-0.10185765
2	0xbde196f1	-0.11015118
3	0xbea04b8e	-0.31307644
4	0x3eb63d2d	0.35593548
5	0xbec35d66	-0.38157195
6	0xbeeb4642	-0.4595204
7	0xbea5d36c	-0.32387865
8	0xbe837bdb	-0.25680432
9	0x3f020167	0.5078339
10	0xbf0eea63	-0.55826396
11	0xbddafb79	-0.10692496
12	0x3e11ad5b	0.14226286
13	0x3dc64e82	0.09682943
14	0x3e192bd3	0.14958124
15	0x3e8d4b4e	0.27596515
16	0x3f08fc9d	0.5351046
17	0xbda7c913	-0.08192649
18	0x3e586ce8	0.21135294
19	0xbe8cb086	-0.27478427
20	0xbdfaeb74	-0.1225194
21	0xbde71e94	-0.11285129
22	0x3e64e8a8	0.22354376
23	0x3de89c13	0.11357894
24	0xbea176ba	-0.31535894
25	0x3e89ea1c	0.26936424
26	0x3ddfb247	0.109226756
27	0x3d05452e	0.032536678
28	0x3cc17e9b	0.02361994
29	0xbf1180b5	-0.56837016
30	0xbd379b87	-0.044826057
31	0xbe1867da	-0.14883366
32	0x3e4913a4	0.19636399
33	0x3ea2c7ec	0.31793153
34	0x3f442685	0.76621276
35	0x3ed53982	0.41645437
36	0x3f2ed767	0.6829743
37	0x3d64ef4c	0.055892274
38	0x3eadb682	0.33928305
39	0xbebfd22e	-0.37465042
40	0xbe5bc53c	-0.21461958
41	0x3e712b79	0.2355174
42	0x3f0cff78	0.55077314
43	0xbe6716ee	-0.2256734
44	0xbe961358	-0.29311633
45	0xbe42e279	-0.19031705
46	0x3f1d2e88	0.61399126
47	0xbc56081b	-0.013063456
48	0xbb478ea4	-0.003045001
49	0xbe8a3778	-0.26995444
50	0xbe396442	-0.18104652
51	0x3eef54fc	0.46744525
52	0x3da3e77a	0.08003135
53	0x3f06ae0f	0.5260934
54	0x3c95857e	0.01825213
55	0xbe02aa25	-0.12760217
56	0x3db7270f	0.08942997
57	0xbd0939f0	-0.03350252
58	0xbe0c949f	-0.1372857
59	0x3fd39005	1.6528326
60	0xbeee132a	-0.46498996
61	0x3dcc23d7	0.099677734
62	0xbe153e6c	-0.14574593
63	0x3dbf8b41	0.093527324
64	0xbcccfc13	-0.025022542
65	0xbefa60a8	-0.48901868
66	0x3b5b61f6	0.0033475137
67	0xbebaab61	-0.36458877
68	0x3e498282	0.19678691
69	0xbeab1f07	-0.3342211
70	0xbe93765d	-0.28801242
71	0xbe5c8e5f	-0.21538685
72	0xbcbd39dc	-0.023098879
73	0x3eaf09d7	0.34187195
74	0x3e500743	0.2031527
75	0x3ed2b5bc	0.41154277
76	0xbeafa5bc	-0.34306133
77	0x3cf838de	0.030300554
78	0xbda149b1	-0.07875384
79	0xbda5fa2e	-0.081043586
80	0xbd9cf1b5	-0.076632895
81	0x3f115c3c	0.56781363
82	0xbc92f14d	-0.017937327
83	0x3feb40f2	1.8379195
84	0x3f255dd6	0.6459631
85	0xbe9810c9	-0.29700306
86	0xbdae9119	-0.08523769
87	0x3ece2bf1	0.402679
88	0x3ed2341e	0.41055387
89	0xbeb101d8	-0.3457172
90	0x3dbb2d54	0.09139505
91	0xbd4453de	-0.047931544
92	0x3dcfb7d0	0.10142481
93	0xbecd7ea8	-0.40135694
94	0xbee1936f	-0.44057795
95	0x3cd3e9fe	0.025868412
96	0xbc209901	-0.009802104
97	0x3ed6f4a3	0.41983518
98	0xbe57d8f2	-0.21078852
99	0x3e3820fa	0.1798133
100	0xbe273941	-0.16330434
101	0xbf288a1e	-0.6583575
102	0x3d8f64ea	0.0700167
103	0xbeaecfe2	-0.34142977
104	0xbeb9db5d	-0.36300173
105	0xbc81cbab	-0.015844187
106	0x3f393a21	0.7235432
107	0xbe171ac2	-0.14756301
108	0xbe27a608	-0.1637193
109	0xbb93ab37	-0.0045064944
110	0xbee0c994	-0.43903792
111	0x3e9d3ecb	0.3071197
112	0xbde81968	-0.11332971
113	0x3e9500c1	0.29102138
114	0x3f43cc4e	0.7648362
115	0x3d872a8f	0.06599914
116	0x3e3ec081	0.18628122
117	0x3dcf2e84	0.10116294
118	0x3f5082ed	0.81449777
119	0xbe522207	-0.20520793
120	0x3f13313c	0.57497
121	0x3e132fd6	0.14373717
122	0xbe020e47	-0.12700759
123	0xbe31dff2	-0.17370585
124	0x3f15ab3a	0.58464396
125	0xbcdfc885	-0.027317295
126	0x3df4ee5b	0.11959525
127	0xbe7ae9b7	-0.24503218
128	0x3c8be5c0	0.017077327
129	0xbeba1b89	-0.36349133
130	0x3f4ed8f6	0.80799806
131	0xbd3b8453	-0.04578049
132	0x3efe60c1	0.49683192
133	0x3e190749	0.14944185
134	0xbe84fc45	-0.25973716
135	0xbf3266a8	-0.6968789
136	0x3dfec32c	0.1243957
137	0x3e82bedf	0.25536248
138	0x3dee2fdb	0.116302215
139	0x3c7dec5d	0.015498248
140	0xbe8a7a33	-0.27046356
141	0xbe152cbb	-0.14567845
142	0xbeb615b4	-0.35563433
143	0xbe9a90d9	-0.30188635
144	0x3f402c8f	0.7506799
145	0x3edb11cd	0.42787018
146	0xbe948f2a	-0.29015476
147	0x3df6f651	0.120587
148	0x3d91f301	0.071264274
149	0x3f70b6d3	0.9402897
150	0x3da314ad	0.07962928
151	0xbea814af	-0.3282828
152	0x3da1346b	0.07871326
153	0xbe0a9f31	-0.13537289
154	0xbe5ba398	-0.21449125
155	0xbe086a66	-0.13321838
156	0xbef939b3	-0.48676834
157	0x3e2c9347	0.16853057
158	0xbe72f96b	-0.23727958
159	0x3ea4fae5	0.32222667
160	0xbf2feb98	-0.6871886
161	0x3ca8c72b	0.020602783
162	0x3f320685	0.695412
163	0xbdb9f79e	-0.09080432
164	0xbe3fb2b7	-0.18720518
165	0xbee4f035	-0.44714513
166	0x3f0d9cce	0.5531739
167	0x3d98ede4	0.07467249
168	0x3f0ae7f1	0.54260164
169	0xbd88e3d2	-0.06684078
170	0xbe0cc502	-0.13747028
171	0xbebe3468	-0.37149358
172	0x3cabf633	0.02099142
173	0x3cec38e0	0.028835714
174	0xbe98dd9a	-0.2985657
175	0x3dcd4b8d	0.10024176
176	0xbdb2124c	-0.08694896
177	0xbea7e628	-0.32792783
178	0xbf0e4d72	-0.5558692
179	0xbd04aa53	-0.032388996
180	0x3f452442	0.7700845
181	0x3ddb040e	0.10694133
182	0x3dbe26b1	0.092847236
183	0x3e98d9c4	0.29853642
184	0x3f27430b	0.65336674
185	0xbec26271	-0.3796573
186	0x3d9e2df7	0.07723611
187	0xbda9545c	-0.082680434
188	0x3e7c14d1	0.24617316
189	0xbcb9ada0	-0.022665799
190	0xbefe8e88	-0.49718118
191	0xbe82eca2	-0.25571162
192	0xbe7a0741	-0.2441683
193	0x3e0e4ed0	0.13897252
194	0xbed1197d	-0.4083976
195	0x3e835c32	0.25656277
196	0xbda5ffb1	-0.0810541
197	0x3ea81e3d	0.3283557
198	0x3daeeac3	0.08540871
199	0xbe2cf522	-0.16890386
200	0x3db53998	0.08848876
201	0x3e9124ca	0.2834838
202	0x3f06ca2d	0.52652246
203	0xbe9dbec7	-0.30809614
204	0x3f58656c	0.8452976
205	0xbe7f0195	-0.24902947
206	0x3ec65887	0.38739416
207	0x3e73906b	0.2378556
208	0x3ebfc790	0.37456942
209	0xbd5288e0	-0.051400065
210	0x3f206275	0.62650234
211	0x3e617c0b	0.22019975
212	0x3e1bfe2e	0.1523368
213	0x3e2d3021	0.16912891
214	0xbd82ef03	-0.06393244
215	0xbc8675dc	-0.016413622
216	0xbe8e9679	-0.27849177
217	0xbe8c82b8	-0.2744348
218	0x3e085136	0.1331223
219	0xbe51c4eb	-0.20485274
220	0x3eb99d36	0.36252755
221	0xbebbebe2	-0.36703402
222	0x3efe5aad	0.49678555
223	0xbe230540	-0.15919971
224	0xbeddb8fd	-0.43305197
225	0x3e8df554	0.27726233
226	0x3ce28979	0.027653443
227	0xbdfe3a40	-0.12413454
228	0xbccc9ec1	-0.024978044
229	0x3e3784b3	0.17921714
230	0x3e646590	0.22304368
231	0xbe9e8f68	-0.30968785
232	0xbf0397be	-0.51403415
233	0xbe9b41ee	-0.30323738
234	0xbda199fb	-0.078906976
235	0xbd2f476d	-0.042792726
236	0xbe33b844	-0.1755076
237	0xbdd65be4	-0.104667455
238	0xbee6e0df	-0.45093438
239	0x3f24b12e	0.64332855
240	0x3e979f75	0.29613844
241	0xbe244913	-0.160435
242	0x3e3afca3	0.18260436
243	0x3e23a6ba	0.1598157
244	0xbf136fb5	-0.57592326
245	0x3deb0b0a	0.11476715
246	0x3e8b036f	0.27151057
247	0xbe3d0d3d	-0.18462081
248	0xbe1b3185	-0.15155609
249	0xbe91646c	-0.28396928
250	0x3eb7ccd8	0.3589847
251	0xbc25353a	-0.010083491
252	0xbeaf19a0	-0.34199238
253	0x3d46f892	0.0485769
254	0xbe516f6d	-0.20452662
255	0xbe01d9dc	-0.12680763

actor.0.bias f4 [64]
0	0x3eca4837	0.3950822
1	0xbdd4f317	-0.10397928
2	0xbe673736	-0.22579655
3	0xbb1fdd23	-0.0024393282
4	0x3e944fe4	0.28967202
5	0x3d4ce8ab	0.050026577
6	0x3e6519ef	0.22373174
7	0x3ddc2c14	0.10750595
8	0x3e8bcc2e	0.27304214
9	0x3dc99e1a	0.098446086
10	0xbc2f7606	-0.010709291
11	0xbdfafbda	-0.12255068
12	0x3eb829f5	0.3596951
13	0x3eb31d5f	0.34983346
14	0x3e6446f8	0.22292697
15	0xbeb13962	-0.34614092
16	0xbeb01fd9	-0.34399298
17	0xbec53948	-0.38520265
18	0xbcbeaf30	-0.023276895
19	0xbe7f0881	-0.24905588
20	0x3e122b02	0.14274219
21	0x3ea71ab2	0.32637554
22	0x3de2be2d	0.110714294
23	0xbd41b999	-0.04729614
24	0xbe8a1189	-0.26966503
25	0x3d847f9f	0.06469654
26	0x3e3df625	0.18550928
27	0xbe276a23	-0.16349082
28	0xbec4b3df	-0.3841848
29	0x3e553932	0.208226
30	0xbd98ba86	-0.074574515
31	0xbe4ac827	-0.19802915
32	0xbdcead7e	-0.10091685
33	0x3e978d7e	0.29600137
34	0xbde0ea97	-0.109822445
35	0x3dca556c	0.09879574
36	0xbed82fd1	-0.4222398
37	0x3e9b74b3	0.30362472
38	0x3e7d9d63	0.2476707
39	0x3e00a2b4	0.12562066
40	0xbca43fcc	-0.020049952
41	0x3d80d231	0.06290091
42	0xbd52166e	-0.051290922
43	0xbe6b21eb	-0.22962157
44	0x3e9b87e4	0.30377114
45	0xbdee1869	-0.116257496
46	0xbbf23053	-0.0073910146
47	0xbe85b84c	-0.2611717
48	0x3e9442ee	0.28957313
49	0xbeb47528	-0.35245633
50	0xbecefaff	-0.4042587
51	0x3e3533d6	0.17695555
52	0xbe06122a	-0.13092867
53	0xbdd7ff2a	-0.105467156
54	0x3e274eba	0.16338626
55	0x3e439023	0.19097953
56	0x3ebe5ae9	0.37178734
57	0xbc0d2b4d	-0.008616281
58	0x3ecb8167	0.39747164
59	0x3ed291b4	0.41126788
60	0xbe146fe3	-0.14495806
61	0xbce231c5	-0.027611623
62	0x3e8403fd	0.25784293
63	0xbe3a2cea	-0.18181196

actor.2.weight f4 [64, 64]
0	0xbe12442b	-0.14283817
1	0xbd9f5c39	-0.07781262
2	0x3cfb7d68	0.030699447
3	0x3df53232	0.119724646
4	0xbca69c27	-0.020338131
5	0xbe80f3bd	-0.25185958
6	0xbd6ac191	-0.057313506
7	0x3d09fb4b	0.033686917
8	0x3d2912f3	0.041277837
9	0x3d7510a2	0.059830315
10	0x3cb32cd6	0.021871965
11	0x3e0961db	0.13416235
12	0xbdf22c37	-0.118248396
13	0xbcd97249	-0.026543753
14	0xbe0254f8	-0.12727726
15	0x3e876c38	0.26449752
16	0xbd71d6d6	-0.059042774
17	0xbdd9d9f9	-0.10637278
18	0x3dd3e87e	0.10347079
19	0x3dc6f390	0.097144246
20	0xbd12bd88	-0.035825282
21	0xbe4991f5	-0.19684584
22	0x3ce7b06c	0.028282367
23	0x3da3eadf	0.080037825
24	0x3d0cd1c4	0.034379736
25	0x3e38e453	0.18055849
26	0x3e229763	0.15878062
27	0xbd029ef5	-0.031889874
28	0x3e15df76	0.14636025
29	0xbcbb4d84	-0.02286411
30	0xbd24e713	-0.040259432
31	0xbd1054c3	-0.035237085
32	0x3e097e0b	0.13426988
33	0x3d57fbd8	0.05273041
34	0x3e2e8f62	0.17046884
35	0xbde2e605	-0.11079029
36	0x3d4368fe	0.04770755
37	0x3dcd2471	0.10016716
38	0xbdce3555	-0.10068766
39	0x3e46f2e4	0.19428593
40	0x3de08d6f	0.10964476
41	0x3db56cad	0.08858619
42	0x3ceadca5	0.028669665
43	0x3d96f837	0.07371562
44	0x3d6d1859	0.057884548
45	0xbd90818b	-0.07055958
46	0xbda6d57a	-0.08146186
47	0x3dd9bd05	0.10631756
48	0xbcda848d	-0.026674533
49	0x3d058170	0.032594144
50	0x3dc49a91	0.09599794
51	0x3b82ab89	0.0039877337
52	0x3d1ab4ab	0.037769955
53	0xbcc38995	-0.023869315
54	0xbd0f9aed	-0.035059858
55	0x3d7d3b00	0.061823845
56	0x3dc9daee	0.09856211
57	0xbe192fb8	-0.1495961
58	0xbdcdb678	-0.10044569
59	0x3eb1289b	0.34601292
60	0x3bd55a08	0.0065109767
61	0xbba6796e	-0.0050803935
62	0xbd863b51	-0.065542825
63	0x3e42dacc	0.19028777
64	0x3e1b68a1	0.15176632
65	0xbd5d8e0e	-0.054090552
66	0x3c2264f9	0.009911769
67	0xbd76b6ce	-0.06023293
68	0x3dede4f5	0.11615936
69	0x3d9cfdc2	0.07665588
70	0xbcf4f73d	-0.029903049
71	0xbce973cb	-0.028497597
72	0xbde67981	-0.11253644
73	0xbf59ffcb	-0.85155934
74	0xbde933aa	-0.11386807
75	0x3cc9c911	0.024632009
76	0xbd4cb9bc	-0.049981818
77	0xbe401799	-0.18759002
78	0x3e0e81ce	0.13916704
79	0xbe23fd50	-0.160146
80	0xbe6c3da9	-0.23070396
81	0x3db41906	0.08793835
82	0xbd91f251	-0.07126296
83	0x3e146ee0	0.1449542
84	0xbda4cae3	-0.0804651
85	0x3e05cab8	0.13065612
86	0xbdb8bf5b	-0.09020873
87	0xbe25be4f	-0.16185878
88	0xbcc25ac3	-0.02372492
89	0xbc6c7be8	-0.014433838
90	0xbe1724be	-0.1476011
91	0x3e087e26	0.13329372
92	0xbd918476	-0.07105343
93	0xbdcdc7af	-0.10047852
94	0x3e0517af	0.12997316
95	0xbda4be1e	-0.080440745
96	0x3c695870	0.014242277
97	0x3ddb8fb7	0.10720771
98	0xbe8d7f73	-0.276363
99	0xbd6dd92f	-0.05806845
100	0xbe0061e1	-0.12537338
101	0x3dddadcb	0.10824164
102	0xbd7a5686	-0.06111767
103	0xbee16eef	-0.44029948
104	0xbe6380d2	-0.2221711
105	0x3d814a0f	0.06312954
106	0x3e3cb53f	0.18428515
107	0xbeaf6513	-0.342568
108	0xbdbcb784	-0.0921469
109	0xbd690792	-0.056891985
110	0x3e027d9f	0.12743233
111	0xbdf63b05	-0.12022976
112	0x3ca220da	0.019791055
113	0x3b02e3c1	0.0019972178
114	0xbd9f3f6b	-0.07775768
115	0x3d8a86d3	0.06763997
116	0xbd8ffdeb	-0.07030853
117	0xbe659d35	-0.22423251
118	0x3de0ffe8	0.1098631
119	0xbd91310a	-0.070894316
120	0x3db64463	0.088997625
121	0x3e004326	0.12525615
122	0x3d7c9eab	0.061674755
123	0xbe708baf	-0.23490785
124	0x3ba26535	0.0049559125
125	0xbda9416f	-0.082644336
126	0x3d212498	0.03934154
127	0x3d6702ec	0.05639927
128	0x3d8e96d3	0.06962361
129	0x3d4e54ec	0.050373957
130	0x3d2f153b	0.042744856
131	0xbd04b39f	-0.032397863
132	0x3dcc2a2a	0.0996898
133	0xbd8b2780	-0.067946434
134	0xbdd68317	-0.10474222
135	0xba57ad16	-0.0008227391
136	0xbd881fff	-0.06646728
137	0xbeaea6f7	-0.3411176
138	0x3d008fa9	0.031387005
139	0xbd3105fe	-0.043218605
140	0xbce0369e	-0.027369794
141	0xbe080df5	-0.13286574
142	0x3d80bb37	0.062857084
143	0x3dd4f8bd	0.103990056
144	0xbdac4d8f	-0.08413231
145	0xbdcaff17	-0.09911936
146	0x3d66fde8	0.056394488
147	0x3e07f951	0.132787
148	0x3e01067a	0.12600127
149	0x3d46c6bb	0.048529368
150	0x3de7b303	0.11313441
151	0x3c116a24	0.008875404
152	0x3f16b42b	0.58868665
153	0xbd04afc9	-0.032394204
154	0xbe06f94f	-0.13181041
155	0x3dcec4ca	0.10096128
156	0xbdfd4e8e	-0.12368499
157	0xbd5624c3	-0.052281152
158	0x3da7fbe5	0.08202342
159	0x3cc0bdf3	0.023528075
160	0x3da6123c	0.08108947
161	0x3d401f1c	0.04690467
162	0xbe33c853	-0.17556886
163	0xbcadec41	-0.021230819
164	0x3db68560	0.08912158
165	0x3cc3cee1	0.023902358
166	0x3df2f813	0.11863723
167	0xbd99b596	-0.07505338
168	0x3cea536c	0.028604232
169	0x3da5c215	0.08093659
170	0x3ce7fed0	0.028319746
171	0xbeb0076f	-0.3438067
172	0x3d9f37b4	0.077742964
173	0x3df4a17c	0.11944863
174	0x3cdbb96b	0.026821813
175	0xbd9916b9	-0.07475037
176	0x3d950143	0.07275631
177	0x3dda3671	0.10654915
178	0xbe8daefe	-0.2767257
179	0x3df4dc92	0.11956133
180	0x3bf7e42a	0.007565041
181	0xbe7b5e20	-0.24547625
182	0xbe2d2eb5	-0.16912349
183	0x3da46f27	0.08029013
184	0x3ba589aa	0.005051811
185	0xbd57fde5	-0.052732367
186	0xbe17c432	-0.14820936
187	0xbe05f6c7	-0.1308242
188	0xbd9475f4	-0.0724906
189	0xbe283ad8	-0.16428697
190	0x3d4d5367	0.050128367
191	0x3d796f19	0.060896967
192	0xbd3a2841	-0.045448545
193	0xbcf5c3d7	-0.03000061
194	0x3e161e1a	0.1465992
195	0x3e20a620	0.15688372
196	0xbd78bce0	-0.060727
197	0x3c0de5c1	0.008660735
198	0xbdf09232	-0.117466345
199	0x3e27eb63	0.16398387
200	0xbc39e0d2	-0.011345105
201	0xbe9ed282	-0.3101998
202	0xbe618220	-0.22022295
203	0x3e9b90b9	0.30383852
204	0xbbc9ba6c	-0.0061562564
205	0x3ceac3c5	0.028657803
206	0x3dfd2f89	0.12362582
207	0x3e55e426	0.20887813
208	0xbdce7ab7	-0.10082
209	0x3e1cc2b9	0.15308656
210	0xbd8d02da	-0.068853095
211	0xbd549335	-0.0518982
212	0x3c6dcb2a	0.01451377
213	0x3debec78	0.11519712
214	0x3e7c84a9	0.24659981
215	0xbd96942c	-0.0735248
216	0x3e54a8e8	0.20767558
217	0x3c48ba51	0.012251453
218	0xbe287dbc	-0.16454214
219	0x3e2556e9	0.16146435
220	0x3e329778	0.17440593
221	0x3cb75afc	0.022382252
222	0xbc75123e	-0.014957963
223	0xb9a8f319	-0.0003222458
224	0xbd7c3648	-0.061575204
225	0x3de0c7fc	0.10975644
226	0xbe4543e1	-0.19264175
227	0x3d19db1a	0.037562467
228	0x3d96a9c9	0.07356603
229	0x3db854da	0.09000559
230	0x3d2e3d8c	0.042539164
231	0x3cbe0302	0.023194794
232	0xbd929375	-0.071570314
233	0xbd681392	-0.05665929
234	0x3c9e9797	0.019359393
235	0xbe9f95f5	-0.31169096
236	0xbcc19c5b	-0.023634126
237	0xbe074eb6	-0.1321362
238	0xbd6ca730	-0.05777663
239	0x3e23fb7d	0.16013904
240	0x3ccde5c2	0.025133971
241	0x3d06d174	0.032914594
242	0xbe2df427	-0.16987668
243	0xbcfd96e1	-0.030955734
244	0xbd2a2411	-0.0415383
245	0xb8aab5b9	-8.14008e-05
246	0x3dd755de	0.10514425
247	0xbe06aae0	-0.13151121
248	0xbc3c82ed	-0.0115058245
249	0x3d2988c0	0.04139018
250	0x3cf53251	0.02993122
251	0x3cec7dd6	0.028868597
252	0x3df32e01	0.11874009
253	0x3daac312	0.08337988
254	0x3cd2ff45	0.025756488
255	0x3e7fc8ef	0.24978994

actor.2.bias f4 [64]
0	0xbc52c9fb	-0.012865539
1	0x3d00c340	0.031436205
2	0xbd9388ec	-0.0720385
3	0xbd4816eb	-0.04884998
4	0x3d0a6d0c	0.0337954
5	0x3dcead96	0.10091703
6	0x3bf81562	0.0075709084
7	0xbd7cc34d	-0.06170969
8	0xbdadd8b3	-0.08488598
9	0x3cb7ad29	0.022421436
10	0x3e3b5a90	0.18296266
11	0x3cf1881a	0.029483844
12	0x3d96cf4f	0.0736376
13	0xbd93202c	-0.07183871
14	0x3c5011de	0.012699572
15	0x3b5ac6f9	0.0033382757
16	0x3d9ae842	0.07563831
17	0x3d8c3a88	0.068471014
18	0x3bdbdbc6	0.0067095486
19	0x3d458f3c	0.048232302
20	0xbdc106fc	-0.0942516
21	0x3dd0e4ad	0.101998664
22	0xbbf042f3	-0.0073321997
23	0x3de9aa32	0.11409415
24	0x3dce407e	0.10070895
25	0x3d36b67a	0.044607617
26	0x3db8a923	0.09016635
27	0x3b58b6c4	0.0033067921
28	0x3d13b29f	0.03605902
29	0xbdbf08ca	-0.09327848
30	0x3d02ac0c	0.031902358
31	0x3d547fd3	0.051879715
32	0xbd9d505c	-0.07681343
33	0xbd996f39	-0.07491917
34	0xbd8cd7bd	-0.06877086
35	0x3d8d6cb6	0.069055006
36	0xbde111c4	-0.10989717
37	0x3db32449	0.08747155
38	0xbd878509	-0.06617171
39	0xbd1d8e21	-0.038465623
40	0xbd37f8e7	-0.044915106
41	0x3d1a050b	0.037602466
42	0xbd3eb42c	-0.046558544
43	0xbd85ec5d	-0.06539223
44	0xbd6c27d2	-0.057655163
45	0x3d4da532	0.05020637
46	0x3de879c0	0.11351347
47	0x3d966aad	0.073445655
48	0xbc995584	-0.018717535
49	0x3e309dfc	0.17247766
50	0xbde7a787	-0.1131125
51	0xbd9ecb36	-0.07753603
52	0x3d1decec	0.038556024
53	0xbdc87555	-0.09788004
54	0x3df7531f	0.12076401
55	0xbd98ec26	-0.07466917
56	0xbde2f578	-0.11081976
57	0xbda49f88	-0.08038241
58	0x3d280919	0.0410243
59	0xbdbb47f5	-0.09144584
60	0xb7d85cdf	-2.5792453e-05
61	0xbc266eb1	-0.010158227
62	0xbc67d95c	-0.014150944
63	0xbd4fcd28	-0.05073276

actor.4.weight f4 [64, 64]
0	0xbde3bc0b	-0.11119851
1	0xbdeb272f	-0.11482083
2	0x3d2d301a	0.0422822
3	0x3defb4ee	0.117044315
4	0x3d0cfe12	0.034421988
5	0xbdec4d97	-0.115382366
6	0xbcd20957	-0.02563922
7	0xbdbc5ec0	-0.0919776
8	0x3e085637	0.13314138
9	0x3de055b3	0.10953846
10	0xbd6191e5	-0.055070776
11	0xbbd6f93e	-0.0065604737
12	0x3d6c24a5	0.057652134
13	0xbbbecdff	-0.0058228965
14	0xbc278275	-0.0102239745
15	0xbd0dfc19	-0.034664247
16	0x3d022aaf	0.031778987
17	0xbdb6b52e	-0.08921276
18	0x3da2182a	0.07914765
19	0x3e02fc70	0.1279161
20	0x3da41737	0.080122404
21	0xbce243d3	-0.027620232
22	0xbdf5047c	-0.11963746
23	0xbe069289	-0.13141836
24	0xbd80764a	-0.06272562
25	0xbd499de2	-0.049222834
26	0xbd58c1d3	-0.05291922
27	0x3c2416bd	0.010015187
28	0x3e033865	0.12814482
29	0xbe2565c1	-0.16152097
30	0xbe053ddc	-0.13011879
31	0x3db282ce	0.08716355
32	0xbdfd031e	-0.1235411
33	0x3d25e1c6	0.040498517
34	0x3ce5ef23	0.02806813
35	0xbe03909d	-0.12848134
36	0xbd8e182b	-0.069382034
37	0x3d0d4bfe	0.0344963
38	0xbe27f31c	-0.16401333
39	0x3d471151	0.0486005
40	0xbcf8822f	-0.030335514
41	0x3deda9c1	0.116046436
42	0xbc72e2fe	-0.014824627
43	0xbdbca3aa	-0.09210904
44	0xbdc81cc8	-0.097711146
45	0xbc9c35b4	-0.019068576
46	0x3e26dee7	0.16295968
47	0x3d761f8a	0.06008867
48	0xbe17ee3f	-0.14836977
49	0x3c27315a	0.010204637
50	0xbd2a52aa	-0.04158274
51	0x3cb2469a	0.021762181
52	0x3e1bdf96	0.1522201
53	0x3db27202	0.087131515
54	0xbe0d4659	-0.13796367
55	0xbe029dc8	-0.12755501
56	0x3d382674	0.044958547
57	0x3e4d8963	0.2007194
58	0x3df1b1b0	0.11801469
59	0x3e7a453f	0.24440478
60	0xbd69cca4	-0.057079926
61	0x3d8124a7	0.06305819
62	0xbdafaf1f	-0.085783236
63	0xbd7e8d84	-0.06214668
64	0xbdd12a22	-0.10213114
65	0xbe996602	-0.29960638
66	0x3da4e2ed	0.08051095
67	0x3b75e061	0.0037517773
68	0x3c418768	0.0118120685
69	0xbddf62fd	-0.109075524
70	0x3d48c69b	0.04901753
71	0xbdb0199e	-0.08598636
72	0x3dcc8cc3	0.09987786
73	0xbcc89ed8	-0.024489805
74	0x3d3b742d	0.04576509
75	0xbde63630	-0.11240804
76	0x3b0b0e15	0.002121811
77	0xbdd6bbdf	-0.10485052
78	0xbd4cb94b	-0.049981397
79	0xbe157fd2	-0.14599541
80	0x3ddd9ad0	0.10820544
81	0xbe0b42a3	-0.13599639
82	0x3df4e53c	0.119577855
83	0xbdfb5768	-0.12272531
84	0xbdcade06	-0.09905629
85	0x3d654a75	0.05597921
86	0xbe3bb011	-0.18328883
87	0xbe480a86	-0.19535264
88	0x3d8d9c66	0.06914596
89	0x3cac5348	0.021035805
90	0xbd370658	-0.044683784
91	0xbd466793	-0.04843862
92	0x3dd0c8d4	0.10194555
93	0xbd87956c	-0.06620297
94	0xbca9155c	-0.020640068
95	0x3b6e33ea	0.003634686
96	0xbe18a477	-0.14906488
97	0xbdc55fad	-0.09637389
98	0xbb81ed10	-0.0039650276
99	0xbe912288	-0.28346658
100	0xbdf41422	-0.119179025
101	0xbd521295	-0.051287252
102	0xbe4e2a24	-0.20133263
103	0x3e09ebd8	0.13468874
104	0xbd8c112c	-0.06839213
105	0x3dfd4a09	0.12367637
106	0x3df2370a	0.11826904
107	0x3d7fe075	0.06246992
108	0xbcbf2a92	-0.023335729
109	0xbd975fe9	-0.0739134
110	0xbd4881cc	-0.04895191
111	0x3dee8dbd	0.11648128
112	0x3d52f0de	0.05149924
113	0xbd39723c	-0.045274958
114	0xbbcc6dd2	-0.0062386775
115	0x3d9f56f8	0.0778026
116	0x3e12b10c	0.1432535
117	0x3c948937	0.018131835
118	0xbdce9389	-0.10086734
119	0x3bd9c8f2	0.006646269
120	0xbccd47d8	-0.025058672
121	0x3dd3849f	0.1032803
122	0x3dd7262d	0.10505328
123	0x3e3e1d40	0.18565845
124	0xbd85ec94	-0.06539264
125	0x3deebe3b	0.11657377
126	0x3d56a48b	0.052403014
127	0xbd600d4b	-0.054700177
128	0xbd039a3f	-0.032129522
129	0x3d4f5932	0.050622173
130	0x3dc78b35	0.097433485
131	0xbe0602c2	-0.1308699
132	0xbe47f82c	-0.19528264
133	0xbd9e1566	-0.07718925
134	0x3e2c3a6d	0.16819163
135	0x3c033695	0.008008619
136	0x3dfcd922	0.12346102
137	0xbdf82a1f	-0.12117409
138	0xbd68add9	-0.05680642
139	0x3cc8f3e5	0.02453036
140	0x3e164eac	0.14678448
141	0x3e0a862b	0.13527744
142	0x3d9b2ef8	0.07577318
143	0xbe3250c9	-0.1741363
144	0xbce60b40	-0.028081536
145	0x3e51ae9a	0.20476761
146	0x3e3ebf0e	0.18627569
147	0xbc96abd9	-0.01839249
148	0x3de95d21	0.11394716
149	0xbd0ca7d2	-0.034339733
150	0x3cd8900c	0.026435874
151	0x3dcfcda9	0.101466484
152	0xbd839285	-0.06424431
153	0x3e0aba12	0.13547543
154	0x3daf329f	0.08554577
155	0xbe755ed3	-0.23961954
156	0x3e006e08	0.12541974
157	0x3a5153b1	0.0007985188
158	0xbd854ee5	-0.065091886
159	0x3d98661f	0.07441353
160	0xbe94190f	-0.28925368
161	0x3d9834f2	0.074319735
162	0xbcb3cd87	-0.021948589
163	0xbd23cd57	-0.03999075
164	0xbcc21959	-0.023693727
165	0x3d0ed80a	0.034874
166	0xbe16b071	-0.14715745
167	0xbc281b53	-0.010260421
168	0x3d5e7116	0.054307066
169	0xbd19f948	-0.03759125
170	0xbc9a5a9f	-0.01884204
171	0xbd5ac5f3	-0.053411435
172	0xbdae7ea6	-0.0852025
173	0x3b263ad0	0.0025364645
174	0x3d1b6af1	0.037943784
175	0xbd1c6f03	-0.038191807
176	0x3e2f9887	0.17148028
177	0x3d788de0	0.060682178
178	0x3d9e68c5	0.07734827
179	0x3db5aca9	0.08870823
180	0x3d9915aa	0.07474835
181	0x3ebcf507	0.3690569
182	0xbe224a3f	-0.15848635
183	0xbd323da0	-0.0435158
184	0x3dcf3cd2	0.101190224
185	0x3eb86db5	0.360212
186	0x3e796307	0.24354182
187	0x3e7dd135	0.24786837
188	0xbcc200c3	-0.023682004
189	0xbcc444a3	-0.02395851
190	0xbdd03ae9	-0.10167486
191	0xbe21debf	-0.15807627
192	0xbd34bae8	-0.04412356
193	0xbcf8a6f4	-0.030353047
194	0xbe05219f	-0.13001107
195	0x3cc316c8	0.023814574
196	0xbe2449e5	-0.16043814
197	0xbe000864	-0.12503201
198	0x3d176fb7	0.036971774
199	0xbca7a737	-0.020465476
200	0xbcd281d3	-0.02569667
201	0x3df0f336	0.11765139
202	0x3dcf9335	0.101354994
203	0x3de684f5	0.11255828
204	0x3c3a1b3c	0.011359032
205	0xbd8a91f9	-0.06766123
206	0x3c56b35a	0.013104284
207	0xbdddb87e	-0.10826205
208	0x3db32640	0.0874753
209	0xbc0e9025	-0.008701359
210	0xba377e55	-0.0006999721
211	0x3d83ad28	0.06429511
212	0x3e1aaa14	0.15103942
213	0x3dd01818	0.101608455
214	0xbe16f25c	-0.1474089
215	0xbd77a931	-0.060464088
216	0xbd825950	-0.06364691
217	0xb987d75d	-0.00025909665
218	0x3de9fdb9	0.11425347
219	0xbd7d2811	-0.06180579
220	0x3ddf1b7f	0.10893916
221	0xbdcc860e	-0.099865064
222	0x3cb950a0	0.022621453
223	0xbe232556	-0.15932211
224	0x3c510df2	0.0127596725
225	0x3d552a47	0.052042272
226	0xbd9ad6a7	-0.07560473
227	0xbdfe30c9	-0.12411649
228	0xbc7f6b2a	-0.015589515
229	0x3d28491f	0.04108536
230	0xbe363b02	-0.17795947
231	0x3e01a349	0.12659945
232	0x3cb3da30	0.021954626
233	0x3d8e3721	0.06944109
234	0xbda7cfc8	-0.08193928
235	0x3cc6d132	0.024269674
236	0xbde3cff8	-0.11123651
237	0xbd59a991	-0.053140227
238	0xbda591ef	-0.08084475
239	0x3d0ac1c8	0.03387621
240	0xbc63f090	-0.013912335
241	0xbcf815c4	-0.030283816
242	0xbdc87c91	-0.09789384
243	0xbc105b0c	-0.00881077
244	0xbe3b7677	-0.1830691
245	0xbe06cbce	-0.13163683
246	0xbe544262	-0.20728448
247	0x3d87d13c	0.06631705
248	0xbcb1923f	-0.02167618
249	0xbd372b82	-0.044719227
250	0x3e03dccf	0.128772
251	0x3d250f2b	0.04029767
252	0xbce68826	-0.028141093
253	0x3d90c288	0.07068354
254	0x3db8719b	0.090060435
255	0x3d146496	0.03622874

actor.4.bias f4 [64]
0	0xbc8dc13e	-0.01730406
1	0xbd097063	-0.033554446
2	0xbd9af04c	-0.07565364
3	0xbdfef0dc	-0.12448284
4	0xbddd7622	-0.10813548
5	0xbdf046c9	-0.11732251
6	0x3cdf6c62	0.02727336
7	0x3df06bc0	0.11739302
8	0x3d1dd452	0.038532563
9	0xbd6234bd	-0.055226076
10	0x3ca89bf0	0.02058217
11	0x3ad75fab	0.001643171
12	0xbe0e3c0b	-0.13890092
13	0xbd7d600c	-0.061859176
14	0xbc783d82	-0.015151383
15	0x3b90f1f2	0.0044233734
16	0x3cfee475	0.031114796
17	0x3dd6942d	0.10477481
18	0x3be9df30	0.0071372017
19	0xbc3d42ec	-0.0115516
20	0xbe0d1bf7	-0.13780199
21	0x3d3de2ec	0.046358988
22	0xbd54d42f	-0.051960167
23	0xbc73ead1	-0.014887528
24	0x3d00c7ae	0.03144043
25	0x3b534665	0.0032238003
26	0xbd8916e4	-0.06693819
27	0x3dbf4a05	0.0934029
28	0x3ddc5edd	0.10760281
29	0x3d4e46a5	0.05036034
30	0xbdf39225	-0.11893109
31	0x3d6e5b9d	0.058192838
32	0xbe07d4d1	-0.13264777
33	0x3defe3fc	0.117134064
34	0xbd25f70b	-0.0405188
35	0x3cef4c39	0.02921115
36	0xbd85a611	-0.06525815
37	0x3c6110cc	0.013736915
38	0x3d2a3c10	0.041561186
39	0xbd4825f4	-0.04886432
40	0xbd64df35	-0.05587693
41	0xbd6c409f	-0.057678815
42	0x3dbbd018	0.0917055
43	0x3d87763e	0.0661435
44	0xbde5db09	-0.11223418
45	0x3deb6f84	0.11495879
46	0xbd0b3a55	-0.033991177
47	0x3da504c4	0.080575496
48	0xbe226d09	-0.15861906
49	0xbd98e8fa	-0.07466312
50	0xbd930fe4	-0.07180765
51	0xbd89d546	-0.06730132
52	0xbd1ea524	-0.03873171
53	0xbdc0f84a	-0.094223574
54	0xbd66a68c	-0.056311175
55	0xbdbe2bb4	-0.092856795
56	0x3c8ae307	0.016953958
57	0x3d8e4633	0.06946983
58	0xbdedc7e5	-0.116103925
59	0xbd993395	-0.074805416
60	0x3dd85e37	0.10564845
61	0xbe03f082	-0.12884715
62	0xbd9343f6	-0.07190697
63	0xbd78cd1d	-0.060742486

actor.6.weight f4 [64, 64]
0	0xbd4dfdb3	-0.050290775
1	0xbe028224	-0.12744957
2	0xbdd2f35d	-0.10300324
3	0x3dd0aa71	0.10188759
4	0xbe0bfb1a	-0.13670006
5	0xbd6513d5	-0.055927116
6	0x3c0546a9	0.0081345225
7	0xbd20e513	-0.039280962
8	0x3deebb0c	0.1165677
9	0xbd3968f8	-0.04526612
10	0xbe092caf	-0.13395952
11	0x3e28330d	0.16425724
12	0x3e1a0ef2	0.15044764
13	0x3da67dfa	0.08129497
14	0x3e15b6cd	0.14620514
15	0x3d5475e2	0.051870234
16	0xbe2828eb	-0.16421859
17	0x3d319a73	0.043360185
18	0xbb75fba4	-0.0037534023
19	0xbe4c47c1	-0.19949247
20	0xbe165c0c	-0.1468355
21	0xbe0b32fd	-0.13593669
22	0xbdf02d9f	-0.117274515
23	0x3d13b217	0.03605851
24	0x3cbb8d71	0.022894593
25	0x3d867115	0.065645374
26	0x3d1bf3d9	0.038074348
27	0x3e279277	0.16364466
28	0x3db34cb1	0.08754862
29	0xbd25e1c1	-0.0404985
30	0x3d66d967	0.056359675
31	0xbca06639	-0.019579994
32	0x3d071207	0.032976177
33	0xbd590329	-0.05298153
34	0x3d634cf7	0.05549332
35	0xbbc7e434	-0.006100202
36	0xbcb89e71	-0.022536488
37	0x3e334690	0.17507386
38	0x3d3ad98b	0.04561762
39	0xbda0b649	-0.07847268
40	0x3da4d83b	0.08049055
41	0xbd8cd126	-0.068758294
42	0xbde32481	-0.11090947
43	0x3dc01d47	0.09380584
44	0xbd7dac36	-0.06193181
45	0xbc3b83fb	-0.011445041
46	0x3db9b5f5	0.09067909
47	0x3d6b5384	0.057452694
48	0xbe0ce2cf	-0.13758396
49	0x3e16f625	0.14742334
50	0xbd865415	-0.06559006
51	0x3d975d4b	0.07390841
52	0x3d544ed5	0.051832993
53	0xbe0ce9d5	-0.13761075
54	0x3dc36234	0.09540215
55	0x3d7ca5ba	0.061681487
56	0x3dfaf744	0.122541934
57	0x3dcce217	0.10004061
58	0x3c817a24	0.015805312
59	0xbe21a5c6	-0.15785894
60	0x3e37fc2f	0.17967294
61	0xbce626be	-0.028094646
62	0x3ddd5960	0.108080626
63	0xbcc6ff47	-0.024291648
64	0x3d837242	0.06418277
65	0x3dc51b6c	0.09624371
66	0xbe895c68	-0.26828313
67	0x3d378a78	0.04480979
68	0xbd002d93	-0.031293463
69	0xbe29f872	-0.1659868
70	0x3e33279d	0.1749558
71	0xbe0661aa	-0.13123193
72	0x3d6a7bd5	0.057247
73	0xbdb68d8a	-0.08913715
74	0x3d415e6c	0.04720919
75	0xbdaaa583	-0.0833235
76	0xbe23540e	-0.15950033
77	0x3dbc17e8	0.09184247
78	0xbe58fbff	-0.21189879
79	0xbddea54a	-0.1087137
80	0x3dcfcead	0.10146842
81	0x3dcf06d8	0.10108727
82	0x3e52dab9	0.20591249
83	0x3ce5c467	0.028047753
84	0xbd89b7a3	-0.06724479
85	0x3e23d29f	0.15998314
86	0xbe5f5122	-0.21808293
87	0xbdb0be0c	-0.086299986
88	0x3e5dc64c	0.21657676
89	0xbd8d6b4d	-0.069052316
90	0x3d5130d2	0.05107195
91	0x3d594632	0.05304546
92	0xbe1addf7	-0.15123735
93	0xbe07a884	-0.13247877
94	0xbdd10cff	-0.10207557
95	0xbb193b18	-0.002338117
96	0x3e632c57	0.22184883
97	0x3dad9a1e	0.08476661
98	0x3dac5996	0.08415525
99	0xbbd7fb1e	-0.006591215
100	0xbcbfa6fd	-0.023395056
101	0x3e114aee	0.1418874
102	0x3d87c57d	0.06629465
103	0x3d9f5619	0.07780094
104	0x3d29ff8c	0.041503474
105	0xbe492eda	-0.19646779
106	0xbd93509d	-0.0719311
107	0x3e3a419e	0.18189093
108	0xbe335ed1	-0.17516638
109	0x3e437f1c	0.19091457
110	0xbd82f4cf	-0.0639435
111	0x3d45deef	0.04830831
112	0xbe63ebc0	-0.222579
113	0xbd94733e	-0.07248543
114	0x3e7ae666	0.24501953
115	0x3e249f2a	0.16076341
116	0x3d504f89	0.0508571
117	0xbd0e4f24	-0.034743443
118	0xbe23b605	-0.15987404
119	0xbca369c3	-0.019947892
120	0x3e872536	0.26395577
121	0xbd5a0805	-0.053230304
122	0xbd886260	-0.066593885
123	0xbd0cf197	-0.034410086
124	0xbe0f8ae4	-0.14017826
125	0x3c6be53f	0.014397918
126	0x3d22e00f	0.03976446
127	0xbd91732c	-0.071020454
128	0x3d0905e1	0.033452872
129	0x3dcb13f2	0.09915914
130	0xbea7ac11	-0.32748464
131	0xbd863027	-0.06552153
132	0x3d31dac2	0.043421514
133	0xbea1a6b2	-0.3157249
134	0x3c9ec8dd	0.019382888
135	0xbcb7d661	-0.022441091
136	0xbdc22878	-0.09480375
137	0xbd216cb4	-0.039410308
138	0xbe7a8c8a	-0.24467674
139	0xbe5c46df	-0.2151141
140	0xbdf30f8e	-0.11868201
141	0x3db1019a	0.086428836
142	0xbde38644	-0.111095935
143	0x3c9d5820	0.01920706
144	0x3db3f3b6	0.087867185
145	0xbb4e6803	-0.0031495101
146	0xbdf87ec8	-0.121335566
147	0xbe5ee4d8	-0.21766984
148	0xbdda21e6	-0.10650997
149	0x3e1b9c71	0.15196396
150	0xbe48b9ae	-0.19602081
151	0x3e2835b3	0.16426735
152	0x3e0e5409	0.13899244
153	0xbe4d3592	-0.20039967
154	0x3e0fb19c	0.14032596
155	0xbe986cc9	-0.29770496
156	0xbec90ff3	-0.3926998
157	0xbe336c6e	-0.17521831
158	0xbe3bbfdb	-0.18334906
159	0xb92befe8	-0.00016397203
160	0x3dd8ba48	0.10582405
161	0xbded1892	-0.11576952
162	0x3e26c3c2	0.16285613
163	0x3ea0e644	0.3142568
164	0x3db4869e	0.08814739
165	0xbb8882b1	-0.0041659703
166	0xbce21953	-0.027599966
167	0x3ce56254	0.028000988
168	0xbd06312e	-0.032761745
169	0xbeb558bf	-0.3541927
170	0x3da0002f	0.07812535
171	0x3e1c0ebe	0.15239999
172	0xbdbc5dc4	-0.09197572
173	0x3ea25a45	0.31709495
174	0xbd9d98ce	-0.07695161
175	0xbdb04100	-0.08606148
176	0xbeabcf97	-0.33556816
177	0xbded5fc9	-0.11590535
178	0x3e175651	0.14779021
179	0x3da6785a	0.08128424
180	0x3e4b1a18	0.19834173
181	0x3e047678	0.12935817
182	0xbeb2848d	-0.34866753
183	0x3dbc0277	0.09180158
184	0x3d8c4010	0.068481565
185	0xbd9bdd21	-0.07610536
186	0x3d51df88	0.051238567
187	0xbdb1ca94	-0.08681217
188	0xbdb407c6	-0.08790545
189	0xbe12a7ee	-0.14321873
190	0xbd806f8d	-0.062712766
191	0xbdbca411	-0.09210981
192	0xbe6ec2e6	-0.23316535
193	0x3d2f76e9	0.04283801
194	0xbd975e32	-0.07391013
195	0xbdc0067b	-0.09376236
196	0xbe06e4ef	-0.13173269
197	0x3dc30955	0.09523264
198	0xbe74f810	-0.23922753
199	0xbd764285	-0.06012203
200	0xbc854aca	-0.016271014
201	0x3d887687	0.06663232
202	0xbd6df753	-0.058097195
203	0x3e5ebd91	0.21752001
204	0x3e18e8d6	0.1493257
205	0xbc72cff8	-0.014820091
206	0x3e50d9aa	0.20395532
207	0x3dc0ef26	0.09420614
208	0xbe818784	-0.25298703
209	0xbe07862c	-0.13234776
210	0xbe56da0d	-0.20981617
211	0xbe888630	-0.26664877
212	0x3db75cbd	0.08953235
213	0xbddceae7	-0.107869916
214	0x3debd62d	0.1151546
215	0xbb3f4e92	-0.0029191119
216	0xbe713a20	-0.23557329
217	0x3e64a5da	0.22328892
218	0xbe76cc28	-0.24101317
219	0x3e88f4d5	0.26749292
220	0x3dd82c32	0.105553046
221	0x3d85a17e	0.06524943
222	0x3dbd2378	0.09235281
223	0x3c9593a3	0.018258875
224	0xbea8ceb1	-0.32970193
225	0x3e26014d	0.16211434
226	0xbdddd45b	-0.10831519
227	0xbe0951b8	-0.1341008
228	0xbe63074d	-0.22170754
229	0xbec2c98a	-0.38044387
230	0xbe3fa783	-0.18716244
231	0xbd918cf7	-0.07106965
232	0xbe67473e	-0.2258577
233	0x3e79c28f	0.24390624
234	0xbc3da7d0	-0.011575654
235	0xbe77dceb	-0.24205367
236	0x3e5bbc8a	0.2145864
237	0xbe1f33ec	-0.1554715
238	0xbed8a7d0	-0.4231553
239	0x3d4c02ca	0.049807347
240	0x3e21acc7	0.15788566
241	0x3e337962	0.17526773
242	0xbe44e356	-0.19227347
243	0xbe3425d2	-0.17592552
244	0xbe717121	-0.23578312
245	0xbe38e45a	-0.18055859
246	0x3eae96d0	0.34099436
247	0xbd14ec1a	-0.036357976
248	0xbe645ad4	-0.22300273
249	0x3e5fd1b6	0.21857342
250	0xbd4a2f82	-0.049361713
251	0x3ebaa7de	0.36456198
252	0x3e71ac80	0.2360096
253	0xbe3e6c6b	-0.18596046
254	0xbd057309	-0.03258041
255	0x3e8c84ec	0.2744516

actor.6.bias f4 [64]
0	0xbd5981f2	-0.05310244
1	0x3e0414ec	0.12898606
2	0x3dbfbd9a	0.093623355
3	0xbd9b5730	-0.07584989
4	0x3d7708e0	0.0603112
5	0xbbdde5d4	-0.0067717824
6	0x3dbdadf5	0.09261695
7	0x3d0816ca	0.03322486
8	0xbd7e09bf	-0.062021013
9	0x3e001db8	0.12511337
10	0xbd8ba42e	-0.06818424
11	0xbd32363a	-0.043508746
12	0xbc0dcfe2	-0.00865552
13	0x3c973784	0.01845909
14	0x3cdc8792	0.026920114
15	0xbd38c8f9	-0.045113537
16	0x3d5816b8	0.05275604
17	0xbcda2553	-0.026629126
18	0x3d9ace99	0.075589366
19	0xbd79b891	-0.060967032
20	0x3dcafae4	0.09911135
21	0xbcf22cf2	-0.029562447
22	0x3d458a7a	0.048227765
23	0xbd64df43	-0.05587698
24	0x3d0a6ea4	0.03379692
25	0xbb7649c9	-0.00375806
26	0xbc9103a4	-0.017701931
27	0xbbd8781f	-0.0066061164
28	0xbd359ede	-0.04434096
29	0x3d4900aa	0.0490729
30	0x3dc37843	0.095444225
31	0xbdfe4cb2	-0.12416972
32	0xbd1cf35c	-0.038318023
33	0xbd584b76	-0.05280634
34	0xbc28875c	-0.010286178
35	0x3dbdc8f5	0.09266845
36	0xbdc2f49a	-0.0951931
37	0xbd38c7bb	-0.045112353
38	0x3d88b167	0.06674462
39	0xbd239c09	-0.03994373
40	0xba99f65c	-0.0011746394
41	0x3d17d935	0.03707238
42	0xbd640e80	-0.05567789
43	0x3d958560	0.0730083
44	0x3c83840d	0.016054178
45	0xbdb3ef9e	-0.08785938
46	0xbbce936f	-0.0063041965
47	0x3d053d0c	0.032528922
48	0x3db2cdf2	0.08730687
49	0xbdc2734a	-0.09494646
50	0xbdc585af	-0.09644639
51	0xbc588732	-0.013215827
52	0xbddcb247	-0.10776191
53	0xbbd4851a	-0.0064855935
54	0xbc2b2488	-0.010445721
55	0xba961528	-0.0011450397
56	0xbe06d939	-0.13168801
57	0x3d90b360	0.07065463
58	0xbc1fe2c6	-0.009758657
59	0xbd7bfc45	-0.06151988
60	0x3d5dacdf	0.05411994
61	0x3dedff4e	0.11620961
62	0x3c076f4f	0.008266284
63	0x3d82c076	0.06384365

actor.8.weight f4 [1, 64]
0	0x3e23da5c	0.16001266
1	0x3e416e8f	0.18889831
2	0x3f03c005	0.51464874
3	0xbf258ba3	-0.64666194
4	0xbe7fc121	-0.24976017
5	0xbe7e6a28	-0.24845183
6	0x3dca9de0	0.098933935
7	0x3e36e224	0.17859703
8	0x3d995a2a	0.074879006
9	0x3ea23336	0.31679696
10	0xbe186bf0	-0.14884925
11	0x3e394a6e	0.18094799
12	0xbe8c0782	-0.27349478
13	0x3e965e0e	0.29368633
14	0xbe1c41c5	-0.15259464
15	0x3db73013	0.08944716
16	0xbe3105c2	-0.17287353
17	0x3e892394	0.26784956
18	0xbe3ae9ad	-0.18253203
19	0xbd9c4ab9	-0.0763144
20	0xbd957af2	-0.072988406
21	0xbdbf4152	-0.09338631
22	0x3e024591	0.1272185
23	0xbe8b022c	-0.27150095
24	0x3ee8cebd	0.4547023
25	0x3e11cd7d	0.14238544
26	0x3eb3c2b1	0.35109475
27	0xbe3a1f59	-0.1817602
28	0xbe6ef4cc	-0.2333557
29	0xbe8229b1	-0.25422433
30	0xbde32e87	-0.11092859
31	0xbe3760e7	-0.17908059
32	0xbe4d3eec	-0.20043534
33	0xbe5e48cd	-0.21707459
34	0x3e6f7973	0.23386173
35	0xbdff9e2e	-0.12481342
36	0x3da0e603	0.07856371
37	0x3dc9067c	0.0981569
38	0xbe1196b6	-0.14217648
39	0x3ed3c021	0.4135752
40	0xbe5888e1	-0.21145965
41	0xbe27f4fc	-0.16402048
42	0x3e4af334	0.19819337
43	0x3e46bf5b	0.19408934
44	0xbeb728ea	-0.35773402
45	0x3d945fc4	0.07244828
46	0xbed6d69d	-0.41960612
47	0x3e6c4951	0.23074843
48	0x3e7247b8	0.23660171
49	0x3dbfadba	0.093593076
50	0xbf01da5c	-0.50723815
51	0xbe518c3d	-0.20463653
52	0x3d93cea1	0.07217146
53	0xbf0b64b1	-0.5445052
54	0xbe2af97a	-0.1669673
55	0xbe538e32	-0.20659712
56	0xbe3a7402	-0.18208316
57	0xbdb0137f	-0.085974686
58	0x3e2fa947	0.17154418
59	0x3e182233	0.14856796
60	0x3ece758f	0.40324065
61	0xbe4e5413	-0.2014926
62	0xbeb06050	-0.3444848
63	0x3e373765	0.17892225

critic.0.weight f4 [64, 6]
0	0xbe23247b	-0.15931885
1	0xbd6976d8	-0.056998104
2	0xbc1c89e5	-0.009554361
3	0x3d78bbae	0.06072586
4	0xbf03e9b5	-0.51528484
5	0xbe59a609	-0.21254744
6	0xbf995f85	-1.1982275
7	0x3da1f8b9	0.07908768
8	0xbe747284	-0.23871809
9	0x3f6bf55c	0.92171264
10	0x3f07bf83	0.530266
11	0x3f5b584a	0.85681593
12	0xbfb41a68	-1.4070559
13	0x3b8669a7	0.00410195
14	0xbe68bf0d	-0.2272913
15	0x3f079509	0.52961785
16	0x3cfeda1d	0.031109864
17	0x3f0c16cf	0.54722303
18	0xbe963038	-0.29333663
19	0xbef14eb8	-0.4713037
20	0x3d988c5f	0.07448649
21	0x3e4c777c	0.19967455
22	0x3e494d32	0.19658354
23	0xbe40e18f	-0.18836044
24	0xbdd1d73a	-0.10246129
25	0xbebeb136	-0.37244576
26	0xbd8b0895	-0.06788746
27	0x3ea9b18d	0.33143273
28	0x3e365971	0.17807557
29	0xbe941952	-0.28925568
30	0xbfb65af8	-1.4246511
31	0xbeb2f941	-0.3495579
32	0x3e0b7ffc	0.13623041
33	0x3fa4e5d9	1.2882644
34	0xbfae8cce	-1.363672
35	0xbeefd821	-0.4684458
36	0xbf27f7a4	-0.65612245
37	0x3d432121	0.047639016
38	0xbe963686	-0.29338473
39	0x3f0d27dd	0.5513895
40	0xbf9add9e	-1.2098882
41	0xbddbee7f	-0.10738849
42	0x3f6e09fb	0.9298398
43	0x3cac6755	0.021045366
44	0xbe9408be	-0.2891292
45	0xbfa4cdcc	-1.2875304
46	0x3fb782e4	1.433682
47	0x3feae609	1.8351451
48	0xbf736d63	-0.95088786
49	0xbc9f0a4b	-0.019414088
50	0xbd78c2f8	-0.06073281
51	0xbc226152	-0.009910898
52	0xbe8493c7	-0.25893995
53	0xbe20ae4e	-0.15691492
54	0x3f576cd1	0.84150416
55	0xbdaac2e7	-0.08337956
56	0x3a9057ee	0.0011012533
57	0x3fa59d1f	1.2938575
58	0xbf795773	-0.9739906
59	0x3e56840a	0.20948806
60	0x3e211529	0.15730728
61	0xbe8fcfb1	-0.28088143
62	0x3e4ad0c0	0.19806194
63	0xbe11c125	-0.14233835
64	0x3e73aec2	0.23797134
65	0x3f6ceea1	0.9255162
66	0x402c9d0e	2.6970859
67	0xbdc3ab9f	-0.095542185
68	0xbd72a730	-0.059241474
69	0xbe55cca6	-0.20878848
70	0x3c9d42c0	0.019196868
71	0xbefe482f	-0.49664447
72	0xbe17d70b	-0.14828126
73	0xbe3b827c	-0.18311495
74	0xbd9cd241	-0.0765729
75	0xbe473d6e	-0.19457027
76	0xbf314176	-0.6924051
77	0x3f962284	1.1729283
78	0xbf59701c	-0.8493669
79	0xbd7ee742	-0.062232263
80	0xbea2a26c	-0.31764543
81	0x3f55be4a	0.83493483
82	0xbf98fad3	-1.1951545
83	0xbf1ddce1	-0.6166516
84	0x3f936b16	1.1517055
85	0xbcf99a51	-0.030469092
86	0x3e39ed71	0.18156983
87	0xbfbbb1d7	-1.4663647
88	0x3fc1cfa9	1.5141498
89	0x402a9f01	2.6659548
90	0xbf0c050c	-0.546952
91	0xbda6ae27	-0.08138686
92	0x3eca1341	0.39467815
93	0xbf38d0e0	-0.7219372
94	0x3e856e69	0.260608
95	0x3fa8929f	1.3169745
96	0xbfe8560f	-1.8151263
97	0x3ec23c15	0.37936464
98	0xbe24699c	-0.16055912
99	0x3e198522	0.14992192
100	0x3cf5b298	0.029992387
101	0xbe78c08a	-0.24292198
102	0xbfbcc9b2	-1.4749053
103	0xbd18cacd	-0.03730278
104	0x3e7afdac	0.2451083
105	0x3f5462b1	0.8296309
106	0xbf6dee8f	-0.92942137
107	0xbef88d1c	-0.48545158
108	0xbfd6f5bb	-1.6793741
109	0xbe50b768	-0.20382464
110	0xbd629165	-0.05531444
111	0x3faa6cef	1.3314494
112	0xbf7d2403	-0.98883075
113	0xbf0e9fa5	-0.5571235
114	0xbf466e98	-0.775125
115	0x3cc9dba7	0.024640871
116	0xbf191e2a	-0.5981165
117	0xbfe6c9e8	-1.8030367
118	0x3fcf5c65	1.6200072
119	0x3ef8e2e9	0.4861062
120	0xbfba2d48	-1.4545069
121	0xbe155f5f	-0.14587162
122	0x3e647f70	0.22314239
123	0xbd976c7e	-0.0739374
124	0x3dad71a5	0.084689416
125	0xbf68713b	-0.90797776
126	0xbf388b18	-0.7208724
127	0x3e68cff8	0.22735584
128	0xbef1a04b	-0.47192606
129	0xbee608c1	-0.44928554
130	0x3f36a10a	0.71339476
131	0xbf7067e1	-0.93908507
132	0x403d0d84	2.95395
133	0x3e53b5bd	0.20674796
134	0xbba477d0	-0.0050191656
135	0xbf2edf3e	-0.6830939
136	0x3dc16be0	0.09444404
137	0x40470302	3.1095586
138	0xbeee27ae	-0.46514648
139	0xbe591aff	-0.21201704
140	0xbeac8e54	-0.33702338
141	0x3eef0a6a	0.46687633
142	0x3eb563c0	0.35427666
143	0x3f01cb5b	0.5070092
144	0xbfe22d49	-1.767007
145	0x3e2b2135	0.16711886
146	0xbeb35097	-0.35022423
147	0xbfa1a389	-1.2628032
148	0x3fd63efe	1.6737974
149	0x3ed49a7b	0.4152411
150	0x3ee9974a	0.45623237
151	0x3c1a325d	0.009411422
152	0xbe2bc271	-0.16773392
153	0x3fc41611	1.5319234
154	0xbfaff45c	-1.3746448
155	0x3eecf356	0.462794
156	0xbfbe40df	-1.4863547
157	0xbd7a0373	-0.061038446
158	0x3e05c9c3	0.13065247
159	0xbf417416	-0.7556776
160	0x3f73535a	0.9504906
161	0xbf2a3f00	-0.6650238
162	0x3f2d568a	0.67710173
163	0x3bb41940	0.005496174
164	0xbcb8e322	-0.022569243
165	0xbe300f57	-0.17193352
166	0x3e821c75	0.25412336
167	0x3fbb0a1a	1.4612458
168	0xbed7d9fd	-0.421585
169	0x3de39ace	0.11113511
170	0x3e41bd59	0.18919887
171	0x3ff859df	1.9402426
172	0xbfd16b3b	-1.6360849
173	0xbf4056f8	-0.75132704
174	0x3f4626ad	0.77402765
175	0xbdfc993e	-0.12333916
176	0xbe062297	-0.13099132
177	0x3f41abc0	0.75652695
178	0xbfd67902	-1.6755679
179	0xbe4e5f62	-0.20153573
180	0x3f904dbc	1.1273723
181	0xbdb42e91	-0.08797944
182	0x3aaf34e7	0.0013367207
183	0xbeba1942	-0.36347395
184	0x3e4987cb	0.19680707
185	0x3f324c47	0.6964764
186	0x405020af	3.2519948
187	0x3d7b8f01	0.061415676
188	0xbe8526dc	-0.2600621
189	0x3e452681	0.1925297
190	0xbdae6132	-0.08514632
191	0x3f3b3a34	0.73135686
192	0xbfb70203	-1.4297489
193	0x3e4e3128	0.20135939
194	0x3dda72c3	0.1066642
195	0x3fa4c517	1.2872647
196	0xbfb0fc53	-1.3827003
197	0xbfb02619	-1.3761626
198	0xbd6858d6	-0.056725346
199	0xbeb21cb0	-0.34787512
200	0xbd1cdbc9	-0.03829554
201	0x3f191fde	0.5981425
202	0x3ebdefe6	0.3709709
203	0x3e7d98c4	0.24765307
204	0x3ff268ea	1.8938267
205	0xbd75b0ca	-0.059983052
206	0x3ea81d92	0.3283506
207	0xbec59f93	-0.38598308
208	0x3f3417e3	0.7034895
209	0x400c90fa	2.1963487
210	0x401321c5	2.2989361
211	0xbe9088e4	-0.2822944
212	0xbe9b1574	-0.30289805
213	0xbeabb17e	-0.33533853
214	0x3ef2a885	0.47394195
215	0x3f28cd2a	0.65938056
216	0x3f0c76e6	0.54868925
217	0x3e270613	0.16310911
218	0xbe876192	-0.26441628
219	0xbf63a796	-0.8892759
220	0x400e9d33	2.2283447
221	0xbd167e23	-0.036741387
222	0xbe1c2ea3	-0.15252165
223	0x3e646a3f	0.22306155
224	0x3e9f4f54	0.3111521
225	0x3fabeabe	1.3431013
226	0xc0057653	-2.085347
227	0xbfa28b76	-1.269881
228	0x3f9cf96f	1.2263621
229	0x3dc62cc0	0.09676504
230	0xbe8a4083	-0.27002344
231	0x3f92659f	1.1437262
232	0xbea233c2	-0.31680113
233	0xbf09f83b	-0.53894395
234	0x3e1b77c7	0.1518241
235	0x3e5cb466	0.21553192
236	0xbddd3fd6	-0.10803191
237	0x3f16bbde	0.5888041
238	0x3e67e4d8	0.2264589
239	0x3f68ccf7	0.9093775
240	0x3f7d8c1f	0.9904193
241	0x3eb58ded	0.35459843
242	0xbdb8d661	-0.090252645
243	0x3da0006c	0.078125805
244	0x3d46c7a4	0.048530236
245	0xbf244337	-0.6416506
246	0x3e860928	0.2617886
247	0xbd2d351e	-0.042286985
248	0xbeab708d	-0.33484307
249	0x3f1b5b27	0.6068596
250	0xbf290004	-0.6601565
251	0xbf209260	-0.6272335
252	0xbe908a4a	-0.28230506
253	0xbde8d648	-0.11368996
254	0xbd66de98	-0.056364626
255	0x3f1ec2e6	0.6201614

critic.0.bias f4 [64]
0	0x3e22d72e	0.15902397
1	0x3e3ec13b	0.18628399
2	0x3dfe5ab5	0.12419645
3	0xbd4c015f	-0.049805995
4	0xbd2e547b	-0.042561036
5	0xbe8e2053	-0.27759036
6	0x3e1fe931	0.15616299
7	0xbd45d636	-0.04829999
8	0xbedc49f0	-0.4302516
9	0xbe16df06	-0.14733514
10	0x3ea20e97	0.31651756
11	0xbe0695bd	-0.13143058
12	0x3e7b5a9f	0.24546288
13	0x3e55c479	0.2087573
14	0x3bdac74d	0.0066765905
15	0x3e9c2d98	0.30503535
16	0xbeb70ead	-0.35753384
17	0x3da4878f	0.08033668
18	0xbe58a9f8	-0.21158588
19	0x3d89dfe2	0.067321554
20	0xbe4be3f5	-0.19911177
21	0x3cf954eb	0.030436
22	0xbce4562d	-0.027873123
23	0xbe8c3768	-0.27386022
24	0xbc2f4790	-0.010698214
25	0xbdd9418d	-0.10608206
26	0xbdec5cea	-0.115411595
27	0xbdc89fb8	-0.09796089
28	0xbe8a7778	-0.27044272
29	0x3e8c6124	0.27417862
30	0xbd2532c5	-0.04033162
31	0x3da48047	0.080322795
32	0x3e3288b9	0.17434968
33	0xbef1a647	-0.47197172
34	0xbe4525c0	-0.19252682
35	0x3e3ff4b1	0.18745686
36	0x3d460d3a	0.048352458
37	0x3cb1c8e0	0.02170223
38	0x3ded2c4d	0.11580715
39	0xbec49e5e	-0.38402075
40	0x3ed21010	0.4102788
41	0xbcf3eca3	-0.029775923
42	0xbd841b58	-0.06450528
43	0xbec479b8	-0.38374114
44	0x3ddafcac	0.106927246
45	0x3ea01f5a	0.3127392
46	0xbe3273ea	-0.1742703
47	0x3d173043	0.03691126
48	0x3f0db0cf	0.55347914
49	0xbc2a16d4	-0.010381419
50	0xbdf28d82	-0.11843397
51	0x3de515a5	0.11185769
52	0x3eb19f8a	0.3469203
53	0x3dfd32d2	0.12363209
54	0x3cbe55cf	0.023234276
55	0x3eef8f11	0.46788839
56	0xbe9d9d05	-0.3078386
57	0xbf20d20e	-0.6282052
58	0xbee5a1a4	-0.44849885
59	0xbe8031c0	-0.25037956
60	0x3dba575a	0.09098692
61	0xbe2954c1	-0.16536237
62	0x3e248630	0.16066813
63	0x3d9ccd95	0.07656399

critic.2.weight f4 [64, 64]
0	0xbd1d3be0	-0.03838718
1	0xbefb9e70	-0.49144316
2	0xbe2610b4	-0.16217309
3	0x3f05a3c4	0.5220301
4	0x3f203489	0.6258016
5	0xbe960156	-0.29297894
6	0x3ec0b95c	0.37641418
7	0x3e827d79	0.25486353
8	0x3c2142f5	0.009842624
9	0x3e9227ef	0.28546092
10	0xbed426fc	-0.41435993
11	0xbcf780ea	-0.030212838
12	0xbec8e180	-0.39234543
13	0xbeafc8c7	-0.34332868
14	0x3da3d458	0.07999486
15	0xbe98ea93	-0.29866466
16	0xbf4bc545	-0.79597884
17	0xbe846e13	-0.2586523
18	0xbed28fe3	-0.41125402
19	0x3ceb14bd	0.028696412
20	0xbea0f116	-0.31433934
21	0xbf188e9b	-0.595926
22	0xbe297ea0	-0.1655221
23	0x3e97d003	0.29650888
24	0x3dc330f8	0.095308244
25	0x3c4bb9dd	0.01243445
26	0x3e2ca9fa	0.16861716
27	0xbe18bc8f	-0.1491568
28	0xbd549e11	-0.051908556
29	0x3f323b03	0.69621295
30	0xbc539b82	-0.012915494
31	0xbdfd9870	-0.12382591
32	0xbf5f607d	-0.87256604
33	0x3f255962	0.6458951
34	0xbfdb0c87	-1.7113198
35	0x3edfd773	0.43719062
36	0xbdc329d0	-0.095294595
37	0xbeb3e974	-0.35139048
38	0x3e654348	0.22388947
39	0xbe23745a	-0.15962353
40	0xbd95d18f	-0.07315361
41	0x3e8fb7b4	0.28069842
42	0x3e1832c0	0.1486311
43	0x3efd1ff9	0.49438456
44	0xbf1294aa	-0.57258093
45	0xbebc8f57	-0.3682811
46	0xbf072d83	-0.5280382
47	0xbe974b4d	-0.29549637
48	0xbf1381a4	-0.5761969
49	0xbe106a60	-0.14103079
50	0xbd1e46fa	-0.038641907
51	0x3ebdf2de	0.37099355
52	0x3ea70811	0.32623342
53	0x3ed1f389	0.41006115
54	0xbe37475d	-0.17898317
55	0xbfc78783	-1.558823
56	0xbe4f2968	-0.20230639
57	0xbe0ef391	-0.139601
58	0x3f56dc0b	0.8392951
59	0xbd18d1a0	-0.03730929
60	0x3e5d1131	0.21588589
61	0xbe505558	-0.20345056
62	0xbe780e2b	-0.24224155
63	0xbda74162	-0.08166768
64	0xbb86421c	-0.0040972363
65	0xbe9ee823	-0.3103648
66	0xbe1de5d0	-0.15419698
67	0x3e9e5e6c	0.30931413
68	0xbd668ec8	-0.05628851
69	0xbf81ed19	-1.0150481
70	0x3d53f4e7	0.05174723
71	0x3f159a11	0.5843821
72	0xbdac9c07	-0.08428197
73	0xbf07b36e	-0.5300816
74	0xbf13326c	-0.5749881
75	0x3edd35f3	0.43205222
76	0xbed5e10b	-0.41773257
77	0xbf2ced2d	-0.675494
78	0x3f032779	0.51232105
79	0xbdc9807f	-0.09838962
80	0xbe8fe8e6	-0.28107375
81	0xbe6cfd90	-0.23143601
82	0xbf7280a9	-0.9472757
83	0x3eb6acc2	0.3567868
84	0x3e28438e	0.1643202
85	0x3f06a76e	0.5259923
86	0x3e05f5ac	0.13081998
87	0xbf126173	-0.57179946
88	0x3e873550	0.26407862
89	0xbedbb3dd	-0.42910662
90	0x3e9bca1e	0.3042764
91	0xbf0f44c9	-0.5596433
92	0xbece0549	-0.40238407
93	0x3e28c730	0.16482234
94	0xbdcb77d0	-0.09934962
95	0xbe63e00c	-0.22253436
96	0xbfcdc684	-1.6076207
97	0xbe520df5	-0.20513137
98	0x3f0f2b9e	0.5592593
99	0xbf075faa	-0.52880347
100	0x3e71c09b	0.2360863
101	0xbe833d7f	-0.25632855
102	0x3cf175c0	0.029475093
103	0xbeff3791	-0.4984708
104	0x3e3d9ec9	0.18517603
105	0xbc7ba715	-0.01535966
106	0xbe3dbdb0	-0.18529391
107	0x3f4841ec	0.7822559
108	0xbe8dd626	-0.27702445
109	0x3dbe0f36	0.09280245
110	0xbe7d7383	-0.24751095
111	0xbe5f23ac	-0.21790951
112	0xbf4844fb	-0.78230256
113	0xbe9909e3	-0.29890355
114	0x3e531a73	0.20615558
115	0xbfc0608a	-1.5029461
116	0x3f283830	0.65710735
117	0x3e4fbd18	0.20286977
118	0x3dcaf7a4	0.09910515
119	0xbeb6c5b8	-0.35697722
120	0x3d09ac52	0.033611603
121	0x3d9ff8ad	0.07811103
122	0x3e0fffa5	0.14062364
123	0xbf460215	-0.77346927
124	0x3d654875	0.055977304
125	0x3de13794	0.10996929
126	0xbec7dc2c	-0.39035165
127	0x3e2c3940	0.16818714
128	0xbe826485	-0.25467315
129	0xbe410264	-0.18848568
130	0xbe0e3d80	-0.13890648
131	0x3dcf1f7d	0.10113428
132	0x3eba8aa4	0.364339
133	0x3c303155	0.010753949
134	0x3eca909c	0.39563453
135	0x3e9900e2	0.29883486
136	0xbd060538	-0.03271982
137	0xbd8bcf81	-0.068266876
138	0x3ecadf02	0.39623266
139	0xbe3a91bb	-0.18219654
140	0x3eafe349	0.34353092
141	0x3e22cbf7	0.15898119
142	0x3e07048d	0.1318533
143	0x3f09e9ec	0.5387256
144	0xbdd81f53	-0.105528496
145	0xbe3e9f18	-0.18615377
146	0x3d5ef4a5	0.05443253
147	0xbea37e42	-0.31932265
148	0x3cc9a615	0.024615327
149	0xbea1a9dc	-0.31574905
150	0xbe7df5aa	-0.24800745
151	0x3e85c262	0.26124865
152	0xbe172691	-0.14760806
153	0x3d9d16fe	0.07670401
154	0xbf4accd6	-0.79218805
155	0xb9661945	-0.00021943923
156	0x3ec6191b	0.3869103
157	0x3da3ae16	0.07992189
158	0xbe872545	-0.26395622
159	0xbd7a1311	-0.06105334
160	0x3d51b8c1	0.051201586
161	0x3f0642c0	0.524456
162	0xbfc2ee79	-1.5229026
163	0x3e8dbe4b	0.27684245
164	0xbf0cbf16	-0.54979074
165	0xbe52a3ea	-0.20570341
166	0x3e755ade	0.23960444
167	0x3f07fc94	0.5311978
168	0xbef561ef	-0.4792628
169	0xbe4acea2	-0.19805387
170	0x3dedc942	0.116106525
171	0xbe689ea1	-0.22716762
172	0x3e400a35	0.18753894
173	0xbf1e4765	-0.6182769
174	0xbe3eb4e6	-0.18623695
175	0xbd277a76	-0.040888272
176	0x3eb25b94	0.34835494
177	0xbd598e29	-0.05311409
178	0xbd396e8e	-0.04527145
179	0x3e91fe37	0.28514263
180	0xbeaa02eb	-0.3320535
181	0xbe5198f6	-0.20468506
182	0xbdbdc36c	-0.092657894
183	0xbe604e29	-0.21904816
184	0x3eb1660a	0.34648162
185	0xbdba923b	-0.091099225
186	0x3e8e5433	0.27798614
187	0x3ecc8b15	0.3994986
188	0x3d20e64f	0.03928214
189	0xbe7783f7	-0.24171434
190	0xbc7d75a0	-0.0154699385
191	0xbe969431	-0.29409936
192	0x3e853198	0.260144
193	0xbea478df	-0.32123467
194	0xbd86475f	-0.06556582
195	0x3f38da57	0.7220816
196	0xbc80b4e8	-0.015711263
197	0xbe9271c1	-0.28602412
198	0x3e0fdca8	0.14049017
199	0x3e4bda33	0.19907455
200	0xbe96c249	-0.29445103
201	0xbc1af21f	-0.00945714
202	0xbf1a80da	-0.6035286
203	0xbe5ce8dc	-0.21573204
204	0x3da3c0d2	0.07995762
205	0x3db3c15b	0.08777114
206	0xbf2799d8	-0.6546912
207	0xbe69f590	-0.22847581
208	0xbe97d79a	-0.29656678
209	0xbe3939a5	-0.18088396
210	0xbdb9cb81	-0.090720184
211	0xbd8f74cb	-0.07004698
212	0xbf2e87e9	-0.6817613
213	0x3e3968bc	0.18106359
214	0x3de514e2	0.11185624
215	0xbe4448f5	-0.19168456
216	0xbf241180	-0.640892
217	0xbf1cf6f9	-0.6131435
218	0x3e0b894d	0.13626595
219	0xbe792cdc	-0.24333519
220	0x3dbe5118	0.09292811
221	0xbc9d9403	-0.019235617
222	0xbe8a6848	-0.27032685
223	0x3e143005	0.14471443
224	0xbe608922	-0.21927312
225	0x3df515d7	0.11967056
226	0x3eb72856	0.3577296
227	0x3e22b41b	0.15889017
228	0xbdaf6b55	-0.08565394
229	0xbe9833ab	-0.2972692
230	0xbee640b0	-0.44971228
231	0xbe9642fe	-0.29347986
232	0xbedb1b5c	-0.4279431
233	0xbeda33f5	-0.42617765
234	0xbed5b8e3	-0.4174262
235	0x3e9bc1a4	0.30421174
236	0xbea52996	-0.3225829
237	0x3f238d12	0.6388713
238	0x3ecd15c1	0.4005566
239	0x3e9a6b51	0.3016
240	0x3d94b20e	0.07260524
241	0xbd954217	-0.07287996
242	0x3c77849a	0.015107298
243	0x3e1089e6	0.14115104
244	0xbe9e759b	-0.309491
245	0x3ee2196f	0.4416003
246	0xbe92a4bb	-0.28641304
247	0x3e8b62e5	0.27223888
248	0xbd8b0f7c	-0.06790063
249	0xbed8780d	-0.4227909
250	0x3f8a232e	1.0791986
251	0xbe89e015	-0.26928774
252	0xbe23fb0a	-0.16013733
253	0xbdfc32c0	-0.12314367
254	0xbdbc419e	-0.09192203
255	0xbbd06dd1	-0.0063607474
