1_pole_inverted_pendulum/1_pole_PPO3_Trained/PPO_One_Pole_InvPendulum_400K.pth (torch, 109673 bytes, 18 tensors)

actor.0.weight f4 [64, 6]
0.1763965 -0.005707771 0.0806054 -0.09375257 -0.3274703 0.08534414 -0.24474314 0.33183306
-0.2329667 0.14416707 0.389256 -0.82425195 0.31269214 0.14668246 -0.37530655 -0.28000313
0.25787315 0.39118496 0.2782256 -0.06333188 -0.2266684 -0.26671705 -0.030479155 -0.48102012
0.20520808 0.24145529 -0.3639814 0.35392824 0.24049969 0.19857243 0.07193016 0.28758994
-0.41704887 0.11502534 0.23623787 0.24251662 0.6652971 0.113021106 0.30041558 0.40766206
-0.042107563 0.4711802 0.35780576 -0.08875111 0.27507234 -0.24845083 0.12264592 0.11480616
-0.5038738 -0.22100116 0.36308092 -0.014237255 0.06550769 -0.59662634 0.49593905 -0.15556003
-0.22808781 0.15437843 -0.51113117 0.61755407 -0.09737473 -0.16039649 -0.07716743 0.28335723
-0.36982673 -0.15435812 -0.096465245 -0.109828964 -0.19764681 0.08535078 -0.081898645 0.0972075
0.19694403 -0.25044551 -0.1628636 -0.02730868 0.346974 0.24953717 -0.2893393 -0.3780603
-0.13355325 -0.2457825 -0.27566388 0.069037065 0.5869536 -0.017960653 -0.20069909 0.35146427
-0.029494813 -0.32840306 0.24154128 -0.29005906 0.28090543 -0.37621868 -0.23937815 0.5253932
0.2791913 -0.14605987 0.08624548 -0.028511256 -0.03304927 0.34677088 0.28152153 0.18368553
0.13960344 -0.14691308 0.30430272 -0.14603378 0.37607476 0.2940812 0.04176031 -0.2957114
0.33522382 -0.35355568 -0.4577354 0.38220918 -0.2967937 -0.101569645 -0.41947195 -0.24308829
-0.35305572 0.3596178 -0.27978832 -0.04203165 -0.32354075 0.0333974 0.75304604 -0.40786523
0.124754414 -0.044477005 -0.09914471 -0.15822604 -0.16820624 0.08577498 0.117102094 -0.14752397
0.39452294 0.0668052 -0.37090757 0.3372073 -0.41822007 -0.3270085 0.20530045 0.009673535
-0.1423 -0.09039766 0.04772159 -0.24605492 0.2764658 -0.071462914 -0.22944473 0.023990627
-0.14609815 0.121450916 0.31840146 0.26398355 0.053399533 -0.20861383 -0.20512088 0.2680498
-0.299617 0.0792315 0.37366104 0.0082678795 -0.11059935 0.28838915 0.10416105 0.34576464
0.082177475 0.37351003 -0.37145695 0.08747582 -0.09111078 0.5228637 -0.13327417 -0.2562148
0.31896055 -0.0830206 -0.11864911 0.42648354 -0.098386094 0.26540694 0.06865847 -0.27109912
0.27246475 0.7065466 -0.31348112 0.20061807 -0.26097897 -0.27316833 -0.19124207 0.27644733
-0.22608776 0.3331223 -0.25477085 0.2615735 -0.085770555 0.28555533 -0.2109523 0.16988418
-0.32565206 0.16001073 -0.39110276 0.22887811 0.5514285 -0.02289062 -0.010572888 0.31290635
0.38849345 0.2049981 0.19799986 0.10562693 0.38482562 -0.05913722 -0.19008231 0.086122654
-0.08409681 0.1711416 -0.29145512 -0.18055157 0.16880244 -1.234259 0.009500596 -0.031705927
0.0056872056 -0.030553848 0.43364835 0.3200988 0.55636656 -0.18390235 0.02413393 0.24668986
-0.27113742 0.31659704 0.10004865 0.37238753 0.064098276 0.053555824 0.18142872 0.30739522
0.36650297 0.10714803 -0.0803426 -0.031668212 -0.15778856 -0.3866916 -0.17251861 0.029963128
0.35471195 -0.2960903 0.22000322 0.1095043 0.3592471 0.10538079 0.058277 -0.17483768
00000000: 49a1 343e 4108 bbbb 7214 a53d 5901 c0bd
00000010: 30aa a7be e9c8 ae3d f29d 7abe 06e6 a93e
00000020: d38e 6ebe 88a0 133e 904c c73e 2d02 53bf
00000030: 2f19 a03e ed33 163e 2e28 c0be 925c 8fbe
00000040: f307 843e 6549 c83e 9673 8e3e 25b4 81bd
00000050: c31b 68be 238f 88be 6caf f9bc 4548 f6be
00000060: 1122 523e 0e40 773e c55b babe 1536 b53e
00000070: 8d45 763e 9256 4b3e 1f50 933d fd3e 933e
00000080: 6e87 d5be 6892 eb3d 57e8 713e 4756 783e
00000090: e950 2a3f 9c77 e73d 12d0 993e 15b9 d03e
000000a0: fb78 2cbd 883e f13e 5132 b73e 24c3 b5bd
000000b0: 48d6 8c3e e569 7ebe c92d fb3d 7e1f eb3d
000000c0: e0fd 00bf 214e 62be bee5 b93e 6043 69bc
000000d0: e528 863d 81bc 18bf b9eb fd3e 214b 1fbe
000000e0: da8f 69be 6115 1e3e 7ed9 02bf 0618 1e3f
000000f0: 676c c7bd fa3e 24be f509 9ebd 3314 913e
00000100: ee59 bdbe 0e10 1ebe 928f c5bd 02ee e0bd
00000110: ed63 4abe 64cc ae3d 7aba a7bd ba14 c73d
00000120: b2ab 493e 653a 80be b7c5 26be 74b6 dfbc
00000130: 93a6 b13e ac86 7f3e 4824 94be 1f91 c1be
00000140: 2fc2 08be 68ae 7bbe d123 8dbe 4e63 8d3d
00000150: 9742 163f 3822 93bc 1084 4dbe 20f3 b33e
00000160: 1b9f f1bc 7224 a8be 9956 773e 9f82 94be
00000170: d6d2 8f3e bc9f c0be 8c1f 75be 2b80 063f
00000180: 29f2 8e3e b890 15be 78a1 b03d 7090 e9bc
00000190: ac5e 07bd f48b b13e 9723 903e 0f18 3c3e
000001a0: 34f4 0e3e 6270 16be 91cd 9b3e e189 15be
000001b0: df8c c03e d091 963e dc0c 2b3d 7c67 97be
000001c0: 75a2 ab3e 4005 b5be 4b5c eabe ecb0 c33e
000001d0: 58f5 97be bf03 d0bd 07c5 d6be 23ec 78be
000001e0: b8c3 b4be d31f b83e 6a40 8fbe 6129 2cbd
000001f0: 22a7 a5be b6cb 083d a0c7 403f b6d3 d0be
00000200: 3e7f ff3d 852d 36bd 620c cbbd 0206 22be
00000210: 423e 2cbe cbaa af3d 39d3 ef3d 8610 17be
00000220: e9fe c93e 2ad1 883d 99e7 bdbe 6fa6 ac3e
00000230: f120 d6be a86d a7be 483a 523e bf7d 1e3c
00000240: 17b7 11be 6922 b9bd b777 433d d2f5 7bbe
00000250: ed8c 8d3e 265b 92bd 8ff3 6abe fe87 c43c
00000260: c19a 15be 42bb f83d 8405 a33e da28 873e
00000270: 78b9 5a3d dd9e 55be 350b 52be d33d 893e
00000280: 6667 99be 2044 a23d 8050 bf3e 0076 073c
00000290: e981 e2bd bea7 933e 6352 d53d 1008 b13e
000002a0: aa4c a83d b53c bf3e 9b2f bebe 8626 b33d
000002b0: 4a98 babd 65da 053f 0679 08be 962e 83be
000002c0: cc4e a33e b406 aabd 4efe f2bd 0d5c da3e
000002d0: a67e c9bd 6be3 873e d09c 8c3d 81cd 8abe
000002e0: 8080 8b3e 3de0 343f 9980 a0be d36e 4d3e
000002f0: 099f 85be b8dc 8bbe f6d4 43be 818a 8d3e
00000300: 8d83 67be 028f aa3e 5371 82be f6ec 853e
00000310: 79a8 afbd 4f34 923e e103 58be 1ef6 2d3e
00000320: debb a6be dad9 233e 9f3e c8be 065f 6a3e
00000330: 6b2a 0d3f 1c85 bbbc e839 2dbc 4335 a03e
00000340: 9de8 c63e 06eb 513e 7ac0 4a3e ef52 d83d
00000350: dd07 c53e df39 72bd f0a4 42be 1361 b03d
00000360: f33a acbd be3f 2f3e 9b39 95be 83e2 38be
00000370: 8cda 2c3e 33fc 9dbf 63a8 1b3c 13de 01bd
00000380: bd5b ba3b 104c fabc 2807 de3e fde3 a33e
00000390: 0a6e 0e3f e650 3cbe 85b4 c53c 449c 7c3e
000003a0: 86d2 8abe 0219 a23e 4ee6 cc3d 94a9 be3e
000003b0: f545 833d 5a5d 5b3d 73c8 393e e862 9d3e
000003c0: 47a6 bb3e 6d70 db3d a98a a4bd 87b6 01bd
000003d0: 5393 21be 71fc c5be b8a8 30be 3c75 f53c
000003e0: ce9c b53e 2699 97be 8648 613e ca43 e03d
000003f0: 3cef b73e e2d1 d73d ddb3 6e3d a608 33be

actor.0.bias f4 [64]
-0.04625737 0.3049747 0.32591978 -0.3596793 -0.0020436917 -0.23968956 0.0044257357 0.089216925
-0.15835834 -0.30590823 0.026505439 0.27870265 0.12779203 -0.2661802 -0.32473916 -0.3088777
0.3305134 -0.25510877 -0.3798575 0.15622497 -0.3244592 0.23183577 0.17951225 -0.21139765
-0.39337698 -0.017882343 -0.14537199 0.13829893 0.011134159 0.38470212 0.069071375 -0.0036411688
0.12058536 0.16205545 -0.13171819 0.13620484 0.23085208 -0.05764084 0.3048932 -0.26335096
0.07463374 0.3393842 0.3540451 -0.3320071 0.2644376 -0.31904972 0.10519774 0.32951757
-0.18880077 0.16338956 -0.39690495 0.27993223 -0.15942553 -0.25130433 0.42291528 -0.17472455
-0.03480049 0.24917468 -0.3188545 -0.015347275 -0.3881737 0.023113813 0.03235488 -0.34704712
00000000: 5e78 3dbd a525 9c3e f5de a63e e327 b8be
00000010: 75ef 05bb 2e71 75be c305 913b 5db7 b63d
00000020: b028 22be 01a0 9cbe ef21 d93c 1db2 8e3e
00000030: eadb 023e c548 88be 3644 a6be 3825 9ebe
00000040: 0d39 a93e 9e9d 82be af7c c2be 70f9 1f3e
00000050: 841f a6be 5b66 6d3e 0fd2 373e a078 58be
00000060: b568 c9be fe7d 92bc 65dc 14be 3c9e 0d3e
00000070: 0c6c 363c adf7 c43e 4b75 8d3d ada0 6ebb
00000080: 75f5 f63d ddf1 253e 22e1 06be 4879 0b3e
00000090: 7d64 6c3e cd18 6cbd f61a 9c3e f0d5 86be
000000a0: 93d9 983d c4c3 ad3e 6645 b53e d6fc a9be
000000b0: 5d64 873e 7c5a a3be ea71 d73d 87b6 a83e
000000c0: fd54 41be 984f 273e 2037 cbbe 4753 8f3e
000000d0: 7240 23be f6aa 80be 5a88 d83e feea 32be
000000e0: f58a 0ebd a627 7f3e e640 a3be 2373 7bbc
000000f0: b4be c6be 2e59 bd3c 8d86 043d 29b0 b1be

actor.2.weight f4 [64, 64]
0.018059075 -0.08389415 -0.3400006 0.1156027 -0.1581191 -0.053697594 0.035708193 -0.026212621
-0.122581095 0.03551689 0.058649477 -0.045045666 0.004470947 0.05736437 -0.022452988 -0.065421395
0.050463736 -0.14716724 -0.14095229 0.038827673 -0.17415486 -0.045658633 -0.12179439 0.09272664
-0.00776808 -0.03939948 0.020969983 0.080359705 -0.338391 0.05371739 -0.046310335 -0.0034300291
0.10913993 0.15525343 -0.0968634 0.053583253 -0.07941364 0.07099673 0.12817617 0.059909735
-0.02271646 -0.07715923 0.022107843 0.12848519 -0.03443093 0.116037205 0.111850776 0.30296603
0.10640291 0.014729563 -0.08038011 -0.03341169 0.058650434 0.034624644 0.33161604 0.03850971
0.106325835 -0.0024533689 -0.25561547 0.03576948 -0.06428717 -0.13633154 0.10675096 0.040017035
0.103996485 0.011729562 -0.5946433 -0.0703211 0.092970885 -0.06082746 0.009582195 0.053795464
0.024708977 0.019797655 -0.034334198 0.03521486 -0.14932026 -0.0570549 -0.09817277 -0.07466919
-0.111448385 0.07929685 0.11849479 -0.16447066 -0.14431927 -0.045224532 0.037162013 0.083642974
0.013259537 0.01970422 0.0019703931 0.14309599 -0.15513176 -0.042907257 0.003032535 -0.08852761
0.10654352 -0.1225836 0.033044394 -0.08062316 -0.21065415 -0.072469674 0.088884324 -0.06792024
-0.077523224 0.08818696 -0.050017197 0.046211816 0.04094446 -0.07754752 0.028056772 0.08398084
-0.21554059 -0.31765518 -0.17701244 0.0744227 0.03018882 0.118632056 0.18878339 -0.19504446
-0.059176475 0.064298965 0.16707087 0.089916505 0.1243303 0.0737783 -0.0071999617 -0.06459884
-0.12597695 0.09130906 -0.26347017 -0.10914839 0.028463276 0.0028525551 0.015855713 -0.07813981
0.25844353 -0.11206606 0.049416132 -0.0068514114 0.034934465 0.11069978 0.031991206 -0.181201
-0.064806975 -0.051736705 -0.044865694 -0.2009972 0.019143118 0.08668786 0.09117295 0.16458574
0.0760792 0.0395827 -0.042288 0.048514538 -0.25658977 -0.08679535 -0.10257625 0.003941689
-0.07420091 -0.09075968 0.050536647 0.02493108 0.019273164 0.17279953 -0.10114316 0.05372953
-0.14683151 0.08553631 -0.08494232 -0.15637296 0.0380822 0.032207876 -0.12926301 0.062367562
0.098228745 -0.029191803 0.010709679 -0.05581284 0.014975733 -0.09294934 0.22113022 -0.13797432
-0.041223742 -0.056748237 0.0939462 0.052905854 -0.0928243 -0.08359086 -0.07227487 0.09273243
-0.013402924 -0.054836184 0.2174605 0.1285503 -0.098392315 0.2043065 -0.12681368 -0.12119047
0.1115316 -0.1587757 -0.015693493 0.014159975 0.51560795 0.055383038 0.20979933 -0.04558779
-0.011915089 0.1379491 0.03570927 0.075946026 0.07395109 0.021599585 0.015244726 -0.00213724
-0.1022849 0.08428995 -0.010213705 -0.044050276 0.1915616 -0.112453386 -0.011098233 -0.008309693
-0.12170227 -0.17059462 0.13475828 -0.062352955 0.1897403 0.054960005 -0.007046114 0.13224474
-0.013473592 -0.16037573 0.11404111 -0.07684368 -0.15055175 -0.17325772 -0.0785914 -0.028059695
-0.18111022 -0.06300188 0.15459199 -0.1543568 -0.10878766 0.14859113 0.07115885 -0.08107522
0.13530539 0.025526095 0.20274234 0.14562625 -0.09893852 0.13535637 -0.08102056 0.14998487
00000000: a0f0 933c b2d0 abbd 8f14 aebe 1cc1 ec3d
00000010: f9e9 21be 02f2 5bbd c142 123d dabb d6bc
00000020: cc0b fbbd 297a 113d 6f3a 703d ce81 38bd
00000030: 0681 923b e7f6 6a3d 54ef b7bc a7fb 85bd
00000040: 10b3 4e3d 02b3 16be cc55 10be c409 1f3d
00000050: a755 32be 8c04 3bbd 566f f9bd 77e7 bd3d
00000060: 618b febb 5961 21bd 3ec9 ab3c a193 a43d
00000070: 9641 adbe c406 5c3d e8af 3dbd 57ca 60bb
00000080: c184 df3d c1fa 1e3e 5160 c6bd 1d7a 5b3d
00000090: 9ea3 a2bd bc66 913d 9d40 033e e963 753d
000000a0: df17 babc a905 9ebd 821b b53c 9f91 033e
000000b0: 7207 0dbd eaa4 ed3d 0512 e53d 5d1e 9b3e
000000c0: c5e9 d93d 4454 713c 549e a4bd b2da 08bd
000000d0: 703b 703d 92d2 0d3d 94c9 a93e 5cbc 1d3d
000000e0: 5cc1 d93d b3c8 20bb 08e0 82be 0583 123d
000000f0: fea8 83bd 7f9a 0bbe 3fa0 da3d e7e8 233d
00000100: 1cfc d43d 592d 403c 8b3a 18bf 8204 90bd
00000110: 8567 be3d 3726 79bd a4fe 1c3c a258 5c3d
00000120: 7b6a ca3c b12e a23c 04a2 0cbd 753d 103d
00000130: 69e7 18be 66b2 69bd ce0e c9bd 29ec 98bd
00000140: 0d3f e4bd 6366 a23d 65ad f23d ff6a 28be
00000150: 6ec8 13be 5c3d 39bd 3237 183d 024d ab3d
00000160: 873e 593c bf6a a13c b621 013b c187 123e
00000170: dcda 1ebe 85bf 2fbd 7fbd 463b f74d b5bd
00000180: 7d33 da3d 1c0d fbbd 8f59 073d c11d a5bd
00000190: b9b5 57be fb6a 94bd fc08 b63d c419 8bbd
000001a0: 7fc4 9ebd 5d9b b43d d5de 4cbd 9a48 3d3d
000001b0: 61b5 273d 3cd1 9ebd 51d7 e53c 26fe ab3d
000001c0: acb6 5cbe b3a3 a2be c042 35be ee6a 983d
000001d0: 8b4e f73c 5df5 f23d 6f50 413e bcb9 47be
000001e0: 0863 72bd 2daf 833d a014 2b3e 2526 b83d
000001f0: e2a0 fe3d 1419 973d a8ed ebbb 664c 84bd
00000200: 1a00 01be 3f00 bb3d 90e5 86be 3189 dfbd
00000210: d12b e93c eff1 3a3b d7e3 813c c407 a0bd
00000220: b652 843e e482 e5bd 9268 4a3d ce81 e0bb
00000230: 7117 0f3d 91b6 e23d 3609 033d c18c 39be
00000240: 85b9 84bd dee9 53bd 17c5 37bd 36d2 4dbe
00000250: 07d2 9c3c 6889 b13d e2b8 ba3d 2a89 283e
00000260: 69cf 9b3d 7821 223d 2f36 2dbd 2eb7 463d
00000270: bc5f 83be c3c1 b1bd 7f13 d2bd 4929 813b
00000280: a6f6 97bd 36e0 b9bd 84ff 4e3d 443c cc3c
00000290: c1e2 9d3c 5cf2 303e 2524 cfbd 7f13 5c3d
000002a0: 005b 16be a92d af3d 3df6 adbd 3c20 20be
000002b0: 15fc 1b3d 68ec 033d 865d 04be 2175 7f3d
000002c0: 272c c93d a623 efbc a677 2f3c 019c 64bd
000002d0: c75c 753c 395c bebd f66f 623e 2449 0dbe
000002e0: 3ada 28bd d770 68bd de66 c03d cfb3 583d
000002f0: ab1a bebd af31 abbd d904 94bd 80ea bd3d
00000300: f097 5bbc e89b 60bd f7ad 5e3e b1a2 033e
00000310: e981 c9bd b935 513e 72db 01be b632 f8bd
00000320: ae6a e43d 1996 22be a48f 80bc 3dff 673c
00000330: e2fe 033f 53d9 623d a3d5 563e 43ba 3abd
00000340: 8137 43bc 8742 0d3e e243 123d 9789 9b3d
00000350: ab73 973d 9df1 b03c 04c5 793c f010 0cbb
00000360: bf7a d1bd 36a0 ac3d 6257 27bc 106e 34bd
00000370: b928 443e f64d e6bd 5dd5 35bc 6125 08bc
00000380: 0a3f f9bd 5bb0 2ebe 13fe 093e d065 7fbd
00000390: 484b 423e be1d 613d 17e3 e6bb 2a6b 073e
000003a0: 57c0 5cbc 8939 24be 638e e93d 3860 9dbd
000003b0: 3d2a 1abe 796a 31be 87f4 a0bd 72dd e5bc
000003c0: f574 39be 2107 81bd 5d4d 1e3e b50f 1ebe
000003d0: 11cc debd 4628 183e bbbb 913d c40a a6bd
000003e0: 7f8d 0a3e 1a1c d13c b09b 4f3e 0c1f 153e
000003f0: 47a0 cabd dc9a 0a3e 1bee a5bd a295 193e

actor.2.bias f4 [64]
0.063428864 -0.10698223 0.08203029 -0.02174568 -0.030188804 0.100003555 -0.041723866 -0.13636729
-0.088137686 0.13240542 0.021581288 -0.08499822 0.027509814 -0.03687334 -0.088112526 -0.018667497
0.065980084 -0.06612492 0.016300907 -0.052421592 -0.1016644 -0.020806883 -0.03639637 0.011519265
0.030380683 0.073388405 -0.11253912 -0.032610033 -0.07817355 0.039043568 -0.028069092 -0.057181157
0.006165078 0.022920761 -0.09929157 0.024504222 -0.10176542 -0.028701704 0.029463587 0.10520882
0.06836438 0.11704812 0.036313467 -0.04411027 -0.052200258 0.010262051 -0.100339726 0.023851188
0.11998975 -0.12129758 -0.009047193 0.101948164 0.12306653 -0.07718592 -0.16117868 -0.06496515
-0.074314356 -0.10797848 -0.02083828 -0.048485436 -0.0031657687 -0.0050299605 0.056101978 -0.07266277
00000000: fee6 813d 8019 dbbd 7fff a73d ff23 b2bc
00000010: 834e f7bc aace cc3d a5e6 2abd dea3 0bbe
00000020: 8881 b4bd 4995 073e 3ecb b03c 8c13 aebd
00000030: 435c e13c 8008 17bd 5774 b4bd 94ec 98bc
00000040: 9120 873d 816c 87bd 7b89 853c 06b8 56bd
00000050: 6d35 d0bd 3273 aabc 5c14 15bd 4dbb 3c3c
00000060: e9e0 f83c a94c 963d e97a e6bd 1992 05bd
00000070: 7419 a0bd 26ec 1f3d 27f1 e5bc ca36 6abd
00000080: 6c04 ca3b 52c4 bb3c 6159 cbbd 14bd c83c
00000090: 636a d0bd d61f ebbc 9f5d f13c b977 d73d
000000a0: a002 8c3d edb6 ef3d 6ebd 143d f8ac 34bd
000000b0: f0cf 55bd 2922 283c ea7e cdbd 9163 c33c
000000c0: 30bd f53d de6a f8bd ae3a 14bc 33ca d03d
000000d0: 4e0a fc3d a713 9ebd 060c 25be 730c 85bd
000000e0: 2032 98bd d223 ddbd 0ab5 aabc aa98 46bd
000000f0: c978 4fbb 5ed2 a4bb 30cb 653d 38d0 94bd

actor.4.weight f4 [64, 64]
-0.024031103 -0.1273409 -0.10098014 0.15617609 -0.11027169 -0.10053245 0.0040600128 -0.060521927
0.089535244 0.05777034 -0.007438042 0.23958899 -0.009546385 0.021499535 -0.003601552 -0.0329424
-0.019559843 0.03479506 0.08981025 -0.0077968906 -0.1597685 -0.2686456 0.06652993 -0.04766411
0.08820465 -0.06265328 -0.0039475868 -0.083394274 0.016164616 0.11382266 -0.16641863 0.031585503
0.018625455 0.027225818 0.05394617 -0.115307406 -0.09907063 0.087011404 -0.10639666 0.0056435424
-0.19133133 0.030743614 0.0029008563 -0.019617407 -0.13079144 0.02266591 0.16396028 0.15204838
-0.13363335 0.002074398 0.07520404 0.0067466795 -0.5316388 -0.051954433 -0.09271769 -0.06856306
0.17659736 0.056072865 0.021516338 -0.14628762 -0.0040935087 -0.056015864 0.12723419 -0.14901297
0.15731193 0.06901878 0.15814865 -0.28950912 0.07492626 0.033168197 0.04830561 0.11416291
-0.1787859 -0.19663155 -0.13356696 -0.13370305 0.22229952 -0.09241014 -0.08381497 0.04702267
-0.057389684 0.010132791 -0.10765458 0.0065744175 0.09023955 0.24097832 0.092801414 -0.034360636
0.11898029 -0.08806364 0.006315372 0.056590624 0.05048736 0.072278686 0.062995896 0.031480193
-0.12628652 -0.02229165 -0.11892677 0.18469441 0.07538128 0.052021034 0.044247143 -0.04526708
0.08513766 0.06475646 0.04639905 0.03438265 0.008780133 -0.094290465 -0.21652576 -0.107205875
0.16841504 0.07309844 -0.009265137 -0.07405653 0.15415864 -0.0989025 0.034332983 0.07765551
-0.01584842 -0.07059791 -0.03775325 0.04851323 0.10770992 -0.031061543 -0.052716047 -0.12970924
0.045466505 0.13669325 0.107851915 -0.23320623 0.097258665 0.033787027 0.14347179 -0.09644029
-0.2536549 -0.17180501 -0.039649144 -0.114477776 0.027240425 -0.030881472 0.002523329 -0.13393828
-0.10769488 -0.13164403 -0.0872279 -0.00026531715 0.13345602 0.15724997 0.16039208 0.0036421241
-0.004834491 0.038898148 -0.059623394 -0.10908311 0.005538815 0.096019395 0.16655052 -0.012936683
0.11171861 -0.11981131 -0.062114604 -0.020193735 0.019295078 0.07463843 0.03119291 0.10923112
0.18725644 0.048023358 0.12977411 -0.027656475 0.1285253 0.081900544 -0.1522214 -0.09398506
-0.063873954 0.13382673 0.0087027345 -0.04709069 0.22768146 0.04487469 0.032487758 -0.0601161
0.03297625 0.12891681 0.08857293 -0.039731134 0.1751831 0.06900792 -0.09566272 0.0749326
0.026824666 0.16347615 0.1920553 -0.06097284 0.051704932 -0.022493675 0.09003746 -0.08354201
-0.23054202 -0.10399816 -0.063934006 -0.15924293 0.28765497 0.09189808 0.040838946 0.062386338
-0.106237784 -0.065138586 -0.0023473 0.06380976 0.134701 0.27684143 0.18670814 -0.037802655
0.060089078 0.07743734 0.031553686 -0.14451677 -0.017434595 0.038444597 0.22780272 -0.1703146
-0.028302573 -0.050748605 -0.00023029151 0.1593719 -0.027219238 0.17974481 0.1140775 0.060453277
-0.024187567 0.08703275 0.07760097 0.09174181 0.16120109 -0.102837645 -0.07379461 0.013254189
0.136874 0.07180886 -0.102966964 0.08885538 -0.025569964 0.10893328 -0.005637921 0.06410177
-0.19215418 0.0460112 -0.032640062 0.06877413 0.08192622 -0.0935132 0.014343496 0.0647832
00000000: e0dc c4bc a765 02be adce cebd a0ec 1f3e
00000010: 20d6 e1bd f5e3 cdbd db09 853b d7e5 77bd
00000020: 415e b73d 98a0 6c3d d2ba f3bb d156 753e
00000030: 7168 1cbc cb1f b03c 0408 6cbb 9cee 06bd
00000040: f73b a0bc 4485 0e3d 70ee b73d 0f7d ffbb
00000050: 5b9a 23be eb8b 89be d840 883d 713b 43bd
00000060: a4a4 b43d 5d50 80bd c25a 81bb 9eca aabd
00000070: a86b 843c db1b e93d a569 2abe cd5f 013d
00000080: 6994 983c ae08 df3c a9f6 5c3d 4a26 ecbd
00000090: 8be5 cabd 0933 b23d 7ee6 d9bd 77ed b83b
000000a0: 5cec 43be 08da fb3c 4b1c 3e3b afb4 a0bc
000000b0: 31ee 05be dcad b93c 34e5 273e 92b2 1b3e
000000c0: 2ed7 08be a0f2 073b 9304 9a3d 4013 dd3b
000000d0: 7b19 08bf 2cce 54bd c6e2 bdbd ca6a 8cbd
000000e0: f0d5 343e a9ac 653d 0843 b03c 6ccc 15be
000000f0: d722 86bb e470 65bd ae49 023e db96 18be
00000100: 6116 213e b859 8d3d b8f1 213e 8a3a 94be
00000110: f072 993d 60db 073d 1adc 453d 3ece e93d
00000120: a713 37be c859 49be c7c5 08be 74e9 08be
00000130: 7ca2 633e 8741 bdbd 2fa7 abbd d89a 403d
00000140: 7211 6bbd 0104 263c 017a dcbd 366e d73b
00000150: 83cf b83d 05c3 763e ab0e be3d bdbd 0cbd
00000160: f0ab f33d b65a b4bd 2ef1 ce3b 92cb 673d
00000170: d6cb 4e3d d906 943d fe03 813d 60f1 003d
00000180: 4151 01be fa9c b6bc e18f f3bd 8820 3d3e
00000190: 8061 9a3d 0214 553d 7e3c 353d f969 39bd
000001a0: a75c ae3d 099f 843d ee0c 3e3d d2d4 0c3d
000001b0: 8cda 0f3c 5c1b c1bd eeb8 5dbe c18e dbbd
000001c0: fe74 2c3e a3b4 953d cdcc 17bc f3aa 97bd
000001d0: c3db 1d3e 658d cabd bea0 0c3d da09 9f3d
000001e0: 8cd4 81bc a395 90bd 27a3 1abd cfb5 463d
000001f0: 0597 dc3d c774 febc c8ec 57bd 80d2 04be
00000200: 163b 3a3d 51f9 0b3e 77e1 dc3d 9dcd 6ebe
00000210: 8d2f c73d 4464 0a3d 45ea 123e 7d82 c5bd
00000220: 0edf 81be a7ed 2fbe 2467 22bd 5373 eabd
00000230: 5027 df3c 24fb fcbc 705e 253b 1e27 09be
00000240: 228f dcbd b1cd 06be 8ba4 b2bd 441a 8bb9
00000250: b2a8 083e 2306 213e d23d 243e b4b0 6e3b
00000260: a66a 9ebb aa53 1f3d a937 74bd f766 dfbd
00000270: f37e b53b d1a5 c43d 388c 2a3e 62f4 53bc
00000280: bacc e43d a25f f5bd e26b 7ebd 556d a5bc
00000290: b610 9e3c 08dc 983d 4688 ff3c 91b4 df3d
000002a0: 27c0 3f3e 24b4 443d 81e3 043e d58f e2bc
000002b0: 239c 033e 79bb a73d eddf 1bbe 3d7b c0bd
000002c0: 59d0 82bd e009 093e ea95 0e3c 2be2 40bd
000002d0: 5425 693e 86ce 373d e211 053d 4d3c 76bd
000002e0: 1b12 073d c502 043e b965 b53d 1dbd 22bd
000002f0: 3363 333e 0654 8d3d d1ea c3bd 4376 993d
00000300: 67bf db3c 4b66 273e 25aa 443e a8be 79bd
00000310: 8dc8 533d a844 b8bc 8f65 b83d 1318 abbd
00000320: 3513 6cbe fdfc d4bd d5ef 82bd 9410 23be
00000330: 8347 933e 1035 bc3d bd46 273d d188 7f3d
00000340: 3293 d9bd 6167 85bd 29d5 19bb b1ae 823d
00000350: 0fef 093e 29be 8d3e 6b30 3f3e f5d6 1abd
00000360: f71f 763d 7897 9e3d 703e 013d 34fc 13be
00000370: ffd2 8ebc 1578 1d3d 1e45 693e f366 2ebe
00000380: ccda e7bc c5dd 4fbd 687a 71b9 6332 233e
00000390: e1fa debc 060f 383e 77a1 e93d db9d 773d
000003a0: 0125 c6bc 3a3e b23d 42ed 9e3d 21e3 bb3d
000003b0: e611 253e 8b9c d2bd a121 97bd 1928 593c
000003c0: b328 0c3e 8610 933d 58e0 d2bd cff9 b53d
000003d0: 1a78 d1bc 6918 df3d 4fbe b8bb ca47 833d
000003e0: 11c4 44be 3d76 3c3d 96b1 05bd 73d9 8c3d
000003f0: efc8 a73d d983 bfbd fc00 6b3c 0ead 843d

actor.4.bias f4 [64]
0.11035032 0.06757033 0.049632296 -0.09972813 0.040395252 0.08504172 0.06089012 -0.047717758
-0.12899926 0.057011966 -0.1342664 -0.11871987 -0.0551198 -0.014509482 -0.124247454 -0.16545776
0.112929 0.022610646 -0.0017825832 0.09509502 0.018597014 0.06359535 0.111797065 -0.11315465
-0.08772878 -0.10003478 0.05726503 -0.19846252 0.124540955 -0.1471253 -0.15704297 -0.023418097
0.030456558 0.029279783 -0.11799072 0.071027614 0.069258526 -0.1007412 0.049946465 -0.03739219
-0.015919784 -0.005905928 -0.07859583 0.09448292 0.028656917 0.019646078 -0.0563932 -0.04395617
0.11025367 0.07201793 -0.038998976 0.0063712155 0.060001463 0.138696 0.045436442 0.12689361
-0.046384722 -0.014771766 0.090985864 -0.04128167 0.104214855 -0.09255612 -0.07441803 -0.09024488
00000000: 59ff e13d 5062 8a3d 3c4b 4b3d 433e ccbd
00000010: 7e75 253d 5a2a ae3d eb67 793d b273 43bd
00000020: 6218 04be 6185 693d 227d 09be 6723 f3bd
00000030: 4dc5 61bd 2eb9 6dbc 7375 febd c26d 29be
00000040: 5247 e73d f639 b93c 91a5 e9ba 2ec1 c23d
00000050: c458 983c 473e 823d dcf5 e43d a0bd e7bd
00000060: 26ab b3bd 09df ccbd bc8e 6a3d c239 4bbe
00000070: 540f ff3d 04a8 16be dfcf 20be 4fd7 bfbc
00000080: 0880 f93c 28dc ef3c 1ea5 f1bd ed76 913d
00000090: 6ad7 8d3d 6751 cebd aa94 4c3d 8e28 19bd
000000a0: 356a 82bc 8486 c1bb daf6 a0bd 4380 c13d
000000b0: e9c1 ea3c d0f0 a03c 8efc 66bd 630b 34bd
000000c0: adcc e13d 237e 933d 64bd 1fbd a1c5 d03b
000000d0: 18c4 753d 5306 0e3e 901b 3a3d 66f0 013e
000000e0: e8fd 3dbd 4705 72bc cc56 ba3d f816 29bd
000000f0: 996e d53d 108e bdbd 7b68 98bd 4fd2 b8bd

actor.6.weight f4 [64, 64]
0.13461767 -0.19432048 -0.039006293 -0.13638282 0.080353245 0.071216114 0.10524562 -0.16323175
0.10891609 0.046516612 0.09112033 0.07143846 0.013895613 -0.25075337 -0.11021212 0.04879469
0.08180303 -0.25748885 0.1070378 -0.10859305 0.11638073 -0.05836656 0.014626669 -0.050332747
0.07277741 0.15043841 0.024976311 0.00655187 0.08109305 -0.036393534 -0.014289529 -0.061732847
-0.15721393 0.019903608 0.0019313853 -0.089849256 0.15900713 0.09439087 0.15230809 0.12921676
0.0046424447 0.14327885 -0.15158513 -0.05620031 0.03261398 0.14182162 -0.11853174 -0.11687049
0.1410406 0.19412279 -0.06371661 0.031856436 0.09993508 0.058070958 -0.13334526 -0.14361994
0.09146838 -0.027230412 0.04258923 -0.19759522 0.09444707 -0.033252854 0.00016351696 -0.46752855
0.025639651 -0.11999605 -0.042998575 -0.15783367 0.052291423 0.1117546 0.3181704 0.011781265
0.019099783 0.06734767 -0.17652419 -0.018002236 -0.10287194 -0.06483709 -0.17294273 -0.07634559
0.10644416 -0.2781551 0.15944794 -0.0059407568 0.013322576 -0.09961982 -0.041344002 0.041737013
0.19998471 0.081112064 0.031441532 0.023063993 0.04208667 -0.1577674 -0.10253567 -0.095651194
-0.035196096 0.09034032 -0.056532428 0.05293045 0.096200034 0.1404833 0.082748994 0.11264163
0.114944324 0.0049202414 -0.14045264 0.089580856 -0.16077068 0.16985542 -0.06369839 0.058798216
-0.030626895 0.06647955 -0.20985134 0.041433003 0.16651204 0.011038932 -0.13699533 -0.09933741
0.104877 -0.009551152 0.15069932 -0.11210174 -0.03347668 -0.13091514 0.17563297 -0.29140237
0.18943986 -0.117443666 0.093042806 -0.22882909 -0.010655224 0.25910136 0.036103994 0.029814214
0.0057337414 0.22578678 -0.122567035 -0.03924471 0.018502556 -0.1840715 -0.09340931 -0.1011592
0.08010424 -0.23193644 0.15300594 -0.18125579 0.15390599 -0.055822663 0.13168746 0.004896442
0.10940793 -0.1328072 -0.22326009 -0.13276371 0.09166879 -0.07066809 -0.13841836 -0.106988996
-0.051012523 0.1418371 -0.19724141 -0.1791136 0.025286589 0.21853936 0.025503587 0.53611445
0.016531227 -0.1275688 -0.14383695 0.12488001 -0.2563981 0.12818654 -0.10695698 -0.1423656
0.01765989 0.15789367 -0.20054178 -0.14375024 -0.007683286 0.12888297 -0.22134684 -0.16771315
-0.023695271 -0.030368024 0.17668498 -0.18356597 0.039501674 -0.1574234 0.08010629 -0.39039853
-0.05281762 0.0871464 0.03946924 -0.2602732 -0.003123481 -6.931836e-05 -0.064897485 0.031360935
-0.054891028 0.16923364 -0.06606569 -0.00042072532 0.11863497 -0.184581 -0.15994358 -0.15495895
-0.069293626 -0.23332472 0.07684727 -0.044140972 -0.046222385 -0.029924309 0.08443314 -0.11040136
0.040129848 0.0039905985 -0.044490997 -0.15035899 0.055651113 -0.107306845 -0.13108626 0.009136182
-0.043488894 0.082184635 -0.069819205 -0.08338289 0.0041053 0.23721577 -0.035270527 0.1460094
0.05387409 -0.0837314 0.01408438 -0.062097866 -0.008726874 0.027498022 0.089057155 0.006759236
0.10597662 0.075251065 0.0050814007 0.015802344 0.10142663 0.0045132204 -0.113204606 -0.02367863
0.033884384 -0.090573765 0.15282428 -0.0018169142 -0.07321123 -0.04857481 0.110152885 -0.39727682
00000000: 37d9 093e f3fb 46be 10c5 1fbd f0a7 0bbe
00000010: 3e90 a43d c1d9 913d 048b d73d 3926 27be
00000020: 660f df3d 3488 3e3d 4c9d ba3d 544e 923d
00000030: 6daa 633c bf62 80be e4b6 e1bd f1dc 473d
00000040: 5988 a73d 94d5 83be a236 db3d 0866 debd
00000050: 0559 ee3d c611 6fbd b2a4 6f3c b629 4ebd
00000060: 530c 953d 870c 1a3e 1f9b cc3c 12b1 d63b
00000070: 1d14 a63d 6311 15bd a11e 6abc 95db 7cbd
00000080: b0fc 20be e40c a33c 8926 fd3a e302 b8bd
00000090: c4d2 223e 0050 c13d a7f6 1b3e 6651 043e
000000a0: a61f 983b b1b7 123e 2239 1bbe 4c32 66bd
000000b0: 3d96 053d b039 113e c5c0 f2bd cc59 efbd
000000c0: f26c 103e 20c8 463e db7d 82bd e57b 023d
000000d0: c3aa cc3d d0db 6d3d a98b 08be 1b11 13be
000000e0: c653 bb3d 5012 dfbc 0b72 2e3d 6756 4abe
000000f0: 776d c13d 2534 08bd c075 2b39 e75f efbe
00000100: 3f0a d23c 7dc0 f5bd 461f 30bd 269f 21be
00000110: 882f 563d 99df e43d 3be7 a23e 3506 413c
00000120: 2677 9c3c 93ed 893d c2c2 34be 6d79 93bc
00000130: 86ae d2bd 4fc9 84bd e617 31be 145b 9cbd
00000140: 65ff d93d 586a 8ebe 5246 233e aeaa c2bb
00000150: ef46 5a3c 7a05 ccbd 5458 29bd 6ef4 2a3d
00000160: cbc8 4c3e 151e a63d d6c8 003d b3f0 bc3c
00000170: 1263 2c3d c78d 21be 39fe d1bd c6e4 c3bd
00000180: c829 10bd 5804 b93d 8c8e 67bd 99cd 583d
00000190: 8604 c53d dbda 0f3e 4e78 a93d a8b0 e63d
000001a0: ee67 eb3d fa39 a13b d1d2 0fbe 2b76 b73d
000001b0: 12a1 24be 94ee 2d3e 4d74 82bd 66d6 703d
000001c0: 41e5 fabc 6e26 883d 45e3 56be a7b5 293d
000001d0: 2282 2a3e a3dc 343c 8148 0cbe 6971 cbbd
000001e0: c1c9 d63d 6f7c 1cbc ec50 1a3e 9995 e5bd
000001f0: d81e 09bd 9e0e 06be 21d9 333e b132 95be
00000200: 86fc 413e 4e86 f0bd 3a8d be3d 2c52 6abe
00000210: 4093 2ebc efa8 843e c8e1 133d f03c f43c
00000220: 1ce2 bb3b a634 673e 6d04 fbbd 10bf 20bd
00000230: ac92 973c 3d7d 3cbe 614d bfbd 8e2c cfbd
00000240: b10d a43d bf80 6dbe 97ad 1c3e 1e9b 39be
00000250: 8899 1d3e 4ea6 64bd 14d9 063e 5572 a03b
00000260: 4411 e03d 9cfe 07be 4b9e 64be 36f3 07be
00000270: d9bc bb3d 6eba 90bd 8bbd 0dbe 0c1d dbbd
00000280: 82f2 50bd bf3d 113e a7f9 49be 8e69 37be
00000290: d225 cf3c c8c8 5f3e e6ec d03c cc3e 093f
000002a0: 7f6c 873c 65a1 02be fe49 13be 17c1 ff3d
000002b0: 9d46 83be 5543 033e 430c dbbd 4ac8 11be
000002c0: 79ab 903c e1ae 213e d35a 4dbe 4333 13be
000002d0: 13c4 fbbb e6f9 033e bfa8 62be ffbc 2bbe
000002e0: 961c c2bc 5dc6 f8bc e8ec 343e b8f8 3bbe
000002f0: 82cc 213d 9a33 21be c40e a43d 51e2 c7be
00000300: 4a57 58bd d079 b23d 7faa 213d 8742 85be
00000310: 51b3 4cbb 035f 91b8 f9e8 84bd 5374 003d
00000320: 6ad5 60bd 954b 2d3e 734d 87bd cc94 dcb9
00000330: e4f6 f23d cd02 3dbe 40c8 23be 8fad 1ebe
00000340: d1e9 8dbd adec 6ebe 1a62 9d3d 2acd 34bd
00000350: af53 3dbd d323 f5bc 48eb ac3d 1c1a e2bd
00000360: 325f 243d 91c3 823b 313c 36bd b5f7 19be
00000370: 6cf2 633d b1c3 dbbd 7a3b 06be edaf 153c
00000380: 6921 32bd 6b50 a83d 5ffd 8ebd a6c4 aabd
00000390: c185 863b b1e8 723e d477 10bd 7d83 153e
000003a0: 14ab 5c3d 5e7b abbd 2cc2 663c 555a 7ebd
000003b0: 2afb 0ebc 8843 e13c 9963 b63d 957c dd3b
000003c0: 450a d93d 3b1d 9a3d e181 a63b eb73 813c
000003d0: c4b8 cf3d a3e3 933b d1d7 e7bd b0f9 c1bc
000003e0: 5aca 0a3d bd7e b9bd f87d 1c3e 8625 eeba
000003f0: c5ef 95bd 61f6 46bd d697 e13d de67 cbbe

actor.6.bias f4 [64]
0.09933273 -0.066080935 0.002166928 0.09761477 -0.039671607 0.015645016 -0.07594563 0.055023264
0.09311316 0.089217 0.03638809 -0.0067183534 0.05703739 0.024500128 0.013796933 -0.011429829
0.11096544 -0.040396687 -0.12646759 0.12758006 0.06877164 -0.043769367 0.043647435 -0.08862309
-0.07456467 -0.014877038 0.018838242 -0.04077461 0.12307877 -0.119171 -0.021128934 0.11914641
-0.105860785 0.12425205 0.02821111 0.071976565 -0.013844542 0.08605917 0.10634563 -0.022267036
0.081618115 -0.075478405 -0.036373 -0.10543498 0.07537563 0.13293159 -0.06120101 0.098744206
0.110453874 -0.020772852 0.024549574 0.08965687 0.14637981 -0.095177665 -0.10023036 -0.029053396
0.12513718 0.07980575 0.057748057 -0.031330653 0.05001104 0.07958886 -0.024093686 0.101520665
00000000: f56e cb3d 7155 87bd 0503 0e3b 41ea c73d
00000010: b27e 22bd fa29 803c 6289 9bbd 1360 613d
00000020: 1db2 be3d 67b7 b63d ae0b 153d a225 dcbb
00000030: 0aa0 693d 7eb4 c83c 880c 623c 2d44 3bbc
00000040: d941 e33d ff76 25bd b880 01be 59a4 023e
00000050: 25d8 8c3d 8247 33bd a7c7 323d 0680 b5bd
00000060: 5db5 98bd d2be 73bc a852 9a3c 4703 27bd
00000070: b910 fc3d ed0f f4bd 9616 adbc 0803 f43d
00000080: 8acd d8bd dc77 fe3d fc1a e73c 7368 933d
00000090: 38d4 62bc ca3f b03d bdcb d93d 5c69 b6bc
000000a0: 6627 a73d 6c94 9abd dbfb 14bd 4bee d7bd
000000b0: 8a5e 9a3d 381f 083e e9ad 7abd 673a ca3d
000000c0: a435 e23d d42b aabc 301c c93c 059e b73d
000000d0: 97e4 153e 82ec c2bd 9345 cdbd 6301 eebc
000000e0: f623 003e 3271 a33d 3a89 6c3d 9254 00bd
000000f0: 60d8 4c3d 7cff a23d 1f60 c5bc 11ea cf3d

actor.8.weight f4 [1, 64]
-0.054530833 -0.11415454 -0.27187714 -0.0677594 -0.50404435 -0.20601948 -0.6297764 0.2248517
-0.15087236 -0.10218833 0.19208689 -0.15429917 -0.10105282 -0.0843512 -0.16844058 0.3535567
0.057469353 0.33026072 -0.10423288 -0.05726497 0.21574235 0.60877407 -0.17849906 0.27249664
0.36228964 0.48972857 0.12826419 -0.20846497 -0.035941463 0.034050725 -0.12582703 -0.13727781
0.40152475 -0.15627396 0.25624067 -0.08835029 0.12706925 -0.1513331 -0.10835201 -0.31463152
0.16242799 -0.45303807 0.21689716 0.70778865 -0.08558533 -0.086955175 -0.10270339 -0.09594685
0.047392752 -0.17707112 0.2870115 -0.060636014 -0.1599633 -0.8105772 0.26087585 -0.13334337
-0.060825843 0.15389751 -0.104927324 -0.43665498 0.12564957 -0.16605362 0.2384197 0.20168866
00000000: b95b 5fbd dbc9 e9bd 7b33 8bbe 71c5 8abd
00000010: 0d09 01bf c5f6 52be 0739 21bf 863f 663e
00000020: 497e 1abe 1d48 d1bd 6db2 443e 9a00 1ebe
00000030: c8f4 cebd 52c0 acbd b07b 2cbe 6205 b53e
00000040: fc64 6b3d ef17 a93e 0c78 d5bd ac8e 6abd
00000050: 90eb 5c3e 9ed8 1b3f 75c8 36be ae84 8b3e
00000060: 077e b93e b4bd fa3e b057 033e d777 55be
00000070: 5b37 13bd c678 0b3d cdd8 00be 8e92 0cbe
00000080: a794 cd3e 4806 20be fa31 833e fff0 b4bd
00000090: 711e 023e 10f7 1abe a9e7 ddbd 6217 a1be
000000a0: 8653 263e 9bf4 e7be 4a1a 5e3e a331 353f
000000b0: 5d47 afbd 8e15 b2bd 2856 d2bd c87f c4bd
000000c0: e71e 423d 2252 35be 2cf3 923e 785d 78bd
000000d0: 6bcd 23be fd81 4fbf 8591 853e 2a8b 08be
000000e0: 8524 79bd 4f97 1d3e 23e4 d6bd 3e91 dfbe
000000f0: 48aa 003e f609 2abe 4b24 743e 7987 4e3e

critic.0.weight f4 [64, 6]
-0.1213537 0.16194877 -0.17399143 0.30958614 -0.30904377 -0.7189289 0.478624 -0.24302985
0.37098703 0.08979254 -0.10715243 0.41733098 -0.76273566 -0.07188052 -0.32166144 -0.06257169
-0.120077476 -0.7282205 -0.7173987 0.10366847 0.13681391 0.16412757 -0.13942318 0.052848488
1.3880041 -0.24708486 0.45603615 -0.11613631 0.10652391 0.30901554 0.17098315 0.28107363
-0.3079753 -0.11354943 0.11723884 -0.99130225 -0.4477647 0.11339626 0.19666311 -0.24303608
0.31168464 0.84940356 -0.6499569 0.42094246 0.12595387 0.6200091 -0.45313978 -0.4778579
0.66579497 -0.17739956 0.31047282 -0.6073401 0.59674287 -0.62404007 -0.6997842 -0.07361725
0.098417506 0.3797699 -0.4599146 -0.22667225 0.143122 -0.034604445 -0.14288127 0.043814745
0.10511351 0.46810833 -0.25455484 -0.22481003 0.25958374 -0.48826668 0.46850717 0.84832954
-1.1056343 -0.015165584 -0.2583615 0.38354468 -0.3302759 -0.08268955 -0.6682549 -0.29790998
0.017494617 0.15731734 -0.040644296 -1.217404 -1.501344 -0.2763294 0.29021394 -0.0032467386
-0.0059430106 0.006578267 -0.6971318 -0.33979124 -0.06392408 -0.106942914 -0.30864093 0.30679277
-0.6956462 -0.12298827 -0.11840317 0.13515347 -0.057122525 -0.8347277 0.9211103 -0.04825219
0.35455343 0.064772956 -0.08432494 1.0798396 0.10375215 -0.09334242 -0.23651311 0.0054285657
0.42058295 0.07346647 -0.19837101 -0.2613109 -0.13052793 -0.10834314 -0.038576532 -0.13414694
0.25825515 0.26852465 -0.30006328 -0.0588217 0.17867666 0.13901696 0.16515371 0.32287088
-0.16579144 -0.13354827 0.24705906 0.5157635 -0.42295876 -0.34626454 0.10211751 0.3026499
0.026907282 0.27215454 0.60399425 0.10425664 -0.04988764 0.13192572 -0.43894753 0.5945908
-1.0794309 0.062912285 -0.16130994 0.13844544 -0.18822815 0.04101823 0.1429475 -0.09171341
-0.07014437 0.10584995 0.10914646 0.49050346 -1.3993615 0.026796306 -0.06943145 0.18816759
0.018796943 -0.63161415 -0.3145747 -0.19014233 0.15702124 -0.27241597 -0.23951411 0.401607
-0.3913548 0.062978834 -0.1874778 -0.27221107 0.35004142 0.5143235 0.6966337 0.0779128
-0.076810315 -0.31625888 0.2457401 0.9849962 0.20932896 -0.41750938 0.36787006 -0.029262237
0.27640918 -0.5149554 0.99764943 0.05708856 0.12681949 0.44767123 -0.4072153 0.9459212
-0.45815504 -0.22846948 0.20090283 -0.54603577 0.55631083 0.023967417 0.35656554 -0.22101603
0.22542582 -0.38144088 0.39527357 0.8560761 -0.43485704 0.1629383 -0.30189624 0.06333298
0.02190816 0.5202212 -0.07288292 0.33217022 -0.3635394 0.09918062 -0.065568954 -0.21561804
0.52574486 -0.20210107 0.41502956 -0.08779738 0.04188735 1.0837274 0.3445151 0.37695017
0.06315308 0.15993343 -0.14981492 -0.9096952 0.5255463 0.37495112 -0.34351015 -0.10852299
0.027539648 0.8667634 -0.27011612 0.107009254 -0.21178381 0.23986278 -0.3724142 0.39504707
0.7690777 -0.11764429 0.31776252 -0.21726613 0.33155394 0.3544721 -1.100742 -0.16508634
0.0964775 -0.27424628 0.22969458 -0.7457383 0.24997309 -0.332292 0.34869337 0.18424484
00000000: 4a88 f8bd e6d5 253e cf2a 32be 1382 9e3e
00000010: fc3a 9ebe b90b 38bf 340e f53e d1dc 78be
00000020: 03f2 bd3e 27e5 b73d bc72 dbbd 68ac d53e
00000030: a542 43bf 1836 93bd cfb0 a4be 9625 80bd
00000040: 2eeb f5bd a96c 3abf 71a7 37bf 2350 d43d
00000050: f218 0c3e 0f11 283e f3c4 0ebe a877 583d
00000060: 1eaa b13f d003 7dbe 927d e93e e0d8 edbd
00000070: 3529 da3d 4937 9e3e 3516 2f3e e2e8 8f3e
00000080: f0ae 9dbe 9b8c e8bd eb1a f03d fcc5 7dbf
00000090: 6a41 e5be 4c3c e83d 0e62 493e 73de 78be
000000a0: 2195 9f3e 8372 593f 9363 26bf c585 d73e
000000b0: 0dfa 003e ebb8 1e3f f001 e8be caa9 f4be
000000c0: 8a71 2a3f 3ba8 35be 4bf6 9e3e a47a 1bbf
000000d0: 24c4 183f 17c1 1fbf 0f25 33bf a4c4 96bd
000000e0: 1e8f c93d 3371 c23e ed79 ebbe c51c 68be
000000f0: 938e 123e 64bd 0dbd 784f 12be 1777 333d
00000100: c045 d73d e5ab ef3e 0355 82be 9a34 66be
00000110: 29e8 843e 17fe f9be 2ce0 ef3e 202c 593f
00000120: 6d85 8dbf 1279 78bc f547 84be f85f c43e
00000130: ec19 a9be 2459 a9bd c112 2bbf a887 98be
00000140: df50 8f3c cc17 213e a27a 26bd e5d3 9bbf
00000150: 0a2c c0bf 0c7b 8dbe ec96 943e 3cc7 54bb
00000160: 96bd c2bb 818e d73b 3b77 32bf 1ef9 adbe
00000170: a1ea 82bd e304 dbbd 2f06 9ebe f113 9d3e
00000180: df15 32bf 46e1 fbbd 5c7d f2bd ac65 0a3e
00000190: 4ff9 69bd b7b0 55bf e2cd 6b3f 17a4 45bd
000001a0: 0788 b53e afa7 843d 8eb2 acbd 2f38 8a3f
000001b0: 027c d43d 502a bfbd 7e30 72be 1ce2 b13b
000001c0: a656 d73e 9775 963d c521 4bbe 8bca 85be
000001d0: 1da9 05be 02e3 ddbd 6d02 1ebd d15d 09be
000001e0: 053a 843e 107c 893e e5a1 99be 06ef 70bd
000001f0: 04f7 363e 765a 0e3e 0e1e 293e 554f a53e
00000200: 3bc5 29be e1c0 08be 0dfd 7c3e 1409 043f
00000210: 0d8e d8be 9649 b1be fc22 d13d edf4 9a3e
00000220: a96c dc3c d757 8b3e 5e9f 1a3f 8184 d53d
00000230: fb56 4cbd 8917 073e bbbd e0be 1a37 183f
00000240: cb2a 8abf 28d8 803d 6f2e 25be a4c4 0d3e
00000250: e1be 40be bb02 283d d460 123e 3ed4 bbbd
00000260: daa7 8fbd dcc7 d83d 2e88 df3d 4523 fb3e
00000270: 471e b3bf ed83 db3c 1332 8ebd 01af 403e
00000280: 0cfc 993c 77b1 21bf ef0f a1be acb4 42be
00000290: 2dca 203e 1b7a 8bbe 3043 75be 6f9f cd3e
000002a0: a85f c8be 0cfb 803d 2efa 3fbe 405f 8bbe
000002b0: a138 b33e b4aa 033f 9656 323f bf90 9f3d
000002c0: ba4e 9dbd afec a1be 4ba3 7b3e b628 7c3f
000002d0: 555a 563e cac3 d5be 7759 bc3e 5cb7 efbc
000002e0: 8185 8d3e 1ed4 03bf f465 7f3f b2d5 693d
000002f0: f8dc 013e 2a35 e53e 867e d0be e427 723f
00000300: 4c93 eabe e7f3 69be 79b9 4d3e 00c9 0bbf
00000310: 636a 0e3f 5157 c43c c28f b63e 0752 62be
00000320: 07d6 663e 384c c3be 4c61 ca3e ce27 5b3f
00000330: 95a5 debe 4cd9 263e 2592 9abe b9b4 813d
00000340: be78 b33c 372d 053f a443 95bd 3712 aa3e
00000350: d621 babe 351f cb3d 0449 86bd faca 5cbe
00000360: 3797 063f 95f3 4ebe c17e d43e 1dcf b3bd
00000370: 1292 2b3d 94b7 8a3f 4864 b03e 9dff c03e
00000380: 6756 813d 97c5 233e 1569 19be c9e1 68bf
00000390: 348a 063f 98f9 bf3e 90e0 afbe 4d41 debd
000003a0: d49a e13c 35e4 5d3f a94c 8abe ab27 db3d
000003b0: dbdd 58be 979e 753e 13ad bebe 9c43 ca3e
000003c0: 47e2 443f 7def f0bd c5b1 a23e 037b 5ebe
000003d0: 70c1 a93e 5e7d b53e 1de5 8cbf 650c 29be
000003e0: ff95 c53d 026a 8cbe 0e35 6b3e b5e8 3ebf
000003f0: f2f8 7f3e 2d22 aabe f087 b23e aeaa 3c3e

critic.0.bias f4 [64]
0.1542395 -0.39605665 -0.29244718 -0.27335972 -0.24299937 -0.10606336 -0.033200637 0.3093881
-0.179508 0.12976104 0.3449192 0.009741022 0.36315903 0.38720378 0.071219 -0.2582517
0.35796022 -0.23435129 -0.1895341 0.1695478 -0.41199785 -0.2885256 -0.34249085 -0.084617496
0.1820872 0.2576653 0.056046944 -0.23033273 0.23471014 0.25699112 0.004371032 -0.18629944
0.11401887 0.13133541 -0.087213166 0.14853556 -0.033644382 -0.21033604 0.0370326 -0.20279695
0.051598676 0.13580619 0.2003378 0.12840149 -0.3345929 -0.2662058 0.10235559 0.052713457
-0.07948621 -0.40066436 0.036393598 0.19162092 -0.42341062 0.17160212 0.27675465 0.33208275
-0.013659889 -0.07439298 0.10221913 -0.23345438 0.29047266 0.26089337 -0.09943544 0.2869599
00000000: f6f0 1d3e f0c7 cabe a3bb 95be cef5 8bbe
00000010: d4d4 78be bf37 d9bd 64fd 07bd 1e68 9e3e
00000020: f2d0 37be 14e0 043e 4099 b03e cf98 1f3c
00000030: fbef b93e 933f c63e 44db 913d 9139 84be
00000040: 9046 b73e c9f9 6fbe 3a15 42be f09d 2d3e
00000050: 62f1 d2be a1b9 93be f65a afbe f04b adbd
00000060: 1175 3a3e b5ec 833e 7b91 653d 58dc 6bbe
00000070: db57 703e 5794 833e e03a 8f3b 48c5 3ebe
00000080: ba82 e93d ca7c 063e d19c b2bd b519 183e
00000090: b1ce 09bd 5562 57be 7faf 173d 01aa 4fbe
000000a0: 2259 533d c710 0b3e 5a25 4d3e ae7b 033e
000000b0: c34f abbe 204c 88be cf9f d13d 11ea 573d
000000c0: abc9 a2bd e123 cdbe 7411 153d 4638 443e
000000d0: 47c9 d8be 77b8 2f3e c9b2 8d3e c006 aa3e
000000e0: bacd 5fbc 595b 98bd 4358 d13d aa0e 6fbe
000000f0: d5b8 943e d193 853e cfa4 cbbd 68ec 923e

critic.2.weight f4 [64, 64]
0.10404499 -0.13334933 -0.13236365 0.024326423 -0.39019972 -0.08853126 -0.024846304 0.010882374
-0.36377442 -0.043159712 -0.014749771 -0.37773058 0.08441599 -0.07803368 -0.27930817 0.43306747
-0.043673117 -0.18358444 -0.0140768 0.0019230405 -0.043706547 0.13677487 -0.1938535 -0.10477538
0.10715092 -0.088026114 0.20139271 -0.05514862 0.13632032 -0.083246775 -0.2127896 -0.22757891
0.10538229 -0.38407397 0.20261109 0.4274654 -0.24463175 0.12759675 0.3655821 -0.23990181
-0.10511226 -0.1449974 -0.08429027 -0.04011778 -0.09516958 0.14850892 0.019791145 0.03410486
0.04170898 0.15627219 0.434158 0.015451364 -0.08046599 0.0031665377 0.13188446 0.09437199
-0.039635174 0.4028326 0.37532392 -0.08571794 -0.20279434 0.07437481 -0.039252322 -0.14907707
-0.12859629 -0.034871593 0.099700496 -0.12383557 -0.052265845 -0.020245269 -0.17083298 -0.11221432
-0.36107668 0.10926041 -0.05824008 -0.19752786 0.008549671 -0.33128998 0.05141828 -0.014426159
-0.09379189 -0.1318982 0.2478742 -0.08453908 0.0009862948 -0.16410632 0.405983 -0.00018551669
0.012951169 0.15944004 -0.1592579 0.08753053 -0.046716686 -0.14478777 0.16916955 0.07826667
-0.1597727 -0.19220357 0.119373 -0.042292185 -0.046632253 0.04175752 -0.036234908 -0.078878
0.075113595 -0.109259695 0.10187394 -0.047929533 0.07590941 -0.28313082 -0.10563418 0.049124528
-0.16643596 0.08202953 0.01816948 0.0071680103 -0.045849413 0.102298476 -0.119156435 -0.0052990317
-0.055561632 -0.26600358 0.1786213 -0.0027980967 0.027473195 0.016339958 -0.16898713 0.0015552136
0.206655 0.15608084 0.081567116 -0.1655303 0.12655906 0.27601606 -0.109443314 -0.27530083
0.16358136 -0.2568204 -0.024251647 0.16198428 0.046210833 -0.05775658 0.14143415 0.08808082
0.14134005 0.06084843 0.0074164597 0.35272086 0.123743944 0.16068885 0.071229495 0.032442775
-0.24292214 0.1768477 0.0064487583 -0.090858765 0.000496635 0.10631039 0.07031679 -0.0693921
0.48505774 0.04789375 0.18343842 0.239573 -0.07082063 0.19389388 0.14227328 0.09279763
-0.012070025 0.10962158 -0.09513917 0.19493775 0.3517677 0.07371033 -0.103478335 -0.052842278
-0.07502719 -0.12635627 0.48616678 0.056015372 -0.04922585 -0.16871756 -0.024263103 0.36176708
0.16313758 -0.05055427 0.17918698 0.02403397 0.02226668 0.07674762 0.0075317724 -0.054502428
-0.21753103 -0.10688198 0.15277378 0.044418853 -0.11522521 -0.033905912 -0.0016523282 -0.18132108
-0.18403938 0.037346326 -0.022217747 -0.021201437 -0.13344859 -0.029212713 -0.2015095 0.26198885
0.045244645 -0.01275958 0.14506243 -0.22294259 0.051502857 -0.06692209 0.013779554 -0.13598825
-0.0699336 -0.17308387 0.12678431 -0.338961 0.16373605 0.015743945 -0.11172874 -0.17834319
0.2075186 0.078477 -0.062286645 -0.28210357 -0.10798086 -0.19964571 -0.14931619 0.04287481
-0.08632069 0.03206163 -0.40567434 0.02529624 -0.22931173 0.23083776 0.037700284 -0.0025357963
0.062270008 0.0012624717 0.087836005 0.0337557 0.033113208 0.010009762 -0.23530152 -0.115060486
0.17875886 -0.22535805 -0.5916191 -0.027020754 0.07014277 -0.1380484 0.005408473 0.05280846
00000000: 8a15 d53d ba8c 08be 568a 07be 3548 c73c
00000010: 42c8 c7be e14f b5bd 7a8a cbbc fc4b 323c
00000020: a440 babe 3dc8 30bd 06a9 71bc e765 c1be
00000030: 4ae2 ac3d 1fd0 9fbd 7b01 8fbe 05bb dd3e
00000040: 95e2 32bd 8ffd 3bbe 61a2 66bc 880e fc3a
00000050: a305 33bd b60e 0c3e 8881 46be 7994 d6bd
00000060: f171 db3d 0947 b4bd e439 4e3e 85e3 61bd
00000070: 8e97 0b3e 497d aabd 84e5 59be 720a 69be
00000080: acd2 d73d 58a5 c4be 4879 4f3e bfdc da3e
00000090: bf80 7abe b9a8 023e 942d bb3e d2a8 75be
000000a0: 1945 d7bd 337a 14be 61a0 acbd 8b52 24bd
000000b0: 45e8 c2bd b912 183e 0a21 a23c 8ab1 0b3d
000000c0: 09d7 2a3d d105 203e f549 de3e b827 7d3c
000000d0: 5acb a4bd b085 4f3b b80c 073e 1a46 c13d
000000e0: 7e58 22bd 1340 ce3e 752a c03e e38c afbd
000000f0: 52a9 4fbe d251 983d 0bc7 20bd a9a7 18be
00000100: bfae 03be 84d5 0ebd c62f cc3d 819d fdbd
00000110: b614 56bd 68d9 a5bc d7ee 2ebe 9fd0 e5bd
00000120: 0bdf b8be ecc3 df3d 268d 6ebd be44 4abe
00000130: eb13 0c3c d79e a9be f99b 523d b25b 6cbc
00000140: f615 c0bd 5210 07be bcd2 7d3e d322 adbd
00000150: 9046 813a 7d0b 28be 01dd cf3e 4287 42b9
00000160: 2431 543c 4044 233e 8114 23be 3543 b33d
00000170: ff59 3fbd 3f43 14be c83a 2d3e 474a a03d
00000180: 749b 23be 03d1 44be d579 f43d 923a 2dbd
00000190: 7601 3fbd ef09 2b3d 0e6b 14bd ca8a a1bd
000001a0: 28d5 993d 8cc3 dfbd 49a3 d03d c251 44bd
000001b0: 6576 9b3d 86f6 90be bc56 d8bd cd36 493d
000001c0: 306e 2abe 19ff a73d 29d8 943c a1e1 ea3b
000001d0: 98cc 3bbd dd81 d13d 4a08 f4bd 80a3 adbb
000001e0: 9894 63bd 9f31 88be 81e8 363e 4660 37bb
000001f0: 770f e13c 60db 853c f60a 2dbe 4fd8 cb3a
00000200: 5e9d 533e a8d3 1f3e a90c a73d c680 29be
00000210: b398 013e fa51 8d3e d123 e0bd 3bf4 8cbe
00000220: df81 273e f77d 83be 64ab c6bc 35df 253e
00000230: 9247 3d3d 2a92 6cbd 1dd4 103e b863 b43d
00000240: 72bb 103e 343c 793d c605 f33b d497 b43e
00000250: 776d fd3d 9e8b 243e c5e0 913d b7e2 043d
00000260: 95c0 78be 9017 353e 1b50 d33b 2914 babd
00000270: 9c30 023a 43b9 d93d 4002 903d 721d 8ebd
00000280: 7d59 f83e 3d2c 443d 48d7 3b3e a052 753e
00000290: 680a 91bd 1e8c 463e 16b0 113e af0c be3d
000002a0: 5bc1 45bc 4781 e03d 53d8 c2bd c39d 473e
000002b0: e51a b43e 71f5 963d 73ec d3bd 2571 58bd
000002c0: dba7 99bd 8a63 01be daea f83e 6070 653d
000002d0: 0ba1 49bd 4cc4 2cbe 6ac3 c6bc 8939 b93e
000002e0: 8a0d 273e ff11 4fbd cb7c 373e e3e2 c43c
000002f0: 9d68 b63c db2d 9d3d 16cd f63b f03d 5fbd
00000300: 74c0 5ebe f1e4 dabd bb70 1c3e 8bf0 353d
00000310: 32fb ebbd ede0 0abd ef92 d8ba 3cac 39be
00000320: d274 3cbe 76f8 183d fe01 b6bc a3ae adbc
00000330: bfa6 08be 804f efbc 8258 4ebe 6723 863e
00000340: 7352 393d 8f0d 51bc 3f8b 143e 104b 64be
00000350: a9f4 523d 730e 89bd a3c3 613c 8140 0bbe
00000360: 5939 8fbd e63c 31be bfd3 013e 4c8c adbe
00000370: 6caa 273e 72f9 803c 0ad2 e4bd 999f 36be
00000380: c27f 543e 8db8 a03d 4820 7fbd e16f 90be
00000390: 1225 ddbd ed6f 4cbe 58e6 18be 7f9d 2f3d
000003a0: e7c8 b0bd 0e53 033d 8cb4 cfbe 0f3a cf3c
000003b0: b2d0 6abe bc60 6c3e 9d6b 1a3d 9a2f 26bb
000003c0: d60e 7f3d 8579 a53a 5de3 b33d 6b43 0a3d
000003d0: b7a1 073d fcff 233c e2f2 70be d5a4 ebbd
000003e0: 900c 373e 43c4 66be 5974 17bf a15a ddbc
000003f0: 03a7 8f3d 8f5c 0dbe 8f39 b13b af4d 583d

critic.2.bias f4 [64]
-0.021456448 -0.10868647 -0.23565309 -0.03877859 -0.08887755 0.07157586 -0.018235281 -0.14093208
0.030096676 -0.16611238 -0.12225626 0.032281518 -0.0526065 -0.096870475 0.05593561 -0.11585054
-0.1047347 -0.016855968 0.0879645 -0.109273426 0.12360958 -0.07624594 0.056619655 0.11725514
0.075580806 0.15014851 0.11707769 -0.092433654 -0.03854376 -0.07691781 -0.014505534 0.03991433
-0.120660715 -0.089346394 -0.1167532 -0.19807264 0.10908762 -0.07375259 -0.1273349 0.06919857
0.11265451 0.00596831 -0.06403718 -0.08314009 0.013860727 0.011231251 -0.023534648 0.021894632
-0.021959852 -0.0739196 -0.055811714 -0.10164144 -0.12910533 -0.110044755 -0.053408504 -0.06811571
-0.034732193 -0.07540503 -0.07939159 0.11313851 0.058966093 -0.1826596 -0.04809019 -0.04141828
00000000: 6fc5 afbc 0397 debd 0b4f 71be 4cd6 1ebd
00000010: 6f05 b6bd 5d96 923d 2862 95bc 8050 10be
00000020: 4e8d f63c 5d19 2abe 7d61 fabd a039 043d
00000030: ea79 57bd 0764 c6bd bd1c 653d 0c43 edbd
00000040: 257f d6bd 8715 8abc bb26 b43d bfca dfbd
00000050: 0527 fd3d d526 9cbd 03ea 673d 7623 f03d
00000060: 1cca 9a3d 88c0 193e 6ec6 ef3d db4d bdbd
00000070: 10e0 1dbd 1687 9dbd 9fa8 6dbc 357d 233d
00000080: f71c f7bd 3efb b6bd 4d1c efbd 8ed3 4abe
00000090: 5569 df3d 990b 97bd 1464 02be fbb7 8d3d
000000a0: 68b7 e63d d091 c33b ed25 83bd 5a45 aabd
000000b0: 1a18 633c 4803 383c bccb c0bc 5f5c b33c
000000c0: 26e5 b3bc 2963 97bd d39a 64bd 6329 d0bd
000000d0: 3034 04be 255f e1bd e0c2 5abd 4080 8bbd
000000e0: 5843 0ebd f46d 9abd 0f98 a2bd 2ab5 e73d
000000f0: 6e86 713d 1e0b 3bbe 38fa 44bd 37a6 29bd
