1_pole_inverted_pendulum/1_pole_PPO3_Trained/PPO_One_Pole_InvPendulum_200K.pth (torch, 109673 bytes, 18 tensors)

actor.0.weight f4 [64, 6]
0	0xbd70fb6d	-0.05883353
1	0xbdaddb09	-0.08489043
2	0x3dd52c81	0.10408879
3	0x3e9044e4	0.2817756
4	0xbc5febc3	-0.01366705
5	0x3f103cb6	0.5634264
6	0xbe24f756	-0.16109976
7	0x3deb7bf5	0.11498252
8	0x3dff06d8	0.12452477
9	0x3e0a8b25	0.13529642
10	0x3dd5bb9b	0.104361735
11	0x3f365506	0.71223485
12	0x3eda7273	0.42665443
13	0x3e9ee79c	0.3103608
14	0x3eb9c8f3	0.36286125
15	0xbe5da154	-0.21643573
16	0x3e91aa66	0.28450316
17	0xbe58ee7b	-0.21184723
18	0xbef9a541	-0.4875889
19	0xbe981f48	-0.29711366
20	0xb9a67958	-0.00031752395
21	0x3baee3ca	0.005337213
22	0x3d8ee98d	0.0697814
23	0xbf518124	-0.8183768
24	0xbec72edf	-0.38902947
25	0x3e059291	0.13044192
26	0x3daad835	0.083420195
27	0xbec02079	-0.37524775
28	0x3e9973f1	0.2997127
29	0x3efee4dc	0.4978398
30	0x3e44a3e8	0.1920315
31	0x3e2c158c	0.16805094
32	0x3d5e3c57	0.054256763
33	0x3e19fcc8	0.15037835
34	0x3ddda773	0.10822954
35	0xbebaf1b9	-0.36512545
36	0xbec6812e	-0.3877043
37	0x3e06cde9	0.13164486
38	0x3e28c3e0	0.1648097
39	0xbcd39a29	-0.025830345
40	0xbe06b97f	-0.13156699
41	0x3e52d820	0.20590258
42	0x3e1e2376	0.15443215
43	0x3ecf53c9	0.4049361
44	0x3e2e2b71	0.17008759
45	0x3e829268	0.25502324
46	0xbe7a29d0	-0.24430013
47	0x3c67ea58	0.014154993
48	0x3f04d638	0.5188937
49	0x3cea0b12	0.028569732
50	0xbeb0b0c6	-0.34509867
51	0x3d8ca4bd	0.06867359
52	0xbe175f32	-0.14782408
53	0xbebb1ae1	-0.36543944
54	0x3e97a582	0.2961846
55	0x3ed7346b	0.4203218
56	0xbe7488cc	-0.23880309
57	0x3e9aea48	0.30256867
58	0xbe94e47a	-0.29080564
59	0x3fc6edf6	1.554137
60	0xbe42f1d3	-0.19037561
61	0x3e6d7473	0.23188953
62	0xbecaa7d0	-0.39581156
63	0xbe3ed6be	-0.18636605
64	0xbedce78b	-0.43145403
65	0x3b97a3fb	0.0046277023
66	0x3e8de6cc	0.27715147
67	0x3e4430dd	0.19159265
68	0x3e182fff	0.14862059
69	0x3e7add48	0.24498475
70	0xbd9cd818	-0.07658404
71	0xbf20585f	-0.62634844
72	0x3ddb6c71	0.10714043
73	0xbd56e9a9	-0.05246893
74	0x3e428b89	0.18998541
75	0x3e2eca98	0.17069471
76	0xbeb92a7e	-0.3616523
77	0xbf37755b	-0.71663445
78	0xbd368f5e	-0.04457032
79	0x3cd409c0	0.025883555
80	0x3ec1e74c	0.37871778
81	0xbedb07e1	-0.4277945
82	0xbdf0b52f	-0.11753308
83	0x3efda649	0.49540928
84	0x3e6c9a3c	0.2310571
85	0x3dfc6fd0	0.12326014
86	0xbc05013b	-0.008117969
87	0xbec1f880	-0.37884903
88	0xbecaf512	-0.396401
89	0x3ec3aa86	0.38216037
90	0x3d723ba3	0.059138905
91	0xbebcb0aa	-0.36853534
92	0xbe1bf444	-0.15229899
93	0x3e629dbd	0.22130485
94	0xbec44ede	-0.3834142
95	0x3c5714f4	0.013127554
96	0x3f078180	0.52931976
97	0x3e6df512	0.23238018
98	0x3dc30937	0.09523242
99	0x3ebd84cc	0.37015378
100	0x3e20833f	0.15675066
101	0xbf034820	-0.5128193
102	0xbe14e701	-0.14541246
103	0x3d5fdb99	0.054652784
104	0xbeb4578a	-0.35223037
105	0xbde6a662	-0.11262204
106	0x3d0dceed	0.034621168
107	0xbd1982fe	-0.03747844
108	0xbe87f141	-0.2655125
109	0xbea1bbe4	-0.31588662
110	0x3eab2457	0.33426163
111	0xbe6036a1	-0.2189584
112	0x3eded466	0.43521422
113	0xbe8ef694	-0.279225
114	0x3ea7b5fe	0.32756037
115	0xbd63e73e	-0.05564045
116	0x3e955c58	0.29172015
117	0xbdd0ca5d	-0.10194848
118	0xbe88ca44	-0.26716816
119	0xbe90428c	-0.2817577
120	0x3f1c9609	0.61166435
121	0x3eb8766c	0.3602785
122	0xbe62a949	-0.2213489
123	0xbeceb05c	-0.40368927
124	0x3e8e51df	0.27796838
125	0xbeac939f	-0.33706376
126	0x3e67ac11	0.22624232
127	0xbeae1d1a	-0.34006578
128	0xbddf6934	-0.10908738
129	0x3e032947	0.12808715
130	0x3d0f0b67	0.034922983
131	0xbf25daf5	-0.64787227
132	0xbe9c92b8	-0.30580688
133	0xbe054ec8	-0.13018334
134	0x3e898fd9	0.2686756
135	0x3eaa9ca0	0.3332262
136	0xbee70ea3	-0.45128354
137	0x3ea39db8	0.31956267
138	0xbeda84b9	-0.42679384
139	0x3eb8a9d1	0.3606706
140	0x3bde2b89	0.006780092
141	0xbe46f49c	-0.19429249
142	0x3e382a9d	0.17985006
143	0xbf42e649	-0.7613264
144	0xbd9aecd7	-0.07564705
145	0xbe783a63	-0.24241023
146	0xbeb44066	-0.35205382
147	0x3e763d53	0.24046831
148	0x3ce2ee83	0.027701622
149	0x3f7e86f6	0.99424684
150	0xbd4319c3	-0.04763199
151	0xbe35af02	-0.17742541
152	0x3eb05b53	0.34444675
153	0x3d69a970	0.057046354
154	0xbe843ef3	-0.25829276
155	0xbf3e7fa6	-0.74413526
156	0x3eaf3f8a	0.34228164
157	0x3d9b27a7	0.075759225
158	0xbebed962	-0.37275225
159	0xbe8d73d9	-0.27627447
160	0xbdf101b2	-0.117679015
161	0xbf076d33	-0.52901
162	0xbea28055	-0.31738535
163	0x3ca6c28e	0.020356443
164	0xbeab5499	-0.3346298
165	0x3e8acf75	0.27111402
166	0xbe90d1b8	-0.28285003
167	0x3dd2d02f	0.10293614
168	0x3f0396cb	0.51401967
169	0x3eb55d99	0.35422972
170	0xbb2520e8	-0.0025196616
171	0x3e5f6d6d	0.21819086
172	0x3e4d45a0	0.20046091
173	0x3d7bb590	0.06145245
174	0xbf3e01ca	-0.7422148
175	0x3dd91992	0.1060058
176	0xbe888d21	-0.26670173
177	0xbe411493	-0.18855505
178	0x3d92e510	0.071725965
179	0xbf218ac8	-0.6310239
180	0x3ed78362	0.42092425
181	0x3c9b4f5a	0.018958736
182	0x3dac2f54	0.084074646
183	0xbed99648	-0.42497468
184	0x3d97e43d	0.0741658
185	0x3d9c7abb	0.076405965
186	0xbe21cc90	-0.1580069
187	0x3e5f161e	0.21785781
188	0xbe2b2ea3	-0.16717009
189	0x3ec570b7	0.38562557
190	0xbe612913	-0.21988325
191	0xbe71803f	-0.23584078
192	0xbe872acf	-0.26399848
193	0x3e73d759	0.23812617
194	0x3d9c4365	0.07630042
195	0xbeb012d0	-0.34389353
196	0xbdd8ab71	-0.10579575
197	0x3f11ec58	0.57001257
198	0xbebbb1cc	-0.36659086
199	0x3e83dab7	0.25752804
200	0xbe888681	-0.26665118
201	0xbdb9bfb5	-0.09069768
202	0xbec717c7	-0.38885328
203	0x3e296351	0.16541792
204	0xbf1e92c8	-0.6194272
205	0xbd52c87f	-0.05146074
206	0x3d8325ba	0.0640368
207	0x3d9f8be7	0.07790356
208	0xbe439d1e	-0.19102904
209	0xbd9f8efb	-0.07790943
210	0x3eb62c93	0.35580882
211	0xbdae554d	-0.085123636
212	0x3e2e9d0b	0.17052095
213	0x3e027258	0.12738931
214	0xbe0b350c	-0.13594455
215	0x3fbb042b	1.4610647
216	0x3e3d6a3d	0.18497558
217	0xbe1d66e2	-0.15371278
218	0x3e47dd8b	0.19518106
219	0xbc45ead4	-0.012079913
220	0xbe845574	-0.25846446
221	0xbed0bc40	-0.40768623
222	0xbeb0077a	-0.34380704
223	0xbecd192c	-0.40058267
224	0xbc35708c	-0.011074197
225	0xbe845212	-0.25843865
226	0xbeade760	-0.33965588
227	0x3b54d7ac	0.0032477183
228	0x3e6582b0	0.22413135
229	0x3e19b4e7	0.15010415
230	0x3d04e5da	0.032445766
231	0xbd3a5337	-0.045489516
232	0xbe4ed395	-0.201979
233	0xbe10b24e	-0.14130518
234	0xbef27fdd	-0.47363177
235	0xbeca8622	-0.3955546
236	0x3d748e69	0.059706125
237	0xbde2a86d	-0.11067281
238	0xbceb214a	-0.028702397
239	0x3d9b2f58	0.075773895
240	0xbece43fe	-0.4028625
241	0x3e897f17	0.26854774
242	0x3e4af60a	0.19820419
243	0xbe8e39c5	-0.2777845
244	0xbe8bede6	-0.2732994
245	0xbeaff378	-0.3436544
246	0xbf1257ea	-0.57165396
247	0xbe8ee451	-0.27908567
248	0x3e5b008a	0.21386924
249	0x3c46c819	0.012132668
250	0x3e18f00a	0.14935318
251	0x3e918379	0.28420618
252	0x3d2b6712	0.041846342
253	0xbeca9f71	-0.3957477
254	0x3eb892bd	0.36049452
255	0xbec3b7ed	-0.38226262

actor.0.bias f4 [64]
0	0x3e98dfc7	0.2985823
1	0x3e9ce04a	0.3063987
2	0x3d1d84b3	0.03845663
3	0x3e65d4b9	0.22444429
4	0x3e866081	0.26245502
5	0x3e79e189	0.24402441
6	0xbe171c9b	-0.14757006
7	0x3ecd7ddb	0.40135083
8	0x3e707043	0.23480324
9	0xbe791944	-0.24326044
10	0xbe97f021	-0.2967539
11	0xbe384355	-0.17994435
12	0x3e7ba9d4	0.24576503
13	0xbe5fd27b	-0.21857636
14	0xbedb796f	-0.42866084
15	0x3e245308	0.16047299
16	0xbe3c8c7b	-0.18412964
17	0xbec16169	-0.3776963
18	0x3e15e677	0.14638697
19	0xbe72cedb	-0.23711722
20	0xbd6d07b5	-0.057868678
21	0xbe622288	-0.22083485
22	0xbea4d846	-0.32196254
23	0xbe60d293	-0.21955328
24	0xbc5452a9	-0.012959161
25	0x3e2e755c	0.17036957
26	0xbeca2147	-0.39478514
27	0xbe306f9d	-0.17230077
28	0x3e5aaed6	0.21355757
29	0x3bfdb8b1	0.007742964
30	0xbd264218	-0.040590376
31	0x3e8448a0	0.25836658
32	0xbe5c6daf	-0.21526216
33	0xbe8280d8	-0.25488925
34	0x3e295bee	0.16538975
35	0xbdc2b74e	-0.09507619
36	0xbe79eb04	-0.24406058
37	0x3e8160c7	0.25269148
38	0xbea5eb90	-0.32406282
39	0xbe1dcfd8	-0.15411317
40	0x3d8609cd	0.06544838
41	0xbeb252fc	-0.34828937
42	0xbec45099	-0.3834274
43	0x3df2292d	0.1182426
44	0xbdb95ae2	-0.09050538
45	0xbe2c9733	-0.16854553
46	0x3ea7033e	0.3261966
47	0xbe73bad5	-0.2380174
48	0xbead43c4	-0.33840764
49	0x3d68449c	0.056706056
50	0x3ed15ac4	0.4088956
51	0xbddd304d	-0.10800228
52	0x3db1650f	0.086618535
53	0x3c8e323b	0.017357936
54	0xbe6a549e	-0.22883841
55	0xbeb02c3c	-0.34408748
56	0xbec4ee81	-0.38463214
57	0xbe8466fd	-0.25859824
58	0x3d999efc	0.07501027
59	0xbea4773f	-0.32122228
60	0x3ec01be0	0.37521267
61	0x3eb2b888	0.3490641
62	0x3e38f1f0	0.18061042
63	0x3de0f21e	0.1098368

actor.2.weight f4 [64, 64]
0	0x3ba03ab1	0.004889809
1	0x3d072428	0.032993466
2	0xbc496704	-0.012292627
3	0xbe06a91f	-0.13150452
4	0xbca69908	-0.020336643
5	0x3cf6c88f	0.03012493
6	0x3d9a0ca5	0.07521943
7	0x3cda00d9	0.026611732
8	0x3b923b2b	0.00446262
9	0xbd292840	-0.04129815
10	0x3e0f828c	0.14014643
11	0xbd62dcc8	-0.055386335
12	0x3d57dc2d	0.05270021
13	0xb8f438d2	-0.0001164541
14	0x3dac5896	0.08415334
15	0xbac239ed	-0.0014818289
16	0x3ca4d8be	0.020122882
17	0xbddda5d8	-0.10822648
18	0x3dbcca42	0.09218265
19	0xbdeba176	-0.115054056
20	0x3e16f906	0.14743432
21	0xbdc969c7	-0.098346286
22	0xbd53c462	-0.051700957
23	0x3d165eb7	0.03671142
24	0xbd43fadd	-0.047846664
25	0xbd070b02	-0.032969482
26	0x3dff838d	0.12476263
27	0x3d9110c2	0.070832744
28	0x3d2f2262	0.0427574
29	0xbdeaaff6	-0.11459343
30	0x3d276057	0.04086336
31	0xbcffabcc	-0.031209849
32	0x3d8e413c	0.06946036
33	0xbcc803b7	-0.024415834
34	0xbd7d5281	-0.06184626
35	0xbe0a13f6	-0.13484177
36	0xbd0b8426	-0.034061573
37	0xbdc86803	-0.09785464
38	0x3de3dbd9	0.11125917
39	0xbd202ec3	-0.039107095
40	0x3d0f9d12	0.035061903
41	0xbdcc9855	-0.099899925
42	0xbd646193	-0.055757117
43	0x3c3cd748	0.011525936
44	0x3d80e423	0.062935136
45	0xbd665f3f	-0.056243178
46	0xbd32d759	-0.043662403
47	0xbc931587	-0.017954601
48	0x3ba00148	0.0048829652
49	0xbe17b6eb	-0.14815871
50	0xbd21fa3d	-0.039545286
51	0xbe3d4bfc	-0.18486017
52	0xbc1e5525	-0.009663855
53	0x3d5c28f4	0.053749993
54	0xbd06adee	-0.032880716
55	0xbe1c8e22	-0.15288594
56	0xbce53589	-0.02797963
57	0x3dbfdb99	0.09368057
58	0xbdc09894	-0.09404102
59	0x3d59c780	0.053168774
60	0xbdd58112	-0.10425009
61	0x3de4dc0b	0.11174782
62	0xbdc2f993	-0.09520259
63	0x3d6e39a4	0.05816044
64	0xbdb313b3	-0.08743992
65	0x3cefbdfd	0.029265398
66	0x3dd4e5a9	0.10395367
67	0xbd8e1265	-0.06937102
68	0xbdd6a9bb	-0.10481592
69	0x3c2a334a	0.010388205
70	0xbd09b34e	-0.033618264
71	0x3d850af6	0.06496231
72	0xbc89ad95	-0.016806403
73	0xbe92bdde	-0.28660482
74	0xbbf7f3e2	-0.007566915
75	0xbd610e57	-0.054945316
76	0x3d9e8893	0.07740893
77	0xbdde24a9	-0.10846836
78	0x3b2946da	0.0025829584
79	0xbca070a4	-0.019584961
80	0x3def01c0	0.11670256
81	0xbdc35be0	-0.09539008
82	0x3dd3ff75	0.10351459
83	0x3d9e1927	0.07719641
84	0x3e65d349	0.2244388
85	0x3c599f0f	0.013282551
86	0xbe775576	-0.24153695
87	0xbc7caab0	-0.015421554
88	0xbdd5cd75	-0.104395784
89	0x3d426d77	0.047467675
90	0xbcd09a92	-0.02546433
91	0xbcfb6581	-0.03068805
92	0x3dfca7a5	0.12336663
93	0xbe40e3d5	-0.18836911
94	0x3e35e57a	0.1776332
95	0x3d13e175	0.036103684
96	0xbd7d5016	-0.061843954
97	0x3d5587bd	0.052131403
98	0xbdeee6a4	-0.11665085
99	0xbea474f1	-0.3212047
100	0x3e1f1644	0.15535837
101	0xbe283b4a	-0.16428867
102	0x3e2e8336	0.1704224
103	0x3caac1a8	0.020844296
104	0xbdbb4034	-0.09143105
105	0xbd01032e	-0.031497173
106	0x3d441da0	0.047879815
107	0xbe7bda07	-0.2459489
108	0xbde51a45	-0.11186651
109	0x3e1f9558	0.15584314
110	0x3cfff2bf	0.03124368
111	0x3de6f652	0.112774506
112	0xbcae07ea	-0.021244008
113	0xbdf8a21b	-0.12140294
114	0xbdf97347	-0.121801905
115	0x3bfae5fc	0.007656811
116	0xbd1f3aed	-0.038874555
117	0x3ddec148	0.10876709
118	0xbd0366ab	-0.032080334
119	0xbd29f8ca	-0.04149703
120	0x3d84b0d2	0.06479038
121	0x3cf6da7d	0.03013348
122	0xbdb0e4e4	-0.086374074
123	0x3dda1c23	0.10649898
124	0xbe245fbc	-0.16052145
125	0xbbee4e42	-0.0072725127
126	0xbac7e5a9	-0.0015250939
127	0xbe0e5aa0	-0.13901758
128	0xbdea9c06	-0.1145554
129	0xbdac2a57	-0.08406513
130	0xbdbd620e	-0.09247218
131	0x3d57c2b6	0.052675925
132	0x3c86401c	0.016387992
133	0xbe222fee	-0.15838596
134	0xbcc8e7d8	-0.024524614
135	0xbde7e2d6	-0.113225624
136	0xbdf0a48e	-0.11750136
137	0xbd1a7595	-0.03770979
138	0xbbe70a31	-0.0070507755
139	0xbd2a7d58	-0.041623443
140	0xbde88a03	-0.11354449
141	0x3c5e6e66	0.013576126
142	0x3dc3b40e	0.09555827
143	0xbd564b85	-0.052318115
144	0xbd9fc7c2	-0.07801773
145	0x3d98baf7	0.07457536
146	0xbe1de525	-0.15419443
147	0xbe0026b8	-0.1251477
148	0xbdb3a075	-0.08770839
149	0x3d7ea876	0.062172376
150	0x3cd21773	0.025645947
151	0x3dbecf4c	0.093168825
152	0xbda908c0	-0.08253622
153	0x3d14199c	0.036157236
154	0xbd3ee0ca	-0.046601094
155	0x3df2f2f2	0.118627444
156	0xbd7a4142	-0.06109739
157	0x3e098cde	0.13432643
158	0xbde966a6	-0.11396532
159	0xbe11c743	-0.14236169
160	0xbd0f6d93	-0.035016607
161	0xbcdc5fe8	-0.0269012
162	0x3dabdf03	0.083921455
163	0xbd63f0f0	-0.055649698
164	0x3b819ad9	0.003955227
165	0x3c0bbe53	0.008529264
166	0x3e17ebf6	0.14836106
167	0x3d1b0771	0.037848894
168	0x3dc10e1e	0.09426521
169	0x3dc3d413	0.09561934
170	0x3dd249f9	0.102680154
171	0xbce4b72e	-0.027919378
172	0xbd92fbab	-0.07176908
173	0xbdb7c04d	-0.08972225
174	0x3d07c94c	0.033150956
175	0x3dd4cdf3	0.10390844
176	0x3d171217	0.036882486
177	0xbe03a68a	-0.12856498
178	0xbdf12566	-0.11774711
179	0x3d519efe	0.051177017
180	0x3bd94bcc	0.00663135
181	0xbc9672bd	-0.018365258
182	0x3d8c60f9	0.068544336
183	0xbd9f2ee9	-0.07772619
184	0xbda17897	-0.07884329
185	0x3ccdac93	0.025106704
186	0xbd09852c	-0.03357427
187	0xbdeaebf2	-0.11470784
188	0x3d295e70	0.04134983
189	0x3db1cb20	0.08681321
190	0xbcdcb877	-0.026943428
191	0x3bbe335e	0.0058044633
192	0xbdcd59f6	-0.10026924
193	0x3e0a12cd	0.13483734
194	0x3cda3355	0.026635805
195	0x3d559fe0	0.05215442
196	0xbcc18fc6	-0.023628127
197	0x3de82637	0.11335414
198	0xbd1ec8c5	-0.038765687
199	0xbd00519a	-0.03132782
200	0xbe0cce3f	-0.13750552
201	0x3de8629b	0.113469325
202	0x3c9051bf	0.017617105
203	0x3d455b00	0.048182487
204	0x3dcb319e	0.09921573
205	0xbd94dd41	-0.07268763
206	0x3da18aa9	0.078877755
207	0x3d970969	0.07374842
208	0xbd736706	-0.059424423
209	0xbdb2a7c8	-0.08723408
210	0xbda5386e	-0.08067404
211	0x3d90447a	0.07044311
212	0xbe48f144	-0.19623286
213	0x3d97b22b	0.0740703
214	0x3d789784	0.06069137
215	0x3daaf04e	0.08346616
216	0xbcffd17b	-0.031227818
217	0x3d9a940a	0.075477675
218	0x3da5594d	0.080736734
219	0xbcb060d4	-0.021530546
220	0x3deb47df	0.11488318
221	0x3e0fa4ae	0.14027664
222	0x3cf69001	0.030097963
223	0xbd66935a	-0.05629287
224	0x3d277529	0.040883217
225	0xbdf8ad54	-0.12142435
226	0x3dbe8958	0.0930354
227	0x3da22f1b	0.07919141
228	0x3cbc1a79	0.022961842
229	0xbd2f353f	-0.04277539
230	0x3cf37424	0.029718466
231	0x3d6e83ae	0.05823105
232	0x3df39b80	0.11894894
233	0x3d692525	0.05692019
234	0xbca39d17	-0.019972367
235	0x3ccd4b4b	0.025060317
236	0xbdf634c4	-0.12021783
237	0x3bf748a1	0.0075465
238	0xbde0821b	-0.10962316
239	0x3da78304	0.08179286
240	0x3d2f3065	0.042770762
241	0x3d41eb20	0.047343373
242	0x3ce264de	0.027635988
243	0xbd8b1fb7	-0.067931585
244	0xbc7fc9d0	-0.015612081
245	0x3c419918	0.011816286
246	0xbd5c4014	-0.053772047
247	0x3dc6f95d	0.09715531
248	0xbc193982	-0.00935209
249	0xbde4d770	-0.11173904
250	0xbdaa34d5	-0.08310858
251	0xbdb6e5e2	-0.089305654
252	0x3b2bc59e	0.0026210318
253	0xbdbc9424	-0.09207943
254	0x3e1dd70d	0.15414067
255	0x3dd5e6e9	0.10444433

actor.2.bias f4 [64]
0	0xbdd3e96b	-0.10347255
1	0xbd7fe1c9	-0.062471185
2	0xbdee2b1b	-0.116293155
3	0x3d79aa55	0.060953457
4	0x3a918fa6	0.0011105433
5	0x3d2f96d7	0.04286846
6	0x3d8964dd	0.06708691
7	0x3da30363	0.0795963
8	0xbd46eb46	-0.048564218
9	0x3db7a046	0.089661166
10	0xbdde9a5d	-0.10869286
11	0x3cde7247	0.027154101
12	0x3d5e3a32	0.054254718
13	0x3cda5ca8	0.02665551
14	0xbdffa810	-0.12483227
15	0x3c1e566e	0.009664161
16	0x3d5e36a3	0.054251324
17	0xbdd5ab5e	-0.10433076
18	0x3dc14344	0.09436658
19	0xbdde0c45	-0.10842184
20	0x3d805e42	0.06267978
21	0x3d97327f	0.07382678
22	0x3c309f4d	0.010780168
23	0x3d7fa78d	0.06241565
24	0xbc5e3cdf	-0.0135643175
25	0xbd934a25	-0.07191876
26	0xbbb52ed2	-0.005529263
27	0x3cf52e52	0.029929314
28	0x3daf5c9f	0.08562588
29	0xbc107a26	-0.008818185
30	0x3dce1526	0.100626275
31	0xbd0193af	-0.031634983
32	0x3d540e58	0.05177149
33	0x3d5c2ee8	0.05375567
34	0xbd399b38	-0.045314044
35	0xbd92de87	-0.0717135
36	0x3dd744a0	0.10511136
37	0xbd493abf	-0.04912829
38	0xbda8c49f	-0.082406275
39	0xbd87be99	-0.066281505
40	0xbdd2baa2	-0.10289504
41	0x3d7e939f	0.0621525
42	0x3d8ab163	0.06772115
43	0x3d86f6fc	0.06590077
44	0x3e09e8e2	0.13467744
45	0x3da31165	0.07962302
46	0x3dc6d0ba	0.0970778
47	0xbdd10cf8	-0.10207552
48	0x3dd084b7	0.10181563
49	0xbdc71fcb	-0.09722861
50	0x3dbd67c8	0.0924831
51	0xbbb34cc3	-0.005471797
52	0x3d0b71c9	0.03404406
53	0xbc02e79b	-0.007989789
54	0x3e15a6b4	0.14614373
55	0x3cc8c008	0.02450563
56	0xbd7e98c6	-0.062157415
57	0x3cce5bbb	0.025190225
58	0x3dcb81a4	0.09936836
59	0xbd8c17b9	-0.06840462
60	0xbc415200	-0.0117993355
61	0x3d43a1d5	0.047761757
62	0x3cb2ab07	0.021810068
63	0x3c244456	0.010026058

actor.4.weight f4 [64, 64]
0	0xbe01e013	-0.12683134
1	0xbc37b409	-0.011212357
2	0x3c7152cf	0.014729216
3	0xbdbe033c	-0.09277961
4	0xbd82735a	-0.06369658
5	0xbe12b391	-0.14326312
6	0xbdfd1ccc	-0.12359008
7	0xbe003ff1	-0.12524392
8	0xbd838ecd	-0.064237215
9	0x3d77b2da	0.0604733
10	0xbd78d785	-0.06075241
11	0x3d74a06d	0.059723306
12	0x3dcee3a9	0.101020165
13	0xbd8fd601	-0.0702324
14	0xbd9a5ff0	-0.0753783
15	0x3d182007	0.03713992
16	0xbe1dcbbf	-0.15409754
17	0x3dcf5d20	0.10125184
18	0x3e8f39a4	0.27973664
19	0xbe3e524e	-0.18586084
20	0x3c919f11	0.017776044
21	0x3e02d5b6	0.12776837
22	0xbdc5d93d	-0.096605755
23	0x3cfed381	0.031106712
24	0xbd821dad	-0.063533165
25	0x3d8f5555	0.06998698
26	0x3dcc74ec	0.099832386
27	0x3d52dc9d	0.051479924
28	0xbcf41a00	-0.029797554
29	0x3d9ae4dd	0.075631835
30	0xbdfa1b67	-0.12212258
31	0x3d6992a0	0.057024598
32	0xbddc2b0d	-0.10750399
33	0x3c8251e5	0.015908191
34	0x3ceb6183	0.02873302
35	0x3c0e52d5	0.008686741
36	0x3c34f91e	0.011045722
37	0xbd6c3195	-0.057664473
38	0x3a286652	0.00064239383
39	0x3e6b1539	0.22957315
40	0xbc079355	-0.008274873
41	0x3d403166	0.04692211
42	0x3dee59ca	0.1163822
43	0x3db10979	0.08644385
44	0xbd27fb73	-0.041011285
45	0xbdb499b0	-0.08818376
46	0xbc8e83ea	-0.017396886
47	0xbd3ed7f3	-0.046592664
48	0x3d9d885a	0.076920226
49	0x3d363038	0.04447958
50	0xbd068e9a	-0.03285084
51	0x3d812634	0.06306115
52	0x3df51d6c	0.119685024
53	0xbd8286ba	-0.06373353
54	0x3d7445f3	0.05963702
55	0xbc979336	-0.018502813
56	0xbd28f053	-0.041244816
57	0x3c0b5389	0.008503803
58	0xbc41e0b9	-0.011833363
59	0xbe19a798	-0.15005338
60	0xbea31f52	-0.31859833
61	0x3dac6e8b	0.08419522
62	0x3e0a52f2	0.13508204
63	0x3dbb9d6c	0.09160885
64	0xbd14a278	-0.036287755
65	0xbc0736bc	-0.008252796
66	0xbcd3ef64	-0.025870986
67	0x3dcd98e9	0.10038931
68	0x3d09096c	0.03345625
69	0xbe9c1bbc	-0.3048991
70	0x3e01c2ca	0.12671962
71	0x3b240dcb	0.0025032635
72	0xbdf024ac	-0.117257446
73	0xbdf9a391	-0.12189401
74	0xbde08074	-0.109620005
75	0x3e2ccc56	0.16874823
76	0x3db34f83	0.087554
77	0x3d5a32b9	0.05327103
78	0x3df5b5f1	0.11997593
79	0x3dddc522	0.10828616
80	0xbe5d3f1d	-0.21606107
81	0xbda413bb	-0.08011576
82	0x3e01488e	0.12625334
83	0xbe6c1dd2	-0.2305825
84	0x3d595245	0.053056974
85	0x3c256077	0.0100938
86	0xbde024cf	-0.10944521
87	0x3e0d4bbf	0.13798426
88	0xbddbcadf	-0.10732054
89	0x3d90e4a6	0.07074861
90	0x3e0bf80b	0.1366884
91	0x3c450f08	0.0120275095
92	0xbe32522a	-0.17414156
93	0x3d8f526b	0.06998142
94	0xbda831d7	-0.08212631
95	0x3dfcefc0	0.12350416
96	0xbdcd5fc5	-0.10028032
97	0x3b7ea479	0.0038855358
98	0xbdc707f5	-0.097183146
99	0xbdf362af	-0.11884057
100	0xbc9c7206	-0.01909734
101	0x3e06d2e7	0.1316639
102	0xbd00140c	-0.03126912
103	0x3e5fa4c1	0.21840192
104	0x3d37758b	0.044789832
105	0x3e044ecb	0.12920682
106	0xbc0ad402	-0.008473398
107	0x3cdf90ea	0.02729078
108	0xbd5b1d5b	-0.053494792
109	0x3dbfd9da	0.09367724
110	0xbd9ca4f9	-0.076486535
111	0xbd5928fb	-0.053017598
112	0xbd185280	-0.037188053
113	0xbc6d98fd	-0.014501807
114	0xbd78e8ab	-0.060768764
115	0x3c289eb9	0.010291749
116	0xbb6b0335	-0.0035860066
117	0x3cb5f309	0.022210615
118	0x3d643fe8	0.05572501
119	0xbd8104a8	-0.06299716
120	0xbe33c6ff	-0.1755638
121	0xbe0a69d4	-0.13516933
122	0x3bfe3596	0.007757853
123	0xbc3ac829	-0.011400261
124	0xbee86448	-0.4538901
125	0xbd1f27e7	-0.038856413
126	0xbddebe00	-0.108760834
127	0xbcc97d6f	-0.024595944
128	0x3d20932b	0.03920285
129	0xbe0f996d	-0.14023371
130	0xbd092435	-0.033481795
131	0x3d67dcd5	0.056607086
132	0x3cc81c1b	0.024427464
133	0xbe311db1	-0.17296483
134	0xbcfd72b7	-0.03093849
135	0x3e0fd911	0.14047648
136	0xbdd4a4e1	-0.10383011
137	0xbe104b3d	-0.14091201
138	0x3d5b03f8	0.05347058
139	0x3d8f18ea	0.06987174
140	0xbdf91b9c	-0.12163469
141	0xbe109fdf	-0.14123486
142	0x3d987e37	0.074459486
143	0x3bbd3e59	0.0057752547
144	0xbe86ba1a	-0.2631386
145	0xbe00e7ca	-0.1258842
146	0x3d9b294e	0.075762376
147	0xbe675503	-0.22591023
148	0x3e06dc7c	0.13170046
149	0x3dc262c1	0.09491492
150	0xbd442318	-0.04788503
151	0xbce63a9c	-0.028104119
152	0x3be4633a	0.0069698365
153	0x3cfcbeb2	0.03085265
154	0x3ddb5f21	0.10711504
155	0xbd8b1614	-0.067913204
156	0xbe061435	-0.13093646
157	0x3db2cb76	0.08730213
158	0xbcc91f2e	-0.024551
159	0xbb847475	-0.004042203
160	0xbd2791f3	-0.040910672
161	0xbd9bef06	-0.076139495
162	0x3d3875d3	0.04503424
163	0x3c82bcbd	0.015959138
164	0x3df7f6cd	0.121076204
165	0x3d8e2d92	0.069422856
166	0xbe2d6f75	-0.16937049
167	0x3d742536	0.0596058
168	0x3e412574	0.18861943
169	0xbd2013f6	-0.039081536
170	0xbd4e9d1e	-0.050442807
171	0xbcbb9028	-0.022895887
172	0x3d3a5d02	0.045498855
173	0x3d8eae6a	0.069668606
174	0x3d6651e3	0.056230437
175	0xbd78b777	-0.06072184
176	0xbd9f3a90	-0.07774842
177	0x3e383e1d	0.17992444
178	0x3c6b3889	0.014356741
179	0x3e182f47	0.14861785
180	0x3e5a8c63	0.21342616
181	0xbc972842	-0.018451814
182	0x3dde5819	0.10856647
183	0x3db852fb	0.09000202
184	0xbdb2eb45	-0.0873628
185	0x3db321d5	0.08746687
186	0xbce2486b	-0.027622422
187	0xbe4118ce	-0.18857118
188	0xbf0c74fa	-0.5486599
189	0xbda4b3ec	-0.0804213
190	0xbdff5163	-0.12466695
191	0xbdd48165	-0.103762425
192	0xbd437de7	-0.04772749
193	0xbe5e89f6	-0.21732315
194	0xbc9d1f58	-0.019179985
195	0x3d76a74a	0.060218133
196	0xbd6e4e86	-0.058180355
197	0xbe43ada3	-0.19109206
198	0x3e0388c8	0.12845147
199	0xbd85f042	-0.06539966
200	0x3d467aa5	0.048456807
201	0xbd984f5f	-0.07437014
202	0x3c130a91	0.008974687
203	0x3db497b2	0.08817996
204	0x3daecb3f	0.0853486
205	0xbe0309d4	-0.12796718
206	0x3d942d33	0.072351836
207	0x3e0a54e3	0.13508944
208	0xbe6ca0df	-0.23108242
209	0xbc5f6a49	-0.01363618
210	0x3e90ef10	0.2830739
211	0xbe59261f	-0.21205948
212	0x3dafe408	0.085884154
213	0xbd5c1222	-0.05372823
214	0xbe1679c0	-0.14694881
215	0xbcdad7cb	-0.026714226
216	0xbde23668	-0.110455334
217	0x3e5b3588	0.2140714
218	0x3d5af3a4	0.05345501
219	0x3daf0cd3	0.08547368
220	0xbe4520a2	-0.1925073
221	0x3d57bb5f	0.052668925
222	0xbe017356	-0.12641653
223	0x3d9b993a	0.07597585
224	0xbd03ddf7	-0.032194104
225	0x3d73e7fe	0.059547417
226	0x3cda7958	0.02666919
227	0x3dad7cf6	0.084711
228	0x3df5d354	0.12003198
229	0x3d4c5402	0.049884804
230	0x3d93f9d3	0.072253846
231	0x3dfa25a8	0.122142136
232	0x3e121a8d	0.14267941
233	0x3dfb22c5	0.12262491
234	0xbdd74c84	-0.10512641
235	0xbcaba186	-0.020951044
236	0x3e146a9e	0.14493796
237	0xbdb8ba7e	-0.090199456
238	0x3db6895b	0.08912917
239	0xbdb448e6	-0.08802967
240	0x3d95e32a	0.07318719
241	0x3d8b3cac	0.067986816
242	0x3b87a5a4	0.004139619
243	0x3e40310b	0.18768708
244	0x3df313d2	0.11869015
245	0xbc1474ff	-0.009061097
246	0xbd51e8a9	-0.051247273
247	0xbc8e14ad	-0.017343843
248	0xbe680b99	-0.22660674
249	0xbdcd74f0	-0.1003207
250	0x3dc05799	0.09391708
251	0xbe295dc0	-0.16539669
252	0xbea2b1a0	-0.31776142
253	0xbdc22f15	-0.094816364
254	0xbd37d744	-0.044883028
255	0xbdb1392b	-0.08653482

actor.4.bias f4 [64]
0	0x3dbaf7d4	0.09129301
1	0x38ad83e8	8.273852e-05
2	0x3d835e73	0.06414499
3	0x3d9b0403	0.075691245
4	0x3bbd039c	0.0057682525
5	0xbc39773d	-0.0113199325
6	0x3d8898be	0.06669758
7	0xbca01b95	-0.019544402
8	0xbe0218ee	-0.12704822
9	0x3d34eb1f	0.04416954
10	0xbdb3ac8c	-0.08773145
11	0x3dc9d425	0.098549165
12	0xbc98f383	-0.018670803
13	0xbcd7df59	-0.026351618
14	0x3d302a64	0.043009177
15	0xbd948d86	-0.07253556
16	0x3dc41cbd	0.09575794
17	0x3d8443e6	0.06458263
18	0xbdbba0da	-0.091615394
19	0x3e0293f7	0.12751757
20	0x3d47ad8d	0.048749495
21	0xbd4e27dc	-0.05033098
22	0x3dc4f934	0.09617844
23	0xbd9c0b14	-0.076193005
24	0x3aade692	0.0013267568
25	0xbcf38b1e	-0.029729422
26	0x3d77235e	0.060336463
27	0xbd0c7de8	-0.03429976
28	0xbddb711b	-0.107149325
29	0xbd689baa	-0.056789078
30	0x3cd6623e	0.026169892
31	0x3de9a266	0.11407928
32	0x3d45e1c4	0.04831101
33	0x3d85e8bf	0.065385334
34	0xbc93c488	-0.01803805
35	0xbd4a95b3	-0.04945917
36	0xbdaa8589	-0.08326251
37	0x3de1da97	0.11028021
38	0xbe3f5900	-0.18686295
39	0xbcfa3a1f	-0.030545292
40	0x3cb779b4	0.0223969
41	0x3cb16bec	0.021657906
42	0xbd1a12bf	-0.037615534
43	0xbdfaf011	-0.1225282
44	0x3d08fec7	0.0334461
45	0xbe00f575	-0.12593634
46	0xbd0f3f29	-0.034972344
47	0xbdd4d3f7	-0.103919916
48	0xbcaa7272	-0.020806525
49	0xbe034b36	-0.1282166
50	0x3ded264c	0.1157957
51	0xbd1588f3	-0.036507558
52	0x3dd9b339	0.10629887
53	0xbd2b1241	-0.041765455
54	0xbd9f2886	-0.07771401
55	0x3e06d187	0.13165866
56	0xbd43f959	-0.04784522
57	0xbdbabf12	-0.09118475
58	0x3db798bb	0.08964678
59	0xbcdb8c32	-0.026800249
60	0x3d0755da	0.03304086
61	0xbdc28f2d	-0.09499965
62	0x3a67cf48	0.0008842838
63	0xbdf67dec	-0.120357364

actor.6.weight f4 [64, 64]
0	0x3d6538f8	0.055962533
1	0x3e12ce3c	0.14336485
2	0x3e518243	0.20459847
3	0x3d3ba74a	0.045813836
4	0xbdd98fa9	-0.10623104
5	0x3d5e9c81	0.054348473
6	0xbd83fb11	-0.064443715
7	0xbab2e349	-0.0013648059
8	0xbc89b34b	-0.016809126
9	0xbe067bec	-0.1313321
10	0xbda2d1a2	-0.079501405
11	0xbd5746d3	-0.052557778
12	0xbd171d45	-0.036893148
13	0x3e4f0a15	0.2021869
14	0xbcf6eaef	-0.030141322
15	0x3d511d81	0.051053528
16	0xbd899d85	-0.067194976
17	0x3cf43e8a	0.029814977
18	0xbdec5b84	-0.11540893
19	0xbd39d126	-0.045365475
20	0x3dc0ea77	0.094197206
21	0xbca0f104	-0.019646175
22	0x3c80ce44	0.015723355
23	0x3d9a8326	0.07544546
24	0x3e124496	0.14283976
25	0x3e2c96e9	0.16854443
26	0x3db33a84	0.08751395
27	0xbc9d1504	-0.01917506
28	0x3d8a8cb7	0.067651205
29	0xbc039bfb	-0.008032794
30	0xbdce4e4e	-0.10073529
31	0xbcb5eed0	-0.022208601
32	0xbc4e59db	-0.012594665
33	0xbd014601	-0.0315609
34	0x3d8aa744	0.06770185
35	0x3d8ae094	0.06781116
36	0xbc4fc891	-0.012682096
37	0x3bb81c62	0.005618618
38	0x3d014436	0.03155919
39	0x3d885dcc	0.06658515
40	0xbd81aefe	-0.06332205
41	0xbd463438	-0.048389643
42	0x3d6eaab2	0.058268256
43	0xbdaa18ba	-0.083054975
44	0x3cc6e857	0.02428071
45	0xba0d2588	-0.0005384316
46	0xbe017195	-0.12640984
47	0xbdc85d95	-0.09783474
48	0xbe32dbff	-0.17466734
49	0xbd539e90	-0.05166489
50	0x3df4511f	0.11929535
51	0x3d0304ae	0.031986885
52	0x3d7c8926	0.061654232
53	0xbdde45d7	-0.10853165
54	0x3d7e64d9	0.062107895
55	0x3dbbbddc	0.09167072
56	0xbe5e5d54	-0.2171529
57	0xbd7741b2	-0.060365386
58	0x3d8a81fb	0.06763073
59	0x3db6c869	0.08924944
60	0xbd6c2cf7	-0.05766007
61	0xbe0189c2	-0.12650207
62	0xbde08c98	-0.10964316
63	0x3d7def5e	0.061995856
64	0x3d526932	0.051369853
65	0x3b98a879	0.0046587554
66	0x3bcbd970	0.006220989
67	0x3e07b43b	0.13252346
68	0xbd3e5a9f	-0.04647314
69	0x3de2da0c	0.110767454
70	0xbdc69300	-0.09696007
71	0x3e1d2304	0.15345389
72	0x3dfe94a1	0.124306925
73	0x3dc409f4	0.09572211
74	0x39a6270a	0.00031691074
75	0x3ceaa57e	0.028643366
76	0x3e1d989e	0.1539025
77	0xbcd50704	-0.026004322
78	0x3db82133	0.08990707
79	0xbe094de3	-0.13408618
80	0x3dc0eba8	0.09419948
81	0x3d090b50	0.033458054
82	0xbd6eeae5	-0.05832948
83	0x3e1a7729	0.15084518
84	0xbd2498d1	-0.0401848
85	0x3dbb8a5d	0.0915725
86	0x3e098508	0.13429654
87	0xbd2432d8	-0.04008755
88	0x3e208ace	0.1567795
89	0x3e2a135e	0.1660895
90	0xbd83b0fa	-0.0643024
91	0xbccefb62	-0.025266353
92	0xbdb5f1e7	-0.0888403
93	0xbe29fef0	-0.16601157
94	0xbc6c7481	-0.014432074
95	0x3d99b582	0.07505323
96	0x3b8d4502	0.004311205
97	0xbdab3247	-0.08359199
98	0xbca91057	-0.020637674
99	0x3dcff4a2	0.10154082
100	0xbdfcbbf7	-0.12340539
101	0x3cdb8fb8	0.026801929
102	0xbdceef0b	-0.101041876
103	0x3e065f80	0.13122368
104	0xbe461829	-0.19345154
105	0x3e156d01	0.14592363
106	0x3d8cbc19	0.06871814
107	0x3c064c57	0.008196912
108	0xbd0aff88	-0.0339351
109	0xbd0af939	-0.033929083
110	0x3dd3cb20	0.103414774
111	0xbe33559d	-0.17513128
112	0xbe1274cc	-0.14302367
113	0x3d997c16	0.07494371
114	0x3dc0628e	0.09393798
115	0x3ca764e2	0.020433847
116	0x3d104f92	0.035232134
117	0xbda7ffb9	-0.08203072
118	0xbc41a220	-0.011818439
119	0x3db1aeaf	0.086758964
120	0xbe392cab	-0.18083446
121	0x3bf2559e	0.0073954603
122	0xbdb68ab1	-0.08913172
123	0xbe15cfa6	-0.14629993
124	0xbde417ee	-0.11137377
125	0xbe025d89	-0.12730993
126	0xbe2fb2fd	-0.17158122
127	0x3df54dda	0.1197774
128	0x3dbef128	0.09323341
129	0x3d9c53b3	0.07633152
130	0x3d55b16d	0.05217116
131	0x3e12f8f1	0.14352776
132	0xbde1f2da	-0.110326484
133	0x3db31896	0.08744924
134	0x3c8dcc10	0.017309219
135	0x3d2df1af	0.042466816
136	0xbd3181b5	-0.04333659
137	0x3d96e355	0.07367579
138	0xbe32d5c6	-0.1746436
139	0xbe0dd584	-0.13850981
140	0x3dad7c1d	0.08470938
141	0x3d6c97f6	0.05776211
142	0xbce38628	-0.027773932
143	0xbe3f1a24	-0.18662316
144	0xbddb761a	-0.107158855
145	0x3c8fdfef	0.017562835
146	0x3dbb6c96	0.091515705
147	0xbbc272d2	-0.005934098
148	0xbd3399de	-0.04384791
149	0x3d817247	0.06320625
150	0x3d6d7c98	0.05798015
151	0xbdc1261f	-0.09431099
152	0x3e0f00c0	0.1396513
153	0x3d86b526	0.0657752
154	0xbe2058e8	-0.15658915
155	0x3d3d88d9	0.046273086
156	0xbe12bcf9	-0.143299
157	0xbe53e9da	-0.20694676
158	0x3d519551	0.05116779
159	0xbda7a866	-0.08186416
160	0x3d2da355	0.042392094
161	0xbcefe61b	-0.029284528
162	0xbce1f75e	-0.027583774
163	0x3d9b3fff	0.07580566
164	0x3d84e08d	0.06488142
165	0x3dafe659	0.08588857
166	0xbe10382e	-0.14083931
167	0x3e0b7e46	0.13622388
168	0xbe32e278	-0.17469203
169	0x3e2cbefc	0.1686973
170	0x3d0bef83	0.034163963
171	0x3ceeab25	0.029134342
172	0xbd588383	-0.052859794
173	0xbccf37aa	-0.025295097
174	0x3d44abe8	0.048015505
175	0xbe30ee33	-0.17278366
176	0xbe59c73a	-0.21267405
177	0xbe066299	-0.1312355
178	0x3d535117	0.051591005
179	0x3dd04a9b	0.1017048
180	0xbd88b6a5	-0.06675462
181	0x3dd7ad8e	0.1053115
182	0xbe211b7e	-0.15733144
183	0x3dbe8236	0.093021795
184	0xbe018e75	-0.12652
185	0xbe290134	-0.16504365
186	0x3d219afb	0.03945444
187	0x3d34d569	0.044148836
188	0xbd0da374	-0.03457971
189	0xbe1df981	-0.1542721
190	0xbea03c17	-0.31295845
191	0x3dc44d60	0.095850706
192	0xbc51b8f6	-0.012800446
193	0x3d71a364	0.058993712
194	0x3e518fbd	0.20464988
195	0x3d1c0e9d	0.038099874
196	0xbe274f4d	-0.16338845
197	0xbd5466cc	-0.051855847
198	0xbd19f68a	-0.037588634
199	0x3d77918f	0.06044155
200	0x3dad7f0c	0.08471498
201	0x3cf714ad	0.030161226
202	0xbdb640d3	-0.08899083
203	0xbd6f4a9b	-0.05842076
204	0xbc202e89	-0.00977672
205	0x3d829184	0.06375411
206	0xbde4ae53	-0.11166062
207	0x3d5fc8f2	0.054634996
208	0x3af82a07	0.0018933424
209	0xbdda918b	-0.10672291
210	0xbdf6e3e5	-0.12055186
211	0x3dbfdcff	0.093683235
212	0x3dea0c11	0.11428083
213	0xbdd2e01e	-0.10296653
214	0xbb95e947	-0.004574928
215	0xbce90993	-0.028446948
216	0x3d384918	0.044991583
217	0xbbda6641	-0.0066650216
218	0xbd98f270	-0.07468116
219	0x3c7e6a19	0.015528225
220	0xbd6aabc8	-0.05729273
221	0xbc98e988	-0.018666044
222	0xbdbb2c0f	-0.09139263
223	0x3dd15bdf	0.10222601
224	0x3d18b2c6	0.037279867
225	0xbc1963af	-0.009362145
226	0x3bff9419	0.007799637
227	0x3e5173af	0.20454286
228	0xbd8ef817	-0.06980913
229	0xbd309af5	-0.04311653
230	0xbd63dbb8	-0.055629462
231	0x3dae5abf	0.08513402
232	0x3c10147e	0.008793948
233	0xbd2526a2	-0.040320046
234	0xbd869075	-0.06570522
235	0xbda852be	-0.08218907
236	0x3c165eb0	0.009177849
237	0x3dc77cd4	0.09740606
238	0x3c9c674a	0.01909222
239	0xbd929a0f	-0.071582906
240	0xbe893f9a	-0.26806337
241	0xbde9de4e	-0.114193544
242	0x3dd92cfc	0.10604283
243	0x3db326d4	0.0874764
244	0xbdae7579	-0.085185
245	0x3d8faf16	0.07015817
246	0x3da5060e	0.080577955
247	0x3db3799b	0.08763429
248	0xbdd50568	-0.10401422
249	0xbc176dab	-0.0092424555
250	0xbddc9180	-0.107699394
251	0xbdf6a532	-0.12043227
252	0x3cad3446	0.02114309
253	0xbe648a0b	-0.22318284
254	0xbe604a59	-0.21903361
255	0xbc0e0fac	-0.008670729

actor.6.bias f4 [64]
0	0x3d5079c6	0.050897382
1	0x3d45b586	0.048268817
2	0x3d97643f	0.07392167
3	0x3de42f7a	0.11141868
4	0xbce79f95	-0.028274337
5	0x3d1f1c44	0.038845316
6	0xbdd5ecef	-0.10445582
7	0x3ddc936e	0.107703075
8	0xbdba566e	-0.090985164
9	0x3d6b5320	0.05745232
10	0xbd263c14	-0.04058464
11	0xbdea7ffd	-0.11450193
12	0xbc156649	-0.009118625
13	0x3dd2b8cc	0.102891535
14	0xbd7e48c0	-0.0620811
15	0x3da36ac7	0.079793505
16	0x3e100911	0.14065959
17	0xbdc72c29	-0.0972522
18	0x3cdd51ba	0.02701651
19	0xbdb798dd	-0.08964703
20	0x3e0b8b96	0.13627467
21	0xbdb80187	-0.08984666
22	0xbde5f763	-0.11228826
23	0xbd0be2fa	-0.03415201
24	0x3d872c32	0.066002265
25	0x3d2eadb9	0.042646144
26	0x3d6f66e0	0.05844772
27	0xbda4bd17	-0.080438785
28	0xbd4a81a2	-0.049440034
29	0x3c78bf2d	0.015182299
30	0x3b95e1c4	0.0045740325
31	0xbd6d00ce	-0.057862096
32	0xbdb9cc88	-0.09072214
33	0xbd69f008	-0.057113677
34	0xbd2414c4	-0.040058866
35	0xbc4d95cf	-0.012547924
36	0xbe025cc7	-0.12730704
37	0x3ccb29b4	0.024800159
38	0x3cf0f160	0.029411972
39	0x3d97bc5e	0.07408975
40	0x3dffb37f	0.12485408
41	0x3d38549f	0.045002576
42	0xbde62c4b	-0.11238917
43	0xbdb4cddf	-0.08828329
44	0xbdb0a0bf	-0.0862441
45	0x3cbad87d	0.022808308
46	0x3da2bd13	0.07946219
47	0x3dbf8f3f	0.09353494
48	0xbd246c4a	-0.040142335
49	0x3d79264e	0.060827546
50	0x3dcb9da1	0.09942175
51	0xbda7d7b4	-0.08195439
52	0xbe016e06	-0.12639627
53	0x3d7a9b62	0.06118334
54	0x3d6013fc	0.05470656
55	0xbda866c1	-0.08222724
56	0x3d5c4fce	0.053787045
57	0x3ceafb1b	0.02868419
58	0x3d9ec4aa	0.077523544
59	0xbd15e120	-0.03659165
60	0x3d4fb5ac	0.050710365
61	0x3e00ff91	0.12597491
62	0x3db706ef	0.08936869
63	0xbcca9fb5	-0.024734357

actor.8.weight f4 [1, 64]
0	0x3d95d117	0.07315271
1	0x3d6d8f79	0.057998154
2	0x3e10f003	0.14154057
3	0x3e0d308b	0.13788049
4	0xbdcbdd47	-0.09954315
5	0xbdf86a1a	-0.12129612
6	0xbeffb4ed	-0.49942723
7	0x3e1cf210	0.15326715
8	0xbe015fe1	-0.12634231
9	0xbe052e33	-0.13005905
10	0x3ded717c	0.11593911
11	0x3e7d3736	0.24728093
12	0xbdda6b5b	-0.10665008
13	0x3de7b81b	0.11314412
14	0xbe5a28a1	-0.21304561
15	0xbe40330c	-0.18769473
16	0x3e3d9418	0.18513525
17	0x3eab2216	0.33424443
18	0x3e1cca7c	0.15311617
19	0xbe4af2a5	-0.19819124
20	0x3e36c1c4	0.17847353
21	0x3dfc6941	0.12324763
22	0x3dc9f698	0.09861487
23	0x3deee1cc	0.11664161
24	0xbe28358c	-0.16426677
25	0x3e29da0d	0.16587086
26	0x3dc1eca3	0.09468963
27	0xbea20506	-0.31644458
28	0xbeb8c3bb	-0.3608683
29	0xbdf7fd49	-0.12108857
30	0x3e0eae52	0.13933685
31	0x3e5f5232	0.21808699
32	0x3d3c0662	0.045904525
33	0x3daf0952	0.085466996
34	0x3ea29156	0.31751508
35	0x3e4a41dd	0.19751687
36	0x3e858e43	0.260851
37	0x3e35f8a6	0.17770633
38	0x3e5874c5	0.21138294
39	0x3e0d3429	0.13789429
40	0x3d6a90e4	0.057267085
41	0x3e30815b	0.17236845
42	0xbe5a07a7	-0.21291982
43	0xbd8cc655	-0.06873766
44	0x3dca7204	0.09885028
45	0x3eac7425	0.3368236
46	0x3e15b239	0.14618768
47	0xbdbd46b6	-0.09242003
48	0xbf1a8ed7	-0.60374206
49	0x3e073b9f	0.13206337
50	0x3e7ce4dd	0.2469668
51	0x3e7a30df	0.24432705
52	0x3e515a35	0.20444568
53	0x3e3bb692	0.18331364
54	0xbe19f3ce	-0.1503441
55	0xbe8d0a34	-0.27546847
56	0xbdef3b04	-0.11681178
57	0x3de4f6c8	0.11179882
58	0x3d550679	0.052008126
59	0x3e978293	0.29591808
60	0xbe44db67	-0.1922432
61	0xbe20bef2	-0.1569784
62	0xbdbbc70d	-0.09168825
63	0x3e16f8cd	0.14743347

critic.0.weight f4 [64, 6]
0	0x3e7cdc4b	0.2469341
1	0xbeb42175	-0.35181776
2	0xbdc337bb	-0.09532114
3	0x3e981210	0.2970128
4	0x3e7f68e5	0.24942358
5	0xbe363cd4	-0.17796642
6	0x3e729e5d	0.23693223
7	0xbd70a759	-0.058753345
8	0x3ec56055	0.38550058
9	0x3d3d1d35	0.046170432
10	0x3ea954a1	0.3307238
11	0x3f0572db	0.5212838
12	0x3e974d37	0.29551098
13	0xbca55f1c	-0.020186953
14	0xbed148f6	-0.40875977
15	0x3e92d93f	0.2868137
16	0x3e9614c1	0.2931271
17	0xbf2f3bb8	-0.684505
18	0x3ed671c1	0.41883662
19	0xbdf53030	-0.11972082
20	0x3dffd81f	0.12492394
21	0xbdec6abb	-0.11543795
22	0x3eb2e6e6	0.34941787
23	0xbe63d976	-0.22250924
24	0x3f4b4d04	0.7941439
25	0xbe6febd2	-0.23429802
26	0xbc94db40	-0.018170953
27	0x3e5f1c30	0.21788096
28	0x3e95da79	0.29268244
29	0x3ecb9627	0.39762995
30	0xbf8fdcee	-1.1239297
31	0xbe57cd19	-0.21074332
32	0x3e91e663	0.28496084
33	0xbe362fbc	-0.17791647
34	0x3e800af3	0.25008354
35	0xbd88f1db	-0.06686755
36	0x3f296f9f	0.66185945
37	0x3e80a677	0.25127003
38	0xbe72deae	-0.23717758
39	0xbd3b17a1	-0.04567683
40	0x3e96d70b	0.2946094
41	0x3eb0cb23	0.3452998
42	0xbf1d69b7	-0.61489433
43	0xbebfb9a7	-0.3744633
44	0xbefd3046	-0.49450892
45	0xbe8d4fcb	-0.2759994
46	0xbdd393fc	-0.1033096
47	0x3ebc24a6	0.3674671
48	0x3e141707	0.14461909
49	0xbb8fb8fd	-0.004386066
50	0x3eb1f471	0.34756806
51	0x3cc4cc4f	0.024023203
52	0x3e3813f6	0.17976364
53	0xbec70bae	-0.38876098
54	0x3f5f667f	0.8726577
55	0x3e3710ba	0.17877474
56	0x3e66a311	0.22523142
57	0x3e9609c4	0.29304326
58	0xbeb056f9	-0.34441355
59	0xbecb9856	-0.3976466
60	0xbd962715	-0.07331673
61	0xbe8cbfd7	-0.27490112
62	0x3c889d1b	0.016676476
63	0xbece9014	-0.40344298
64	0x3e8bed1c	0.27329338
65	0x3f6703af	0.90239996
66	0xbecda52b	-0.40165076
67	0xbd849876	-0.06474392
68	0xbe886878	-0.26642203
69	0x3ed93217	0.42421028
70	0x3e8d91a3	0.27650174
71	0x3f159f2f	0.5844602
72	0x3f47c32c	0.78032184
73	0xbd9cf2c4	-0.07663491
74	0x3e9a596c	0.30146348
75	0x3dabd10b	0.08389481
76	0xbde7ee4c	-0.113247484
77	0x3d764a5f	0.06012952
78	0xbf86e585	-1.0538794
79	0xbdb7c7f9	-0.08973689
80	0x3e56e98c	0.20987529
81	0xbea825c8	-0.32841325
82	0x3e84aa12	0.25911003
83	0x3e55ac73	0.20866565
84	0x3ecd9a7b	0.40156922
85	0xbeae1e12	-0.34007317
86	0x3e7ce3eb	0.24696319
87	0xbc1598ac	-0.009130638
88	0x3c09f789	0.008420833
89	0x3dd5ea4c	0.10445079
90	0x3f23c4de	0.6397227
91	0x3eb1a1d5	0.3469378
92	0x3eb14274	0.34621012
93	0x3e8b09bc	0.27155864
94	0xbe3945a7	-0.18092977
95	0xbdfbc6d9	-0.122937866
96	0x3fb18239	1.3867866
97	0xbd9331ca	-0.07187231
98	0xbe224bd9	-0.15849246
99	0x3dc534af	0.09629189
100	0xbe56c64f	-0.20974086
101	0x3ef88a2e	0.48542923
102	0x3ff0938c	1.8795028
103	0xbe7357ea	-0.23764005
104	0xbd76c469	-0.060245905
105	0x3d36e1b6	0.04464885
106	0xbd38ed02	-0.045147903
107	0x3f2db386	0.67852056
108	0xbe81910a	-0.2530597
109	0x3e593fcc	0.21215743
110	0x3e1238bf	0.1427946
111	0x3ecc22e5	0.39870372
112	0xbed74af8	-0.42049384
113	0x3eb84b46	0.3599493
114	0x3efefbe6	0.49801558
115	0x3e90101b	0.28137287
116	0xbeae5857	-0.34051773
117	0x3ebaa652	0.36455017
118	0xbc3e6dac	-0.0116228275
119	0x3def260c	0.11677179
120	0xbfa14b6b	-1.2601141
121	0xbd9b5d76	-0.07586186
122	0xbcb54488	-0.022127405
123	0x3dfa7f2d	0.12231288
124	0xbe6ef402	-0.23335269
125	0x3eb740d1	0.35791638
126	0x3c81b738	0.015834436
127	0xbe63b710	-0.22237802
128	0xbe44333d	-0.19160171
129	0x3e66469c	0.22487873
130	0x3dabef7a	0.08395286
131	0xbe74cb56	-0.23905692
132	0x3e84ac6d	0.259128
133	0xbea2bcc1	-0.31784633
134	0x3e5f9cab	0.21837108
135	0x3e3ff91f	0.18747376
136	0xbcca1462	-0.024667922
137	0x3d3b2792	0.045692034
138	0x3f76235d	0.9614771
139	0x3ecf7ca2	0.40524775
140	0xbe2a56e3	-0.16634707
141	0x3e8e1ac5	0.277548
142	0xbe95b925	-0.29242817
143	0x3f2f9598	0.68587637
144	0xbd0cb23f	-0.034349676
145	0x3d67a32a	0.05655209
146	0xbdd45e97	-0.10369604
147	0x3cf66830	0.030078977
148	0xbd16a3e6	-0.0367774
149	0xbced694d	-0.028980875
150	0x3e57e0a5	0.21081789
151	0x3e86b162	0.26307207
152	0xbe9efb52	-0.31051117
153	0xbe488ca6	-0.19584903
154	0x3e5cdf43	0.21569543
155	0xbf380631	-0.7188445
156	0x3e98cd83	0.29844293
157	0xbe5a9123	-0.21344428
158	0x3e2d2ff2	0.16912821
159	0x3e9e7f6a	0.30956584
160	0x3e4fa7df	0.20278881
161	0x3f086e12	0.53292954
162	0x3fa252fd	1.2681576
163	0x3e5d2a0b	0.2159807
164	0x3ea6ba82	0.3256417
165	0x3e2c85fa	0.16847983
166	0x3c3acf3e	0.011401949
167	0x3db88fbf	0.090117924
168	0xbfa510b2	-1.289572
169	0x3d8d4e31	0.068996795
170	0xbbfaba83	-0.0076516285
171	0xbe7b02d4	-0.24512798
172	0xbd939d34	-0.072077185
173	0x3d99f84a	0.075180605
174	0xbf2d3d31	-0.67671496
175	0xbe7bf1cb	-0.24603955
176	0x3e48e4bb	0.19618504
177	0x3eba9464	0.36441338
178	0xbe485b3b	-0.19566052
179	0x3e391e35	0.1807793
180	0xbf10ed84	-0.5661242
181	0x3e81e2d2	0.25368363
182	0x3c6343f2	0.01387118
183	0x3dbbbbfd	0.09166715
184	0xbe5ece5a	-0.21758404
185	0x3e9afad5	0.30269495
186	0x3f3ee470	0.7456732
187	0x3ea796d1	0.3273225
188	0xbe48d5fe	-0.19612882
189	0xbdb76524	-0.08954838
190	0xbe0d978a	-0.13827339
191	0x3e242541	0.16029836
192	0xbe97ea2b	-0.29670843
193	0x3e940d21	0.28916267
194	0x3e93a6c4	0.2883817
195	0x3edec0a4	0.43506348
196	0xbe4420fe	-0.1915321
197	0x3f098794	0.537225
198	0x3e18e83e	0.14932343
199	0xbe488bee	-0.19584629
200	0x3ebd3a80	0.36958694
201	0xbf11fa08	-0.5702214
202	0x3f11ce87	0.5695576
203	0x3f2fcfc2	0.6867639
204	0xbf43dea3	-0.7651159
205	0xbe743ade	-0.23850581
206	0x3e1e4f49	0.15459932
207	0x3e46aec4	0.19402605
208	0xbe729d3b	-0.23692791
209	0xbee10b55	-0.43953958
210	0x3f4ecd2e	0.8078183
211	0x3eaa8226	0.3330242
212	0xbb78c457	-0.0037958825
213	0x3e954c4b	0.2915977
214	0xbeadd7a5	-0.33953586
215	0xbe291d9a	-0.16515198
216	0x3ce71c2f	0.028211681
217	0xbcde5da1	-0.027144255
218	0xbecbe5b6	-0.39823693
219	0xbdb064b9	-0.08612961
220	0xbdc12e0e	-0.09432612
221	0xbe23e943	-0.16006951
222	0x3f12ce7e	0.5734633
223	0xbdd485d2	-0.10377087
224	0x3e8292a0	0.2550249
225	0x3d65e6c0	0.056128263
226	0x3e59fedd	0.21288629
227	0x3c3ac4b6	0.011399439
228	0xbf4d0910	-0.80091953
229	0xbea5f75d	-0.32415286
230	0xbb61ffc9	-0.0034484735
231	0xbb7d8e30	-0.0038689487
232	0xbe712f55	-0.23553212
233	0xbee46592	-0.44608742
234	0xbf518947	-0.81850094
235	0x3e9617dd	0.2931508
236	0xbe80a8ea	-0.2512887
237	0x3e847187	0.25867864
238	0xbe91d63d	-0.28483763
239	0x3eb2a685	0.3489267
240	0x3f5cdd40	0.862751
241	0x3dbd9153	0.09256234
242	0xbdbacbc2	-0.09120895
243	0xbe74cb3e	-0.23905656
244	0x3e600f3b	0.2188081
245	0x3f8ad37e	1.0845792
246	0x3f90db0a	1.1316845
247	0xbe3b5dec	-0.18297547
248	0x3eda0320	0.4258051
249	0x3e10c4a0	0.14137506
250	0xbe7dd2b6	-0.24787411
251	0xbea91fe8	-0.33032155
252	0x3f11f776	0.5701822
253	0xbe1afef0	-0.15136313
254	0x3e96be8f	0.2944226
255	0x3d8d3cbe	0.06896351

critic.0.bias f4 [64]
0	0xbda84b6d	-0.08217511
1	0xbe177eaf	-0.1479442
2	0x3e072b48	0.13200104
3	0x3de463fb	0.11151882
4	0x3ebf42b3	0.37355575
5	0x3a9608ca	0.0011446711
6	0x3e2ca4b2	0.16859701
7	0x3e179de2	0.14806321
8	0x3d4cf266	0.050035857
9	0xbefc7da4	-0.49314606
10	0x3e8f4ba8	0.2798741
11	0xbe452e32	-0.19255903
12	0xbd6cbd3e	-0.057797663
13	0x3ea4c0cd	0.32178345
14	0x3e15a25f	0.14612721
15	0xbe8604a2	-0.2617541
16	0xbe13bb09	-0.14426817
17	0xbe9362cb	-0.2878631
18	0xbe98fa98	-0.29878688
19	0x3ec88c28	0.3916943
20	0xbe293216	-0.16523013
21	0xbea893ab	-0.32925162
22	0x3e84f0f3	0.2596508
23	0xbe9d9354	-0.30776465
24	0xbde797f5	-0.113082804
25	0x3dd7b235	0.10532037
26	0xbea6fd0e	-0.3261494
27	0x3de34495	0.11097065
28	0x3e97b6a2	0.29631525
29	0x3e6ba97f	0.23013876
30	0xbe5944ce	-0.21217653
31	0xbc6645a1	-0.014054687
32	0x3d975c62	0.073906675
33	0xbe8b2840	-0.27179146
34	0x3da1c017	0.07897966
35	0x3d340e63	0.043959033
36	0x3d1cf5ce	0.038320355
37	0xbe1e3f8b	-0.15453927
38	0x3e9babb1	0.30404428
39	0x3eb7bdb3	0.35886917
40	0x3d5361af	0.05160683
41	0xbe5342b5	-0.20630915
42	0x3eae4bf4	0.34042323
43	0xbe985c11	-0.2975774
44	0x3e382aaf	0.17985032
45	0x3eb77b8e	0.35836452
46	0xbeb9f0e1	-0.3631659
47	0x3d78c9b6	0.06073924
48	0x3e97fd30	0.29685354
49	0x3e92aa42	0.2864552
50	0x39d1d951	0.000400255
51	0x3e52113a	0.20514384
52	0x3ee09982	0.43867117
53	0xbbe7ec5e	-0.0070777377
54	0x3e090758	0.13381708
55	0xbe6b6747	-0.22988616
56	0xbe5d71fb	-0.21625511
57	0xbe9aea52	-0.30256897
58	0xbdae4729	-0.085096665
59	0x3d60a0bf	0.0548408
60	0x3e1b1c65	0.1514755
61	0xbdd62469	-0.104561634
62	0xbe43644a	-0.19081226
63	0xbecc8445	-0.39944664
