PPO/PPO3_Trained/PPO_DoubleInvPendulum_800K.pth (torch, 410281 bytes, 18 tensors)

actor.0.weight f4 [128, 6]
0	0x3f00ff0a	0.5038916
1	0x3ea9966b	0.33122572
2	0xbb7f42f8	-0.0038949829
3	0x3ef4db19	0.47823408
4	0x3f92634f	1.1436557
5	0xbd767bdc	-0.060176715
6	0xbec208e2	-0.37897402
7	0xbe17b367	-0.1481453
8	0x3eab85f9	0.3350065
9	0xbeca5326	-0.39516562
10	0xbf963475	-1.1734759
11	0x3ef5135f	0.4786634
12	0xbf80a376	-1.0049884
13	0x3d84ac4c	0.064781755
14	0xbe9c9bae	-0.30587524
15	0xbe80fe3c	-0.25193965
16	0xbf88fec1	-1.0702745
17	0x3f82cd1a	1.0218842
18	0xbf2dfcde	-0.6796397
19	0xbe92f9bc	-0.28706157
20	0xbde200b6	-0.11035292
21	0xbdda9d8d	-0.10674582
22	0xbfa5c1d5	-1.2949778
23	0x3e56dfd0	0.20983815
24	0xbf6f94eb	-0.93586606
25	0x3e82aaa9	0.25520828
26	0xbecb6998	-0.39729
27	0xbe958305	-0.29201522
28	0xbf81bed1	-1.0136358
29	0x3ed756d1	0.42058423
30	0xbf4963ce	-0.78667915
31	0xbe9de080	-0.30835342
32	0x3db5c691	0.08875764
33	0xbf33a328	-0.7017083
34	0xbf916383	-1.1358494
35	0x3e8f4619	0.27983168
36	0x3eba9dd3	0.36448535
37	0x3e21feee	0.15819904
38	0x3df1c2e6	0.11804752
39	0xbe982796	-0.29717702
40	0x3f1cb2f5	0.61210567
41	0xbf3df15e	-0.7419642
42	0xbf56293b	-0.8365666
43	0x3d1ca424	0.038242474
44	0x3e4c7f4a	0.19970432
45	0x3e0f6bfc	0.14006037
46	0xbf86d6e5	-1.0534331
47	0x3ea29794	0.3175627
48	0xbf7aad3c	-0.97920585
49	0xbe911d1f	-0.2834253
50	0x3e759d95	0.23985894
51	0xbf508e31	-0.81466967
52	0xbfa9f1e9	-1.327695
53	0xbd823b1d	-0.06358931
54	0x3d391d6f	0.045194086
55	0xbe40250e	-0.18764135
56	0xbdb23000	-0.087005615
57	0xbd99bf31	-0.0750717
58	0x3edf7610	0.43644762
59	0xbef5ef52	-0.4803415
60	0x3f26cbc4	0.6515467
61	0xbe6948b5	-0.22781642
62	0xbd308287	-0.04309323
63	0x3de64029	0.11242706
64	0x3f8cbf6a	1.0995915
65	0xbf073df3	-0.528289
66	0x3f91d5cb	1.139337
67	0x3e1d5ee7	0.15368234
68	0xbe6e822c	-0.23291844
69	0x3f202e92	0.6257106
70	0x3f9a9c0b	1.207887
71	0xbebeeb1c	-0.3728875
72	0xbde4f72d	-0.111799575
73	0x3df042a2	0.11731459
74	0xbe90eeba	-0.28307134
75	0x3e611974	0.21982366
76	0xbf40a08f	-0.7524499
77	0x3eed633e	0.46364778
78	0x3f997e7b	1.1991724
79	0xbcbd1739	-0.023082362
80	0x3d1ccb4f	0.038279828
81	0x3f4e9873	0.8070137
82	0x3fc0faa7	1.5076493
83	0xbca85b4e	-0.02055135
84	0x3d98cd69	0.07461054
85	0x3eb27397	0.34853813
86	0xbe9e391a	-0.3090294
87	0x3e2b4194	0.16724235
88	0x3f6fc161	0.9365445
89	0xbd1bd4a8	-0.0380446
90	0x3dde0c60	0.10842204
91	0xbe1e58b9	-0.15463533
92	0x3e2cd57a	0.1687831
93	0x3f2656a8	0.64975977
94	0x3f52d052	0.8234912
95	0xbf0e3f8c	-0.55565715
96	0x3f25d7a2	0.64782155
97	0xbeb689d8	-0.3565204
98	0x3e14ab54	0.14518481
99	0x3f47685a	0.778936
100	0x3f80db1b	1.0066866
101	0xbb0a0f40	-0.0021066219
102	0xbea6584e	-0.32489246
103	0x3e83b93d	0.25727263
104	0x3df17eee	0.11791788
105	0xbf1a44e5	-0.60261375
106	0xbf8453b2	-1.0338042
107	0x3f06d8fe	0.52674854
108	0xbe5213a1	-0.205153
109	0xbd6fa2ed	-0.058504988
110	0xbc75c60f	-0.015000834
111	0xbdfb35ee	-0.12266146
112	0xbe8f5701	-0.27996066
113	0xbeca3b14	-0.39498198
114	0xbe133533	-0.14375763
115	0xbe297e34	-0.16552049
116	0x3d58976c	0.052878782
117	0x3f01115f	0.5041713
118	0xbf3a8501	-0.728592
119	0x3eb7b0bf	0.35877034
120	0xbfa7c481	-1.3106843
121	0x3e5d5919	0.2161602
122	0xbe26fa33	-0.16306381
123	0xbf034e0a	-0.51290953
124	0xc0007255	-2.0069783
125	0x3f8ced10	1.1009846
126	0xbc18ba05	-0.009321694
127	0xbe9f5b05	-0.3112413
128	0xbdd459d5	-0.103686966
129	0xbd18d5d8	-0.037313312
130	0x3f15c243	0.58499545
131	0xbbc530c7	-0.0060177776
132	0x3e4d589a	0.2005333
133	0xbe516085	-0.20446976
134	0xbe61109c	-0.21978992
135	0x3e1fce31	0.15606
136	0xbf2eeb80	-0.68328094
137	0x3f2aced7	0.6672186
138	0xbf1fd632	-0.6243621
139	0xbddb75e6	-0.10715847
140	0xbe8b7b8b	-0.27242693
141	0xbe0ad3f0	-0.1355741
142	0xbf9ec256	-1.2403057
143	0x3cae6de8	0.021292642
144	0xbe8e52ad	-0.27797452
145	0x3e8190be	0.25305742
146	0xbe125889	-0.14291586
147	0xbc40a850	-0.011758879
148	0xbf1a0213	-0.60159415
149	0x3e943ba7	0.2895176
150	0x3f2a6be5	0.66570884
151	0x3e5e19b7	0.21689497
152	0xbeb466b1	-0.35234597
153	0x3f59b928	0.8504815
154	0x3f9a6899	1.2063171
155	0xbde08051	-0.109619744
156	0xbf667028	-0.90014887
157	0x3e7648ab	0.24051158
158	0xbea109b3	-0.31452712
159	0xbdad8649	-0.084728785
160	0xbfac784d	-1.3474213
161	0x3f747910	0.95497227
162	0xbf105af9	-0.56388813
163	0xbe5b21ed	-0.2139966
164	0xbd6d182c	-0.05788438
165	0xbe8b9a3f	-0.27266118
166	0xbfcb083b	-1.5861887
167	0x3d880bd7	0.06642883
168	0xbf086a8a	-0.53287566
169	0xba228563	-0.0006199686
170	0x3e10fc59	0.14158763
171	0xbd01cb18	-0.031687826
172	0xbf76f90c	-0.96473765
173	0x3eba70de	0.36414236
174	0x3e06250a	0.13100067
175	0xbe317fa8	-0.17333853
176	0x3e3d001e	0.18457076
177	0x3eae404f	0.3403344
178	0x3f3a5637	0.72787803
179	0xbeb7bd1d	-0.3588647
180	0xbedd418e	-0.43214077
181	0xbcbc0c6f	-0.022955148
182	0xbea076bf	-0.31340596
183	0xbe99234c	-0.29909742
184	0xbfb65de2	-1.4247401
185	0x3f20bcbb	0.6278798
186	0x3f5188c7	0.8184933
187	0xbdac7705	-0.08421139
188	0x3ea89a9a	0.32930452
189	0x3f3048d1	0.6886111
190	0x3f85d5ed	1.045591
191	0xbe74c640	-0.23903751
192	0x3f14b178	0.58083296
193	0x3e236196	0.15955195
194	0xbe8f4359	-0.2798107
195	0x3f021e92	0.50827897
196	0x3f644c8e	0.89179313
197	0x3e6f7930	0.23386073
198	0xbee442c9	-0.44582203
199	0xbe05f99e	-0.13083503
200	0x3e558fc9	0.20855631
201	0x3cead8eb	0.028667888
202	0x3e68f4d9	0.22749652
203	0xbf223a9b	-0.63370675
204	0x3d54f345	0.051989812
205	0xbe232c2d	-0.1593482
206	0x3e0ac067	0.13549958
207	0xbecbb879	-0.3978918
208	0x3dd45ab5	0.103688635
209	0xbe3b26a2	-0.18276456
210	0xbf8d968b	-1.1061567
211	0x3eac6952	0.33674103
212	0xbea7efb9	-0.3280008
213	0xbf4ff494	-0.8123257
214	0xbf9f3d0c	-1.2440505
215	0xbe08bf7b	-0.13354294
216	0xbd58bd62	-0.052914985
217	0xbd5a5afe	-0.053309433
218	0x3e0b24e0	0.13588285
219	0xbc61a4b4	-0.013772178
220	0xbf7f64a9	-0.9976297
221	0x3f11b531	0.569171
222	0x3f2c9915	0.67421085
223	0xbd12d4ad	-0.035847355
224	0x3eba5a9c	0.36397254
225	0x3eb51770	0.35369444
226	0x3fa47628	1.2848558
227	0xbefb643b	-0.49099907
228	0x3f22058b	0.6328971
229	0x3d8b1e7d	0.067929246
230	0xbd577f09	-0.052611385
231	0x3f4e8bf2	0.8068229
232	0x3f9203b8	1.1407385
233	0xbcb094e9	-0.02155538
234	0xbdc1acc9	-0.09456784
235	0xbe909b56	-0.28243512
236	0x3e7fdbbc	0.24986166
237	0xbeb03d56	-0.34421796
238	0xbf311b1a	-0.6918198
239	0x3ed61435	0.41812292
240	0xbf6769d7	-0.90395874
241	0x3e133bd7	0.14378296
242	0xbe574099	-0.21020736
243	0xbf086f04	-0.53294396
244	0xbf9347a2	-1.1506236
245	0x3f153540	0.5828438
246	0xbf59d978	-0.85097456
247	0xbd87f1d5	-0.06637923
248	0xbe7c882b	-0.24661319
249	0xbe490d1f	-0.19633912
250	0xbf9cc3b7	-1.2247227
251	0x3e917a73	0.28413734
252	0x3f8a7515	1.0816981
253	0xbd939f48	-0.07208115
254	0x3e8e485a	0.27789575
255	0x3f1f368d	0.6219261

actor.0.bias f4 [128]
0	0xbe481db8	-0.19542587
1	0xbec3b0db	-0.38220868
2	0xbda5e5d6	-0.08100478
3	0x3e6fb58b	0.23409097
4	0x3e498324	0.19678932
5	0x3e99a270	0.30006742
6	0x3e9cb9f9	0.30610636
7	0xbd21f774	-0.03954263
8	0xbe0446bb	-0.12917607
9	0x3c7c7181	0.015407921
10	0x3e5065e8	0.20351374
11	0x3e44fe28	0.19237578
12	0xbe8cfdd4	-0.27537405
13	0x3dc5551a	0.096353725
14	0xbce5f013	-0.028068578
15	0xbc9093d1	-0.01764861
16	0x3ea3a8f5	0.3196484
17	0x3e641eed	0.22277422
18	0x3e3fba3b	0.18723385
19	0x3e05ed60	0.13078833
20	0xbe257c28	-0.16160643
21	0xbdf16b56	-0.11788051
22	0x3e89ae9a	0.26891023
23	0xbc109cda	-0.008826459
24	0xbe663968	-0.22482836
25	0x3e88d307	0.267235
26	0x3cc8da1a	0.024518061
27	0x3e35970f	0.17733406
28	0xbdb34fa9	-0.08755428
29	0x3d60d0c9	0.054886613
30	0x3e99ccda	0.30039102
31	0x3cd60f57	0.026130361
32	0xbdb3a225	-0.08771161
33	0xbd2ce935	-0.04221459
34	0x3df79756	0.12089412
35	0xbe4d3598	-0.20039976
36	0xbd3742d1	-0.044741455
37	0xbe2b521a	-0.16730538
38	0x3e35a6e0	0.17739439
39	0x3e3a830b	0.18214051
40	0xbe262498	-0.16224897
41	0x3d89cd3c	0.067285985
42	0xbe0613f6	-0.13093552
43	0xbe0e78c0	-0.1391325
44	0x3dbf198d	0.09331045
45	0xbe00530c	-0.1253168
46	0x3e901499	0.28140715
47	0xbe7d2185	-0.24719818
48	0x3d32d096	0.043655954
49	0xbe8c266f	-0.27373073
50	0xbdf99181	-0.12185956
51	0xbec96e7a	-0.393421
52	0x3d7f90ec	0.062394068
53	0x3db60b14	0.08888832
54	0x3e6726fe	0.22573468
55	0xbd06b12a	-0.0328838
56	0xbe959986	-0.29218692
57	0xbea5fb38	-0.32418227
58	0xbdc882bf	-0.09790563
59	0xbe0fdfc7	-0.14050208
60	0x3ef2d7a1	0.47430137
61	0xbe5433de	-0.20722911
62	0x3ddec2f3	0.10877027
63	0x3c04b38c	0.008099448
64	0xbeb757e0	-0.3580923
65	0x3ec289d0	0.37995768
66	0x3dc0de9d	0.0941746
67	0xbd6f0b90	-0.058360636
68	0x3e5c63a2	0.21522382
69	0x3e117a92	0.14206913
70	0xbebc497a	-0.36774808
71	0x3ec1b83e	0.37835878
72	0xbeae3bb7	-0.34029934
73	0xbea7fdab	-0.3281072
74	0x3dcaf710	0.09910405
75	0x3e7d96dc	0.2476458
76	0xbecadd38	-0.39621902
77	0x3eae5e91	0.34056523
78	0xbc1ae05d	-0.009452906
79	0x3cdb6a83	0.026784187
80	0x3e61d64e	0.22054407
81	0xbe38a799	-0.18032683
82	0x3e122a4b	0.14273946
83	0xbd1c0bf8	-0.03809735
84	0xbe4fad5c	-0.20280975
85	0xbc4d0492	-0.012513297
86	0x3e7bed95	0.24602349
87	0x3e399f2f	0.1812713
88	0xbca0c576	-0.019625407
89	0x3e32fc45	0.17479046
90	0xbe49dcca	-0.1971313
91	0x3e55c122	0.20874456
92	0xbdb172de	-0.08664487
93	0x3e0213d2	0.12702873
94	0x3e6f7cd7	0.23387466
95	0x3e4c6c59	0.19963206
96	0x3c866223	0.016404217
97	0xbd758134	-0.05993767
98	0x3d30c653	0.043157887
99	0x3e8792f5	0.26479307
100	0x3d57e95a	0.052712776
101	0x3e1ac9d7	0.15116058
102	0x3e1550c4	0.14581591
103	0xbe691eaf	-0.22765611
104	0x3eadb7a4	0.3392917
105	0x3e4a43c9	0.1975242
106	0xbccf6d74	-0.025320746
107	0xbe8d4c6d	-0.2759737
108	0x3ddb1a9d	0.106984355
109	0x3dfa46e0	0.122205496
110	0xbe84e9e0	-0.25959682
111	0x3d886670	0.066601634
112	0xbd5766b9	-0.0525882
113	0xbe4b56f6	-0.19857392
114	0x3e48c637	0.19606863
115	0xbd329081	-0.04359484
116	0xbc8b8d69	-0.017035203
117	0xbe3f61cd	-0.18689652
118	0xbe00e5be	-0.1258764
119	0x3cdb0b20	0.026738703
120	0x3dd7fff2	0.105468646
121	0xbe49e0c1	-0.19714643
122	0xbe7389f7	-0.23783098
123	0x3cc8ca88	0.024510637
124	0x3eb0129e	0.34389204
125	0x3e17cd91	0.14824511
126	0xbd509cce	-0.05093079
127	0x3e6a49b7	0.22879682

actor.2.weight f4 [128, 128]
0	0xbcf433cb	-0.029809853
1	0xbe082f9f	-0.13299416
2	0xbc91201e	-0.01771551
3	0xbdce8ef6	-0.100858614
4	0xbce9eaf9	-0.028554427
5	0xbe7100e1	-0.23535492
6	0xbd27f72e	-0.041007213
7	0x3da533aa	0.08066495
8	0xbe035a7e	-0.12827489
9	0xbc3258fc	-0.010885473
10	0x3d69f51d	0.057118524
11	0x3f1f17fc	0.6214597
12	0x3d161cf3	0.036648702
13	0x3eb2975b	0.348811
14	0xbd13fe18	-0.036130995
15	0x3d0c3b6b	0.034236353
16	0xbb22990f	-0.0024810468
17	0xbcbde5e3	-0.023180908
18	0xbd807c08	-0.06273657
19	0x3c7c3696	0.015393874
20	0xbf20c8b8	-0.6280627
21	0x3d5d9753	0.054099392
22	0x3d1d5600	0.038412094
23	0x3d4ad947	0.049523618
24	0x3b5feecc	0.0034169434
25	0x3eedd77c	0.46453464
26	0xbddbd3e4	-0.10733774
27	0xbd46aa19	-0.04850206
28	0x3bbac973	0.005700284
29	0x3d006be1	0.03135288
30	0xbd103553	-0.035207104
31	0x3d590736	0.052985393
32	0x3d83b703	0.06431391
33	0xbd869a65	-0.06572417
34	0xbb8e1834	-0.0043363813
35	0xbe49614c	-0.19666022
36	0x3d76daa7	0.060267117
37	0x3bd19e8b	0.0063970736
38	0x3d314729	0.043280754
39	0xbd4f7a66	-0.050653838
40	0x3d3c92d6	0.04603847
41	0x3d82c0bd	0.06384418
42	0xbd229333	-0.03969116
43	0x3db5eceb	0.08883079
44	0xbd566ad7	-0.052347984
45	0xbdb09cd3	-0.08623662
46	0x3d081cbb	0.033230525
47	0x3cf7c8c2	0.030247096
48	0x3dac50f2	0.084138766
49	0xbe103fb9	-0.14086808
50	0xbdb1e36f	-0.08685958
51	0xbe52ceac	-0.20586652
52	0x3c55e9ab	0.013056199
53	0xbd8efdd0	-0.06982005
54	0xbc9074d6	-0.017633837
55	0x3d811663	0.06303098
56	0xbc22689f	-0.009912639
57	0x3bbf14e1	0.0058313464
58	0xbdaa041d	-0.08301566
59	0x3e002d6d	0.12517329
60	0xbbc6ac14	-0.006062994
61	0xbc332933	-0.010935116
62	0xbdbce396	-0.09223096
63	0x3d57b9b6	0.052667342
64	0xbc5b32cf	-0.013378813
65	0x3c69a544	0.014260594
66	0x3c2e0b1f	0.010622769
67	0xbceebaad	-0.029141748
68	0xbd2d94d1	-0.04237825
69	0x3d034157	0.032044735
70	0xbd0d4abb	-0.034495097
71	0x3d54794a	0.051873483
72	0xbda7e997	-0.081988506
73	0xbdcc7997	-0.09984129
74	0x3e6007a8	0.2187792
75	0xbd892723	-0.06696918
76	0xbdfb127a	-0.122593835
77	0x3dd0fcff	0.10204505
78	0xbd7ca4ca	-0.061680593
79	0xbd844be9	-0.06459791
80	0xbd6ebf1e	-0.058287732
81	0x3c8c9c23	0.017164296
82	0x3c31e5bf	0.010857998
83	0x3d3b8aba	0.045786597
84	0xbd491254	-0.049089745
85	0x3bbb1efc	0.0057104807
86	0x3d76f18d	0.060288955
87	0xbdac0c33	-0.08400764
88	0xbc84b79a	-0.01620083
89	0xbd1e9e7e	-0.03872537
90	0x3d174a7d	0.036936272
91	0xbe08ad40	-0.1334734
92	0x3d25dcd6	0.04049381
93	0xbdb37c61	-0.08763958
94	0x3d8dabae	0.06917511
95	0xbd0b1471	-0.03395504
96	0xbcdca93a	-0.026936162
97	0xbd990426	-0.074714944
98	0x3d8167ec	0.0631865
99	0xbc6c95c3	-0.014440003
100	0x3c0d000f	0.008605971
101	0x3c213668	0.009839632
102	0xbd2bd37d	-0.041949738
103	0x3d2d3df1	0.0422954
104	0xbe1c4b40	-0.1526308
105	0x3e338311	0.17530467
106	0xbdb1a679	-0.0867433
107	0xbd1f557c	-0.038899884
108	0x3da31b34	0.07964173
109	0x3dca2449	0.09870202
110	0xbd20de4e	-0.039274506
111	0xbda44931	-0.08021773
112	0xbd87cf44	-0.0663133
113	0x3d80f1fd	0.062961556
114	0x3c7a0e70	0.015262231
115	0xbd9bf914	-0.07615867
116	0x3ca9e66b	0.020739755
117	0x3ce78298	0.028260514
118	0xbd30568d	-0.04305129
119	0xbd1046d9	-0.035223816
120	0xbde9fcaf	-0.11425149
121	0xbc82dd0f	-0.01597455
122	0x3d897472	0.06711663
123	0x3e209ac1	0.15684034
124	0x3d1deb76	0.03855463
125	0x3e567a03	0.20944981
126	0xbdac0290	-0.08398926
127	0xbc6bcd89	-0.014392265
128	0xbc78b4ad	-0.015179795
129	0x3dfacac7	0.12245708
130	0x3d8cdc09	0.06877906
131	0xbd04b36e	-0.03239768
132	0xbc97c09c	-0.01852446
133	0x3e056d45	0.13029964
134	0x3d924dd7	0.07143753
135	0x3d9e83b5	0.07739965
136	0x3d995afb	0.07488056
137	0xbd8bb516	-0.06821649
138	0x3d8d3511	0.06894887
139	0xbf0337cf	-0.5125703
140	0x3d8cf59f	0.06882786
141	0xbe04f7dd	-0.12985177
142	0x3d34852a	0.044072308
143	0xbce07085	-0.027397403
144	0xbda54c6f	-0.08071219
145	0xbc95e710	-0.018298656
146	0x3ce491ed	0.027901614
147	0x3e0e812f	0.13916467
148	0x3f42995f	0.76015276
149	0x3d78c866	0.06073799
150	0xbc1f8bc6	-0.009737914
151	0x3d032a44	0.03202273
152	0xbc1c48fa	-0.009538883
153	0xbe64998d	-0.223242
154	0x3dbb035a	0.09131499
155	0xbd31013f	-0.04321408
156	0xbcd7ee4e	-0.02635875
157	0x3b60bec2	0.0034293388
158	0x3c300a60	0.010744661
159	0xbccdc205	-0.02511693
160	0xbd26e0aa	-0.0407416
161	0xbdcc375f	-0.09971499
162	0x3c775a82	0.015097262
163	0x3d6e2576	0.058141194
164	0xbd131eab	-0.03591792
165	0x3d051bc4	0.032497182
166	0x3ccc5a12	0.024945293
167	0xbcaf990a	-0.02143528
168	0x3d10af8f	0.035323676
169	0x3dafb79a	0.08579941
170	0xbd8e47ae	-0.069472656
171	0xbd864ba5	-0.06557397
172	0x3db3e359	0.087835975
173	0x3d69571f	0.05696785
174	0x3d841976	0.06450169
175	0x3dbdd0b3	0.09268322
176	0xbdb0c356	-0.086310074
177	0xbe3703e9	-0.17872585
178	0x3c6c5325	0.01442412
179	0xbd9fc86c	-0.07801899
180	0x3bddb055	0.006765405
181	0xbc297849	-0.01034362
182	0xbda78e4e	-0.08181439
183	0xbd177a17	-0.03698167
184	0xbd3a002c	-0.04541032
185	0xbda84d34	-0.0821785
186	0xbc345e9d	-0.011008886
187	0xbd27cc60	-0.04096639
188	0xbc9610ff	-0.018318651
189	0x3ddd4686	0.10804467
190	0xbc9bbeb6	-0.019011836
191	0x3e138f2a	0.14410082
192	0xbdeec0c0	-0.11657858
193	0x3db3601e	0.08758567
194	0xbd42859e	-0.04749071
195	0x3c932972	0.017964099
196	0x3d6008eb	0.054696005
197	0xbd91bfbc	-0.071166486
198	0x3ce6a902	0.028156761
199	0x3d5434a9	0.051808033
200	0xbd9ffca1	-0.07811857
201	0x3b44dfb4	0.0030040564
202	0x3e39d3fb	0.1814727
203	0xbd9d497d	-0.076800324
204	0x3d9512f1	0.072790034
205	0x3c810d4f	0.015753416
206	0x3c7aea07	0.0153145855
207	0x3d7dacd2	0.061932392
208	0x3d3614da	0.04445348
209	0xbd8e1a40	-0.069386005
210	0x3c76639d	0.015038398
211	0xbe0610e3	-0.1309238
212	0xbd115ba1	-0.035487775
213	0xbd315b38	-0.043299884
214	0xbd4fed24	-0.050763264
215	0x3d35ad78	0.044354886
216	0xbd4c5c7f	-0.0498929
217	0xbd0d4a11	-0.034494463
218	0xbd3abf52	-0.045592614
219	0x3c530fbe	0.012882171
220	0xbc0e2302	-0.008675339
221	0x3cb26c13	0.02178005
222	0xbd16364c	-0.036672875
223	0xbda08083	-0.07837012
224	0xbd9e9268	-0.077427685
225	0x3d118947	0.03553131
226	0xbd93928a	-0.072056845
227	0xbc1bbd2c	-0.009505551
228	0x3c239467	0.009984112
229	0x3cf05dc1	0.02934158
230	0xbe0e124f	-0.13874172
231	0x3d7d4b57	0.061839428
232	0x3cb98b1e	0.022649344
233	0x3d51594e	0.05111056
234	0x3d31cbb1	0.043407146
235	0x3d825b80	0.063651085
236	0x3d186ff4	0.03721614
237	0xbde4cd73	-0.11171999
238	0x3d88a759	0.06672544
239	0x3c9bbaa8	0.019009903
240	0x3cc573f2	0.024103139
241	0xbd838fef	-0.064239375
242	0x3db29402	0.087196365
243	0xbcb9e306	-0.022691261
244	0xbda91b01	-0.08257104
245	0xbccdfcf9	-0.02514504
246	0x3d28b3e6	0.04118719
247	0x3d927c9c	0.071526736
248	0x3b56676c	0.0032715453
249	0xbd14db84	-0.03634216
250	0x3cbb43c7	0.022859467
251	0x3a397f30	0.00070761424
252	0x3da60d14	0.08107963
253	0xbd82fa27	-0.06395369
254	0x3c8931dc	0.016747408
255	0xbc1d602e	-0.009605451

actor.2.bias f4 [128]
0	0xbd21f0c4	-0.039536253
1	0x3cc8801d	0.024475152
2	0x3ca18c73	0.019720292
3	0x3bad9054	0.0052967463
4	0xbd1d790e	-0.038445525
5	0xbcc5ceb6	-0.024146419
6	0x3c5aca5a	0.013353908
7	0x3da0007b	0.07812592
8	0x3cdd2942	0.026997212
9	0xbba909ed	-0.005158654
10	0xba0fd8d0	-0.00054873247
11	0x3dc284e2	0.09498002
12	0x3dabbfab	0.08386167
13	0x3da3757e	0.07981394
14	0xbca83c2d	-0.020536507
15	0x3d09b882	0.033623226
16	0x3d712e0e	0.05888181
17	0xbd68b5db	-0.056814056
18	0x3d0bdd45	0.034146566
19	0x3dc4d61b	0.0961115
20	0xbd5b3319	-0.053515527
21	0x3dc3958d	0.09550009
22	0xbd83b4ec	-0.064309925
23	0xbb9f1f2f	-0.0048560123
24	0xbd15016e	-0.036378317
25	0xbca42a53	-0.020039713
26	0x3d448b66	0.047984503
27	0x3d9df97e	0.077136025
28	0xbd29651e	-0.0413562
29	0x3cfc764c	0.030818127
30	0x3d8eb003	0.06967165
31	0x3d9c6e06	0.07638173
32	0xbd580b41	-0.052745108
33	0xbc93a67c	-0.018023722
34	0x3d06b1c1	0.032884363
35	0xbcf86237	-0.03032027
36	0x3d87e4b8	0.066354215
37	0xbdb0745d	-0.086159445
38	0x3cfceb16	0.030873816
39	0xbd6ab569	-0.057301912
40	0x3cbeeb7c	0.023305647
41	0xbd25157e	-0.0403037
42	0x3ccb820a	0.02484228
43	0xbcb033dc	-0.021509103
44	0x3db5b24b	0.08871897
45	0x3d9285d8	0.07154435
46	0xbd4fa6da	-0.05069623
47	0xbc05c4a6	-0.00816456
48	0x3da46009	0.0802613
49	0xbcd5730e	-0.026055839
50	0x3d979853	0.074021004
51	0xbc0f3511	-0.008740679
52	0x3d7347a6	0.0593945
53	0x3d6e8d4e	0.058240227
54	0xbd594939	-0.053048346
55	0xbc43a9ff	-0.011942386
56	0x3de2fe21	0.110836275
57	0x3d91505c	0.070954055
58	0x3d90f4bd	0.0707793
59	0x3d845d31	0.06463087
60	0x3d3eed96	0.0466133
61	0x3c096638	0.008386187
62	0xbda557b6	-0.0807337
63	0xbd146199	-0.03622589
64	0x3d866352	0.065619126
65	0x3c4162f7	0.01180338
66	0xbd076c69	-0.033062372
67	0xbdaa63ca	-0.083198145
68	0xbc09b335	-0.008404543
69	0x3dbe62dd	0.092962004
70	0x3dbb2943	0.091387294
71	0x3d2c8537	0.04211923
72	0x3c3171a7	0.0108303195
73	0xba80573f	-0.0009791626
74	0x3c259890	0.0101071745
75	0x3d4233b3	0.047412585
76	0xbd853dbd	-0.06505916
77	0x3d111d95	0.035428602
78	0x3d158c8b	0.036510985
79	0xbc950744	-0.018191941
80	0xbd77e22b	-0.060518425
81	0x3a92818f	0.0011177527
82	0xbbd94664	-0.0066307057
83	0x3cf8b3d1	0.03035918
84	0x3d426593	0.04746015
85	0x3bb87758	0.0056294613
86	0x3c100778	0.008790843
87	0x3c8ce2bc	0.01719796
88	0x3d9b3b21	0.07579637
89	0xbcd19c78	-0.025587305
90	0x3d4c96f5	0.04994865
91	0xbc11f16c	-0.008907657
92	0xbc9ff417	-0.01952557
93	0x3dd3ad6a	0.103358105
94	0xbd2e9f45	-0.04263236
95	0xbc0443fd	-0.00807285
96	0x3cf3f774	0.02978108
97	0x3da1fc20	0.07909417
98	0x3d157240	0.03648591
99	0x3b4db7e2	0.003139012
100	0xbd9b6e02	-0.07589342
101	0x3c99662c	0.018725477
102	0xbdc873b5	-0.09787694
103	0xbcc128af	-0.02357897
104	0x3cbb1557	0.022837324
105	0x3d1485c3	0.036260378
106	0xbd6a856d	-0.05725615
107	0xbd0a4e2d	-0.03376596
108	0xbc48c137	-0.012253097
109	0x3d74b0a4	0.05973877
110	0x3dac0888	0.08400065
111	0x3d7216b1	0.05910367
112	0xbd8d0d60	-0.06887317
113	0xbd3c4fea	-0.04597465
114	0x3cb263ff	0.021776197
115	0x3c10de49	0.008842059
116	0x3bf28a35	0.0074017295
117	0x3d8864a4	0.06659821
118	0xbd47017b	-0.048585396
119	0xbd445fc5	-0.047942895
120	0xbd7b3983	-0.061334144
121	0x3d34a1b3	0.04409952
122	0x3cf51eee	0.029921975
123	0x3d8fb679	0.07017226
124	0xbbe51b57	-0.0069917846
125	0x3cfcb399	0.030847358
126	0x3da28db0	0.07937181
127	0xbc1a958b	-0.009435068

actor.4.weight f4 [128, 128]
0	0x3982e50f	0.00024966194
1	0xbd3e559d	-0.046468366
2	0xbd3816eb	-0.04494373
3	0xbcaddccd	-0.02122345
4	0x3e1c407a	0.15258971
5	0x3c7f93c8	0.015599199
6	0x3cac6506	0.021044265
7	0xbd5b0a38	-0.053476542
8	0xbd986d0e	-0.074426755
9	0x3d064410	0.032779753
10	0xbae04a0c	-0.0017111911
11	0xbc94a206	-0.018143665
12	0x3d21878b	0.039435904
13	0xbca500f6	-0.02014206
14	0xbd5bdcf8	-0.05367753
15	0x3d8dbcf0	0.069208026
16	0xba936729	-0.0011245954
17	0xbcc53582	-0.024073366
18	0x3da8895e	0.08229326
19	0x3d151099	0.036392782
20	0xbcc8e9bb	-0.024525514
21	0xbd007cb0	-0.03136891
22	0x3d5c779c	0.053825006
23	0x3c936375	0.01799176
24	0xbda0fa22	-0.07860209
25	0x3c67f969	0.014158585
26	0x3cdd9d3f	0.02705252
27	0x3b2f94c3	0.002679155
28	0xbdaba9f0	-0.083820224
29	0x3c15809f	0.009124904
30	0xbd432a8b	-0.047647994
31	0x3d443c97	0.047909345
32	0x3d6ba5c0	0.05753112
33	0xbdc1405e	-0.09436105
34	0x3d072aa9	0.03299967
35	0x3d0bee50	0.03416282
36	0x3c618bf0	0.013766274
37	0x3cca3dd5	0.024687687
38	0x3d76505f	0.06013524
39	0xbb018f00	-0.0019769073
40	0xbd21bb78	-0.039485425
41	0x3cfc4f74	0.030799605
42	0xbbbbaca5	-0.005727368
43	0x3d4e4202	0.05035592
44	0xbd7cf8fd	-0.06176089
45	0x3d03c321	0.03216851
46	0x3bb8e919	0.005643022
47	0x3e1dd551	0.15413405
48	0xbc6044f1	-0.013688312
49	0xbcefebfb	-0.029287329
50	0x3d892fea	0.06698592
51	0x3c9c477b	0.019077053
52	0x3dabc0f3	0.083864115
53	0xbd86010b	-0.06543168
54	0xbbba0897	-0.0056772935
55	0xbc09209c	-0.008369591
56	0xbd9bf6f1	-0.0761546
57	0xbd4033a5	-0.046924252
58	0xbd09d47e	-0.033649914
59	0x3cd5a07b	0.0260775
60	0xbc9cc0ae	-0.019134846
61	0xbb96190c	-0.0045806225
62	0xbd482595	-0.048863966
63	0xbdd8b3e2	-0.10581185
64	0x3d5ee39a	0.054416277
65	0xbcae3fc4	-0.02127064
66	0x3d7a7a33	0.061151695
67	0x3cd88654	0.02643124
68	0x3d8dcfe9	0.06924421
69	0x3d8c72c2	0.06857826
70	0x3dcc3b70	0.09972274
71	0x3b04af37	0.0020246038
72	0xbca84d04	-0.020544536
73	0xbca4cd22	-0.020117346
74	0xbd81adda	-0.06331988
75	0xbc8e5514	-0.017374553
76	0xbb9652c7	-0.0045875045
77	0xbce55701	-0.027995588
78	0xbca5799e	-0.020199593
79	0xbd74c074	-0.05975385
80	0xbca147e8	-0.019687608
81	0xbd605cb4	-0.05477591
82	0xbd63f062	-0.05564917
83	0x3df8822b	0.121342026
84	0x3d85281d	0.065017916
85	0xbcdafcab	-0.02673181
86	0x3de60e7e	0.11233233
87	0x3bfb41ce	0.0076677566
88	0x3d93542d	0.0719379
89	0x3abc6d75	0.0014375882
90	0xbd1db4f3	-0.038502645
91	0xbd8dada1	-0.06917883
92	0xbbed0d8c	-0.007234281
93	0xbd268388	-0.04065278
94	0x3c7f2a75	0.015574087
95	0xbda079f8	-0.07835764
96	0xbd88db0d	-0.066824056
97	0x3c0a6354	0.008446533
98	0xbccedfe0	-0.025253236
99	0xbc070b14	-0.008242387
100	0xbb486ecf	-0.0030583625
101	0xbd12be72	-0.035826154
102	0xbd00eecc	-0.031477734
103	0xbd3e3137	-0.046433654
104	0xbc055315	-0.008137484
105	0x3d9cedf1	0.07662571
106	0xbd0f69ae	-0.035012893
107	0xbd0a936e	-0.033832006
108	0x3dd24b03	0.102682136
109	0x3d57939c	0.052631006
110	0xbc6dcb34	-0.014513779
111	0xbd14133e	-0.036151163
112	0xbd4cbaaf	-0.049982723
113	0x3d8168b8	0.06318802
114	0xbd0604a9	-0.032719288
115	0x3ca5108c	0.020149492
116	0x3c919ef2	0.017775986
117	0x3d273b02	0.04082776
118	0x3d7ee5a9	0.06223074
119	0x3cf99041	0.030464293
120	0xbd8153e2	-0.063148275
121	0x3c925a85	0.017865429
122	0xbc598ac7	-0.013277716
123	0x3b52b231	0.0032149667
124	0x3d828d3a	0.06374593
125	0x3ce0a36d	0.027421677
126	0xbcf6ef66	-0.030143451
127	0xbca40e07	-0.02002622
128	0xbd7b0425	-0.06128325
129	0x3bae53f2	0.0053200657
130	0xbbb860a9	-0.005626757
131	0x3bc1a4d2	0.0059095407
132	0x3e86638f	0.26247832
133	0x3d67112a	0.056412853
134	0xbbd10c81	-0.0063796644
135	0xbd5f4dca	-0.054517545
136	0x3d263974	0.040582135
137	0x3d5cbab1	0.05388898
138	0x3da7aa34	0.081867605
139	0xbb70eab2	-0.0036760983
140	0xbc1ee16f	-0.009697302
141	0xbcef9a29	-0.029248314
142	0xbd9805f4	-0.074230105
143	0x3c5fc3a6	0.013657486
144	0x3c0a9ee4	0.008460734
145	0x3cb94c5a	0.022619415
146	0x3c997df8	0.018736824
147	0x3c50f893	0.012754577
148	0x3cacbef4	0.021087147
149	0x3d1a9ed9	0.037749145
150	0x3d52e3cf	0.051486786
151	0x3d52d7fb	0.051475506
152	0xbd744e03	-0.05964471
153	0x3cd76bae	0.026296463
154	0x3d05db5c	0.0326799
155	0x3c555891	0.013021604
156	0xbd845bb2	-0.06462802
157	0x3d4ad3c2	0.049518354
158	0x3bafce65	0.0053651803
159	0x3ceb7765	0.028743455
160	0xbc7ab9f2	-0.015303122
161	0x3c1f31bd	0.009716448
162	0x3da70536	0.08155291
163	0x3c94dd20	0.018171847
164	0x3cc4848b	0.023988983
165	0xbd7445cf	-0.059636887
166	0xbd09c4ff	-0.033635136
167	0x3c7309ee	0.01483391
168	0xbda102fb	-0.078618966
169	0x3c9271a3	0.017876452
170	0x3d3524f5	0.044224698
171	0xbb4de5af	-0.003141742
172	0xbd576945	-0.052590627
173	0x3c4976d0	0.0122963935
174	0xbc559b57	-0.013037524
175	0x3e38fc35	0.1806496
176	0xbd7fd11a	-0.062455274
177	0x3d38a7d9	0.045081947
178	0x3cc9da70	0.024640292
179	0xbd0ae503	-0.03390981
180	0x3c61e69e	0.013787894
181	0xbbf00452	-0.007324734
182	0xbd59031e	-0.05298149
183	0x3d4cdcfb	0.05001543
184	0xbc75c7e5	-0.015001272
185	0xba264cab	-0.0006343822
186	0xbd0cbda5	-0.034360547
187	0xbd2fed3a	-0.042950846
188	0xbd8c5d9e	-0.068537936
189	0x3cdfc86e	0.027317252
190	0x3c35f92d	0.011106771
191	0xbd984e17	-0.074367695
192	0x3d3bba89	0.04583219
193	0xbb22bf6e	-0.002483334
194	0x3dcde4c4	0.10053399
195	0xbdeceb19	-0.11568279
196	0xbd2b2f17	-0.041792955
197	0x3e443b88	0.19163334
198	0x3df54f21	0.11977983
199	0xbc86a354	-0.016435303
200	0x3c28bedd	0.010299412
201	0x3a4aff4e	0.0007743732
202	0xbc057b91	-0.008147136
203	0xbcd42e9f	-0.025901137
204	0xbc1ed3aa	-0.009694019
205	0xbcf425c3	-0.029803162
206	0x3d90dff9	0.070739694
207	0x3b282b66	0.0025660633
208	0xbc34010f	-0.0109865805
209	0x3d2defc9	0.042465005
210	0x3d148200	0.03625679
211	0x3d8ee43c	0.06977126
212	0x3dde132d	0.10843501
213	0xbdd549c4	-0.1041446
214	0x3d7fadf5	0.062421758
215	0x3c340312	0.01098706
216	0x3db36688	0.08759791
217	0x3db6f44e	0.08933316
218	0x3c80fb85	0.015744934
219	0xbd5fff38	-0.054686755
220	0xbd5c276f	-0.053748544
221	0x3bf6c8a5	0.007531243
222	0xbd439554	-0.047749832
223	0x3c88769d	0.016658122
224	0xbd25ab78	-0.04044673
225	0xbd2a368f	-0.041555937
226	0x3ce7c386	0.028291475
227	0x3d85faf5	0.06542007
228	0xbd544c32	-0.051830478
229	0xbccf7c14	-0.02532772
230	0xbc97c0b6	-0.018524509
231	0x3d1c4064	0.038147345
232	0x3cfda94e	0.03096452
233	0x3c1c16c7	0.009526915
234	0x3c57538d	0.013142479
235	0x3a28ba1b	0.0006436423
236	0x3d84488e	0.06459151
237	0x3cd9dd1a	0.026594687
238	0x3cd68bea	0.026189763
239	0x3bbf3028	0.005834598
240	0xbd134450	-0.03595382
241	0x3d82bce2	0.06383683
242	0x3c35b50e	0.01109053
243	0xbd89ddbd	-0.06731746
244	0x3cae32b4	0.021264412
245	0x3c07675b	0.008264388
246	0x3d7638a1	0.0601126
247	0x3d4c11dc	0.04982172
248	0x3d408c83	0.047009002
249	0xbcc1b60c	-0.023646377
250	0xbdab22af	-0.08356225
251	0x3c63dc06	0.013907438
252	0x3e0aeb25	0.13566263
253	0x3dbc58b0	0.09196603
254	0xbbca03db	-0.0061650104
255	0x3cb0bc32	0.021574114

actor.4.bias f4 [128]
0	0x3d5f2f63	0.05448855
1	0x3d592814	0.053016737
2	0xbcf96188	-0.030442014
3	0xbc201b90	-0.009772196
4	0x3d3746a8	0.044745117
5	0x3ae3ffdf	0.0017394981
6	0xbc768daa	-0.015048424
7	0x3cc48875	0.023990849
8	0x3d57b439	0.052662108
9	0xbd8fa6fb	-0.07014271
10	0x3d073bdb	0.033016067
11	0x3b5d2fb3	0.0033750355
12	0x3c8ccb20	0.017186701
13	0xbcba0aa4	-0.022710152
14	0xbd4e6a5a	-0.050394394
15	0x3d3bc691	0.045843665
16	0xbc5a4169	-0.013321259
17	0xbd4fa61b	-0.05069552
18	0x3ca4b3c8	0.020105258
19	0x3bd03a31	0.006354593
20	0xbd857f04	-0.06518367
21	0xbce4037d	-0.027833695
22	0xbc7da739	-0.0154817635
23	0x3d3e28b5	0.04642554
24	0x3b47c7c8	0.003048407
25	0xbca1edd8	-0.019766733
26	0xbd91a02a	-0.07110627
27	0xba2d6525	-0.0006614498
28	0x3bf01f67	0.007327962
29	0xbcd33e8b	-0.025786659
30	0x3aafc5fa	0.0013410442
31	0x3d64cd0a	0.055859603
32	0x3a8a2a5f	0.0010541192
33	0x3c4976c3	0.012296381
34	0x3c4ecfaa	0.012622753
35	0xbd3f06e4	-0.04663743
36	0xba3e35f3	-0.0007255964
37	0x3d944b30	0.072409034
38	0x3b3728c0	0.0027947873
39	0xbd812f2b	-0.06307825
40	0xbc50b6e2	-0.012738915
41	0xbd065827	-0.032798912
42	0x3cea3c21	0.028593125
43	0x3bbcc651	0.005760946
44	0x3c4dc60e	0.012559427
45	0xbc8ba9b7	-0.0170487
46	0xbcde491f	-0.027134476
47	0xbcb3363c	-0.021876447
48	0xbced8b41	-0.028997065
49	0x3c212613	0.009835738
50	0xbd7f43e1	-0.062320594
51	0xbcb9b4a5	-0.022669146
52	0xbcf2f8f6	-0.02965973
53	0x3d1e4bfd	0.038646687
54	0x3d5eefb2	0.05442781
55	0xbc81a176	-0.01582406
56	0xbca69db7	-0.020338876
57	0xbb873c01	-0.004127026
58	0x3baa6b9f	0.0052008177
59	0xbca3b8e2	-0.01998562
60	0x3ce142f0	0.027497739
61	0x3d31792d	0.043328453
62	0x3cbd9d0b	0.023146173
63	0xbc7f87ff	-0.015596389
64	0xbd2bc6f0	-0.04193777
65	0xbcf2684a	-0.029590745
66	0xbcf33ced	-0.029692138
67	0xbd535de8	-0.051603228
68	0x3d4f2834	0.05057545
69	0xbd3e92dc	-0.046526775
70	0x3c573fd9	0.013137781
71	0xbd04c9e8	-0.032419115
72	0x3cf0e9ec	0.029408418
73	0xbd095959	-0.033532474
74	0x3cfb67fb	0.03068923
75	0xbcaacb49	-0.020848887
76	0x3c803b2c	0.015653215
77	0x3ca0c3b4	0.019624569
78	0xbc30638b	-0.01076592
79	0xbd417b48	-0.04723671
80	0xbb53f20b	-0.0032340314
81	0x3d2c7763	0.042106044
82	0xbc677055	-0.014125903
83	0xbd077f01	-0.033080105
84	0xbd5322fe	-0.051547043
85	0x3c9b9d22	0.018995825
86	0xbc405eda	-0.011741364
87	0xbb38f259	-0.0028220622
88	0xbb138edc	-0.002251557
89	0x3d04ef1b	0.03245459
90	0x3b50bab9	0.0031849577
91	0x3d20e020	0.039276242
92	0xbd12deb8	-0.035856932
93	0x3be3eb82	0.006955565
94	0xbb0f35e8	-0.00218522
95	0x3d1b4385	0.03790619
96	0x3c2fbb7d	0.010725853
97	0xbce83a8c	-0.02834823
98	0xbb5d005a	-0.0033722133
99	0xbb1a22ae	-0.0023519206
100	0x3d86edef	0.06588351
101	0xbd463786	-0.048392795
102	0xbd62de4b	-0.055387776
103	0x3c9808f0	0.01855895
104	0xbbdcff5e	-0.0067443093
105	0xbcdffa2b	-0.02734097
106	0x3cd3ed20	0.025869906
107	0xbd049ca8	-0.03237596
108	0x3b3d5aaa	0.0028893151
109	0xbc1ed30e	-0.009693874
110	0xbcce4960	-0.025181472
111	0xbc569715	-0.013097544
112	0x3ce3e2a7	0.027818037
113	0x3d07c226	0.03314414
114	0x3c8a04ff	0.016848085
115	0xbc8ca12c	-0.017166696
116	0x3d681281	0.05665827
117	0xbd13cda2	-0.03608478
118	0x3c20d870	0.009817228
119	0xbcc4851d	-0.023989255
120	0xbc0234df	-0.007947176
121	0xbd61e215	-0.05514725
122	0xbbc04052	-0.0058670426
123	0xbd56c73c	-0.0524361
124	0xba5ba46e	-0.0008378689
125	0x3cfc2b9b	0.030782511
126	0xbd1eca31	-0.038767044
127	0x3c6493f8	0.013951294

actor.7.weight f4 [128, 128]
0	0x3c493464	0.012280557
1	0xbc923480	-0.0178473
2	0xbc94da2b	-0.018170437
3	0xbdc45750	-0.09586966
4	0xbd823c6f	-0.06359183
5	0xbd46af59	-0.04850707
6	0xba7181b8	-0.000921275
7	0xbd1ce03d	-0.038299788
8	0xbd95cb61	-0.07314182
9	0x3d89b814	0.06724563
10	0xbb967407	-0.0045914683
11	0x3ca99746	0.020702016
12	0x3d8575f5	0.06516639
13	0x3cd0449f	0.025423346
14	0xbd0c6268	-0.034273535
15	0x3c20a73a	0.009805495
16	0x3c7f86f7	0.015596143
17	0xbcfa9ff4	-0.03059385
18	0x3bebd67d	0.0071972
19	0xbddaeeb3	-0.106900595
20	0x3d32f92a	0.043694653
21	0x3cb6d557	0.022318525
22	0x3bbb6142	0.005718381
23	0xbd017954	-0.03160985
24	0xbdf128ff	-0.117753975
25	0xbc3f1e3c	-0.011664923
26	0xbd017c3a	-0.031612612
27	0x3dbb2779	0.09138388
28	0xbd069bfc	-0.032863602
29	0x3d85dde7	0.06536465
30	0xbd946af8	-0.07246965
31	0xbd016b61	-0.031596545
32	0xbd961f85	-0.073302306
33	0xbd09b876	-0.03362318
34	0x3d72317c	0.059129223
35	0xbd3ff376	-0.04686304
36	0xbd2d1f0b	-0.042265933
37	0x3b60f629	0.003432641
38	0x3deb2a23	0.11482646
39	0x3d3c3b6a	0.0459551
40	0x3d32c522	0.04364503
41	0xbcb019c1	-0.021496655
42	0x3d7fe34a	0.06247262
43	0xbcd2e1de	-0.025742467
44	0xbd860cbb	-0.06545397
45	0x3c9645d8	0.018343851
46	0xbd587239	-0.052843306
47	0xbd94037c	-0.07227227
48	0x3ca05d40	0.019575715
49	0x3dd99ad6	0.10625236
50	0x3d25ad39	0.0404484
51	0x3da20f84	0.079131156
52	0x3dadf065	0.08493117
53	0x3d9a039b	0.07520219
54	0x3d76ec20	0.06028378
55	0xbcb0c28d	-0.021577144
56	0xbdb2f9ee	-0.087390766
57	0xbb8a1031	-0.004213356
58	0xbd2282e3	-0.039675605
59	0xbd9f59d1	-0.07780803
60	0xbd4a295e	-0.049355857
61	0x3cc6ecd8	0.024282858
62	0xbd03c2d3	-0.03216822
63	0x3c27b852	0.0102368165
64	0xbd0d1ac0	-0.03444934
65	0x3cdd87a6	0.027042221
66	0x3d055c7e	0.03255891
67	0x3d40f1d8	0.04710564
68	0x3d72ccca	0.059277333
69	0x3daa817b	0.08325478
70	0xbd6ee8ba	-0.058327414
71	0x3d81b999	0.06334228
72	0xbd49fa46	-0.049310945
73	0x3cce0e7f	0.025153397
74	0x3daf7204	0.08566669
75	0xbae79214	-0.0017667436
76	0x3db04752	0.08607353
77	0x3d3201dd	0.04345881
78	0x3d13695b	0.035989147
79	0x3d64a1d2	0.055818386
80	0x3c1cf0a9	0.009578862
81	0xbcf71a2e	-0.03016385
82	0xbd68bae6	-0.056818865
83	0xbcc7c909	-0.024387853
84	0x3d5337c3	0.05156685
85	0xbca6f31e	-0.0203796
86	0x3dd19bef	0.1023482
87	0x3d6cafed	0.057784963
88	0xbda45613	-0.0802423
89	0x3df99314	0.12186256
90	0x3cab7d5d	0.020933801
91	0xbd6b68b3	-0.057472896
92	0x3c3fdf4f	0.011710956
93	0x3dd07b8f	0.10179817
94	0xba13c1a2	-0.00056364585
95	0x3d9a06e8	0.075208485
96	0x3c177fc1	0.0092467675
97	0xbd736ec6	-0.059431814
98	0x3d11d36f	0.03560203
99	0x3da5d3f5	0.08097068
100	0x3ba09bff	0.0049014087
101	0xbd313313	-0.0432616
102	0xbd070360	-0.032962203
103	0xbd05a0cd	-0.032624055
104	0xbb3c8928	-0.0028768275
105	0xbdaea93b	-0.08528372
106	0x3d858b2d	0.06520686
107	0x3d7bbda5	0.061460156
108	0xbdc19afa	-0.094533876
109	0x3cb7801d	0.022399956
110	0x3dc983c2	0.09839584
111	0xbd1c06a0	-0.038092256
112	0xbd924ad8	-0.071431816
113	0x3c94ac6a	0.01814862
114	0x3b8cf8f8	0.0043021403
115	0xbd582d1b	-0.05277739
116	0xbd0f7da5	-0.035031933
117	0xbce591aa	-0.02802356
118	0x3d42dd8f	0.047574576
119	0x3d0c586e	0.03426402
120	0xbd0d3a0b	-0.034479182
121	0xbd875f90	-0.06610024
122	0xbd8ec138	-0.06970447
123	0x3d4cfcd2	0.050045796
124	0xbc0d34e9	-0.008618572
125	0xbd250179	-0.040284608
126	0xbc296c7f	-0.010340809
127	0x3caa321a	0.020775843
128	0xbdbc5eaf	-0.09197747
129	0xbb9438be	-0.0045233658
130	0x3d89e517	0.067331485
131	0xbccba3b0	-0.024858326
132	0xbd1d689b	-0.038429838
133	0x3ade9867	0.0016982675
134	0xbb9d72bb	-0.0048049367
135	0x3c715a01	0.014730931
136	0xbd7d799f	-0.061883565
137	0x3d3c8db1	0.046033565
138	0x3cc5ca2f	0.02414426
139	0x3de38fd2	0.11111416
140	0x3d807de4	0.06274012
141	0x3d6078f9	0.05480287
142	0xbe17cc8a	-0.14824119
143	0xbd0f7d5e	-0.03503167
144	0x3c8dfd74	0.01733277
145	0xbcca06d1	-0.024661453
146	0xbceacb5c	-0.028661422
147	0xbe41e083	-0.189333
148	0x3d2d7ab8	0.04235336
149	0xbd9d5e7f	-0.07684039
150	0xbca1997c	-0.019726507
151	0xbdb4ed6f	-0.08834349
152	0xbd928d4d	-0.07155857
153	0x3d3b91d8	0.045793384
154	0x3db48fca	0.08816488
155	0x3cf6de11	0.030135186
156	0x3c4186c5	0.011811917
157	0xbc5ec7ef	-0.013597473
158	0xbd9cc411	-0.07654584
159	0x3d89e409	0.067329474
160	0xbd80b41d	-0.06284354
161	0x3b60f030	0.003432285
162	0xbc000837	-0.007814459
163	0xbcaf3454	-0.021387257
164	0xbd2211e4	-0.039567843
165	0xbd82f8d2	-0.06395115
166	0x3d549241	0.05189729
167	0x3ce76956	0.02824847
168	0xbc791c1d	-0.015204457
169	0xbd713c16	-0.058895193
170	0x3bfc5e2f	0.0077016572
171	0x3d28cb5d	0.041209567
172	0xbdbd4091	-0.09240831
173	0x3d57be83	0.05267192
174	0xbd2fa5b6	-0.042882644
175	0x3d24bcea	0.040219225
176	0x3d89fda3	0.067378305
177	0x3dbc0be3	0.09181955
178	0x3d3b003e	0.045654528
179	0x3cbf1932	0.023327444
180	0x3d2048ce	0.039131932
181	0x3d201ed5	0.039091904
182	0xbc55e91c	-0.013056066
183	0xbd1e42c6	-0.0386379
184	0xbd92186f	-0.071335666
185	0x3d845b87	0.0646277
186	0xbe01bc0d	-0.12669392
187	0x3da6e1c1	0.08148528
188	0xbda7c398	-0.081916034
189	0x3d2111b2	0.039323516
190	0xbd6decc6	-0.058087133
191	0x3d88c794	0.066786915
192	0x3cb27446	0.02178396
193	0x3c8e6b60	0.017385185
194	0xbc41fd36	-0.011840155
195	0x3cbb6504	0.022875316
196	0x3d7ff02d	0.06248491
197	0x3d59c310	0.05316454
198	0x3d5b5c7c	0.053554997
199	0xbd95cfc1	-0.073150165
200	0xbdf1c887	-0.11805826
201	0x3ce09c63	0.027418321
202	0xbda7ee7b	-0.081997834
203	0xbc83bf25	-0.016082356
204	0x3d7df05f	0.061996814
205	0x3dbbaaef	0.09163462
206	0x3cee3968	0.029080108
207	0xbc2c195a	-0.010504091
208	0xbb168bf8	-0.0022971611
209	0x3ca3acf0	0.019979924
210	0x3dbb1acd	0.09135971
211	0x3dc2a649	0.095043726
212	0x3d0b7265	0.034044642
213	0x3cd80fb5	0.026374677
214	0x3d273dfc	0.040830597
215	0x3d574189	0.052552734
216	0xbde5b77e	-0.11216639
217	0x3b6b3660	0.0035890564
218	0x3dae629c	0.08514902
219	0x3b997123	0.0046826764
220	0xbd9a5e5c	-0.07537529
221	0x3d9b5b55	0.075857796
222	0xbda703e9	-0.08155043
223	0xbc2666fd	-0.01015639
224	0x3d2cc3ef	0.042179044
225	0xbda59eb8	-0.08086914
226	0xbcc81fcf	-0.02442923
227	0x3ddc193c	0.107470006
228	0x3ccf2124	0.025284357
229	0xbe10b0c4	-0.1412993
230	0xbd050607	-0.03247645
231	0xbdcdc87f	-0.10048007
232	0xbab5eac9	-0.0013879176
233	0xbd88a332	-0.06671752
234	0xbd5f2d78	-0.05448672
235	0x3c6f6567	0.014611579
236	0x3c354e4a	0.011066029
237	0x3dbcd824	0.09220913
238	0x3cbce4d2	0.023058329
239	0x3c411156	0.011783918
240	0xbd8ae83c	-0.067825764
241	0x3da88059	0.082276054
242	0xbbc6188e	-0.0060454076
243	0x3d3e4c1e	0.04645931
244	0xbd3fe599	-0.04684982
245	0xbc99dbf2	-0.018781636
246	0x3d8c3860	0.0684669
247	0xbd6f1b7b	-0.058375817
248	0xbc47ea6e	-0.0122018885
249	0xbc1ae5b7	-0.009454182
250	0xbda158b0	-0.07878244
251	0xbd18f7ee	-0.03734582
252	0xbd05237f	-0.032504555
253	0xbd8737a4	-0.066024095
254	0xbc8b4f60	-0.017005622
255	0x3d859ee0	0.065244436

actor.7.bias f4 [128]
0	0x3c081462	0.008305641
1	0x3caa3a47	0.020779742
2	0x3c97c440	0.018526196
3	0x3b8ec6e1	0.0043572043
4	0x3c06660b	0.00820304
5	0xbcb917a2	-0.022594277
6	0xbcd37fa2	-0.025817696
7	0xbc2f643d	-0.010705051
8	0x3d2beb1d	0.04197227
9	0x3c217458	0.009854399
10	0xbcbbcfe3	-0.022926277
11	0x3ca39721	0.019969525
12	0xbb3edbb4	-0.0029122652
13	0xbd2136be	-0.039358847
14	0xbd2043a9	-0.039127026
15	0xbc009a19	-0.00784924
16	0xbcbb98b4	-0.022899963
17	0x3cab9714	0.020946063
18	0x3d7220ac	0.05911319
19	0x3d05893f	0.03260159
20	0xbc5d8ac0	-0.01352185
21	0xbb857a03	-0.004073383
22	0x3d12c8c6	0.035836004
23	0x3c589d55	0.013221105
24	0x3d007a79	0.0313668
25	0x3d0f1c9b	0.03493939
26	0x3ca5458b	0.020174762
27	0x3cbcb175	0.023033837
28	0x3ca18464	0.01971645
29	0xb916f5ee	-0.0001439673
30	0x3c1a31cc	0.009411287
31	0xbcc12195	-0.023575583
32	0x3c97b66e	0.018519606
33	0x3c857e0d	0.016295457
34	0xbc301b97	-0.010748765
35	0xbccbbdc5	-0.024870763
36	0xbb7ab579	-0.0038255139
37	0x3c42bb38	0.011885457
38	0x3c1e7001	0.0096702585
39	0xbcc6a185	-0.02424694
40	0x3b6bbef4	0.0035971971
41	0x3bd02c89	0.0063529653
42	0x3c86ce52	0.016455803
43	0x3aa2e56e	0.0012427995
44	0x3d18194e	0.037133507
45	0xbc149ff9	-0.009071344
46	0x3d1e4131	0.03863639
47	0xbd83b20c	-0.06430444
48	0xbcebe11e	-0.028793868
49	0xbce2ae8d	-0.027671123
50	0xbce3e723	-0.027820176
51	0xbc4b327a	-0.012402171
52	0xbc8e652d	-0.017382229
53	0x3cee0c4a	0.029058594
54	0x3d341a38	0.043970317
55	0x3c6ad5ef	0.014333232
56	0x3bf83f03	0.007575871
57	0x3ca318b6	0.019909244
58	0x3c2bf7f3	0.010496127
59	0xbb452413	-0.0030081316
60	0x3c48af2b	0.012248795
61	0xbd1287a6	-0.035773896
62	0xbcb8643b	-0.022508731
63	0xbd34365b	-0.04399715
64	0x3c78d69a	0.015187884
65	0x3c819c44	0.015821584
66	0xbc07baad	-0.008284253
67	0xbbfe75c3	-0.007765503
68	0x39fe7e64	0.00048540824
69	0xbc0ddfb1	-0.008659289
70	0x3d187528	0.037221104
71	0xbb8afdc8	-0.004241679
72	0xbc40da63	-0.011770817
73	0x3d13adda	0.03605447
74	0xbc23b306	-0.009991413
75	0x3c6822ed	0.014168483
76	0x3d1dffc0	0.03857398
77	0x3c8e609d	0.017380053
78	0x3b4fa667	0.0031684877
79	0xbbea2fd8	-0.0071468167
80	0xbd10ae11	-0.035322253
81	0x3ca0b2cb	0.019616505
82	0xbc1ca9a6	-0.009561932
83	0x3cb58c8c	0.022161745
84	0x3cfe01d6	0.031006735
85	0xbc62d2ad	-0.013844174
86	0xbc7c27ba	-0.015390331
87	0x3c2beff9	0.010494226
88	0xbcb1ddee	-0.02171227
89	0x3b11f74e	0.002227265
90	0x3ca8be2a	0.02059849
91	0x3cd4f8a2	0.025997464
92	0xbc31259d	-0.01081219
93	0xbcc2583c	-0.023723714
94	0x3c144882	0.00905049
95	0xbb7aac0a	-0.0038249516
96	0x3ce436d0	0.027858168
97	0xbc82a1e4	-0.015946336
98	0xbb395c2e	-0.0028283703
99	0xbba5c69b	-0.005059076
100	0x3bd265a9	0.0064208102
101	0xbc231e77	-0.009955994
102	0xbd5136d7	-0.05107769
103	0x3ac9afef	0.0015387515
104	0xbcb63f64	-0.022247024
105	0x39c8ed96	0.00038323988
106	0xbc3365cd	-0.010949564
107	0xbbd0653b	-0.006359724
108	0xb977ed43	-0.00023644142
109	0x3b8d53ad	0.0043129534
110	0xbd2357ea	-0.039878763
111	0x3cef10fd	0.029182905
112	0x3c926a39	0.017872917
113	0xbc72a71f	-0.014810353
114	0x3ca59e17	0.020216985
115	0xbcac7758	-0.021053001
116	0xbc4284c4	-0.011872474
117	0x3d1a73d7	0.03770813
118	0xbcb55e1f	-0.022139607
119	0xbae5ce3d	-0.0017532777
120	0xbd27c18f	-0.040956076
121	0x3c8f0c7b	0.017462006
122	0xbc988df4	-0.018622376
123	0xbc6674f5	-0.014065971
124	0x3b6c911d	0.0036097236
125	0x3c73548e	0.014851702
126	0x3c869e9f	0.016433058
127	0xbcfc8c16	-0.030828517

actor.10.weight f4 [1, 128]
0	0x3d621b0e	0.055201583
1	0x3d5c18cb	0.053734582
2	0x3d41cc0f	0.047313746
3	0x3d79c30e	0.060977034
4	0x3d5daef6	0.054121934
5	0xbd23eb79	-0.040019486
6	0xbd3d1785	-0.046165008
7	0xbd169cfe	-0.036770813
8	0x3d666731	0.056250755
9	0x3d618020	0.05505383
10	0xbd4e7921	-0.050408486
11	0x3d5b49c2	0.053537138
12	0xbd39f312	-0.045397826
13	0xbd542ce7	-0.051800635
14	0xbd4ba49d	-0.049717534
15	0xbd5b13be	-0.053485624
16	0xbd0e2a0c	-0.034708068
17	0x3d3df486	0.046375774
18	0x3d5e7434	0.05431004
19	0x3d4c4e62	0.04987944
20	0xbd2b18d3	-0.04177172
21	0x3d911cfc	0.070856065
22	0x3d54828f	0.051882323
23	0x3d841441	0.064491756
24	0x3d7527d9	0.059852455
25	0x3d74b476	0.059742413
26	0x3d29c77b	0.041450005
27	0x3d459968	0.048242003
28	0x3d48a0bb	0.04898141
29	0x3d42459d	0.04742967
30	0x3d40b32f	0.047045883
31	0xbd372728	-0.044715077
32	0x3d3ee644	0.046606317
33	0x3d1f77a6	0.038932465
34	0x3d25956f	0.040425714
35	0xbd2bfb43	-0.04198767
36	0xbd71b005	-0.059005756
37	0x3d5c553c	0.053792223
38	0x3d4e0884	0.05030109
39	0xbd3d3cc9	-0.046200547
40	0x3d1409e7	0.036142256
41	0x3d26f5d6	0.04076179
42	0xbd87f2a7	-0.06638079
43	0xbd4ae6ca	-0.049536504
44	0x3d1c4144	0.03814818
45	0xbd62398a	-0.055230655
46	0xbd5b16d3	-0.053488564
47	0xbdad9b88	-0.08476931
48	0xbd36d5ae	-0.044637375
49	0xbd5f2451	-0.054477993
50	0xbd635d99	-0.055509184
51	0x3d533a0d	0.051569033
52	0xbd3a4751	-0.04547817
53	0x3d82226a	0.0635422
54	0x3da794b7	0.08182662
55	0x3d598380	0.053103924
56	0x3d3cce0e	0.046094947
57	0x3d346b68	0.044047743
58	0x3d10ee11	0.035383288
59	0x3d47a99c	0.048745736
60	0x3d3b2390	0.045688212
61	0xbd62b32b	-0.05534665
62	0xbd82fe01	-0.06396104
63	0xbd9438ae	-0.07237373
64	0x3d0dee96	0.03465136
65	0x3d737c2a	0.059444584
66	0xbd36731a	-0.044543363
67	0xbd361c7d	-0.044460762
68	0x3d77e179	0.06051776
69	0xbd6debdd	-0.058086265
70	0x3d6ee485	0.058323402
71	0xbd20a055	-0.039215405
72	0xbd446c18	-0.04795465
73	0x3d63f11d	0.055649865
74	0xbd1dd1b9	-0.038530085
75	0x3d676d82	0.05650092
76	0x3d5e25fd	0.054235447
77	0x3d22db78	0.039760083
78	0xbd39adca	-0.045331754
79	0xbd683582	-0.056691654
80	0xbd043c07	-0.03228381
81	0xbd6fb19b	-0.058518987
82	0xbd1f6e05	-0.038923282
83	0x3d438ec3	0.04774357
84	0x3d39c2e1	0.045351867
85	0xbd617b6b	-0.05504934
86	0xbd5dd2c8	-0.054156095
87	0x3d60ab25	0.054850716
88	0xbdb17ca2	-0.0866635
89	0x3d36d141	0.044633154
90	0x3d508343	0.05090643
91	0x3d5adf87	0.05343583
92	0xbd174e6d	-0.036940027
93	0xbd5718d7	-0.052513923
94	0x3d2ef663	0.04271544
95	0xbd71600f	-0.0589295
96	0x3d319649	0.043356214
97	0xbd2d9466	-0.042377852
98	0xbd6004c8	-0.05469206
99	0xbd412032	-0.047149844
100	0x3d49c535	0.049260337
101	0xbd0dc21b	-0.03460894
102	0xbd9e08f3	-0.07716551
103	0x3d7f2e73	0.062300157
104	0xbd677a33	-0.056513023
105	0xbd0bbdc6	-0.03411653
106	0xbd1ec74a	-0.038764276
107	0x3d155a38	0.036462992
108	0x3d86a28a	0.065739706
109	0x3d32b5e2	0.04363049
110	0xbd6a2c8f	-0.0571714
111	0x3d9361c0	0.07196379
112	0x3d5adc95	0.05343302
113	0xbd141395	-0.036151487
114	0x3d825619	0.06364078
115	0xbd45a72d	-0.048255134
116	0xbd1d8744	-0.038459077
117	0x3d41227f	0.04715204
118	0xbd4cb02d	-0.0499727
119	0xbd4548b5	-0.048165042
120	0xbd67c76a	-0.05658666
121	0x3d637ca1	0.055538777
122	0xbd231224	-0.039812222
123	0xbd904f35	-0.070463575
124	0x3d45215f	0.04812753
125	0x3d77442d	0.060367752
126	0x3d2e8285	0.042604942
127	0xbd588220	-0.052858472
