PPO/PPO3_Trained/PPO_DoubleInvPendulum_600K.pth (torch, 410281 bytes, 18 tensors)

actor.0.weight f4 [128, 6]
0	0x3f058e9c	0.5217073
1	0x3eb1db79	0.34737757
2	0x3c4e801e	0.012603788
3	0x3f080d5a	0.5314537
4	0x3f959de5	1.168881
5	0xbbf0a30a	-0.0073436545
6	0xbecb221d	-0.39674464
7	0xbe08c571	-0.13356568
8	0x3eb284e0	0.34867
9	0xbee717a6	-0.4513523
10	0xbf961a34	-1.1726747
11	0x3eb10224	0.34571946
12	0xbf8414ff	-1.0318907
13	0x3d871c19	0.06597156
14	0xbe9c9acc	-0.3058685
15	0xbea46757	-0.32110092
16	0xbf860f25	-1.0473372
17	0x3f4f1594	0.808923
18	0xbf3174a6	-0.69318616
19	0xbe9788ea	-0.29596645
20	0xbdf5a3b4	-0.119941145
21	0xbe2d5eb4	-0.16930658
22	0xbfa67405	-1.3004156
23	0x3da24c2a	0.079246834
24	0xbf52dc1a	-0.823671
25	0x3e946d90	0.2898984
26	0xbeb9cc58	-0.36288714
27	0xbe61c8a5	-0.22049196
28	0xbf80996f	-1.0046824
29	0x3efc3915	0.492623
30	0xbf539942	-0.8265573
31	0xbe990ea9	-0.29893997
32	0x3dc803ea	0.097663715
33	0xbf471bd7	-0.77776855
34	0xbf9568fe	-1.1672666
35	0x3e499cd1	0.19688727
36	0x3ecea643	0.40361223
37	0x3e285123	0.16437201
38	0x3e00c054	0.12573367
39	0xbe5c7f84	-0.21533018
40	0x3f1266f9	0.57188374
41	0xbef610ad	-0.48059598
42	0xbf5968a8	-0.8492532
43	0x3d8e6eeb	0.0695475
44	0x3e6e1932	0.23251799
45	0x3e1bfaa9	0.15232338
46	0xbf8cc155	-1.09965
47	0x3ee54bf3	0.44784507
48	0xbf7e568a	-0.993508
49	0xbe91d905	-0.28485885
50	0x3e741098	0.23834455
51	0xbf5be11b	-0.8589036
52	0xbfaf1c71	-1.3680555
53	0xbd8ed2e9	-0.06973822
54	0x3e2fe27b	0.17176239
55	0xbe6266e6	-0.22109565
56	0xbdf74bd6	-0.120750114
57	0x3c2adf49	0.010429212
58	0x3eef3e6b	0.4672731
59	0xbee5b958	-0.4486797
60	0x3f3c815b	0.7363488
61	0xbe9c2717	-0.30498573
62	0xbdf713a9	-0.12064297
63	0x3e574be5	0.21025045
64	0x3f9493ee	1.1607645
65	0xbf099ad5	-0.5375188
66	0x3f950fa7	1.1645402
67	0x3e11966c	0.14217538
68	0xbe79963d	-0.24373718
69	0x3f307b5f	0.6893825
70	0x3f9c1789	1.2194682
71	0xbe842093	-0.25806102
72	0xbe0271dd	-0.12738748
73	0x3de40878	0.11134428
74	0xbe948977	-0.29011127
75	0x3e2060e5	0.15661962
76	0xbf3ca9c9	-0.7369657
77	0x3e833f42	0.256342
78	0x3f9ac17c	1.2090297
79	0xbd213928	-0.03936115
80	0x3cb0eb0e	0.021596458
81	0x3f560c40	0.8361244
82	0x3fc73348	1.5562525
83	0xbd90a269	-0.07062227
84	0x3e08c58d	0.1335661
85	0x3eaac4ec	0.33353364
86	0xbea5d523	-0.32389173
87	0x3e824e10	0.25450182
88	0x3f7ccf89	0.98754174
89	0x399fc986	0.0003047699
90	0x3e166b46	0.14689359
91	0xbe330c6a	-0.17485204
92	0x3e185460	0.14875937
93	0x3f3822f8	0.7192836
94	0x3f5d7f67	0.86522526
95	0xbf04ab40	-0.51823807
96	0x3f2bf985	0.6717761
97	0xbebd5a04	-0.3698274
98	0x3e06d149	0.13165773
99	0x3f52826e	0.8223027
100	0x3f873c67	1.0565308
101	0xbd04cec5	-0.032423753
102	0xbe9b3421	-0.3031321
103	0x3e946493	0.28982982
104	0x3e1b0657	0.15139137
105	0xbf0b16b6	-0.5433153
106	0xbf85fa18	-1.0466948
107	0x3f2e055a	0.67976916
108	0xbe842f91	-0.2581754
109	0xbb6f9674	-0.0036558183
110	0x3d2be1c2	0.041963346
111	0xbdf75fd8	-0.120788276
112	0xbec6373f	-0.38714024
113	0xbe22c6e3	-0.15896182
114	0xbe9dea2f	-0.3084273
115	0xbe224574	-0.15846807
116	0x3d6e5cab	0.058193844
117	0x3e9bb8b4	0.30414355
118	0xbf35020b	-0.7070624
119	0x3d4c1649	0.04982594
120	0xbfabb061	-1.3413202
121	0x3e6bbb47	0.2302066
122	0xbe195c84	-0.14976698
123	0xbf13d881	-0.57752234
124	0xc00100c4	-2.0156717
125	0x3f78766f	0.97055715
126	0x3dda4139	0.106569715
127	0xbeb05b54	-0.34444678
128	0xbe0cde94	-0.13756782
129	0x3ccb2134	0.024796106
130	0x3f20da5c	0.6283319
131	0xbd20201f	-0.039093133
132	0x3e30dff3	0.1727293
133	0xbe5d0020	-0.21582079
134	0xbe6e3fbc	-0.232665
135	0x3db557e3	0.08854654
136	0xbf222148	-0.63332033
137	0x3eda50c6	0.4263975
138	0xbf24a8b1	-0.643199
139	0xbdece818	-0.11567706
140	0xbe902097	-0.28149864
141	0xbe4e6d08	-0.2015878
142	0xbfa0f04a	-1.257333
143	0xbdbba866	-0.09162979
144	0xbea9840a	-0.3310855
145	0x3e8ea453	0.27859744
146	0xbdf2abfa	-0.11849208
147	0xbdc0d6b9	-0.09415955
148	0xbf18a47d	-0.5962599
149	0x3df04a30	0.117329
150	0x3f328c10	0.6974497
151	0x3e58efe2	0.21185258
152	0xbeb6e368	-0.35720372
153	0x3f6a60e9	0.91554123
154	0x3f9fd82a	1.2487843
155	0xbdad17bb	-0.08451792
156	0xbf6fb17c	-0.93630195
157	0x3e82dd8c	0.25559652
158	0xbe99d6a9	-0.30046585
159	0xbe19be2c	-0.15013951
160	0xbfabe4cc	-1.3429198
161	0x3f4cda6e	0.800208
162	0xbf117e40	-0.5683327
163	0xbe5ae5d7	-0.2137674
164	0xbd6fbd38	-0.058530062
165	0xbea65aad	-0.32491055
166	0xbfc9fe7d	-1.5780789
167	0xbdb1fa36	-0.08690302
168	0xbf16b090	-0.58863163
169	0x3d04ebc7	0.032451417
170	0x3e32246e	0.1739671
171	0xbdea8077	-0.11450284
172	0xbf7b9590	-0.9827509
173	0x3e7f0bd8	0.24906862
174	0x3e19a930	0.15005946
175	0xbe472b42	-0.19450095
176	0x3e285b26	0.1644102
177	0x3ecb3fea	0.396972
178	0x3f389300	0.72099304
179	0xbe674b8d	-0.22587414
180	0xbede41bc	-0.43409526
181	0xbc92b35b	-0.017907789
182	0xbe9e7db6	-0.30955285
183	0xbeb1952e	-0.34684128
184	0xbfb34fb7	-1.4008702
185	0x3ee5c9cb	0.44880518
186	0x3f507c8c	0.81440043
187	0xbda8c587	-0.082408
188	0x3eaa100e	0.33215374
189	0x3f3aefb8	0.7302203
190	0x3f82d548	1.0221338
191	0xbd75331b	-0.05986319
192	0x3f07c37b	0.53032655
193	0x3dcb01b3	0.099124335
194	0xbeaebe58	-0.34129596
195	0x3edc6525	0.43045917
196	0x3f655ac8	0.89591646
197	0x3dd19b2b	0.10234674
198	0xbebe7883	-0.37201318
199	0xbe0b7e2d	-0.13622351
200	0x3e516af8	0.20450962
201	0x3e002f47	0.12518035
202	0x3e5733b4	0.21015817
203	0xbed7faa3	-0.42183408
204	0x3dc31c81	0.09526921
205	0xbe17e9f5	-0.14835341
206	0x3e175037	0.14776693
207	0xbea82c8a	-0.3284648
208	0x3d9ecf1e	0.07754348
209	0x3d05bf85	0.03265335
210	0xbf8d6dbc	-1.1049113
211	0x3eb374c4	0.35050023
212	0xbea06e1d	-0.3133401
213	0xbf535f1b	-0.82566994
214	0xbfa58b80	-1.2933197
215	0xbd69f68a	-0.057119884
216	0xbdf4558b	-0.119303785
217	0xbd00ab77	-0.03141352
218	0x3e209482	0.15681651
219	0xbdd9ed2c	-0.1064094
220	0xbf8024b7	-1.0011204
221	0x3ed0eb2e	0.40804428
222	0x3f34e35c	0.7065942
223	0xbd02523a	-0.0318167
224	0x3ebcb2a9	0.36855057
225	0x3eda9db6	0.4269845
226	0x3fa6f97f	1.304489
227	0xbec0a9cc	-0.37629545
228	0x3f16270a	0.5865332
229	0x3da55414	0.08072677
230	0xbd234985	-0.039865036
231	0x3f499586	0.7874378
232	0x3f947738	1.1598883
233	0xbd5bf720	-0.053702474
234	0xbe2671c7	-0.1625434
235	0xbe789bac	-0.24278134
236	0x3e93e8d6	0.28888577
237	0xbedd1f47	-0.43187925
238	0xbf36bfe4	-0.7138655
239	0x3e9c27f6	0.30499238
240	0xbf6bad0e	-0.92060935
241	0x3e1748a8	0.1477381
242	0xbe54616d	-0.2074029
243	0xbf170668	-0.5899415
244	0xbf9065e8	-1.1281099
245	0x3ec8eca7	0.3924305
246	0xbf5b9429	-0.8577295
247	0xbd93d574	-0.07218447
248	0xbe81d345	-0.25356498
249	0xbe7ba949	-0.24576296
250	0xbf98c3de	-1.1934774
251	0x3d9c9e46	0.07647376
252	0x3f8d0a66	1.1018798
253	0xbda6ed7d	-0.08150766
254	0x3e89ff23	0.26952466
255	0x3f2f440f	0.68463224

actor.0.bias f4 [128]
0	0xbe375ba7	-0.17906056
1	0xbebc7ebf	-0.3681545
2	0xbda4b51d	-0.08042357
3	0x3e6634d7	0.22481094
4	0x3e6c92eb	0.2310292
5	0x3e9e524d	0.30922166
6	0x3ea0441b	0.3130196
7	0xbbeeb308	-0.007284526
8	0xbe05db91	-0.13072039
9	0xbc973657	-0.018458528
10	0x3e010979	0.1260127
11	0x3e3997d2	0.18124321
12	0xbe905854	-0.2819239
13	0x3da38b34	0.07985535
14	0xbd305d74	-0.043057874
15	0xbd1a9866	-0.037742995
16	0x3e9ccc60	0.30624676
17	0x3e82f2b8	0.25575805
18	0x3e790161	0.24316932
19	0x3e0c6c0e	0.13713095
20	0xbe1782c9	-0.14795984
21	0xbe1b3d01	-0.1515999
22	0x3e837900	0.25678253
23	0xbc90a407	-0.01765634
24	0xbe4ca926	-0.199864
25	0x3e864c82	0.26230246
26	0x3d2008ff	0.03907108
27	0x3e355067	0.17706452
28	0xbd609be6	-0.054836176
29	0x3d0c8a74	0.034311727
30	0x3e9c0b3f	0.3047733
31	0x3cea1b8e	0.028577592
32	0xbe18525a	-0.14875165
33	0xbd406ce6	-0.046978854
34	0x3e07b2fe	0.13251874
35	0xbe3e8fd6	-0.18609557
36	0xbcbf029a	-0.02331667
37	0xbe26e6c2	-0.16298965
38	0x3e42e94a	0.19034305
39	0x3e62cb3a	0.22147837
40	0xbe22c191	-0.15894152
41	0x3d793232	0.060838886
42	0xbe0f2327	-0.13978253
43	0xbe299444	-0.16560465
44	0x3d844989	0.06459338
45	0xbe349565	-0.17635114
46	0x3e9a2036	0.301027
47	0xbe7e8a2d	-0.24857397
48	0x3d434fc2	0.047683485
49	0xbe920be3	-0.28524694
50	0xbe06dc34	-0.13169938
51	0xbece6e20	-0.40318394
52	0x3d570b71	0.052501146
53	0x3dda1c85	0.10649971
54	0x3e66e174	0.22546941
55	0xbdad1dcc	-0.08452949
56	0xbe8cd8bf	-0.27509114
57	0xbeb63637	-0.35588238
58	0xbe2ca53a	-0.16859904
59	0xbe1eecb1	-0.15519978
60	0x3ed3bdae	0.41355652
61	0xbe5516bb	-0.20809452
62	0x3da0c800	0.07850647
63	0x3c98e520	0.018663943
64	0xbebc3fa3	-0.367673
65	0x3eb15c22	0.34640604
66	0x3dfa914c	0.122347444
67	0xbd5b10d2	-0.053482838
68	0x3e3b89fe	0.18314359
69	0x3e113a76	0.14182457
70	0xbeb049f4	-0.34431422
71	0x3eb9bf51	0.36278775
72	0xbeb0fc93	-0.345677
73	0xbea9fc91	-0.33200505
74	0x3ddf8b96	0.10915296
75	0x3e9cd9db	0.3063496
76	0xbec1f1b0	-0.37879705
77	0x3eb4acb1	0.35288003
78	0x3c6c0dce	0.014407588
79	0x3c2bccd3	0.010485846
80	0x3e7c0c4b	0.24614064
81	0xbe531c8e	-0.20616361
82	0x3e2ea46f	0.17054914
83	0xbd35e774	-0.044410184
84	0xbe5b9eed	-0.21447344
85	0xbd4e727d	-0.050402153
86	0x3e8ab3c0	0.27090263
87	0x3e47b133	0.1950119
88	0xbd942070	-0.072327495
89	0x3e3c2c9e	0.18376395
90	0xbe2055d4	-0.15657741
91	0x3e634ec2	0.22198012
92	0xbdb4eece	-0.08834611
93	0x3de62a12	0.11238493
94	0x3e7a3c53	0.24437074
95	0x3e6912f4	0.22761136
96	0x3c6f2145	0.014595334
97	0xbdaef569	-0.08542902
98	0x3dacf09b	0.08444329
99	0x3e981bb4	0.29708636
100	0x3d75bf3b	0.059996825
101	0x3e2bb941	0.16769888
102	0x3e0c41cb	0.13696973
103	0xbe5db82c	-0.21652287
104	0x3eab4aee	0.33455604
105	0x3e4cf1dd	0.20014139
106	0xbdc826a3	-0.09772994
107	0xbe911c36	-0.28341836
108	0x3d12bb5c	0.03582321
109	0x3ddbe63e	0.107372746
110	0xbe50d5b1	-0.20394017
111	0x3d58087d	0.05274247
112	0xbdd3fd84	-0.10351089
113	0xbe5172ed	-0.20453997
114	0x3e40b897	0.18820415
115	0xbd487ef2	-0.04894919
116	0xbca8de8b	-0.02061393
117	0xbe457a34	-0.19284898
118	0xbe179bbe	-0.14805505
119	0x3c25c965	0.010118817
120	0x3dc806fb	0.097669564
121	0xbe073670	-0.1320436
122	0xbe8eb3c5	-0.27871528
123	0x3c935ad7	0.017987652
124	0x3ea63d2c	0.32468545
125	0x3e0d00b6	0.13769802
126	0xbdc48fe0	-0.095977545
127	0x3e623a1a	0.22092476

actor.2.weight f4 [128, 128]
0	0xbcf0537e	-0.029336687
1	0xbdf55845	-0.11979727
2	0xbcd35c79	-0.02580093
3	0xbdd5355a	-0.10410567
4	0xbce8c2c2	-0.02841318
5	0xbe40c385	-0.18824585
6	0xbd10693e	-0.035256617
7	0x3da504e3	0.08057573
8	0xbdf4e725	-0.1195815
9	0xbc3ad8e0	-0.011404246
10	0x3d608abe	0.054819815
11	0x3f115f49	0.5678602
12	0x3d01e9b9	0.031717036
13	0x3e77e9a4	0.2421022
14	0xbd5bd57c	-0.05367039
15	0x3cea6084	0.028610475
16	0xbcf8d245	-0.030373702
17	0xbca9e9ea	-0.020741422
18	0xbd688cfd	-0.056775082
19	0xbd648bfd	-0.055797566
20	0xbf2213fe	-0.63311756
21	0x3d51006e	0.0510258
22	0x3cfd8338	0.030946359
23	0x3d439d1d	0.047757257
24	0x3bd3d904	0.0064650793
25	0x3eb5670e	0.35430187
26	0xbe185754	-0.14877063
27	0xbd454d83	-0.048169624
28	0x3c04f954	0.008116085
29	0x3c8a69b6	0.01689611
30	0xbd36f6fd	-0.04466914
31	0x3d549504	0.051899925
32	0x3d745086	0.059647106
33	0xbd339a3c	-0.04384826
34	0x39cddc9e	0.0003926502
35	0xbe293192	-0.16522816
36	0x3d6ebf81	0.0582881
37	0x3c27fc62	0.010253044
38	0x3d295bab	0.041347187
39	0xbd40e106	-0.0470896
40	0x3d2fb5ba	0.042897917
41	0x3d7b9410	0.0614205
42	0xbcd13427	-0.025537563
43	0x3daa31f3	0.08310308
44	0xbd612090	-0.054962695
45	0xbdb8766b	-0.090069614
46	0x3d43d63b	0.047811728
47	0x3cb53d89	0.022124069
48	0x3dc0026a	0.093754604
49	0xbcc066e9	-0.023486571
50	0xbdbf5b54	-0.09343591
51	0xbd7912cc	-0.06080894
52	0x3b056dc3	0.0020359613
53	0xbd88de5d	-0.066830374
54	0xbae9110b	-0.0017781568
55	0x3d733ea9	0.05938593
56	0xbc119b8f	-0.008887186
57	0x3b35a997	0.0027719492
58	0xbdb1d214	-0.08682647
59	0x3dca268d	0.09870634
60	0xbbe5f293	-0.0070174425
61	0xbc9984f2	-0.018740151
62	0xbdbca2b8	-0.09210724
63	0x3cdd9667	0.027049256
64	0xbc0bae34	-0.00852542
65	0x3c1fddca	0.0097574685
66	0x3c18c742	0.0093248505
67	0xbd48f307	-0.049059894
68	0xbd2285df	-0.03967845
69	0x3d1baabb	0.03800462
70	0xbcf2d501	-0.029642584
71	0x3d566af9	0.05234811
72	0xbd47b296	-0.048754297
73	0xbdd8081c	-0.10548422
74	0x3d9abec6	0.075559184
75	0xbd847139	-0.06466908
76	0xbde4a2bf	-0.11163854
77	0x3d2778c5	0.04088666
78	0xbd6b1a0f	-0.0573979
79	0xbd9b7049	-0.07589776
80	0xbd7182de	-0.058962695
81	0x3c287af0	0.010283217
82	0x3c31ff96	0.010864159
83	0x3d5d49c6	0.054025434
84	0xbd795b3c	-0.060878024
85	0x3b1fe9e7	0.0024400891
86	0x3d705b57	0.05868086
87	0xbd914217	-0.07092684
88	0xbc7648a7	-0.01503197
89	0xbd088613	-0.03333099
90	0x3d1a8650	0.037725747
91	0xbde211d1	-0.110385545
92	0x3d15a063	0.03652991
93	0xbdbed6f8	-0.09318346
94	0x3d96be0d	0.07360468
95	0xbd034da2	-0.03205646
96	0xbd20e870	-0.03928417
97	0xbd98ae55	-0.07455126
98	0x3d87d5dd	0.06632588
99	0xbc3bc771	-0.011461125
100	0x3c7125e4	0.0147185065
101	0x3c8c0dc0	0.0170964
102	0x3d54a8d0	0.051918805
103	0x3cd3d92c	0.025860392
104	0xbd4f599f	-0.05062258
105	0x3dd8bc53	0.10582795
106	0xbdb7f92e	-0.08983074
107	0xbd2ac3d4	-0.041690663
108	0x3d9a0c5c	0.075218886
109	0x3ddfbc58	0.109245956
110	0xbd2203b8	-0.039554328
111	0xbd73f332	-0.0595581
112	0xbd90f689	-0.07078273
113	0x3d75f776	0.06005045
114	0x3c4a522a	0.012348691
115	0xbda31979	-0.07963843
116	0x3d26d975	0.040734727
117	0x3c8d6fd8	0.017265245
118	0xbd37c723	-0.044867646
119	0xbd113544	-0.03545119
120	0x3c05ee50	0.008174494
121	0xbc45c0b5	-0.012069871
122	0x3d861405	0.06546787
123	0x3e127465	0.14302213
124	0x3d182a89	0.03714994
125	0x3e2f9c7b	0.17149536
126	0xbdb32d77	-0.08748906
127	0x39534b3c	0.00020150555
128	0xbbd6abd1	-0.006551244
129	0x3e0fdf6f	0.14050077
130	0x3d5e2750	0.05423671
131	0xbd32c5e5	-0.04364576
132	0xbc21ee97	-0.009883544
133	0x3e2507db	0.16116278
134	0x3dab2f4b	0.0835863
135	0x3dad5dbc	0.08465144
136	0x3d7fd209	0.062456165
137	0xbd9a9554	-0.07548013
138	0x3d789cea	0.06069652
139	0xbf0b50fa	-0.54420435
140	0x3d6a86b2	0.05725736
141	0xbe39d9b0	-0.18149447
142	0x3cd17cfc	0.025572293
143	0xbd273ede	-0.04083144
144	0xbdd7470e	-0.105115995
145	0xbc11b06c	-0.00889216
146	0x3d1dac3b	0.03849433
147	0x3d7fd8c6	0.06246259
148	0x3f4609b7	0.77358574
149	0x3d5109b7	0.051034655
150	0xbcbe3e51	-0.023223074
151	0x3cb98507	0.02264644
152	0xbca09bfa	-0.019605625
153	0xbe8a390b	-0.26996645
154	0x3db168de	0.0866258
155	0xbd61412b	-0.05499379
156	0xbc94c77f	-0.018161533
157	0xbc28cb25	-0.01030234
158	0xbc370b5d	-0.011172143
159	0xbc8f5313	-0.017495668
160	0xbd51309a	-0.05107174
161	0xbda00785	-0.07813934
162	0x3ce1fd9f	0.027586756
163	0x3dbaacce	0.09114991
164	0xbcfa994b	-0.030590674
165	0x3d35d469	0.044392023
166	0x3d02c8aa	0.03192965
167	0xbc49389a	-0.012281561
168	0x3cb4d8fc	0.022076122
169	0x3d9a5815	0.075363316
170	0xbcd91604	-0.026499756
171	0xbd9e392f	-0.07725751
172	0x3da017e6	0.07817058
173	0x3d426451	0.04745895
174	0x3da62554	0.081125885
175	0x3d9840ab	0.074342094
176	0xbd88a0f0	-0.066713214
177	0xbdcd2f35	-0.1001877
178	0x3aa3e255	0.0012503365
179	0xbc9cd88e	-0.01914623
180	0xbc1701d2	-0.009216743
181	0xb9b2b8a2	-0.00034088368
182	0xbd80f8cd	-0.06297455
183	0xbd401b47	-0.046901014
184	0xbd17c9c2	-0.037057646
185	0xbdbbe68f	-0.09174835
186	0xbcac92bb	-0.02106606
187	0xbd8314c9	-0.06400449
188	0xbcd0661e	-0.025439318
189	0x3dba1e06	0.09087758
190	0xbcc4e63b	-0.024035564
191	0x3e086fb8	0.13323867
192	0xbddbb1ed	-0.10727296
193	0x3d9f088f	0.07765304
194	0xbd2a5da0	-0.041593194
195	0xbbe6c577	-0.0070425826
196	0x3d563ef3	0.052306127
197	0xbd710373	-0.05884118
198	0x3d1925d0	0.037389576
199	0x3d35446a	0.044254698
200	0xbd562b4e	-0.052287392
201	0xbc1a965c	-0.0094352625
202	0x3de139b2	0.10997333
203	0xbd8b30ed	-0.06796441
204	0x3db38c94	0.087670475
205	0xbd10aabc	-0.035319075
206	0x3cd3b10f	0.025841264
207	0x3d42352a	0.047413982
208	0x3d50ae43	0.05094744
209	0xbda89279	-0.082310624
210	0x3cb04cf6	0.021521073
211	0xbdca2e89	-0.09872157
212	0xbd5aa772	-0.053382345
213	0xbd578911	-0.05262095
214	0xbd3bd663	-0.045858752
215	0x3d8ef932	0.06981124
216	0xbd627b88	-0.05529359
217	0xbcba4d7f	-0.022742031
218	0xbd2658a6	-0.040611885
219	0x3d3f18c9	0.046654496
220	0xbca04e7c	-0.019568674
221	0x3bfbaef4	0.007680768
222	0xbcc94c69	-0.024572568
223	0xbd8f039a	-0.06983109
224	0xbdc69ae6	-0.09697513
225	0x3ceb16da	0.02869742
226	0xbd8066bd	-0.06269596
227	0xba2c9d82	-0.000658475
228	0x3cb96371	0.022630425
229	0x3d2effcd	0.04272442
230	0xbdbddded	-0.092708446
231	0x3d36ab56	0.044596992
232	0x3d926599	0.071482845
233	0xbab00ed4	-0.0013432154
234	0x3d10119c	0.035173044
235	0x3d5c3296	0.05375918
236	0x3cdcae25	0.026938507
237	0xbdf47107	-0.11935621
238	0x3d93cde6	0.072170064
239	0x3ccdc23c	0.025117032
240	0x3c68a00f	0.014198317
241	0xbd980a44	-0.07423833
242	0x3d9e0405	0.077156104
243	0xbd092d3a	-0.033490397
244	0xbc93048e	-0.017946508
245	0xbd4316cb	-0.04762916
246	0x3d02f5af	0.031972583
247	0x3d80c8d8	0.06288308
248	0x3d6027a8	0.05472532
249	0xbcd606b7	-0.026126249
250	0x3c71029b	0.014710094
251	0xbbe5624a	-0.0070002424
252	0x3d943433	0.07236519
253	0xbdbd212e	-0.09234844
254	0x3bdc9989	0.00673217
255	0x3d486b99	0.048930738

actor.2.bias f4 [128]
0	0xbd14aaa6	-0.036295556
1	0x3d0e1f69	0.034697924
2	0x3c7b43da	0.015336001
3	0x3c9198a3	0.017772978
4	0xbd4b55b9	-0.0496423
5	0xbd051bf3	-0.032497358
6	0x3c99366a	0.018702704
7	0x3d8fe6c4	0.07026437
8	0x3d10458a	0.035222568
9	0xbc8f5bfd	-0.017499918
10	0xbc168f46	-0.0091894325
11	0x3dae67c5	0.08515886
12	0x3d94393c	0.07237479
13	0x3d8b9bfe	0.068168625
14	0xbc235f02	-0.009971382
15	0x3ce99a78	0.02851604
16	0x3d41e8b5	0.047341067
17	0xbd3cd8af	-0.046105083
18	0x3cc7b4be	0.024378177
19	0x3daee6cb	0.08540114
20	0xbd713c1e	-0.058895223
21	0x3db82fe1	0.08993507
22	0xbd9a1fe9	-0.07525618
23	0xbc8f2df2	-0.017477963
24	0xbcc356fd	-0.02384519
25	0xbcfb01a5	-0.030640433
26	0x3d2eea1a	0.042703725
27	0x3d85ab58	0.06526822
28	0xbd55755f	-0.052113887
29	0x3d26bacf	0.0407055
30	0x3d9fe60b	0.07807549
31	0x3d8c2492	0.06842913
32	0xbd2dff4e	-0.042479806
33	0xbc4a4916	-0.012346527
34	0x3cc3b74f	0.02389112
35	0xbd27d232	-0.040971942
36	0x3d69a5f9	0.05704305
37	0xbda88b86	-0.08229737
38	0x3ce9ae48	0.028525487
39	0xbd8d472e	-0.06898342
40	0x3d0e1235	0.034685332
41	0xbd50e73b	-0.05100177
42	0x3c840363	0.016114896
43	0xbcff8994	-0.031193532
44	0x3db60ad9	0.08888788
45	0x3d7bd994	0.061486796
46	0xbd332ef2	-0.043745942
47	0xbc9acc2f	-0.01889619
48	0x3d8e1f30	0.06939542
49	0xbd09cbca	-0.033641614
50	0x3d85cf1a	0.06533642
51	0xbc1276f6	-0.008939495
52	0x3d5baa59	0.053629253
53	0x3d8a6d3e	0.067591175
54	0xbd3d39c1	-0.046197657
55	0xbb4b9a1e	-0.0031067203
56	0x3daca834	0.0843052
57	0x3d9f3327	0.077734284
58	0x3d74a4a6	0.059727333
59	0x3d534b54	0.05158551
60	0x3d2035ad	0.03911369
61	0xbb2cb018	-0.0026350077
62	0xbd8d595c	-0.069018096
63	0xbcd5a237	-0.026078327
64	0x3d7948bf	0.06086039
65	0x3c9d7987	0.019222988
66	0xbd235f1d	-0.03988563
67	0xbd97957f	-0.07401561
68	0xbca7ed68	-0.020498946
69	0x3da71454	0.08158174
70	0x3da56a3b	0.080769025
71	0x3d14a64a	0.036291398
72	0x3c8ee1b0	0.0174416
73	0xbb8ff931	-0.0043937196
74	0x3cca8324	0.024720736
75	0x3d115259	0.035478923
76	0xbd5c61dd	-0.053804267
77	0x3d374088	0.044739276
78	0x3ce6488f	0.02811077
79	0xbceb677d	-0.02873587
80	0xbd984972	-0.074358836
81	0xbbe4fb6f	-0.006987981
82	0xbc34263e	-0.010995446
83	0x3c9f97e7	0.019481612
84	0x3d10567f	0.03523874
85	0x3c9221ee	0.017838445
86	0xba14e05e	-0.0005679185
87	0x3be4ede0	0.0069863647
88	0x3d876df5	0.066127695
89	0xbd150778	-0.036384076
90	0x3d6f4c86	0.058422588
91	0x3acf30b9	0.0015807367
92	0xbce99f24	-0.028518267
93	0x3db8ae18	0.09017581
94	0xbcbbccbc	-0.022924773
95	0x3b6387d1	0.0034718404
96	0x3d1f0ebc	0.03883241
97	0x3d983401	0.07431794
98	0x3d3e0a09	0.04639629
99	0xbbb40f23	-0.0054949685
100	0xbd89d0f3	-0.06729307
101	0x3cfb2954	0.030659355
102	0xbdb610b9	-0.08889908
103	0xbc38b302	-0.011273148
104	0x3c586085	0.013206606
105	0x3d1e79de	0.03869044
106	0xbd968e46	-0.07351355
107	0xbccf65cf	-0.0253171
108	0xbcbc60c5	-0.022995362
109	0x3d8e99ef	0.06962954
110	0x3d981810	0.074264646
111	0x3d90652c	0.07050547
112	0xbd80197c	-0.06254861
113	0xbd5d10fb	-0.053971272
114	0x3cb9913d	0.022652263
115	0x3ca18741	0.019717814
116	0xbabac78b	-0.0014250142
117	0x3d965714	0.073408276
118	0xbd6d296e	-0.05790084
119	0xbd683fc5	-0.05670144
120	0xbd5f5bc4	-0.054530874
121	0x3d584f48	0.052809983
122	0x3d26cba4	0.04072155
123	0x3d709383	0.05873443
124	0xbc958415	-0.018251458
125	0x3cc8980a	0.02448656
126	0x3db46f26	0.088102624
127	0xbc9ee35f	-0.019395528

actor.4.weight f4 [128, 128]
0	0xbc4c517a	-0.012470597
1	0xbd26a24c	-0.040682122
2	0xbd0d38b1	-0.034477893
3	0xbc188e8e	-0.009311331
4	0x3e14da4b	0.14536397
5	0xbb994172	-0.004676991
6	0x3d07ee9b	0.033186536
7	0xbd72c037	-0.05926534
8	0xbd7f20e8	-0.06228724
9	0x3c0c2e7f	0.008556007
10	0xbd2965eb	-0.041356962
11	0xbd1a7261	-0.037706736
12	0x3ce8a020	0.028396666
13	0xbd0a7912	-0.033806868
14	0xbd043b09	-0.032282863
15	0x3d84898f	0.0647155
16	0xbc5e285c	-0.013559427
17	0xbc59b4c1	-0.013287724
18	0x3d5c2049	0.053741727
19	0x3cadb035	0.021202186
20	0xbce7b48a	-0.02828433
21	0xbd3e0c50	-0.04639846
22	0x3c7823aa	0.015145222
23	0x3bd5f81f	0.0065298225
24	0xbd92e1ed	-0.07171998
25	0xbc89c9fe	-0.01681995
26	0x3c3f2e81	0.011668802
27	0xbb709f51	-0.0036716054
28	0xbdbb4c18	-0.09145373
29	0x3ccda55e	0.025103267
30	0xbd0e114a	-0.034684457
31	0x3c8dcead	0.017310465
32	0x3d3c073f	0.045905348
33	0xbd9bce4d	-0.07607708
34	0x3cb59e46	0.022170197
35	0x3c38bd6f	0.011275633
36	0x3bb75450	0.0055947676
37	0x3d11d6d0	0.03560525
38	0x3d8b5f0c	0.06805238
39	0xbcbd3a19	-0.023098992
40	0xbb29a1dc	-0.002588383
41	0x3c7f3b98	0.015578173
42	0xbcb7102e	-0.022346582
43	0x3c9b6c9b	0.018972686
44	0xbda1b79c	-0.07896349
45	0x3c974929	0.018467503
46	0x3cce2f25	0.025168965
47	0x3e17dd98	0.14830625
48	0xbcd9b22e	-0.02657422
49	0xbd1f6a84	-0.03891994
50	0x3d607cbd	0.05480646
51	0x3d0c99db	0.034326416
52	0x3d92ce06	0.07168202
53	0xbd3c609f	-0.045990583
54	0x3b9de753	0.0048188358
55	0x3bb64611	0.005562552
56	0xbdb7c7c6	-0.08973651
57	0xbd0ae092	-0.033905573
58	0xbcd6ba46	-0.026211869
59	0x3c4a0d9d	0.012332347
60	0xbd32534d	-0.043536473
61	0xbcdfaf03	-0.027305132
62	0xbcced8b1	-0.02524981
63	0xbdc282ce	-0.09497605
64	0x3d2624d9	0.040562484
65	0xbc0b68a8	-0.008508839
66	0x3d41e745	0.047339696
67	0x3d0bf242	0.034166582
68	0x3d617127	0.05503955
69	0x3d86c917	0.065813236
70	0x3dc75d69	0.097346134
71	0xbb33b018	-0.0027418192
72	0xbbc22f08	-0.0059260167
73	0xbd105999	-0.035241697
74	0xbd0c94fc	-0.03432177
75	0xbccf3563	-0.025294011
76	0xbbae8491	-0.0053258617
77	0xbc802a45	-0.015645156
78	0xbced42fa	-0.028962601
79	0xbd8b0c6e	-0.0678948
80	0xbd0815c0	-0.033223867
81	0xbd818cb9	-0.06325669
82	0xbd3345d7	-0.043767776
83	0x3de11639	0.10990567
84	0x3d450bdc	0.048107013
85	0xbbfc4a80	-0.007699311
86	0x3dd731c3	0.10507538
87	0x3aa373c2	0.0012470412
88	0x3d41e1c7	0.04733446
89	0xbc504080	-0.0127106905
90	0xbccb838a	-0.024842996
91	0xbd403908	-0.04692939
92	0xbc8197a6	-0.015819382
93	0xbd480e18	-0.048841566
94	0x3ceebcca	0.029142756
95	0xbd88d2c3	-0.066808246
96	0xbd61dd13	-0.055142473
97	0xbbd40f7d	-0.006471573
98	0xbc498823	-0.012300524
99	0xbcbf0505	-0.023317823
100	0x3ca33035	0.019920448
101	0xbc9a370c	-0.018825077
102	0xbc843057	-0.016136331
103	0xbd0a11c8	-0.033708364
104	0xbc978506	-0.018496048
105	0x3da95a63	0.08269193
106	0xbd39b92f	-0.04534262
107	0xbccf7ced	-0.025328124
108	0x3db7262c	0.089428276
109	0x3d5ffc54	0.054684
110	0xbd28c415	-0.041202623
111	0xbbd97a7b	-0.0066369153
112	0xbd206cfb	-0.039166432
113	0x3d3aab0a	0.04557327
114	0xbd04ccce	-0.03242188
115	0x3d260d86	0.04054024
116	0x3b0df69c	0.0021661883
117	0x3d4fb729	0.050711785
118	0x3d434474	0.047672704
119	0x3c8bad31	0.017050358
120	0xbd6298ec	-0.05532162
121	0x3d0c1fc1	0.03420997
122	0x3c8d3a98	0.017239854
123	0xbcfc5d9e	-0.030806359
124	0x3d6813f1	0.056659643
125	0x3c413000	0.011791229
126	0xbcb3b220	-0.021935523
127	0xbcfabef9	-0.030608641
128	0xbd6ae6ae	-0.0573489
129	0x3c86fb6d	0.016477311
130	0xbc0ec8eb	-0.008714895
131	0x3bc4f081	0.0060101156
132	0x3e79422b	0.24341647
133	0x3ca17266	0.01970787
134	0x3c31e98b	0.010858904
135	0xbda2e88d	-0.07954512
136	0x3d1b4d1d	0.037915338
137	0x3c918397	0.017762942
138	0x3d039827	0.032127526
139	0xbd598f60	-0.05311525
140	0xbd51dd55	-0.05123647
141	0xbd851be0	-0.06499457
142	0xbd3cb2b7	-0.046068873
143	0x3be7a20a	0.007068877
144	0x3c0138f9	0.0078871185
145	0x3cdc2f90	0.026878148
146	0xbc97d450	-0.018533856
147	0x3b8331db	0.004003746
148	0x3c18e540	0.009332001
149	0x3cd911ff	0.026497839
150	0x3bf4364d	0.007452762
151	0x3ce74fa6	0.028236222
152	0xbd1532f1	-0.036425535
153	0xbc123622	-0.008924039
154	0x3cc4b1a4	0.024010487
155	0x3c9f2ce2	0.019430581
156	0xbdca1b27	-0.0986846
157	0x3d4dc05d	0.05023228
158	0x39eec785	0.0004554355
159	0xbb32f146	-0.0027304455
160	0xbc87f317	-0.016595406
161	0x3ceab2ba	0.028649677
162	0x3d58bb11	0.052912775
163	0x3ad5b001	0.0016303064
164	0x3c8da6f4	0.017291524
165	0xbd23d938	-0.040002078
166	0xbd0e5fef	-0.03475946
167	0xbcbaba2e	-0.022793856
168	0xbd26e82c	-0.04074876
169	0xbc9a9233	-0.018868541
170	0x3d06210c	0.03274636
171	0xbd2f39a2	-0.042779572
172	0xbd657506	-0.056019805
173	0xbd2219ce	-0.03957539
174	0x3c974f8d	0.01847055
175	0x3e303845	0.17208965
176	0xbd7b53c0	-0.061359167
177	0x3d6917cf	0.05690747
178	0x3cb2d6ff	0.021831034
179	0xbd0764a1	-0.03305495
180	0x3c9fa786	0.019489061
181	0x3cf76cff	0.03020334
182	0xbcf3d514	-0.02976469
183	0x3d5ff14a	0.05467347
184	0xbb9424c7	-0.0045209858
185	0x3c03b411	0.008038537
186	0xbcd36b95	-0.025808135
187	0xbd811b85	-0.06304077
188	0xbdcecfb1	-0.10098208
189	0x3cc7ebde	0.024404462
190	0x3d2d402b	0.042297523
191	0xbd7a1a03	-0.061059963
192	0x3d4e1230	0.050310314
193	0xbc168bb0	-0.0091885775
194	0x3dbd8a2a	0.09254868
195	0xbde5037f	-0.111823075
196	0xbd214e4f	-0.03938132
197	0x3e379465	0.17927702
198	0x3de0ece4	0.10982683
199	0xbccc8871	-0.024967404
200	0x3cea0e1b	0.02857118
201	0xbb9bc847	-0.0047540995
202	0x3cd30713	0.02576021
203	0xbcc26a0d	-0.02373221
204	0x3cc14d56	0.023596447
205	0xbc0993c7	-0.008397049
206	0x3d518bdd	0.051158775
207	0x3b93bf3c	0.004508881
208	0xbd0764d5	-0.033055145
209	0x3c278aa2	0.010225924
210	0x3d0df9e2	0.034662135
211	0x3d6e98dd	0.05825125
212	0x3db09fef	0.08624255
213	0xbdac64f1	-0.084176905
214	0x3d80ef51	0.06295646
215	0x3bfa74d7	0.007643323
216	0x3d4ab5e0	0.049489856
217	0x3d75db77	0.06002375
218	0x3d2e486a	0.04254953
219	0xbd256cf6	-0.040387116
220	0xbd8984ea	-0.067148045
221	0xb90d49b9	-0.00013474272
222	0xbd5380c6	-0.05163648
223	0x3c677bcb	0.014128636
224	0xbc4445e6	-0.011979556
225	0xbd0ce0dd	-0.034394134
226	0x3d434a4f	0.047678288
227	0x3d9643c2	0.073371425
228	0xbcc21c3c	-0.023695104
229	0xbad87df2	-0.0016517027
230	0x3bc30812	0.00595189
231	0x3d417549	0.047230992
232	0x3b22a3d3	0.0024816885
233	0x3b24fb2a	0.002517412
234	0x3c9fd4d9	0.019510673
235	0x3c687666	0.014188385
236	0x3d538a7d	0.051645745
237	0x3cc6751b	0.024225762
238	0xbba5b794	-0.0050572846
239	0x3d577fd1	0.05261213
240	0xbcca1b46	-0.024671208
241	0x3d752549	0.05985001
242	0xbc6ce1e7	-0.014458156
243	0xbd19de22	-0.037565358
244	0xbc8f00f3	-0.017456507
245	0x3cde1a8f	0.027112273
246	0x3d69ae27	0.05705085
247	0x3d145d57	0.03622183
248	0x3d2956c4	0.04134251
249	0x3b7a1edd	0.0038165369
250	0xbd5fdd13	-0.054654192
251	0xbc8dd89c	-0.017315201
252	0x3dffb038	0.12484783
253	0x3d3b8a9b	0.04578648
254	0x3aba9797	0.0014235851
255	0x3bf14398	0.007362794

actor.4.bias f4 [128]
0	0x3d78cd86	0.060742877
1	0x3d35e444	0.044407144
2	0xbcf22a54	-0.0295612
3	0x3ba2327a	0.004949865
4	0x3cc8dfa4	0.024520703
5	0xbc35dc6d	-0.011099917
6	0xbd09c5da	-0.03363595
7	0x3d2cb286	0.04216244
8	0x3d29e992	0.041482516
9	0xbd590305	-0.052981395
10	0x3d1ac8ec	0.03778927
11	0x3c76c596	0.015061757
12	0x3d1b1063	0.037857424
13	0xbce44f55	-0.02786986
14	0xbd57c204	-0.052675262
15	0x3d580113	0.0527354
16	0xbca4b9e0	-0.020108163
17	0xbd4e1dbb	-0.050321322
18	0x3d46e69e	0.048559777
19	0x3c261a21	0.010138066
20	0xbd405e49	-0.046964917
21	0xbd1dcffb	-0.038528424
22	0xbcf5a8d4	-0.02998773
23	0x3d1d480d	0.03839879
24	0x3adba7e8	0.0016758414
25	0xbccb09ce	-0.024784949
26	0xbd18a7ec	-0.037269518
27	0x3cd054b3	0.025431013
28	0xbbe18fba	-0.0068835886
29	0xbd0a037a	-0.03369472
30	0xbbc1f871	-0.005919509
31	0x3d3666cc	0.04453163
32	0x3c489a72	0.012243854
33	0x3c85a46e	0.016313758
34	0x3d037d85	0.032102127
35	0xbd45d301	-0.048296932
36	0xbbb16e2b	-0.0054147444
37	0x3d705830	0.058677852
38	0x3ca48309	0.020082014
39	0xbd7f3511	-0.062306467
40	0xbcb04ea1	-0.021521868
41	0xbd1e84d6	-0.0387009
42	0x3cdb9f82	0.026809458
43	0x3d0c0f3d	0.03419422
44	0xba9c52d8	-0.0011926545
45	0xbc39a487	-0.01133073
46	0xbd0468b2	-0.032326408
47	0xbcc110f5	-0.023567656
48	0xbd01bd3a	-0.0316746
49	0x3cf1449b	0.029451659
50	0xbd3c5655	-0.04598077
51	0x3c176009	0.009239205
52	0xbcb9bbe0	-0.022672594
53	0x3d3f3e32	0.046690173
54	0x3d140324	0.036135808
55	0xbc3bb5f3	-0.011456954
56	0xbc311333	-0.0108078
57	0xbc6140ec	-0.013748389
58	0xbb73b37d	-0.003718584
59	0xbd107f94	-0.035277918
60	0x3ca0d9cd	0.019635106
61	0x3d3007dd	0.04297625
62	0x3bea4ceb	0.0071502826
63	0x3c2d736f	0.010586604
64	0xbd57a29b	-0.052645307
65	0xbd281aac	-0.04104106
66	0xbc87f953	-0.01659838
67	0xbd33046e	-0.043705396
68	0x3d3bda40	0.045862436
69	0xbd4fea65	-0.050760645
70	0xbc36e5c4	-0.011163179
71	0xbcc808fa	-0.024418343
72	0x3ca3a645	0.019976744
73	0xbb5bcb5a	-0.0033537955
74	0x3c951f4a	0.018203396
75	0xbcf1ac2a	-0.02950104
76	0xba10d35d	-0.00055246596
77	0x3c11439d	0.008866218
78	0xbc09e900	-0.008417368
79	0xbce14f0c	-0.027503513
80	0x3b788c08	0.0037925262
81	0x3d237a78	0.039911717
82	0x3c31e547	0.010857887
83	0xbcb64461	-0.022249402
84	0xbd28647e	-0.04111146
85	0xbb4220d1	-0.002962161
86	0xbd1e4159	-0.03863654
87	0xbcb59b61	-0.022168817
88	0xbab488fb	-0.0013773734
89	0x3d5355ea	0.051595606
90	0x3bb9bd73	0.005668336
91	0x3d0702e4	0.03296174
92	0xbd48b628	-0.049001843
93	0x3c9d7d4c	0.019224785
94	0xbc18e161	-0.009331078
95	0x3caad349	0.020852702
96	0xbbcf5262	-0.0063269595
97	0xbcc651cd	-0.024208928
98	0xbbe54e50	-0.006997861
99	0xbc5fb99f	-0.013655095
100	0x3d265c67	0.040615465
101	0xbd2045b3	-0.03912897
102	0xbd285d0a	-0.041104354
103	0x3cdd6da5	0.027029822
104	0xbcdcbea9	-0.026946383
105	0xbd000447	-0.03125408
106	0x3d0d07d8	0.03443131
107	0xbd06ac39	-0.032879088
108	0xbc1e7a29	-0.00967268
109	0xbba15415	-0.0049233534
110	0xbc51f061	-0.012813658
111	0x3bd3c9cd	0.0064632655
112	0x3cb911e2	0.022591535
113	0x3d0726a1	0.032995824
114	0x3c8b979e	0.01704007
115	0xbd74c4ee	-0.05975812
116	0x3d30e96a	0.04319135
117	0xbd02b876	-0.031914197
118	0x3c808fef	0.015693633
119	0xbbb40472	-0.005493694
120	0xbc14aaa4	-0.009073887
121	0xbd04c110	-0.03241068
122	0xbc9db9a6	-0.019253563
123	0xbd50ca9c	-0.050974473
124	0x3c9656d6	0.018351953
125	0x3ca7a9e2	0.020466749
126	0xbd0fff00	-0.035155296
127	0xbbee35ed	-0.007269612

actor.7.weight f4 [128, 128]
0	0x3d33b234	0.04387112
1	0x3cd22e86	0.02565695
2	0xbd36bc58	-0.044613212
3	0xbd5690d4	-0.052384213
4	0xbd14f8d9	-0.036370132
5	0x390f9ef8	0.00013696763
6	0x3c4c7bc5	0.012480681
7	0xbcd898d2	-0.026440058
8	0xbd1cee0b	-0.038312953
9	0x3d80dc52	0.06292023
10	0xbcfd818b	-0.03094556
11	0xbbbfa396	-0.0058483584
12	0x3d08fb1b	0.033442598
13	0x3cb761c0	0.022385478
14	0xbc5f5bfd	-0.013632772
15	0x3cb4f417	0.022089047
16	0xbc84492d	-0.016148174
17	0xbd53a4d5	-0.051670868
18	0xbc002050	-0.007820204
19	0xbd82a702	-0.063795105
20	0x3b8a746a	0.0042253034
21	0x3d84067d	0.0644655
22	0x3d147ac9	0.03624991
23	0xbbadb47e	-0.0053010574
24	0xbd912981	-0.07087994
25	0xbd2a9d64	-0.041654006
26	0xbd801fac	-0.06256041
27	0x3db13bd1	0.08653987
28	0xbccdcbca	-0.025121588
29	0x3d17d521	0.03706849
30	0xbda2cf20	-0.07949662
31	0xbceb2695	-0.02870492
32	0xbd9bedf6	-0.07613747
33	0xbc8d06a2	-0.017215077
34	0x3d1c6ff2	0.038192697
35	0xbcca21c3	-0.024674302
36	0xbc954d3f	-0.01822531
37	0x3ce0aa4f	0.02742496
38	0x3db34312	0.08753027
39	0x3d2479c1	0.040155176
40	0x3cece9d8	0.0289201
41	0x3ccb4f5b	0.024818113
42	0x3c42695a	0.011865938
43	0xbd43f89a	-0.047844507
44	0xbd32297f	-0.043496605
45	0xbbc5e5df	-0.0060393657
46	0xbd52099a	-0.051278688
47	0xbd771dd2	-0.060331173
48	0x3c56eb92	0.013117688
49	0x3d8d0550	0.06885779
50	0x3c2e2f9f	0.010631471
51	0x3d414e98	0.047194093
52	0x3db0a2bc	0.08624789
53	0x3d070cc6	0.032971166
54	0x3d8d1f1a	0.06890698
55	0xbc1e5a9f	-0.00966516
56	0xbd2ac7ba	-0.04169438
57	0xbc820e87	-0.015876068
58	0xbc9b81c0	-0.018982768
59	0xbd478668	-0.048712164
60	0xbd15bf6d	-0.03655951
61	0x3c9e93d9	0.019357609
62	0xbc309dd6	-0.0107798185
63	0xbd2562a5	-0.040377278
64	0xbd3075ab	-0.043080967
65	0x3d518a44	0.05115725
66	0x3d3db71e	0.046317212
67	0x3c8390c8	0.016060248
68	0x3d96aeda	0.07357569
69	0x3d080eab	0.033217113
70	0xbd443f6f	-0.047912057
71	0x3d3ad580	0.045613766
72	0xbd0f5496	-0.034992777
73	0x3c6df442	0.014523568
74	0x3df01293	0.11722293
75	0xbc14721e	-0.009060411
76	0x3d35b5d0	0.044362843
77	0x3d4cb8a7	0.049980786
78	0x3d9dac93	0.076989315
79	0x3d3217c8	0.04347971
80	0xb71b5d08	-9.2603805e-06
81	0x3abd237e	0.0014430133
82	0xbdc8805d	-0.09790108
83	0xbd5bb182	-0.05363608
84	0x3c811e8d	0.015761638
85	0x3c9d832c	0.019227587
86	0x3dbb1c1a	0.09136219
87	0x3cac64f7	0.021044238
88	0xbd5f2376	-0.054477178
89	0x3ddbab03	0.10725977
90	0x3c263528	0.010144509
91	0xbd93ea4b	-0.07222422
92	0x3d38ffd8	0.045165867
93	0x3da9ced1	0.082914
94	0x3d33022c	0.043703243
95	0x3d8673d5	0.06565062
96	0xbb8054f8	-0.003916379
97	0xbd2a93a9	-0.041644726
98	0xbbd8b48b	-0.0066133193
99	0x3d84359f	0.0645554
100	0xbd0968a2	-0.03354705
101	0xbcdec843	-0.027195102
102	0xbc9189d8	-0.017765924
103	0xbbe99447	-0.0071282717
104	0x3c1324eb	0.00898097
105	0xbd8f26ee	-0.06989847
106	0x3d597120	0.0530864
107	0x3d105ba8	0.03524366
108	0xbda9421a	-0.08264561
109	0xbad4e4e4	-0.0016242531
110	0x3d646596	0.055760942
111	0xbd9ffa55	-0.07811419
112	0xbd884ef2	-0.066556826
113	0xbb2ad4b5	-0.0026066725
114	0xba0e0932	-0.00054182403
115	0xbc376308	-0.0111930445
116	0xbce0804a	-0.027404923
117	0xbd69dd9f	-0.05709612
118	0x3cf126a9	0.02943738
119	0x389e529d	7.549415e-05
120	0x3b5cb619	0.0033677875
121	0xbd87ab87	-0.06624513
122	0xbd28abee	-0.04117959
123	0x3d9128da	0.0708787
124	0xbca15aad	-0.019696558
125	0xbca69013	-0.020332372
126	0xbaef2092	-0.001824396
127	0x3ba202a3	0.004944162
128	0xbd29ab85	-0.04142334
129	0xbb0d363c	-0.0021547219
130	0x3d934df0	0.071926
131	0xbb93cf0b	-0.0045107654
132	0xbbad2120	-0.00528349
133	0x3d127a2b	0.03576104
134	0x3c6076e6	0.013700223
135	0x3ce74529	0.02823122
136	0xbca94394	-0.020662107
137	0x3c83844c	0.016054295
138	0xbc891e09	-0.016737955
139	0x3db1f396	0.086890385
140	0x3be4a154	0.0069772396
141	0x3bee4123	0.0072709485
142	0xbdf28f23	-0.118437074
143	0xbd069d34	-0.032864764
144	0xbd06e49f	-0.032932874
145	0xbd08d99d	-0.033410657
146	0xbd5d3380	-0.054004192
147	0xbe1c8ff3	-0.15289287
148	0x39b09334	0.0003367901
149	0xbd6077de	-0.054801814
150	0xbd326c96	-0.043560587
151	0xbd9a04ea	-0.075204685
152	0xbd067816	-0.032829367
153	0x3cec03c6	0.028810393
154	0x3dbac095	0.09118763
155	0x3c44029f	0.011963516
156	0x3c7dd1b9	0.015491896
157	0xbce33f3e	-0.027740117
158	0xbd5d0169	-0.053956423
159	0x3d32b483	0.04362918
160	0xbd44ec15	-0.048076708
161	0x3d6e8c97	0.058239546
162	0xbce89d25	-0.028395245
163	0xbbc8eabc	-0.006131498
164	0xbcac11f4	-0.021004654
165	0xbcd8a150	-0.026444107
166	0x3c95c9cc	0.0182847
167	0x3b5e0bb0	0.0033881478
168	0xbd825c57	-0.06365269
169	0xbc2f9714	-0.010717172
170	0xbc33f6e1	-0.0109841535
171	0x3d2733a5	0.040820736
172	0xbd9951dc	-0.074863166
173	0x3c762c34	0.015025187
174	0xbd7741e1	-0.06036556
175	0x3d8f9f37	0.0701279
176	0x3d47b3c7	0.048755433
177	0x3dbadafb	0.091237985
178	0x3cecdca3	0.028913802
179	0x3c9ba5cc	0.018999957
180	0x3ae2c222	0.0017300288
181	0x3d23573e	0.039878123
182	0xbcb7be92	-0.022429738
183	0xbc9c6ff9	-0.019096361
184	0xbd149641	-0.036276106
185	0x3d4b2641	0.04959703
186	0xbd90ddd5	-0.07073561
187	0x3db09b3a	0.08623357
188	0xbc860ce3	-0.016363567
189	0xbbe216a6	-0.0068996726
190	0xbd1be613	-0.038061213
191	0x3d422927	0.047402527
192	0x3d8f0b60	0.069845915
193	0x3d429da5	0.047513623
194	0xbca09825	-0.019603798
195	0x3bb91b9b	0.005649043
196	0x3d2ee30d	0.042697
197	0x3ae5b3fb	0.0017524952
198	0x3d900497	0.070321254
199	0xbdbb678f	-0.091506116
200	0xbdad1006	-0.08450322
201	0x3cbfb71f	0.023402749
202	0xbd7b41f8	-0.06134221
203	0x38c9f85b	9.630687e-05
204	0x3cfee8a7	0.031116797
205	0x3d9e910e	0.07742511
206	0x3d979d3b	0.07403036
207	0xbccbea08	-0.024891868
208	0xbb9e8601	-0.004837752
209	0x3d5cac8c	0.05387549
210	0x3dd82818	0.10554522
211	0x3d913973	0.07091036
212	0x3b086da4	0.0020817304
213	0x3d2adab6	0.041712485
214	0xbc024668	-0.0079513565
215	0x3c92e79c	0.017932706
216	0xbda2c624	-0.079479486
217	0x3b91fd39	0.0044552353
218	0x3d9ad7ad	0.07560668
219	0xbc04033b	-0.008057411
220	0xbd8efb34	-0.06981507
221	0x3d9cc39a	0.076544955
222	0xbdd18de2	-0.1023214
223	0xbd1742d6	-0.036928974
224	0xbb088f52	-0.0020837379
225	0xbd7a14ac	-0.06105487
226	0xbdc6d057	-0.097077064
227	0x3d8dbe20	0.06921029
228	0xbc554695	-0.013017316
229	0xbddbaa65	-0.107258596
230	0xbcbff4c4	-0.023432143
231	0xbd82d530	-0.063883185
232	0x3cf5af58	0.029990837
233	0xbd2fd135	-0.042924125
234	0xbda144f5	-0.07874481
235	0xbccf0c62	-0.02527446
236	0x3c1a6563	0.009423587
237	0x3d8a0e5f	0.06741022
238	0x3c34a9c8	0.011026807
239	0xbd36948e	-0.044575267
240	0xbc18ec31	-0.009333656
241	0x3d8a71fa	0.067600206
242	0xbb921ff4	-0.0044593755
243	0x3d9e18f5	0.07719604
244	0xbc350445	-0.011048381
245	0xbd71f287	-0.059069183
246	0x3cc9e185	0.024643669
247	0xbd7abd82	-0.061215885
248	0x3c9db01a	0.01924901
249	0x3d3f50e4	0.046708003
250	0xbd0b17e9	-0.03395835
251	0x3c726cb9	0.014796429
252	0xbc653620	-0.013989955
253	0xbda7ac6d	-0.081871845
254	0xbc57eb5e	-0.0131786745
255	0x3d0864de	0.03329932

actor.7.bias f4 [128]
0	0x3cec7609	0.028864877
1	0x3cd44a2e	0.025914278
2	0x3d209a94	0.039209917
3	0x3d25c0a0	0.040466905
4	0x3ccd1e2a	0.025038797
5	0xbd08e19f	-0.033418294
6	0xbccd085d	-0.025028402
7	0xbccde47d	-0.025133366
8	0x3d118635	0.03552838
9	0x3c09f130	0.00841932
10	0xbcaea5cd	-0.021319294
11	0x3d119e8a	0.035551585
12	0xbcd891da	-0.026436735
13	0xbd0afd27	-0.03393283
14	0xbd1a2919	-0.03763685
15	0xbd1f98b9	-0.038964007
16	0xbcdc0167	-0.026856137
17	0x3d10389e	0.035210244
18	0x3d330457	0.04370531
19	0x3d228620	0.039678693
20	0xbd0a63e0	-0.033786654
21	0x3cc1d1c1	0.023659589
22	0x3d12eb12	0.03586871
23	0x3ce1724c	0.027520321
24	0x3c21098c	0.009828936
25	0x3cfdb52c	0.030970179
26	0x3cee612d	0.029099071
27	0x3cc269b4	0.023732044
28	0x3cdef6f0	0.027217358
29	0x3cf4d771	0.029887887
30	0x3cac7f45	0.02105678
31	0xbce15e65	-0.027510831
32	0x3cd3cd68	0.025854781
33	0x3cbf6169	0.023361878
34	0x3ca8044d	0.020509863
35	0xbceec098	-0.02914457
36	0xbcb6cd0b	-0.022314569
37	0x3cd6d5f5	0.02622507
38	0x3d060c60	0.032726645
39	0xbccbe1ec	-0.024888001
40	0x3cb6a75e	0.022296604
41	0x3ccf8c79	0.025335537
42	0x3ce086d5	0.027408043
43	0xbd01d319	-0.03169546
44	0x3d00c08c	0.031433627
45	0xbcc96968	-0.024586394
46	0x3c8456e4	0.016154714
47	0xbd2b826d	-0.04187243
48	0xbce33498	-0.02773504
49	0xbd1dc47c	-0.03851746
50	0xbd2a1147	-0.041520383
51	0xbce8a99a	-0.028401185
52	0xbcb46b92	-0.02202395
53	0x3cd100f0	0.025513142
54	0x3d21a694	0.039465502
55	0x3ce7bf1e	0.028289374
56	0x3d147edf	0.036253806
57	0x3ca0545b	0.019571474
58	0x3cdc5e32	0.026900385
59	0x3cbe08d2	0.023197565
60	0x3cf81429	0.03028305
61	0xbd296724	-0.04135813
62	0xbd04cae7	-0.032420065
63	0xbd0d4a1a	-0.034494497
64	0x3d2e202c	0.04251115
65	0x3cda8455	0.026674429
66	0xbd1fc514	-0.039006308
67	0xbd01bfe1	-0.03167713
68	0x3d2252c9	0.03962973
69	0xbcfe36b8	-0.031031951
70	0x3d19c872	0.037544675
71	0xbce2c791	-0.027683051
72	0xbc89848f	-0.016786842
73	0x3d0328c4	0.0320213
74	0xbd04bc77	-0.032406297
75	0x3cd840dc	0.026398115
76	0x3cffa216	0.031205218
77	0x3d0c9342	0.034320123
78	0xbcbc1a2b	-0.022961697
79	0xbd04a8a1	-0.03238738
80	0xbd67fbd6	-0.056636654
81	0x3cb1f522	0.021723334
82	0xbcaea66d	-0.021319592
83	0x3d1b3a61	0.03789747
84	0x3d02e9da	0.0319613
85	0xbcba2f21	-0.022727551
86	0xbcf30f79	-0.029670464
87	0x3ce57b07	0.028012766
88	0xbcf894df	-0.030344425
89	0x3cdd6dbb	0.027029863
90	0x3d1b2a5a	0.037882186
91	0x3cf682b3	0.03009162
92	0xbcc64be4	-0.02420611
93	0xbd255a3b	-0.040369254
94	0x3cefdf8f	0.029281406
95	0xbcd445d3	-0.025912201
96	0x3d40c614	0.047063902
97	0xbd128bc8	-0.035777837
98	0xbcadd3e6	-0.021219205
99	0xbd27f03f	-0.0410006
100	0x3c9430dd	0.018089706
101	0xbd07689a	-0.03305874
102	0xbd236e2c	-0.03989999
103	0x3d295ef8	0.041350335
104	0xbd0f6c23	-0.035015237
105	0xbc91cc71	-0.01779768
106	0xbcb6fc37	-0.022337062
107	0x3cae4926	0.021275114
108	0x3d06489d	0.032784093
109	0x3d2182bd	0.039431322
110	0xbd0a4f03	-0.033766758
111	0x3d07b665	0.03313293
112	0x3d300dec	0.042982027
113	0xbd1afe93	-0.037840437
114	0x3d082780	0.033240795
115	0xbd2eca7a	-0.042673565
116	0xbcd30870	-0.02576086
117	0x3d0fba9d	0.035090078
118	0xbd1619df	-0.036645766
119	0xbd2a70aa	-0.04161135
120	0xbd077c22	-0.033077367
121	0x3c940212	0.018067393
122	0xbcd49e8e	-0.025954511
123	0xbd05fb01	-0.03271008
124	0x3cf4bc71	0.029875012
125	0x3cee3dd2	0.029082213
126	0x3cc3bdb9	0.023894178
127	0xbd1ae70e	-0.037818007

actor.10.weight f4 [1, 128]
0	0x3c77a468	0.015114881
1	0x3c2df0bf	0.01061648
2	0x3c8409a2	0.016117875
3	0x3c87e2e2	0.016587678
4	0x3c29f57c	0.010373469
5	0xbc4ec4fd	-0.012620208
6	0xbc6f22c1	-0.014595688
7	0xbcb35691	-0.021891864
8	0x3c9e9805	0.019359598
9	0x3b78aba6	0.0037944107
10	0xbc751c83	-0.014960411
11	0x3cadc870	0.02121374
12	0xbc61aa6b	-0.013773541
13	0xbc41c7d4	-0.011827428
14	0xbc7cec20	-0.015437156
15	0xbca07229	-0.019585686
16	0xbc852a35	-0.016255477
17	0x3c73ab74	0.014872421
18	0x3c64cb6b	0.013964514
19	0x3c72b254	0.014813025
20	0xbc6d8d9a	-0.0144990925
21	0x3c699067	0.01425562
22	0x3c8239ba	0.015896667
23	0x3c88c6da	0.016696382
24	0x3b1fd87a	0.0024390505
25	0x3c10224b	0.008797239
26	0x3c8e05e2	0.01733679
27	0x3c47d46a	0.01219664
28	0x3c3ee1d3	0.01165052
29	0x3c537e54	0.012908537
30	0x3c4e6fad	0.012599868
31	0xbca029bc	-0.01955115
32	0x3c7b5d51	0.015342073
33	0x3c911b1d	0.017713124
34	0x3c3f0883	0.011659744
35	0xbc6503f7	-0.013977996
36	0xbc52768e	-0.012845648
37	0x3c949620	0.018137991
38	0x3ca3bca1	0.019987406
39	0xbc6a89b0	-0.014315054
40	0x3c89f90f	0.016842393
41	0x3c561a1e	0.01306775
42	0xbb4baf1c	-0.0031079715
43	0xbc4f8475	-0.012665858
44	0x3c3cb548	0.01151783
45	0xbc75fd3a	-0.015013987
46	0xbb0a9f11	-0.002115194
47	0xbc942eab	-0.01808866
48	0xbc6fb5da	-0.014630759
49	0xbc715864	-0.014730547
50	0xbc95b82b	-0.018276295
51	0xbab8ddec	-0.0014104224
52	0xbc8847e8	-0.01663585
53	0x3c2db2fa	0.010601753
54	0x3c8c7ad0	0.017148405
55	0x3c893d04	0.016752727
56	0x3c544837	0.0129566705
57	0x3c79b630	0.015241191
58	0x3c913504	0.017725475
59	0x3c39d063	0.011341187
60	0x3c85c043	0.01632703
61	0xbcbd407e	-0.023102041
62	0xbc33e422	-0.010979684
63	0xbc4ba5eb	-0.012429695
64	0x3c32b8d6	0.010908326
65	0x3bbe33c6	0.0058045117
66	0xbc4e819a	-0.012604142
67	0xbc607a45	-0.013701026
68	0x3c8f65cf	0.0175046
69	0xbb40e186	-0.0029431297
70	0x3c75049d	0.014954713
71	0xbc7c20a8	-0.015388645
72	0xbc92e996	-0.017933648
73	0x3c990007	0.01867677
74	0xbc785009	-0.015155801
75	0x3c3677cf	0.011136963
76	0x3c3104a1	0.010804326
77	0x3c4e3094	0.012584824
78	0xbc8db205	-0.0172968
79	0xbc5cb65c	-0.013471212
80	0xbc8499ba	-0.016186584
81	0xbbb89ac7	-0.0056336853
82	0xbc650070	-0.013977155
83	0x3c834c3e	0.016027566
84	0x3c8382f4	0.016053654
85	0xbc267dad	-0.010161799
86	0xbc5a537a	-0.013325566
87	0x3c48d51a	0.012257839
88	0xbc7fbd15	-0.0156090455
89	0x3c3309b7	0.010927609
90	0x3c69f74e	0.014280153
91	0x3c5b3e21	0.013381512
92	0xbc646742	-0.013940634
93	0xbc8f7612	-0.017512355
94	0x3c7e1ddc	0.015510049
95	0xbc841dbf	-0.016127465
96	0x3c9dbf4a	0.019256253
97	0xbc88c9ef	-0.016697852
98	0xbc8c9a85	-0.017163524
99	0xbc832cba	-0.016012538
100	0x3c354ae6	0.01106522
101	0xbc5f7e5d	-0.013640967
102	0xbc6f5bbd	-0.014609274
103	0x3c84dd58	0.016218826
104	0xbc4aa2af	-0.012367888
105	0xbc6e69e9	-0.014551618
106	0xb99faa3e	-0.00030453684
107	0x3c6f06e6	0.014589047
108	0x3c67558c	0.014119517
109	0x3c36f3f7	0.011166564
110	0xbc470565	-0.012147282
111	0x3c8107ee	0.015750851
112	0x3c934a87	0.017979873
113	0xbc4adade	-0.012381284
114	0x3c920fd6	0.017829817
115	0xbc60d0d3	-0.013721663
116	0xbc3584c6	-0.011079019
117	0x3c75609e	0.014976649
118	0xbc53b176	-0.012920728
119	0xbc8eba55	-0.017422834
120	0xbc2d7f1f	-0.01058939
121	0x3c1badb7	0.009501866
122	0xbb80dd49	-0.0039326292
123	0xbc41b81a	-0.011823678
124	0x3c7817f5	0.015142431
125	0x3c9465a1	0.018114867
126	0x3c6b55da	0.01436373
127	0xbc8b2d47	-0.016989363
