PPO/PPO3_Trained/PPO_DoubleInvPendulum_900K.pth (torch, 410281 bytes, 18 tensors)

actor.0.weight f4 [128, 6]
0	0x3f0296a8	0.51011133
1	0x3e9c760a	0.30558807
2	0xbcf4944e	-0.029855873
3	0x3ef4b88f	0.47797057
4	0x3f95685b	1.1672472
5	0xbde36bc9	-0.11104543
6	0xbec58545	-0.3857824
7	0xbe07d271	-0.13263871
8	0x3eb37f73	0.35058174
9	0xbecb8f9e	-0.3975801
10	0xbf98effc	-1.1948237
11	0x3f042153	0.5161335
12	0xbf816b35	-1.0110842
13	0x3dac30ac	0.08407721
14	0xbe92b0e4	-0.28650582
15	0xbe81f908	-0.25385308
16	0xbf8c0699	-1.0939513
17	0x3f8827ac	1.0637107
18	0xbf300c02	-0.6876832
19	0xbe8713b4	-0.2638222
20	0xbdb1f142	-0.086885944
21	0xbddf3e11	-0.1090051
22	0xbfa91e09	-1.3212291
23	0x3e821aa2	0.25410944
24	0xbf71a239	-0.9438816
25	0x3e87e28a	0.26540023
26	0xbec60b2e	-0.38680404
27	0xbe95b90e	-0.29242748
28	0xbf8463c3	-1.0342945
29	0x3ee86b4d	0.45394364
30	0xbf4b38c3	-0.79383487
31	0xbe9610b2	-0.29309613
32	0x3dd54017	0.10412615
33	0xbf344161	-0.7041226
34	0xbf943338	-1.1578131
35	0x3ea22590	0.31669283
36	0x3ebcd6e0	0.36882687
37	0x3e09a161	0.13440467
38	0x3dc0c75b	0.09413024
39	0xbe991ccb	-0.2990478
40	0x3f22a194	0.635278
41	0xbf49b782	-0.78795636
42	0xbf52762a	-0.82211554
43	0x3cd13cf5	0.025541762
44	0x3e3f4868	0.18679965
45	0x3e19e5a4	0.15029007
46	0xbf8636e9	-1.0485507
47	0x3e9d14bc	0.30679882
48	0xbf7cdc32	-0.9877349
49	0xbe86ec19	-0.26352003
50	0x3e851862	0.25995165
51	0xbf517f09	-0.81834465
52	0xbfada6b8	-1.3566504
53	0xbc968904	-0.018375881
54	0x3cc817ba	0.024425376
55	0xbe290b50	-0.16508222
56	0xbd836435	-0.06415597
57	0xbdb88869	-0.09010393
58	0x3ed906c7	0.42387983
59	0xbeeaee5a	-0.45884973
60	0x3f256ba8	0.64617395
61	0xbe61cf30	-0.22051692
62	0xbd123ad7	-0.035700645
63	0x3dd00819	0.101577945
64	0x3f8d2457	1.1026715
65	0xbf0d266a	-0.5513674
66	0x3f92c23b	1.1465524
67	0x3e0d6d3e	0.13811204
68	0xbe7e8ee3	-0.24859194
69	0x3f20cd43	0.62813205
70	0x3f9d675b	1.2297167
71	0xbed1d5ba	-0.40983373
72	0xbdf11289	-0.117711134
73	0x3e0d6fa7	0.13812123
74	0xbe863918	-0.26215434
75	0x3e604a32	0.21903303
76	0xbf46adbd	-0.77608854
77	0x3f01be48	0.5068097
78	0x3f9a4305	1.2051703
79	0xbd189c05	-0.037258167
80	0x3cc352a4	0.023843117
81	0x3f4de43b	0.8042638
82	0x3fc3ea69	1.5305911
83	0xbd7fdc59	-0.062466
84	0x3daaab00	0.08333397
85	0x3eac7660	0.33684063
86	0xbea44df5	-0.32090726
87	0x3e30f8db	0.17282431
88	0x3f753264	0.95780015
89	0xbd8b5bc0	-0.06804609
90	0x3deb7e61	0.11498714
91	0xbe28fcfc	-0.16502756
92	0x3e22254d	0.15834542
93	0x3f271dae	0.6527966
94	0x3f57aed8	0.84251165
95	0xbf16e405	-0.5894168
96	0x3f27ce35	0.6554902
97	0xbebc89cb	-0.36823878
98	0x3e087c9b	0.13328783
99	0x3f47eaa2	0.78092396
100	0x3f839051	1.0278417
101	0xbd187ab7	-0.037226405
102	0xbe9e4961	-0.3091536
103	0x3e6d8104	0.23193747
104	0x3dbcee07	0.092250876
105	0xbf16b9ac	-0.5887706
106	0xbf825eb2	-1.0185149
107	0x3f00b4a2	0.50275624
108	0xbe50e306	-0.20399103
109	0xbda93880	-0.0826273
110	0xbd1ed388	-0.03877595
111	0xbdfd3616	-0.12363832
112	0xbe833a23	-0.25630292
113	0xbedc1001	-0.4298096
114	0xbe196e6e	-0.14983532
115	0xbe1a6891	-0.15078951
116	0x3d8a69c3	0.06758454
117	0x3f001ae2	0.5004102
118	0xbf408c18	-0.75213766
119	0x3ecb90b6	0.39758843
120	0xbfa8b0a3	-1.3178905
121	0x3e6c87bf	0.23098658
122	0xbe17b85f	-0.14816426
123	0xbf03f611	-0.5154734
124	0xc001ca0c	-2.027957
125	0x3f91899d	1.1370121
126	0xbca6b51a	-0.020350028
127	0xbe8e75e2	-0.27824312
128	0xbd9087dc	-0.07057163
129	0xbd175bcb	-0.036952775
130	0x3f0e7753	0.55650824
131	0x3d61d3dc	0.055133685
132	0x3e4ee730	0.20205379
133	0xbe3a6ce3	-0.182056
134	0xbe4a065d	-0.1972899
135	0x3e22a2a8	0.15882361
136	0xbf3560e0	-0.70850945
137	0x3f38f9df	0.72256273
138	0xbf216383	-0.6304247
139	0xbda9bdea	-0.08288176
140	0xbe7ddb70	-0.2479074
141	0xbe0bbf9e	-0.13647315
142	0xbfa1f6f2	-1.2653487
143	0x3d8f6218	0.07001132
144	0xbe92c039	-0.2866228
145	0x3e88e209	0.2673495
146	0xbe03b1a5	-0.12860735
147	0xbc82f528	-0.01598604
148	0xbf1fae0b	-0.62374943
149	0x3ea83185	0.3285028
150	0x3f2c2e6f	0.6725835
151	0x3e4e6343	0.20155053
152	0xbebc5651	-0.36784604
153	0x3f5a11fe	0.85183704
154	0x3f9d45d0	1.228693
155	0xbe17581e	-0.14779708
156	0xbf67d0c6	-0.9055294
157	0x3e82c872	0.25543553
158	0xbe9969dd	-0.2996358
159	0xbdb3e17b	-0.08783241
160	0xbfaf58b8	-1.369895
161	0x3f7e2928	0.9928155
162	0xbf127e05	-0.5722354
163	0xbe467809	-0.19381727
164	0xbd19dcde	-0.03756415
165	0xbe8dd13b	-0.27698693
166	0xbfce8d7c	-1.6136928
167	0x3ddf573b	0.1090531
168	0xbf09b45e	-0.53790843
169	0x3bf9bdb8	0.007621493
170	0x3e195c5b	0.14976637
171	0xbd0dd113	-0.034623217
172	0xbf7bb14a	-0.98317397
173	0x3ecac895	0.39606157
174	0x3e0e5e36	0.13903126
175	0xbe4215b5	-0.18953593
176	0x3e2c3b39	0.16819467
177	0x3eaff81d	0.34368983
178	0x3f400368	0.750052
179	0xbecb84c3	-0.39749727
180	0xbee17b78	-0.44039512
181	0xbb8cb08f	-0.0042935084
182	0xbe96dc92	-0.29465157
183	0xbe9aee08	-0.30259728
184	0xbfb98aaa	-1.4495442
185	0x3f2b561e	0.6692828
186	0x3f534962	0.8253385
187	0xbdd62711	-0.1045667
188	0x3e9e1b1a	0.30880052
189	0x3f315a89	0.6927877
190	0x3f896027	1.0732468
191	0xbe90d3cc	-0.28286588
192	0x3f11f460	0.5701351
193	0x3e376f2c	0.17913502
194	0xbe8535e6	-0.26017684
195	0x3f00c3ea	0.5029894
196	0x3f62f386	0.8865284
197	0x3e824343	0.25441942
198	0xbee36a4d	-0.4441704
199	0xbe16b563	-0.14717631
200	0x3e44f776	0.19235024
201	0x3d018f2c	0.03163068
202	0x3e8141c1	0.2524548
203	0xbf2c4c0a	-0.67303526
204	0x3d50ec5a	0.051006652
205	0xbe345381	-0.17609979
206	0x3df3a2b1	0.11896265
207	0xbecbcaf0	-0.39803267
208	0x3e04285c	0.12906021
209	0xbe6a3d4a	-0.22874942
210	0xbf8cbb04	-1.0994573
211	0x3eb7dd9e	0.35911268
212	0xbe9c23e2	-0.30496126
213	0xbf4c25c3	-0.7974512
214	0xbfa0378b	-1.251695
215	0xbd8ce52c	-0.068796486
216	0xbd66367a	-0.056204297
217	0xbd2f0937	-0.042733397
218	0x3e15de65	0.14635618
219	0xbc86e514	-0.016466655
220	0xbf824975	-1.0178667
221	0x3f1a8b8b	0.60369176
222	0x3f2e88e5	0.68177634
223	0xbd679063	-0.056534182
224	0x3eafb165	0.3431503
225	0x3eb65e75	0.3561894
226	0x3fa7afde	1.3100545
227	0xbf088d2a	-0.533404
228	0x3f22db02	0.6361543
229	0x3d32a2c2	0.04361225
230	0xbd9e6f3f	-0.07736062
231	0x3f4d71dc	0.8025186
232	0x3f94aebb	1.1615824
233	0xbda2d4c2	-0.079507366
234	0xbdcf2a72	-0.10115518
235	0xbe8cb478	-0.27481437
236	0x3e83d0b3	0.25745162
237	0xbeb17935	-0.34662786
238	0xbf35ccb1	-0.7101546
239	0x3ee6964c	0.45036542
240	0xbf6953c2	-0.9114343
241	0x3e26b2a6	0.16279086
242	0xbe43b1e0	-0.19110823
243	0xbf094f90	-0.5363703
244	0xbf967c1d	-1.1756626
245	0x3f1fdb4c	0.62443995
246	0xbf5b9c32	-0.8578521
247	0xbd3bb591	-0.045827452
248	0xbe675c6a	-0.22593847
249	0xbe4bf617	-0.19918095
250	0xbfa01fdd	-1.2509724
251	0x3ea7e94d	0.32795182
252	0x3f8b9cc4	1.0907216
253	0xbdb80074	-0.089844614
254	0x3e852021	0.26001075
255	0x3f202180	0.62551117

actor.0.bias f4 [128]
0	0xbe6277dc	-0.22116035
1	0xbebb9da3	-0.36643705
2	0xbd7bac4a	-0.061443605
3	0x3e83d553	0.2574869
4	0x3e541860	0.20712423
5	0x3ea19098	0.3155563
6	0x3e9068b6	0.28204888
7	0xbd5548b1	-0.052071277
8	0xbddf6430	-0.10907781
9	0x3d1adb36	0.037806712
10	0x3e57851a	0.21046868
11	0x3e34ce0f	0.1765673
12	0xbe82347b	-0.25430664
13	0x3da7e9c7	0.08198886
14	0xbd239a3c	-0.03994201
15	0xbce7f6a5	-0.028315851
16	0x3e9d8ef8	0.3077314
17	0x3e4a5b6c	0.19761437
18	0x3e269d74	0.16271001
19	0x3e154f3e	0.1458101
20	0xbe16099b	-0.14652102
21	0xbdad69f0	-0.084674716
22	0x3e9549b1	0.29157785
23	0x3c7f1d8d	0.01557101
24	0xbe5745e6	-0.21022758
25	0x3e80dbc4	0.25167668
26	0x3d22be77	0.039732423
27	0x3e4a7564	0.19771343
28	0xbda1cc87	-0.079003386
29	0x3d1d8e51	0.0384658
30	0x3ea37c6d	0.31930867
31	0x3bb79bcf	0.0056032906
32	0xbd8b9bd5	-0.06816832
33	0xbd71102b	-0.05885331
34	0x3dd484d4	0.103768975
35	0xbe365986	-0.17807588
36	0xbd0aaa94	-0.033854082
37	0xbe40bbc6	-0.1882163
38	0x3e1ca48b	0.15297143
39	0x3e42a1bb	0.19007008
40	0xbe126ebc	-0.14300054
41	0x3db455ca	0.088054255
42	0xbe18885c	-0.14895767
43	0xbe15a49d	-0.14613576
44	0x3df9b24e	0.12192212
45	0xbdc94d50	-0.09829199
46	0x3e830e92	0.25597054
47	0xbe6882ee	-0.22706196
48	0x3cb89d2d	0.022535885
49	0xbe948a0c	-0.2901157
50	0xbdcd7114	-0.100313336
51	0xbed13fa0	-0.40868855
52	0x3da3bb4d	0.07994709
53	0x3d701fc7	0.058624055
54	0x3e54f79e	0.20797583
55	0xbc452f12	-0.012035148
56	0xbea1773d	-0.31536284
57	0xbea8c7cf	-0.32964942
58	0xbda58005	-0.080810584
59	0xbe1c1ddc	-0.15245765
60	0x3ef4831d	0.47756281
61	0xbe40f7a1	-0.18844463
62	0x3dcec496	0.100960895
63	0x3cc52c3a	0.02406894
64	0xbec006ff	-0.37505338
65	0x3ebe7850	0.37201166
66	0x3dd08969	0.10182459
67	0xbd275a37	-0.04085752
68	0x3e74c0ab	0.23901622
69	0x3de5752a	0.11203988
70	0xbeb4dc0b	-0.3532413
71	0x3ed0a52b	0.40751013
72	0xbeb78649	-0.3584464
73	0xbe9c7bd9	-0.30563238
74	0x3dea8b7c	0.11452386
75	0x3e684ef2	0.22686365
76	0xbec3dbf3	-0.38253745
77	0x3eb643ca	0.35598594
78	0x3a3a6fe8	0.0007112012
79	0x3d360305	0.044436473
80	0x3e6ae338	0.2293824
81	0xbe427a61	-0.18991996
82	0x3dea99b2	0.11455096
83	0xbd658515	-0.05603512
84	0xbe3c3081	-0.18377878
85	0x3c7289a2	0.014803322
86	0x3e82fe2e	0.2558455
87	0x3e4a18dd	0.19736047
88	0xbca145f5	-0.019686678
89	0x3e15db7f	0.14634512
90	0xbe524942	-0.20535758
91	0x3e66cb76	0.22538552
92	0xbd7c6eca	-0.061629094
93	0x3e183dfc	0.14867395
94	0x3e5b9ce9	0.21446575
95	0x3e519063	0.20465235
96	0xbbb3df6a	-0.0054892795
97	0xbd0d4eb0	-0.03449887
98	0x3d40da25	0.04708304
99	0x3e8a2726	0.26982993
100	0x3d004171	0.03131241
101	0x3e285b75	0.16441138
102	0x3e06bfc2	0.13159087
103	0xbe57efb5	-0.21087535
104	0x3eac1773	0.3361164
105	0x3e481ff2	0.19543436
106	0xbb916db7	-0.004438128
107	0xbe7c1ef6	-0.24621186
108	0x3e014405	0.12623604
109	0x3dd9ce80	0.1063509
110	0xbe807f3b	-0.2509707
111	0x3d58cda7	0.0529305
112	0xbd49b82c	-0.049247906
113	0xbe340004	-0.17578131
114	0x3e64484f	0.22293209
115	0xbc9f0b7e	-0.01941466
116	0xbd106983	-0.035256874
117	0xbe2d7699	-0.16939773
118	0xbdd1ebde	-0.10250066
119	0x3d5daebc	0.054121718
120	0x3dbb1019	0.0913393
121	0xbe5b292f	-0.21402429
122	0xbe7ca12e	-0.2467086
123	0x3bad3e3f	0.0052869613
124	0x3ebe5a03	0.37178048
125	0x3e0a299f	0.1349244
126	0xbd042df6	-0.032270394
127	0x3e580628	0.21096098

actor.2.weight f4 [128, 128]
0	0xbc7fa507	-0.01560331
1	0xbe122226	-0.14270839
2	0xbcf0fc6a	-0.029417235
3	0xbde8ed2a	-0.113733605
4	0xbcb7e75d	-0.02244919
5	0xbe6d55f2	-0.23177317
6	0xbcecd222	-0.028908793
7	0x3dc04b07	0.0938931
8	0xbe1683f5	-0.14698775
9	0xbcc9aa9d	-0.024617488
10	0x3d35cfad	0.04438751
11	0x3f1f5be7	0.62249607
12	0x3cc813fc	0.024423592
13	0x3ebad0cb	0.3648742
14	0xbd30a196	-0.04312285
15	0x3cc47289	0.023980396
16	0xbbda7c32	-0.0066676373
17	0xbc29c87a	-0.010362739
18	0xbd734646	-0.05939319
19	0x3d5c2199	0.05374298
20	0xbf1fc635	-0.62411815
21	0x3d2a3a47	0.041559484
22	0x3cdefcad	0.027220095
23	0x3d149ebc	0.036284193
24	0x3ca1108b	0.019661209
25	0x3eee45da	0.46537668
26	0xbdd70116	-0.10498254
27	0xbd80c1fe	-0.06287001
28	0x3c9968fa	0.018726815
29	0x3d11a606	0.035558723
30	0xbd3ec7a8	-0.046577126
31	0x3d8981f4	0.0671424
32	0x3d5bae34	0.05363293
33	0xbd86f376	-0.06589405
34	0x38c715ee	9.493144e-05
35	0xbe681d57	-0.22667442
36	0x3d991736	0.0747513
37	0x3c9e96cd	0.019359017
38	0x3d790fdf	0.06080615
39	0xbd1be641	-0.038061384
40	0x3d06f844	0.03295161
41	0x3d503c43	0.05083872
42	0xbd1f2a49	-0.038858686
43	0x3d9e0a38	0.07716793
44	0xbd86181a	-0.06547566
45	0xbdc915ca	-0.09818609
46	0x3d1c0566	0.038091086
47	0x3c9701c3	0.018433457
48	0x3dc384e2	0.0954683
49	0xbe209872	-0.15683153
50	0xbdca2a30	-0.09871328
51	0xbe640e21	-0.22271015
52	0x3bc17f19	0.005905044
53	0xbd6b37b0	-0.057426155
54	0xbc52dfba	-0.012870723
55	0x3d4fb3e0	0.05070865
56	0x3b86a729	0.0041092825
57	0xbbe65a33	-0.0070297956
58	0xbdc264a4	-0.09491852
59	0x3df753c5	0.12076525
60	0xbca07b02	-0.019589905
61	0xbcb1bd63	-0.021696752
62	0xbddaa9ef	-0.106769435
63	0x3d93c7a3	0.07215812
64	0xbc2bf856	-0.01049622
65	0x3b1261f8	0.0022336226
66	0x3ccb8006	0.02484132
67	0xbd017143	-0.031602155
68	0xbd6e50c1	-0.05818248
69	0x3d2f06a3	0.04273094
70	0xbcdcc9cb	-0.026951691
71	0x3d1a5625	0.03767981
72	0xbda4e0e0	-0.08050704
73	0xbde62243	-0.11237004
74	0x3e73f8b7	0.23825346
75	0xbd5b3a7e	-0.05352258
76	0xbde5c2a0	-0.112187624
77	0x3de40255	0.11133257
78	0xbd4a20a6	-0.049347542
79	0xbd912802	-0.07087709
80	0xbd358263	-0.0443138
81	0x3c15e8fe	0.009149788
82	0x3cc9a445	0.024614463
83	0x3d526bad	0.05137222
84	0xbd6bacea	-0.05753795
85	0xbbd6af2f	-0.006551645
86	0x3d997fa6	0.0749505
87	0xbdc12dec	-0.09432587
88	0xbcfbd4b7	-0.030741079
89	0xbce465a9	-0.027880507
90	0x3d3498e6	0.044091128
91	0xbe151534	-0.1455887
92	0x3ce389b1	0.027775617
93	0xbdccd9d7	-0.10002487
94	0x3da67630	0.08128011
95	0xbca88042	-0.02056897
96	0xbadad108	-0.0016694376
97	0xbdbb810a	-0.091554716
98	0x3d9b4e16	0.07583253
99	0xbabcd33b	-0.0014406213
100	0x3ca3e8a3	0.02000839
101	0x3cabed1d	0.020987088
102	0xbd70db05	-0.058802623
103	0x3d242a30	0.040079296
104	0xbe255a67	-0.16147767
105	0x3e3e61fd	0.18592067
106	0xbdcc1278	-0.0996446
107	0xbd51ef58	-0.051253647
108	0x3d8a6543	0.067575954
109	0x3dd783cf	0.10523187
110	0xbcd785f9	-0.026309
111	0xbdca5b5f	-0.09880709
112	0xbda13ff1	-0.07873524
113	0x3d4dfe4c	0.050291345
114	0x3b551a9d	0.0032517083
115	0xbdb5e0fd	-0.08880804
116	0x3cb58a9e	0.022160824
117	0x3cc5b6f9	0.0241351
118	0xbd5e9a05	-0.054346103
119	0xbd4e2ab8	-0.05033371
120	0xbe05f0c5	-0.13080128
121	0xbb818b5b	-0.00395338
122	0x3d5e7836	0.05431386
123	0x3e325554	0.17415363
124	0x3ccff2ed	0.02538439
125	0x3e53d297	0.20685802
126	0xbdc66757	-0.09687679
127	0xbc4d6d28	-0.012538232
128	0xbbd46df9	-0.0064828363
129	0x3e292488	0.16517842
130	0x3d7a3f29	0.06109539
131	0xbd28440c	-0.04108052
132	0xbbcd9166	-0.0062734364
133	0x3e10b4e9	0.14131512
134	0x3daabab6	0.083363935
135	0x3dbd1c79	0.09233946
136	0x3daae521	0.08344484
137	0xbda6ed4f	-0.08150732
138	0x3d5b2015	0.053497393
139	0xbf06d63e	-0.5267066
140	0x3d6a6e43	0.05723406
141	0xbe0dd252	-0.13849762
142	0x3d0742db	0.033022743
143	0xbd4ab143	-0.049485456
144	0xbdb065fb	-0.08613201
145	0xbb8a86c6	-0.004227492
146	0x3cedc6a9	0.029025393
147	0x3e2a5ba3	0.16636519
148	0x3f4dd685	0.80405456
149	0x3d404293	0.04693849
150	0xbca5bb18	-0.020230815
151	0x3ca9dd7f	0.0207355
152	0x3cb3c091	0.021942409
153	0xbe6d4765	-0.23171766
154	0x3e0884e9	0.13331951
155	0xbd3c626b	-0.045992296
156	0xbc1c3fc3	-0.009536686
157	0xbc7443f7	-0.014908782
158	0x3c90490b	0.017612955
159	0xbc72b865	-0.014814471
160	0xbd596474	-0.053074315
161	0xbdcfd44a	-0.10147913
162	0x3ca6f70d	0.020381475
163	0x3d64878a	0.055793323
164	0xbc904c8c	-0.017614625
165	0x3d2180ea	0.039429583
166	0x3cde802c	0.027160726
167	0xbbbbc5a8	-0.0057303496
168	0x3d049c1c	0.03237544
169	0x3d9c7561	0.07639576
170	0xbdecb12b	-0.115572296
171	0xbda7701b	-0.08175679
172	0x3d9c485d	0.0763099
173	0x3d354213	0.044252466
174	0x3d8de3e6	0.06928234
175	0x3dbfa198	0.093569934
176	0xbdb8b5ff	-0.09019088
177	0xbe2e3f9b	-0.17016451
178	0x3bddd154	0.0067693386
179	0xbd97123b	-0.07376524
180	0xba196c56	-0.000585263
181	0x3b72399a	0.0036960603
182	0xbd9eb171	-0.07748688
183	0xbd508cc5	-0.0509155
184	0xbd14243a	-0.03616736
185	0xbdc6c1d3	-0.09704938
186	0xbcc8d411	-0.024515184
187	0xbd425cd3	-0.047451805
188	0xbd04bac0	-0.03240466
189	0x3ddfdae2	0.109304205
190	0xbd1a2610	-0.037633955
191	0x3e423a24	0.18967491
192	0xbe19a494	-0.15004188
193	0x3d8e8716	0.06959359
194	0xbcf6a8be	-0.03010976
195	0x3cbd7a74	0.02312968
196	0x3d3f53a2	0.046710618
197	0xbd699a7e	-0.0570321
198	0x3d4aed24	0.04954256
199	0x3d31113b	0.043229323
200	0xbd92c30c	-0.071661085
201	0xbbb0b4d4	-0.00539265
202	0x3e3df214	0.18549377
203	0xbd838d57	-0.06423443
204	0x3dc1ba17	0.09459322
205	0x3d8189e0	0.06325126
206	0x3d092826	0.033485554
207	0x3d7fcbb3	0.062450122
208	0x3d79cb35	0.06098481
209	0xbda7ef56	-0.081999466
210	0x3cd37d1c	0.025816493
211	0xbe2ef0a2	-0.17083982
212	0xbd21e4e6	-0.039524935
213	0xbd608c0c	-0.05482106
214	0xbd0b0514	-0.03394039
215	0x3daa6f63	0.083220266
216	0xbd81754d	-0.063212015
217	0xbca5e7fd	-0.020252222
218	0xbd2e5b00	-0.042567253
219	0x3d22faae	0.039789848
220	0xbca86bed	-0.020559276
221	0x3c818dcf	0.01581469
222	0xbcdcc2d3	-0.026948368
223	0xbd82f3de	-0.0639417
224	0xbdac73b3	-0.084205054
225	0x3d06a5af	0.032872852
226	0xbd658ae7	-0.05604067
227	0x3bc44a48	0.0059903003
228	0x3ca936b4	0.020655967
229	0x3d597f40	0.05309987
230	0xbe0a71be	-0.13519952
231	0x3ddcd8b6	0.10783522
232	0x3d07d652	0.033163376
233	0x3d2d67f6	0.042335473
234	0x3d04a384	0.032382503
235	0x3d4a9d28	0.049466282
236	0x3cc45540	0.023966432
237	0xbe2bab2c	-0.16764516
238	0x3dae34f2	0.08506192
239	0xbc097b96	-0.008391282
240	0x3c158be4	0.009127591
241	0xbda07e51	-0.07836593
242	0x3d94ff06	0.07275204
243	0xbd0778dd	-0.03307425
244	0xbe10743e	-0.14106843
245	0x3c63e781	0.013910175
246	0x3cdb9473	0.026804185
247	0x3d89153e	0.06693505
248	0x3c0af0c0	0.008480251
249	0xbcb81091	-0.022468837
250	0x3b93f2b2	0.0045150155
251	0xbc38641c	-0.011254337
252	0x3d8f744f	0.07004606
253	0xbd90f24c	-0.070774645
254	0x3b72911d	0.0037012764
255	0xbd8e2f43	-0.06942608

actor.2.bias f4 [128]
0	0xbcd93f7a	-0.026519526
1	0x3d19d81b	0.03755961
2	0x3c96e0e2	0.01841778
3	0x3c85d1a1	0.01633531
4	0xbd591acc	-0.05300407
5	0xbd164f81	-0.036696915
6	0x3d10705d	0.035263408
7	0x3d8e5dc5	0.06951479
8	0x3d49a4a0	0.049229264
9	0xbcb721c1	-0.022354962
10	0xbc814652	-0.015780602
11	0x3da813a6	0.08206873
12	0x3d851d33	0.0649971
13	0x3d81ddad	0.063411094
14	0xbbf56052	-0.007488289
15	0x3c9062eb	0.017625293
16	0x3d4005c8	0.046880513
17	0xbd197fd1	-0.03747541
18	0x3cbdce6d	0.02316972
19	0x3da2a6dc	0.07941982
20	0xbd82842c	-0.06372866
21	0x3d9ca3db	0.076484405
22	0xbda6056a	-0.081065014
23	0xbcbe6806	-0.023242962
24	0xbcb726da	-0.022357393
25	0xbd11eb8f	-0.035625037
26	0x3cfe50f5	0.031044463
27	0x3d3e1807	0.046409633
28	0xbd715d7a	-0.058927037
29	0x3d4bfc3f	0.049801107
30	0x3dc4af03	0.09603693
31	0x3d8595db	0.06522723
32	0xbcd0eb17	-0.025502725
33	0xbc0d0102	-0.008606197
34	0x3c88c96f	0.016697614
35	0xbd25fc65	-0.040523905
36	0x3d52d250	0.0514701
37	0xbd96fab8	-0.073720396
38	0x3ca3d4d5	0.019998947
39	0xbd987bdf	-0.074455015
40	0x3d17f167	0.037095454
41	0xbd6f6ac6	-0.058451436
42	0x3c835c7a	0.016035307
43	0xbd10f6ae	-0.035391502
44	0x3da3198f	0.07963859
45	0x3d677511	0.056508128
46	0xbd1e9679	-0.03871772
47	0xbcc73207	-0.024315847
48	0x3d8cf159	0.06881971
49	0xbd13f47f	-0.03612184
50	0x3d3dd8ba	0.046349265
51	0xbc170726	-0.009218013
52	0x3d439fd8	0.04775986
53	0x3d95a24e	0.07306348
54	0xbd2c4779	-0.04206035
55	0x3a00544d	0.00048953743
56	0x3de52238	0.11188167
57	0x3da847ac	0.08216795
58	0x3d948997	0.07252806
59	0x3d3682d0	0.044558346
60	0x3d0f1688	0.034933597
61	0xbbc50e02	-0.0060136328
62	0xbd89f0c2	-0.06735374
63	0xbcb283f8	-0.021791443
64	0x3d410c91	0.047131125
65	0x3cee9c33	0.029127216
66	0xbd4ba634	-0.04971905
67	0xbd8c4c00	-0.06850433
68	0xbc948062	-0.018127624
69	0x3d9b0ed7	0.0757119
70	0x3d97cff7	0.07412713
71	0x3c3c43e3	0.011490795
72	0x3cc9ea2c	0.024647795
73	0xbc2b430f	-0.010453
74	0x3cb8bd9e	0.022551354
75	0x3c27ec73	0.010249245
76	0xbd28f649	-0.0412505
77	0x3d4cb70f	0.049979266
78	0x3c9e6045	0.019333014
79	0xbc610ba6	-0.013735687
80	0xbda84fb4	-0.08218327
81	0xbc716ed1	-0.014735893
82	0xbc104bb6	-0.008807113
83	0x3c5206e3	0.012819025
84	0x3cf6e997	0.030140681
85	0x3cec8bbc	0.028875224
86	0xbbe74d95	-0.007058809
87	0xbaedb9a5	-0.0018136991
88	0x3d7b5920	0.061364293
89	0xbd284de7	-0.04108992
90	0x3d76d023	0.06025709
91	0x3c2350a0	0.009967953
92	0xbd0ce889	-0.03440145
93	0x3dad2ad0	0.084554315
94	0xbcc3563e	-0.023844834
95	0x3c10a12f	0.008827492
96	0x3d400071	0.04687542
97	0x3d7a175e	0.06105744
98	0x3d54d3ed	0.05195992
99	0xbbd09805	-0.0063657784
100	0xbd896faa	-0.06710751
101	0x3d0b5471	0.034016076
102	0xbdac783e	-0.08421372
103	0xbc3ffd2d	-0.011718077
104	0xba065603	-0.0005124511
105	0x3d45ba6f	0.0482735
106	0xbd95d1b8	-0.07315391
107	0xbcbb0627	-0.022830082
108	0xbd041a38	-0.032251567
109	0x3d9aa68f	0.075513
110	0x3d970b09	0.07375152
111	0x3d998a1d	0.07497046
112	0xbd4c7599	-0.049916837
113	0xbd6cfa62	-0.05785597
114	0x3c8a42f6	0.016877633
115	0x3ca96dbd	0.02068221
116	0xbc0a9a6c	-0.008459669
117	0x3da4fac8	0.08055645
118	0xbd949a35	-0.07255975
119	0xbd745f8e	-0.05966144
120	0xbd35fd6f	-0.044431146
121	0x3d6a5313	0.057208132
122	0x3d28ee34	0.041242793
123	0x3d69f3e3	0.057117354
124	0xbcdee4f6	-0.027208786
125	0x3c54b6a6	0.012983
126	0x3dd16bac	0.10225615
127	0xbcaf3ab5	-0.021390298

actor.4.weight f4 [128, 128]
0	0xb9ffb8cd	-0.00048775077
1	0xbd5489ca	-0.05188922
2	0xbd3c04f6	-0.04590317
3	0xbc848804	-0.016178139
4	0x3e2f7533	0.17134552
5	0x3cd63d00	0.026152134
6	0x3cde114d	0.027107859
7	0xbd6b09a3	-0.057382237
8	0xbdb46c4e	-0.0880972
9	0x3d016f08	0.03160003
10	0xbac65e80	-0.0015134364
11	0x3c60f630	0.013730571
12	0x3d4e0b4c	0.050303742
13	0xbc901d6c	-0.017592154
14	0xbdbb8101	-0.09155465
15	0x3da77b7e	0.08177851
16	0xbc490612	-0.012269514
17	0xbcb2d2a9	-0.021828966
18	0x3dbef822	0.09324671
19	0x3d4a1b81	0.049342636
20	0xbc7f1427	-0.01556877
21	0xbce93ee5	-0.028472373
22	0x3d81617b	0.06317421
23	0x3ca4c3ff	0.02011299
24	0xbd90954f	-0.07059728
25	0x3cd416de	0.02588981
26	0x3d07f4b9	0.03319237
27	0x3a836074	0.0010023252
28	0xbda48426	-0.08033018
29	0x3bc17e8f	0.0059049795
30	0xbd8b5ebe	-0.0680518
31	0x3d54ac21	0.051921967
32	0x3d1c863c	0.038213953
33	0xbdccff1b	-0.10009595
34	0x3d0ca940	0.034341097
35	0x3d900957	0.070330314
36	0x3cec131e	0.02881771
37	0x3cc360dd	0.023849899
38	0x3d960ad2	0.073262826
39	0x3a2c006d	0.0006561343
40	0xbd1d900a	-0.038467444
41	0x3d054405	0.03253557
42	0x3bf767f6	0.007550235
43	0x3d53a418	0.051670164
44	0xbd73c1dd	-0.059511054
45	0x3cea5453	0.028604662
46	0x3c0b15fc	0.008489128
47	0x3e28c2ba	0.16480532
48	0xbcd3573f	-0.025798438
49	0xbc89dcf9	-0.016829
50	0x3d846f22	0.064665094
51	0x3c9b1376	0.018930178
52	0x3da8d963	0.08244588
53	0xbd8d2f2d	-0.06893764
54	0xbc24d492	-0.010060446
55	0xbba9bb33	-0.0051797866
56	0xbdaecd08	-0.085352
57	0xbd93ae43	-0.07210972
58	0xbd67fcc2	-0.056637533
59	0x3c910f51	0.017707499
60	0x3b0f1841	0.0021834525
61	0x3d26cf33	0.040724944
62	0xbd7708ee	-0.06031125
63	0xbe07bb16	-0.13254961
64	0x3d8ced5a	0.06881209
65	0xbd461dc3	-0.048368227
66	0x3d908d8a	0.070582464
67	0x3c60caaa	0.013720194
68	0x3da645cf	0.08118784
69	0x3d8bcac4	0.06825784
70	0x3dcd4f64	0.10024908
71	0x3c9566cd	0.018237496
72	0xbca44fb0	-0.02005753
73	0xbc99203a	-0.018692125
74	0xbd8fe88f	-0.07026779
75	0xbc6273c7	-0.013821549
76	0xbcf72b8b	-0.03017213
77	0xbd673389	-0.056445632
78	0xbcb7d80a	-0.022441883
79	0xbd8e3b96	-0.06944959
80	0xbc0efc88	-0.0087272
81	0xbd51cc99	-0.05122051
82	0xbd5090a8	-0.050919205
83	0x3e237c16	0.15965304
84	0x3dac80e4	0.084230214
85	0xbd19f57e	-0.037587635
86	0x3e0461b2	0.12927893
87	0x3c9da88d	0.01924541
88	0x3dc573e0	0.09641242
89	0x3c8059f9	0.015667902
90	0xbd747585	-0.059682388
91	0xbd92e587	-0.07172685
92	0xbbd20404	-0.00640917
93	0xbd4cc69a	-0.04999409
94	0x3c28625b	0.010277356
95	0xbd96ec07	-0.073692374
96	0xbdf703e5	-0.1206129
97	0x3caaac71	0.02083418
98	0xbd0fc145	-0.035096426
99	0x3ba0d5f4	0.0049083177
100	0xbb1e0257	-0.0024110281
101	0xbd65ef12	-0.0561362
102	0xbd327ae2	-0.04357422
103	0xbd1b85c1	-0.037969355
104	0xbaa9eee3	-0.001296487
105	0x3d8eb0d6	0.069673225
106	0xbcbaeb35	-0.022817234
107	0xbd0b7c58	-0.03405413
108	0x3e01cf5c	0.12676758
109	0x3d39cfad	0.04536407
110	0xbb959e68	-0.0045660026
111	0xbd1c1da6	-0.038114212
112	0xbd487c2b	-0.04894654
113	0x3d892eb3	0.0669836
114	0xbbe7feb5	-0.007079924
115	0x3c07e623	0.008294615
116	0x3d141345	0.03615119
117	0x3d11972d	0.035544563
118	0x3d93e66e	0.07221685
119	0x3d8cc40f	0.06873333
120	0xbda60b1b	-0.08107587
121	0xbcb5d646	-0.0221969
122	0xbceee3be	-0.02916133
123	0x3bbe9648	0.0058162548
124	0x3d96211a	0.07330532
125	0x3d0ca503	0.034337055
126	0xbd1d2a48	-0.0383704
127	0x3b141cc3	0.002260015
128	0xbd9df1a4	-0.07712105
129	0x3bb67b9c	0.0055689346
130	0x3bf63c9d	0.00751455
131	0x3cbcef8e	0.023063447
132	0x3e90068f	0.28130004
133	0x3db5fcf8	0.088861406
134	0xb7e1e4ee	-2.6928694e-05
135	0xbd82ee52	-0.06393112
136	0x3d2322ac	0.039827988
137	0x3d88df38	0.066832006
138	0x3dc755d8	0.0973317
139	0x3d885825	0.06657437
140	0x3b56360c	0.0032686023
141	0xbcf2ebda	-0.029653478
142	0xbe215fee	-0.1575925
143	0x3c988c7e	0.01862168
144	0xbc35ed07	-0.011103875
145	0x3ce28793	0.027652537
146	0x3d546026	0.051849507
147	0x3c0c640a	0.008568773
148	0x3d2d5588	0.042317897
149	0x3cd23ead	0.025664652
150	0x3da07468	0.07834703
151	0x3d8b3dbd	0.06798885
152	0xbd45faa9	-0.04833475
153	0x3d658716	0.05603703
154	0x3ca3cbfc	0.019994728
155	0x3b23e075	0.0025005613
156	0xbd5f9c91	-0.054592673
157	0x3d33ce89	0.04389814
158	0xbc506450	-0.012719229
159	0x3d4e567e	0.050375454
160	0xbd185612	-0.037191458
161	0xbc93549f	-0.017984686
162	0x3dc9a0b7	0.09845107
163	0x3db28ce0	0.08718276
164	0x3d06ef75	0.032943208
165	0xbd31afca	-0.043380536
166	0xbc168c71	-0.009188757
167	0x3d00d445	0.031452436
168	0xbdbd88cc	-0.092546076
169	0x3c536202	0.012901785
170	0x3d9a7b61	0.07543064
171	0x3c898b86	0.016790163
172	0xbd0fcb7b	-0.035106163
173	0x3b186f5e	0.002325974
174	0xbcf10f45	-0.029426226
175	0x3e3fb6d6	0.1872209
176	0xbda920f7	-0.08258241
177	0x3d13498f	0.035958823
178	0x3c2e07a3	0.010621938
179	0xbc80bb2f	-0.015714256
180	0xbbe5ca05	-0.007012608
181	0xbcdbda11	-0.02683738
182	0xbd9ff78e	-0.07810889
183	0x3d4761ba	0.048677184
184	0xbd0f9a69	-0.035059366
185	0xbc9cfe8e	-0.01916435
186	0xbd1ece1c	-0.03877078
187	0xbd54cfef	-0.051956113
188	0xbcf8096a	-0.030277926
189	0x3d81d80f	0.06340038
190	0xbc744613	-0.014909285
191	0xbdc6b5f1	-0.09702671
192	0x3d242b54	0.040080383
193	0xbcb95fb8	-0.02262865
194	0x3dbf96f7	0.09354966
195	0xbdfc1a84	-0.12309745
196	0xbc87d342	-0.016580228
197	0x3e45c9d7	0.19315277
198	0x3df5c409	0.12000281
199	0xbc5ab5f4	-0.013349045
200	0x3c9bbe85	0.019011745
201	0xbc4fe059	-0.012687766
202	0xbd161bcc	-0.036647603
203	0xbce5c46b	-0.028047761
204	0xbd0bbb4e	-0.034114175
205	0xbd868e4f	-0.06570112
206	0x3d779d98	0.060453027
207	0xbc8708a8	-0.01648362
208	0xbbb944f1	-0.0056539704
209	0x3d306526	0.043065213
210	0x3d4c63ef	0.04989999
211	0x3dd70f4d	0.10500965
212	0x3df0631b	0.11737653
213	0xbddf5364	-0.109045774
214	0x3d96c49c	0.07361719
215	0x3c7643c0	0.015030801
216	0x3e0c8b69	0.13725056
217	0x3dd67d2f	0.104730956
218	0xbcbdcf3c	-0.023170106
219	0xbd316bd6	-0.04331573
220	0xbd74d831	-0.05977649
221	0xbb7cedac	-0.0038593812
222	0xbcf787c5	-0.030216107
223	0x3cf24add	0.029576713
224	0xbdb76083	-0.08953955
225	0xbcf5e708	-0.03001739
226	0x3ccb88f1	0.024845572
227	0x3da3b04b	0.079926096
228	0xbd85e69d	-0.065381266
229	0xbd2be3b0	-0.041965187
230	0xbd54f967	-0.05199566
231	0x3d574811	0.052558962
232	0x3d07b0cb	0.033127587
233	0x3c891919	0.0167356
234	0x3a172333	0.0005765438
235	0xbc8d5910	-0.017254382
236	0x3da50ec2	0.080594555
237	0x3cd95806	0.02653123
238	0x3d68afc1	0.056808237
239	0xbc3206ff	-0.010865926
240	0xbce1f512	-0.027582679
241	0x3d77ef60	0.06053102
242	0x3c9e34c1	0.019312264
243	0xbdce4041	-0.10070849
244	0x3d3993d8	0.04530701
245	0xbc33b735	-0.010968973
246	0x3d844b2b	0.0645965
247	0x3db3b89c	0.08775446
248	0x3d3cf134	0.046128467
249	0xbd9bbd74	-0.07604495
250	0xbdf8ad3a	-0.12142415
251	0x3cfd1e5c	0.030898266
252	0x3e0fe239	0.14051141
253	0x3ddc87fc	0.107681245
254	0x3bbf7a66	0.0058434485
255	0x3d7621b7	0.060090747

actor.4.bias f4 [128]
0	0x3ce1acd6	0.027548235
1	0x3d0296e1	0.03188217
2	0xbc8f4333	-0.017488098
3	0xbc24dd40	-0.010062516
4	0x3cf40f8f	0.029792575
5	0xbd2c9c09	-0.042140994
6	0xbd0fe760	-0.035132766
7	0x3ce689f2	0.02814195
8	0x3d256509	0.040379558
9	0xbd5264b9	-0.051365588
10	0x3c8f9b1e	0.01753002
11	0x3c28cef9	0.010303252
12	0x3d4baeb1	0.049727146
13	0xbc7d3a4a	-0.015455792
14	0xbd7d61c3	-0.06186081
15	0x3d1de196	0.038545214
16	0x3c4a86e8	0.012361266
17	0xbd2a31d4	-0.041551426
18	0x3d7b622c	0.06137292
19	0xbc886e73	-0.016654229
20	0xbd470e52	-0.04859764
21	0xbd6f140a	-0.05836872
22	0xbbc5e99a	-0.0060398104
23	0x3d1ce647	0.038305547
24	0xbc2a1d1f	-0.01038292
25	0x3c0b4b0b	0.008501778
26	0xbd6dc961	-0.058053378
27	0x3c84f6bc	0.016230933
28	0xbc81f045	-0.01586164
29	0xbc6a6c62	-0.014308067
30	0x3c594e8a	0.013263354
31	0x3d790656	0.060797058
32	0x3caadc01	0.02085686
33	0xbd04d67e	-0.03243112
34	0x3ce8ed9e	0.028433617
35	0xbd1d02b9	-0.038332675
36	0xbc737a78	-0.014860742
37	0x3d849220	0.06473184
38	0xbbbbff4c	-0.005737221
39	0xbd1ba103	-0.03799535
40	0xbc8a7d04	-0.016905315
41	0xbd008825	-0.031379838
42	0x3d366c29	0.044536743
43	0x3c7386a6	0.014863646
44	0x3ba2cc79	0.0049682227
45	0xbc7abced	-0.0153038325
46	0xbca993b6	-0.020700317
47	0xbd474c10	-0.048656523
48	0xbc6ddedb	-0.014518465
49	0x3cd2dd29	0.025740223
50	0xbd244b32	-0.040110774
51	0xbc46f82f	-0.0121441325
52	0xbc061834	-0.008184481
53	0x3d463855	0.048393566
54	0x3da88305	0.08228115
55	0xbc7b00da	-0.015320027
56	0xbc9f042f	-0.019411175
57	0x3bc23e83	0.005927862
58	0xbc711c5d	-0.014716235
59	0xbbdafff7	-0.0066833454
60	0x3cfd3db5	0.030913213
61	0x3d7168e2	0.058937915
62	0x3c443a4b	0.011976789
63	0xbcbb2466	-0.022844505
64	0xbd4a2d78	-0.04935977
65	0xbd396013	-0.04525764
66	0xbd731423	-0.059345376
67	0xbc9d9bc5	-0.019239316
68	0x3cfc0ac8	0.03076686
69	0xbd359be0	-0.044338107
70	0x3c8869db	0.016652038
71	0xbcc1c103	-0.023651605
72	0x3b6b0bb4	0.003586513
73	0xbd3b188a	-0.0456777
74	0x3cd143e5	0.02554507
75	0xbd5d0269	-0.053957377
76	0x3d064bb3	0.032787036
77	0x3cd02e49	0.025412695
78	0xbc4564d4	-0.012047965
79	0xbd47bbfa	-0.048763253
80	0xbbcb5d02	-0.0062061558
81	0x3cbfa83a	0.023395646
82	0xbc04f13b	-0.008114154
83	0xbc1535e8	-0.0091070905
84	0xbcd2fc1d	-0.025754983
85	0x3c6a9f9a	0.014320279
86	0xbc259f97	-0.01010885
87	0xba8fbd60	-0.0010966472
88	0xbc23c9dc	-0.0099968575
89	0x3d0a32d5	0.033739883
90	0x3bf3d387	0.0074409875
91	0x3d349b2b	0.044093292
92	0xbd375ce8	-0.044766337
93	0x3c9de61c	0.019274764
94	0xbbcfa0bc	-0.0063362997
95	0x3c89ab15	0.016805211
96	0xbab43a77	-0.0013750334
97	0xbc74770c	-0.014920961
98	0x3d17be78	0.03704688
99	0x3c336d17	0.010951302
100	0x3d95440d	0.0728837
101	0xbd6d6189	-0.057954345
102	0xbd8e35a7	-0.06943827
103	0xbce6a203	-0.028153425
104	0xbd34b434	-0.044117168
105	0xbd72db82	-0.05929137
106	0x3ca62515	0.020281354
107	0xbc10521a	-0.008808637
108	0x3b56d56c	0.0032781018
109	0xbbed0378	-0.0072330795
110	0xbc352a1d	-0.011057404
111	0x3b838a5b	0.004014296
112	0x3d05cd6d	0.032666612
113	0x3d2e9ce0	0.042630076
114	0x3b204ab4	0.002445859
115	0xbd1cb8e0	-0.038262248
116	0x3b7fb5d7	0.0039018297
117	0xbcded107	-0.027199281
118	0x3d1dbae1	0.0385083
119	0xbc08bf71	-0.008346424
120	0xbc75364b	-0.014966558
121	0xbd82042b	-0.06348451
122	0xbb870393	-0.004120299
123	0xbd92d6cf	-0.07169878
124	0xbc42adb0	-0.011882231
125	0x3ce776d6	0.028254908
126	0xbd234978	-0.039864987
127	0x3d3bc179	0.045838807

actor.7.weight f4 [128, 128]
0	0xb67c1110	-3.7560858e-06
1	0xbd2c33ad	-0.04204147
2	0xbabf54c3	-0.0014597405
3	0xbe0652e9	-0.13117565
4	0xbd31ce14	-0.043409422
5	0xbd622195	-0.055207808
6	0xb88de1a8	-6.765436e-05
7	0xbd05abdc	-0.0326346
8	0xbd9b1deb	-0.07574066
9	0x3d9da0f1	0.07696713
10	0x3d177df0	0.036985338
11	0x3d9e6492	0.07734026
12	0x3ddd1087	0.10794168
13	0x3d1967b6	0.037452422
14	0xbd3bd4a9	-0.045857105
15	0x3d33f4dc	0.043934688
16	0x3d496176	0.04916521
17	0xbc3ad4b5	-0.011403252
18	0x3c74f4b6	0.014950922
19	0xbe1875dd	-0.14888711
20	0x3d4146b7	0.04718658
21	0x3c133959	0.008985841
22	0xbd01c9bf	-0.03168654
23	0xbd12ade0	-0.03581035
24	0xbe0ce9f3	-0.1376112
25	0x3c844848	0.016147748
26	0xbcdaf589	-0.026728408
27	0x3dbf84ce	0.09351502
28	0xbd13579f	-0.035972234
29	0x3dbfdb51	0.09368003
30	0xbdc6ebda	-0.09712954
31	0xbcdd331a	-0.027001906
32	0xbc412127	-0.011787689
33	0xbdc9af61	-0.09847904
34	0x3d9afede	0.07568143
35	0xbd2ff00f	-0.042953547
36	0xbdb9e721	-0.090772875
37	0x3bd3c20f	0.0064623426
38	0x3e038bda	0.12846318
39	0x3d22ea23	0.03977407
40	0x3d3707f7	0.04468533
41	0xbc690f7a	-0.014224881
42	0x3dd47b04	0.10375026
43	0xbd168aff	-0.03675365
44	0xbd8f2924	-0.06990269
45	0x3d187ab0	0.03722638
46	0xbdb100e2	-0.086427465
47	0xbda49b65	-0.08037452
48	0x3d87d225	0.06631879
49	0x3e08e6a1	0.13369228
50	0x3d842c6a	0.06453784
51	0x3d930a8e	0.071797475
52	0x3dbe15c9	0.09281499
53	0x3deee837	0.11665385
54	0x3de01192	0.10940851
55	0xbc80478a	-0.015659112
56	0xbdbd73f7	-0.09250634
57	0xbc6f58bd	-0.014608559
58	0xbd140caf	-0.03614491
59	0xbdb84702	-0.08997919
60	0xbd86354d	-0.06553135
61	0x3d241983	0.040063392
62	0xbcc794d3	-0.024362957
63	0x3d1f17c1	0.038841013
64	0xbd731a2f	-0.059351142
65	0x3d03da82	0.032190807
66	0x3b274296	0.0025521866
67	0x3dad9c0f	0.084770314
68	0x3d9cffe1	0.076659925
69	0x3ded275d	0.115797736
70	0xbdad0184	-0.08447555
71	0x3d8363de	0.064155325
72	0xbda35a0c	-0.079761595
73	0x3d2900ff	0.041260716
74	0x3d7eb296	0.06218203
75	0x3c13a501	0.009011508
76	0x3dd98f59	0.106230445
77	0x3d763d51	0.06011707
78	0xbbea7b48	-0.0071558096
79	0x3da8356c	0.082133144
80	0x3cd64f17	0.02616076
81	0xbda22b40	-0.079184055
82	0xbd63446a	-0.055485167
83	0x3cb79187	0.02240826
84	0x3d84f2a4	0.064915925
85	0xbcf5548d	-0.029947544
86	0x3e17f6fd	0.14840312
87	0x3daf5334	0.085607916
88	0xbe047cc0	-0.12938213
89	0x3e1e6b5d	0.15470643
90	0x3d391841	0.045189146
91	0xbd3e6e7c	-0.046492085
92	0xbcb5583d	-0.022136802
93	0x3df02966	0.11726646
94	0xba877281	-0.0010333807
95	0x3ddfb178	0.10922521
96	0x3d33caf6	0.04389473
97	0xbd9d15c7	-0.07670169
98	0x3d813964	0.063097745
99	0x3e0743e0	0.13209486
100	0x3d1b40a3	0.03790344
101	0xbda63733	-0.08115997
102	0xbd2d37b4	-0.04228945
103	0xbd94e6c4	-0.072705775
104	0xbb5440ae	-0.0032387185
105	0xbdf1198b	-0.1177245
106	0x3d8b07fa	0.06788631
107	0x3dad5fff	0.084655754
108	0xbd8dae2c	-0.06917986
109	0x3d73d26c	0.059526846
110	0x3de9e0cf	0.11419832
111	0xbd52463b	-0.05133651
112	0xbd96fbb9	-0.07372231
113	0x3c819d3d	0.015822047
114	0xbcb34438	-0.021883115
115	0xbd10a683	-0.035315048
116	0xbd7c9063	-0.061661135
117	0xbc8bc63e	-0.017062303
118	0x3d0651f3	0.032792997
119	0x3cf363f6	0.029710751
120	0xbcfffc56	-0.031248253
121	0xbde54eb4	-0.11196652
122	0xbdab2b09	-0.08357818
123	0x3d7ad8a1	0.06124175
124	0x3bfcaef4	0.0077112857
125	0xbd25ee78	-0.040510625
126	0xbd009f1a	-0.03140173
127	0x3d15b615	0.0365506
128	0xbe03213d	-0.12805648
129	0xbd45868f	-0.04822403
130	0x3da75a4f	0.08171522
131	0xbd5bb98c	-0.05364375
132	0xbd65f152	-0.056138344
133	0xbcc0ae3c	-0.023520581
134	0xbcd6295c	-0.026142769
135	0xbc3270d4	-0.010891158
136	0xbd79593f	-0.060876127
137	0x3da10519	0.078623004
138	0x3cfd2c20	0.03090483
139	0x3de8863e	0.1135373
140	0x3de4e712	0.11176886
141	0x3d97e973	0.07417574
142	0xbe3b00ef	-0.18262075
143	0xbb449415	-0.002999549
144	0x3d2f4e4f	0.04279929
145	0xbc56cc9d	-0.013110307
146	0x3c97d968	0.018536285
147	0xbe5b79b3	-0.21433143
148	0x3cb66113	0.022263085
149	0xbe0e0d18	-0.13872182
150	0xbd3434eb	-0.04399578
151	0xbe05d366	-0.13068923
152	0xbd249786	-0.040183567
153	0x3d9ef6d4	0.077619225
154	0x3dd7fab7	0.10545867
155	0x3ccea34a	0.025224347
156	0xbd1c6e4c	-0.038191125
157	0x3cfa0301	0.03051901
158	0xbdf7408f	-0.120728604
159	0x3d8b16bb	0.06791445
160	0xbceaf83d	-0.028682822
161	0xbd591d49	-0.053006444
162	0x3d06aa38	0.032877177
163	0xbd4224f0	-0.047398508
164	0xbd989dc5	-0.07451967
165	0xbdd26bdf	-0.10274481
166	0x3d9b4296	0.0758106
167	0x3d81696c	0.06318936
168	0x3d056192	0.032563753
169	0xbd5fc4ae	-0.054630928
170	0x3d677e1a	0.056516744
171	0x3da218bd	0.07914875
172	0xbe29abbc	-0.16569418
173	0x3d88eb18	0.066854656
174	0xbdcffcbd	-0.10155628
175	0x3ce3b551	0.02779642
176	0x3dbd1488	0.09232432
177	0x3e009331	0.12556149
178	0x3d90e735	0.07075349
179	0x3ccf3862	0.02529544
180	0x3dae11a6	0.0849946
181	0x3d6536dd	0.055960525
182	0x3bc2ad23	0.0059410497
183	0xbd671b6a	-0.05642263
184	0xbda16a7e	-0.0788164
185	0x3d947bfc	0.07250211
186	0xbe3ef0c4	-0.18646532
187	0x3d3bad0e	0.045819335
188	0xbddc54a3	-0.10758331
189	0x3cc9062f	0.024539081
190	0xbdb6dd71	-0.08928955
191	0x3dbecdb8	0.093165815
192	0xbd01f25f	-0.031725284
193	0xbcac2a49	-0.021016257
194	0xbdc361c5	-0.095401324
195	0x3d85d09c	0.0653393
196	0x3d457816	0.048210226
197	0x3d9b6a5a	0.07588644
198	0x3d3cdc89	0.046108756
199	0xbd9b8970	-0.075945735
200	0xbe1d0b42	-0.15336326
201	0x3d26121c	0.040544614
202	0xbde47c7e	-0.111565575
203	0xbd289c53	-0.041164707
204	0x3d8fc30b	0.07019623
205	0x3dfd4a3f	0.12367677
206	0xbb71cb8a	-0.0036895
207	0x3aa94ef0	0.0012917202
208	0x3b614cac	0.0034377975
209	0x3c2323be	0.009957252
210	0x3dfbfbad	0.12303863
211	0x3de57180	0.11203289
212	0x3cc45735	0.023967365
213	0x3d01fab3	0.031733226
214	0x3da6cea5	0.08144883
215	0x3d94ad52	0.07259621
216	0xbdfeecff	-0.12447547
217	0x3d2ac880	0.041695118
218	0x3dfc6c47	0.1232534
219	0x3d6c1778	0.05763957
220	0xbdda181d	-0.106491305
221	0x3ddcd47d	0.107827164
222	0xbdd98679	-0.10621352
223	0x3d013fbe	0.03155493
224	0x3d5b0352	0.053469963
225	0xbdd516df	-0.10404753
226	0x3d20627f	0.039156433
227	0x3e00e5cd	0.12587662
228	0x3d2f804f	0.042846974
229	0xbe40f77d	-0.1884441
230	0xbd5d42c5	-0.054018755
231	0xbe1215bc	-0.14266104
232	0xbd019363	-0.0316347
233	0xbddc76f9	-0.1076488
234	0xbd20a216	-0.039217077
235	0x3da93e89	0.08263881
236	0x3c44abcf	0.012003853
237	0x3de5d71c	0.112226695
238	0x3d19f391	0.0375858
239	0x3c829a74	0.01594279
240	0xbdb4fcc3	-0.08837273
241	0x3de25217	0.11050814
242	0xbc98342a	-0.018579561
243	0x3cfe1130	0.031014055
244	0xbdba0186	-0.09082322
245	0x3c5eaeba	0.013591463
246	0x3dda9212	0.10672392
247	0xbcf587be	-0.029971953
248	0xbd651c39	-0.05593512
249	0xbcf90fdf	-0.030403076
250	0xbdeb408d	-0.114869215
251	0xbd4deb7a	-0.050273396
252	0xbd9d260c	-0.076732725
253	0xbdd29425	-0.102821626
254	0xbca4043c	-0.02002155
255	0x3dba1332	0.090856925

actor.7.bias f4 [128]
0	0xbbd6a5f1	-0.0065505435
1	0x3cb3cb71	0.021947594
2	0x3d1b7b5c	0.03795944
3	0x3c8b2111	0.01698354
4	0x3ce8e407	0.028429044
5	0xbc089e4e	-0.008338524
6	0xbd469b2c	-0.048487827
7	0xbca8eb09	-0.020619886
8	0x3da54d75	0.080714144
9	0x3d077c61	0.0330776
10	0xbc726aa3	-0.014795932
11	0x3cf51b86	0.02992035
12	0xbcc48a45	-0.023991713
13	0xbcccaea0	-0.024985611
14	0xbd0e3a1f	-0.034723397
15	0xbce679f7	-0.02813433
16	0xbcaa397c	-0.020779364
17	0x3cc07942	0.02349532
18	0x3d80692b	0.06270059
19	0x3cdf10e4	0.027229734
20	0xbcd1e8ed	-0.025623763
21	0x3afc2be4	0.0019239155
22	0x3d43db0b	0.047816318
23	0x3d4da124	0.050202504
24	0x3d85deda	0.06536646
25	0x3d3d016f	0.046143945
26	0x3ccdb89d	0.025112445
27	0x3cc21371	0.023690911
28	0x3ce0b80b	0.027431509
29	0x3c4f74fa	0.012662167
30	0x3c8f7fa5	0.01751692
31	0xbce12a0c	-0.02748587
32	0x3c8d32f7	0.017236216
33	0x3ccf0f3e	0.025275823
34	0x3b48a943	0.0030618466
35	0xbd0db9b1	-0.034600917
36	0xbd313870	-0.043266714
37	0x3c5e2acc	0.013560008
38	0x3bdeeae2	0.0068029026
39	0xbd043449	-0.032276426
40	0x3c423d22	0.0118553955
41	0x3b9f5c91	0.0048633297
42	0x3c8cb95c	0.01717823
43	0xbcade405	-0.021226892
44	0x3cbc58ef	0.022991626
45	0xbcb223a4	-0.02174551
46	0x3d21c584	0.039495006
47	0xbd9caf79	-0.07650656
48	0xbd052d54	-0.03251393
49	0xbcdbd360	-0.02683419
50	0xbcc1b402	-0.023645405
51	0x3bd8be12	0.006614455
52	0xbc74f199	-0.0149501795
53	0x3d14cc46	0.036327623
54	0x3d37cec3	0.044874918
55	0x3d05cbef	0.03266519
56	0x3bab5ec0	0.005229801
57	0x3cba3dfa	0.02273463
58	0x3c1566fb	0.009118791
59	0x3a64a01e	0.0008721369
60	0x3c85f46a	0.016351897
61	0xbd3e45e7	-0.046453383
62	0xbc83ff61	-0.016112985
63	0xbd27aee4	-0.040938273
64	0x3b3806c2	0.00280802
65	0x3cd807c0	0.026370883
66	0xbd046a86	-0.03232815
67	0xbb3094f3	-0.002694425
68	0x3bb9bd2c	0.005668303
69	0xbcda65f2	-0.02665994
70	0x3d0a94b4	0.03383322
71	0xbd15f3fe	-0.036609642
72	0xbcfa6307	-0.030564798
73	0x3d759214	0.059953764
74	0xba508a56	-0.0007955184
75	0xbbfdc7b8	-0.0077447556
76	0x3d878dfb	0.066188775
77	0x3b6b8fb5	0.003594381
78	0x3bb3ab8f	0.005483098
79	0xbcf764eb	-0.030199489
80	0xbd52c8cf	-0.051461037
81	0x3ced34d7	0.02895586
82	0xbb7ccfcf	-0.0038576012
83	0x3d239644	0.039938226
84	0x3c96fe88	0.018431917
85	0xbd3915f7	-0.045186963
86	0xbc5b98b2	-0.013403105
87	0x3c1c5810	0.00954248
88	0xbd0240bb	-0.031800013
89	0x3c8b096b	0.016972264
90	0x3cc619a2	0.024182145
91	0x3d0a163e	0.033712618
92	0xbc12bb71	-0.008955822
93	0xbcb6df05	-0.02232314
94	0x3d0da6bb	0.034582835
95	0x3ad0e401	0.0015937091
96	0x3d2ac297	0.04168948
97	0xbce3f8fe	-0.02782869
98	0xbc895721	-0.01676518
99	0xbc81c01f	-0.01583868
100	0x3d4018f4	0.046898797
101	0xbd0eb5a0	-0.03484118
102	0xbd42a4bd	-0.047520388
103	0x3ac767a7	0.0015213386
104	0xbd0aef50	-0.033919632
105	0x3a0b3087	0.00053096603
106	0x3b97676d	0.0046204836
107	0x3baa15fb	0.0051906086
108	0xbc10bd69	-0.008834221
109	0xba4637a8	-0.0007561394
110	0xbd883236	-0.06650202
111	0x3cbb8894	0.022892274
112	0x3ae0bda8	0.0017146366
113	0xbc7694f7	-0.015050164
114	0x3cf3b3a3	0.029748743
115	0xbd10e1b4	-0.035371497
116	0xbd26a184	-0.040681377
117	0x3d0b7cee	0.03405469
118	0xbcc3dbbf	-0.023908494
119	0xbc951404	-0.01819802
120	0xbd6adc8e	-0.057339244
121	0x3c8c36ec	0.017116033
122	0xbca82487	-0.02052523
123	0xba843a6a	-0.001008821
124	0x3cac648f	0.021044044
125	0x3c6b091b	0.014345433
126	0x3d1f4dfb	0.038892727
127	0xbd7f88a2	-0.062386163

actor.10.weight f4 [1, 128]
0	0x3e0e0770	0.13870025
1	0x3e22937d	0.15876575
2	0x3df9dd50	0.12200415
3	0x3dd7b48c	0.105324835
4	0x3de98af8	0.11403459
5	0xbdd4a560	-0.10383105
6	0xbdebafbd	-0.11508129
7	0xbdd55749	-0.10417039
8	0x3e026681	0.12734415
9	0x3e1a45cb	0.15065686
10	0xbe0e699f	-0.13907479
11	0x3deeefbd	0.1166682
12	0xbe071dbf	-0.13194941
13	0xbde27f46	-0.11059432
14	0xbdf193b2	-0.11795749
15	0xbdf6e6ea	-0.12055762
16	0xbdd9bdc2	-0.106318966
17	0x3dec488c	0.11537275
18	0x3e0987ed	0.13430758
19	0x3e02b289	0.12763418
20	0xbdbcb85f	-0.092148535
21	0x3e065719	0.13119163
22	0x3dee3c30	0.116325736
23	0x3e165b7b	0.14683335
24	0x3e118bde	0.14213511
25	0x3e1a9666	0.15096435
26	0x3dab70d9	0.08371133
27	0x3dbef6aa	0.09324391
28	0x3e05baec	0.13059586
29	0x3d949154	0.07254282
30	0x3db0c491	0.08631242
31	0xbdbeb3a3	-0.09311607
32	0x3dde58aa	0.10856755
33	0x3daf166d	0.08549199
34	0x3dd0f3bd	0.102027394
35	0xbe0b6a63	-0.13614802
36	0xbe04ee62	-0.12981561
37	0x3e0bbd37	0.13646398
38	0x3da6437a	0.08118339
39	0xbdec6689	-0.115429945
40	0x3dc0dc0f	0.09416973
41	0x3dd3bd34	0.10338822
42	0xbe1d96d7	-0.15389572
43	0xbdd8477c	-0.105605096
44	0x3dcec77c	0.100966424
45	0xbde7a3bc	-0.11310527
46	0xbdfff447	-0.12497764
47	0xbe1e8f8d	-0.15484448
48	0xbe10877a	-0.1411418
49	0xbde96620	-0.11396432
50	0xbe0fe07b	-0.14050476
51	0x3e070193	0.13184194
52	0xbdb44b30	-0.088034034
53	0x3e103119	0.1408123
54	0x3e2430bc	0.16034216
55	0x3e036907	0.12833034
56	0x3dc05c10	0.093925595
57	0x3e02be5a	0.12767926
58	0x3da4cf14	0.080473095
59	0x3e0716b9	0.13192262
60	0x3dd04281	0.101689346
61	0xbe0c1a88	-0.13681996
62	0xbe244f7e	-0.16045949
63	0xbe226326	-0.15858135
64	0x3df9bb62	0.121939436
65	0x3e1a2c62	0.15055993
66	0xbdde7784	-0.108626395
67	0xbdd0add1	-0.10189403
68	0x3e254edb	0.16143362
69	0xbe0b1a7c	-0.13584322
70	0x3e0e76c6	0.13912496
71	0xbde73b2b	-0.11290582
72	0xbdc65443	-0.096840404
73	0x3df0905c	0.11746284
74	0xbdba7e2d	-0.09106097
75	0x3e039a72	0.12851885
76	0x3e0ff789	0.14059271
77	0x3db6c0d7	0.089235
78	0xbde7e0d9	-0.11322183
79	0xbe1f2017	-0.15539585
80	0xbddfe0fa	-0.10931583
81	0xbe1016f7	-0.1407126
82	0xbd6c92dd	-0.057757247
83	0x3dcf188c	0.10112104
84	0x3ddabd29	0.10680611
85	0xbe43c52f	-0.19118188
86	0xbdf5d0ea	-0.12002738
87	0x3e107f79	0.14111127
88	0xbe2e8928	-0.17044508
89	0x3df7062c	0.12061724
90	0x3e0aca6a	0.13553777
91	0x3e2c8062	0.16845849
92	0xbde0345e	-0.10947488
93	0xbdf728a6	-0.120683
94	0x3daa4674	0.08314219
95	0xbe1a2fef	-0.15057348
96	0x3dc893f2	0.09793843
97	0xbdc9e959	-0.09858961
98	0xbe03f47d	-0.12886234
99	0xbdf5222f	-0.11969411
100	0x3e018725	0.1264921
101	0xbd8eb738	-0.0696854
102	0xbe3bf523	-0.18355231
103	0x3dd7b9a4	0.10533455
104	0xbe0f9a57	-0.1402372
105	0xbd9e8138	-0.0773949
106	0xbd9f31e6	-0.07773189
107	0x3da54332	0.08069457
108	0x3e2de9e6	0.16983756
109	0x3dc791c6	0.09744601
110	0xbdf1055a	-0.11768599
111	0x3dea45dd	0.114391066
112	0x3dd5a9fe	0.10432814
113	0xbda47a85	-0.08031181
114	0x3e3d4396	0.18482813
115	0xbde4a212	-0.11163725
116	0xbdf592a9	-0.11990864
117	0x3dd0ee61	0.10201717
118	0xbe01ee26	-0.12688503
119	0xbdddf2eb	-0.108373486
120	0xbe0d90ef	-0.13824819
121	0x3e0b7ca7	0.1362177
122	0xbdd0967b	-0.10184952
123	0xbe291a6a	-0.16513982
124	0x3da402ab	0.080083214
125	0x3e07f335	0.1327637
126	0x3de96d03	0.113977455
127	0xbe11d4d0	-0.14241338
