PPO/PPO3_Trained/PPO_DoubleInvPendulum_1000K.pth (torch, 410281 bytes, 18 tensors)

actor.0.weight f4 [128, 6]
0	0x3efbed95	0.49204698
1	0x3e95de50	0.29271173
2	0xbd3216af	-0.043478664
3	0x3ee897f8	0.45428443
4	0x3f933579	1.1500694
5	0xbe08c6d8	-0.13357103
6	0xbec50aab	-0.38484702
7	0xbe045d44	-0.12926203
8	0x3eb575ad	0.35441342
9	0xbec7e5e3	-0.39042577
10	0xbf9992db	-1.1997942
11	0x3f070691	0.52744395
12	0xbf8210d4	-1.0161386
13	0x3dc27421	0.09494806
14	0xbe8cf8b5	-0.27533498
15	0xbe7f146d	-0.24910136
16	0xbf8d33dd	-1.1031452
17	0x3f892040	1.0712967
18	0xbf2e3c47	-0.68060726
19	0xbe81d4a1	-0.25357535
20	0xbd9ba04a	-0.07598932
21	0xbdc712a4	-0.09720352
22	0xbfa8dee9	-1.3193027
23	0x3e8a3550	0.269938
24	0xbf716fd5	-0.9431127
25	0x3e85fa85	0.26167694
26	0xbec7c7ba	-0.39019567
27	0xbe92f40b	-0.28701815
28	0xbf85558b	-1.0416731
29	0x3eef0811	0.46685842
30	0xbf4aaf10	-0.79173374
31	0xbe94b6f6	-0.29045838
32	0x3ddb8426	0.10718565
33	0xbf3231d8	-0.69607306
34	0xbf94ce9b	-1.1625551
35	0x3ea90189	0.33008984
36	0x3ebf8901	0.37409213
37	0x3dd7c6d5	0.10535971
38	0x3d85a1e6	0.0652502
39	0xbe973fee	-0.29540962
40	0x3f23d2eb	0.6399371
41	0xbf491461	-0.7854672
42	0xbf51a42a	-0.8189112
43	0x3cb19da1	0.021681609
44	0x3e3bae2d	0.18328162
45	0x3e210c14	0.15727264
46	0xbf86bf10	-1.0527058
47	0x3ea376f0	0.3192668
48	0xbf7b2aa1	-0.9811192
49	0xbe85a2a7	-0.26100656
50	0x3e869a11	0.26289418
51	0xbf4ea64e	-0.8072251
52	0xbfad9c9b	-1.3563417
53	0xba8f7a38	-0.0010946458
54	0x3c8d07f1	0.0172157
55	0xbe253f7f	-0.16137503
56	0xbd78d657	-0.060751285
57	0xbdccbe03	-0.09997179
58	0x3edac01b	0.4272469
59	0xbef38d61	-0.475688
60	0x3f251175	0.6447976
61	0xbe6078af	-0.21921037
62	0xbd0e4a38	-0.03473875
63	0x3dc1c835	0.094620146
64	0x3f8dfd02	1.1092837
65	0xbf1057d1	-0.56384
66	0x3f927ace	1.1443727
67	0x3e0a1bc9	0.13487162
68	0xbe812b1c	-0.25228202
69	0x3f1eb73f	0.6199836
70	0x3f9df1a1	1.2339364
71	0xbed87afc	-0.4228133
72	0xbdff40cf	-0.12463533
73	0x3e24a428	0.16078246
74	0xbe75237d	-0.23939319
75	0x3e5f5e2e	0.2181327
76	0xbf48a709	-0.78379875
77	0x3f01f3c8	0.50762606
78	0x3f98f358	1.1949263
79	0xbd150576	-0.03638216
80	0x3cc718a9	0.024303751
81	0x3f4a45b9	0.7901264
82	0x3fc305c8	1.5236139
83	0xbda70973	-0.08156099
84	0x3da738ee	0.08165155
85	0x3eadc1c7	0.33936903
86	0xbea32ec7	-0.31871626
87	0x3e2aeb3d	0.16691299
88	0x3f767623	0.9627401
89	0xbda420ee	-0.08014093
90	0x3de97716	0.11399667
91	0xbe28c74c	-0.16482276
92	0x3e21edd6	0.15813383
93	0x3f256fb6	0.6462358
94	0x3f59157a	0.84798396
95	0xbf19d3f1	-0.6008902
96	0x3f272475	0.65290004
97	0xbebbaedc	-0.36656845
98	0x3e09d0e2	0.13458589
99	0x3f45b885	0.7723468
100	0x3f842dca	1.0326474
101	0xbd5571b1	-0.052110378
102	0xbe9edc1e	-0.3102731
103	0x3e67172c	0.22567433
104	0x3db08c60	0.086205244
105	0xbf15681f	-0.58362
106	0xbf83b637	-1.0289983
107	0x3f039b9e	0.5140933
108	0xbe4ed0d0	-0.20196843
109	0xbdb5ec44	-0.08882955
110	0xbd39f45c	-0.045399055
111	0xbe0c2311	-0.13685252
112	0xbe7b9241	-0.2456751
113	0xbee397ae	-0.4445166
114	0xbe18d441	-0.14924718
115	0xbe16126d	-0.14655466
116	0x3d93f410	0.072242856
117	0x3f023953	0.5086872
118	0xbf423eee	-0.75877273
119	0x3ed228d8	0.41046786
120	0xbfa87ccc	-1.3163085
121	0x3e6fcfe9	0.23419155
122	0xbe13f59d	-0.14449163
123	0xbf021012	-0.5080577
124	0xc0020da8	-2.0320835
125	0x3f930180	1.1484833
126	0xbd083ab8	-0.033259124
127	0xbe8375eb	-0.25675902
128	0xbd486201	-0.04892159
129	0xbd43e95e	-0.04782998
130	0x3f0e0766	0.5548004
131	0x3d138e4d	0.03602438
132	0x3e424107	0.18970118
133	0xbe167da4	-0.14696366
134	0xbe2664e7	-0.16249429
135	0x3e152b2c	0.1456725
136	0xbf37dd75	-0.7182229
137	0x3f35b5b2	0.7098037
138	0xbf1df312	-0.6169902
139	0xbd7ecd94	-0.062207773
140	0xbe67d132	-0.22638395
141	0xbdf01b81	-0.11723996
142	0xbfa0a8db	-1.2551531
143	0x3db7b00e	0.08969127
144	0xbe92bfc4	-0.2866193
145	0x3e8a7035	0.27038732
146	0xbe0026ac	-0.12514752
147	0xbc091260	-0.008366197
148	0xbf215e91	-0.6303492
149	0x3eae0abe	0.3399257
150	0x3f2b3c9c	0.6688936
151	0x3e4bb054	0.19891483
152	0xbebdea12	-0.37092644
153	0x3f57c233	0.842807
154	0x3f9dad65	1.2318541
155	0xbe266f13	-0.16253309
156	0xbf67f0e9	-0.90601975
157	0x3e85108a	0.2598918
158	0xbe96ed47	-0.29477903
159	0xbda5abe1	-0.08089424
160	0xbfb03e2a	-1.3768971
161	0x3f808501	1.004059
162	0xbf1133af	-0.5671949
163	0xbe414612	-0.18874386
164	0xbd032a2a	-0.032022633
165	0xbe89091a	-0.26764756
166	0xbfcec59d	-1.6154057
167	0x3dfe2868	0.12410051
168	0xbf0984cd	-0.5371826
169	0x3bfb57db	0.0076703853
170	0x3e19c851	0.15017821
171	0xbce60953	-0.028080618
172	0xbf7d5d09	-0.98970085
173	0x3ed0bde8	0.40769887
174	0x3e0dc895	0.13846047
175	0xbe428999	-0.18997802
176	0x3e2b5b20	0.1673398
177	0x3eacf19a	0.33778077
178	0x3f41252b	0.7544734
179	0xbed14389	-0.40871838
180	0xbee0e084	-0.43921292
181	0x3a728ce4	0.0009252562
182	0xbe93f176	-0.28895158
183	0xbe96eb80	-0.29476547
184	0xbfba25da	-1.4542801
185	0x3f2e56c3	0.6810114
186	0x3f5113dc	0.8167093
187	0xbdea3594	-0.114360005
188	0x3e98c6ea	0.2983926
189	0x3f2e1e48	0.68014956
190	0x3f890041	1.0703202
191	0xbe99df6c	-0.3005327
192	0x3f11790c	0.5682533
193	0x3e3c65a5	0.1839815
194	0xbe82e022	-0.25561625
195	0x3efd3cc2	0.49460417
196	0x3f651575	0.89485866
197	0x3e740f3f	0.23833941
198	0xbee28937	-0.44245312
199	0xbe1d06ad	-0.15334578
200	0x3e3e4891	0.1858237
201	0x3cbb100a	0.022834796
202	0x3e865ffc	0.26245105
203	0xbf2fb86a	-0.6864077
204	0x3d5e23fe	0.054233544
205	0xbe3cdd41	-0.18443777
206	0x3de1b203	0.11020281
207	0xbecfba44	-0.40571797
208	0x3e0d51aa	0.13800684
209	0xbe7390f0	-0.23785758
210	0xbf8b047f	-1.0860747
211	0x3eb5e3e2	0.35525423
212	0xbe9e0cd9	-0.30869177
213	0xbf4ac8bc	-0.79212546
214	0xbf9d47cc	-1.2287536
215	0xbd858576	-0.06519596
216	0xbd64254d	-0.055699635
217	0xbd2691fc	-0.040666565
218	0x3e185d96	0.1487945
219	0xbc127b90	-0.008940592
220	0xbf83360d	-1.025087
221	0x3f1db747	0.61607784
222	0x3f2d9088	0.6779866
223	0xbd84abee	-0.064781055
224	0x3eab2689	0.33427837
225	0x3eb187e2	0.34673983
226	0x3fa7cdf5	1.3109728
227	0xbf0bd159	-0.54616314
228	0x3f1ca6c3	0.6119196
229	0x3d36c73c	0.0446236
230	0xbd9d2e6d	-0.07674871
231	0x3f48cf8f	0.7844171
232	0x3f90a37d	1.1299893
233	0xbdc81ee5	-0.09771518
234	0xbdcb5edc	-0.09930202
235	0xbe8ccec1	-0.2750149
236	0x3e83ec3e	0.25766176
237	0xbeada24c	-0.33912885
238	0xbf3733c5	-0.7156337
239	0x3eed0156	0.46290082
240	0xbf68cd25	-0.90938026
241	0x3e2d3675	0.16915305
242	0xbe3ca019	-0.18420447
243	0xbf0719f5	-0.5277398
244	0xbf96f021	-1.1792032
245	0x3f230acf	0.6368837
246	0xbf5a985e	-0.85388744
247	0xbd0e77af	-0.034782108
248	0xbe5b5d95	-0.21422417
249	0xbe40b537	-0.18819128
250	0xbfa036e0	-1.2516747
251	0x3eaeebe6	0.3416435
252	0x3f8b6f88	1.0893412
253	0xbdc09f6e	-0.09405409
254	0x3e82ba0b	0.25532565
255	0x3f1e2f8b	0.61791295

actor.0.bias f4 [128]
0	0xbe6f8d4f	-0.23393749
1	0xbeb9e06e	-0.3630404
2	0xbd4ec68f	-0.05048233
3	0x3e890e19	0.26768568
4	0x3e504c70	0.20341659
5	0x3ea2efb4	0.31823504
6	0x3e818954	0.25300086
7	0xbd6528d9	-0.05594716
8	0xbdda23d5	-0.10651366
9	0x3d2a0d04	0.04151632
10	0x3e58d709	0.2117578
11	0x3e3174b7	0.1732968
12	0xbe6d2d11	-0.23161723
13	0x3da9b0f6	0.08285706
14	0xbd1959e3	-0.03743924
15	0xbce66ba9	-0.028127508
16	0x3e9e63c8	0.30935502
17	0x3e43f673	0.19136982
18	0x3e2031a6	0.1564394
19	0x3e19b03a	0.15008631
20	0xbe12be17	-0.14330326
21	0xbd810e4c	-0.06301555
22	0x3ea7463e	0.32670778
23	0x3d1396ee	0.03603261
24	0xbe542236	-0.20716175
25	0x3e7ef92b	0.24899738
26	0x3d3532f1	0.044238035
27	0x3e4fb139	0.20282449
28	0xbda1a6a4	-0.07893112
29	0x3d1ba758	0.03800139
30	0x3ea62b5f	0.32454965
31	0xbb8899dc	-0.004168732
32	0xbd81c4e1	-0.0633638
33	0xbd855658	-0.065106094
34	0x3dc35645	0.09537939
35	0xbe3a59ab	-0.18198268
36	0xbd0209c2	-0.031747587
37	0xbe49242a	-0.19642702
38	0x3e1dbaa7	0.15403233
39	0x3e42706e	0.18988201
40	0xbe0bea48	-0.1366359
41	0x3dcae399	0.09906692
42	0xbe1cdbb4	-0.15318185
43	0xbe14f16c	-0.1454522
44	0x3e1d8694	0.15383369
45	0xbdb4d145	-0.088289775
46	0x3e73d154	0.23810321
47	0xbe624745	-0.220975
48	0x3c7fad9b	0.015605356
49	0xbe9732b6	-0.29530877
50	0xbdad3603	-0.084575675
51	0xbed3ccac	-0.4136709
52	0x3dbb24eb	0.09137901
53	0x3d2f485f	0.042793628
54	0x3e4caf7d	0.19988818
55	0xbc0987ca	-0.008394191
56	0xbea7abfd	-0.32748404
57	0xbea7faa9	-0.32808426
58	0xbd9c2f6b	-0.07626232
59	0xbe189bd4	-0.14903194
60	0x3ef42fc7	0.476927
61	0xbe39574b	-0.18099706
62	0x3dcc7732	0.09983672
63	0x3ce6d6e0	0.028178632
64	0xbec22111	-0.37915853
65	0x3ebea925	0.37238422
66	0x3dd34383	0.10315611
67	0xbd0e496f	-0.034738
68	0x3e6e0a41	0.23246099
69	0x3dbee3ba	0.09320779
70	0xbeb48070	-0.3525424
71	0x3ed14e18	0.40879893
72	0xbebc1579	-0.36735132
73	0xbe96dd28	-0.29465604
74	0x3df508f2	0.11964597
75	0x3e663dbc	0.22484487
76	0xbec33e45	-0.38133445
77	0x3eb90bb1	0.36141732
78	0x3a772153	0.0009427268
79	0x3d46dda8	0.04855123
80	0x3e6c827e	0.23096654
81	0xbe40a129	-0.18811478
82	0x3dd49890	0.103806615
83	0xbd75f359	-0.060046528
84	0xbe31b1b1	-0.1735294
85	0x3ccde517	0.025133653
86	0x3e83be24	0.25731003
87	0x3e4debd1	0.20109488
88	0xbcaf04d0	-0.0213646
89	0x3e0603c9	0.13087381
90	0xbe4cae1e	-0.19988295
91	0x3e6a4ce4	0.22880894
92	0xbd36a1a0	-0.04458773
93	0x3e206280	0.15662575
94	0x3e5117ab	0.20419185
95	0x3e51e4af	0.20497392
96	0x3ab47694	0.0013768249
97	0xbd19200a	-0.03738407
98	0x3d3a6dd8	0.04551491
99	0x3e898339	0.26857927
100	0x3b3ba143	0.0028630055
101	0x3e29cfbd	0.16583152
102	0x3e019006	0.12652597
103	0xbe535ca1	-0.20640804
104	0x3ea8a57e	0.3293876
105	0x3e4eb152	0.2018483
106	0xbab673cc	-0.0013920008
107	0xbe7367ac	-0.23770016
108	0x3e049275	0.12946494
109	0x3dd1eef7	0.10250657
110	0xbe8021da	-0.25025827
111	0x3d45d152	0.048295327
112	0xbd3f38e5	-0.04668512
113	0xbe2a7346	-0.16645536
114	0x3e8029ee	0.2503199
115	0x3abe1cc7	0.0014504426
116	0xbd22a2f5	-0.03970619
117	0xbe294b16	-0.1653255
118	0xbdc01345	-0.09378675
119	0x3d606375	0.05478235
120	0x3db0d667	0.08634644
121	0xbe60f220	-0.21967363
122	0xbe7c5974	-0.24643499
123	0x3b868498	0.004105162
124	0x3ecd6cc0	0.40122032
125	0x3e0af1df	0.13568829
126	0xbceb7749	-0.028743403
127	0x3e53dfa7	0.20690785

actor.2.weight f4 [128, 128]
0	0xbca1eaef	-0.019765345
1	0xbe020b2a	-0.12699571
2	0xbcc981e3	-0.024598068
3	0xbddfd268	-0.10928804
4	0xbc393917	-0.011305115
5	0xbe6c1e31	-0.23058392
6	0xbd063973	-0.03276963
7	0x3dbbc861	0.091690786
8	0xbe20b36d	-0.15693446
9	0xbcb1aa96	-0.021687787
10	0x3d3a5a48	0.045496255
11	0x3f1f2452	0.62164795
12	0x3ce77056	0.028251808
13	0x3ebe65cd	0.37187043
14	0xbd400611	-0.046880785
15	0x3cafb9e8	0.021450952
16	0xbb94c155	-0.0045396485
17	0xbc5bbd4f	-0.013411834
18	0xbd862d8c	-0.06551656
19	0x3d88c2e5	0.06677798
20	0xbf1935e5	-0.5984786
21	0x3d386578	0.045018643
22	0x3d020c8e	0.031750254
23	0x3d23f612	0.040029593
24	0x3cfe8441	0.031068923
25	0x3eef8306	0.4677965
26	0xbdbba04f	-0.09161436
27	0xbd707bc2	-0.058711775
28	0x3c8d8f5a	0.01728027
29	0x3d2ae111	0.041718546
30	0xbd24070c	-0.040045783
31	0x3d827bd2	0.06371273
32	0x3d680bd3	0.0566519
33	0xbd911688	-0.070843756
34	0x3adc8783	0.0016825054
35	0xbe6f35ba	-0.23360339
36	0x3d9deac0	0.07710791
37	0x3c6f86bf	0.014619528
38	0x3d8d83fa	0.06909938
39	0xbd23ed11	-0.040021006
40	0x3d1c9fbc	0.038238272
41	0x3d618603	0.055059444
42	0xbd42554b	-0.047444623
43	0x3da2dc67	0.07952195
44	0xbd7ab25a	-0.061205246
45	0xbdc0d91f	-0.094164126
46	0x3d0e74ef	0.034779485
47	0x3cc80011	0.024414094
48	0x3db67c5d	0.08910439
49	0xbe29fc45	-0.1660014
50	0xbdc07851	-0.093979485
51	0xbe6d2b6a	-0.23161092
52	0x3c03b6a1	0.008039148
53	0xbd79ae9b	-0.060957532
54	0xbc7f9eaa	-0.015601793
55	0x3d5cbc3d	0.053890456
56	0x39b9cfe7	0.0003544085
57	0xbb935c10	-0.0044970587
58	0xbdbbaf22	-0.09164263
59	0x3df77c95	0.12084309
60	0xbc98152b	-0.018564781
61	0xbc806df3	-0.015677428
62	0xbde1f0ef	-0.110322826
63	0x3db0acc1	0.086267
64	0xbca18f40	-0.019721627
65	0x3b230a92	0.0024878127
66	0x3cd97aa2	0.026547734
67	0xbcd27a32	-0.025693033
68	0xbd40ce4a	-0.047071733
69	0x3d22cba8	0.039745003
70	0xbc8f0259	-0.017457174
71	0x3d21bc6d	0.039486337
72	0xbdad9ba5	-0.084769525
73	0xbddcde48	-0.10784584
74	0x3e7e968a	0.24862114
75	0xbd678e1e	-0.056532018
76	0xbde39ddd	-0.111140944
77	0x3df971ba	0.12179895
78	0xbd4f61d9	-0.050630424
79	0xbd813e9b	-0.06310769
80	0xbd36808d	-0.04455619
81	0x3bebea03	0.007199527
82	0x3ca35aa6	0.019940685
83	0x3d31bb47	0.043391492
84	0xbd56af03	-0.052412998
85	0xbb07b359	-0.0020706265
86	0x3d9bba57	0.07603901
87	0xbda239a3	-0.079211496
88	0xbd00b183	-0.03141929
89	0xbd005f75	-0.031341035
90	0x3d2d980e	0.04238134
91	0xbe098ac9	-0.13431849
92	0x3d00ec42	0.031475313
93	0xbdc248cc	-0.09486541
94	0x3d9de67d	0.07709978
95	0xbcbcaf2d	-0.02303275
96	0x3b05eb0a	0.0020434284
97	0xbdcc4b80	-0.09975338
98	0x3d971a5f	0.07378077
99	0xbb762cdd	-0.0037563362
100	0x3c7f4360	0.015580028
101	0x3cc73d0d	0.024321103
102	0xbd8be5b6	-0.06830923
103	0x3d4d9cd5	0.050198395
104	0xbe24d523	-0.1609693
105	0x3e3fe9f7	0.18741594
106	0xbdc40dc5	-0.09572939
107	0xbd442617	-0.047887888
108	0x3d8f2dd6	0.069911644
109	0x3db7f6ba	0.08982606
110	0xbcc0ca65	-0.02353401
111	0xbdeb3803	-0.11485293
112	0xbd9be46e	-0.07611929
113	0x3d5aae2f	0.05338877
114	0x3be17da0	0.0068814307
115	0xbdada9c4	-0.08479646
116	0x3c5e512c	0.013569158
117	0x3d0b912d	0.034073997
118	0xbd5009ff	-0.050790783
119	0xbd5eecd3	-0.054425072
120	0xbe0e0f8a	-0.13873115
121	0xbbecc658	-0.007225793
122	0x3d60a351	0.05484325
123	0x3e3c77a8	0.1840502
124	0x3cfa2d42	0.030539159
125	0x3e54e450	0.2079022
126	0xbdbfcc88	-0.09365183
127	0xbcb14172	-0.021637652
128	0x3af469f4	0.0018647299
129	0x3e3a1ceb	0.18175094
130	0x3d749313	0.059710573
131	0xbd449571	-0.04799408
132	0xbb6e3635	-0.0036348228
133	0x3e0ddb3d	0.13853164
134	0x3db200ec	0.08691582
135	0x3dccd53f	0.10001611
136	0x3d90fcf7	0.07079499
137	0xbdbaf2e4	-0.09128359
138	0x3d2e5223	0.0425588
139	0xbf065f88	-0.5248952
140	0x3d5b322e	0.053514652
141	0xbe03be15	-0.1286548
142	0x3d0d99dc	0.03457056
143	0xbd73b359	-0.05949721
144	0xbda6d25b	-0.08145591
145	0x3b07c2bb	0.0020715434
146	0x3cb50bcc	0.022100352
147	0x3e38faef	0.18064474
148	0x3f57248d	0.8404015
149	0x3d2af345	0.041735906
150	0xbca20df4	-0.019782044
151	0x3c4736b0	0.012159035
152	0x3d0ff481	0.035145286
153	0xbe674141	-0.22583486
154	0x3e184b78	0.14872539
155	0xbd5c6f23	-0.053816926
156	0x398071a7	0.0002449874
157	0xbc0cbdc2	-0.008590164
158	0x3c81de8f	0.015853195
159	0xbb9f4971	-0.00486105
160	0xbd55e73f	-0.052222487
161	0xbdde71a1	-0.10861517
162	0x3c90e0f7	0.017685397
163	0x3d39bba8	0.04534498
164	0xbafca9ed	-0.0019276716
165	0x3d395387	0.045245674
166	0x3d18ac4e	0.037273698
167	0x3b899f9d	0.0041999356
168	0x3ce34849	0.02774443
169	0x3d8dc914	0.06923118
170	0xbdf378c6	-0.1188827
171	0xbdb0ea1c	-0.08638403
172	0x3d8e2ecd	0.0694252
173	0x3d2d3ce6	0.042294405
174	0x3d8371d8	0.06418198
175	0x3dbd1e8b	0.09234341
176	0xbdbadb80	-0.091238976
177	0xbe38f4e0	-0.18062162
178	0x3bbdff50	0.005798258
179	0xbdaba41e	-0.08380912
180	0x3b26df0b	0.0025462534
181	0x3c033bb9	0.008009844
182	0xbda8efd3	-0.08248868
183	0xbd5f034c	-0.054446504
184	0xbce1aa00	-0.027546883
185	0xbdd75627	-0.10514479
186	0xbcfa047e	-0.03051972
187	0xbd35415a	-0.044251777
188	0xbd38778f	-0.045035895
189	0x3ddfbb49	0.10924394
190	0xbd502d04	-0.05082418
191	0x3e532c45	0.20622356
192	0xbe1c2f06	-0.15252313
193	0x3d6a534a	0.057208337
194	0xbc6d25f3	-0.01447438
195	0x3cf7af57	0.030234976
196	0x3d43b1d4	0.047777012
197	0xbd6b58e6	-0.057457827
198	0x3d61e2e2	0.055148013
199	0x3d14bf36	0.036315165
200	0xbda3f610	-0.08005917
201	0xbc1139fb	-0.008863921
202	0x3e49a92d	0.19693442
203	0xbd61ce46	-0.05512836
204	0x3dd1977b	0.10233971
205	0x3d98e0cc	0.074647516
206	0x3d2b7f3a	0.04186938
207	0x3d8cab87	0.06868654
208	0x3d997fde	0.07495092
209	0xbda7a4fe	-0.08185767
210	0x3cf1fa2a	0.029538233
211	0xbe2f610e	-0.17126867
212	0xbd11fcba	-0.03564141
213	0xbd713738	-0.05889055
214	0xbca55c37	-0.020185573
215	0x3dc66f76	0.09689228
216	0xbd9e563b	-0.07731291
217	0xbca90b94	-0.020635404
218	0xbd2079fd	-0.039178837
219	0x3d32ebf0	0.04368204
220	0xbcd4267d	-0.025897259
221	0x3c21c205	0.009872918
222	0xbcbe5d50	-0.023237854
223	0xbd5c128e	-0.053728633
224	0xbda110be	-0.078645214
225	0x3cc38e20	0.023871481
226	0xbd450953	-0.048104595
227	0x3c5b8588	0.013398536
228	0x3ca4fb15	0.020139256
229	0x3d830e55	0.06399218
230	0xbe14d134	-0.1453293
231	0x3dee9177	0.11648839
232	0x3cf1474c	0.029452942
233	0x3d47f393	0.048816275
234	0x3cd450de	0.025917467
235	0x3d3cbc8b	0.046078246
236	0x3cb4fb4c	0.022092484
237	0xbe3c8725	-0.18410929
238	0x3dcd8c2a	0.100365
239	0xbcbe3cef	-0.023222415
240	0x3b96f7cb	0.004607176
241	0xbdac434c	-0.08411273
242	0x3d90a58b	0.07062825
243	0xbd19c423	-0.037540566
244	0xbe168a37	-0.14701162
245	0x3ca76498	0.020433709
246	0x3ce528d3	0.027973568
247	0x3d752f96	0.059859835
248	0xba0a3059	-0.00052714866
249	0xbc8a3200	-0.016869545
250	0xbbf14e2b	-0.0073640547
251	0x3ac51d8e	0.0015038715
252	0x3d83a1ae	0.06427322
253	0xbd865b19	-0.06560344
254	0xbb471a97	-0.003038084
255	0xbd9d1817	-0.076706104

actor.2.bias f4 [128]
0	0xbcf520eb	-0.029922923
1	0x3d33078e	0.043708377
2	0x3b991b93	0.0046724766
3	0x3cbaf42f	0.022821514
4	0xbd67977b	-0.056540947
5	0xbd2600ae	-0.040527992
6	0x3d097857	0.03356203
7	0x3d858a1a	0.065204814
8	0x3d2bbbd5	0.041927177
9	0xbcc66e04	-0.024222381
10	0xbca69a1c	-0.020337157
11	0x3d9ecd6f	0.07754027
12	0x3d8094a7	0.06278353
13	0x3d78006c	0.060547277
14	0xbb4e591b	-0.0031486216
15	0x3c8eaede	0.017417368
16	0x3d474e5a	0.048658706
17	0xbd16df6a	-0.036834158
18	0x3c930030	0.017944425
19	0x3d9ce307	0.076604895
20	0xbd879b3b	-0.06621405
21	0x3db1b270	0.086766124
22	0xbdadf58b	-0.08494099
23	0xbccd5f09	-0.02506973
24	0xbc4fcef5	-0.01268362
25	0xbd1d4c77	-0.038403
26	0x3d093250	0.033495247
27	0x3d4f024f	0.05053931
28	0xbd7d11ec	-0.06178467
29	0x3d4b862d	0.049688507
30	0x3dc60c42	0.09670307
31	0x3d768651	0.060186688
32	0xbc9a9128	-0.018868044
33	0xbbe7ca10	-0.0070736483
34	0x3c60045f	0.013672917
35	0xbd33fea0	-0.043944
36	0x3d44b513	0.04802425
37	0xbd9c4207	-0.07629781
38	0x3ca3d60e	0.01999953
39	0xbd9ed333	-0.07755127
40	0x3d29d016	0.04145821
41	0xbd74e821	-0.059791688
42	0x3c3dde0e	0.0115885865
43	0xbd278e17	-0.04090699
44	0x3d99ba08	0.07506186
45	0x3d62a8f8	0.055336922
46	0xbd0749f5	-0.033029515
47	0xbce1643e	-0.02751362
48	0x3da2860b	0.07935723
49	0xbcb0fb55	-0.02160422
50	0x3d576d07	0.05259421
51	0xbc26bc25	-0.010176693
52	0x3d645a33	0.055750083
53	0x3d9a1e9d	0.0752537
54	0xbd0d7a8a	-0.03454069
55	0x3bee5c51	0.0072741886
56	0x3dd66b4e	0.104696855
57	0x3daa7c4d	0.0832449
58	0x3d86f772	0.06590165
59	0x3d467719	0.048453424
60	0x3cfc9abf	0.030835507
61	0xbbc26614	-0.005932579
62	0xbd7f99b0	-0.062402427
63	0xbc98a50e	-0.018633392
64	0x3d50f09b	0.05101071
65	0x3cd1758c	0.025568746
66	0xbd4e3b1c	-0.05034934
67	0xbd85aa08	-0.065265715
68	0xbcb603c6	-0.022218596
69	0x3d904264	0.07043913
70	0x3d8e6b4c	0.06954059
71	0x3c2e1ffd	0.010627744
72	0x3cdd07dc	0.026981287
73	0xbc78a1de	-0.015175311
74	0x3ce623c1	0.02809322
75	0x3c7de1e8	0.015495755
76	0xbd291df5	-0.041288335
77	0x3d52acc2	0.051434286
78	0x3c44350d	0.011975539
79	0xbccc5067	-0.024940683
80	0xbdac4f51	-0.08413566
81	0xbc94b952	-0.018154774
82	0xbc7666b4	-0.015039135
83	0x3c20912c	0.009800237
84	0x3cf41244	0.029793866
85	0x3cf3af63	0.029746717
86	0xbc3c7cee	-0.011504395
87	0xbbac1132	-0.0052510733
88	0x3d661167	0.05616894
89	0xbd39ed03	-0.045392048
90	0x3d817599	0.06321258
91	0x3bf6015d	0.0075074867
92	0xbd0a7021	-0.03379834
93	0x3daec989	0.085345335
94	0xbca79331	-0.020455929
95	0xba7e4e79	-0.00097010244
96	0x3d472d4f	0.048627194
97	0x3d7ea5d5	0.06216987
98	0x3d5ec2c3	0.054384958
99	0xbc0c7b8a	-0.008574376
100	0xbd7689fc	-0.060190186
101	0x3d159362	0.03651751
102	0xbda8e017	-0.08245867
103	0xbbeb51b9	-0.007181373
104	0xba6bf0a5	-0.00090003974
105	0x3d5ec7dd	0.054389823
106	0xbd8ebfcd	-0.06970177
107	0xbc999491	-0.0187476
108	0xbd1318b5	-0.035912234
109	0x3da37ccd	0.07982788
110	0x3d8e1d67	0.06939202
111	0x3da00a5b	0.07814475
112	0xbd4524a0	-0.04813063
113	0xbd74fd26	-0.059811734
114	0x3cca1557	0.024668379
115	0x3cc98969	0.024601655
116	0xbc4fd92a	-0.012686053
117	0x3dac39d4	0.08409467
118	0xbd941adf	-0.07231688
119	0xbd7d8db0	-0.0619027
120	0xbd3751d8	-0.044755787
121	0x3d74f484	0.0598035
122	0x3d3baf5e	0.04582154
123	0x3d5972ad	0.05308788
124	0xbcea8ef3	-0.028632617
125	0x3c12bbac	0.008955877
126	0x3dc22219	0.0947916
127	0xbcc85253	-0.024453318

actor.4.weight f4 [128, 128]
0	0xbba5363a	-0.0050418647
1	0xbd81ecfa	-0.06344028
2	0xbd1d7003	-0.0384369
3	0xbc7741b3	-0.0150913475
4	0x3e4a389b	0.19748156
5	0x3d2d4081	0.042297844
6	0x3d26994d	0.040673543
7	0xbd3ee4ba	-0.04660485
8	0xbd887262	-0.06662442
9	0x3d20233d	0.039096106
10	0x3c18eac0	0.0093333125
11	0x3d426ac8	0.047465116
12	0x3d339905	0.043847103
13	0xbcc34a97	-0.023839278
14	0xbe0a8b08	-0.13529599
15	0x3d86e3a4	0.06586388
16	0xbc419cac	-0.011817139
17	0xbc58fada	-0.013243401
18	0x3de2f144	0.11081174
19	0x3d4ca802	0.049964912
20	0xbc7db684	-0.01548541
21	0xbd30b029	-0.04313675
22	0x3d8ecee8	0.06973058
23	0x3ce33f33	0.027740097
24	0xbd8f2fa7	-0.06991511
25	0x3d0d294a	0.034463204
26	0x3c8ab19e	0.016930398
27	0xbc849920	-0.016186297
28	0xbd9797ed	-0.074020244
29	0x3c8ef1c9	0.017449277
30	0xbd520398	-0.05127296
31	0x3d8c95c5	0.06864504
32	0x3d4418a0	0.047875047
33	0xbdd06b75	-0.10176746
34	0x3d35a172	0.04434342
35	0x3dedad0d	0.116052724
36	0x3d453108	0.048142463
37	0x3d17af4f	0.03703242
38	0x3d828807	0.063736014
39	0x3c0c1b81	0.008551479
40	0xbd508bd4	-0.0509146
41	0x3cddadbd	0.027060384
42	0x3d03a0ca	0.032135762
43	0x3d8bfd03	0.068353675
44	0xbd215ec1	-0.039397005
45	0x3cd2d62d	0.025736893
46	0xbbd93ce3	-0.0066295727
47	0x3e35dfb0	0.17761111
48	0xbd01b810	-0.031669676
49	0xbcd6cbda	-0.02622025
50	0x3d46646f	0.048435625
51	0x3cd76cdc	0.026297025
52	0x3d998d3e	0.07497643
53	0xbd9afff9	-0.07568354
54	0xbc8b690e	-0.017017867
55	0xbcf75da3	-0.030196017
56	0xbd91503c	-0.070953816
57	0xbd817aab	-0.06322225
58	0xbd076f4a	-0.033065118
59	0x3c17c955	0.00926431
60	0x3c7e1978	0.015509002
61	0x3ce4a334	0.027909853
62	0xbdafe882	-0.08589269
63	0xbe20bdf7	-0.15697466
64	0x3d606f04	0.054793373
65	0xbcd8ba60	-0.026456058
66	0x3d837683	0.06419089
67	0x3bc80972	0.0061046416
68	0x3dd8ae8e	0.10580169
69	0x3dae236c	0.0850285
70	0x3de581ac	0.112063736
71	0x3a93675c	0.0011246013
72	0xbc0ab5d8	-0.0084662065
73	0xbcd18c0c	-0.025579475
74	0xbdb9bf18	-0.09069651
75	0xbd10a578	-0.035314053
76	0xbc4156d1	-0.011800484
77	0xbd7b54b4	-0.061360076
78	0xbcd0b596	-0.025477212
79	0xbd8790cb	-0.06619414
80	0xbc8d63a5	-0.017259428
81	0xbd34f9e7	-0.044183638
82	0xbd301e5c	-0.042997703
83	0x3e3f27fd	0.18667598
84	0x3d97d907	0.074144416
85	0xbce03194	-0.02736739
86	0x3e0a04d8	0.1347841
87	0x3c30fcd1	0.010802464
88	0x3dfb44cd	0.12268982
89	0x3d04b205	0.032396335
90	0xbda4b064	-0.08041456
91	0xbd7b3664	-0.061331168
92	0xbc890010	-0.016723663
93	0xbd64dd21	-0.055874947
94	0x3ca7f533	0.020502662
95	0xbd58baae	-0.052912407
96	0xbe059c6b	-0.1304795
97	0x3bb4d92e	0.005519054
98	0xbd2f2b5b	-0.042765956
99	0x3cf4a8c8	0.029865637
100	0xbcc49785	-0.023998031
101	0xbd40eee7	-0.047102835
102	0xbd54cda1	-0.051953916
103	0xbcf7a0d4	-0.030228056
104	0xbbce23bb	-0.0062908805
105	0x3d91feda	0.07128687
106	0xbcf52dae	-0.029929008
107	0xbd32bf2c	-0.043639347
108	0x3e0aa092	0.13537815
109	0x3d3eea9c	0.04661046
110	0x3c54629d	0.012962964
111	0xbd415d68	-0.04720822
112	0xbd268033	-0.040649604
113	0x3d8a7fb6	0.0676264
114	0xbceabea3	-0.028655356
115	0xbb690d3a	-0.0035560862
116	0x3d404d41	0.046948675
117	0x3ce8650b	0.028368494
118	0x3d6a6d85	0.057233352
119	0x3dc2e3a2	0.09516074
120	0xbd90d92c	-0.07072672
121	0xbd805a0e	-0.062671766
122	0xbd3d06f5	-0.046149213
123	0x3c94fea0	0.01818782
124	0x3d8b5e9b	0.06805154
125	0x3d2cabc6	0.042156003
126	0xbcbad5e6	-0.022807073
127	0x3d08bc09	0.03338245
128	0xbdbf64dc	-0.09345409
129	0x3c7cc104	0.015426878
130	0x3cf16fb3	0.029472208
131	0x3d1198b0	0.035546005
132	0x3e8af720	0.27141666
133	0x3de4686e	0.11152731
134	0x3b2da23a	0.00264944
135	0xbda535f0	-0.080669284
136	0x3d0a2c4c	0.03373365
137	0x3db2a41d	0.087227084
138	0x3df2adc8	0.118495524
139	0x3d9cda33	0.07658806
140	0xbbe32ba8	-0.0069326945
141	0xbd271ce9	-0.040799055
142	0xbe281aaf	-0.16416429
143	0x3c196728	0.009362973
144	0xbceb0205	-0.028687486
145	0x3d1c2b19	0.03812704
146	0x3d8dbc2a	0.06920655
147	0xbc21c6a0	-0.009874016
148	0x3d856f4a	0.06515367
149	0x3cc753ef	0.024332015
150	0x3dd329c4	0.103107005
151	0x3db5a5e2	0.0886953
152	0xbcf4d514	-0.02988676
153	0x3da1d77a	0.07902427
154	0x3ca61587	0.020273937
155	0x3c38fbb4	0.011290479
156	0xbd91df2c	-0.07122645
157	0x3d55877e	0.05213117
158	0xbca03ba6	-0.019559693
159	0x3d8ddb5a	0.069266036
160	0xbd6a7075	-0.057236154
161	0xbd301219	-0.04298601
162	0x3df031df	0.11728262
163	0x3db960e2	0.09051682
164	0x3c909b19	0.017652081
165	0xbd01f0f4	-0.03172393
166	0x3c05e6bd	0.008172688
167	0x3d5c5fee	0.053802423
168	0xbde89dd5	-0.11358229
169	0xbbad336e	-0.005285672
170	0x3dbc3e35	0.091915525
171	0x3d0c3a2d	0.03423517
172	0xbb9721a9	-0.004612167
173	0xbc8ad3c4	-0.01694668
174	0xbd3d7094	-0.04624994
175	0x3e2e737b	0.1703624
176	0xbdd0aa8c	-0.10188779
177	0x3c62e862	0.01384935
178	0x3c5277b2	0.01284592
179	0xbbafa0d2	-0.0053597474
180	0xbce73184	-0.028221853
181	0xbd497db9	-0.049192164
182	0xbdd2bb4c	-0.1028963
183	0x3d4c462e	0.049871616
184	0xbd578e0c	-0.0526257
185	0xbcae8dee	-0.021307912
186	0xbd27dd42	-0.040982492
187	0xbd874f3b	-0.06606909
188	0xbb8821d6	-0.004154424
189	0x3d981cf2	0.07427396
190	0xbccce6be	-0.02501237
191	0xbdb031cc	-0.08603248
192	0x3d254e75	0.040358026
193	0xbcdb79af	-0.026791422
194	0x3dc3b012	0.09555067
195	0xbddd0639	-0.107922025
196	0xbc882e61	-0.016623678
197	0x3e359716	0.17733416
198	0x3dd10184	0.10205367
199	0xbbbc69b6	-0.0057499064
200	0x3cfcfd95	0.030882636
201	0xbce47190	-0.027886182
202	0xbd60ced2	-0.05488474
203	0xbca1d21d	-0.01975351
204	0xbd1b1e9a	-0.03787098
205	0xbdbfbb07	-0.093618445
206	0x3d4c2825	0.049842972
207	0xbd0d9251	-0.034563366
208	0xbc1ae5c6	-0.009454196
209	0x3cf2b433	0.029626941
210	0x3d7d4e33	0.061842155
211	0x3dbf4f27	0.09341269
212	0x3de76ce5	0.11300067
213	0xbddc6e0a	-0.10763176
214	0x3d81fc94	0.063470036
215	0x3c716643	0.014733854
216	0x3e1562fe	0.14588544
217	0x3db52b53	0.08846154
218	0xbd399703	-0.04531003
219	0xbcc17e0a	-0.02361967
220	0xbd986403	-0.07440951
221	0xbc8a73a4	-0.016900845
222	0xbcf65cf9	-0.03007363
223	0x3ce0e9ae	0.027455177
224	0xbdb005dc	-0.085948676
225	0xbcd7c174	-0.026337363
226	0x3d2246a0	0.039618134
227	0x3d9ce3b6	0.0766062
228	0xbda594b8	-0.080850065
229	0xbd1efc44	-0.038814798
230	0xbd999a49	-0.07500131
231	0x3d82b09b	0.06381341
232	0x3c85a766	0.016315173
233	0xbb979971	-0.004626446
234	0xbc6a2bab	-0.014292638
235	0xbd1582c3	-0.036501657
236	0x3d90a834	0.07063332
237	0x3d1f5fbc	0.03890966
238	0x3da0f13a	0.0785851
239	0xbd05dd5d	-0.03268181
240	0xbc7f0efb	-0.0155675365
241	0x3d31eed7	0.043440666
242	0x3c7cc71c	0.015428331
243	0xbe02b27f	-0.12763403
244	0x3cd9051e	0.026491698
245	0xbd054c9c	-0.032543764
246	0x3d89ae19	0.067226596
247	0x3d9c490c	0.0763112
248	0x3d77c0e9	0.060486708
249	0xbdb8df72	-0.09026994
250	0xbe180419	-0.14845313
251	0x3d52d449	0.051471982
252	0x3e056320	0.13026094
253	0x3dbcbc6f	0.09215628
254	0x3b9a2390	0.0047039464
255	0x3d685067	0.056717303

actor.4.bias f4 [128]
0	0x3d2225e6	0.039586924
1	0x3c941d98	0.018080518
2	0xbca1d954	-0.01975695
3	0xbc36894f	-0.011141135
4	0x3cd1626d	0.025559628
5	0xbd0abef1	-0.033873502
6	0xbcc693b6	-0.024240356
7	0x3d39dfa5	0.0453793
8	0x3d46d5ba	0.04854367
9	0xbd3f27fe	-0.046669
10	0x3cc5a019	0.024124192
11	0x3d092412	0.033481665
12	0x3d7bfb15	0.061518747
13	0xbbd53fe7	-0.006507862
14	0xbd6dad13	-0.058026385
15	0x3d57ef31	0.052718345
16	0x3be62743	0.0070237233
17	0xbd6d248f	-0.057896193
18	0x3d7f8307	0.062380817
19	0xbc863f00	-0.016387463
20	0xbd485fd4	-0.048919514
21	0xbd28431f	-0.041079637
22	0x399bc8a2	0.00029713387
23	0x3d5a44a4	0.053288117
24	0x3c16975c	0.00919136
25	0x3c8ccd51	0.017187746
26	0xbd465d46	-0.048428796
27	0x3c1755f8	0.009236805
28	0xbcaa0876	-0.020755988
29	0xbc3f6807	-0.011682517
30	0x3c43c02e	0.011947675
31	0x3d613225	0.054979462
32	0x3c9289cb	0.01788797
33	0xbd303fd7	-0.043029632
34	0x3cc450af	0.023964254
35	0xbd02fdf1	-0.03198046
36	0xbcab6455	-0.020921865
37	0x3d9d1ca2	0.07671477
38	0xbae03cb1	-0.0017107931
39	0xbcbd9959	-0.02314441
40	0xbc0230fa	-0.007946247
41	0xbd110a27	-0.035410073
42	0x3d3e7c05	0.046504993
43	0x3bf6fbd4	0.0075373445
44	0xbcba37d6	-0.022731703
45	0xbcd25a57	-0.025677843
46	0xbc7e2afe	-0.01551318
47	0xbd63b917	-0.055596437
48	0xbc45d7ce	-0.012075378
49	0x3cdcc64a	0.02695002
50	0xbd77c480	-0.06049013
51	0xbcbb59a7	-0.022869898
52	0xbbe81e1b	-0.007083667
53	0x3d637717	0.055533495
54	0x3da8f003	0.082489036
55	0xbc64c766	-0.013963556
56	0xbd08f68d	-0.033438254
57	0x3cc36515	0.02385191
58	0xbc929014	-0.017890967
59	0xbcc88239	-0.024476158
60	0x3c47f3eb	0.012204151
61	0x3d04a159	0.032380436
62	0x3d05a46d	0.03262751
63	0xbcbf0740	-0.023318887
64	0xbd750210	-0.05981642
65	0xbd2b475b	-0.041816097
66	0xbd87deac	-0.06634268
67	0xbcd00e24	-0.025397368
68	0x3d1ebd66	0.038754843
69	0xbd8e3b02	-0.069448486
70	0x3c48c0d1	0.012253002
71	0xbd05fae7	-0.032709982
72	0x3b47e903	0.0030503876
73	0xbd4d247e	-0.05008363
74	0x3ca45fd1	0.02006522
75	0xbd8c36fd	-0.06846426
76	0x3d43347f	0.047657486
77	0x3cba2b40	0.022725701
78	0xbd02ff21	-0.03198159
79	0xbd5ca0e4	-0.053864375
80	0xbcb4ef31	-0.022086712
81	0x3d0b7fcc	0.034057423
82	0xbc89e4a1	-0.016832652
83	0x3ab4e6fc	0.0013801749
84	0xbcb9c1ea	-0.022675473
85	0x3c64fb92	0.013975995
86	0x3b8ba2a1	0.0042613302
87	0x3c5d18c4	0.013494674
88	0xbd0782dd	-0.033083785
89	0x3d3b8c3b	0.04578803
90	0x3b83b561	0.004019425
91	0x3d14496b	0.03620283
92	0xbcff97b1	-0.031200262
93	0x3d02065e	0.031744353
94	0xbc9361a5	-0.017990896
95	0x3c9a721f	0.018853245
96	0x3ca13ad4	0.019681372
97	0xbd065fa8	-0.03280607
98	0x3d3cf247	0.04612949
99	0x3c852b3d	0.01625597
100	0x3d8ecc7a	0.069725946
101	0xbd878f5e	-0.06619142
102	0xbd4d2b0f	-0.050089892
103	0x3a94372b	0.0011307945
104	0xbd803180	-0.062594414
105	0xbd8eb5c4	-0.06968263
106	0x3c45a803	0.012063983
107	0xbcac8cb8	-0.021063194
108	0x3b25529d	0.0025226243
109	0xbbff5572	-0.0077921683
110	0xbc78c620	-0.015183955
111	0x3bc41a67	0.0059845927
112	0x3c223367	0.009899951
113	0x3d43a8b5	0.047768313
114	0x3bbde2b4	0.0057948474
115	0xbcd45082	-0.025917295
116	0xbc2ca629	-0.010537663
117	0xbd0af7fe	-0.03392791
118	0x3d79f993	0.06102903
119	0xbc1780de	-0.009247033
120	0xba270321	-0.00063710107
121	0xbd8e2629	-0.06940872
122	0xbcb9a915	-0.022663632
123	0xbd8cbacf	-0.068715684
124	0xbcf1d255	-0.02951924
125	0x3cdabc5a	0.026701141
126	0xbd06f7da	-0.032951213
127	0x3d3e3ed5	0.04644664

actor.7.weight f4 [128, 128]
0	0xbc92c73c	-0.017917268
1	0xbd98e12b	-0.074648224
2	0x39dbf8c3	0.00041956277
3	0xbde8e62e	-0.11372028
4	0xbd833475	-0.0640649
5	0xbd96fd2e	-0.07372509
6	0x3b46fead	0.00303642
7	0xbd9c602d	-0.076355316
8	0xbdcca670	-0.09992683
9	0x3d9befc2	0.076140895
10	0x3d20aeaa	0.039229073
11	0x3d7d4353	0.061831784
12	0x3e0769fa	0.1322402
13	0x3d219f98	0.03945884
14	0xbd365e1c	-0.044523343
15	0x3cfb61ed	0.030686343
16	0x3d3d603f	0.046234366
17	0xbcbde32b	-0.023179611
18	0xbb2e8daf	-0.0026634743
19	0xbe2b07f6	-0.16702256
20	0x3d1c8995	0.038217146
21	0x3a5d566d	0.00084433594
22	0xbd3a216c	-0.04544203
23	0xbd096c79	-0.033550713
24	0xbe11adb1	-0.14226414
25	0x3c94528b	0.018105766
26	0xbcf7bf82	-0.030242685
27	0x3e1e4703	0.15456776
28	0xbcdf5f4b	-0.027267119
29	0x3ddcf3fc	0.10788724
30	0xbd8f53fa	-0.06998439
31	0xbc8d3a67	-0.017239762
32	0xbbedd236	-0.007257725
33	0xbdd6ad32	-0.10482253
34	0x3db3aeb7	0.087735586
35	0xbd235efb	-0.039885502
36	0xbda805d9	-0.0820424
37	0xbce5d1b2	-0.028054092
38	0x3e0a78ef	0.13522695
39	0x3d582408	0.052768737
40	0x3d50dbbc	0.050990805
41	0xbd24502d	-0.040115524
42	0x3dd9773f	0.106184475
43	0xbd2ed730	-0.042685688
44	0xbdd695b0	-0.104777694
45	0x3d814f0f	0.06313907
46	0xbd8dcbce	-0.06923638
47	0xbdc26b02	-0.09493066
48	0x3d6637c6	0.056205533
49	0x3df73854	0.120712906
50	0x3d83674e	0.06416188
51	0x3da590a1	0.080842264
52	0x3de2a1bb	0.11066004
53	0x3dff2a8d	0.12459288
54	0x3dc64aff	0.09682273
55	0xbd294e06	-0.041334175
56	0xbdc7cb56	-0.0975558
57	0x386446a8	5.442524e-05
58	0xbd2af7bf	-0.041740175
59	0xbdb20157	-0.08691662
60	0xbd6bc10c	-0.05755715
61	0x3d88a7e4	0.066726476
62	0xbd014a63	-0.03156508
63	0x3d327b0b	0.043574374
64	0xbd691173	-0.056901406
65	0x3c9b050c	0.018923305
66	0xbbb3465f	-0.0054710354
67	0x3e039abf	0.12852
68	0x3d94e0e9	0.07269461
69	0x3df70e09	0.12063224
70	0xbdeaf298	-0.11472052
71	0x3d689d35	0.05679055
72	0xbdacb71d	-0.084333636
73	0x3d47f4a1	0.04881728
74	0x3d3f5922	0.046715863
75	0x3bfe4941	0.0077601974
76	0x3e011759	0.12606563
77	0x3d88b2ed	0.066747524
78	0xbc04ff3d	-0.008117494
79	0x3db7b32c	0.08969721
80	0x3d3e2bed	0.04642861
81	0xbdaa5247	-0.083164744
82	0xbda8e71a	-0.08247204
83	0x3cbc663b	0.022997966
84	0x3dbe5eb1	0.09295405
85	0xbd2078d2	-0.039177723
86	0x3e18bb5a	0.14915219
87	0x3ddfb766	0.10923652
88	0xbdfec973	-0.12440767
89	0x3e1e2714	0.15444595
90	0x3d41378c	0.047172114
91	0xbd349b11	-0.044093195
92	0xbcdd6758	-0.027026817
93	0x3e1b7d1b	0.15184443
94	0x3c053228	0.008129634
95	0x3dfb1a32	0.12260856
96	0x3d75cb5a	0.060008384
97	0xbd9c8314	-0.07642189
98	0x3d8c5f48	0.06854111
99	0x3e31c794	0.1736129
100	0x3d564c18	0.052318662
101	0xbdc40f78	-0.09573263
102	0xbd0f2e34	-0.034956172
103	0xbda9d120	-0.082918406
104	0xbcd27183	-0.025688892
105	0xbdfe8c20	-0.124290705
106	0x3da60f20	0.081083536
107	0x3dc1970e	0.094526395
108	0xbdb283e4	-0.087165624
109	0x3d82e454	0.063912064
110	0x3ddc6386	0.1076117
111	0xbcd88c79	-0.02643417
112	0xbd960273	-0.07324686
113	0x3cf4ce06	0.029883396
114	0xbad92427	-0.001656656
115	0xbd4b8361	-0.04968584
116	0xbda84d03	-0.08217814
117	0xbc992a2d	-0.018696869
118	0x3d6874b4	0.05675192
119	0x3c62bccb	0.013838957
120	0xbd91200f	-0.07086193
121	0xbe0af071	-0.13568284
122	0xbdc605c7	-0.09669071
123	0x3d131bf8	0.035915345
124	0x3ca8f0fa	0.02062272
125	0xbc887394	-0.016656674
126	0xbd4992e7	-0.049212363
127	0x3d95334c	0.07285175
128	0xbe0bbcdf	-0.13646267
129	0xbdaf96ed	-0.08573709
130	0x3db847b4	0.08998051
131	0xbd8a60e2	-0.0675676
132	0xbd5a5478	-0.053303212
133	0xbcbe9dbd	-0.023268575
134	0xbd05d552	-0.03267414
135	0xbc834eb9	-0.016028749
136	0xbdc5faac	-0.096669525
137	0x3d9a39b0	0.07530534
138	0x3ce1a962	0.027546588
139	0x3df4a5e8	0.119457066
140	0x3dfea2a8	0.12433368
141	0x3dc5bf60	0.096556425
142	0xbe37f2b6	-0.1796368
143	0x3c12aecd	0.008952809
144	0x3cc6c4bc	0.024263732
145	0xbafbc533	-0.001920855
146	0x3d00a8af	0.03141087
147	0xbe50fa88	-0.2040807
148	0x3cdf192e	0.027233686
149	0xbe27f232	-0.16400984
150	0xbd499896	-0.049217783
151	0xbdfefbd9	-0.1245038
152	0xbd52eed9	-0.051497314
153	0x3dc85be3	0.09783151
154	0x3dc93bbe	0.09825848
155	0x3d8544f8	0.06507295
156	0xbc8d3f62	-0.017242137
157	0x3cae5529	0.021280842
158	0xbdf9aa33	-0.12190666
159	0x3d92aab4	0.07161465
160	0xbc6afc03	-0.014342311
161	0xbd80df53	-0.06292596
162	0x3d2779c7	0.04088762
163	0xbd92782e	-0.07151829
164	0xbda9f527	-0.08298712
165	0xbe262050	-0.16223264
166	0x3da47df9	0.0803184
167	0x3d4cc88a	0.049995936
168	0x3d24e93a	0.040261485
169	0xbd684edc	-0.05671583
170	0x3d38ac4e	0.045086198
171	0x3da67723	0.08128192
172	0xbe498f7d	-0.19683643
173	0x3d91a590	0.07111657
174	0xbdef06e8	-0.11671239
175	0x3c75d961	0.01500544
176	0x3daadc95	0.08342854
177	0x3dfad9d8	0.12248582
178	0x3d9df2d3	0.07712331
179	0x3d1e6b5a	0.038676597
180	0x3dcec90c	0.100969404
181	0x3db6b2c5	0.08920816
182	0x3b3b923e	0.0028621103
183	0xbdc34dc7	-0.09536319
184	0xbd9f3e66	-0.077755734
185	0x3db5b2d8	0.08872002
186	0xbe3086a2	-0.17238858
187	0x3cdd9e83	0.027053123
188	0xbdeff6a3	-0.11716964
189	0x3d72c3a4	0.05926861
190	0xbdd923eb	-0.10602554
191	0x3dc40d99	0.09572906
192	0xbcf5be95	-0.029998103
193	0xbd599156	-0.05311712
194	0xbdf42a2d	-0.11922107
195	0x3e01123b	0.1260461
196	0x3d3d1366	0.046161078
197	0x3dca3d87	0.09875017
198	0x3d070242	0.032961138
199	0xbd6d9a05	-0.058008213
200	0xbe102f3a	-0.14080516
201	0x3d195462	0.03743399
202	0xbdc9189b	-0.09819146
203	0xbd652fd5	-0.05595382
204	0x3dcc76ff	0.09983634
205	0x3e24b25e	0.16083667
206	0xbc6af1cf	-0.014339878
207	0x3cb2376a	0.02175494
208	0xbac7231c	-0.0015192959
209	0x3ba04908	0.0048915185
210	0x3e04e878	0.12979305
211	0x3df65d54	0.1202952
212	0x3d15477c	0.036445126
213	0x3c5af2b6	0.013363531
214	0x3d95fed8	0.07323998
215	0x3dc7090e	0.09718524
216	0xbdd38839	-0.10328717
217	0x3d52ba9e	0.051447503
218	0x3e1a9295	0.15094979
219	0x3d3088d7	0.04309925
220	0xbde0a19f	-0.10968327
221	0x3e03fc65	0.1288925
222	0xbdb8ef65	-0.09030036
223	0x3d57bf94	0.052672938
224	0x3d5e3a4c	0.054254815
225	0xbdee153a	-0.116251424
226	0x3d1b1d48	0.03786972
227	0x3e26aeed	0.16277666
228	0x3d75367c	0.059866413
229	0xbe4b1883	-0.19833569
230	0xbd573854	-0.052543953
231	0xbe1fb6eb	-0.15597121
232	0xbd3baa64	-0.045816794
233	0xbdeb6b28	-0.11495048
234	0xbd017232	-0.031603046
235	0x3db873af	0.0900644
236	0x3be6da01	0.007045031
237	0x3dfa2a8e	0.12215148
238	0x3cbeb364	0.0232789
239	0x3d1635c0	0.036672354
240	0xbdf0ba2e	-0.11754261
241	0x3e0263b6	0.12733349
242	0xbcacb36c	-0.021081649
243	0xbaeb9ce9	-0.001797584
244	0xbda5c602	-0.080944076
245	0x3c437a59	0.011931025
246	0x3e0ab5ec	0.1354596
247	0xbbec99af	-0.007220469
248	0xbd91a619	-0.07111759
249	0xbd523b4d	-0.051326085
250	0xbe0a7c19	-0.13523902
251	0xbd6040f0	-0.05474943
252	0xbdb18de3	-0.08669641
253	0xbdb1a12a	-0.08673318
254	0xbd607f15	-0.054808695
255	0x3dda761e	0.1066706

actor.7.bias f4 [128]
0	0x3bb6873f	0.005570322
1	0x3ccc8587	0.024966015
2	0x3d0a829b	0.03381596
3	0x3c2c94f6	0.010533562
4	0x3c0d52e2	0.008625718
5	0xbd20a10b	-0.039216083
6	0xbd291df2	-0.041288324
7	0xbd60724a	-0.054796495
8	0x3db69c6d	0.089165546
9	0x3cbe0d3b	0.023199668
10	0x3b557bc9	0.0032575002
11	0x3d453224	0.04814352
12	0xbb367b59	-0.0027844517
13	0xbd12741b	-0.035755258
14	0xbc76d7fe	-0.015066145
15	0xbce20600	-0.027590752
16	0xbd11ba2c	-0.035577938
17	0x3c52186a	0.012823204
18	0x3d8c6af5	0.06856338
19	0x3d0996d8	0.03359112
20	0xbd4099f7	-0.047021832
21	0x3a7f5155	0.00097395974
22	0x3d47e4e2	0.048802264
23	0x3d29eecc	0.0414875
24	0x3dbbc887	0.09169107
25	0x3d83e192	0.064395085
26	0x3cba0c4b	0.02271094
27	0x3d18775f	0.037223216
28	0x3cc71b96	0.024305146
29	0x3d4b0d44	0.049573198
30	0x3cde57fb	0.027141562
31	0xbd2aea1a	-0.041727163
32	0x3bc48024	0.005996721
33	0x3ceb4408	0.028718963
34	0xbcab4708	-0.020907894
35	0xbd3d2b3e	-0.046183817
36	0xbd03d9a1	-0.03218997
37	0x3cc05241	0.023476722
38	0x3c4196d4	0.011815745
39	0xbcf9c0de	-0.030487474
40	0x3bad611c	0.0052911174
41	0x3b1c1a4e	0.002381939
42	0x3cc2fc18	0.023801848
43	0xbc95ac54	-0.018270649
44	0x3cae5e4a	0.021285195
45	0xbc5b1d1c	-0.013373639
46	0x3d273815	0.04082497
47	0xbdbd973e	-0.09257363
48	0xbd2c3260	-0.04204023
49	0xbcfcc9b9	-0.030857908
50	0xbd2d421f	-0.042299386
51	0x3c01d8fa	0.007925266
52	0xba90c710	-0.0011045653
53	0x3d696fe5	0.056991477
54	0x3d63abbd	0.055583704
55	0x3cf7df4a	0.03025784
56	0xbc23ff40	-0.010009587
57	0x3d10c071	0.035339776
58	0xbb85b791	-0.0040807207
59	0x3c3996d0	0.01132746
60	0x3cbdf082	0.023185972
61	0xbd8d8384	-0.0690985
62	0xbccbc617	-0.02487473
63	0xbd097e36	-0.03356763
64	0x3c80426d	0.015656674
65	0x3ca12edf	0.01967567
66	0xbd37fc11	-0.044918124
67	0x3bbacacb	0.0057004443
68	0x3c080e2a	0.008304158
69	0xbcc2beef	-0.023772685
70	0x3c95a49c	0.018266968
71	0xbd258fe9	-0.040420447
72	0xbcab0342	-0.020875577
73	0x3d531589	0.05153421
74	0xbb110834	-0.0022130134
75	0xbcde48cf	-0.027134327
76	0x3d4c2ace	0.04984551
77	0x3bccceaf	0.0062502245
78	0xbc3604df	-0.01110956
79	0xbd72de12	-0.059293814
80	0xbd41fc96	-0.047360025
81	0x3ce948f8	0.028477177
82	0xba1c1e96	-0.00059554854
83	0x3d398fd1	0.04530317
84	0x3cc5788c	0.024105333
85	0xbd179b86	-0.037013553
86	0xbc47b648	-0.012189455
87	0x3c7b9f43	0.015357795
88	0xbd3fe75d	-0.046851505
89	0x3c331b21	0.010931761
90	0xbb9ac67e	-0.004723369
91	0x3d782d61	0.06059015
92	0xbc7d5bde	-0.015463797
93	0xbce2d19e	-0.027687844
94	0x3d8578b0	0.0651716
95	0x3b1d0442	0.0023958837
96	0x3d7959e7	0.060876753
97	0xbd08c79c	-0.033393487
98	0xbc2d7813	-0.01058771
99	0xbcd13cbc	-0.025541656
100	0x3d21c5cc	0.039495274
101	0xbc354564	-0.011063907
102	0xbd303a6e	-0.043024473
103	0xbb919566	-0.0044428585
104	0xbbf49a08	-0.007464651
105	0x3b748d8f	0.003731582
106	0x3be8ef04	0.007108571
107	0xbb7f6383	-0.0038969226
108	0xbcc2e891	-0.023792537
109	0x3ad901e7	0.0016556353
110	0xbd913ab5	-0.070912756
111	0x3d1a5c2f	0.03768557
112	0x3bd10dfb	0.0063798404
113	0xbd305e7a	-0.04305885
114	0x3d243996	0.04009398
115	0xbd41acb6	-0.04728385
116	0xbcd328c2	-0.02577627
117	0x3d48217d	0.048860062
118	0xbd1d18ee	-0.038353853
119	0xbc3f43fc	-0.011673924
120	0xbd717faf	-0.05895966
121	0x3c244169	0.010025361
122	0xbc51f218	-0.012814067
123	0xbb9fc583	-0.00487584
124	0x3cfc723d	0.030816192
125	0x3cf01309	0.029305952
126	0x3cfe5ffe	0.031051632
127	0xbdb50dfb	-0.08840557

actor.10.weight f4 [1, 128]
0	0x3e44866a	0.191919
1	0x3e60670c	0.2191431
2	0x3e3849eb	0.17996947
3	0x3e0c525e	0.13703296
4	0x3e24d1ff	0.16095732
5	0xbdffcfd9	-0.12490816
6	0xbe2637c8	-0.16232216
7	0xbe169521	-0.14705326
8	0x3e515a1e	0.20444533
9	0x3e63ad67	0.22234116
10	0xbe515976	-0.20444283
11	0x3e30460e	0.17214224
12	0xbe3293f0	-0.17439246
13	0xbe338440	-0.17530918
14	0xbe2b441e	-0.16725203
15	0xbe45b226	-0.1930624
16	0xbe14b099	-0.14520492
17	0x3e26a963	0.16275553
18	0x3e3bccd6	0.18339857
19	0x3e3b9216	0.18317446
20	0xbe2092a7	-0.15680943
21	0x3e3a04dd	0.18165918
22	0x3e095491	0.13411166
23	0x3e48d9ac	0.19614285
24	0x3e4f0102	0.20215228
25	0x3e4fb3eb	0.20283477
26	0x3e1a4409	0.15065016
27	0x3e01b1f1	0.12665536
28	0x3e467521	0.19380619
29	0x3e09e326	0.13465557
30	0x3e211789	0.15731634
31	0xbe0fc6ac	-0.14040631
32	0x3e3eed92	0.18645313
33	0x3e0ea0b5	0.13928492
34	0x3e014f9a	0.12628022
35	0xbe59ce1d	-0.21270032
36	0xbe273665	-0.16329344
37	0x3e4f52a5	0.2024637
38	0x3de96da9	0.11397869
39	0xbe1b87d7	-0.15188538
40	0x3e061049	0.1309215
41	0x3df7dd0b	0.121027075
42	0xbe602613	-0.21889524
43	0xbe20e4ea	-0.15712324
44	0x3e413213	0.18866758
45	0xbe2606d8	-0.16213548
46	0xbe38fd31	-0.18065335
47	0xbe64bb8e	-0.22337171
48	0xbe4ee964	-0.20206219
49	0xbe271d9e	-0.16319892
50	0xbe2c8de6	-0.16851005
51	0x3e547d41	0.20750906
52	0xbe0ffa85	-0.1406041
53	0x3e381e95	0.17980416
54	0x3e643d08	0.22288907
55	0x3e24ecd5	0.16105969
56	0x3dfb29ec	0.12263855
57	0x3e4e7ee2	0.2016559
58	0x3e1a7304	0.15082937
59	0x3e24ca57	0.16092812
60	0x3e0ac76b	0.13552634
61	0xbe553d00	-0.20824051
62	0xbe60b47d	-0.21943851
63	0xbe6c2c4f	-0.23063777
64	0x3e122727	0.14272748
65	0x3e5c0a0a	0.21488205
66	0xbe3154ed	-0.17317553
67	0xbe2cab1b	-0.16862147
68	0x3e53c81f	0.20681809
69	0xbe4c5f48	-0.19958222
70	0x3e3782d4	0.17921
71	0xbe15f8b1	-0.1464565
72	0xbe182fe5	-0.1486202
73	0x3e38a5e2	0.1803203
74	0xbe24f830	-0.16110301
75	0x3e2f4c49	0.17118944
76	0x3e3e19d8	0.18564546
77	0x3e03f5da	0.12886754
78	0xbe04faeb	-0.12986343
79	0xbe667d95	-0.22508843
80	0xbe22049d	-0.15822072
81	0xbe4b8bae	-0.19877502
82	0xbde57132	-0.11203231
83	0x3e2d35e4	0.16915089
84	0x3e4a27cf	0.19741748
85	0xbe7944ec	-0.24342698
86	0xbe0381ef	-0.12842534
87	0x3e2952ef	0.16535543
88	0xbe66710b	-0.2250406
89	0x3e16cab6	0.14725766
90	0x3e49d81d	0.19711347
91	0x3e60abee	0.21940586
92	0xbe18bf4b	-0.14916722
93	0xbe3845a8	-0.17995322
94	0x3e131b68	0.14365923
95	0xbe3ed6e5	-0.18636663
96	0x3e014347	0.1262332
97	0xbe11f8dc	-0.14255089
98	0xbe30acd6	-0.17253432
99	0xbe25ee28	-0.1620413
100	0x3e4277a5	0.18990953
101	0xbdcaaf6e	-0.09896742
102	0xbe80e637	-0.2517564
103	0x3e281441	0.16413976
104	0xbe3572c6	-0.17719564
105	0xbdd4625e	-0.103703246
106	0xbe044ff3	-0.12921123
107	0x3e100b18	0.14066732
108	0x3e551dde	0.20812175
109	0x3e254102	0.1613808
110	0xbe379758	-0.17928827
111	0x3e247b15	0.16062577
112	0x3e122500	0.14271927
113	0xbde7e9ad	-0.11323867
114	0x3e4bbc07	0.19895945
115	0xbe2f39d3	-0.17111902
116	0xbe1895e4	-0.14900929
117	0x3e368de8	0.1782757
118	0xbe1751ac	-0.14777249
119	0xbe1c35e4	-0.15254933
120	0xbe30587a	-0.17221251
121	0x3e2fd14c	0.17169684
122	0xbe24f039	-0.16107263
123	0xbe4f1638	-0.2022332
124	0x3dee1a7e	0.11626147
125	0x3e3da020	0.18518114
126	0x3e31e711	0.17373301
127	0xbe8b7876	-0.27240342
