PPO/PPO3_Trained/PPO_DoubleInvPendulum_700K.pth (torch, 410281 bytes, 18 tensors)

actor.0.weight f4 [128, 6]
0.47285876 0.33459085 5.407708e-05 0.48687252 1.1306195 0.013642558 -0.35409725 -0.14588517
0.3367143 -0.4095552 -1.1655437 0.41082114 -0.97162163 0.059807085 -0.31144917 -0.25921008
-1.0544767 0.9410948 -0.64560205 -0.2913985 -0.11528348 -0.11422925 -1.2797414 0.12477314
-0.92926794 0.2697764 -0.38317847 -0.32113087 -1.0210395 0.38457602 -0.7636777 -0.30474725
0.09182643 -0.7179814 -1.129617 0.211311 0.32801116 0.16675739 0.12724395 -0.2914383
0.59332985 -0.66117966 -0.87920886 0.066037394 0.22825675 0.12580405 -1.080511 0.372713
-0.9524339 -0.2809731 0.24168299 -0.83002096 -1.3211806 -0.1260328 0.07946489 -0.20228343
-0.102238 -0.07110624 0.4556609 -0.5369388 0.6747263 -0.2630529 -0.07820813 0.15503436
1.1308407 -0.5329204 1.1155254 0.15078941 -0.23527484 0.6409277 1.2008044 -0.30325
-0.07589252 0.109796256 -0.29118702 0.21475296 -0.73444766 0.37957934 1.1969049 -0.04043276
0.021183757 0.8337888 1.519261 -0.00037080728 0.05872852 0.33967128 -0.31736693 0.1887591
0.93592095 0.01604722 0.089625224 -0.16283697 0.16114005 0.6708721 0.82161933 -0.49041116
0.6389489 -0.36788145 0.13428973 0.7997403 1.0106456 0.027772099 -0.36960217 0.27352417
0.13481167 -0.6022613 -1.0563744 0.6183564 -0.24712214 -0.042430922 0.0016753896 -0.1258424
-0.30408156 -0.30624902 -0.11739421 -0.16771549 0.05006721 0.49700847 -0.7174337 0.30802813
-1.2875626 0.21948826 -0.16026373 -0.52819437 -2.0003371 1.0332159 0.03388416 -0.32859936
-0.12171183 -0.03435228 0.6089071 -0.08623699 0.23815112 -0.21370776 -0.22964627 0.15234117
-0.66390324 0.58492434 -0.58910984 -0.112667896 -0.27852282 -0.14147618 -1.2243142 -0.063744284
-0.25087458 0.25443876 -0.14217712 -0.025735153 -0.5926338 0.22626416 0.6454559 0.21141632
-0.35728583 0.8688995 1.2029487 -0.051885337 -0.8754181 0.24192181 -0.31366816 -0.09681925
-1.3388343 0.8965346 -0.5301411 -0.21701457 -0.061514225 -0.28231633 -1.5723594 -0.019218367
-0.51833767 0.007580704 0.14932251 -0.048507985 -0.96364415 0.32542297 0.106169544 -0.17614497
0.18239556 0.3567257 0.72106045 -0.2978224 -0.3991074 -0.02595536 -0.31703782 -0.30915833
-1.4111329 0.54945165 0.78445977 -0.07993657 0.33415782 0.6950659 1.0304004 -0.1574505
0.6235424 0.12913914 -0.31104362 0.5189845 0.91792697 0.17210163 -0.47255084 -0.12711947
0.2128383 0.033582114 0.2148299 -0.5821861 0.019247517 -0.1506097 0.14482784 -0.39697865
0.08601266 -0.119502544 -1.1094366 0.35727668 -0.3072677 -0.83791906 -1.2587357 -0.14161377
-0.03217734 -0.05052569 0.1381421 -0.024814589 -0.9907547 0.5241246 0.64149225 -0.032474663
0.3679433 0.3628431 1.2709332 -0.40735352 0.6025406 0.06972494 -0.050223187 0.8149924
1.1310664 0.03552697 -0.08364606 -0.27103356 0.26076466 -0.3656653 -0.69454616 0.3837472
-0.8720828 0.14073043 -0.21385156 -0.5421399 -1.1370381 0.506999 -0.8159009 -0.07183466
-0.25266454 -0.20257194 -1.2085894 0.198478 1.0517066 -0.072376266 0.27823073 0.63624686
00000000: 8b1a f23e 7e4f ab3e d3d0 6238 5b47 f93e
00000010: 24b8 903f 0985 5f3c 3c4c b5be ec62 15be
00000020: d165 ac3e 38b1 d1be 8930 95bf 2657 d23e
00000030: 32bc 78bf 46f8 743d 4476 9fbe 2fb7 84be
00000040: 18f9 86bf 97eb 703f 2d46 25bf 2f32 95be
00000050: bf19 ecbd 06f1 e9bd 91ce a3bf 0f89 ff3d
00000060: 81e4 6dbf 2220 8a3e f82f c4be 446b a4be
00000070: 6cb1 82bf 26e7 c43e 6280 43bf d507 9cbe
00000080: 7f0f bc3d a1cd 37bf 4a97 90bf e961 583e
00000090: 14f1 a73e 73c2 2a3e 3d4c 023e 6737 95be
000000a0: 77e4 173f 1243 29bf d513 61bf 9d3e 873d
000000b0: 23bc 693e c7d2 003e 2f4e 8abf 3dd4 be3e
000000c0: b5d2 73bf b5db 8fbe bf7b 773e 417c 54bf
000000d0: 721c a9bf be0e 01be 7dbe a23d 6323 4fbe
000000e0: 2862 d1bd 26a0 91bd 634c e93e d274 09bf
000000f0: ddba 2c3f dfae 86be 962b a0bd 54c1 1e3e
00000100: 63bf 903f 796d 08bf 89c9 8e3f 8a68 1a3e
00000110: e3eb 70be d613 243f f5b3 993f 9643 9bbe
00000120: 8a6d 9bbd dcdc e03d 7716 95be 33e8 5b3e
00000130: c304 3cbf 3958 c23e 2e34 993f d29c 25bd
00000140: 8f89 ad3c 2f73 553f 2577 c23f e968 c2b9
00000150: 518d 703d 65e9 ad3e eb7d a2be 114a 413e
00000160: 8498 6f3f 7675 833c 6e8d b73d bcbe 26be
00000170: e601 253e 46be 2b3f a555 523f 2c17 fbbe
00000180: 2892 233f f55a bcbe 3f83 093e c8bb 4c3f
00000190: d65c 813f 5082 e33c 7f3c bdbe 5c0b 8c3e
000001a0: 120c 0a3e cc2d 1abf 4737 87bf 9b4c 1e3f
000001b0: 960d 7dbe 0ccc 2dbd bf98 db3a d5dc 00be
000001c0: 94b0 9bbe accc 9cbe 606c f0bd 9cbd 2bbe
000001d0: 4613 4d3d e577 fe3e bca9 37bf ddb5 9d3e
000001e0: dace a4bf 88c1 603e 2d1c 24be bf37 07bf
000001f0: 8605 00c0 6b40 843f 1eca 0a3d 2d3e a8be
00000200: 0d44 f9bd fab4 0cbd 56e1 1b3f 059d b0bd
00000210: e3dd 733e 35d6 5abe 6428 6bbe 53ff 1b3e
00000220: 90f5 29bf 9abd 153f e7cf 16bf 6dbe e6bd
00000230: 8b9a 8ebe 22df 10be 54b6 9cbf 5d8c 82bd
00000240: a272 80be cc45 823e e196 11be 87d2 d2bc
00000250: d9b6 17bf cbb1 673e 993c 253f 857d 583e
00000260: 2bee b6be 3370 5e3f 39fa 993f b885 54bd
00000270: 671b 60bf 5aba 773e 1d99 a0be 2c49 c6bd
00000280: ec5e abbf 4b83 653f 54b7 07bf 1139 5ebe
00000290: 57f6 7bbd c48b 90be 1343 c9bf d66f 9dbc
000002a0: c7b1 04bf 8e67 f83b 00e8 183e 4fb0 46bd
000002b0: 62b1 76bf d79d a63e 6b6f d93d 595f 34be
000002c0: e7c5 3a3e c0a4 b63e 6b97 383f 2d7c 98be
000002d0: ce57 ccbe 56a0 d4bc c852 a2be 004a 9ebe
000002e0: 01a0 b4bf dda8 0c3f 5bd2 483f c9b5 a3bd
000002f0: bc16 ab3e d7ef 313f 29e4 833f b43a 21be
00000300: 7aa0 1f3f 0d3d 043e 1c41 9fbe 2bdc 043f
00000310: 43fd 6a3f 693b 303e 2ff2 f1be 9b2b 02be
00000320: 49f2 593e 668d 093d 5ffc 5b3e 260a 15bf
00000330: f8ac 9d3c 6e39 1abe c04d 143e c940 cbbe
00000340: 6827 b03d c0bd f4bd 0502 8ebf f8ec b63e
00000350: 3152 9dbe dd81 56bf 401e a1bf 3303 11be
00000360: 63cc 03bd 07f4 4ebd 1f75 0d3e f747 cbbc
00000370: 1aa2 7dbf 082d 063f d638 243f 2704 05bd
00000380: 1063 bc3e 92c6 b93e f0ad a23f a490 d0be
00000390: 1a40 1a3f f3cb 8e3d d4b6 4dbd 58a3 503f
000003a0: c9c6 903f ba84 113d a04e abbd e9c4 8abe
000003b0: f282 853e 7b38 bbbe c7cd 31bf 837a c43e
000003c0: d240 5fbf a31b 103e e7fb 5abe aec9 0abf
000003d0: 778a 91bf b0ca 013f e2de 50bf 0d1e 93bd
000003e0: 3f5d 81be 056f 4fbe 0fb3 9abf d13d 4b3e
000003f0: 529e 863f 023a 94bd 4274 8e3e 13e1 223f

actor.0.bias f4 [128]
-0.19165075 -0.38033074 -0.086396195 0.2293342 0.21105973 0.30330244 0.3151037 -0.011173873
-0.12716638 0.00033519597 0.16831529 0.18985376 -0.28331026 0.07916204 -0.036579728 -0.0254728
0.30859914 0.23948105 0.20372723 0.12815487 -0.15864286 -0.13571228 0.25923863 -0.014753423
-0.22389135 0.26212734 0.025541889 0.17388509 -0.079677865 0.05251533 0.29694843 0.03081814
-0.118732914 -0.03809568 0.13005126 -0.17968076 -0.04232681 -0.1635145 0.17962071 0.19320574
-0.16571824 0.06140947 -0.13079491 -0.15089442 0.084989026 -0.14759524 0.30013052 -0.25195265
0.048347566 -0.27248833 -0.13015969 -0.3913391 0.055528834 0.10007742 0.23102199 -0.066794984
-0.28735825 -0.335352 -0.14717112 -0.15119344 0.44192845 -0.2122695 0.10236417 0.00805601
-0.35938087 0.36908576 0.103206076 -0.062459577 0.20335935 0.14963311 -0.36431214 0.37361556
-0.3370929 -0.3344128 0.09711052 0.27628076 -0.39300022 0.34066164 -0.0029019718 0.011627484
0.22752044 -0.18916383 0.1528319 -0.03882703 -0.2089596 -0.025835354 0.25136262 0.18318821
-0.04632406 0.18438931 -0.18377504 0.2112157 -0.09338757 0.12040012 0.24053213 0.20752665
0.0053805388 -0.06757826 0.05723861 0.27572948 0.060286738 0.15501896 0.14842352 -0.22730085
0.3439978 0.1911046 -0.060375623 -0.28581932 0.057415053 0.12051557 -0.24165411 0.06604451
-0.07398956 -0.20971644 0.18855517 -0.050661422 -0.015810143 -0.18584333 -0.14186038 0.021811808
0.10826485 -0.15506472 -0.24727717 0.01594399 0.33734578 0.13909642 -0.07629247 0.23033635
00000000: 1840 44be b6ba c2be 7df0 b0bd 96d6 6a3e
00000010: 0b20 583e 754a 9b3e 4655 a13e 9f12 37bc
00000020: e737 02be 3ebd af39 d85a 2c3e 0669 423e
00000030: 0b0e 91be b51f a23d a0d4 15bd 55ac d0bc
00000040: b500 9e3e 853a 753e df9d 503e 083b 033e
00000050: 4673 22be 29f8 0abe edba 843e 57b8 71bc
00000060: c643 65be 8e35 863e 393d d13c ef0e 323e
00000070: 262e a3bd 511a 573d a009 983e 5376 fc3c
00000080: 3e2a f3bd 370a 1cbd 282c 053e 3cfe 37be
00000090: e15e 2dbd 5870 27be 7eee 373e bad7 453e
000000a0: 0bb2 29be 7f88 7b3d 1aef 05be 1184 1abe
000000b0: ba0e ae3d 3523 17be b5aa 993e f0ff 80be
000000c0: 1908 463d 9783 8bbe 9548 05be 995d c8be
000000d0: 3472 633d 64f5 cc3d 0791 6c3e cfcb 88bd
000000e0: 9f20 93be 42b3 abbe 07b4 16be 74d2 1abe
000000f0: 7244 e23e 2d5d 59be 4ea4 d13d 5bfd 033c
00000100: c500 b8be cff8 bc3e b55d d33d 9dd5 7fbd
00000110: 6f3d 503e 6c39 193e 1f87 babe 8a4a bf3e
00000120: 7197 acbe 2838 abbe e1e1 c63d ac74 8d3e
00000130: 5337 c9be 346b ae3e 022f 3ebb 3481 3e3c
00000140: 1efb 683e 2ab4 41be f77f 1c3e 1809 1fbd
00000150: 81f9 55be aaa4 d3bc 9ab2 803e b195 3b3e
00000160: 4cbe 3dbd 8dd0 3c3e 862f 3cbe ee48 583e
00000170: fb41 bfbd 5794 f63d 0e4e 763e de81 543e
00000180: 3b4f b03b 7966 8abd 0873 6a3d 6a2c 8d3e
00000190: 3aef 763d 4abd 1e3e 56fc 173e 8ec1 68be
000001a0: 7b20 b03e edb0 433e 6e4c 77bd e956 92be
000001b0: 0c2c 6b3d ded0 f63d 2d74 77be 5842 873d
000001c0: d787 97bd e8bf 56be 9b14 413e 5a82 4fbd
000001d0: 4684 81bc b74d 3ebe d943 11be adae b23c
000001e0: f6b9 dd3d 49c9 1ebe 3a36 7dbe f89c 823c
000001f0: 96b8 ac3e 4b6f 0e3e 3a3f 9cbd 4bdd 6b3e

actor.2.weight f4 [128, 128]
-0.027811037 -0.15273057 -0.020121658 -0.10267216 -0.03533868 -0.24623536 -0.041702516 0.07643043
-0.13604346 -0.007713032 0.059988417 0.6356314 0.03726331 0.3582603 -0.028377831 0.041050307
0.0016515669 -0.025814394 -0.06464624 -0.025003377 -0.64694357 0.056199647 0.03800194 0.04986058
-0.005332187 0.47336102 -0.13711241 -0.05454777 0.0014443533 0.042038653 -0.045072448 0.05371504
0.06721617 -0.06350603 -0.00755948 -0.19910854 0.0539538 0.009442043 0.048294842 -0.05399642
0.04049398 0.06260123 -0.019242795 0.09238275 -0.051851064 -0.08432395 0.030404933 0.022826726
0.09157128 -0.1490173 -0.088816956 -0.20807987 0.014840798 -0.07199692 -0.019161124 0.06570432
-0.00822021 0.008818962 -0.081189215 0.1309729 -0.0029622961 -0.017105348 -0.086837575 0.023314456
0.0050859023 0.018457772 0.005138503 -0.036598444 -0.039133485 0.028941676 -0.043900233 0.049757607
-0.08863594 -0.101615645 0.2077302 -0.069086805 -0.12991868 0.068071805 -0.06649598 -0.057752185
-0.06322089 0.023620592 0.010272704 0.06285113 -0.052718654 0.0075383335 0.055367526 -0.10442753
-0.013303789 -0.041515283 0.039760016 -0.1528118 0.041332453 -0.09153422 0.06996637 -0.037146684
-0.02231776 -0.07847092 0.05972217 -0.017830554 0.008901017 0.0010102452 -0.0406929 0.020225769
-0.16660357 0.18724212 -0.085483015 -0.036036428 0.08169347 0.12422338 -0.04306916 -0.06385067
-0.0637865 0.06563048 0.017852986 -0.07649556 0.04201739 0.014003581 -0.039361704 -0.03899425
-0.11750948 -0.01791753 0.071966946 0.16536503 0.038744774 0.21612176 -0.08196901 0.0074001136
-0.008234929 0.11328753 0.058554064 -0.040751766 -0.018506609 0.13111742 0.07809357 0.07944033
0.057207897 -0.07080667 0.06631116 -0.5102816 0.062313825 -0.13197188 0.04278294 -0.02934265
-0.08714411 -0.014099444 0.031615783 0.076366544 0.7524754 0.056216523 -0.017635435 0.026121698
-0.020389186 -0.22637682 0.069096275 -0.056371313 -0.024634097 0.00469462 -0.010865889 -0.018953623
-0.044513557 -0.08753005 0.020487469 0.06158476 -0.036539163 0.0422426 0.033018906 -0.018741304
0.022130817 0.07810249 -0.023817215 -0.069604 0.08223201 0.05290132 0.07056237 0.07567693
-0.06899785 -0.1727597 0.0053603183 -0.06677962 -0.00076703535 -0.005595438 -0.07323756 -0.041024726
-0.038905684 -0.08604844 -0.015592046 -0.04539559 -0.020493848 0.092975006 -0.017957238 0.116930485
-0.09216896 0.08537232 -0.047323383 -0.0009018319 0.055632263 -0.066089235 0.026015261 0.045379896
-0.072524995 -0.005699028 0.1567642 -0.07283987 0.07456558 -0.034228593 0.01798395 0.059839163
0.045409508 -0.07118215 0.018681707 -0.0957741 -0.047882672 -0.047449335 -0.050884165 0.03513685
-0.05144312 -0.029507032 -0.04301579 0.004168048 -0.014784281 0.010526619 -0.02865016 -0.075302735
-0.0765703 0.029088814 -0.06895495 -0.0067924606 0.017623639 0.029737025 -0.12435615 0.033551738
0.021568798 0.05036173 0.040090155 0.059366412 0.03309482 -0.09553209 0.06658092 0.030479902
0.020399338 -0.06874508 0.082690865 -0.02972459 -0.018204337 -0.04840864 0.03785863 0.06346313
0.013050401 -0.03163592 0.02135768 0.008745427 0.075702086 -0.06857856 0.012122709 0.054181654
00000000: f9d3 e3bc 6765 1cbe 2dd6 a4bc c845 d2bd
00000010: 4bbf 10bd 1f25 7cbe 42d0 2abd 8f87 9c3d
00000020: fa4e 0bbe 9abd fcbb 6ab6 753d bdb8 223f
00000030: 6aa1 183d e56d b73e a078 e8bc 5e24 283d
00000040: 6479 d83a b578 d3bc 3f65 84bd e2d3 ccbc
00000050: 189e 25bf 9a31 663d eca7 1b3d 9c3a 4c3d
00000060: a0b9 aebb 605c f23e 3267 0cbe 7c6d 5fbd
00000070: 7450 bd3a b930 2c3d e39d 38bd 4d04 5c3d
00000080: a2a8 893d 730f 82bd 84b5 f7bb 1ce3 4bbe
00000090: a9fe 5c3d ccb2 1a3c d0d0 453d 5a2b 5dbd
000000a0: 04dd 253d 1335 803d 11a3 9dbc 2b33 bd3d
000000b0: c861 54bd 09b2 acbd c413 f93c 1dff ba3c
000000c0: b989 bb3d fe97 18be aae5 b5bd e412 55be
000000d0: d226 733c 1f73 93bd caf7 9cbc fd8f 863d
000000e0: 0fae 06bc 687d 103c 8846 a6bd c31d 063e
000000f0: 1523 42bb 8420 8cbc e6d7 b1bd f5fd be3c
00000100: a4a7 a63b c134 973c e360 a83b 40e8 15bd
00000110: 6f4a 20bd 1817 ed3c bbd0 33bd a2ce 4b3d
00000120: c286 b5bd dd1b d0bd 3ab7 543e 627d 8dbd
00000130: 6709 05be 3b69 8b3d 0b2f 88bd 8e8d 6cbd
00000140: f479 81bd f97f c13c d84e 283c 18b8 803d
00000150: 84ef 57bd 2004 f73b 0fc9 623d 1ade d5bd
00000160: 23f8 59bc ee0b 2abd 66db 223d b27a 1cbe
00000170: 384c 293d 4b76 bbbd 874a 8f3d 1f27 18bd
00000180: bcd3 b6bc 5db5 a0bd 3c9f 743d 6211 92bc
00000190: 92d5 113c 346a 843a 99ad 26bd 83b0 a53c
000001a0: 209a 2abe 66bc 3f3e b811 afbd ef9a 13bd
000001b0: e84e a73d d468 fe3d 4a69 30bd 24c4 82bd
000001c0: 7fa2 82bd 4669 863d 6d40 923c b4a9 9cbd
000001d0: 6d1a 2c3d 476f 653c bd39 21bd 6fb8 1fbd
000001e0: cfa8 f0bd c9c7 92bc 6863 933d 7355 293e
000001f0: d7b2 1e3d 064f 5d3e 5edf a7bd a77c f23b
00000200: cceb 06bc 4b03 e83d 63d6 6f3d 53eb 26bd
00000210: 2c9b 97bc a543 063e 86ef 9f3d 9db1 a23d
00000220: d452 6a3d 1603 91bd 25ce 873d d1a1 02bf
00000230: c83c 7f3d a323 07be 2a3d 2f3d ff5f f0bc
00000240: 9c78 b2bd 5b01 67bc 8d7f 013d 1066 9c3d
00000250: 3aa2 403f 4c43 663d 3078 90bc 2cfd d53c
00000260: 3907 a7bc 53cf 67be 5982 8d3d 9be5 66bd
00000270: 72cd c9bc 54d5 993b d706 32bc a144 9bbc
00000280: d953 36bd f442 b3bd 56d5 a73c 4d40 7c3d
00000290: 17aa 15bd 9406 2d3d d53e 073d 5d87 99bc
000002a0: b04b b53c 33f4 9f3d 521c c3bc 8b8c 8ebd
000002b0: 4269 a83d 0eaf 583d 0183 903d 82fc 9a3d
000002c0: bf4e 8dbd ebe7 30be 9ca5 af3b c1c3 88bd
000002d0: df12 49ba f059 b7bb 93fd 95bd 8b09 28bd
000002e0: 915b 1fbd 2a3a b0bd c875 7fbc baf0 39bd
000002f0: b7e2 a7bc ae69 be3d 0f1b 93bc 4079 ef3d
00000300: 14c3 bcbd afd7 ae3d 2ad6 41bd ea68 6cba
00000310: a8de 633d cb59 87bd f51d d53c 45e0 393d
00000320: fc87 94bd e9be babb cb86 203e 122d 95bd
00000330: d7b5 983d 4833 0cbd 1453 933c e919 753d
00000340: 52ff 393d f2c7 91bd 610a 993c 3625 c4bd
00000350: 9f20 44bd 3c5a 42bd ea6b 50bd a8eb 0f3d
00000360: 05b6 52bd bbb8 f1bc 5331 30bd 1f94 883b
00000370: c539 72bc d777 2c3c beb3 eabc 5238 9abd
00000380: e4d0 9cbd aa4b ee3c 4138 8dbd 4a93 debb
00000390: 735f 903c 109b f33c 70ae febd 8c6d 093d
000003a0: 0cb1 b03c 1a48 4e3d 9335 243d 322a 733d
000003b0: 6f8e 073d 54a6 c3bd 945b 883d fdb0 f93c
000003c0: 831c a73c 38ca 8cbd d459 a93d fc80 f3bc
000003d0: 4321 95bc 2348 46bd a711 1b3d f5f8 813d
000003e0: 59d1 553c ab94 01bd 4df6 ae3c fb48 0f3c
000003f0: b209 9b3d eb72 8cbd 549e 463c 95ed 5d3d

actor.2.bias f4 [128]
-0.04125905 0.029624742 0.016769364 0.021645034 -0.039854012 -0.021628601 0.011330763 0.07741316
0.030500963 -0.00591346 0.0016413031 0.09654354 0.08476038 0.08102851 -0.017784374 0.039406303
0.05345783 -0.05087774 0.037110038 0.09283128 -0.050133523 0.09036677 -0.062464297 -0.0054497593
-0.031175712 -0.018197268 0.047490705 0.06377958 -0.042643294 0.04288384 0.0731814 0.07992374
-0.049647234 -0.023560453 0.03596708 -0.030416701 0.06422184 -0.08867074 0.032101355 -0.056015752
0.021062376 -0.04265319 0.027909528 -0.020460663 0.08799337 0.07529874 -0.054321177 -0.010088303
0.06654782 -0.038270626 0.06832206 -0.0018099622 0.053498637 0.055760995 -0.055652767 -0.0031874438
0.08207667 0.06975888 0.059918337 0.064446904 0.05196268 0.009353806 -0.0830232 -0.03412763
0.056421533 0.012740698 -0.03651545 -0.08114652 -0.0077667506 0.090593316 0.08801664 0.039056472
0.010384353 -0.0017107974 0.006771103 0.038538586 -0.06487959 0.03298261 0.03694245 -0.034683593
-0.064396754 0.0003479995 -0.0036264316 0.02720991 0.04909806 0.009915913 0.0056916787 0.014380166
0.0781155 -0.026743425 0.046881814 -0.008724455 -0.026751803 0.09873555 -0.026670355 0.0015333515
0.029301804 0.07595432 0.038332317 -0.0018885677 -0.07988483 0.020179361 -0.10091262 -0.020747175
0.01800214 0.037629746 -0.07709342 -0.035745226 -0.017194789 0.064482704 0.08775905 0.057852343
-0.06798734 -0.046888456 0.029300602 0.0066122464 0.009341413 0.06589886 -0.053472087 -0.048160903
-0.053101253 0.04208427 0.027905742 0.07213607 -0.010159422 0.031262603 0.085459456 -0.008791083
00000000: 40ff 28bd 96af f23c e85f 893c ed50 b13c
00000010: f63d 23bd 772e b1bc aaa4 393c ca8a 9e3d
00000020: 28dd f93c b3c5 c1bb fe20 d73a 9fb8 c53d
00000030: da96 ad3d 47f2 a53d 89b0 91bc 8168 213d
00000040: 99f6 5a3d 2d65 50bd b200 183d 531e be3d
00000050: cf58 4dbd 3712 b93d 90da 7fbd e593 b2bb
00000060: 3564 ffbc 7012 95bc 9d85 423d de9e 823d
00000070: bcaa 2ebd f7a6 2f3d 21e0 953d 0faf a33d
00000080: e65a 4bbd da01 c1bc 3852 133d 722c f9bc
00000090: bd86 833d 0199 b5bd b67c 033d c670 65bd
000000a0: 018b ac3c 1db5 2ebd 86a2 e43c 1f9d a7bc
000000b0: de35 b43d 3a36 9a3d e27f 5ebd 6949 25bc
000000c0: 394a 883d a9c1 1cbd 70ec 8b3d 413c edba
000000d0: 6321 5b3d a465 643d 28f4 63bd 6fe4 50bb
000000e0: d017 a83d bedd 8e3d ee6c 753d bdfc 833d
000000f0: d2d6 543d b540 193c 1108 aabd 6ac9 0bbd
00000100: 441a 673d 5cbe 503c 3991 15bd 2630 a6bd
00000110: 3a80 febb fd88 b93d 1142 b43d aef9 1f3d
00000120: 2223 2a3c d63c e0ba 21e0 dd3b a3da 1d3d
00000130: 97df 84bd c618 073d f750 173d 6210 0ebd
00000140: 72e2 83bd b473 b639 6da9 6dbb 51e7 de3c
00000150: 0c1b 493d 5b76 223c 4381 ba3b ca9a 6b3c
00000160: 05fb 9f3d 0715 dbbc 2507 403d 04f1 0ebc
00000170: 9926 dbbc dd35 ca3d ca7b dabc bdfa c83a
00000180: 560a f03c f08d 9b3d 5902 1d3d d189 f7ba
00000190: a89a a3bd 304f a53c 47ab cebd fbf5 a9bc
000001a0: 3979 933c a621 1a3d 28e3 9dbd 9669 12bd
000001b0: 16dc 8cbc 820f 843d 04bb b33d 94f6 6c3d
000001c0: f23c 8bbd 1c0e 40bd d107 f03c 8bab d83b
000001d0: ba0c 193c fbf5 863d 8c05 5bbd 5e44 45bd
000001e0: b380 59bd 8e60 2c3d 959a e43c 13bc 933d
000001f0: b473 26bc 370d 003d 5e05 af3d 7908 10bc

actor.4.weight f4 [128, 128]
-0.01484226 -0.04032996 -0.030407835 -0.012603679 0.14194946 0.020043401 0.028544758 -0.057411358
-0.07360493 0.043365028 0.009706841 -0.022065088 0.035493977 -0.026067475 -0.049630687 0.07660509
-0.007874284 -0.016431767 0.08431097 0.03169353 -0.01914713 -0.041911863 0.06158577 0.028709674
-0.073651545 0.022904325 0.02038772 -0.0037446371 -0.09086873 0.016358344 -0.04544798 0.052087843
0.045469604 -0.09946166 0.04450661 0.029571056 0.0035575626 0.027219696 0.0655134 0.009878615
-0.049702685 0.024754036 -0.003136912 0.05363317 -0.069378644 0.02732617 -0.0026768944 0.1432514
-0.027150722 -0.04403252 0.06269367 0.03358806 0.07905649 -0.07569883 -0.016812379 -0.0015961189
-0.0854683 -0.041071143 -0.033135727 0.018497244 -0.015545839 -0.0068642567 -0.050720893 -0.09515601
0.04204865 -0.017852733 0.055962697 0.037208352 0.06912656 0.057569522 0.09012845 -0.0020860422
-0.018524755 -0.027992113 -0.06424013 -0.01801115 -0.006010977 -0.032460913 -0.028978575 -0.07071792
-0.027762406 -0.060551513 -0.042391088 0.11034279 0.0585352 -0.02067801 0.10122908 -0.0028625438
0.07034736 -0.007466024 -0.040508185 -0.0615142 -0.0075525837 -0.04559153 0.021310648 -0.07588651
-0.06617977 0.0023464677 -0.015974503 -0.01367631 -0.008175335 -0.030775212 -0.040279653 -0.041377515
-0.015863251 0.07637002 -0.04211524 -0.04360463 0.092300236 0.06251553 -0.01267678 -0.046925757
-0.04710046 0.05423146 -0.034981266 0.013378568 0.014276123 0.030677376 0.05981203 0.019868564
-0.05398398 0.019878266 -0.013715445 0.014370619 0.055076 0.021576094 -0.029439962 -0.02038693
-0.06682819 0.010957912 -0.0021164562 0.0066536604 0.24386862 0.050500315 0.0023837686 -0.07194456
0.023528485 0.053052075 0.07942954 -0.031170143 -0.03556029 -0.05476019 -0.056962144 0.013628439
0.014178674 0.025581604 0.012587847 0.007665389 0.017310668 0.025604049 0.04879219 0.050295647
-0.04097856 0.024868276 0.030097093 0.017195437 -0.09623204 0.048166536 -0.0018611307 0.026625356
-0.014074011 0.0026956403 0.07876767 0.010004722 0.01578851 -0.045699786 -0.037727166 0.012204029
-0.07547879 -0.012229977 0.04504175 -0.009742501 -0.045569446 -0.029090397 -0.008547433 0.16835107
-0.06712427 0.044941075 0.027542422 -0.027367052 0.020396529 -0.005272635 -0.0537629 0.049738586
-0.012284216 0.0015534229 -0.015076277 -0.05518329 -0.07563541 0.040361196 0.022260336 -0.064170726
0.045832284 -0.01472302 0.09415641 -0.10934573 -0.023771578 0.17468044 0.10451098 -0.016917374
0.024100529 0.0024842618 0.0019650715 -0.013563457 -0.0019113491 -0.025043352 0.05307009 0.0013538367
-0.028968165 0.012342567 0.03955129 0.05920015 0.0986565 -0.09026564 0.058169905 0.0036335334
0.070467755 0.06542228 0.021209884 -0.055067845 -0.058885414 0.0015965705 -0.05702118 0.009504765
-0.023762269 -0.03521186 0.038670134 0.075268775 -0.04943306 -0.015846144 -0.022430755 0.041165724
0.004659519 -0.0016175146 0.019071573 -0.0023819725 0.05279379 0.032572728 0.018885016 0.00859955
-0.028950952 0.06362237 -0.003100024 -0.066281565 -0.003252705 0.0064649503 0.060825884 0.040552154
0.043737836 -0.015766766 -0.0768023 0.01244974 0.12275434 0.05738566 0.00065813283 0.025541442
00000000: f32c 73bc 0731 25bd da19 f9bc a97f 4ebc
00000010: 335b 113e 0f32 a43c b2d6 e93c 2c28 6bbd
00000020: 2ebe 96bd 879f 313d 7109 1f3c d8c1 b4bc
00000030: 2262 113d 758b d5bc 8c49 4bbd 21e3 9c3d
00000040: 2403 01bc ea9b 86bc 3bab ac3d 13d1 013d
00000050: 71da 9cbc c6ab 2bbd 5c41 7c3d 8d30 eb3c
00000060: 9fd6 96bd daa1 bb3c 2604 a73c 9668 75bb
00000070: 6219 babd ef01 863c a927 3abd 105a 553d
00000080: 563e 3a3d 8eb2 cbbd 904c 363d 003f f23c
00000090: ff25 693b d7fb de3c e42b 863d ead9 213c
000000a0: 0b95 4bbd fac8 ca3c a694 4dbb 74ae 5b3d
000000b0: 6416 8ebd 22db df3c d66e 2fbb 7fb0 123e
000000c0: 316b debc 725b 34bd 8a65 803d a293 093d
000000d0: 5ee8 a13d fd07 9bbd 1dba 89bc dd34 d1ba
000000e0: 010a afbd 373a 28bd 54b9 07bd 8887 973c
000000f0: fab3 7ebc 8fed e0bb b6c0 4fbd 27e1 c2bd
00000100: 353b 2c3d e53f 92bc 2439 653d c967 183d
00000110: 3a92 8d3d 05ce 6b3d 4495 b83d fbb5 08bb
00000120: 3ac1 97bc b74f e5bc 5490 83bd 1f8c 93bc
00000130: bbf7 c4bb bcf5 04bd 7a64 edbc 8fd4 90bd
00000140: fc6d e3bc dd04 78bd 47a2 2dbd 67fb e13d
00000150: 9bc2 6f3d ee64 a9bc 3151 cf3d 8499 3bbb
00000160: 4712 903d 8ca5 f4bb e9eb 25bd 50f6 7bbd
00000170: aa7b f7bb 2fbe 3abd ab93 ae3c 636a 9bbd
00000180: 4289 87bd 32c7 193b f6dc 82bc 9a12 60bc
00000190: d7f1 05bc 4c1c fcbc 47fc 24bd 787b 29bd
000001a0: a6f3 81bc e367 9c3d 0881 2cbd c59a 32bd
000001b0: e807 bd3d 2408 803d 45b2 4fbc 3935 40bd
000001c0: 69ec 40bd cf21 5e3d 8448 0fbd c831 5b3c
000001d0: 66e6 693c 1f4f fb3c 76fd 743d 66c3 a23c
000001e0: 4e1e 5dbd bfd7 a23c bfb6 60bc bf72 6b3c
000001f0: 5f97 613d 59c0 b03c 132c f1bc 7e02 a7bc
00000200: 38dd 88bd d088 333c 3eb4 0abb f306 da3b
00000210: b2b8 793e 6bd9 4e3d 0039 1c3b ab57 93bd
00000220: cfbe c03c 224d 593d f4ab a23d 8758 ffbc
00000230: aba7 11bd 394c 60bd 2351 69bd d149 5f3c
00000240: ab4d 683c 8390 d13c 423d 4e3c f22d fb3b
00000250: 1acf 8d3c 95bf d13c 52da 473d cf02 4e3d
00000260: 22d9 27bd 8eb8 cb3c 2e8e f63c 72dd 8c3c
00000270: 4e15 c5bd 464a 453d 2ff1 f3ba 6b1d da3c
00000280: ae96 66bc 57a9 303b f250 a13d d8ea 233c
00000290: e856 813c b32f 3bbd cd87 1abd 68f3 473c
000002a0: a094 9abd 3e60 48bc b37d 383d 039f 1fbc
000002b0: 07a7 3abd fc4e eebc 880a 0cbc 3964 2c3e
000002c0: 7378 89bd 2214 383d a5a0 e13c de30 e0bc
000002d0: 9f16 a73c 11c6 acbb 7d36 5cbd b0ba 4b3d
000002e0: bc43 49bc 399c cb3a 7d02 77bc e007 62bd
000002f0: bde6 9abd c851 253d 4f5b b63c f16b 83bd
00000300: a2ba 3b3d d238 71bc 13d5 c03d a7f0 dfbd
00000310: 9dbc c2bc 6edf 323e da09 d63d 4e96 8abc
00000320: 796e c53c ffce 223b 6ec8 003b 4339 5ebc
00000330: 3c86 faba b727 cdbc 0660 593d 3973 b13a
00000340: a54e edbc 7a38 4a3c 8900 223d db7b 723d
00000350: 6b0c ca3d 31dd b8bd 9143 6e3d 9320 6e3b
00000360: 6651 903d 1efc 853d 5ac0 ad3c d28e 61bd
00000370: d531 71bd 0444 d13a 0a8f 69bd e0b9 1b3c
00000380: 17a9 c2bc 503a 10bd 9364 1e3d 8426 9a3d
00000390: 527a 4abd c6cf 81bc b4c0 b7bc 649d 283d
000003a0: e1ae 983b c902 d4ba fd3b 9c3c de1a 1cbb
000003b0: 4d3e 583d fb6a 053d c0b4 9a3c 21e5 0c3c
000003c0: 8c2a edbc 724c 823d c629 4bbb a1be 87bd
000003d0: 562b 55bb efd7 d33b 9024 793d 041a 263d
000003e0: 7226 333d 4e29 81bc 864a 9dbd fff9 4b3c
000003f0: a166 fb3d 3a0d 6b3d 8c86 2c3a 493c d13c

actor.4.bias f4 [128]
0.06754859 0.04655973 -0.018252615 0.00039423635 0.037354264 -0.004233652 -0.025558406 0.033423916
0.047708955 -0.06790929 0.017579744 -0.0007822826 0.024910983 -0.027891895 -0.050044246 0.041830536
-0.023806693 -0.044979908 0.028756792 0.02005563 -0.053648543 -0.031157548 -0.01659993 0.050242726
0.020658765 -0.026698438 -0.056952033 0.007880967 0.008313624 -0.0200172 0.011152594 0.049120586
0.0043537077 0.015506565 0.011813255 -0.052518386 0.00212657 0.07261811 0.006983017 -0.068713434
-0.018542549 -0.021799508 0.024960186 0.016830571 -0.0071349367 -0.027061407 -0.018638238 -0.009315046
-0.03606957 0.004948764 -0.055902716 -0.017163875 -0.017536836 0.049524564 0.051463738 -0.012548768
-0.024258403 -0.02053826 0.005210512 -0.029362824 0.028116817 0.03085187 0.021843012 -0.010108906
-0.04242264 -0.030737188 -0.03054221 -0.060987398 0.038894646 -0.054084398 0.010773059 -0.03627271
0.03476316 -0.02301512 0.023076389 -0.030376075 -0.004495755 0.009672492 0.00015181706 -0.041430615
-0.002833115 0.050046362 -0.0031475052 -0.029941797 -0.053048044 0.007854594 -0.036247604 -0.02579045
0.0046528294 0.043620214 0.005295533 0.043003917 -0.042670507 0.013818827 -0.0070097153 0.021094758
-0.009802684 -0.018021876 -0.014298321 -0.011514182 0.041232456 -0.040696315 -0.04332717 0.029168162
-0.013266919 -0.022162976 0.034541495 -0.044665128 -0.017970901 -0.02061834 -0.019588772 -0.02677929
0.027904699 0.017286416 0.009990181 -0.01679822 0.058002934 -0.031320374 -0.00012534694 -0.016597642
-0.005623927 -0.028695773 -0.00043806568 -0.046072226 0.0039881784 0.027775101 -0.024460323 0.008678247
00000000: ea56 8a3d 6ab5 3e3d 8286 95bc 82b1 ce39
00000010: c900 193d 72ba 8abb dd5f d1bc 84e7 083d
00000020: 776a 433d 0714 8bbd 6503 903c 1912 4dba
00000030: 1e12 cc3c 8b7d e4bc 32fb 4cbd 7f56 2b3d
00000040: 4106 c3bc da3c 38bd 5d93 eb3c b44b a43c
00000050: 93be 5bbd 1d3e ffbc 94fc 87bc 51cb 4d3d
00000060: 923c a93c afb6 dabc 8946 69bd 2c1f 013c
00000070: de35 083c 1cfb a3bc 5fb9 363c ab32 493d
00000080: 8ca9 8e3b 3f0f 7e3c 628c 413c 851d 57bd
00000090: ed5d 0b3b ceb8 943d cbd1 e43b a1b9 8cbd
000000a0: 8be6 97bc e294 b2bc 4e79 cc3c 44e0 893c
000000b0: 30cc e9bb e2af ddbc 38af 98bc 229e 18bc
000000c0: afbd 13bd 3e29 a23b 3ffa 64bd 419b 8cbc
000000d0: 69a9 8fbc 45da 4a3d a4cb 523d 5999 4dbc
000000e0: 8fb9 c6bc da3f a8bc f1bc aa3b 4e8a f0bc
000000f0: 3d55 e63c 10bd fc3c 1ef0 b23c d39f 25bc
00000100: 5dc3 2dbd 8ecc fbbc a833 fabc eccd 79bd
00000110: fe4f 1f3d 9a87 5dbd 7c81 303c b192 14bd
00000120: d163 0e3d 348a bcbc b20a bd3c 3fd7 f8bc
00000130: 2051 93bb 5f79 1e3c 1531 1f39 26b3 29bd
00000140: c8ab 39bb 6afd 4c3d 6046 4ebb 8048 f5bc
00000150: e848 59bd 8eb0 003c 5e78 14bd 7e46 d3bc
00000160: c376 983b 1cab 323d 2786 ad3b e024 303d
00000170: 45c7 2ebd 5d68 623c c1b1 e5bb eace ac3c
00000180: 709b 20bc 9da2 93bc 8143 6abc fba5 3cbc
00000190: 5de3 283d 2eb1 26bd d577 31bd 12f2 ee3c
000001a0: 7e5d 59bc 218f b5bc 627b 0d3d c8f2 36bd
000001b0: b637 93bc cbe7 a8bc a278 a0bc 3e60 dbbc
000001c0: 6598 e43c 3e9c 8d3c dbad 233c 6c9c 89bc
000001d0: 7c94 6d3d cb49 00bd 906f 03b9 c7f7 87bc
000001e0: eb48 b8bb 6613 ebbc 2eac e5b9 3bb6 3cbd
000001f0: 44af 823b 9c88 e33c 0461 c8bc 352f 0e3c

actor.7.weight f4 [128, 128]
0.016896797 0.0033281674 -0.0151464 -0.06465983 -0.053027023 -0.021152277 0.02125357 -0.031021511
-0.06297436 0.056983244 -0.030132374 0.0073639625 0.0488015 0.018479431 -0.028244823 -0.003743929
-0.003545453 -0.041472457 0.0031128954 -0.09275676 0.022439556 0.037125133 0.02866521 -0.019948833
-0.10716379 -0.029532457 -0.040864594 0.07983923 -0.030020222 0.050948966 -0.06834318 -0.028065
-0.077107415 -0.013273825 0.054380853 -0.03686321 -0.031722356 0.01434537 0.092216596 0.04967976
0.0394332 0.006970472 0.014461454 -0.052437477 -0.060105752 0.0052409894 -0.050908204 -0.07201743
0.004852774 0.0816247 0.028020129 0.07362839 0.07747649 0.051852014 0.06990325 -0.020410197
-0.062201288 -0.012738031 -0.029759774 -0.07003672 -0.04659988 0.007318486 -0.022660134 -0.0042582224
-0.028128894 0.043215495 0.036949243 0.03900741 0.049522042 0.05387344 -0.058517586 0.05055363
-0.03528863 0.012447313 0.0902283 0.012347886 0.04274236 0.030750345 0.07012178 0.033795014
-0.0012472719 -0.01853166 -0.08268272 -0.0309874 0.039690487 -0.0077299834 0.07948784 0.047532663
-0.059471793 0.12705085 0.021761077 -0.06843823 0.010510756 0.094881825 0.009418463 0.065695256
0.0027709168 -0.03453689 0.02019287 0.06489044 -0.016096601 -0.024444632 -0.018541072 -0.031453166
0.006765457 -0.057362203 0.04945875 0.047425408 -0.07409292 0.01922095 0.07316712 -0.042592935
-0.063006036 0.011674752 0.002384174 -0.051121958 -0.03466074 -0.03584306 0.039838847 0.017146891
-0.024645925 -0.048734646 -0.062046193 0.062837236 -0.0055585345 -0.014053204 -0.0028632071 0.0005809432
-0.050613422 -0.0033819568 0.058493946 0.012973641 -0.02737684 0.003368484 0.020899825 0.027971104
-0.01858478 0.023452757 -0.008451184 0.09964585 0.016211366 0.009153416 -0.12732339 -0.034971707
9.738074e-05 -0.014530533 -0.036731236 -0.16892347 0.030625911 -0.065556966 -0.035657972 -0.07243097
-0.064489216 0.024005184 0.0921599 0.017475504 0.016789619 -0.011057795 -0.06870972 0.036859125
-0.06283214 0.04399813 -0.006667512 -0.021392398 -0.032718632 -0.01940159 0.047366813 0.009765962
-0.0455153 -0.01585491 -0.00818583 0.03871061 -0.08281191 0.03439534 -0.038448907 0.06360737
0.031338237 0.08158899 0.043755066 0.01740657 0.0241165 0.049278736 -0.031627372 -0.032948755
-0.034492426 0.050046314 -0.09456139 0.07694216 -0.04004155 0.0075355927 -0.0485004 0.05926444
0.056016106 0.043277357 -0.01500951 0.016610418 0.047216117 0.023489304 0.047606125 -0.08053681
-0.10531118 0.027181985 -0.06559214 -0.00657839 0.015072642 0.069984354 0.07628848 -0.010421557
-0.019834967 0.03297449 0.089942925 0.08449483 0.0023486118 0.016820457 -0.0027376215 0.01672958
-0.09298803 0.014207005 0.07725958 -0.019857809 -0.0658624 0.090186454 -0.08918379 -0.032283396
0.0006713267 -0.044673294 -0.07068165 0.060674638 0.008700441 -0.111578844 -0.022210848 -0.061522197
0.034211736 -0.025776058 -0.08165198 -0.01883545 0.0093233455 0.06631264 0.012840371 -0.01254607
-0.043118764 0.06510354 -0.018231954 0.060688876 -0.033814874 -0.030452289 0.04694036 -0.0510016
0.009072357 0.039405137 -0.067802794 0.0019259262 -0.027623363 -0.060659517 -0.0037727123 0.04445086
00000000: 276b 8a3c 621d 5a3b 9b28 78bc 5f6c 84bd
00000010: dd32 59bd 8a47 adbc f81b ae3c d320 febc
00000020: b4f8 80bd 4367 693d 2bd8 f6bc 654d f13b
00000030: 15e4 473d 2d62 973c b061 e7bc b55c 75bb
00000040: d55a 68bb 06df 29bd b801 4c3b 42f7 bdbd
00000050: 29d3 b73c 8610 183d 4dd3 ea3c bc6b a3bc
00000060: b078 dbbd 0dee f1bc a261 27bd c082 a33d
00000070: f8ec f5bc ddaf 503d 82f7 8bbd 92e8 e5bc
00000080: 7eea 9dbd 757a 59bc 75be 5e3d e1fd 16bd
00000090: 4def 01bd d808 6b3c 0edc bc3d 017d 4b3d
000000a0: b584 213d 8f68 e43b bcef 6c3c aec8 56bd
000000b0: 7331 76bd 9bbc ab3b 1f85 50bd e07d 93bd
000000c0: 0504 9f3b da2a a73d 788a e53c 7bca 963d
000000d0: feab 9e3d c762 543d 6f29 8f3d 4933 a7bc
000000e0: c7c6 7ebd 2db3 50bc c5ca f3bc 696f 8fbd
000000f0: 84df 3ebd e9cf ef3b bfa1 b9bc 8f88 8bbb
00000100: 916e e6bc bb02 313d 1758 173d 3cc6 1f3d
00000110: a0d7 4a3d 65aa 5c3d 23b0 6fbd 5311 4f3d
00000120: cf8a 10bd d1ef 4b3c 9dc9 b83d ca4e 4a3c
00000130: 9d12 2f3d 26e8 fb3c 029c 8f3d a46c 0a3d
00000140: 807b a3ba b5cf 97bc 8f55 a9bd 4ad9 fdbc
00000150: 7e92 223d cd4b fdbb 85ca a23d 9cb1 423d
00000160: b298 73bd 9e19 023e 4944 b23c 5829 8cbd
00000170: 4e35 2c3c 6751 c23d e64f 1a3c 3c8b 863d
00000180: 4598 353b 8e76 0dbd 856b a53c 47e5 843d
00000190: 05dd 83bc 1c40 c8bc 72e3 97bc 09d5 00bd
000001a0: c4b0 dd3b a1f4 6abd 4295 4a3d 2541 423d
000001b0: 07be 97bd 4175 9d3c a5d8 953d ee75 2ebd
000001c0: 4f09 81bd 7647 3f3c cd3f 1c3b 4265 51bd
000001d0: 6cf8 0dbd 2cd0 12bd 0f2e 233d a377 8c3c
000001e0: 40e6 c9bc fb9d 47bd 2624 7ebd cfb0 803d
000001f0: 5e24 b6bb 693f 66bc a5a4 3bbb 704a 183a
00000200: 0550 4fbd d2a3 5dbb 5997 6f3d 658f 543c
00000210: 6545 e0bc c9c1 5c3b 1c36 ab3c a823 e53c
00000220: 1c3f 98bc ff1f c03c d676 0abc 2013 cc3d
00000230: b3cd 843c 36f8 153c 1061 02be 7e3e 0fbd
00000240: e338 cc38 7911 6ebc 7e73 16bd 46fa 2cbe
00000250: 31e3 fa3c bb42 86bd 180e 12bd b056 94bd
00000260: ec12 84bd 85a6 c43c 54be bc3d ca28 8f3c
00000270: 628a 893c c12b 35bc afb7 8cbd 98f9 163d
00000280: 23ae 80bd 6237 343d 257b dabb 1c3f afbc
00000290: f903 06bd 15f0 9ebc b403 423d 6a01 203c
000002a0: 406e 3abd 28e2 81bc dc1d 06bc 048f 1e3d
000002b0: 4a99 a9bd 21e2 0c3d 9a7c 1dbd 9544 823d
000002c0: 865c 003d 2118 a73d 8338 333d 3998 8e3c
000002d0: f78f c53c 80d8 493d b48b 01bd 46f5 06bd
000002e0: ee47 0dbd 5dfd 4c3d 67a9 c1bd da93 9d3d
000002f0: 9c02 24bd 22ed f63b 5ba8 46bd 45bf 723d
00000300: 2571 653d 9943 313d 73ea 75bc 9212 883c
00000310: b065 413d a46c c03c a4fe 423d 7cf0 a4bd
00000320: 63ad d7bd c1ac de3c 2c55 86bd 898f d7bb
00000330: 3ef3 763c f553 8f3d 223d 9c3d 2ebf 2abc
00000340: f17c a2bc 4210 073d ff33 b83d a00b ad3d
00000350: 2beb 193b 0ecb 893c ab69 33bb 790c 893c
00000360: 8270 bebd 7fc4 683c 453a 9e3d d8ac a2bc
00000370: dee2 86bd adb3 b83d fea5 b6bd 983b 04bd
00000380: f9fb 2f3a 58fb 36bd 8ac1 90bd f885 783d
00000390: 4b8c 0e3c 7383 e4bd 86f3 b5bc b3fe 7bbd
000003a0: 9b21 0c3d 5028 d3bc 2739 a7bd cd4c 9abc
000003b0: f2c0 183c ecce 873d 6b60 523c 088e 4dbc
000003c0: 4d9d 30bd 0155 853d 2e5b 95bc e694 783d
000003d0: 7781 0abd 1477 f9bc 8944 403d 0ee7 50bd
000003e0: 39a4 143c 4867 213d 31dc 8abd 5c6f fc3a
000003f0: 644a e2bc 1d76 78bd 9c3f 77bb 1b12 363d

actor.7.bias f4 [128]
0.010771319 0.0058032507 0.0127800545 0.0062110606 0.009928849 -0.015443067 -0.025783656 -0.0061443676
0.024274552 -0.004518058 -0.02058988 0.0065730675 -0.0043430533 -0.029782865 -0.020270294 -0.015631042
-0.019797659 0.011986509 0.048725225 0.014870484 -0.016494185 0.011256422 0.00956765 0.0073830513
0.0070474795 0.01997097 0.019916147 0.0053346558 0.00468673 0.014583021 0.014832609 -0.027392916
0.013358054 0.014684604 -0.0021367471 -0.028032286 -0.014950626 0.013592633 0.018608224 -0.017952062
0.008434852 0.0065105376 0.016246228 -0.010335636 0.017356396 -0.0052622426 0.027145961 -0.032639753
-0.01148381 -0.010982978 -0.019206082 -0.024069032 -0.0048779896 0.0148971155 0.02060958 0.0191501
0.010468811 0.008244553 0.017886847 0.0035017533 6.610409e-05 -0.021362416 0.0018275474 -0.033286978
0.023666296 0.017149752 -0.01906711 -0.0034616373 0.008475038 -0.013942931 0.0067312927 -0.007783368
-0.015422738 0.017557004 -0.013417845 0.011975689 0.028846966 0.012435318 -0.007427241 -0.0012829576
-0.04067421 0.013572664 -0.0027096907 0.0064420644 0.015534535 -0.012417606 -0.016586838 0.0023495744
-0.023250401 0.0017888038 0.014897319 0.02005641 -0.012543464 -0.020636454 0.008684028 -0.006103242
0.023572475 -0.012900454 0.0014681584 -0.010355455 0.0012240695 -0.008617151 -0.03770237 0.0051651625
-0.03235826 -0.0067947563 -0.004258107 0.0010467126 0.0066045313 0.005388301 -0.026181377 0.029192587
0.02181103 -0.009106718 0.028290868 -0.015555256 -0.0032544802 0.027950602 -0.01853396 -0.0031476165
-0.0149883805 0.0034761222 -0.0053881835 -0.013210361 0.011423511 0.0063271737 0.015478451 -0.02004848
00000000: 307a 303c 3229 be3b 6f63 513c 2786 cb3b
00000010: 9cac 223c eb04 7dbc 3f38 d3bc b156 c9bb
00000020: 6ddb c63c 380c 94bb 1cac a8bc e362 d73b
00000030: 2c50 8ebb 32fb f3bc e30d a6bc ac0c 80bc
00000040: b32e a2bc 1063 443c 1a94 473d 55a3 733c
00000050: d01e 87bc db6c 383c a2c1 1c3c 86ed f13b
00000060: 8bee e63b 299a a33c 3027 a33c 56ce ae3b
00000070: 2493 993b a0ed 6e3c 7904 733c 1c67 e0bc
00000080: bddb 5a3c b197 703c ab08 0cbb f7a3 e5bc
00000090: 78f3 74bc a3b3 5e3c 4670 983c 3410 93bc
000000a0: 5532 0a3c 5956 d53b cf16 853c cd56 29bc
000000b0: 002f 8e3c e46e acbb 3561 de3c 43b1 05bd
000000c0: 9726 3cbc f3f1 33bc 1356 9dbc 6b2c c5bc
000000d0: 8bd7 9fbb 0813 743c 6cd5 a83c ace0 9c3c
000000e0: 6085 2b3c 2914 073c 7087 923c ac7d 653b
000000f0: 5da1 8a38 3c00 afbc 518a ef3a ed57 08bd
00000100: d2df c13c a37d 8c3c a132 9cbc a3dc 62bb
00000110: e3da 0a3c e470 64bc 2d92 dc3b a00b ffbb
00000120: a7af 7cbc b5d3 8f3c 85d6 5bbc ae35 443c
00000130: 7950 ec3c 81bd 4b3c 3760 f3bb ea28 a8ba
00000140: 009a 26bd e15f 5e3c 1195 31bb f417 d33b
00000150: 9084 7e3c 3773 4bbc 1fe1 87bc 51fb 193b
00000160: a077 bebc 4c76 ea3a e213 743c 574d a43c
00000170: 1a83 4dbc c80d a9bc 7447 0e3c b4fd c7bb
00000180: 101b c13c 6d5c 53bc 396f c03a eda9 29bc
00000190: f570 a03a f32e 0dbc cd6d 1abd 8640 a93b
000001a0: 188a 04bd 8ca6 debb 9787 8bbb d931 893a
000001b0: d36a d83b 5890 b03b 547a d6bc 4b25 ef3c
000001c0: 0cad b23c 5834 15bc 40c2 e73c 79db 7ebc
000001d0: 1e49 55bb a9f8 e43c 88d4 97bc 3e48 4ebb
000001e0: d391 75bc a7cf 633b 5c8f b0bb 4570 58bc
000001f0: ae29 3b3c 2e54 cf3b 5499 7d3c b63c a4bc

actor.10.weight f4 [1, 128]
0.031183695 0.022891851 0.027155874 0.028392948 0.03152465 -0.030245004 -0.02926936 -0.026168903
0.02712808 0.031110037 -0.031631436 0.033685103 -0.030847117 -0.034493502 -0.023656862 -0.028797835
-0.025443453 0.031760767 0.022687925 0.03306908 -0.02953467 0.026082171 0.03835703 0.03315376
0.031929392 0.023982588 0.028771723 0.031063167 0.016695438 0.033919428 0.030274535 -0.020846795
0.034318447 0.02799611 0.028491579 -0.017629266 -0.033901483 0.0341134 0.036976203 -0.032048415
0.030070556 0.025920304 -0.029029084 -0.027088957 0.022062022 -0.0299445 -0.0297655 -0.03242894
-0.02474545 -0.026722636 -0.035336163 0.031417057 -0.030667232 0.03411135 0.020594103 0.03332412
0.03261645 0.014697569 0.033023644 0.033033915 0.03082139 -0.03355072 -0.018404232 -0.033008203
0.014693341 0.02724647 -0.028935941 -0.031424336 0.02586705 -0.016800648 0.02073699 -0.028189458
-0.032188494 0.031214641 -0.029598849 0.027631776 0.026996145 0.03401502 -0.026635684 -0.031282447
-0.011890545 -0.027139833 -0.031920526 0.035256933 0.032625318 -0.014452537 -0.030276911 0.02997595
-0.028534796 0.03285579 0.032379363 0.027993733 -0.026230568 -0.03579223 0.03528107 -0.034491904
0.032179065 -0.029291505 -0.03295358 -0.03301633 0.028912347 -0.02656937 -0.028516741 0.031151613
-0.023885163 -0.026051167 -0.033102516 0.03171385 0.03110231 0.03531115 -0.029886756 0.032719832
0.022906275 -0.026638908 0.033993892 -0.031298526 -0.022372868 0.028181871 -0.027316255 -0.03161615
-0.026326025 0.032927018 -0.02513335 -0.028296303 0.030718468 0.030624807 0.02958168 -0.03275539
00000000: f374 ff3c b187 bb3c ff75 de3c 5498 e83c
00000010: fe1f 013d 5fc4 f7bc 4cc6 efbc 2b60 d6bc
00000020: b53b de3c 7ada fe3c f78f 01bd 64f9 093d
00000030: 18b3 fcbc 0f49 0dbd 09cc c1bc 70e9 ebbc
00000040: ca6e d0bc 9417 023d 07dc b93c 7273 073d
00000050: b1f2 f1bc 47aa d53c 431c 1d3d 3dcc 073d
00000060: 65c8 023d 2277 c43c adb2 eb3c 2f78 fe3c
00000070: dfc4 883c 19ef 0a3d 4d02 f83c e6c6 aabc
00000080: 8091 0c3d 1958 e53c 2c67 e93c 406b 90bc
00000090: 48dc 0abd 7eba 0b3d 5c74 173d 3345 03bd
000000a0: 8756 f63c d156 d43c 67ce edbc a9e9 ddbc
000000b0: 6abb b43c 2b4e f5bc c7d6 f3bc 35d4 04bd
000000c0: f8b6 cabc 6ee9 dabc a7bc 10bd 2caf 003d
000000d0: d939 fbbc 58b8 0b3d f7b4 a83c df7e 083d
000000e0: d498 053d 13ce 703c cd43 073d 924e 073d
000000f0: 247d fc3c 7b6c 09bd 79c4 96bc 9c33 07bd
00000100: 57bc 703c fd33 df3c 110b edbc ceb6 00bd
00000110: 23e7 d33c 83a1 89bc 9fe0 a93c 94ed e6bc
00000120: 15d8 03bd d9b5 ff3c 4979 f2bc 095c e23c
00000130: 0527 dd3c 5553 0b3d 1433 dabc 0622 00bd
00000140: 8fd0 42bc 5b54 debc 19bf 02bd 9369 103d
00000150: 20a2 053d 55ca 6cbc 4907 f8bc 2090 f53c
00000160: cec1 e9bc cb93 063d 39a0 043d 1d53 e53c
00000170: 7de1 d6bc e09a 12bd e282 103d 6247 0dbd
00000180: 32ce 033d bdf4 efbc 55fa 06bd 223c 07bd
00000190: 96d9 ec3c 02a8 d9bc f19b e9bc ab31 ff3c
000001a0: d1aa c3bc 4269 d5bc 8196 07bd 62e6 013d
000001b0: 46ca fe3c 6da2 103d 12d5 f4bc 3b05 063d
000001c0: f1a5 bb3c d739 dabc 2e3d 0b3d e232 00bd
000001d0: 4e47 b7bc abdd e63c 57c6 dfbc f07f 01bd
000001e0: ada9 d7bc 7bde 063d 75e4 cdbc a6cd e7bc
000001f0: 4ca5 fb3c e0e0 fa3c 4855 f23c 842a 06bd

critic.0.weight f4 [128, 6]
-2.5456996 -0.04181778 -0.003204962 0.8938148 -2.3270235 1.1747984 -0.67267376 -0.058076117
-0.13367645 0.07558388 -0.2997131 0.6971403 -1.4307321 0.16290118 -0.13380018 0.38682675
-0.3033513 0.055541582 -0.68524295 0.18033004 -0.099431515 1.1263903 -0.5877911 0.18747383
-1.569119 0.1687768 0.2312521 1.1114565 -0.544122 0.8043143 1.8562683 0.042555317
0.2239271 -0.66314995 2.198405 -0.9729711 1.7960694 -0.008179412 0.13030556 -0.6691969
1.7151135 -0.56122583 1.0598783 -0.013411447 -0.19813362 -0.39970154 0.5592639 -0.463689
0.63896406 0.07169443 -0.12928125 -0.17978233 0.7279213 0.19481885 -0.44416684 0.03191514
-0.21586168 0.08167223 -0.5818566 0.17266223 1.0567971 -0.35462138 0.15258858 -0.7803994
1.1306332 0.17324163 0.11467371 -0.012857378 -0.10580511 0.42525995 -0.53718907 0.15830058
-1.121667 -0.06493869 0.23459859 0.3622285 -0.85934716 0.79356545 1.8953499 0.23274794
-0.28828433 -1.3623805 2.1025712 -0.50618356 -2.232414 -0.25240728 0.10734941 0.85372907
-2.0786881 1.3820246 0.16049945 0.035926413 0.036384773 -0.7143413 0.19237354 0.09650687
0.6477703 -0.21226314 0.0028232555 -0.2247053 0.65146405 -0.76349884 1.3826934 -0.21994315
0.25448108 -0.35564008 1.5200732 -0.80712926 -2.7949314 -0.22760336 0.3978642 1.5810295
-1.8211471 1.9754333 0.99039805 -0.2739218 -0.16562887 -0.5213476 1.0353262 -0.5552593
1.860415 -0.23863833 0.1545308 -0.5127242 2.3525808 -0.863579 0.08550959 -0.046168823
0.01923329 0.29733783 -0.34479344 0.4345786 -0.21978632 -0.034992065 0.019659959 0.16169351
-0.15329373 0.5654297 -2.3310566 0.17505282 -0.092224605 1.2605548 -2.0923269 1.1347046
3.2563705 0.20317179 -0.28755215 -1.6371751 2.8813891 -1.5633217 -0.87943715 -0.25828207
0.24597898 0.22795539 -0.41995358 0.58081275 0.086633265 0.08537847 0.05831456 -0.22950864
0.09644363 0.39175048 -0.116914995 -0.16727565 -0.045733783 0.17018011 -0.5042905 0.12879735
0.09608389 -0.22218496 -0.17236793 -0.57381386 0.5646921 -0.6450954 -2.3168538 -0.47654134
0.18150319 2.198362 -2.4791727 2.2995875 -2.6351783 0.34759364 -0.36006463 2.4254727
-2.6530426 2.868144 -0.9169947 0.063145325 -0.22063166 0.3650054 -0.54894197 0.08096337
-1.4618558 0.110489964 -0.015795749 0.5114459 -0.89507353 0.6946646 1.739847 -0.34556183
0.26361692 -0.38693768 1.8856893 -0.6484548 0.87412167 -0.12828638 -0.0032974153 0.11990377
0.7304979 -0.65229535 0.0005929108 -0.14912836 -0.0011280046 0.2953733 -0.4674246 -0.25262472
-2.184407 0.16868937 0.016184803 1.5155501 -2.1393197 1.927244 0.9211391 -0.24149191
-0.18538335 0.21380346 0.5131832 -0.6278592 -0.93511313 -0.15547203 -0.07002183 0.7663939
-0.3658212 0.36661395 -1.4845479 0.1403127 0.2120599 0.6076098 -1.1334935 0.82583183
0.99592793 -0.09946718 -0.1670035 -0.88788146 0.44804272 -0.15163442 3.3218298 0.37738466
-0.4003896 -1.6934141 2.604411 -1.6503079 -2.6372523 0.22178765 -0.17334655 1.7698945
00000000: beec 22c0 1f49 2bbd 570a 52bb 0cd1 643f
00000010: f4ed 14c0 cb5f 963f 5934 2cbf 39e1 6dbd
00000020: 7be2 08be b9cb 9a3d ff73 99be c977 323f
00000030: 3b22 b7bf 91cf 263e ea02 09be 280e c63e
00000040: dd50 9bbe 927f 633d 156c 2fbf 70a8 383e
00000050: c0a2 cbbd 8f2d 903f 7a79 16bf 24f9 3f3e
00000060: e4d8 c8bf d3d3 2c3e 5acd 6c3e 3544 8e3f
00000070: 944b 0bbf 8be7 4d3f 339a ed3f 7c4e 2e3d
00000080: 254d 653e 32c4 29bf abb2 0c40 a214 79bf
00000090: 9ae5 e53f f102 06bc d26e 053e 7d50 2bbf
000000a0: d788 db3f 7fac 0fbf 18aa 873f b0bb 5bbc
000000b0: 8ae3 4abe aea5 ccbe eb2b 0f3f a568 edbe
000000c0: 2693 233f 88d4 923d 4e62 04be dc18 38be
000000d0: 0d59 3a3f 987e 473e d669 e3be 73b9 023d
000000e0: d80a 5dbe c543 a73d 8ef4 14bf 5ece 303e
000000f0: 2145 873f ef90 b5be 2e40 1c3e 41c8 47bf
00000100: 97b8 903f 4166 313e 0dda ea3d c1a7 52bc
00000110: 59b0 d8bd acbb d93e 3985 09bf 8c19 223e
00000120: c992 8fbf 93fe 84bd 9d3a 703e 0476 b93e
00000130: 2dfe 5bbf 1b27 4b3f d39a f23f 7a55 6e3e
00000140: 019a 93be 7c62 aebf 8790 0640 3f95 01bf
00000150: dfdf 0ec0 873b 81be 02da db3d fd8d 5a3f
00000160: 3a09 05c0 2fe6 b03f f859 243e 9327 133d
00000170: 3308 153d 12df 36bf 92fd 443e 65a5 c53d
00000180: 46d4 253f 825b 59be 5e06 393b 2519 66be
00000190: 59c6 263f a974 43bf 19fc b03f c738 61be
000001a0: 584b 823e 7516 b6be c291 c23f 06a0 4ebf
000001b0: 28e0 32c0 db10 69be dbb4 cb3e 2d5f ca3f
000001c0: 591b e9bf 00db fc3f ba8a 7d3f 7a3f 8cbe
000001d0: 9d9a 29be 0977 05bf 9285 843f 7925 0ebf
000001e0: 1422 ee3f 9b5d 74be 523d 1e3e e541 03bf
000001f0: af90 1640 8313 5dbf a71f af3d 851b 3dbd
00000200: 228f 9d3c aa3c 983e c488 b0be 1681 de3e
00000210: aa0f 61be d753 0fbd ec0d a13c fc92 253e
00000220: 08f9 1cbe 00c0 103f 0830 15c0 0c41 333e
00000230: 41e0 bcbd dc59 a13f afe8 05c0 003e 913f
00000240: 6068 5040 440c 503e 093a 93be f48e d1bf
00000250: ae68 3840 ed1a c8bf cb22 61bf 8c3d 84be
00000260: eae1 7b3e 236d 693e 2804 d7be 25b0 143f
00000270: c86c b13d e8da ae3d 40db 6e3d 5004 6bbe
00000280: 3d84 c53d 8593 c83e 2171 efbd 4f4a 2bbe
00000290: 5953 3bbd b243 2e3e 2f19 01bf 74e3 033e
000002a0: a1c7 c43d 7484 63be 3881 30be 77e5 12bf
000002b0: a98f 103f f924 25bf 5547 14c0 3afd f3be
000002c0: f9db 393e f7b1 0c40 c4aa 1ec0 712c 1340
000002d0: c3a6 28c0 cbf7 b13e 645a b8be f23a 1b40
000002e0: 73cb 29c0 ac8f 3740 2ac0 6abf 5652 813d
000002f0: 44ed 61be fde1 ba3e 7687 0cbf 20d0 a53d
00000300: 171e bbbf 9048 e23d 1666 81bc 1eee 023f
00000310: 8a23 65bf 8ad5 313f 4eb3 de3f 7bed b0be
00000320: ccf8 863e b21c c6be 445e f13f 2201 26bf
00000330: 70c6 5f3f 815d 03be 7319 58bb 1c90 f53d
00000340: e901 3b3f d4fc 26bf 926d 1b3a 1bb5 18be
00000350: 8ed9 93ba 2b3b 973e 4752 efbe 0758 81be
00000360: 53cd 0bc0 e8bc 2c3e fe95 843c 8cfd c13f
00000370: 9dea 08c0 eeaf f63f c6cf 6b3f a849 77be
00000380: 22d5 3dbe 4bef 5a3e f95f 033f 61bb 20bf
00000390: 9363 6fbf 0f34 1fbe 9b67 8fbd 6432 443f
000003a0: eb4c bbbe d3b4 bb3e aa05 bebf 22ae 0f3e
000003b0: 3b26 593e 518c 1b3f 5116 91bf b769 533f
000003c0: 22f5 7e3f 73b5 cbbd f702 2bbe 334c 63bf
000003d0: db65 e53e 0e46 1bbe dc98 5440 9038 c13e
000003e0: deff ccbe cbc1 d8bf abae 2640 4a3d d3bf
000003f0: bec8 28c0 4d1c 633e c281 31be e78b e23f

critic.0.bias f4 [128]
-0.0086514745 -0.118446395 -0.3115623 0.33184946 0.15993312 0.057522822 0.033767283 0.034767814
-0.07493488 -0.06448756 0.13594538 -0.08635947 0.07429079 0.11276824 0.2737032 -0.23159157
-0.080953985 0.030162567 -0.13393155 -0.08598657 0.1756289 -0.30946544 -0.32526276 -0.2271908
0.14020038 -0.36244956 -0.3755607 0.056526564 0.3229104 0.21850745 -0.029344743 0.16380224
0.07939852 0.19423172 -0.14912973 0.07600154 -0.29096648 0.39248273 -0.005467687 -0.2865255
0.23706076 -0.03078985 -0.10381264 -0.16953042 0.11375749 -0.24794446 -0.31904 0.22290084
0.31104386 0.123737276 0.15923357 -0.0014981385 -0.13508527 -0.3036624 -0.24880378 0.21498999
0.08456892 0.09771752 -0.23171069 0.02664907 0.36960775 0.09910792 -0.16721293 0.048537243
-0.23046283 -0.48914802 -0.2134542 0.1392106 -0.03532601 0.3185118 0.07666556 -0.118636675
0.19664218 0.03054408 -0.16191779 0.15463854 0.047882795 -0.16882542 -0.2237814 0.23194015
0.30724934 -0.3328213 -0.05296778 -0.24126281 0.105795085 0.2612797 -0.20065923 0.13929501
-0.11453367 -0.27821234 -0.13065211 0.17984122 -0.32341805 -0.18528302 0.13701357 0.37720647
-0.27408323 -0.30851704 0.040393237 0.29454887 0.08261143 -0.3270465 0.037757266 -0.07726139
-0.21397476 -0.31862536 -0.40780738 0.24094892 -0.08381437 -0.35557 -0.16185221 -0.096713826
0.07870046 -0.074487336 -0.279855 -0.2962561 -0.35881618 -0.38837627 0.18131845 -0.24471866
-0.33793777 -0.0064606187 -0.19673046 0.09485239 0.1620986 0.13338797 -0.11429238 -0.07990332
00000000: eabe 0dbc 0694 f2bd 1885 9fbe 2ce8 a93e
00000010: 82c5 233e 0d9d 6b3d 904f 0a3d b268 0e3d
00000020: 7577 99bd 0e12 84bd 4435 0b3e 3cdd b0bd
00000030: c525 983d 09f3 e63d d322 8c3e 5726 6dbe
00000040: 34cb a5bd 7d17 f73c 5a25 09be ba19 b0bd
00000050: 10d8 333e 4172 9ebe d788 a6be b4a4 68be
00000060: b090 0f3e fd92 b9be 7e49 c0be 6688 673d
00000070: 8354 a53e 6bc0 5f3e 6364 f0bc c6bb 273e
00000080: b19b a23d aee4 463e 77b5 18be b2a6 9b3d
00000090: 8ff9 94be 7ff3 c83e 482a b3bb 78b3 92be
000000a0: 0ec0 723e ff3a fcbc b99b d4bd 6299 2dbe
000000b0: b0f9 e83d 27e5 7dbe 3659 a3be 1e40 643e
000000c0: 2441 9f3e f869 fd3d 200e 233e 305d c4ba
000000d0: cb53 0abe a379 9bbe 6bc6 7ebe 5626 5c3e
000000e0: 7832 ad3d 2020 c83d 9145 6dbe 274f da3c
000000f0: 3a3d bd3e 18f9 ca3d de39 2bbe fdce 463d
00000100: 73fe 6bbe 9c71 fabe bd93 5abe 398d 0e3e
00000110: 02b2 10bd fb13 a33e d502 9d3d c9f7 f2bd
00000120: 915c 493e 9437 fa3c c7cd 25be 9159 1e3e
00000130: c020 443d 92e0 2cbe f426 65be b881 6d3e
00000140: c94f 9d3e 8e67 aabe bef4 58bd 990d 77be
00000150: 18ab d83d 74c6 853e 9d79 4dbe 5aa3 0e3e
00000160: a190 eabd d971 8ebe abc9 05be 4c28 383e
00000170: 0d97 a5be d5ba 3dbe 494d 0c3e 3521 c13e
00000180: a354 8cbe f2f5 9dbe 6173 253d 1ccf 963e
00000190: 2e30 a93d a472 a7be 5da7 1a3d 383b 9ebd
000001a0: 331c 5bbe dd22 a3be 21cc d0be 50bb 763e
000001b0: dea6 abbd 450d b6be 96bc 25be e611 c6bd
000001c0: b52d a13d d18c 98bd 2849 8fbe e1ae 97be
000001d0: c1b6 b7be 41d9 c6be 8bab 393e 8797 7abe
000001e0: 2e06 adbe 99b3 d3bb b673 49be f841 c23d
000001f0: 2dfd 253e db96 083e 2012 eabd 5aa4 a3bd
