PPO/PPO3_Trained/PPO_DoubleInvPendulum_200K.pth (torch, 410281 bytes, 18 tensors)

actor.0.weight f4 [128, 6]
00000000: 765c 093f 2c48 b23e 1e53 613c 41ad 083f
00000010: 00b9 213f c218 f03d ce5f d2be 5f5d 04be
00000020: 057e b43e 16b4 e9be d02c 57bf 4bd3 843e
00000030: 7588 86bf 1f2d 823d 6001 9ebe 1755 b2be
00000040: 5902 babe f678 2a3f bf53 38bf a65b 98be
00000050: 0e03 fabd d139 39be 3f00 61bf 4c97 a5bc
00000060: 9794 2bbf a1d0 a53e 2552 a8be eebc f7bd
00000070: 9694 04bf 1316 013f 4598 59bf da3d 96be
00000080: 1942 d23d 4ba9 4bbf f97f 51bf bc02 cc3d
00000090: e010 b73e 6b5e 393e 6929 123e 7158 73be
000000a0: 123a 80bd 364b d0be cbfa 4cbf 4421 b53d
000000b0: 689a 803e 5cb3 483e 3282 39bf cd73 ce3e
000000c0: 8e38 7fbf 059b 90be b94f 763e 2af4 5bbf
000000d0: b667 36bf b083 44be ac93 423e b8aa 80be
000000e0: f72e 1abe d7ea e23c 7f90 103c f181 a3be
000000f0: 538e 353f 8e03 a5be cf12 0dbe bf87 343e
00000100: a301 2d3f be9c e7be 9cfc 983f f3b7 0c3e
00000110: 6607 7ebe 2ebe 343f d8d1 563f 55fb 03be
00000120: 9770 39be 156b 9f3d c60b a6be 289a fd3d
00000130: b228 edbe 2f5d 113e 3892 9b3f 0fe5 32bd
00000140: aee3 8f3c 40cb 573f cbad 6c3f 7369 1e3d
00000150: 43bc 1b3e 1982 a53e 2cf3 aabe c14b 873e
00000160: 55d2 f63e 70df 0d3e f6e0 233e 4db8 3ebe
00000170: 3be8 0c3e e3e8 383f 53b3 c03e c8b4 c9be
00000180: 8a65 2d3f 98ef c0be 0222 003e 8b30 553f
00000190: b2ef 2b3f d26e 153d d582 35be 4274 ab3e
000001a0: 413c 493e 9a67 f3be eeea 22bf c21d 273f
000001b0: 253b 13be 5b94 723d facb d53d a43e dbbd
000001c0: 5149 11be a236 27be 6601 65be 1dbc 46bd
000001d0: aba0 2b3e ab55 b63e 1301 e4be ecd1 e73c
000001e0: 4e5c a9bf 3405 713e ad42 14be 9db3 10bf
000001f0: 3764 a8bf 986a 5e3f ab07 1e3e 39a4 b8be
00000200: e110 1cbe 31c4 9f3d c4d7 003f 33ea 8f3c
00000210: f9c9 403e dcf6 81be a7bf 8abe 9e50 f03d
00000220: 0362 00be beb6 a43e b7c0 26bf d929 f8bd
00000230: 1126 93be 06ab 34be 8fee 40bf 6278 3bbe
00000240: 048f aabe 3fb5 983e 955b cbbd 8d01 c3bd
00000250: 2569 aabe a4d1 663d 6c06 393f 513d 543e
00000260: c017 b9be 787e 6d3f 3787 383f 9226 7d3d
00000270: 4803 6abf 6dcf 843e d7fd 97be 9754 0dbe
00000280: c2a4 23bf 9d98 323f 5628 13bf b342 5abe
00000290: bf46 6ebd 7686 a6be b24c 6abf 608a 53be
000002a0: 2ffc 1ebf f16a 4a3d 84ba 423e 20a1 12be
000002b0: 3ee3 48bf 4d2a 343e 6807 3b3e 6d9b 54be
000002c0: 4a60 1b3e ac45 d63e 5aba bb3e 356c d6bd
000002d0: 2140 f0be 0fbb 9fbc ea7d 9fbe 93d9 b8be
000002e0: 6096 83bf bed7 9f3e 04f1 543f d9dc a5bd
000002f0: 8c27 ab3e edfe 3b3f 20a4 423f e1ba 53bb
00000300: 0a01 123f f71f 963d bbcf bbbe e4a6 f23e
00000310: 08a4 db3e 0782 763e 690c c5be 0df1 88bd
00000320: 8561 8c3e 5d67 c13d 543b 73be 2783 b3be
00000330: 776d 313e 8935 2539 1f65 973e 7f41 a4be
00000340: 99c1 2c3e d282 7b3d 914e 8ebf 790a b53e
00000350: e00d 9fbe 6f7c 54bf 62ad 4ebf b8a8 09be
00000360: 3140 d5bd 79ae 88bc 5c4c 2f3e 8ff2 b2bd
00000370: 7222 11bf 2d58 a83e 2d3f 3f3f eb99 06bd
00000380: 3d5f bc3e e12b e63e 6432 6f3f 012f 6cbe
00000390: c444 1a3f 55e0 a73d 84ef 1cbd 065a 4a3f
000003a0: e2b4 1d3f bcc6 943d 05e9 2cbe 98c1 67be
000003b0: 9a21 9c3e ef91 d8be ed61 ecbe de41 793e
000003c0: e63c 77bf 77eb 163e b941 55be 2474 1cbf
000003d0: 3600 4bbf ce02 833e 1ae3 63bf 65f9 9cbd
000003e0: 3173 84be b10e 84be 2ba9 62bf efab f3ba
000003f0: 0ac8 8c3f a4a5 a9bd fd6e 893e 4388 2e3f
0.5365671 0.34820688 0.013752727 0.53389364 0.6317291 0.11723472 -0.41088718 -0.12926243
0.35252395 -0.45645207 -0.84052753 0.25942454 -1.0510393 0.063562624 -0.30860424 -0.34830543
-0.36329916 0.6659082 -0.72002786 -0.29757422 -0.12207614 -0.18088461 -0.87891 -0.020213746
-0.67023605 0.32385734 -0.3287517 -0.12096582 -0.51789224 0.5042431 -0.8499797 -0.29344064
0.102665134 -0.79555196 -0.81835896 0.09961459 0.35755062 0.18102424 0.14273609 -0.23764206
-0.06261076 -0.4068238 -0.8007018 0.088442355 0.25117803 0.1959967 -0.7246429 0.40322724
-0.9969567 -0.2824327 0.2405385 -0.8591944 -0.71252 -0.1919086 0.19001645 -0.25130248
-0.15056978 0.027699871 0.008823513 -0.31935075 0.70920295 -0.32229275 -0.13776706 0.17629908
0.6758062 -0.45236772 1.195209 0.13742046 -0.2480751 0.7060269 0.83913946 -0.12888844
-0.18109356 0.07784096 -0.32430857 0.123829186 -0.4632011 0.14195703 1.2153997 -0.04367548
0.01756462 0.8429451 0.9245269 0.038674783 0.15208535 0.3232582 -0.3338865 0.26424983
0.48207346 0.13854766 0.16003785 -0.18624993 0.13760464 0.72230357 0.37636814 -0.39395738
0.6773306 -0.37682796 0.12512973 0.83277196 0.6716262 0.03648264 -0.1772569 0.33487135
0.19651891 -0.4753998 -0.63639724 0.6527978 -0.1437803 0.059223514 0.10439296 -0.10705307
-0.14188124 -0.16329435 -0.22363815 -0.048519243 0.16760509 0.35612234 -0.4453207 0.02829834
-1.3231294 0.23537141 -0.1447856 -0.5652407 -1.3155583 0.868814 0.15432613 -0.36062792
-0.15240814 0.078010924 0.5032923 0.01756773 0.18827046 -0.2538365 -0.27099344 0.117341265
-0.12537389 0.3217067 -0.6513781 -0.12117357 -0.2873998 -0.17643365 -0.7536401 -0.18307641
-0.33312237 0.2982578 -0.09929577 -0.0952178 -0.33283344 0.056352273 0.72275424 0.20726515
-0.36150932 0.927711 0.7208132 0.06180436 -0.91411257 0.25939503 -0.29685852 -0.138018
-0.63923275 0.6976412 -0.5748342 -0.21314506 -0.058172937 -0.3252446 -0.9152328 -0.20658255
-0.6210355 0.049418394 0.19016463 -0.14319277 -0.78471744 0.17594261 0.18264544 -0.20762415
0.1517345 0.4185003 0.36665612 -0.104698576 -0.46923926 -0.019498376 -0.31150752 -0.36103496
-1.0280266 0.31219286 0.8318026 -0.08098764 0.3342861 0.7343586 0.76031685 -0.0032307433
0.57032835 0.073303156 -0.36681923 0.47392952 0.42898583 0.24073039 -0.3848603 -0.06686602
0.27418151 0.09443543 -0.237531 -0.35061 0.17326914 0.0001575557 0.29569337 -0.3208122
0.16870727 0.061404057 -1.1117727 0.35359553 -0.31065273 -0.8300237 -0.8073331 -0.13443267
-0.10412634 -0.016684758 0.17118973 -0.08737671 -0.56693184 0.32879773 0.74705774 -0.03286163
0.3679141 0.44955352 0.93436265 -0.23064806 0.6026118 0.08197085 -0.038314357 0.79043615
0.6160413 0.07264468 -0.16885765 -0.22632444 0.30494386 -0.42298838 -0.4616846 0.24341533
-0.965773 0.1473826 -0.20825852 -0.61114717 -0.79297197 0.25588077 -0.89018404 -0.07664756
-0.25869134 -0.2579246 -0.8853938 -0.0018590669 1.0998547 -0.082835466 0.2684249 0.6817667

actor.0.bias f4 [128]
00000000: c268 36be 6056 babe f9dd a9bd 5c76 643e
00000010: e6a5 873e c317 a13e 6bd9 a83e fcdc 3c3c
00000020: 7676 03be 99bf 46bd dbcd de3d f5d0 343e
00000030: 5b8e a1be 83e0 9a3d ca0d 5abd 76e8 48bd
00000040: ca41 993e c2ed 993e 61a3 9c3e bae7 7c3e
00000050: 704e 12be d3b7 2bbe a5e3 5f3e ac7f bebc
00000060: ca9c 38be 9bfe 833e 853c 2f3d ffdd 353e
00000070: 957a 1bbd 7a62 ae3c 892f 9b3e 326f f63c
00000080: b2b2 32be b050 b83c c8da 8f3e f577 3bbe
00000090: 471f 0ebc 42de 27be 5645 443e e18d 733e
000000a0: c836 23be bc91 663d 2c66 10be 2627 34be
000000b0: 978a 663d 07e2 48be d71d 9f3e 27f3 80be
000000c0: 835d 733d e169 8fbe 6446 27be 94d1 a2be
000000d0: e371 90bd d796 1a3e 57b6 a73e 9f8a d0bd
000000e0: 5f82 8bbe 4050 bcbe c4ff 3bbe 8817 26be
000000f0: 5ea5 c83e 8898 64be 0594 713d e69b 8f3c
00000100: a6ac bdbe 1f34 ab3e 2e30 113e 096f bcbd
00000110: 40ff f93d 4be5 2c3e b36a abbe d765 b93e
00000120: 686f a5be cea1 acbe aac0 053e 54e0 b13e
00000130: a055 bebe 9590 b53e 3959 b93c 3150 8bbc
00000140: be8d 863e cbe1 62be cbd6 683e e2de 3ebd
00000150: acc7 77be 29e8 0cbe f3f5 953e 6bf1 4b3e
00000160: 44e0 1cbe 073b 5d3e e968 87bd 8864 673e
00000170: 78a3 c3bd 6534 ce3d 6cd2 863e 4da9 803e
00000180: ea29 743c 4f91 c1bd 63d8 c93d 72aa a23e
00000190: 06e7 3e3e 6ccc 323e 8eb3 143e 0e8c 5bbe
000001a0: da58 ad3e 7657 493e a1f1 23be c560 a0be
000001b0: 646e ac3c b350 d33d e917 2dbe e44b f73c
000001c0: a7d8 09be 2452 66be f9fd 033e a434 5abd
000001d0: b06b 9fbc b3b2 47be 8a78 53be fcbb ba3b
000001e0: 24e6 bf3d 27a2 e6bd 309b 96be bb17 7b3c
000001f0: 8b9f a33e 43ac 063e ab66 e8bd 1d97 613e
-0.178134 -0.36394024 -0.08294291 0.22310776 0.26493758 0.3146344 0.32978377 0.011527296
-0.12838158 -0.048522566 0.108791076 0.17657836 -0.3155392 0.075623535 -0.053235807 -0.049049817
0.29933006 0.30064207 0.30593398 0.24697772 -0.14287734 -0.16769342 0.21864183 -0.023254238
-0.1802856 0.25780186 0.042782325 0.17760466 -0.0379587 0.021287192 0.30309704 0.030082319
-0.1745098 0.022499412 0.28096604 -0.18307479 -0.008674449 -0.16393378 0.19167075 0.23784591
-0.15938866 0.056291327 -0.14101475 -0.17593059 0.056284513 -0.19617473 0.31077453 -0.2518551
0.05941535 -0.28010467 -0.16335446 -0.3180052 -0.07052972 0.15096603 0.32756302 -0.1018269
-0.27247903 -0.36779976 -0.18359286 -0.16219914 0.39188665 -0.22323811 0.058979053 0.017530393
-0.37045783 0.33438203 0.14178535 -0.09200866 0.12206888 0.16884343 -0.33479843 0.3621051
-0.3231156 -0.33717197 0.13061777 0.3474146 -0.37174702 0.3546187 0.022625552 -0.017006012
0.26280016 -0.22156446 0.22738187 -0.046599276 -0.24197263 -0.13760437 0.29289207 0.19916312
-0.15319926 0.21604548 -0.06611807 0.22596943 -0.095526636 0.10068587 0.26332414 0.25129166
0.014902571 -0.094515435 0.098557256 0.31770664 0.18642816 0.17460793 0.1452162 -0.21440145
0.3385685 0.1966227 -0.16010143 -0.3132383 0.021048732 0.103181265 -0.16903652 0.030187555
-0.13461553 -0.22492272 0.12889852 -0.05327286 -0.01946053 -0.19501762 -0.20651451 0.005698679
0.09370068 -0.11261397 -0.29415274 0.015325482 0.3195766 0.1315165 -0.11347707 0.22030301

actor.2.weight f4 [128, 128]
00000000: 8d1d 12bd 06dc 98bd 4002 a5bc 5a0c c9bd
00000010: 0c4d 0abd 870b 2abe bc5f 26bd 9b95 993d
00000020: e9f9 e2bd 6cf4 b2bb 9e7e 763d 4e35 d23e
00000030: 6354 173d 7558 5e3e d2f5 48bd f3a4 013d
00000040: 3d07 ecbc dbb3 d6bc 0bc7 7ebd 5573 86bd
00000050: 354b c6be a89d 683d 0441 133d 6e91 5b3d
00000060: d623 ea38 a363 a43e 0a7f e9bd d517 29bd
00000070: 5eba 3c3b 0faf b23c 3fe5 1bbd 4392 393d
00000080: 8e8b 853d 70ce 38bd 88c3 7bbb 055a 1dbe
00000090: bb14 593d 06a1 833b 527e 0b3d fba2 55bd
000000a0: 06bd 4b3d c81a 8a3d d9d8 09bd d822 b33d
000000b0: ce28 49bd 9967 acbd f49a 303d beaf ec3c
000000c0: 87b6 b33d 17dc 40bd 8916 b4bd c2d4 6bbd
000000d0: b2d7 e03b 6197 94bd 8103 b9bb d5af 843d
000000e0: bf31 77bc f597 003c 7869 a6bd e83b ce3d
000000f0: 470f a4ba d8c9 58bc 38c1 afbd da8c 7c3c
00000100: 58ef 91bc 743f 6e3c dce9 763b 511b 40bd
00000110: 4d2a 07bd d82a 063d dfbd 04bd 2874 703d
00000120: 5b15 51bd a3a0 cbbd f58a 8a3d 0f60 90bd
00000130: 2434 e7bd 0795 213d dc0e 7bbd 6d39 90bd
00000140: 3e20 84bd 8777 663c 72dc ac3b 313a 393d
00000150: af7c 67bd 4f96 f13b 1c52 553d 3cfe 51bd
00000160: 2800 0ebc f449 1fbd 0e57 033d 89b0 c1bd
00000170: c8b4 2c3d 3024 b3bd fb89 8b3d 2e3f 1abd
00000180: f624 40bd 7065 8bbd cbbe 7a3d 865b 8cbc
00000190: efd7 203c 4fd0 8e3c 022d a33d 944d 083d
000001a0: c33f 09bd abb1 b53d 39fd abbd 7f84 13bd
000001b0: 3416 a53d d0e1 933d f774 39bd b8d0 53bd
000001c0: b9c5 85bd d902 863d 8449 933c ec1c 97bd
000001d0: 556e 0a3d 2c3f c63c aac9 20bd 3afa eebc
000001e0: 6fab 1d3d 0b1d 90bc 56a4 8f3d 2cfa 073e
000001f0: ae85 2f3d ce86 2d3e 58c0 a7bd 4bd4 ddbb
00000200: b502 75bb 5cf4 8a3d 074c 4b3d 8b02 41bd
00000210: 3852 17bc 1f78 0e3e 3771 b23d a1b2 b13d
00000220: 1033 7b3d a4c9 a0bd e39d 6e3d 7a1b cabe
00000230: 51e7 5d3d 81ff 3ebe d05a c53c c019 2cbd
00000240: 299e e5bd 578b c6bb d667 2c3d 6406 843d
00000250: e2d5 093f e9b2 433d 6c9e dcbc f68b a13c
00000260: 2328 61bc c93c 83be d28e e93c 386c 6dbd
00000270: ecf8 84bc b7a2 97bc ea55 87bc 2c44 7cbc
00000280: f954 5fbd 93fd 98bd 6755 f43c 45cb c03d
00000290: e88c f5bc 4da2 433d 10cd 0b3d 2606 27bc
000002a0: d52f 9b3c b34b 943d 1666 95bc b401 a3bd
000002b0: 6a07 9a3d aecc 333d 820c b63d e5fb 8d3d
000002c0: b013 7cbd 6c55 bebc 9b29 34bb ee32 ad38
000002d0: 2f76 64bc 49fc 203b 7cea 6ebd 2ecd 4cbd
000002e0: ab2e 0fbd 5bf0 c0bd 873d c7bc db8e 8ebd
000002f0: 5f3e e4bc 1ebf af3d 1673 dbbc ec7b cc3d
00000300: 2b1e cbbd 2e39 9a3d c1cb 24bd 396f 2bbc
00000310: ccc8 473d c4cc 63bd 2a36 1f3d cd04 2e3d
00000320: b87b 42bd 0e4b 5ebc 5655 823d 03c6 84bd
00000330: 39ec b23d ee55 88bd 1b9a df3c 7034 2c3d
00000340: 5d93 563d bbb9 a8bd bbc4 c03c 8ad2 bbbd
00000350: ba20 6dbd 2759 60bd a385 2fbd 8f33 1a3d
00000360: 319e 69bd c371 9abc a963 1bbd 6e8a f53c
00000370: d848 babc b745 833b 7dea adbc 3661 89bd
00000380: df7a c6bd b19e da3c 08b2 76bd adb5 fb3a
00000390: a96e d43c c117 1f3d 4d28 84bd 2b16 003d
000003a0: a89f c23d 00c3 56bc 6a7b 053d f5ad 4f3d
000003b0: 60f5 c43c 700f 93bd ca2f 973d f6b7 d33c
000003c0: 9e40 3c3c fbe7 9dbd e2d4 973d 3b37 15bd
000003d0: 2d3e 24bc c76f 5cbd 62e3 f03c 4b00 773d
000003e0: 1da7 7f3d 717f bcbc 804d 5f3c 41b9 9fbb
000003f0: 6973 903d 2c43 c2bd 5552 643b 394c 5d3d
-0.035672713 -0.07463841 -0.020142674 -0.09816809 -0.033764884 -0.1660596 -0.040618643 0.07499238
-0.11082823 -0.0054612663 0.060179345 0.41056293 0.03694571 0.21713431 -0.049062558 0.03165145
-0.028812045 -0.026208809 -0.06220154 -0.065649666 -0.38729253 0.056790978 0.035950676 0.05360549
0.000111646645 0.32107267 -0.11401184 -0.041282494 0.0028797607 0.02181199 -0.038060423 0.0453055
0.065207586 -0.04511875 -0.0038416106 -0.15366371 0.052998286 0.004016998 0.034056015 -0.052157383
0.049740814 0.06743389 -0.033654068 0.0874688 -0.04911118 -0.08418197 0.043116525 0.028892394
0.08775049 -0.047084894 -0.08793361 -0.05757595 0.0068616504 -0.07255436 -0.0056461697 0.0647885
-0.015087544 0.007848729 -0.08125585 0.1007002 -0.001251676 -0.013231717 -0.085817754 0.015414441
-0.017814323 0.014541496 0.0037676012 -0.04690105 -0.032999326 0.032755703 -0.032407638 0.058704525
-0.051045757 -0.099427484 0.06764785 -0.07049572 -0.11289242 0.039448764 -0.061293468 -0.07042203
-0.06451462 0.0140665835 0.0052753026 0.04522151 -0.056515392 0.0073726545 0.05208026 -0.051267847
-0.008667029 -0.038888887 0.032065444 -0.094574995 0.042164594 -0.087471366 0.06813427 -0.03765791
-0.04691025 -0.06806457 0.06121711 -0.017133486 0.009817108 0.017433314 0.07967569 0.03327711
-0.033508074 0.08871778 -0.08397908 -0.03601503 0.080608755 0.07220805 -0.045277562 -0.05171272
-0.06531853 0.06543512 0.01797939 -0.07378563 0.033796627 0.024200045 -0.03925482 -0.029172052
0.03849357 -0.017591974 0.070137665 0.13279027 0.042852096 0.16945955 -0.081909835 -0.006769692
-0.0037385647 0.06784889 0.049633052 -0.047121566 -0.009235911 0.1391301 0.08713 0.08676649
0.061327994 -0.0785096 0.05825604 -0.39474088 0.05417568 -0.18652155 0.024091154 -0.042016745
-0.11211807 -0.006059091 0.042091213 0.064465314 0.53841984 0.047778044 -0.02693101 0.019720059
-0.0137424795 -0.25632313 0.028510485 -0.057964534 -0.016231976 -0.018510206 -0.01652046 -0.015397113
-0.054524396 -0.074702404 0.02982588 0.094137706 -0.029974416 0.047762204 0.03413111 -0.010194337
0.018943707 0.07241001 -0.018237155 -0.07959309 0.07520945 0.04389637 0.088891044 0.06932811
-0.061542213 -0.023234092 -0.002749062 8.258769e-05 -0.013944193 0.0024564436 -0.05832909 -0.050000362
-0.034956615 -0.09420844 -0.02432133 -0.06960841 -0.027861772 0.085813746 -0.026788276 0.09984574
-0.099178635 0.075304374 -0.040233377 -0.010463529 0.04877548 -0.0556152 0.038870014 0.042485047
-0.04748127 -0.013567699 0.06363933 -0.0648308 0.08736462 -0.06657015 0.027295163 0.042042196
0.05238663 -0.0823855 0.023531308 -0.091710165 -0.05789254 -0.054772522 -0.042852055 0.037646826
-0.05703563 -0.018853074 -0.03793684 0.029973235 -0.022739813 0.0040061134 -0.021229977 -0.06707995
-0.096914046 0.026686998 -0.060228378 0.0019203924 0.025931673 0.038841013 -0.06452999 0.03127114
0.09503108 -0.013108015 0.0325884 0.050703008 0.024042785 -0.07180679 0.07382162 0.025844555
0.011490015 -0.077102624 0.07413651 -0.036429625 -0.0100245895 -0.053817537 0.0294053 0.060303014
0.06241523 -0.023009988 0.013629317 -0.004874379 0.07053263 -0.09485468 0.0034839113 0.05402777

actor.2.bias f4 [128]
00000000: b736 2cbd 3c0c 1c3d 9539 a63c a2d6 ad3c
00000010: 374a 62bd 6c75 03bd 0798 ac3c e351 8c3d
00000020: dcce 153d fb60 82bc fc60 56bc 5282 a73d
00000030: 4ac4 8f3d 2290 853d 4225 8cbb 88f1 fe3c
00000040: ce7f 423d cabd 26bd 8926 d03c 3fdb ae3d
00000050: eeac 70bd 1205 ad3d b233 a2bd 5f6c 2ebc
00000060: 1296 a5bc 956e f6bc 551c 253d 42fc 813d
00000070: cb47 62bd c024 363d f9ba a13d ff91 893d
00000080: 3588 3fbd 525e 2dbc 45d6 da3c b14f 36bd
00000090: d6d4 563d 499a a6bd 72d8 053d d8e2 89bd
000000a0: 7832 123d 48dd 56bd 7679 6e3c 521a 0fbd
000000b0: 3d90 b03d cdd0 793d d321 37bd 6224 c7bc
000000c0: 1ebd 873d 81f0 23bd bfb9 793d 9d90 48bb
000000d0: 9c9d 473d f8c6 8c3d 1f19 3bbd 4ba0 193b
000000e0: 85d9 a33d b796 a13d 8918 833d 6045 373d
000000f0: 4afd 1b3d 5769 cfbb 56d0 91bd 2282 acbc
00000100: 4712 6b3d 18a1 b53c d093 38bd 64cc 8dbd
00000110: 0620 bfbc 48c9 9d3d 1cac 9c3d 7b2d 123d
00000120: 6033 8c3c 8984 1fbc 763a c93c 41eb 0a3d
00000130: aad0 5bbd a80a 413d fc94 c63c 1c78 06bd
00000140: 69d0 a1bd a395 30bc 472d 9bbb 475c 6d3c
00000150: 21e3 023d 11a2 c83c ff0b ddbb fb1f a93a
00000160: 833e 873d a8ae 29bd 48c0 7d3d 0eb1 913b
00000170: fcc7 09bd ee28 b23d c875 b8bc 7e57 f13b
00000180: d7ac 2f3d e2ac 8d3d 1631 4c3d 4f60 babb
00000190: 905a 8dbd 621e 0e3d 8e0b bdbd 7b7b b8bb
000001a0: 16ec 273c 5226 1e3d c692 9dbd f986 eebc
000001b0: 2f0f efbc 1f7d 973d 1441 963d 38c3 903d
000001c0: b8d5 71bd befe 71bd b6fc ca3c b317 a43c
000001d0: 6ec3 f0ba 66fb 953d f205 81bd e5f7 77bd
000001e0: cac5 4bbd 3c53 663d 557e 2f3d 748c 6d3d
000001f0: 7c33 c2bc 4932 c23c 5070 b33d de64 bbbc
-0.042044368 0.038097605 0.02029113 0.021220509 -0.055246558 -0.032094404 0.021068586 0.06851556
0.03657423 -0.015915385 -0.013084646 0.081791535 0.07019861 0.06521632 -0.0042769024 0.03112103
0.047485165 -0.04070834 0.025409 0.085379116 -0.05875867 0.08448233 -0.07920016 -0.010645955
-0.02021316 -0.030082026 0.040310223 0.063469425 -0.05524425 0.04446864 0.0789699 0.067173
-0.046760757 -0.01058157 0.0267135 -0.044509593 0.05244907 -0.08134896 0.03267712 -0.0673272
0.035692662 -0.052457124 0.014555326 -0.03493721 0.08621261 0.060990144 -0.04470999 -0.02430934
0.06627868 -0.040024284 0.060968157 -0.0030603774 0.048734292 0.06873888 -0.045678254 0.002344149
0.08000473 0.07890075 0.06401164 0.044743896 0.038083352 -0.006329696 -0.07119815 -0.021058146
0.057390478 0.022171542 -0.04506284 -0.0692375 -0.0233307 0.07704407 0.07650015 0.035687905
0.017114341 -0.009736189 0.02456401 0.03391576 -0.053665794 0.047129303 0.024240963 -0.03282939
-0.07901079 -0.010777864 -0.004735622 0.014487333 0.03195489 0.024491342 -0.006745815 0.0012903208
0.0660372 -0.04142633 0.06195095 0.0044461554 -0.033637986 0.08699213 -0.0225171 0.007365166
0.042889442 0.069177404 0.0498515 -0.0056877504 -0.06902039 0.034696944 -0.092307195 -0.0056299544
0.010249158 0.038610764 -0.076940104 -0.029117094 -0.029182045 0.07396912 0.073366314 0.07068485
-0.05904171 -0.05908083 0.024778705 0.020030832 -0.001836879 0.07323341 -0.06299962 -0.060539145
-0.049749173 0.056231722 0.04284509 0.057995275 -0.02370619 0.023705618 0.08761656 -0.022875246

actor.4.weight f4 [128, 128]
00000000: 0314 f9bc 5b7d acbd 2f71 3abd 0631 8dbd
00000010: e0e7 0a3e c528 16bb ac35 c63c 2639 d1bc
00000020: 4db4 82bd fe05 913c dd86 8abd 4f10 27bd
00000030: 7dc5 a83c a871 9dba adc7 c7bc e6d5 993d
00000040: 9752 dbbc 66af 03bd ffdd 1a3d a495 083d
00000050: be25 d3bc 9730 dbbc 19eb c53c b841 fdbc
00000060: f5c2 a7bd d1e0 5d3c 09c5 7e3c 08c6 ac3c
00000070: 3438 31bd 22c1 ea3c 911e 11bd a995 d3bc
00000080: 15c5 3e3d d89f 8cbd 6d19 133d dad0 973c
00000090: ef88 1a3d d71e 4c3d 5df8 a23d 141e 1fbd
000000a0: 75c2 a6bc bc8c d93c 9cc6 75bd 68a7 9d3c
000000b0: 2e31 96bd 7fbc c03c dee0 733c c530 163e
000000c0: b8e7 bfbc d369 d9bc 89be ac3d 9f1a 8b3c
000000d0: 42d7 a73d c4fe 81bd b8d3 3f3c 4dcc 5ebc
000000e0: 111c b0bd 5db6 2bbd 96f3 15bd 8888 973c
000000f0: 51bc 22bd 0dd9 a9bd ab84 893c 38e2 f2bd
00000100: 4fb2 743d 8887 f33c b6ba 463d a19f 0e3c
00000110: d2be 873d e1ea 4d3d e9c1 fb3d e550 c83c
00000120: ffb4 c6bb 5ab6 7dbd 3c6c 58bd 4672 45bd
00000130: 6999 02bc dd3e e4bb a536 933b da2f 81bd
00000140: 2888 cd3b b55b b2bc 893c 58bd c484 c93d
00000150: 9865 693d 01dc a1bc adab 053e a9b2 c73c
00000160: 978b 723d f30d 9db9 e081 4bbc 323f 4dbd
00000170: 1b40 1bbd a78f 71bd c08e 4b3d cea7 9bbd
00000180: 7204 6bbd a9ae cdbc b974 35bd 05b8 7bbd
00000190: 0b5a f73b 8e76 38bb 73e1 48bc 6867 51bd
000001a0: 7575 363d 8d4f 8a3d ce8e 4ebd 1b50 46bd
000001b0: 3351 d83d f368 353b 5052 a3bd cea7 923d
000001c0: 7838 8bbd 56da 473d 805c 38bd 0037 543d
000001d0: 8895 243b 1d45 303d 4263 393d f5bb 4f3d
000001e0: 4abb fdbd ed32 7f3d 5a30 8a3b 3b2e 7abd
000001f0: 0584 d63d 529a 6a3c 4d1d 4c3b df65 49bd
00000200: bb1c abbb 09a6 0bbd 144b d9bd 9961 94bd
00000210: 5881 823e 2226 f23c 7c58 e8bc 8624 39bd
00000220: 5b5f 863d 1703 303d 588e 833d bfb6 f6bc
00000230: d480 1fbd 02c0 77bc f403 1abd 36b0 0a3d
00000240: 8af3 193d e7f4 37bc 5827 e2bc d7b6 a53b
00000250: 2901 373c bcb6 b93d a243 083d 4590 523c
00000260: e66a e0bd 7993 5dbc 8d6b 5b3d c078 a53d
00000270: bb94 2abd 5210 7a3c fb42 0b3c 6950 583c
00000280: 2a50 c2bc 7d64 473d 0011 ba3d 0170 d93c
00000290: f3ba 733d b71a bbbd 0083 95bd 3f83 53bd
000002a0: 0783 89bd fdc0 a53c 62d2 6f3d ef9d 4dbd
000002b0: 1d25 4abd 7372 87bc 49ce e53b 0ed7 6d3e
000002c0: 158d c23a 8d0e b23d 27d1 783d c23e 95bd
000002d0: bf9c 703d f963 143d 71b4 3bbd 24f8 223d
000002e0: 5dd4 973c 489a b6ba 24d3 5dbd 3730 56bd
000002f0: d8fd c0bd 5482 493d 2a68 443d fd14 e0bd
00000300: a7ed bd3d 141a cfbc 000e 023e 776d 3cbe
00000310: b1fe 49bd d227 513e 451f 3d3e 88cb 7ebc
00000320: 1aec 1c3d 074d 4a3c 3c40 563c 1b54 13bc
00000330: 7b4e 523d 8331 213c 0fb7 0f3e a259 773d
00000340: 1e60 d43b 6520 643d 893c 8bbc 55f7 903d
00000350: 0a6f 003e dca2 dfbd 556e 0d3e 0f94 d73d
00000360: e32b 633d 618f d43d 13fb 3d3d 0afd 26bd
00000370: 8d87 9cbd c693 8c3d 2cc8 5fbd 1f6b 783a
00000380: d254 00bd ca1a 07bd fe62 753c 7e60 bf3d
00000390: 9e9b 57bd e11f 1fbd a016 483d b328 5e3d
000003a0: 68a3 d23d 03a1 9ebc 5214 bf3d 5276 603d
000003b0: 1b12 b63d a40a 76bd eb86 f0bb e4e5 973d
000003c0: 482a a0bd 5982 c13d bfb0 53bd 2d60 23bd
000003d0: e854 37bd 1daf 813d 88db 713d a399 c13d
000003e0: a33f 9ebd f5c6 67bc 1eb6 99bd 9b74 d4bc
000003f0: 93ec 6a3e 8c09 c93d 3eca 303b c167 143c
-0.03040505 -0.08422347 -0.045518097 -0.06894116 0.13565016 -0.0022912484 0.024195515 -0.025539946
-0.06382046 0.017703053 -0.067640044 -0.040787037 0.020601982 -0.0012012022 -0.024387205 0.07511501
-0.02677278 -0.032149695 0.03780937 0.033345833 -0.025774833 -0.026756568 0.024159955 -0.030915126
-0.08191482 0.01354237 0.0155499065 0.021090522 -0.04326649 0.028656546 -0.03542954 -0.0258282
0.04657467 -0.06866425 0.03591292 0.018532205 0.037728246 0.0498341 0.07957528 -0.038847044
-0.020356396 0.026556365 -0.06000386 0.019244865 -0.07333599 0.023527382 0.0148851555 0.14667042
-0.023425922 -0.026539719 0.08434779 0.016980467 0.08195354 -0.06347421 0.0117081925 -0.013598514
-0.08599103 -0.041921962 -0.036609255 0.01849772 -0.039730374 -0.08293352 0.016786894 -0.11859554
0.05974036 0.029727712 0.048517905 0.008705051 0.06628193 0.050272826 0.12292845 0.024452636
-0.006064057 -0.061941482 -0.052837595 -0.048204683 -0.007971146 -0.0069655017 0.004492598 -0.06307955
0.0062723346 -0.021772245 -0.052792106 0.09839776 0.056981653 -0.019758226 0.1305377 0.024377184
0.059215154 -0.00029955767 -0.012421101 -0.050109096 -0.037902933 -0.05897489 0.049696684 -0.076003656
-0.057377286 -0.025107699 -0.04430077 -0.06145479 0.0075485758 -0.0028146836 -0.0122607825 -0.051124007
0.04454561 0.06753454 -0.050429158 -0.04841624 0.105623625 0.0027680963 -0.07974684 0.071609125
-0.0679788 0.048792206 -0.04501009 0.051810265 0.0025113542 0.04303466 0.045260675 0.05071636
-0.12389238 0.062304426 0.0042171897 -0.061079245 0.104743995 0.014319019 0.0031145394 -0.049169417
-0.005221931 -0.03409389 -0.10610023 -0.07245178 0.25489306 0.029559199 -0.028362505 -0.045200847
0.06561156 0.042971697 0.06423634 -0.030116437 -0.03894122 -0.015121462 -0.037601426 0.033859454
0.037585773 -0.011227823 -0.027606651 0.0050571966 0.01116971 0.09068057 0.033267625 0.012851779
-0.10957889 -0.01352393 0.053569365 0.08079672 -0.041645747 0.01526268 0.008499856 0.013202765
-0.023719866 0.048679817 0.09085274 0.026542665 0.05950446 -0.09135955 -0.07300377 -0.051638838
-0.067144446 0.020233626 0.058550246 -0.050199445 -0.0493518 -0.016534066 0.0070131165 0.23226568
0.0014843071 0.086941816 0.06074634 -0.07287361 0.058743235 0.036228154 -0.04582638 0.039787427
0.01853388 -0.0013931477 -0.054156438 -0.052292075 -0.09423417 0.049196556 0.0479509 -0.10941503
0.09273844 -0.02528099 0.12700653 -0.18401133 -0.04931516 0.20425346 0.1846896 -0.015551455
0.0383111 0.012347466 0.013076838 -0.00899222 0.051344376 0.009838465 0.14034675 0.060388215
0.0064811846 0.055694956 -0.016996639 0.07078425 0.12542358 -0.10919735 0.1381162 0.10526287
0.055461776 0.1037891 0.04638202 -0.04076866 -0.07643042 0.06864123 -0.05463426 0.00094764115
-0.03133089 -0.032984532 0.014977215 0.09344576 -0.052638642 -0.03884876 0.048849702 0.054238033
0.102850735 -0.019363886 0.09330048 0.05480034 0.08890172 -0.06006874 -0.007340302 0.07416895
-0.078205645 0.0944869 -0.05168223 -0.039886642 -0.044758707 0.06332228 0.059047252 0.09453132
-0.077269815 -0.014146556 -0.07505439 -0.025934508 0.22941808 0.09816274 0.0026976014 0.00905794

actor.4.bias f4 [128]
00000000: 1470 a53d 5909 803d dcae 15bd c62f fb3b
00000010: 4641 cb3c 91b3 bdbc 0416 5cbd 1bbe 5d3d
00000020: bce5 613d 54f7 7bbd 26d6 373d 0bdd 623c
00000030: 03c7 3a3d 956a 24bd c279 87bd 4f68 8b3d
00000040: 1096 a6bc aa55 7cbd b28f 883d 2a4d 573c
00000050: 436d 8dbd 0a89 80bd 0111 38bd da4f 3c3d
00000060: c320 5e3c f5b0 14bd dcc1 64bd d138 0a3d
00000070: 10ab 3a3a 60d4 2abd 81b3 17bc 4203 8f3d
00000080: f0fd 963c 05a2 263c 1068 163d 3091 8fbd
00000090: 3d76 a2bc 83ac 8e3d 2ae3 1f3d 3b0f 91bd
000000a0: 623b f0bc e26e 5ebd d5de 1d3d 2a70 213d
000000b0: 7fd4 3bbb 70fd a0bc 3518 34bd ac82 07bd
000000c0: c1f4 13bd 63f3 273d 878e 5ebd 683c 273c
000000d0: 0892 01bd 5995 803d 5695 483d 8642 92bc
000000e0: 1647 60bc c30a ddbc d5c8 4e3a 6e44 40bd
000000f0: 6f51 0f3d 8741 603d f0a5 e23c fae8 8d3c
00000100: f348 81bd 1aeb 73bd afb8 c0bc c1de 83bd
00000110: 0845 8c3d 40a7 8abd 337c 1eba 61cf febc
00000120: 800a d83c d1d6 a43b 288d 593c 0895 11bd
00000130: 3942 d9bb 4554 823c 6f04 5dbb 2414 1dbd
00000140: bc28 513b 277d 5c3d 1ce2 083c 1627 dfbc
00000150: 94a4 56bd 0696 a9ba e86c 5dbd 2b61 e3bc
00000160: 070b 49ba b184 833d b8c6 273c 0ca7 4a3d
00000170: a4d9 66bd 4421 bd3c bf2b 9cbc 7f6d db3c
00000180: 1e3d febb 554f 49bd 3112 90b9 d7fd 8fbc
00000190: 2563 5e3d 72c4 69bd 7434 68bd 4d78 003d
000001a0: 019e 05bd 5d80 21bd bfee 5b3d 517c 42bd
000001b0: 7594 86bc 3478 0dbc 6d11 53bc af29 873c
000001c0: 54f6 d93c 06a4 4c3d d5e4 bf3c 766e 96bd
000001d0: 81ce 743d 5b60 1ebd a016 e73c 5315 89bb
000001e0: 4778 20bc 6b37 1bbd 4e4a 4bbc cc66 84bd
000001f0: ecab cc3c 4729 cb3c aea0 4fbd b532 82bb
0.08078018 0.06251783 -0.036543712 0.007665607 0.024811398 -0.023156913 -0.053731933 0.054136377
0.055150732 -0.061515167 0.044881962 0.013846646 0.04559995 -0.040140707 -0.0661502 0.06807005
-0.020335227 -0.061605133 0.06668033 0.013140956 -0.06905606 -0.06276138 -0.04493809 0.04597459
0.013557616 -0.036301572 -0.05584894 0.03374559 0.0007120827 -0.041706443 -0.009259106 0.06983043
0.018431634 0.010170464 0.036720335 -0.07010114 -0.019831771 0.06966498 0.039035 -0.07082983
-0.029325191 -0.054304965 0.038542587 0.03941361 -0.0028660593 -0.019652098 -0.043968398 -0.033083603
-0.036122087 0.041003596 -0.054335143 0.010207273 -0.031633407 0.06278486 0.048970543 -0.017853986
-0.013688823 -0.02698267 0.00078882027 -0.04694026 0.03498977 0.05474999 0.027667016 0.017323006
-0.06312742 -0.059550382 -0.023525564 -0.06438971 0.06849104 -0.06770182 -0.0006045729 -0.031104745
0.026372194 0.005030491 0.013278283 -0.035542518 -0.006630209 0.015909323 -0.0033724566 -0.038349286
0.0031915149 0.053830292 0.00835469 -0.027240317 -0.052403048 -0.0012938387 -0.05405894 -0.027756294
-0.00076691847 0.06421793 0.010240249 0.049475715 -0.056359902 0.023087151 -0.019063829 0.02678561
-0.0077587506 -0.049147923 -0.00027479374 -0.017577095 0.05429377 -0.05707211 -0.05669065 0.031364728
-0.032621387 -0.039429057 0.053694483 -0.04748184 -0.016428212 -0.008634616 -0.012882573 0.016499368
0.026606716 0.049961112 0.023424545 -0.073452875 0.05976725 -0.03866611 0.02820903 -0.0041834502
-0.009794301 -0.037894648 -0.012407852 -0.064649194 0.024984322 0.024799956 -0.050690345 -0.00397333

actor.7.weight f4 [128, 128]
00000000: 4bba a33d 6dc2 38bc d213 b73a b781 1ebe
00000010: 2355 9bbd fe03 2dbd d8ae 793c ded5 a6bd
00000020: 3b49 cbbd 3d3f d03d 7ce3 353c 82b2 78ba
00000030: e00b be3d 4678 473d 11a3 dabb d249 4cbb
00000040: da15 2d3d 0dc0 55bd 97a9 743d 891a b1bd
00000050: 99a3 f53c 9c45 1e3d 60c3 573d d4f0 0cbd
00000060: 66a3 3dbd c96e 5bbd 08d8 3fbd 539c c83d
00000070: 6a10 34bd 2186 3f3d 5e66 b9bd 0e14 6cbc
00000080: b4a0 29bd 0cfb ba3b 434a c13d a659 39bd
00000090: 55c2 68bd 3436 febc 9707 c63d bd10 b03d
000000a0: c629 893a 68fb d43c 4783 a23c abaa d7bc
000000b0: 082e a2bd 386e 483d 1a73 98bd 2d11 65bd
000000c0: 0a16 eabb c912 a93d d77a cf3c 7781 32bb
000000d0: 09b9 c53d 07fa 413d 62c7 f63d eb04 d23c
000000e0: 6a01 7fbd 79db 5b3c 2f66 74bb c084 79bc
000000f0: cd92 97bd 47c1 923d 8a72 4abd da5e 08bd
00000100: ec71 d3bd 8752 3e3d fa0e a83c 0c5f 123d
00000110: a196 913d baaa 983d 6ed6 45bd 5724 cc3c
00000120: a945 1fbd ac42 8cbb 9285 993d 0db8 69bd
00000130: 12d9 803d 9bdc 083e 27ae 383d 86d3 413d
00000140: 37f5 913c 493f 3fbd 137b 65bd abe6 a4bc
00000150: 4ae0 6f3d e967 0f3d 6de9 043e 832a 013d
00000160: c937 b3bd dc66 0e3e a6b0 07bb 39fb 86bd
00000170: 8b13 463d c5d9 ca3d 612f f4ba cfa2 e53d
00000180: 4c22 c23c e1cb 44bd 486c 29bd 323d b33d
00000190: 594d 4dbd 656d c7bd 6a9c 03bd 1106 b0bc
000001a0: 9d0b a23c 5ac0 26bd 7af4 d93d 8178 433d
000001b0: f0db 89bd 9969 3b3d c600 a73d f801 bbbd
000001c0: 90b2 75bd 5267 d33c 2778 64bc bf38 233d
000001d0: 1010 b3bd 8f37 88bd df2b a13d a93a f1bc
000001e0: b678 42bd 2b1f 8ebd 2307 edbc c854 2f3d
000001f0: e66d f23b 075a 82bd 7ed5 4b3c 1b7a bf3d
00000200: c554 c9bd 62a1 f5bd f318 5e3e 5239 bdbd
00000210: 368b f4bd 193f bfbd 1b05 90bd c7f4 82bd
00000220: 975d 00be 8fe5 173e 1268 bc3d 6126 743e
00000230: ec9e df3d a506 203e 805e 4dbe 4b1f f43d
00000240: 9be5 b33d 7fa8 983d f428 323d e1c1 84be
00000250: 994c 063e 22a4 32be c7ec 19be a34d 4ebe
00000260: 818b c83d 4117 333e 52f0 553e 13a8 043e
00000270: 420e cbbd c27b cb3d 13ad 4dbe 9615 223e
00000280: eccf dc3d 555f 82bd f80f c83d d6c5 fbbd
00000290: 661d 28be c98f 32be ce32 033e 31e6 913d
000002a0: 5128 513d 88d0 06be bbdd 1c3e 32a9 453e
000002b0: d345 62be 4bfa 0a3e 535b 63be 0b10 afbd
000002c0: ea45 123e 2b6d 5e3e 82fe 173e 8227 04be
000002d0: 362d 3c3e 6ed3 3a3e 1710 0a3e 0c12 12be
000002e0: 57c1 05be f477 1d3e 679d 80be 7739 873c
000002f0: c3be fcbd 338a e23d 74d2 3cbe 6786 3b3e
00000300: 0a8a 85bd 7c78 8abd 6696 4cbe af7b 063e
00000310: 3c57 1f3e f161 103e f968 683e afab cfbc
00000320: 77ce 33be b66f 3dbd 8166 89be 42fe 12be
00000330: 93c9 053e a421 5d3e bc16 c4bc 1b1a ec3d
00000340: 9948 e23d 75d3 e7bd a00f 6b3e 502f 3f3e
00000350: 1b16 bb3d 906e ecbd bfdb 033e e44f d43d
00000360: 69a5 55be c4e6 113e 678b 3f3e 6fbd f23d
00000370: 0d11 75be d0ca 6a3e a6cf 76be f4b6 6e3d
00000380: d365 0a3e 4d56 74be a722 3dbc c098 323e
00000390: 9d26 013e ae11 75be 2226 4fbe 162b 43be
000003a0: f9aa 75bd b0f9 eabd 1817 233d ff73 9c3d
000003b0: 18c8 b4bd e969 363e ed5c 083e 7563 31be
000003c0: 2dd8 26be c4b9 6d3e c698 8abd ef3a 743e
000003d0: 12cb 02be 11e5 a43d 3bd9 263e 4625 783d
000003e0: d6d3 8fbd 68e9 aebd e664 df3d 65ee 4bbd
000003f0: 0ba7 16be 8aa5 5bbe 0d44 39be e6dc 1d3e
0.07994517 -0.0112768235 0.0013967699 -0.1547917 -0.07584598 -0.042240135 0.01523944 -0.08146261
-0.09926077 0.10168312 0.0111016 -0.0009487049 0.09279609 0.048698686 -0.006672271 -0.003117193
0.042257167 -0.052185107 0.059732046 -0.08647639 0.029985236 0.038640603 0.05267656 -0.03440936
-0.046298407 -0.05357245 -0.046836883 0.097954415 -0.043960966 0.046758775 -0.09052728 -0.014409078
-0.041413024 0.0057061967 0.094379924 -0.04525151 -0.056825954 -0.031031705 0.096694164 0.085969426
0.001046472 0.025998786 0.019837989 -0.026326498 -0.07918936 0.048933238 -0.07443829 -0.055924583
-0.0071437405 0.08255536 0.02532713 -0.0027237812 0.09654433 0.047357585 0.12049748 0.02563711
-0.062257208 0.013419026 -0.0037292351 -0.015229404 -0.07401047 0.07165771 -0.04942564 -0.033293582
-0.10324463 0.046465423 0.020514954 0.035735175 0.07108808 0.074544385 -0.0483002 0.024919672
-0.038884792 -0.004280409 0.0749618 -0.05706029 0.06291403 0.13365404 0.04508796 0.047320865
0.017817123 -0.046691213 -0.056025576 -0.020129522 0.058563508 0.035011206 0.1297967 0.031534683
-0.087508745 0.13906425 -0.0020704656 -0.06590886 0.04835848 0.099048175 -0.0018629843 0.11212694
0.023697995 -0.048045997 -0.04136303 0.087519065 -0.050122593 -0.09737662 -0.03213159 -0.021487268
0.019780928 -0.040710784 0.10642333 0.047722343 -0.06731403 0.045755003 0.081544444 -0.09131235
-0.059984744 0.025806103 -0.013944662 0.03984904 -0.08743298 -0.06651222 0.07869696 -0.029446917
-0.0474784 -0.069395386 -0.028934067 0.042805463 0.007398355 -0.063648276 0.012441037 0.09349462
-0.09830622 -0.11993672 0.21689205 -0.092394486 -0.11940615 -0.09338207 -0.07032224 -0.06394344
-0.12535702 0.14833663 0.09199537 0.23842765 0.10918984 0.15627535 -0.2005558 0.11920031
0.08784028 0.07454013 0.043496087 -0.25929168 0.13115157 -0.17445424 -0.1503173 -0.20146804
0.09792233 0.1748934 0.20892456 0.1295474 -0.09914829 0.09935714 -0.20085554 0.15828547
0.107818455 -0.063658394 0.09768671 -0.122935936 -0.16417465 -0.17437662 0.12812349 0.07123984
0.05106384 -0.13165486 0.15318958 0.19302824 -0.22096948 0.13572042 -0.22202806 -0.08547982
0.14284483 0.21721332 0.14843181 -0.12905696 0.18376622 0.18244717 0.134827 -0.14264697
-0.13062035 0.1537779 -0.25120088 0.016506894 -0.123410724 0.11061516 -0.18439656 0.18312989
-0.065204695 -0.06761262 -0.19979247 0.13133119 0.15560621 0.14099862 0.22696294 -0.02535042
-0.17559229 -0.046249114 -0.26836017 -0.14354804 0.13065176 0.21594864 -0.023936622 0.11528417
0.11049003 -0.11319629 0.22955179 0.18670392 0.09135076 -0.115445256 0.12876795 0.103668004
-0.2086388 0.14248186 0.18705522 0.11852538 -0.23932286 0.2292893 -0.24102649 0.058279946
0.13515405 -0.23861046 -0.011543906 0.17441082 0.12612386 -0.23932526 -0.2022939 -0.19059405
-0.059977505 -0.11473405 0.039816946 0.07639312 -0.08827227 0.17813839 0.13316698 -0.17323096
-0.16293402 0.23215395 -0.067674205 0.23850606 -0.12772778 0.080515034 0.16293804 0.06058242
-0.070228264 -0.085406125 0.10907917 -0.049787898 -0.1471216 -0.21449867 -0.18092366 0.15416297

actor.7.bias f4 [128]
00000000: 4697 82bc 275a afbb 7937 53bb 2481 813c
00000010: e7ea 1cbc 6e2c b4bb 6403 79bc e02a ae3b
00000020: 3434 6ebc 55df 98bc 55a0 af3a e56e 883c
00000030: e3f5 88bb e8c6 acbc 20f1 b63c c8ab e4bc
00000040: 87f6 dfbc 5a9a 8e3c cf66 913c c3fb f9bc
00000050: 3442 01bd 34ee 00bd 06b5 16bd 9427 dfbc
00000060: fe43 0bba 2908 8b3c b3b5 913c 4447 db3c
00000070: f47a bc3c 4a85 2e3d 7496 b13c 2b45 07bc
00000080: ec4b 02bc c392 e73c 9b01 2e3c d4f8 b4bc
00000090: 142c 86bc 236a 273d 94c6 87bc 1e64 adbc
000000a0: f94b 2cbc cb36 24bc f50e cb3c 8655 3abc
000000b0: c28d 633c 617a 933c e951 75bc 0db4 78bc
000000c0: 1671 4abc 4404 223c bdc0 d3bc a8a2 83bc
000000d0: 285f ff3b 5993 55bc 6039 03bb 8fb8 11bc
000000e0: 171c 813c deef a3bc 9a4a f53c 8423 383c
000000f0: 724e 1cbc 081b f73c 9e97 eb3c 5fe2 10bd
00000100: d258 3bbc 6bfb 853c 871e aebc 4eac 4bbd
00000110: 103e 903c 7da9 55bc 6c6f 213c d361 213d
00000120: 7d84 cfb9 c934 983c 3e79 92bc e768 453b
00000130: 7246 2a3c 1355 733a e594 463b 58d3 d23c
00000140: 7b33 68bc 9f75 ad3c 3b79 9ebc fe53 e53c
00000150: 775c f73b 65de 14bd cfab 1a3c 7e48 03bd
00000160: f059 0abc beb2 363c ea80 1abc 937d 99b8
00000170: ca25 813c 2032 453b ee8f 4a3c 70ca 58bc
00000180: c1fb 7d3c 4023 dc3c bf97 b83b c20e a63c
00000190: df31 2f3c 6749 85bc 5e5e 01bd a91f d53c
000001a0: f661 55bc 6eaa e03c d3b9 bb3a 2c4b 6c3c
000001b0: aa87 e3bc 6a73 183c 44f0 cdbb 6711 0e3d
000001c0: 20ec b63b ee79 073c 1c8d bdbc 4287 19bc
000001d0: 11a4 a7ba 58c3 a53c 8893 2bbd 4a6e c639
000001e0: 56db 88bc e573 c73c e0d2 3cbc ddf5 eabc
000001f0: 8db8 623b ab76 10bb 01c9 41bb 64d5 46bc
-0.015941273 -0.005351323 -0.003222911 0.01580865 -0.009577489 -0.0054984605 -0.015198562 0.0053151697
-0.014538813 -0.01866118 0.0013399223 0.016654441 -0.0041797026 -0.02109094 0.022331774 -0.027913943
-0.027339233 0.017407585 0.017749218 -0.030515557 -0.031557277 -0.03147717 -0.03679373 -0.027240552
-0.0005312561 0.016971665 0.017786836 0.02676738 0.023007847 0.042607583 0.021678187 -0.008256237
-0.0079526715 0.028268224 0.0106205 -0.022091307 -0.01637844 0.040872704 -0.016574182 -0.021165904
-0.01051616 -0.010022829 0.024787406 -0.011372929 0.013888778 0.01800269 -0.014973142 -0.015179646
-0.012356063 0.009888712 -0.02584874 -0.016068771 0.007793326 -0.013035619 -0.0020023212 -0.0088941
0.015760465 -0.020011839 0.0299428 0.011238936 -0.009540187 0.030164257 0.02875882 -0.035372134
-0.011434751 0.016355237 -0.021254791 -0.04972487 0.017607719 -0.013040897 0.009853225 0.039399933
-0.00039580828 0.018579857 -0.017880078 0.003012234 0.010392772 0.00092823914 0.003030115 0.025735542
-0.01417243 0.02117425 -0.019344917 0.027994152 0.0075488645 -0.036344904 0.009440376 -0.032051556
-0.008444294 0.011151014 -0.00943015 -7.3189985e-05 0.01576509 0.0030089691 0.012363417 -0.013231859
0.015501917 0.026872277 0.005633324 0.020270709 0.010693043 -0.016270353 -0.031584136 0.026016073
-0.013023844 0.027425017 0.0014322348 0.014422219 -0.02777465 0.009304861 -0.0062847454 0.034684565
0.0055823475 0.008268816 -0.023138575 -0.009370627 -0.0012789984 0.020234749 -0.041888744 0.00037847675
-0.01670615 0.024347255 -0.011524886 -0.02868169 0.0034594864 -0.0022043388 -0.002956927 -0.012135837

actor.10.weight f4 [1, 128]
00000000: d931 913b ae6a fd3a e93a 0b3b 4ea5 623b
00000010: 7ff0 743b d3de 54bb 273d 02bb fbc8 a7bb
00000020: 5c4c 3fbb fd53 3a3b eb35 3d3b 5e6a 8b3b
00000030: 8423 3fbb 2f48 6bbb edf1 20bb 01ff ceba
00000040: 8da6 a2bb 825f 643b 5466 ec3a 46fd 79bb
00000050: d64b 30bb 61be 83bb 2f9c 2abb 284a 4b3b
00000060: c6fa d53a 7129 f13a 37e6 f23a f5e2 843b
00000070: 3a22 993a d1e3 89bb dd5e 283b 6048 a3bb
00000080: 05ac 6cbb 3155 253b 7efb 883b 3b17 46bb
00000090: 1c8e 2fbb 0122 f03a 2b7a 3f3b 8c30 6fbb
000000a0: 4f97 273b 8bfe 7e3b b7db 953b c995 db3a
000000b0: 7277 853b fb00 87bb 8dea 8d3b ce71 2dbb
000000c0: 9e8d 95bb 29c2 4fbb 831d 18bb 6697 9fbb
000000d0: 237a 4ebb d3b6 57bb 8b3e 0c3b c8e9 3b3b
000000e0: 1e9b 803b dd9d 8f3b 4b27 c53a c4f9 5d3b
000000f0: 95e1 943b d772 4cbb f002 a6ba 7b3b b3ba
00000100: fb0c 1b3b f232 903b 45e9 02bb 76b7 08bb
00000110: b93d 9a3b c909 f8ba 4dea 6b3b f3f8 04bb
00000120: 909e 953b 7962 833b 1386 133b bc66 2c3b
00000130: 3154 de3a a3e3 2b3a 0a07 d2ba 6250 31bb
00000140: ba57 0fbb 665d a23b e6cf 6f3b ef35 5b3b
00000150: 1c4a 75bb 6ffe 20bb 5d79 69bb ccaf b13a
00000160: 2ce9 143b 60ad 5d3b ac7a 2e3b 4237 ec3a
00000170: 2b8a 82bb 6c27 47bb 4529 963b 1d44 0dbb
00000180: ae73 943b 7893 6abb b74a 5ebb 5a3c 08bb
00000190: 556e cb3b ff5c 9cbb 0400 edba e6c7 5b3b
000001a0: 657f 34bb a31e 8c3b 3f89 32bb 8c5f 8c3b
000001b0: a34d 943b f5bd adbb 006a 5fbb 9832 a23b
000001c0: fe42 0e3b 0c1f 8bbb 6d3b 753b 79c1 f3ba
000001d0: fcce 29bb 4898 7e3b 99d2 12bb d3eb a5bb
000001e0: 91da d8ba eeb0 863b 428d 17bb 45a4 5bbb
000001f0: e3d5 f43a 94d8 693b b351 073b 361c adbb
0.004430991 0.0019334161 0.002124483 0.0034583393 0.0037374792 -0.0032481446 -0.0019872875 -0.0051203943
-0.00291898 0.0028431409 0.002887125 0.0042546233 -0.0029165456 -0.003590118 -0.0024558262 -0.001579255
-0.004963702 0.0034846966 0.0018035867 -0.0038145347 -0.002690067 -0.0040204977 -0.0026033034 0.0031019542
0.0016325347 0.0018399191 0.0018531744 0.0040553757 0.0011683174 -0.004208066 0.0025691309 -0.004982993
-0.0036113274 0.002522778 0.004180371 -0.0030226249 -0.0026787585 0.0018320681 0.0029217105 -0.0036497442
0.0025572365 0.0038909044 0.004573311 0.0016753013 0.004073077 -0.00411999 0.004330939 -0.0026465538
-0.004564001 -0.0031701422 -0.002321095 -0.004870343 -0.0031505905 -0.0032915368 0.0021399583 0.002867328
0.0039247414 0.0043828324 0.0015041617 0.0033870796 0.004543493 -0.003119638 -0.001266567 -0.0013674343
0.002365886 0.0044006044 -0.0019975465 -0.0020861304 0.004707065 -0.0018923815 0.0035997808 -0.0020289987
0.0045660213 0.0040095416 0.0022510334 0.0026306352 0.0016962347 0.0006557053 -0.0016023826 -0.0027055969
-0.0021872357 0.0049549816 0.0036592423 0.0033448895 -0.0037428206 -0.0024565717 -0.0035625317 0.001355642
0.002272199 0.0033825263 0.002662341 0.0018021839 -0.003983756 -0.0030388488 0.0045825564 -0.0021555491
0.0045303917 -0.0035793465 -0.0033919045 -0.0020787925 0.006208221 -0.004771828 -0.001808167 0.0033535897
-0.0027541753 0.004276113 -0.002724245 0.004283851 0.0045258566 -0.0053021857 -0.003409028 0.004949879
0.002170741 -0.0042456444 0.0037419454 -0.0018597088 -0.0025910726 0.003884809 -0.0022403358 -0.005063513
-0.001654463 0.004110447 -0.0023124968 -0.003351466 0.0018679466 0.003568207 0.0020648062 -0.005282904

critic.0.weight f4 [128, 6]
00000000: 091e 0cc0 40ce db3c f6d2 833d 8806 bb3e
00000010: f118 44bf 70d1 833f 3192 2cbf 8055 8bbd
00000020: cc18 17be 333b c7bd 6e5f 7cbe 38e3 2b3f
00000030: 950e 98bf 6a5d 0d3e 339b 9dbe c7a2 a83e
00000040: 99e6 7ebe 5a31 5f3e a4db 02bf 77f7 f63d
00000050: 85ab 26be 14a6 4d3f 9066 efbe 70b1 813e
00000060: a6fd d4bf 2a26 8a3e 12af ab3e 6965 1f3f
00000070: f4e8 c9be d251 423f ecfd c43f 131b 073e
00000080: 758b 9f3e bf75 94be 7bd0 563f 8fb2 4ebf
00000090: 8ad8 bd3f 29bc e23c 89d1 273e ae18 cebe
000000a0: d5fa 2a3f 3c7a 05bf fbee 883f 8b99 02bd
000000b0: 2f67 80be 8172 b4be 31d1 c03e d21e fbbe
000000c0: 473e 113f 8155 033e 94e7 bcbd 3784 e0be
000000d0: 65dd 343f 0bc5 1f3e 69da e9be 0ec0 543d
000000e0: d286 6dbe 2976 543b dfd3 dcbe 4103 ef3d
000000f0: 64f9 753f dfad a9be 4c3f 673e b5e1 95be
00000100: 4d55 dd3e 5d3c 15be ed5b 0d3e 39aa 0c3a
00000110: cef4 c6bd 4cf9 ae3e cbb2 d9be 9a69 db3d
00000120: 308d 80bf a8a2 e5bc 0a59 8b3e 04a8 ab3e
00000130: 9f11 98be 233d 343f 4fbb c53f e4ab 923e
00000140: 8bbb 72be 935e 38bf 6578 4d3f 7120 debe
00000150: 37d8 debf 0cc2 58be 38da 163e 66fb 843d
00000160: 09bd 11bf 8ebd 853f fb98 553e a8c4 423e
00000170: 4034 473e 3348 b6be 9cc0 b23d db99 003e
00000180: def2 293f c82f 4abe 8e09 9abb a8ea 21be
00000190: 694e 013f 5be1 49bf 1f1a 8d3f 5f18 1fbe
000001a0: 07df a13e 9a20 45be 96dc 003f 95b2 4ebf
000001b0: 1bca 26c0 2406 82be 322a be3e f18d 283f
000001c0: 482f 03bf d8bd cf3f 182c 6e3f 53da a7be
000001d0: 34dc 8fbe 1b99 26bf c549 1a3f 0476 17bf
000001e0: 65b9 b03f 4a25 5dbe 7c8e 323e 705b 16bd
000001f0: 6207 1e3f 294b 4fbf 5b35 fb3d 7fe4 8b3c
00000200: d32b 833d 8cae 843e 0eef 9abe d3ad d23e
00000210: fb00 40be e9c4 193b e19a 1b3d 6cb1 803d
00000220: 37ad 10be 9ced 0b3f 0d22 ebbf f39d 683e
00000230: 91d5 26bd 2703 273f c5cf 31bf 5340 823f
00000240: 12db 3440 b6eb 543e 3450 91be ad31 3cbf
00000250: 6402 903f c0f6 87bf 935f 5fbf 39f3 99be
00000260: 0a8c 523e 1824 5a3d 2fc6 a7be 97a5 0c3f
00000270: b0a3 1b3e 8591 d33d 4569 893d ba61 4ebe
00000280: 3acc 7f3d ef74 cc3e c764 10be 1388 0cbe
00000290: 6f8b 27bd 1c14 f33d c51c 80be 5452 243d
000002a0: 8714 b13d 9ac5 80be 90f6 68be 5e1d 07bf
000002b0: 361f c73e f001 25bf e93b 0ec0 7c8b d2be
000002c0: eba8 7d3e 72b5 1e3f 9ff2 65bf df1d d93f
000002d0: 5503 1ac0 ba54 ba3e 58ea afbe 3429 473f
000002e0: 9583 77bf 71f4 0440 7d04 64bf bf6d 2d3e
000002f0: 199d c6bd 0a1e 4d3e cdc7 e3be 8976 373e
00000300: c774 b4bf 9176 353e bb9f 583d 230f be3e
00000310: 400e d5be 2bc6 233f 55be b13f 9cc5 9abe
00000320: fdf7 9a3e 53d0 0bbe 2af8 203f 1ba0 2fbf
00000330: 688a 5d3f 0ecc 12be 9214 65bd 9b48 0e3e
00000340: ab1a 053f c99d 2fbf 3777 833d 9757 eabd
00000350: a7bc 8b3d 1801 5c3e 05c2 c3be e5d2 dbbb
00000360: c149 fabf 99e2 343e a3b2 c43c 358d 033f
00000370: 9afc 39bf 70e5 ca3f 80ac 6d3f e0c3 82be
00000380: 65c6 6abe da2a 883e fba9 b23e 11bb 27bf
00000390: 4172 6fbf a960 3cbe 0bed b7bd 8090 133f
000003a0: fb28 9ebe 9c00 af3e 64d3 98bf 7908 7e3e
000003b0: fa9f a43e adb5 de3e a7ae e8be 9b8f 4c3f
000003c0: e750 7e3f 9f2f abbd 9fc5 38be 43aa 4fbf
000003d0: ca89 a43e 0988 1fbe 6386 3f40 1ad2 cc3e
000003e0: e6d5 c1be 9c82 5bbf 6a22 6f3f 9f6d a2bf
000003f0: 1a95 1cc0 6285 6e3e bb31 26be 17c7 783f
-2.1893332 0.026831746 0.06436722 0.3652842 -0.7660056 1.029829 -0.6741057 -0.06803417
-0.14755553 -0.09728088 -0.24645779 0.67143583 -1.187945 0.13805166 -0.3078247 0.3293669
-0.24892654 0.2179617 -0.51116395 0.12058919 -0.16276367 0.8033154 -0.46757936 0.25330687
-1.6639907 0.26982242 0.33532006 0.62264115 -0.39435542 0.759061 1.5389991 0.13193922
0.31161085 -0.28996083 0.83911866 -0.8074121 1.4831707 0.027677612 0.16388525 -0.40253204
0.6678899 -0.5213964 1.0697931 -0.03188471 -0.25078723 -0.3524361 0.376596 -0.49046952
0.5673565 0.12825586 -0.092238575 -0.43850872 0.7065032 0.1560251 -0.45674446 0.05194097
-0.23195961 0.0032419062 -0.43130395 0.116705425 0.96083665 -0.33140466 0.2258274 -0.29273763
0.43229142 -0.14573808 0.13804598 0.00053659413 -0.097146615 0.34174573 -0.4251922 0.10713501
-1.0043087 -0.028031662 0.2721637 0.33526623 -0.29700944 0.7040579 1.5447787 0.28646767
-0.23704354 -0.7201931 0.8026183 -0.43384126 -1.7409734 -0.21167773 0.14731681 0.06493263
-0.5692907 1.0448472 0.20859139 0.19020331 0.19453526 -0.3560196 0.087281436 0.12558691
0.6638621 -0.1974479 -0.004700846 -0.1581217 0.5051027 -0.7885949 1.1023597 -0.1553664
0.3161547 -0.19250718 0.5033659 -0.80741245 -2.6060855 -0.2539531 0.37141567 0.65841585
-0.5124402 1.6229811 0.9303603 -0.32783756 -0.2809769 -0.6507737 0.60268813 -0.5916445
1.3806578 -0.21596256 0.17437166 -0.036708295 0.61730015 -0.8097406 0.12266036 0.017076729
0.06404843 0.2591442 -0.3026051 0.41148242 -0.18750374 0.0023463315 0.0379895 0.062838405
-0.14128576 0.5465944 -1.8369766 0.22716503 -0.040731017 0.65239185 -0.69457656 1.017588
2.825871 0.20793042 -0.28381503 -0.735133 1.125073 -1.0622177 -0.8725521 -0.30068377
0.20561233 0.053257078 -0.3276839 0.5494017 0.1519916 0.1033049 0.06709532 -0.20154467
0.062450625 0.39932963 -0.14100944 -0.13723783 -0.04090446 0.1186907 -0.2502195 0.040117577
0.086464934 -0.25150758 -0.22750306 -0.52779186 0.38891 -0.6445608 -2.2224066 -0.41122043
0.24771468 0.61995614 -0.89823335 1.6962241 -2.4064534 0.36392766 -0.34358478 0.77797246
-0.96685153 2.0774195 -0.8906935 0.16936396 -0.09697933 0.2003099 -0.44488373 0.17916311
-1.4098138 0.1772101 0.052886706 0.37120923 -0.41612434 0.63974255 1.388621 -0.3022889
0.30267325 -0.13653688 0.6287867 -0.68603677 0.86539316 -0.14335653 -0.05592782 0.13894884
0.5199382 -0.68600136 0.06419223 -0.11442488 0.06823092 0.21484792 -0.38233963 -0.00670849
-1.9553758 0.17664565 0.024010962 0.5138734 -0.72651064 1.5851269 0.9284134 -0.25540066
-0.22927244 0.26595193 0.3489531 -0.65519816 -0.9353371 -0.18396248 -0.08980759 0.57642365
-0.3089064 0.34180152 -1.1939511 0.2480792 0.32153302 0.43497983 -0.4544575 0.79906625
0.993422 -0.083586924 -0.18044136 -0.81119174 0.32136375 -0.15579237 2.9925773 0.40004045
-0.37858504 -0.8574617 0.93411887 -1.2689704 -2.4466004 0.23293069 -0.16229908 0.97178787

critic.0.bias f4 [128]
00000000: 6b17 733d a755 f7bd 58bd aabe 052b 8c3e
00000010: a284 853e 36cc 163e ed1a 8f3d d124 783c
00000020: 1c71 7dbc 9419 47bd f602 243e 81a6 90bd
00000030: 5401 e23d bda1 2a3e acc0 a03e b695 a3bd
00000040: 0022 8bbd 1486 c23d 479e 24be c7e5 0bbe
00000050: 7c2e 4b3e 4de8 7bbe 3ef7 8fbe 64f2 33be
00000060: bab1 143e 8493 cbbe c7d3 b5be 0f55 ac3d
00000070: d719 953e fb24 913e 3df1 59bc b757 8a3e
00000080: 91d1 143e 684f 733e bb0b 28be e904 ea3d
00000090: 442d 91be c9fb c03e f4fe c5bc 5a2c 37be
000000a0: 0897 7e3e 57b3 ffbb b9e1 bebd d178 0dbe
000000b0: a52d 393e 45c5 68be 9a15 a9be 6f44 a03e
000000c0: fa2f b63e 6d58 df3d 4246 8a3e 5432 82bc
000000d0: a117 a5bd 7b8e 8dbe 20a4 81be 3ba3 933e
000000e0: b20e 963d 6b70 b63d b3fe 47be 4d8c 063e
000000f0: 5c16 d83e b2a1 573e 492d c8bd d8dd bf3d
00000100: bd20 7ebe c686 abbe 7803 fabd 85b3 163e
00000110: 75ba 0a3e 1e25 ad3e 946c b43c 0edf adbd
00000120: b407 933e 92b0 433d 5c00 29be 0c43 333e
00000130: 38a6 6a3d 5b75 0bbe 70ff 91be dc21 8d3e
00000140: 7bbd 993e ccc7 a1be 303a 23be e589 48be
00000150: 12ac 393e ce22 a13e 8f60 3dbe 9ead 163e
00000160: dc3e a8bd fe44 99be 740e 393d a3fc 2a3e
00000170: 4c37 84be 42ff 02be b9ef 1a3e b552 d33e
00000180: 0ddc 8bbe 7b12 90be d9cd 093e 6030 913e
00000190: 775f a73d 7e8b 8bbe f858 983e df36 a03d
000001a0: 365a 71be a488 84be a52c b4be 8177 943e
000001b0: 4d0e 1dbe 753d afbe 4dd2 eebd eeff 83bd
000001c0: dd60 9b3d ee95 da38 870d 8abe eaa5 4dbe
000001d0: 7776 bbbe b947 bebe e09a 293e 850f 5fbe
000001e0: d3b3 3bbe 2866 96bd d8c5 23be 179a 353e
000001f0: ef9b 4d3e 7ddf e73d 201b 03be c0c6 85bd
0.059348505 -0.12076884 -0.33347583 0.2737657 0.26077753 0.14726338 0.069875576 0.015145496
-0.015468862 -0.048608378 0.16016755 -0.07063008 0.110354096 0.16663261 0.31396997 -0.079875395
-0.06793594 0.094982296 -0.16076003 -0.13661872 0.19841951 -0.24600334 -0.28118318 -0.17572933
0.14520922 -0.39760983 -0.35513136 0.08414661 0.29121277 0.28348526 -0.013302145 0.27020046
0.14533068 0.2376076 -0.16410725 0.11426718 -0.28354847 0.37692097 -0.024169423 -0.17888013
0.24862301 -0.0078033614 -0.09320397 -0.13815619 0.18083818 -0.22731502 -0.33024293 0.3130221
0.35583478 0.10905538 0.27006727 -0.015893139 -0.080611475 -0.27647766 -0.2532053 0.28835472
0.07327022 0.08908161 -0.19530754 0.13139458 0.4220456 0.21057776 -0.097742625 0.09368485
-0.24817176 -0.3350126 -0.12207693 0.14716919 0.1354769 0.3381738 0.02202443 -0.0848981
0.28716815 0.047775812 -0.16504043 0.17506045 0.057287425 -0.13618986 -0.28515196 0.27564895
0.30027375 -0.31597745 -0.15940166 -0.19583853 0.18132046 0.31471866 -0.18493865 0.14714667
-0.082151145 -0.2993545 0.0451798 0.16697936 -0.25823438 -0.12792686 0.1513051 0.41274038
-0.27316323 -0.281391 0.13457431 0.2835722 0.08172505 -0.27254862 0.29755378 0.07822966
-0.23569569 -0.258855 -0.3519031 0.28997424 -0.15337487 -0.34226575 -0.116612054 -0.06445299
0.075868346 0.000104229766 -0.26963446 -0.20082822 -0.3661382 -0.37164095 0.16562986 -0.21783264
-0.18330316 -0.073437035 -0.1599344 0.17734562 0.20079015 0.11321924 -0.12803316 -0.06532049
