PPO/PPO3_Trained/PPO_DoubleInvPendulum_100K.pth (torch, 410281 bytes, 18 tensors)

actor.0.weight f4 [128, 6]
000000 d9 0e 27 3e cd fc b2 3e 5f d3 7d 3c 94 d7 fa 3e
       0.16314258 0.34958497 0.015492289 0.48992598
000010 ff 51 62 3e 4c 62 dd 3e 13 bb 00 3e 12 7a 04 be
       0.22101592 0.43239057 0.12571363 -0.12937191
000020 38 34 b4 3e 21 d9 bf be 04 ca 80 be 3a b7 4d be
       0.3519609 -0.37470344 -0.25154126 -0.20089427
000030 09 4f 04 bf 09 37 75 3d 76 1c a0 be 02 68 83 be
       -0.516831 0.05986694 -0.31271714 -0.2566529
000040 81 d1 34 3e 99 8d 96 3e 3e 4b b2 be 08 54 99 be
       0.17658044 0.29404905 -0.3482303 -0.29946923
000050 bb a0 fe bd 6f 32 0a be 98 94 f7 be 4a 1c a9 be
       -0.12433001 -0.13495801 -0.48355556 -0.33029395
000060 61 f7 e7 be 45 af a9 3e 5f a3 a4 be 53 07 03 be
       -0.45305923 0.33141533 -0.32155892 -0.12795763
000070 d0 e0 7f be 06 28 90 3e ee 34 d9 be d6 e5 95 be
       -0.24988103 0.28155535 -0.42423195 -0.29276913
000080 1a c4 d2 3d 03 4f 3d bf 4a 24 ab be 19 fc 9d be
       0.1029131 -0.7394869 -0.33426124 -0.30856398
000090 01 84 1e 3e bc 99 45 3e 8e d5 1e 3e 02 4c 6f be
       0.15480043 0.19296926 0.15511152 -0.23368838
0000a0 64 b1 97 be 59 04 76 be 0e 6f 0a bf c2 e0 c1 3d
       -0.29627526 -0.24025096 -0.54075706 0.09466697
0000b0 b4 94 83 3e 99 29 51 3e 2e ea ce be 27 3c d5 3d
       0.2569939 0.20426024 -0.4041304 0.10411864
0000c0 aa 91 1c bf f6 e2 90 be e8 58 75 3e 4b 9a 50 bf
       -0.61159766 -0.28298157 0.23959696 -0.8148543
0000d0 a5 eb 8e be 42 ba 07 bf 3d 8d 6c 3d 35 64 88 be
       -0.27914158 -0.5301858 0.057751883 -0.26638952
0000e0 28 64 29 be 90 2f 3b 3d 1f 91 25 be 15 b4 4f be
       -0.16542113 0.045699656 -0.1616864 -0.2028354
0000f0 12 df ce 3e c1 8d a7 be f6 b7 11 be c8 06 24 3e
       0.40404564 -0.32725337 -0.14230332 0.16018212
000100 e0 42 9a 3e 25 6d 06 be 9d c9 3b 3f 8e 51 0c 3e
       0.30129147 -0.13127573 0.7335451 0.13702986
000110 4d fb 7d be c2 8b 25 3f 5c 85 9d 3e 13 fd 95 3e
       -0.24802895 0.6466638 0.30765808 0.29294643
000120 a0 20 1c bd d1 92 50 3d 09 0e b4 be 54 ab 10 3e
       -0.03811705 0.050921265 -0.35166958 0.14127856
000130 e5 db a1 be 40 a1 e1 3c b0 62 4d 3f 12 1e 33 bd
       -0.3161308 0.02754271 0.8022871 -0.04372985
000140 ba c1 92 3c 5d 34 4a 3f 4e 5e ea 3e af 01 d4 3e
       0.017914642 0.7898615 0.45775074 0.41407534
000150 f4 7a 14 be d1 56 a4 3e 2d eb ab be 68 2b 77 3e
       -0.14500028 0.32097486 -0.33577862 0.24137652
000160 69 bf fe 3d 5f 76 e4 3e e6 5d 16 be c9 a9 41 be
       0.12438852 0.4462156 -0.14684257 -0.18912424
000170 66 5a 0a 3e b3 47 33 3f a4 3e 6b 3c 89 d5 bb bd
       0.13511047 0.7003128 0.014358196 -0.09171588
000180 ed 6a b5 3e ad 77 c1 be f6 e8 fe 3d 47 36 4c 3f
       0.3543314 -0.37786618 0.124467775 0.7977032
000190 e6 e1 99 3e cb ba bc 3e 35 a9 b4 3c 7d f3 b0 3e
       0.3005516 0.36861262 0.02205334 0.34560767
0001a0 d7 c2 53 3e 13 52 f2 be f0 66 c6 be 55 a6 ca 3e
       0.20679794 -0.47328243 -0.3875041 0.39580026
0001b0 b2 f4 d4 3b 11 5c 89 3d 3b 32 e5 3d f4 3a d3 bd
       0.0064988965 0.067070134 0.11191221 -0.10313979
0001c0 54 b1 fb 3c 64 9f ab be dc 3d 41 be ac 9b 84 3c
       0.030724205 -0.33520043 -0.18871254 0.016187511
0001d0 55 bc 6d 3e 34 59 b0 3e 1f 70 cd be c3 da 1c bc
       0.23216374 0.34443057 -0.40124604 -0.009573641
0001e0 33 d2 04 bf df 78 71 3e 10 6a 14 be ee 68 d4 be
       -0.5188324 0.23581265 -0.14493585 -0.41486305
0001f0 22 fe e4 be 11 e2 64 3e 04 d9 70 bd 17 84 bb be
       -0.44725138 0.22351862 -0.058800712 -0.36624214
000200 7b 81 21 be 88 ac 88 3d 3a 29 7e 3e ab 9f 89 3e
       -0.15772049 0.06673533 0.24820414 0.2687963
000210 d1 50 3a 3e 86 ef 8c be 2e a2 95 be ae c9 bc 3d
       0.18194892 -0.27526492 -0.29225296 0.09218155
000220 f7 84 03 be 47 ed c1 3e ef 79 82 be c1 ef fc bd
       -0.12843691 0.3787634 -0.25483653 -0.12350417
000230 16 85 94 be e5 22 fb bd f3 14 ac be 9c 49 fc be
       -0.29007787 -0.12262515 -0.33609733 -0.4927491
000240 bf ba a4 bd f9 a7 9a 3e b3 4f c4 bd 02 29 9f bd
       -0.080434315 0.30206278 -0.09585514 -0.077714935
000250 1a 8a 16 bd ea de 5f be c8 4e a6 3e 94 f3 53 3e
       -0.036752798 -0.21862379 0.3248198 0.20698386
000260 4b 07 b9 be 43 63 61 3f df 89 88 3e 63 23 d9 3e
       -0.36138377 0.88042086 0.26667687 0.4240981
000270 fc bc bd be a8 e9 83 3e 47 33 99 be 85 42 c3 bd
       -0.37058246 0.25764203 -0.29921934 -0.09534172
000280 24 43 2e bc 88 2f 70 3e 7f a7 44 be bc b3 5b be
       -0.010636125 0.23455632 -0.1920452 -0.21455282
000290 d5 a5 75 bd fc 98 90 be 00 d4 f5 be 96 cc 0c bf
       -0.059972603 -0.28241718 -0.48013306 -0.54999673
0002a0 c4 9b a5 be d8 5c 5d 3d 75 08 47 3e 22 0f f0 bd
       -0.32345402 0.05404362 0.1943682 -0.11721636
0002b0 d5 05 de be a3 d4 25 be 26 e5 a8 bd ed f7 57 be
       -0.43363824 -0.16194396 -0.082468316 -0.2109067
0002c0 74 63 18 3e af 83 ce 3e 12 0a 3c 3d 21 3b 34 3e
       0.14881688 0.40334842 0.04590804 0.17600681
0002d0 f1 6d 5f 3c 42 da b0 bc 58 c6 a0 be c7 bc 91 be
       0.013637052 -0.021588448 -0.31401324 -0.28464338
0002e0 51 d6 03 bf 35 b7 80 bd 54 ea d6 3e 45 b6 a1 bd
       -0.51498896 -0.06284944 0.41975653 -0.07896093
0002f0 64 63 ac 3e a0 ae 2c 3f 72 0e a6 3e 0f 00 b3 3e
       0.3366958 0.67453957 0.32432896 0.34960982
000300 83 eb b4 3e 49 2e 8b 3d 1c 5d be be 96 38 ea 3e
       0.3533593 0.067959376 -0.37180412 0.45746297
000310 4e fc 3e 3e 30 e8 ef 3e 59 f7 e0 be 6c dc 00 bd
       0.18650934 0.46856833 -0.4393871 -0.03146021
000320 09 a4 9e 3e 24 f4 b7 3d 1a 89 96 be b0 f1 94 be
       0.30984524 0.08982113 -0.29401475 -0.29090643
000330 17 be 37 3e ea ca 86 3d 0d fa b8 3e c6 2b a3 be
       0.17943607 0.065816715 0.36128274 -0.31869334
000340 03 d1 30 3e c6 e3 38 3d 3e 99 44 bf 0d f8 b4 3e
       0.17267232 0.045139097 -0.7679633 0.35345498
000350 f4 4f 9f be 9f 50 4a bf 6f b0 d8 be 54 a3 ec be
       -0.31115687 -0.7902927 -0.42322108 -0.4621836
000360 d8 3d 65 3e 4b ca 5d bc 8e 10 32 3e 4e 35 77 bd
       0.22386873 -0.013537 0.17389128 -0.06035357
000370 4e 2b 35 be e4 aa 76 bb c8 68 a3 3e c6 c5 fd bc
       -0.176923 -0.003763848 0.3191588 -0.030978095
000380 dc 89 bd 3e 0a 0b ca 3e 53 fb f1 3e df fe da 3d
       0.3701924 0.39461547 0.47262058 0.10693144
000390 04 2f 7a 3e 70 a3 aa 3d be ea 15 bd 28 b2 40 3f
       0.24431998 0.083319545 -0.03660082 0.75271845
0003a0 a8 39 5d 3e 7a 19 c4 3e 17 0c b7 3d c3 ff 62 be
       0.21604025 0.38300687 0.08937853 -0.22167878
0003b0 30 50 9e 3e cd 24 d1 be e7 51 1b be cb 5d 64 bd
       0.30920553 -0.4084839 -0.15167962 -0.05575351
0003c0 88 5f f3 be 45 ae 14 3e bb eb 57 be 19 bc 07 bf
       -0.47533822 0.14519604 -0.21086018 -0.5302139
0003d0 37 73 8f be 87 95 f5 bd b4 23 e1 be 05 9a a3 bd
       -0.2801759 -0.11991411 -0.43972552 -0.07988361
0003e0 75 4d 86 be e4 ca 3b be f9 f6 d7 be 2f 32 b7 be
       -0.2623097 -0.18339115 -0.42180613 -0.35780475
0003f0 45 de 0e 3f ba 1c a7 bd d7 49 8a 3e 44 94 18 3f
       0.55807906 -0.08159776 0.2700946 0.59601235

actor.0.bias f4 [128]
000000 61 b8 34 be e7 90 ba be 9f 10 b2 bd 3b 3d 62 3e
       -0.1764846 -0.36438677 -0.086945765 0.2209367
000010 e1 60 8b 3e 17 46 a1 3e 54 22 af 3e cc ec 8e 3c
       0.2722235 0.31498787 0.34205878 0.017446898
000020 69 51 04 be 54 dc 81 bd da 45 d5 3d f8 be 34 3e
       -0.1292168 -0.063408524 0.10413714 0.17650974
000030 6a 81 af be 87 61 9b 3d d3 3a 62 bd 61 88 53 bd
       -0.34278423 0.07586961 -0.05523188 -0.051643733
000040 f2 df 98 3e ce 42 9f 3e 69 87 a0 3e d8 86 9f 3e
       0.29858357 0.31105655 0.3135331 0.31157565
000050 79 48 12 be 51 31 31 be dc 00 4a 3e a2 c3 d3 bc
       -0.14285459 -0.17303969 0.1972689 -0.025850121
000060 e8 01 35 be c4 00 84 3e 42 4c 26 3d 82 21 34 3e
       -0.17676508 0.25781834 0.04060007 0.17590907
000070 de d6 09 bd 03 c3 95 3c cb f5 99 3e bc b9 04 3d
       -0.03365218 0.018281465 0.30070338 0.032403693
000080 b7 e5 37 be 69 f9 6d 3d 2f 73 b1 3e b5 e6 3b be
       -0.17958723 0.058099184 0.3465819 -0.18349726
000090 fd a0 bf bb 5f a4 25 be 2b ee 45 3e 40 01 78 3e
       -0.0058480487 -0.16175984 0.19329135 0.24219227
0000a0 28 c4 25 be f6 1c 58 3d 17 cf 0e be e8 0a 37 be
       -0.16188109 0.052761994 -0.13946186 -0.17875254
0000b0 c9 0b 53 3d 1b cb 4d be 61 df 9f 3e 11 6d 82 be
       0.05152491 -0.2009701 0.31225112 -0.25473836
0000c0 14 79 86 3d bc c6 8f be 10 f2 2e be 18 be 99 be
       0.065660626 -0.2808131 -0.17084527 -0.30027843
0000d0 d0 fd b6 bd ee f7 23 3e db 9a af 3e 03 79 db bd
       -0.0893513 0.16012546 0.34297833 -0.107164405
0000e0 d5 4a 8a be 7b 8e be be 05 d1 40 be e1 01 27 be
       -0.27010217 -0.3721808 -0.18829735 -0.1630931
0000f0 b0 a8 c2 3e ba 4a 6b be a5 55 5b 3d 3b e8 1d 3c
       0.38019323 -0.22977725 0.053548474 0.009637888
000100 17 1d bd be c8 e5 a9 3e ea 69 19 3e b2 6d e1 bd
       -0.36936256 0.33183122 0.1498181 -0.11007251
000110 d8 5a cd 3d 1d 06 31 3e 56 51 aa be a5 7d b8 3e
       0.10027093 0.17287488 -0.3326518 0.3603336
000120 6e 00 a4 be 40 9b ae be c0 fd 10 3e b4 65 b5 3e
       -0.32031578 -0.3410282 0.14159298 0.35429156
000130 ee b9 bd be 57 80 b3 3e 70 53 ce 3c 1f 91 ac bc
       -0.37055916 0.35058853 0.02518627 -0.021065293
000140 4e 1e 8a 3e f0 e6 65 be 9d 8d 6e 3e 07 e3 39 bd
       0.26976246 -0.22451377 0.23296209 -0.045382526
000150 b7 28 83 be 85 1b 21 be 32 db 99 3e a6 1d 4b 3e
       -0.25617 -0.15733154 0.30050045 0.19835529
000160 de ac 3b be c4 84 62 3e 46 b8 13 bd 6e ca 66 3e
       -0.18327662 0.22120959 -0.03606441 0.22538158
000170 d2 d3 d1 bd 42 0a c5 3d 77 74 89 3e 3a e7 83 3e
       -0.1024548 0.09621097 0.26846668 0.2576235
000180 29 14 86 3c eb 62 c9 bd 23 c2 d1 3d f8 d1 a6 3e
       0.016367035 -0.0983332 0.10242107 0.32582068
000190 48 cf 4d 3e 3f 55 34 3e d0 9b 37 3e 3d 5b 5d be
       0.20098603 0.17610644 0.17930532 -0.21616836
0001a0 15 39 ad 3e 9e 8a 49 3e 18 a0 31 be 39 b1 a2 be
       0.33832613 0.19681785 -0.17346227 -0.31775835
0001b0 6a a5 90 3c 29 65 d5 3d 8e 1f 1e be 39 0a 9f 3c
       0.017657 0.104196854 -0.15441725 0.019414054
0001c0 46 d2 11 be eb 0b 6c be e8 37 ce 3d 01 18 69 bd
       -0.14240369 -0.23051421 0.10069257 -0.056907658
0001d0 43 10 8a bc 18 83 4a be 67 d7 7a be e7 63 36 3b
       -0.016853457 -0.19776571 -0.24496232 0.0027830543
0001e0 d9 d3 a0 3d e8 da da bd 92 61 99 be a4 f4 84 3c
       0.07852907 -0.10686284 -0.29957253 0.016229935
0001f0 52 86 a1 3e ab 08 06 3e 02 78 f2 bd 10 70 63 3e
       0.3154779 0.13089244 -0.11839296 0.22210717

actor.2.weight f4 [128, 128]
000000 5d 0f 18 bd c4 dc d3 bc f3 59 97 bc d4 9f c4 bd
       -0.037124027 -0.025862105 -0.018475508 -0.09600797
000010 5b 96 02 bd 7d 5c e8 bd 75 a9 28 bd 93 25 9b 3d
       -0.03188167 -0.11345766 -0.04117723 0.07575526
000020 bf 73 dc bd ee cc 9c bb 3f d5 74 3d 44 c7 75 3e
       -0.10764264 -0.0047851717 0.05977368 0.24001795
000030 bd 50 1b 3d fd d8 46 3e a9 0e 4a bd 89 59 ef 3c
       0.037918795 0.19418712 -0.049330387 0.029217498
000040 cc 60 02 bd 80 fa d7 bc c7 b2 81 bd bd 54 86 bd
       -0.031830594 -0.026364565 -0.06332927 -0.06559131
000050 c7 f8 3d bd a3 0c 6b 3d 06 5e 18 3d 54 56 5f 3d
       -0.04637983 0.0573851 0.037199043 0.05452569
000060 7e dc ae ba 13 5b 92 3e 80 1a a8 bd 7d a7 1e bd
       -0.0013340858 0.2858511 -0.082081795 -0.038733948
000070 85 86 8c 3b da 08 b5 3c d4 24 06 bd fa 60 32 3d
       0.004288497 0.022098947 -0.032749966 0.043549515
000080 65 97 86 3d ea af 39 bd 82 8f 94 bb d5 80 18 be
       0.06571845 -0.04533378 -0.004533709 -0.14892896
000090 cb af 5e 3d d8 9e 81 3a 76 4d 03 3d 12 99 52 bd
       0.054366868 0.0009889258 0.032056294 -0.05141551
0000a0 5f fb 59 3d 70 cc 8d 3d af f7 2d bd 73 aa ae 3d
       0.05321824 0.06923759 -0.042472538 0.08528604
0000b0 e9 2e 44 bd 7b dc a9 bd f3 b5 27 3d 52 93 06 3d
       -0.0478963 -0.082940064 0.040945005 0.03285534
0000c0 73 86 ad 3d 79 8b 78 bd b7 bb b0 bd 83 02 70 bd
       0.0847291 -0.060679886 -0.08629554 -0.058596145
0000d0 fa 6a f9 3b 6d f1 95 bd 22 40 ef bb 53 5c 84 3d
       0.0076116296 -0.07321439 -0.0073013464 0.06462922
0000e0 e2 62 8b bc d3 31 e8 3b 63 78 a5 bd b9 db c8 3d
       -0.017014924 0.0070860176 -0.080796026 0.09807534
0000f0 f3 d9 b2 ba 62 c5 2d bc eb d2 af bd 51 d8 a2 3c
       -0.0013645276 -0.010606142 -0.08585151 0.019878538
000100 59 81 f5 bc 9f b8 63 3c a3 01 99 3b 82 2b 3f bd
       -0.029968904 0.013898998 0.0046693846 -0.04667235
000110 0c d8 03 bd 59 b3 03 3d 18 da df bc 77 cc 78 3d
       -0.03218846 0.03215346 -0.027325675 0.060741868
000120 ff 39 4f bd 0f 2c c7 bd e8 10 90 3d 4b 63 91 bd
       -0.05059242 -0.097252004 0.070344746 -0.07099017
000130 14 f9 d9 bd ac 32 67 3d d6 da 6d bd 6b 49 8d bd
       -0.10643211 0.05644481 -0.058070026 -0.06898769
000140 84 3f 82 bd 6b 87 2f 3c fa 7f a0 3b 57 a9 16 3d
       -0.06359771 0.0107134385 0.0048980685 0.03678259
000150 e0 5c 64 bd cc 94 fa 3b 76 1c 54 3d a5 fb 72 bc
       -0.055752635 0.0076471325 0.051784955 -0.014830505
000160 02 7a 0a bc a8 cc 21 bd 5f 4d 00 3d 7e d7 83 bd
       -0.0084519405 -0.039501816 0.031323787 -0.06437586
000170 5e 60 31 3d de 1c af bd 39 e9 88 3d 0e 09 1c bd
       0.043304794 -0.08550428 0.06685109 -0.038094573
000180 37 ad 50 bd 14 13 8a bd 10 27 7e 3d c3 c8 8b bc
       -0.05094644 -0.0674192 0.06204897 -0.017063504
000190 46 ab 0f 3c d8 bd f0 3c a4 03 a0 3d 25 66 3d 3d
       0.008768862 0.0293874 0.078131944 0.04623999
0001a0 04 f7 d1 bc 0f 6a ae 3d 88 be aa bd c0 65 12 bd
       -0.025630482 0.08516323 -0.08337122 -0.035741568
0001b0 fd 19 a4 3d 7b 2d d8 3c f3 a4 36 bd e1 ef 52 bd
       0.08012769 0.026388874 -0.0445909 -0.051498298
0001c0 6f cf 85 bd 1e 01 86 3d dd 63 98 3c eb 20 95 bd
       -0.065337054 0.06543182 0.018602306 -0.07281669
0001d0 24 2f df 3c d7 4c ef 3c 06 b8 1f bd 7f aa e4 bc
       0.027244158 0.029211445 -0.038993858 -0.02791333
0001e0 9f 7e 1f 3d 83 fd 91 bc c4 70 8b 3d e5 8c 01 3e
       0.038939115 -0.01782108 0.06808618 0.12651403
0001f0 5c c5 32 3d 38 26 25 3e 65 80 a6 bd a9 21 3c bc
       0.043645248 0.1612786 -0.08129958 -0.011482635
000200 29 0d 3b bb 6c b4 90 3c ee b5 46 3d 18 a5 47 bd
       -0.002854178 0.017664157 0.048513345 -0.04874143
000210 67 bf 42 bc 6b f5 a7 3d f4 55 b2 3d 64 be ae 3d
       -0.011886454 0.08201107 0.087078005 0.08532408
000220 8e d9 6f 3d 4c e9 a0 bd 15 0e 73 3d dc 9e 4a be
       0.058557086 -0.07856998 0.0593396 -0.19787163
000230 cb 41 5c 3d e0 53 26 be a0 ef cb 3c 06 5d 1e bd
       0.053773683 -0.16242933 0.024894536 -0.038662933
000240 88 5e dd bd 64 bc d6 bb 81 aa 2e 3d 92 b3 82 3d
       -0.10809046 -0.0065532196 0.042643074 0.063819066
000250 44 ad 1a 3e e6 c7 43 3d dc 15 e2 bc f3 f8 9e 3c
       0.15105158 0.04779806 -0.027598314 0.019405818
000260 bd 3a 53 bc 96 b8 5f be fc 7f 87 bb 32 c1 75 bd
       -0.012892422 -0.21847758 -0.00413513 -0.0599987
000270 4f 3f 96 bc 00 27 93 bc a4 56 b0 bc 25 ba 67 bc
       -0.018340735 -0.017962933 -0.021525688 -0.014143501
000280 37 e7 5e bd d5 d7 99 bd e2 20 f5 3c 15 77 b7 3d
       -0.054419722 -0.0751187 0.029922906 0.0895826
000290 c0 41 03 bd cd 44 4e 3d c6 e8 11 3d 47 53 3e bc
       -0.032045126 0.050358582 0.03562238 -0.011616535
0002a0 10 df 81 3c 6c b5 91 3d a6 99 1b bc 55 e8 9c bd
       0.015853435 0.071146816 -0.009497082 -0.07661501
0002b0 0f b5 98 3d f5 07 31 3d 08 30 b9 3d 48 a8 86 3d
       0.07456409 0.04322048 0.09042364 0.06575066
0002c0 92 77 71 bd 3b 47 0d bc 67 ad 7c bb a2 34 09 3a
       -0.05895192 -0.00862294 -0.0038555504 0.0005233978
0002d0 cc e6 66 bc 1c 1c 25 3b df 75 6a bd dc 66 49 bd
       -0.014093112 0.0025193756 -0.057241317 -0.04917036
0002e0 dd 4a 09 bd 3c ee bd bd a0 c9 c5 bc 82 60 87 bd
       -0.03351866 -0.09273955 -0.024143994 -0.06610204
0002f0 d1 1f de bc 83 72 ab 3d 96 30 d6 bc 71 6b c4 3d
       -0.02711478 0.08371451 -0.026146214 0.09590805
000300 25 d6 b1 bd 6c 0d 9d 3d 38 39 2b bd 77 2e 26 bc
       -0.08683423 0.07668576 -0.041802615 -0.010142914
000310 54 e0 46 3d 9d d5 63 bd ac 0b 06 3d 4e 9f 27 3d
       0.04855378 -0.05562364 0.032725975 0.04092341
000320 07 5a 47 bd b6 bc 79 bc 21 b6 76 3d 63 0c 85 bd
       -0.04866984 -0.015242746 0.060232285 -0.06496503
000330 37 74 a3 3d 0b 6e ab bd 0d 07 be 3c 70 a8 28 3d
       0.079811506 -0.083705984 0.023196721 0.04117626
000340 d7 ff 4f 3d 7a 40 a0 bd ff c4 be 3c 7c a5 aa bd
       0.050781097 -0.07824798 0.023287294 -0.08332345
000350 ad e2 6d bd 3e e7 5e bd 74 e0 30 bd 6e 5a 09 ba
       -0.058077503 -0.05441975 -0.043182805 -0.00052396103
000360 49 f4 67 bd fb 94 9a bc 62 c0 1a bd 4c 83 e5 ba
       -0.056629453 -0.018869868 -0.037781127 -0.0017510443
000370 53 e7 be bc 4c 4e 2a 3b df 3e a8 bc fa c7 89 bd
       -0.023303663 0.002598661 -0.020537792 -0.067275956
000380 54 d3 be bd 3f 30 da 3c 28 04 7d bd 16 44 a2 3a
       -0.093176514 0.026634334 -0.06177154 0.001237991
000390 49 46 d8 3c 59 d8 d0 3c 11 e3 82 bd 96 d1 94 3c
       0.026400702 0.025493788 -0.06390966 0.018166345
0003a0 4b cd b2 3d a3 d3 20 bc 30 74 05 3d eb 29 51 3d
       0.08730563 -0.009816083 0.03258151 0.051065367
0003b0 e0 8b ce 3c 8a 5d c3 bc ac 6d 94 3d 2e cf d6 3c
       0.025213182 -0.023848314 0.07247481 0.026221838
0003c0 5d f7 46 3c 42 88 9c bd 10 ce 97 3d eb d8 16 bd
       0.012143937 -0.076431766 0.0741235 -0.036827963
0003d0 65 56 72 bb 75 c3 6f bd 09 c2 f3 3c 8f 37 74 3d
       -0.0036977765 -0.05853601 0.02975561 0.059623297
0003e0 bd a1 7e 3d b1 dd bf bc a4 ac 86 3c db 98 9d 3a
       0.062165964 -0.02342114 0.016439743 0.0012023704
0003f0 98 fa 8f 3d a6 e6 ae bd e4 7e 65 3b 35 7f 6f 3d
       0.07030219 -0.085400864 0.003501826 0.058470923

actor.2.bias f4 [128]
000000 31 cb 2e bd 50 0e 1c 3d 23 30 a7 3c 15 27 ac 3c
       -0.042674247 0.038099587 0.020408696 0.02101473
000010 71 c5 60 bd c3 b8 e9 bc 6c 13 b0 3c b8 5b 8e 3d
       -0.054875795 -0.028530484 0.021493636 0.06951088
000020 03 e4 12 3d 65 81 62 bc 33 18 23 bc b0 66 b3 3d
       0.03586198 -0.013824795 -0.0099545 0.087598205
000030 4d 3d 97 3d 85 f3 85 3d 76 33 7f bb 4c 83 0a 3d
       0.07384739 0.06540588 -0.0038940585 0.03381662
000040 a3 cd 3f 3d bb 4d 23 bd 83 f0 cb 3c cb 0d ac 3d
       0.04682697 -0.03986905 0.024894958 0.08401068
000050 59 44 63 bd 68 04 ad 3d af 9b a0 bd 03 97 4b bc
       -0.055485103 0.08448106 -0.07842194 -0.012426141
000060 7a a1 a4 bc f8 4f f5 bc fc 00 21 3d 86 11 80 3d
       -0.02009653 -0.029945359 0.03930758 0.06253342
000070 90 11 63 bd 22 24 3a 3d e4 61 a3 3d 22 58 89 3d
       -0.05543667 0.045444615 0.079776555 0.06706263
000080 55 f0 40 bd 18 d0 12 bc 3e ac e8 3c 2e 8a 24 bd
       -0.0471042 -0.008960746 0.028402444 -0.04017084
000090 87 03 55 3d 1d a6 a6 bd 5c 42 03 3d d1 2a 88 bd
       0.052005317 -0.08137152 0.032045707 -0.066487916
0000a0 aa 58 0e 3d d1 cf 5a bd 34 31 98 3c af 75 fb bc
       0.034752525 -0.053420845 0.01857815 -0.030695764
0000b0 b8 fc b1 3d 6c f3 7a 3d 24 bc 3a bd d9 a0 c8 bc
       0.086907804 0.0612673 -0.04558958 -0.02449076
0000c0 d8 88 87 3d 45 67 29 bd ec 2b 7c 3d 39 a2 44 bb
       0.06617898 -0.04135825 0.061565325 -0.0030003919
0000d0 1d 46 43 3d f9 ae 8a 3d 29 8b 43 bd 13 42 58 3a
       0.047674287 0.06771655 -0.047740135 0.0008249592
0000e0 c8 48 a2 3d 31 16 a2 3d 5d 95 85 3d d5 7c 38 3d
       0.07924038 0.07914389 0.065226294 0.045040924
0000f0 f5 e8 17 3d 75 14 9e bb ff 86 8c bd f6 db af bc
       0.0370874 -0.004824216 -0.06861686 -0.02146719
000100 2d 22 69 3d 2a ed 9c 3c 6c 6c 36 bd d2 8b 8d bd
       0.05691736 0.019156057 -0.044536993 -0.06911434
000110 5a 50 b6 bc 6c d3 9c 3d 3a 87 9c 3d 9a 68 17 3d
       -0.022255111 0.07657513 0.0764298 0.03696499
000120 3d f6 a2 3c e2 88 1c bc 75 29 a4 3c 8d c6 0e 3d
       0.019892806 -0.00955412 0.0200393 0.03485732
000130 74 59 5b bd b8 c3 38 3d ca ec c6 3c 4e 42 05 bd
       -0.053552106 0.045108527 0.024282832 -0.032533936
000140 15 62 a2 bd 50 05 24 bc 1a e1 83 bb 37 a6 71 3c
       -0.07928864 -0.010011032 -0.004024637 0.014749101
000150 3a b8 02 3d ee 68 d0 3c 97 50 ef bb e2 a5 c8 3a
       0.031913973 0.02544066 -0.007303308 0.0015308226
000160 c6 a2 8c 3d a9 6a 2a bd aa 9b 81 3d b1 09 98 3b
       0.06866984 -0.041605625 0.06328519 0.004639827
000170 23 ac 0b bd c7 cd b3 3d 24 fe aa bc c6 e7 04 3c
       -0.03409971 0.08779483 -0.020873137 0.0081119
000180 80 1e 2d 3d 34 b1 8c 3d e2 27 4a 3d 81 15 a1 bb
       0.042265415 0.06869736 0.04935444 -0.0049158935
000190 3e 13 8e bd 0d bd 14 3d e8 d2 bc bd b8 25 c0 bb
       -0.06937264 0.036313105 -0.09219915 -0.0058638714
0001a0 05 6d 33 3c bf 8b 1a 3d 9e 03 a1 bd 71 6e ed bc
       0.010951285 0.03773093 -0.07862018 -0.028983327
0001b0 5e 98 f4 bc fd 2f 97 3d f7 60 98 3d 13 75 8d 3d
       -0.02985781 0.073822 0.074403696 0.06907096
0001c0 03 ed 72 bd 3b 73 76 bd b8 a2 c1 3c 67 d9 97 3c
       -0.059308063 -0.060168486 0.02363716 0.018536283
0001d0 70 94 35 3a c7 ea 8d 3d a7 c8 82 bd ee d3 76 bd
       0.0006926721 0.06929546 -0.06385928 -0.060260706
0001e0 80 1b 4b bd c0 58 64 3d e5 a7 2c 3d 7b fa 67 3d
       -0.049586773 0.0557487 0.042152304 0.05663536
0001f0 4e e6 c3 bc 0e dd c3 3c b5 56 b5 3d 4a ae be bc
       -0.023913529 0.023909118 0.08854429 -0.023276467

actor.4.weight f4 [128, 128]
000000 a7 97 0f bd 92 4d 91 bd 60 09 d6 bc 0b b2 5b bd
       -0.035056736 -0.070948735 -0.026127517 -0.053636592
000010 db dc 90 3d 56 e5 66 3b 15 9a 33 3d 64 74 f0 bc
       0.07073375 0.003523191 0.043848116 -0.029352374
000020 89 2f 78 bd ab ea 3d 3b 5f f7 90 bd 9b 86 2b bd
       -0.060592208 0.0028978984 -0.07078432 -0.041876417
000030 82 a2 bf 3b e1 38 ff bc c7 c9 b0 bc 46 fc 91 3d
       0.00584823 -0.031155052 -0.02158059 0.071281955
000040 f3 75 03 bd f5 d3 9f bb 8b 4c 48 3d 54 f4 1a 3d
       -0.032094907 -0.004877562 0.048901122 0.037830666
000050 f9 92 fd bb 18 ed 3b bd ea b0 f7 3c 33 a3 d3 bc
       -0.007738468 -0.045880407 0.030235726 -0.025834655
000060 74 88 63 bd f8 2d dd 3b aa 6e 16 bb 49 fa 19 3c
       -0.055550054 0.0067498647 -0.0022954145 0.009398052
000070 12 7a 77 bd a8 67 5f 3d c0 1d 05 bd e0 66 1a bd
       -0.06041915 0.054542214 -0.032499075 -0.037695765
000080 68 fe 1c 3d 9e 26 7c bd 1f 07 03 3d 88 11 a8 3c
       0.03832856 -0.061560266 0.031989213 0.020516172
000090 82 23 01 bc e6 7e 5d 3d 3b 9c a1 3d 77 98 25 bd
       -0.007882001 0.054076098 0.07891127 -0.040428605
0000a0 d4 4f 0c bc 70 93 84 3c f3 cf 70 bd 8f 8d e7 3c
       -0.008563954 0.016183585 -0.058792066 0.028265743
0000b0 1b b4 99 bd fd b3 10 3c 17 36 2c 3c 34 e2 b6 3d
       -0.075050555 0.008831975 0.010510943 0.089298636
0000c0 c7 f6 36 bd 6a 52 14 bd 43 c0 7b 3d b0 08 e7 3c
       -0.04466894 -0.03621141 0.061462652 0.028202385
0000d0 47 76 86 3d 7a c8 64 bd a3 db 78 3c 9f 82 e9 3b
       0.06565528 -0.05585525 0.015189084 0.007126167
0000e0 2c 72 b7 bd b0 d8 e2 bc 05 fc d2 bc d0 70 91 3b
       -0.089573234 -0.027691215 -0.025754938 0.004438497
0000f0 55 a6 14 bd c2 b0 b1 bd 4b e1 f9 3c 19 17 a8 bd
       -0.03629144 -0.08676292 0.030502936 -0.082075305
000100 87 89 43 3d 50 ec 05 3d 02 0a 2d 3d 7a ae 60 3d
       0.04773858 0.03269607 0.042245872 0.054853894
000110 26 8f 95 3d 67 d5 31 3c a7 f7 a7 3d 93 2d af 3c
       0.07302694 0.010854102 0.08201533 0.021384036
000120 97 4f 01 3c 1d 84 9f bd 0c fe 61 bd 2b 81 5c bd
       0.007892511 -0.077888705 -0.05517392 -0.05383412
000130 11 9b 99 bc c7 98 d2 bb a0 a3 73 bc 4e d8 9a bd
       -0.0187507 -0.006426904 -0.014870554 -0.07560788
000140 ee 42 3d 37 36 d4 f2 bc d1 8d 3c bd cf ee a0 3d
       1.1280861e-05 -0.029642206 -0.046033684 0.07858049
000150 b5 c1 17 3d 71 c7 ed bb 4d 53 aa 3d da 3e 95 bc
       0.037049968 -0.0072564413 0.083166696 -0.018218447
000160 46 3f 82 3d bc 6a c9 bc 76 ca 2b bb e3 97 46 bd
       0.06359725 -0.024587028 -0.0026213205 -0.048484694
000170 b8 13 3e bd dd df 98 bd 19 a8 58 3d dc f9 a0 bd
       -0.046405524 -0.074645735 0.052894685 -0.07860157
000180 01 ee 61 bd 45 78 25 bd 16 d9 15 bd 8b 3d 7a bd
       -0.05515862 -0.0403979 -0.036583982 -0.06109385
000190 ab 7f 91 3c df 01 82 3c d9 c0 7e bb 62 09 46 bd
       0.017761072 0.015870033 -0.003887227 -0.048348792
0001a0 21 26 aa 3c 96 2e 89 3d a9 0c 61 bd 4c d8 83 bd
       0.020770134 0.06698339 -0.054943714 -0.0643774
0001b0 29 06 a8 3d dd e6 f5 3c df 66 a8 bd a3 01 82 3d
       0.082043 0.03001731 -0.08222746 0.063479684
0001c0 ed f4 7e bd 73 2f b8 3c f6 d6 13 bd c1 b8 46 3d
       -0.0622453 0.022483563 -0.036093675 0.04851604
0001d0 a0 7c 57 bc 9e 5c 04 3d 95 67 24 3d 17 a4 a3 bb
       -0.0131522715 0.03231489 0.040137846 -0.0049939263
0001e0 b9 4a b4 bd 65 75 8c 3d 5d 50 95 3b 6e d8 71 bd
       -0.08803315 0.06858329 0.004556699 -0.059044294
0001f0 56 2a 70 3d ac a9 45 ba f6 86 b4 b9 8f 8b 62 bd
       0.058634125 -0.00075402367 -0.0003443283 -0.055308875
000200 6d 1a b6 bc 6a d0 ac bc 10 24 9c bd 86 18 4a bd
       -0.022229398 -0.021095473 -0.07624066 -0.049339794
000210 fa 56 ea 3d d8 35 1e 3d 64 aa 61 b9 b8 d6 48 bd
       0.11442371 0.03862557 -0.00021521148 -0.049032897
000220 0f 54 94 3d 41 c0 40 3d 47 04 8e 3d b2 52 eb bc
       0.072425954 0.047058348 0.069344096 -0.028725956
000230 77 31 70 bd 78 06 77 bd 78 84 d0 bc fa c4 30 3d
       -0.058640923 -0.060308903 -0.025453791 0.0431566
000240 b2 33 a8 3c ba 5f 46 3d 9e f5 3a bd 06 22 1b bb
       0.020532463 0.048431136 -0.045644395 -0.0023671403
000250 f7 96 01 3c 5d 74 52 3d 09 bc 15 3d be 59 42 3c
       0.007909528 0.051380504 0.036556277 0.0118622165
000260 50 1c 65 bd 56 0c fd bc 14 25 0e 3d 1e 06 78 3d
       -0.055935204 -0.030889671 0.03470333 0.06055271
000270 2b 07 90 bd e2 85 81 3d 82 44 aa 3c 98 04 91 3b
       -0.07032617 0.06324364 0.02078462 0.0044255964
000280 1c 64 2f bd f9 86 52 3d c1 4b a0 3d eb 0e ce 3c
       -0.04282008 0.05139825 0.07826949 0.025153598
000290 5f f6 e8 bc ef 46 ac bd 9a 83 9a bd 96 16 63 bd
       -0.028437791 -0.08411967 -0.07544632 -0.05544146
0002a0 a0 23 91 bd c1 b1 74 3b 5c 15 7c 3d 0c a9 45 bd
       -0.07086873 0.0037337395 0.061543807 -0.04825692
0002b0 2f 25 42 bd 3a 5d 64 bd 64 93 81 3a 95 16 f3 3d
       -0.047398742 -0.05575297 0.0009885845 0.118695416
0002c0 a0 72 18 bd 82 de 80 3d 46 45 a2 3c aa a6 47 bd
       -0.03721869 0.0629244 0.019808423 -0.048742928
0002d0 42 47 18 3d e3 cb 5a 3d 8b b2 74 bd 5c 42 99 3d
       0.03717733 0.053417098 -0.059740584 0.0748336
0002e0 ef 73 ea 3b 2d 1d f5 3c 3d f4 53 bd ce d1 9d bd
       0.0071549336 0.029921139 -0.051746596 -0.07706033
0002f0 ea 17 be bd bc 71 36 3d 1a 48 6f 3d 8e 22 3b bd
       -0.09281905 0.04454206 0.05841837 -0.04568725
000300 a9 2a 83 3d 77 86 96 bc 5c 13 d5 3d 69 4c b7 bd
       0.06404621 -0.018374665 0.10404083 -0.08950121
000310 9b 99 15 bd 0f 04 f2 3d 2b 96 b6 3d f3 4d 68 bc
       -0.036523443 0.1181718 0.08915361 -0.014178741
000320 73 e8 6c 3d f6 b3 1d bb d1 d3 11 3c a8 5a 13 bc
       0.05783887 -0.0024063564 0.008900599 -0.008993782
000330 60 54 80 3d 0f 3d 7b 3c a2 af b7 3d b6 ac bb 3c
       0.06266093 0.015334382 0.08969046 0.022909503
000340 aa 52 26 bb 63 91 3a 3d 00 04 f5 3b 43 22 99 3c
       -0.0025378861 0.045548808 0.0074772835 0.018693095
000350 f3 88 ba 3d 43 58 a1 bd 90 8c 35 3d 2b 0e 1e 3c
       0.09108152 -0.07878163 0.044323504 0.009646933
000360 00 17 74 3d 40 21 7c 3d 82 82 30 3d c0 1a fc bc
       0.059592247 0.061555147 0.043093212 -0.030774474
000370 c6 ee ab bd 2b 68 02 3d af 49 41 bd be e1 0c 3c
       -0.08395152 0.031837624 -0.04718941 0.008598743
000380 b7 9d b9 bc 4c ab 60 bd 14 91 d5 3c 69 06 bb 3d
       -0.022658212 -0.05485086 0.026070155 0.09132082
000390 fe 31 61 bd ee 41 12 bd bf dd 7e 3d f4 5a 76 3d
       -0.054979317 -0.035707407 0.062223192 0.060145333
0003a0 81 a9 73 3d b6 43 e6 bc 17 f9 a6 3d db d9 9a 3d
       0.059487823 -0.028108459 0.08152979 0.07561084
0003b0 53 a9 1f 3d e7 20 22 3b 99 ae 3c bc a5 b7 95 3d
       0.03897984 0.002473885 -0.011516237 0.07310418
0003c0 f2 e7 81 bd f4 9e 7d 3d 8e e8 85 bd 7b 35 85 bd
       -0.06343068 0.061919168 -0.06538497 -0.06504341
0003d0 4b 82 94 bd b8 06 71 3d 6d b8 37 3d a8 6f dd bb
       -0.07251414 0.058844298 0.044853617 -0.006757695
0003e0 f7 6d fd 3b d5 0c 04 bb cb dc a3 bd 9f 6b fc bc
       0.007734056 -0.002014925 -0.08001097 -0.030813036
0003f0 6e dd 0a 3e f7 d3 8f 3d 99 45 40 3b 51 b4 18 3c
       0.13561031 0.07022851 0.0029338358 0.0093203345

actor.4.bias f4 [128]
000000 f9 6c a9 3d 25 26 8e 3d 1d 67 38 bd 25 fa cb 3b
       0.08272738 0.06940869 -0.04502021 0.006224888
000010 98 39 b8 3c 5a 56 d5 bc b9 8f 63 bd c2 a8 7d 3d
       0.0224884 -0.026042152 -0.055556986 0.061928518
000020 50 e7 77 3d 12 a1 87 bd a9 b0 41 3d 01 a0 9a 3c
       0.06052333 -0.066225186 0.047287617 0.018875124
000030 bc 0e 5b 3d df b1 3a bd 6b db 91 bd 46 56 86 3d
       0.05348085 -0.045579787 -0.07121929 0.06559424
000040 36 c3 bb bc 9f 9c 98 bd ee d4 9b 3d 3e 1b 5e 3c
       -0.022920232 -0.07451748 0.076089725 0.0135563
000050 5d 1a 9c bd 55 14 8b bd 7b 02 3a bd 86 70 4b 3d
       -0.07622216 -0.067909874 -0.04541252 0.049667858
000060 53 fd 94 3c ca 6e 35 bd b4 1e 77 bd 32 57 2c 3d
       0.0181872 -0.04429511 -0.060332015 0.042075343
000070 9c 5d fa 3a 8d ab 30 bd f7 cd 2c bc 36 ff 99 3d
       0.0019101384 -0.043132354 -0.010547153 0.07519381
000080 d7 c2 85 3c d0 f3 68 3c ea 8d 33 3d fc 35 9b bd
       0.016328258 0.014218286 0.04383651 -0.07578656
000090 58 ea ad bc e9 e0 9b 3d f4 b6 22 3d 23 67 a1 bd
       -0.021229908 0.076112576 0.03972526 -0.07881
0000a0 36 87 f3 bc 8f 0d 74 bd 75 d1 20 3d 91 61 24 3d
       -0.02972756 -0.059583243 0.039262254 0.04013211
0000b0 12 7e f9 3a 36 64 be bc 88 5c 51 bd 5e 79 06 bd
       0.0019034764 -0.023241144 -0.051113635 -0.03283059
0000c0 1c 4f 13 bd 5f fe 36 3d b6 f6 82 bd 08 1b 28 3c
       -0.035964116 0.04467618 -0.063947126 0.010260351
0000d0 3d 6d 15 bd 22 09 88 3d bf e1 55 3d 20 7a 84 bc
       -0.03648113 0.06642367 0.05221724 -0.016171515
0000e0 38 17 91 bc 90 0b b8 bc 8b 8b 80 3b bf f1 42 bd
       -0.017711267 -0.02246645 0.003922885 -0.04759383
0000f0 62 fd 05 3d 04 38 70 3d ed 7f fb 3c 05 19 96 3c
       0.032712348 0.05864717 0.030700648 0.018322477
000100 c2 d9 85 bd bb 80 7d bd bb e1 df bc 58 07 8b bd
       -0.06535675 -0.061890345 -0.027329316 -0.0678851
000110 e6 49 9f 3d 1d b5 99 bd c4 f5 6c bb c2 cd 4f bd
       0.07777767 -0.07505248 -0.003615723 -0.050733335
000120 a7 73 fb 3c 54 a9 0a bc e1 55 9a 3c 73 44 2e bd
       0.030694796 -0.0084632225 0.018839778 -0.042545747
000130 0f 31 d8 bb ef c9 94 3c d6 24 88 39 37 d4 23 bd
       -0.006597645 0.018162696 0.00025967386 -0.039997306
000140 2e 46 a4 3b 30 8e 6e 3d c0 15 1c 3c 3d 66 e6 bc
       0.005013249 0.05824107 0.00952667 -0.028124923
000150 88 56 81 bd 41 d0 9e 3a cc ca 73 bd b5 ac 01 bd
       -0.06315333 0.0012116508 -0.059519574 -0.031658847
000160 6f 70 a5 ba 43 79 90 3d 33 c5 24 3c ca 21 50 3d
       -0.0012622009 0.07054379 0.010056782 0.050813474
000170 c8 e9 65 bd da 7d d9 3c c4 20 a8 bc 20 1a fc 3c
       -0.056131154 0.026549269 -0.020523436 0.030774176
000180 10 bf 66 bb 50 9e 59 bd 2a a5 2f bc de 05 b1 bc
       -0.0035209097 -0.053129494 -0.0107205305 -0.021609243
000190 ae 19 59 3d b6 8a 7e bd 59 ee 82 bd fa e0 09 3d
       0.053003006 -0.062144004 -0.063931175 0.03366182
0001a0 90 b3 12 bd e7 92 31 bd 51 0f 75 3d 97 cd 57 bd
       -0.035815775 -0.043352988 0.05982906 -0.0526863
0001b0 b0 24 99 bc cf 65 a2 bb e1 40 83 bc 29 53 9e 3c
       -0.018694252 -0.004955984 -0.016022148 0.019326763
0001c0 b5 1e 0d 3d 99 e5 4f 3d 20 03 c5 3c c9 c5 99 bd
       0.034453113 0.05075607 0.024049342 -0.07508428
0001d0 45 50 82 3d d8 70 46 bd ff d6 cf 3c b3 74 38 bc
       0.063629664 -0.04844746 0.025371073 -0.011258292
0001e0 64 06 79 bc f1 8b 3b bd f2 33 51 bc 07 17 90 bd
       -0.015199278 -0.045787755 -0.012768732 -0.07035642
0001f0 ba 1c f6 3c ce 01 d0 3c c8 66 63 bd b7 84 70 bb
       0.030042995 0.025391486 -0.05551794 -0.0036700198

actor.7.weight f4 [128, 128]
000000 de 0a a8 3d 66 de 2e 3c 9f ac 9a bc f0 56 db bd
       0.08205198 0.010673141 -0.01888114 -0.107099414
000010 4d fd 36 bd 6f 63 e1 bc d7 a8 fc 3c 83 91 66 bd
       -0.04467516 -0.027513234 0.030842228 -0.056291115
000020 31 e3 8d bd c3 15 92 3d cc 25 ae ba 51 2a 6c bc
       -0.06928099 0.07133057 -0.0013286411 -0.014414386
000030 d5 4c 6d 3d d1 5d c1 3c dd 2d 31 3c bf f8 30 bd
       0.0579346 0.023604305 0.010814157 -0.043205973
000040 05 3c f2 3c 63 28 9b bd 9f 39 2e 3d 23 76 ab bd
       0.029569635 -0.075760625 0.04253542 -0.08372142
000050 b8 f9 9b 3c 17 27 55 3d 38 7c a4 3d 42 39 8b bc
       0.019039974 0.052039232 0.08031505 -0.016995076
000060 30 6e 99 bd 66 53 87 bd f4 b9 9b bd 6a b6 9c 3d
       -0.0749172 -0.06607704 -0.07603827 0.0765198
000070 ae a7 cf bc 1b a2 f9 3c 44 fa 79 bd ad fe 03 bd
       -0.02534851 0.030472806 -0.061029688 -0.0322253
000080 a4 1c 81 bd 83 11 3d 3d 95 c6 82 3d 8c 82 2a bc
       -0.06304291 0.04615928 0.06385533 -0.010407101
000090 a0 46 c7 bc 18 97 9d bc c9 08 90 3d 3b 65 8f 3d
       -0.024325669 -0.019237086 0.07032926 0.0700173
0000a0 9f f8 0f bd 3e 98 27 3d e0 2d 5d 3b 01 f1 49 bd
       -0.035149213 0.040916674 0.0033749267 -0.049302105
0000b0 95 e1 50 bd e9 ef e7 3c ad a7 18 bd 13 de 3d bd
       -0.05099638 0.02831264 -0.037269283 -0.046354365
0000c0 fb 12 c7 bc 69 3a 32 3d a8 b1 90 3b 16 ff 6f 3c
       -0.024301043 0.043512736 0.0044157095 0.01464822
0000d0 59 3c a6 3d f3 27 a8 3c 7e 7f af 3d 8a 48 12 3d
       0.08116979 0.020526862 0.08569239 0.03571371
0000e0 fc 1b 34 bd 70 bc 32 bc 27 d0 95 3c 15 21 48 3c
       -0.043972 -0.010909185 0.018287731 0.012214919
0000f0 dc 14 17 bd 25 58 72 3d 1c 9c 69 bd a6 cc 4f bd
       -0.036885127 0.059166092 -0.057033643 -0.050732277
000100 c8 91 a0 bd 21 0e 91 3d 6a ae 30 3d 77 34 96 3c
       -0.078403056 0.07082773 0.043135084 0.018335564
000110 22 c5 fc 3c 0c 27 50 3d 48 95 85 bd 9c 9b 86 3c
       0.030855719 0.050818488 -0.06522614 0.016431622
000120 a2 53 cf bc b3 7b 2f bb ac a4 a4 3d 76 ae 0a bd
       -0.025308434 -0.0026776611 0.08039221 -0.033857785
000130 f4 8c 4b 3d b7 87 de 3d 44 5c 79 3d e6 07 01 3d
       0.04969497 0.10865729 0.060879007 0.031501673
000140 06 24 74 bc 59 39 b5 bc 91 81 9d bd 30 dd 5c bd
       -0.014901167 -0.022122072 -0.076907285 -0.05392188
000150 e3 36 17 3d 2e d1 70 3d b7 e7 d4 3d b7 ec 56 3c
       0.03691758 0.05879324 0.103957586 0.013117961
000160 93 0c 6f bd c8 53 c9 3d 43 cd df bc 05 30 b2 bd
       -0.0583616 0.09830433 -0.027319556 -0.08700565
000170 aa 85 65 3d 15 d4 8e 3d 21 3a c8 3c a4 4c bd 3d
       0.056035675 0.06974045 0.02444178 0.09243134
000180 70 53 89 3b 2d 08 18 bd af 20 62 bd ba b7 9b 3d
       0.0041908547 -0.037117172 -0.05520695 0.076034024
000190 7f 90 8f bd 67 73 9a bd 27 ec 29 bc 14 74 26 3b
       -0.07009982 -0.075415425 -0.0103712445 0.0025398778
0001a0 34 ef 07 3d 3b 4a ad bc 4f dc ac 3d 24 dd e9 3c
       0.033187106 -0.02115356 0.08440458 0.02854783
0001b0 68 2d 3d bd f2 cc 49 3c c2 49 80 3d 85 05 9b bd
       -0.04618588 0.012316929 0.06264068 -0.07569412
0001c0 02 58 5d bd a9 cc 01 3c f1 cc 23 3c 73 cb cf 3c
       -0.05403901 0.00792233 0.009997592 0.025365567
0001d0 25 9f 8f bd fd 14 91 bd 93 b7 83 3d 39 1f 59 bd
       -0.07012776 -0.07084081 0.064314984 -0.053008292
0001e0 98 cd c0 bc 55 a2 29 bd 55 f4 32 bd 65 00 8f 3d
       -0.023535535 -0.041414578 -0.043690044 0.06982497
0001f0 62 92 d8 3c 5e 05 c0 bc ec 6b c8 3c d9 af 96 3d
       0.026436988 -0.02344006 0.024465524 0.07357759
000200 1a cd aa bd dd cb 9f bd 5a 86 22 3e 18 8d e9 bc
       -0.08339901 -0.07802556 0.15871564 -0.028509662
000210 8b a9 61 bd b1 3f 14 bd 77 ce e1 bc b5 82 6c 3b
       -0.05509333 -0.036193553 -0.02756427 0.003608865
000220 11 71 73 bd 29 c6 b4 3d 87 f2 d1 3c 0e 49 2b 3e
       -0.059434 0.088268586 0.025628341 0.16727087
000230 52 4c 54 3d 2f 6e ca 3d 8c 22 fc bd 71 66 98 3d
       0.051830597 0.09884297 -0.12311277 0.07441414
000240 70 9f 13 3d 2c 73 f4 3c 10 7b 1d ba ce f4 4b be
       0.036040723 0.029840074 -0.00060074124 -0.19917604
000250 77 4b b1 3d ab cc f2 bd da 92 cb bd c3 dd 19 be
       0.08656972 -0.118554436 -0.09940119 -0.15026002
000260 4d 26 92 3d 3a f3 e9 3d 66 35 24 3e c6 6b 98 3d
       0.071362115 0.11423345 0.16035995 0.07442431
000270 8a 64 0a bd d0 c6 dc 3c bd a1 0f be e6 4d d1 3d
       -0.033787288 0.02695027 -0.14026542 0.10219936
000280 e1 69 21 3d 4c 6f 78 bc 91 bf 4a 3d 4f 59 8d bd
       0.039407615 -0.015163254 0.0494991 -0.069018
000290 7c 0e d4 bd 4d e0 da bd 88 f9 4d 3d 45 c8 b1 3c
       -0.10354325 -0.10687313 0.0502868 0.021701941
0002a0 6d 86 c3 3c 1c 1c 92 bd 7c f8 bc 3d 9b 6c fd 3d
       0.02386781 -0.07134268 0.09227082 0.123742305
0002b0 ef c6 20 be 40 9e 96 3d 43 ab 35 be 43 ff 37 bd
       -0.15700887 0.073544025 -0.17741112 -0.04492117
0002c0 5e 8d ab 3d 44 77 20 3e b2 ea b6 3d 95 67 ba bd
       0.08376573 0.15670496 0.08931483 -0.09101788
0002d0 f7 bd f7 3d 6b 40 09 3e c2 09 9c 3d b1 b0 b5 bd
       0.1209678 0.1340348 0.07619049 -0.08871592
0002e0 db a4 82 bd a6 a7 cf 3d aa 67 41 be b1 cf c5 3c
       -0.063791 0.10139398 -0.18887201 0.024146887
0002f0 a2 6b 9c bd ac d1 22 3d 1f 02 05 be 20 94 03 3e
       -0.07637717 0.03975074 -0.1298909 0.12849474
000300 62 cc 98 bc 03 b9 0e bc c1 11 03 be b7 4a bc 3d
       -0.018652145 -0.008711102 -0.12799741 0.09193938
000310 1f f5 e8 3d 70 18 f4 3d 19 7e 1b 3e 43 b8 42 bd
       0.11374878 0.119187236 0.15184821 -0.047539007
000320 2f 01 f1 bd 9b a2 cf bc d5 60 3e be 46 e5 a0 bd
       -0.11767804 -0.025346091 -0.18591626 -0.078562304
000330 34 f8 98 3d b5 33 25 3e 5d 22 a3 bb 28 8a 76 3d
       0.07469216 0.16133006 -0.0049784617 0.06019035
000340 05 f1 47 3d 6b fd 41 bd 91 5e 28 3e de d1 0d 3e
       0.04881384 -0.04736082 0.16442324 0.13849589
000350 11 13 70 3d c9 d0 05 bd 62 dc a2 3d 34 9a aa 3d
       0.058611933 -0.032669816 0.07952191 0.08330193
000360 16 e4 04 be b9 2c 8f 3d d7 fb fc 3d 54 4e aa 3d
       -0.12977633 0.06990952 0.12352722 0.08315721
000370 32 74 28 be 45 a4 2a 3e 7f 7b 32 be da e6 eb 3b
       -0.16450575 0.16664226 -0.17429923 0.0071991505
000380 6f f7 91 3d e4 69 32 be a4 e7 68 bd fa 0a fb 3d
       0.07127272 -0.17423207 -0.056861535 0.12257953
000390 09 3d a5 3d e1 d8 26 be 59 df 18 be 04 c6 f0 bd
       0.08068282 -0.1629367 -0.1492895 -0.117565185
0003a0 1f b4 c2 bb 17 be d6 bd b5 e5 3d bc ff f0 20 3c
       -0.0059418823 -0.104854755 -0.011590411 0.009823083
0003b0 2a e1 2c bd a5 95 ce 3d 3e 53 92 3d ac 3b 01 be
       -0.04220692 0.10087136 0.071447834 -0.1262042
0003c0 8b e0 d1 bd 28 98 2a 3e d2 8f d0 bb fa 46 33 3e
       -0.10247906 0.16659606 -0.006364801 0.17507544
0003d0 95 98 70 bd 97 db 0e 3d 90 8b d1 3d 46 97 12 3d
       -0.058739264 0.034877386 0.102316976 0.035788797
0003e0 e2 52 80 bc 18 8b 7c bd 87 44 31 3d 52 52 45 bc
       -0.015664522 -0.061656088 0.043278243 -0.0120435525
0003f0 04 67 c0 bd 39 1a 17 be 24 35 03 be b9 42 b1 3d
       -0.09394649 -0.14756097 -0.1281324 0.086553045

actor.7.bias f4 [128]
000000 cb 3b d7 bc 8d bc 09 3c cc f0 05 bb f4 62 02 3b
       -0.026273629 0.00840677 -0.0020437716 0.0019895406
000010 79 5a 7b bc 96 48 bc bb 08 f1 11 bd 55 71 2d bb
       -0.015341395 -0.0057459576 -0.035630256 -0.0026465256
000020 16 c5 d2 ba 46 e2 f7 bc 4f 48 12 bc 40 49 49 3c
       -0.0016080465 -0.030259263 -0.0089283725 0.012285531
000030 e8 7d 34 3c 3e 5f 0e bd 18 71 a6 3c 00 ca b3 bc
       0.0110163465 -0.0347588 0.0203176 -0.021946907
000040 ac 29 ed bc 69 04 68 3c bc f7 13 3d a0 72 5b bd
       -0.028950535 0.014161208 0.03612493 -0.05357611
000050 4b d3 8c bc 47 a4 3d bd a7 4f 03 bd b7 fa 46 bd
       -0.017190596 -0.046299245 -0.032058384 -0.048578944
000060 13 ed b2 b8 58 2d 70 3c f5 a5 b5 3c 5a 44 36 3d
       -8.53186e-05 0.014659248 0.022173861 0.04449878
000070 cb 67 a3 3c ab 76 63 3d 26 73 fa 3c 0f ff 24 bb
       0.019946953 0.055533092 0.030572485 -0.002517644
000080 cd 59 b9 3b 0a 01 53 3d d4 15 39 3b c0 6e cb bc
       0.005656457 0.051514663 0.002824177 -0.024833083
000090 fc 9f b1 bc 95 b5 39 3d e8 9e bc bc 14 b7 66 bc
       -0.021682732 0.045339186 -0.023024991 -0.014081735
0000a0 5e d3 35 bc f8 ea 70 bc bc 0a db 3c 94 1c c5 bc
       -0.011097757 -0.014704458 0.026738517 -0.024061479
0000b0 f5 81 32 3c c3 8f 99 3c 08 91 8d bc 3a 5c 54 bc
       0.010895242 0.018745309 -0.01728107 -0.012961442
0000c0 0e bd 14 bc ee 79 de 3c 88 f3 36 bd 87 77 13 3b
       -0.009078277 0.02715775 -0.044665843 0.0022501664
0000d0 17 f7 2d 3c d4 25 84 bc 94 eb 9e 3b 3b 86 62 bc
       0.010617993 -0.01613132 0.0048498604 -0.013825948
0000e0 b4 2d 7d 3c 6c dd 11 bd 64 31 f6 3c 6a 6d fe 3b
       0.015452791 -0.035611555 0.030052848 0.007764508
0000f0 e3 49 84 bc ee ee 5a 3d 0d c7 e0 3c ac 85 2b bd
       -0.016148513 0.053450517 0.027438665 -0.041875526
000100 e1 cf 80 bc 90 85 30 3c bb 19 29 bd c7 c0 2c bd
       -0.015724124 0.010774031 -0.041284304 -0.042176034
000110 69 f2 dd 3b 02 0d 0f bc b4 9d 1a 3c ee f2 93 3d
       0.0067732823 -0.008731129 0.009437013 0.072240695
000120 30 8a 3d bb 6e bd 26 3c b4 f2 c9 bc 44 26 fa 3b
       -0.0028921477 0.0101769995 -0.024651863 0.007633956
000130 d9 2c ec 3c 64 28 85 3b 6b 43 45 3a bd 73 42 3c
       0.028829979 0.004063653 0.00075249997 0.0118684145
000140 67 0b 0f bd 4c be b2 3c 61 46 d1 bc 39 c5 00 3d
       -0.034922983 0.021819256 -0.025546255 0.031438086
000150 50 6a 2b 3c 9c f4 14 bd bd b0 c7 3c 19 a6 43 bd
       0.010462359 -0.03636609 0.024376268 -0.047765825
000160 b6 0d 1c bc 09 0d 0e 3a e9 87 dc bc b1 d3 7c bc
       -0.009524753 0.00054188125 -0.026920276 -0.015431331
000170 10 c0 ce 3c a4 08 b9 38 85 03 bc 3c de 96 ba bc
       0.025238067 8.823097e-05 0.022950897 -0.022777017
000180 86 c2 74 3c 8f 30 05 3d f4 dd 19 3c 53 88 f1 3c
       0.014938956 0.032517012 0.009391297 0.02948395
000190 50 be a1 3b 3a 8d 46 bc f5 bb 64 bd eb 6a 22 3d
       0.004936017 -0.012118632 -0.055843312 0.039652746
0001a0 e1 1c 63 bc 5a 4f 00 3d 2e cc 1b 3c 29 74 56 3c
       -0.013861866 0.031325676 0.009509129 0.013089218
0001b0 ac 56 37 bd 49 7e be 3c 5b d3 20 3c 8d 0a ac 3c
       -0.04476039 0.023253577 0.009816016 0.021001125
0001c0 4f c8 b3 3c 57 1d 7d 3c 1b 2d c0 bc 58 de 12 bc
       0.0219461 0.01544889 -0.023459008 -0.008964144
0001d0 f8 27 2a 3c aa 7a 26 3d 57 da 17 bd 0e 3e 76 bc
       0.010385506 0.040644325 -0.03707346 -0.015029443
0001e0 d5 26 a9 bc b6 9f a4 3c ef 1d d3 3a 1c e3 fb bc
       -0.0206484 0.020095687 0.0016106943 -0.030747943
0001f0 8c 3d 37 3a 64 b1 fe ba 08 48 4e bc 7d 96 16 bc
       0.0006990067 -0.0019431529 -0.012590416 -0.009191153

actor.10.weight f4 [1, 128]
000000 61 c3 17 3b 5f b4 5a 3c 34 bd 11 bb fc 08 44 3b
       0.0023157226 0.013348668 -0.0022238018 0.0029912582
000010 a5 e8 00 bb e3 4d 7d ba f3 08 44 3a 14 61 c6 b9
       -0.0019669917 -0.000966279 0.000747814 -0.00037837832
000020 06 6b 20 39 b9 66 ba 3a d5 6d f5 ba 11 ab af b9
       0.00015298658 0.0014221288 -0.0018724749 -0.00033506055
000030 1c 79 2e bb 05 f3 7a 3a c4 75 3a bc 16 c4 50 39
       -0.002662248 0.0009572956 -0.011380617 0.00019909473
000040 c3 27 4f 3b b9 ec 24 b9 9a 01 2d 3c 84 66 48 3a
       0.0031609393 -0.00015728445 0.010559464 0.00076446705
000050 56 0f 1a ba 1a 57 c9 ba d0 f2 22 bb c6 6c 29 bb
       -0.0005876919 -0.0015361041 -0.0024863966 -0.0025852188
000060 44 ba 5b 3a 2b 00 34 3a 96 b7 ef 3b f4 d1 09 3a
       0.0008381943 0.000686648 0.0073155863 0.00052574207
000070 e3 62 56 3b 33 da a8 3b 2b 1a 6e 3a 29 0d 3f ba
       0.003271275 0.0051529645 0.0009082879 -0.0007288033
000080 c5 e9 d2 3a 70 42 e4 3b 3e df a3 3a 38 d6 18 bc
       0.0016091397 0.006965928 0.0012502444 -0.0093284175
000090 1a f0 ee ba 02 2b 69 3b 93 d9 0d bb 65 6a 07 3b
       -0.0018229515 0.0035578613 -0.0021644577 0.0020662781
0000a0 b5 56 ae 3a c4 b9 51 3a b1 35 44 3b 94 d7 3d ba
       0.0013300987 0.00080003985 0.002993923 -0.00072419015
0000b0 b1 41 56 3b 34 0e fa 3a d2 aa 10 3a 04 a4 11 bb
       0.0032692964 0.0019077719 0.0005518618 -0.0022223005
0000c0 33 6a 4d 3a d6 63 4a b9 40 95 c7 ba 8e 23 93 3a
       0.00078359543 -0.00019301413 -0.0015226975 0.0011225806
0000d0 de 0d 2f 3b 00 c2 1e 3b 82 26 0b 3c a7 1f 74 3a
       0.0026711146 0.002422452 0.008493068 0.0009312578
0000e0 cd 66 a7 ba f4 39 b4 bb 7e e6 58 ba 53 7e 24 3a
       -0.0012771726 -0.0055000726 -0.0008274092 0.00062749273
0000f0 3a f3 e8 b8 85 27 db 39 a3 ce 5d bb 9f 45 86 bb
       -0.000111079265 0.0004180038 -0.003384509 -0.004097655
000100 dd 33 4f 3b 10 23 c8 3a 5a 93 06 bc 7b 50 e9 39
       0.0031616606 0.0015269239 -0.008213842 0.00044501186
000110 c8 84 27 bb 33 8e 42 bb fb 8e 8b 3a c6 a6 dc ba
       -0.0025561322 -0.0029686808 0.001064747 -0.001683437
000120 27 dc f4 3a c3 bd 40 3b bc 47 a4 ba 86 e2 ee 3a
       0.0018681333 0.0029409982 -0.0012533586 0.0018225468
000130 91 34 49 3c cd 89 01 3c c8 ce 1b bc ab e3 28 ba
       0.012280599 0.007906389 -0.00950975 -0.00064426166
000140 d4 c6 21 bc e7 16 fd ba 3d 9d 3f bb e5 bc 3d 3b
       -0.0098740645 -0.0019309194 -0.0029238008 0.0028951701
000150 ed 79 29 3a a9 a4 40 bb e8 2f 84 bb 68 45 1b 3c
       0.0006465007 -0.002939502 -0.004034031 0.009476997
000160 8e 51 df b9 c3 7f 2e 3a d4 6d 93 39 ce 83 a0 b9
       -0.00042594637 0.0006656611 0.00028119853 -0.0003061578
000170 81 a9 12 bb 1d 89 40 bb 1e b2 ba b9 99 ab 0b bc
       -0.0022378864 -0.00293786 -0.00035609392 -0.008524799
000180 a5 5b 89 ba 8a 61 a8 ba fe c3 18 3b c1 05 c7 3a
       -0.0010479583 -0.0012846452 0.002331018 0.001518421
000190 a2 4f b9 ba 67 1a cf 38 2f 3c b5 bb 2a af 80 3a
       -0.0014138112 9.875447e-05 -0.005530856 0.0009817828
0001a0 b8 d3 04 bc 02 69 61 ba 9c 31 a6 ba 0a 97 a3 ba
       -0.008107118 -0.0008598716 -0.001267958 -0.0012480926
0001b0 01 57 2d bb c7 f7 14 3b d8 7e 75 b9 1c 71 af 3b
       -0.0026449563 0.0022730695 -0.00023412274 0.00535406
0001c0 1f 6c d9 3b ae 88 14 39 23 aa a4 3a 49 3f 1b 3a
       0.0066352035 0.00014165297 0.0012562912 0.0005922211
0001d0 cf be 52 bb 6a 9b 23 b8 15 f4 2f b9 2f 5c 25 ba
       -0.0032157188 -3.900697e-05 -0.00016780228 -0.0006307987
0001e0 52 ca 38 bc 51 54 4a 3a 0a 63 48 bb e5 07 5f 39
       -0.011278706 0.00077182526 -0.003057661 0.00021269878
0001f0 ec 1c cb 3b 47 8c 16 ba e0 9c 06 3b 88 76 c6 3a
       0.006198516 -0.0005742949 0.0020540282 0.0015141526
