PPO/PPO3_Trained/PPO_DoubleInvPendulum_300K.pth (torch, 410281 bytes, 18 tensors)

actor.0.weight f4 [128, 6]
0	0x3f127266	0.5720581
1	0x3eb140ca	0.34619743
2	0x3c3f03a1	0.01165858
3	0x3f04d164	0.51882005
4	0x3f7141ed	0.9424122
5	0x3d5088c3	0.050911676
6	0xbee3e4cf	-0.44510505
7	0xbe03f2b0	-0.12885547
8	0x3eb4b8f8	0.3529737
9	0xbee3fe03	-0.44529733
10	0xbf88f330	-1.0699215
11	0x3e9e7529	0.3094876
12	0xbf8de68a	-1.108598
13	0x3d880316	0.066412136
14	0xbe9c80d0	-0.30567026
15	0xbeb186de	-0.34673208
16	0xbf3b970c	-0.73277354
17	0x3f365ec1	0.71238333
18	0xbf3d232d	-0.738818
19	0xbe97370e	-0.2953419
20	0xbdf56d12	-0.11983694
21	0xbe2750ec	-0.16339463
22	0xbf8e8e06	-1.1137092
23	0x3d3bbccf	0.04583436
24	0xbf3840c8	-0.7197385
25	0x3ea22ea8	0.3167622
26	0xbeabe89e	-0.3357591
27	0xbdfffca8	-0.12499362
28	0xbf564c8b	-0.83710545
29	0x3f0ce382	0.5503465
30	0xbf60e9d4	-0.87856793
31	0xbe96538d	-0.2936062
32	0x3dd1f889	0.102524824
33	0xbf4849ba	-0.782375
34	0xbf863a25	-1.0486494
35	0x3e1f0b8b	0.15531747
36	0x3ee23dc8	0.4418776
37	0x3e309dcf	0.17247699
38	0x3e096398	0.13416898
39	0xbe5fbc33	-0.21849136
40	0x3e999d93	0.30003032
41	0xbedc1de6	-0.4299156
42	0xbf546d06	-0.82978857
43	0x3dacd1bb	0.084384404
44	0x3e7d107d	0.24713321
45	0x3e59ef51	0.21282698
46	0xbf7db0e9	-0.9909807
47	0x3eef1edc	0.4670323
48	0xbf8630ca	-1.0483639
49	0xbe902b3d	-0.28157988
50	0x3e774658	0.24147928
51	0xbf5ac8bf	-0.85462564
52	0xbf8814a4	-1.0631299
53	0xbe0e3a44	-0.13889414
54	0x3e6032c6	0.21894369
55	0xbe77b6cf	-0.2419083
56	0xbe10ae4a	-0.14128986
57	0x3c47a0e5	0.012184356
58	0x3ea11239	0.31459215
59	0xbec6bd44	-0.38816273
60	0x3f3ff7e0	0.749876
61	0xbea2fa7b	-0.31831726
62	0xbe091ad0	-0.13389134
63	0x3e26f6db	0.16305105
64	0x3f7e81c8	0.9941678
65	0xbf04c740	-0.5186653
66	0x3f9dced7	1.2328748
67	0x3e0ca5a3	0.1373506
68	0xbe7e30bc	-0.24823278
69	0x3f315bb4	0.6928055
70	0x3f8fa84f	1.1223239
71	0xbe41a2ab	-0.18909709
72	0xbe644b90	-0.2229445
73	0x3dc469ec	0.095905155
74	0xbe9cb8a7	-0.3060963
75	0x3e0a8af5	0.1352957
76	0xbf2f4dad	-0.684779
77	0x3e341036	0.17584309
78	0x3fa1565f	1.2604483
79	0xbd345088	-0.044022113
80	0x3c8ca734	0.017169572
81	0x3f566e7f	0.83762354
82	0x3f9ff91a	1.2497895
83	0xbc6b5604	-0.014363769
84	0x3e46f095	0.19427712
85	0x3ea672d6	0.32509488
86	0xbeaa107e	-0.33215708
87	0x3e818a16	0.25300664
88	0x3f4e7161	0.8064175
89	0x3da306e4	0.07960299
90	0x3e4e6bfa	0.20158377
91	0xbe3ca1e3	-0.1842113
92	0x3e0ee0c1	0.13952924
93	0x3f35c519	0.7100387
94	0x3f31c61c	0.69442916
95	0xbee8ea31	-0.45491174
96	0x3f3432ed	0.70390207
97	0xbec0a4f5	-0.37625852
98	0x3e00c4ee	0.12575123
99	0x3f5309dd	0.82436925
100	0x3f627bca	0.8847014
101	0xbc882c83	-0.016622787
102	0xbe555893	-0.2083457
103	0x3ea63c29	0.32467774
104	0x3e3ef25b	0.18647139
105	0xbeea869d	-0.45805827
106	0xbf698311	-0.91215616
107	0x3f3840ac	0.7197368
108	0xbe241670	-0.16024184
109	0x3d42a952	0.047524758
110	0x3dbdba67	0.09264069
111	0xbdb80542	-0.08985378
112	0xbea1713c	-0.31531703
113	0xbdd102cc	-0.102056116
114	0xbe9c10da	-0.30481607
115	0xbdcc1af6	-0.0996608
116	0x3deea3d6	0.11652343
117	0x3e9de567	0.30839083
118	0xbf251d9e	-0.6449832
119	0x3baf28ee	0.0053454554
120	0xbfb12505	-1.3839422
121	0x3e711610	0.23543572
122	0xbe141bb5	-0.14463694
123	0xbf108a19	-0.5646072
124	0xbfd94b87	-1.6976174
125	0x3f6acf1c	0.91722274
126	0x3e0d73c4	0.13813692
127	0xbeb6b7f3	-0.35687217
128	0xbe17ea8b	-0.14835565
129	0x3d44cae4	0.048045054
130	0x3f16f59b	0.58968514
131	0xbcd203cf	-0.025636582
132	0x3ddedf85	0.10882477
133	0xbe6e8e92	-0.23296574
134	0xbe800a1a	-0.25007707
135	0x3da68440	0.081306934
136	0xbedda96f	-0.4329333
137	0x3eacaccd	0.33725587
138	0xbf2cdaca	-0.67521346
139	0xbdf0cc5e	-0.1175773
140	0xbe914ce8	-0.28378987
141	0xbe28e68e	-0.164942
142	0xbf81b477	-1.0133198
143	0xbdf79036	-0.12088053
144	0xbeb91bef	-0.36154124
145	0x3e96bd94	0.29441512
146	0xbdd32c69	-0.10311205
147	0xbda69c27	-0.081352524
148	0xbf083291	-0.5320216
149	0x3dd126c5	0.10212473
150	0x3f44ae03	0.7682802
151	0x3e540d2e	0.20708153
152	0xbeb93ce5	-0.3617927
153	0x3f6b3cde	0.9188975
154	0x3f86f2ac	1.0542808
155	0x3b926d4b	0.004468595
156	0xbf7ad701	-0.9798432
157	0x3e853927	0.26020166
158	0xbe97891e	-0.295968
159	0xbe0fbeb7	-0.14037596
160	0xbf8434a9	-1.0328571
161	0x3f3e7922	0.74403584
162	0xbf1ffbb2	-0.6249343
163	0xbe588d67	-0.2114769
164	0xbd672469	-0.056431208
165	0xbea5082c	-0.32232797
166	0xbfa15e46	-1.2606895
167	0xbe1d809e	-0.15381095
168	0xbf217041	-0.6306191
169	0x3d3bf41f	0.04588711
170	0x3e3f11a1	0.18659069
171	0xbdf51745	-0.11967329
172	0xbf6ff071	-0.9372626
173	0x3e67e1ab	0.22644679
174	0x3e5baf48	0.21453583
175	0xbe51d759	-0.20492305
176	0x3e1e1101	0.15436174
177	0x3ecde267	0.40211794
178	0x3f227f55	0.63475543
179	0xbe275600	-0.163414
180	0xbf031df9	-0.5121761
181	0xbc90f16a	-0.01769324
182	0xbe9e7f81	-0.30956653
183	0xbeb10933	-0.3457733
184	0xbfaab824	-1.3337445
185	0x3ebbba68	0.36665654
186	0x3f5700a3	0.83985347
187	0xbdaa5884	-0.08317664
188	0x3eaa19eb	0.332229
189	0x3f380952	0.7188922
190	0x3f69b3c9	0.91289955
191	0xbd69b11c	-0.05705367
192	0x3f1bd608	0.6087346
193	0x3da1566d	0.078778125
194	0xbeb90df2	-0.36143452
195	0x3eec9f5a	0.46215326
196	0x3f36818a	0.7129141
197	0x3e425528	0.18977797
198	0xbe927846	-0.28607386
199	0xbdcf3c61	-0.10118938
200	0x3e759673	0.23983173
201	0x3e1f1471	0.15535142
202	0xb9703cfb	-0.000229109
203	0xbead025b	-0.3379086
204	0x3e13d7f3	0.14437847
205	0xbd8ae9ed	-0.06782899
206	0x3e69d0ed	0.22833605
207	0xbea5a2f1	-0.32350877
208	0x3da53e1c	0.08068487
209	0x3d943851	0.07237304
210	0xbf91c5c8	-1.1388483
211	0x3eb567e0	0.35430813
212	0xbe9eb8d5	-0.3100039
213	0xbf52c5a7	-0.82332844
214	0xbf8556c1	-1.04171
215	0xbd9e5365	-0.0773075
216	0xbe11d0df	-0.14239834
217	0xbca09c8d	-0.0196059
218	0x3e2c51d2	0.16828087
219	0xbda1a69f	-0.078931086
220	0xbf5b1962	-0.85585606
221	0x3ec60956	0.38678998
222	0x3f49d445	0.7883952
223	0xbd0c9efa	-0.0343313
224	0x3ebb8da1	0.36631492
225	0x3edd220f	0.43190047
226	0x3f9dfd64	1.2342954
227	0xbe947036	-0.2899186
228	0x3f2494b3	0.64289397
229	0x3da3a3d5	0.07990233
230	0xbd25b6ee	-0.04045766
231	0x3f47c42e	0.7803372
232	0x3f6eb48d	0.9324425
233	0x3c138845	0.009004657
234	0xbe3dea30	-0.18546367
235	0xbe6b3bbe	-0.22972009
236	0x3e9a5f36	0.30150765
237	0xbed0c2f6	-0.40773743
238	0xbf23258a	-0.63729155
239	0x3e96ceee	0.2945475
240	0xbf7f5e76	-0.9975351
241	0x3e18ad6b	0.14909904
242	0xbe536b98	-0.20646513
243	0xbf179ed2	-0.59226716
244	0xbf87fa94	-1.0623345
245	0x3ea19d4f	0.3156533
246	0xbf640495	-0.8906949
247	0xbd963af2	-0.07335462
248	0xbe82d44a	-0.2555259
249	0xbe756f0c	-0.23968142
250	0xbf85c5be	-1.0450971
251	0x3d89aaeb	0.06722053
252	0x3f93b398	1.1539183
253	0xbdac6c38	-0.084190786
254	0x3e88b10b	0.26697573
255	0x3f2d842a	0.6777979

actor.0.bias f4 [128]
0	0xbe388829	-0.18020691
1	0xbeba1818	-0.36346507
2	0xbda3e592	-0.080027714
3	0x3e66cffa	0.22540274
4	0x3e840bc7	0.25790235
5	0x3ea10aa5	0.31453434
6	0x3ea47074	0.32117045
7	0x3bf6f2a7	0.0075362506
8	0xbe028666	-0.12746581
9	0xbd208af9	-0.039195035
10	0x3de6d102	0.11270334
11	0x3e34adff	0.17644499
12	0xbe9844a7	-0.29739878
13	0x3d9a0905	0.075212516
14	0xbd52c9b9	-0.05146191
15	0xbd40d12b	-0.047074478
16	0x3e99837b	0.29983124
17	0x3e94bd47	0.29050657
18	0x3e96adfa	0.2942961
19	0x3e489832	0.19589308
20	0xbe122c2e	-0.14274666
21	0xbe27f2e1	-0.16401245
22	0x3e755543	0.23958306
23	0xbca087e0	-0.01959604
24	0xbe3c7a7a	-0.18406096
25	0x3e83de59	0.25755575
26	0x3d32d208	0.043657333
27	0x3e37a380	0.17933464
28	0xbd29aa20	-0.04142201
29	0x3cc3f9b9	0.023922788
30	0x3e9c245d	0.30496493
31	0x3ce3f305	0.027825842
32	0xbe2d271e	-0.16909453
33	0xbc42c5da	-0.011887992
34	0x3e5a2300	0.21302414
35	0xbe3aac2d	-0.18229742
36	0xbc3ce8f2	-0.011530148
37	0xbe29702d	-0.16546698
38	0x3e421685	0.18953903
39	0x3e7024f0	0.2345159
40	0xbe21641c	-0.15760845
41	0x3d745107	0.059647586
42	0xbe11da63	-0.14243464
43	0xbe3268a6	-0.17422733
44	0x3d76a07d	0.060211647
45	0xbe443eb4	-0.19164544
46	0x3e9e6dec	0.3094324
47	0xbe7f75aa	-0.24947229
48	0x3d5c9be5	0.05385961
49	0xbe8e768e	-0.27824825
50	0xbe1e0008	-0.154297
51	0xbebac8d8	-0.36481357
52	0xbce90a9e	-0.028447445
53	0x3e107f86	0.14111146
54	0x3e996d58	0.29966235
55	0xbdc89b23	-0.09795215
56	0xbe8cb849	-0.27484348
57	0xbebb0eb2	-0.3653465
58	0xbe385d29	-0.18004288
59	0xbe25757a	-0.16158095
60	0x3ecbb774	0.397884
61	0xbe5ce481	-0.21571542
62	0x3d822d61	0.063563116
63	0x3cb1763d	0.021662826
64	0xbebe18f7	-0.37128422
65	0x3eac499f	0.33649918
66	0x3e0c63b2	0.13709906
67	0xbd993647	-0.07481056
68	0x3e144e5d	0.14483018
69	0x3e27cdf8	0.16387165
70	0xbeac1f15	-0.33617464
71	0x3eba6bda	0.3641041
72	0xbea70d5a	-0.32627374
73	0xbeaade47	-0.3337271
74	0x3de6c0be	0.112672314
75	0x3ead2600	0.33818054
76	0xbebea763	-0.3723708
77	0x3eb667a5	0.3562595
78	0x3caf8ff4	0.021430947
79	0xbc2e8d4c	-0.010653805
80	0x3e84824b	0.25880656
81	0xbe601bc1	-0.21885587
82	0x3e5bdb06	0.2147027
83	0xbd42fde7	-0.04760542
84	0xbe684b1e	-0.22684905
85	0xbde8fc6c	-0.11376271
86	0x3e93000d	0.28710976
87	0x3e4c8af3	0.1997488
88	0xbdf4ce26	-0.11953382
89	0x3e57b538	0.21065223
90	0xbdbfa4e4	-0.09357622
91	0x3e67e45f	0.2264571
92	0xbdb7c3a7	-0.089728646
93	0x3dd7c5b3	0.10535755
94	0x3e84239b	0.25808415
95	0x3e7ae2c9	0.24500574
96	0x3c56508b	0.013080726
97	0xbdb87af6	-0.09007828
98	0x3dc3be60	0.095577955
99	0x3e9f910b	0.31165347
100	0x3e150981	0.14554407
101	0x3e322f18	0.17400777
102	0x3e0d922f	0.13825296
103	0xbe5a43aa	-0.21314874
104	0x3eada918	0.3391807
105	0x3e48bf0f	0.19604133
106	0xbe13d3a8	-0.14436209
107	0xbe9dd05c	-0.30823028
108	0x3cc3881b	0.023868611
109	0x3dd247fa	0.10267635
110	0xbe36a0e5	-0.17834814
111	0x3d19a8cf	0.037514504
112	0xbe0251db	-0.12726538
113	0xbe623554	-0.22090656
114	0x3e19db66	0.150251
115	0xbd4d1c08	-0.05007556
116	0xbcb08461	-0.021547498
117	0xbe456186	-0.19275483
118	0xbe3d3e40	-0.18480778
119	0x3c15ac8a	0.009135375
120	0x3dc8000f	0.09765636
121	0xbdee7372	-0.11643113
122	0xbe94f062	-0.29089648
123	0x3c6cc27a	0.014450664
124	0x3ea5cf7d	0.32384863
125	0x3e070c5d	0.1318831
126	0xbddfe78c	-0.10932836
127	0x3e6001bb	0.2187566

actor.2.weight f4 [128, 128]
0	0xbd1073d0	-0.035266697
1	0xbdc8580d	-0.09782419
2	0xbcad0046	-0.021118294
3	0xbdca5b71	-0.09880722
4	0xbd0dbe09	-0.03460506
5	0xbe365b50	-0.1780827
6	0xbd246dd9	-0.04014382
7	0x3d98fc7c	0.074700326
8	0xbde41b92	-0.11138071
9	0xbbb8f575	-0.005644495
10	0x3d773532	0.060353465
11	0x3ef85f37	0.48510143
12	0x3d155608	0.036459
13	0x3e629776	0.2212809
14	0xbd496361	-0.04916704
15	0x3d06f7ad	0.032951046
16	0xbcedf98a	-0.029049654
17	0xbcd61207	-0.026131643
18	0xbd7c5e0e	-0.061613135
19	0xbd8621aa	-0.0654939
20	0xbf058db1	-0.5216933
21	0x3d671920	0.056420445
22	0x3d11187d	0.035423744
23	0x3d5a4976	0.053292714
24	0x39be11be	0.00036252843
25	0x3ea7a5dd	0.3274373
26	0xbe110955	-0.14163716
27	0xbd2be269	-0.04196397
28	0x3b2acfc0	0.002606377
29	0x3cb6e128	0.02232416
30	0xbd2467df	-0.04013812
31	0x3d3b8d72	0.04578919
32	0x3d849d1d	0.064752795
33	0xbd3786c9	-0.044806276
34	0xbb5d6039	-0.0033779277
35	0xbe1dcc5c	-0.15409988
36	0x3d55810f	0.052125033
37	0x3ba8179f	0.005129769
38	0x3d0d305d	0.03446995
39	0xbd5641c0	-0.052308798
40	0x3d46514a	0.048417367
41	0x3d88e884	0.06684974
42	0xbcf719be	-0.030163642
43	0x3db3a430	0.08771551
44	0xbd4af0e0	-0.049546123
45	0xbdad8dde	-0.08474325
46	0x3d34e417	0.044162836
47	0x3cdfcc86	0.027319204
48	0x3db6ac7d	0.08919618
49	0xbd0b92eb	-0.03407566
50	0xbdb5b11e	-0.08871673
51	0xbd691e26	-0.056913517
52	0x3bc9f32a	0.0061630206
53	0xbd93c461	-0.07215191
54	0xbb9d1c68	-0.004794646
55	0x3d844f2e	0.06460415
56	0xbc6c24cb	-0.014413069
57	0x3c03bc90	0.008040562
58	0xbda6f09e	-0.08151363
59	0x3dcd9131	0.10037459
60	0xba976cc6	-0.0011552803
61	0xbc676937	-0.014124206
62	0xbdaf66ef	-0.08564555
63	0x3c33a6a2	0.010965021
64	0xbc5c6e2f	-0.013454004
65	0x3c743149	0.014904329
66	0x3b4b23e8	0.0030996744
67	0xbd4222e9	-0.047396574
68	0xbd093031	-0.033493225
69	0x3d07fa16	0.033197485
70	0xbd0cd1f4	-0.034379914
71	0x3d6e13c3	0.058124315
72	0xbd4e4fd1	-0.050369088
73	0xbdcd799c	-0.10032961
74	0x3d87afc9	0.06625325
75	0xbd8ff1c2	-0.070285335
76	0xbdeab2c6	-0.114598796
77	0x3cf87ff2	0.030334447
78	0xbd7e8acf	-0.062144097
79	0xbd924ddf	-0.07143759
80	0xbd853762	-0.06504704
81	0x3c72606e	0.014793498
82	0x3bb0a549	0.0053907973
83	0x3d46533f	0.048419233
84	0xbd6a0abd	-0.057139147
85	0x3beae91e	0.007168903
86	0x3d54a8c0	0.051918745
87	0xbd864669	-0.065563984
88	0xbc0e4520	-0.008683473
89	0xbd1d86a6	-0.03845849
90	0x3d0427df	0.032264587
91	0xbdd5fe7e	-0.10448931
92	0x3d2a9397	0.04164466
93	0xbdb4981d	-0.08818076
94	0x3d8ca655	0.06867663
95	0xbd1a3a88	-0.037653476
96	0xbd3b811b	-0.04577742
97	0xbd8bb0ef	-0.06820857
98	0x3d79bb41	0.060969595
99	0xbc8ae8dd	-0.016956741
100	0x3c292a00	0.010324955
101	0x3c66f574	0.0140966065
102	0x3da72b07	0.08162504
103	0x3ce59e2a	0.02802952
104	0xbd0ab875	-0.03386732
105	0x3db50301	0.088384636
106	0xbdaca5b4	-0.08430043
107	0xbd149c16	-0.036281668
108	0x3da4fc1f	0.08055901
109	0x3dd3c5b8	0.10340446
110	0xbd3a31db	-0.045457702
111	0xbd504a2a	-0.05085198
112	0xbd8652fd	-0.065587975
113	0x3d85d348	0.06534439
114	0x3c905db2	0.017622802
115	0xbd98581f	-0.07438683
116	0x3d15d373	0.036578607
117	0x3cb30d2e	0.02185687
118	0xbd21932f	-0.039447006
119	0xbcf2037a	-0.029542673
120	0x3d26b940	0.040704012
121	0xbc8dc3b0	-0.017305225
122	0x3d911c23	0.07085445
123	0x3e093b99	0.13401641
124	0x3d2e0ce4	0.042492762
125	0x3e2e2665	0.17006834
126	0xbda83f6c	-0.08215222
127	0xbb7f0ea1	-0.0038918632
128	0xbb82e66c	-0.0039947536
129	0x3dbdfde9	0.09276945
130	0x3d4f6ce9	0.050640974
131	0xbd3ecb92	-0.04658086
132	0xbc0442ba	-0.0080725495
133	0x3e1b19d6	0.15146574
134	0x3db18db7	0.08669608
135	0x3db2b18b	0.0872527
136	0x3d7ca4ba	0.061680533
137	0xbda0b803	-0.078475975
138	0x3d6d22c0	0.05789447
139	0xbef002f7	-0.46877262
140	0x3d5fccac	0.05463855
141	0xbe42ec57	-0.19035469
142	0x3cc7cb7b	0.02438902
143	0xbd33462d	-0.043768097
144	0xbde5262c	-0.11188921
145	0xbbc3d973	-0.0059768497
146	0x3d2a25c6	0.04153993
147	0x3d83c99b	0.064349376
148	0x3f2ee41b	0.6831681
149	0x3d44e597	0.048070516
150	0xbcd870ce	-0.026420977
151	0x3ca2fe5e	0.019896682
152	0xbc6274f2	-0.013821827
153	0xbe8614bd	-0.26187697
154	0x3d7744be	0.060368292
155	0xbd6b4b52	-0.057444878
156	0xbc818b68	-0.015813544
157	0xbc9e7937	-0.01934491
158	0xbc69fe79	-0.014281862
159	0xbc8183f7	-0.015809996
160	0xbd5da54d	-0.05411272
161	0xbd99941e	-0.07498954
162	0x3cf0f6b2	0.029414508
163	0x3dc15deb	0.094417416
164	0xbcebf994	-0.028805532
165	0x3d3efc49	0.046627317
166	0x3d0ad0c3	0.033890497
167	0xbc22620c	-0.0099110715
168	0x3ca677b1	0.020320745
169	0x3d955763	0.07292058
170	0xbcb54ea6	-0.022132229
171	0xbda3b96a	-0.07994349
172	0x3d9ac26d	0.07556615
173	0x3d35eee7	0.04441729
174	0x3db40b02	0.08791162
175	0x3d916f0c	0.07101259
176	0xbd813b45	-0.06310133
177	0xbd17be8b	-0.03704695
178	0xbb005de4	-0.0019587213
179	0xb9f94e19	-0.00047551168
180	0xbc594ccd	-0.01326294
181	0x3b0a6f92	0.002112363
182	0xbd72477f	-0.059150215
183	0xbd4c7214	-0.04991348
184	0xbd11d6a5	-0.03560509
185	0xbdc1b8ed	-0.094591
186	0xbcc5f44f	-0.024164347
187	0xbd8d9707	-0.06913572
188	0xbce66158	-0.028122589
189	0x3db16c30	0.08663213
190	0xbcde65e3	-0.027148193
191	0x3dd55580	0.104166985
192	0xbdd52454	-0.1040732
193	0x3d9901c6	0.074710414
194	0xbd20f745	-0.039298315
195	0xbc221985	-0.00989378
196	0x3d49839f	0.04919779
197	0xbd65714d	-0.056016255
198	0x3d291d3a	0.04128764
199	0x3d3048c1	0.043038134
200	0xbd458580	-0.04822302
201	0xbc4f4125	-0.012649809
202	0x3d862839	0.065506406
203	0xbd84f2af	-0.06491601
204	0x3db6e57f	0.08930492
205	0xbd668bca	-0.056285657
206	0x3ce8dbb5	0.028425077
207	0x3d30c45a	0.043156005
208	0x3d59c00a	0.05316166
209	0xbdaa70cd	-0.08322296
210	0x3cc0f02a	0.02355202
211	0xbdc31888	-0.09526163
212	0xbd6a8b6a	-0.05726186
213	0xbd5fd329	-0.054644737
214	0xbd2e26f7	-0.04251763
215	0x3d5c4597	0.053777304
216	0xbd6a495f	-0.05719888
217	0xbc9d454a	-0.019198079
218	0xbd1baf2a	-0.038008846
219	0x3d288ae2	0.041148074
220	0xbcb65220	-0.022255957
221	0x3b979d1c	0.004626883
222	0xbcb1dc81	-0.02171159
223	0xbd890364	-0.066901
224	0xbdc90564	-0.09815481
225	0x3cda4601	0.026644709
226	0xbd74f5ba	-0.059804656
227	0x3aec5b17	0.0018032518
228	0x3cd0a6be	0.025470134
229	0x3d2eb917	0.042656984
230	0xbd896d42	-0.067102924
231	0x3d183a48	0.037164956
232	0x3dc14d4a	0.0943857
233	0xbc46d1e1	-0.012135
234	0x3d066cf3	0.032818746
235	0x3d5060b1	0.050873462
236	0x3cc4647d	0.023973698
237	0xbddbcc55	-0.107323326
238	0x3d97e490	0.07416642
239	0x3cc95c77	0.024580223
240	0x3c3fbb3b	0.011702354
241	0xbd9e0348	-0.077154696
242	0x3d986245	0.074406184
243	0xbd12de7b	-0.035856705
244	0xbc56db3c	-0.013113793
245	0xbd51b9a2	-0.051202424
246	0x3cf19dad	0.029494131
247	0x3d77cd49	0.06049851
248	0x3d879b88	0.06621462
249	0xbcbe50d0	-0.023231894
250	0x3c4fb918	0.012678407
251	0xbbc36b8a	-0.0059637474
252	0x3d91096b	0.070818745
253	0xbdc2e33a	-0.09515996
254	0x3b6ca1cd	0.0036107183
255	0x3d4fef3d	0.050765265

actor.2.bias f4 [128]
0	0xbd2addf8	-0.041715592
1	0x3d1b1422	0.037860997
2	0x3ca1e13a	0.019760717
3	0x3caf3179	0.021385895
4	0xbd6272dd	-0.055285323
5	0xbd0692d6	-0.032854877
6	0x3cb1727f	0.021661041
7	0x3d8a6112	0.06756796
8	0x3d13dd26	0.036099575
9	0xbc75c766	-0.015001154
10	0xbc4ae12f	-0.0123827895
11	0x3da6d27d	0.08145616
12	0x3d8f6b1a	0.0700285
13	0x3d84ae19	0.06478519
14	0xbbca5436	-0.0061745895
15	0x3ce5b859	0.028042005
16	0x3d41c052	0.04730255
17	0xbd26fd92	-0.040769167
18	0x3cc1cb7a	0.023656595
19	0x3db080ce	0.086183175
20	0xbd66916c	-0.05629103
21	0x3dade523	0.0849097
22	0xbd9be0a8	-0.07611209
23	0xbc2e46a2	-0.010636957
24	0xbca307b1	-0.019901128
25	0xbcfa5b40	-0.03056109
26	0x3d24bfff	0.040222164
27	0x3d82de47	0.06390052
28	0xbd63cf8a	-0.055617847
29	0x3d3558ce	0.044274144
30	0x3da3ff5c	0.0800769
31	0x3d89dc62	0.06731488
32	0xbd40048d	-0.04687934
33	0xbc23b5ce	-0.009992076
34	0x3ccbf8d5	0.024898926
35	0xbd3782fe	-0.04480266
36	0x3d5639c4	0.052301183
37	0xbda4b888	-0.08043009
38	0x3d067964	0.03283061
39	0xbd8b5a71	-0.0680436
40	0x3d154135	0.03643914
41	0xbd5a7db5	-0.05334254
42	0x3c839791	0.016063483
43	0xbd0e5d5a	-0.034756996
44	0x3dae70c6	0.085176036
45	0x3d76e7a2	0.060279496
46	0xbd33fe69	-0.043943796
47	0xbcc7f666	-0.024409484
48	0x3d88423a	0.06653257
49	0xbd228b84	-0.039683834
50	0x3d793d77	0.060849633
51	0xbb858e52	-0.004075804
52	0x3d46d4df	0.048542853
53	0x3d8cf558	0.06882733
54	0xbd41f76b	-0.047355097
55	0x3b1d96c0	0.0024046153
56	0x3da43011	0.080169804
57	0x3da34ec3	0.07974007
58	0x3d778fd2	0.060439892
59	0x3d395323	0.0452453
60	0x3d1f253b	0.038853865
61	0xbbc06971	-0.0058719446
62	0xbd9078e0	-0.07054305
63	0xbcaa9722	-0.020824019
64	0x3d6919c7	0.05690935
65	0x3cb1b674	0.021693446
66	0xbd3931f8	-0.04521367
67	0xbd8e00ff	-0.06933784
68	0xbca0969f	-0.019603072
69	0x3d9d1e3f	0.076717846
70	0x3d9bb0d2	0.07602085
71	0x3d0e7b48	0.03478554
72	0x3c9f6874	0.019458987
73	0xbc1723cf	-0.009224846
74	0x3cc2bfac	0.023773037
75	0x3d07d420	0.033161283
76	0xbd56fb39	-0.05248568
77	0x3d3fbfbc	0.04681371
78	0x3cc308a6	0.023807835
79	0xbd08ecf6	-0.03342911
80	0xbda21462	-0.07914044
81	0xbc3481c5	-0.011017268
82	0xbb990695	-0.004669974
83	0x3c6f898e	0.014620198
84	0x3d010745	0.031501073
85	0x3cc36195	0.023850242
86	0xbbd6eb58	-0.006558817
87	0x3aa7abe1	0.0012792313
88	0x3d86b3e7	0.065772824
89	0xbd2a072e	-0.041510753
90	0x3d78baea	0.06072513
91	0x3b850743	0.0040597036
92	0xbd07923f	-0.033098456
93	0x3db1476f	0.08656203
94	0xbcb43731	-0.021998974
95	0x3bcc9ebe	0.0062445095
96	0x3d2dbddc	0.042417392
97	0x3d8f3a69	0.06993563
98	0x3d4e92ad	0.05043285
99	0xbbde3c4d	-0.0067820908
100	0xbd8d6af4	-0.06905165
101	0x3d0b977a	0.034080006
102	0xbdb6bc0a	-0.08922584
103	0xbbd2fa84	-0.006438555
104	0x3c1e6354	0.009667236
105	0x3d1e1209	0.03859142
106	0xbd9b0e9d	-0.07571147
107	0xbcf50e01	-0.029913904
108	0xbcea6fbc	-0.028617732
109	0x3d97caae	0.07411705
110	0x3d9618bf	0.07328939
111	0x3d8bf82d	0.06834445
112	0xbd7092b9	-0.058733676
113	0xbd71ee05	-0.059064884
114	0x3cc01d19	0.023451375
115	0x3cb77f6f	0.022399632
116	0xbb4b0f7f	-0.0030984578
117	0x3d9402c0	0.07227087
118	0xbd802b01	-0.06258202
119	0xbd797677	-0.060903993
120	0xbd4c8781	-0.049933914
121	0x3d5f67ad	0.054542232
122	0x3d2bf083	0.041977417
123	0x3d6ffc43	0.058590185
124	0xbcc1f7cb	-0.023677727
125	0x3cbb50f3	0.022865748
126	0x3db7a030	0.089661
127	0xbccab1e3	-0.024743026

actor.4.weight f4 [128, 128]
0	0x3b9ca41d	0.004780306
1	0xbda3700c	-0.079803556
2	0xbd5be07d	-0.053680886
3	0xbd8f2574	-0.069895655
4	0x3e445992	0.19174793
5	0xbc323b3c	-0.01087838
6	0xbb0cb8ff	-0.002147257
7	0xbd009503	-0.03139211
8	0xbda1f069	-0.07907183
9	0x3aa2ac33	0.0012410939
10	0xbd8631dc	-0.06552479
11	0xbce00d08	-0.027349964
12	0x3d5dfb24	0.054194584
13	0x3c6b99b4	0.014379907
14	0xbd2ac81a	-0.041694738
15	0x3d8ae4ff	0.06781959
16	0x3baa310f	0.0051938365
17	0xbd9f527d	-0.07779405
18	0x3d641457	0.05568346
19	0x3d248044	0.040161386
20	0xbca2b128	-0.019859865
21	0xbb85ec39	-0.004086998
22	0x3d269f49	0.04067925
23	0xbcca587f	-0.024700401
24	0xbde903b1	-0.11377657
25	0xbb80c6a8	-0.0039299317
26	0x3d298cd3	0.041394066
27	0x3d130972	0.03589768
28	0xbd3979e8	-0.045282274
29	0x3c06c75c	0.008226242
30	0xbd156b47	-0.03647926
31	0xbc6a564a	-0.0143027995
32	0x3d6201ba	0.055177428
33	0xbdb18665	-0.08668212
34	0x3d08121e	0.033220403
35	0x3d0a7721	0.033805016
36	0x3dae2d3d	0.08504722
37	0x3cd93a22	0.026516978
38	0x3da3eeba	0.08004518
39	0xbc9926d2	-0.018695269
40	0xbc91d3ab	-0.017801126
41	0x3d42c954	0.047555283
42	0xbd1859a4	-0.037194863
43	0x3cc534b4	0.024072982
44	0xbda710c6	-0.08157496
45	0x3d4508fe	0.04810428
46	0x3cd45684	0.02592016
47	0x3e4ff25c	0.20307297
48	0x3c41649e	0.011803774
49	0xbb982aa7	-0.0046437564
50	0x3dd350e9	0.10318167
51	0xbc8150e3	-0.01578564
52	0x3db9a0b4	0.09063855
53	0xbda0e4c5	-0.07856134
54	0x3c7df46f	0.015500172
55	0xbd313da8	-0.04327169
56	0xbd9cd0e1	-0.07657028
57	0xbd81a691	-0.06330598
58	0xbd01f2ac	-0.03172557
59	0x3d2cf5d8	0.042226642
60	0xbd59d966	-0.053185843
61	0xbd8d92ec	-0.06912789
62	0xbb98c25a	-0.0046618404
63	0xbe237b81	-0.15965082
64	0x3db52ca9	0.08846409
65	0x3c84c978	0.016209349
66	0x3d8906e2	0.06690766
67	0xbd258d60	-0.04041803
68	0x3d830a60	0.06398463
69	0x3df79137	0.120882444
70	0x3e256723	0.16152625
71	0x3c4cc2b7	0.0124975955
72	0xbc1fcdb5	-0.009753634
73	0xbd1400b4	-0.036133483
74	0xbd804497	-0.062630825
75	0xbd4ffa33	-0.050775718
76	0xbce20739	-0.027591335
77	0xbbaf65cb	-0.005352711
78	0x3d2c4fe7	0.04206839
79	0xbc9b4aba	-0.01895653
80	0xba33eaff	-0.0006863325
81	0xbce5601c	-0.02799993
82	0xbd91146e	-0.07083975
83	0x3e0ccaba	0.13749209
84	0x3daeadd6	0.0852925
85	0xbd2614ad	-0.04054706
86	0x3e2d30dd	0.16913171
87	0x3d970365	0.07373694
88	0x3d7f8465	0.06238212
89	0x3d2e0da7	0.04249349
90	0xbca2c6cb	-0.019870182
91	0xbd63b387	-0.055591132
92	0xbd3726d3	-0.04471476
93	0xbd05c22f	-0.03265589
94	0x3d0e7eb2	0.034788795
95	0xbdbc1cc9	-0.09185178
96	0xbd98051c	-0.074228495
97	0xbbce01d3	-0.0062868386
98	0xbd3a0e3e	-0.04542374
99	0xbd42a4be	-0.04752039
100	0x3c6e034d	0.014527154
101	0xbcd62108	-0.026138797
102	0xbcdf3295	-0.0272458
103	0xbd5aefd4	-0.053451374
104	0x3d7762d8	0.060397
105	0x3d9e80a4	0.0773938
106	0xbd24cbb8	-0.040233344
107	0xbcfdfa3d	-0.031003112
108	0x3e16ade7	0.14714776
109	0xbc87ee48	-0.016593114
110	0xbd70b379	-0.05876491
111	0x3d3e612c	0.04647939
112	0xbda1b8a9	-0.07896549
113	0x3db2c0bd	0.08728168
114	0xbd412121	-0.047150735
115	0x3d3b75ef	0.045766767
116	0x3ce50fdf	0.02796167
117	0x3d5657e3	0.05232991
118	0x3d83cc29	0.06435425
119	0x3db977e1	0.09056068
120	0xbe1f92e6	-0.15583381
121	0x3d1b788e	0.037956767
122	0x3c00b079	0.007854574
123	0xbd46b27e	-0.048510067
124	0x3e0f9aa8	0.1402384
125	0x3d061a0e	0.03273969
126	0xbcc59a28	-0.024121359
127	0xbcf6e2c0	-0.03013742
128	0xbcaa785a	-0.020809341
129	0xbcc4adba	-0.02400862
130	0xbda2ba0f	-0.07945644
131	0xbd82d8df	-0.06389021
132	0x3e8d2e65	0.2757446
133	0x3c62fd06	0.013854271
134	0xbc90cce9	-0.017675834
135	0xbd526d5a	-0.051373817
136	0x3d8155c3	0.06315186
137	0x3cf7e3ab	0.030259928
138	0x3d6ae73e	0.057349436
139	0xbd2df0d7	-0.04246601
140	0xbd520586	-0.0512748
141	0xbd0737ec	-0.033012316
142	0xbd0fbb55	-0.035090763
143	0x3cfa091c	0.030521922
144	0x3d14e698	0.036352724
145	0xbc4d980e	-0.01254846
146	0xbcc527cd	-0.02406683
147	0x3b303604	0.0026887665
148	0x3c90df4a	0.017684598
149	0x3d921dd9	0.07134599
150	0x3c83954b	0.0160624
151	0x3cddb894	0.027065553
152	0xbdc092f5	-0.0940303
153	0xbc177fb7	-0.009246758
154	0x3d3eb008	0.046554595
155	0x3d805d24	0.06267765
156	0xbd4e10b2	-0.05030889
157	0x3cf7b6e9	0.030238586
158	0x3c281470	0.010258779
159	0x3b8b20fa	0.0042458745
160	0xbd24bf40	-0.040221453
161	0x3cf935c1	0.03042114
162	0x3da5e731	0.08100737
163	0x3cc12e6d	0.023581708
164	0x3d8da732	0.069166556
165	0xbda7ef7f	-0.08199977
166	0xbd73cab7	-0.059519496
167	0xbd1017a0	-0.03517878
168	0xbd85bc17	-0.06530016
169	0x3c22dfb4	0.00994103
170	0x3d43464b	0.04767446
171	0xbd6c9bb4	-0.057765678
172	0xbd65cf60	-0.05610597
173	0xbca52c25	-0.020162651
174	0x3c2d84d9	0.010590755
175	0x3e739cb6	0.23790249
176	0xbc4cf73d	-0.012510118
177	0x3db99094	0.09060779
178	0x3d4db77d	0.050223816
179	0xbd944e67	-0.072415166
180	0x3d29e358	0.041476578
181	0x3d114f31	0.035475913
182	0xbd24dadb	-0.04024778
183	0x3d1dbb86	0.038508914
184	0x3c5442a6	0.012955343
185	0x3c8905b8	0.01672636
186	0xbd307c7d	-0.04308747
187	0xbd626df6	-0.05528065
188	0xbdbcca82	-0.09218313
189	0x3cf0494e	0.02933183
190	0x3d78d87d	0.060753334
191	0xbdedc7ae	-0.116103515
192	0x3dc98d37	0.09841388
193	0xbc4426af	-0.0119721135
194	0x3dfe9dc8	0.12432438
195	0xbe3ac9a4	-0.18240982
196	0xbd66c04d	-0.056335736
197	0x3e6c7250	0.23090482
198	0x3e3afe70	0.18261123
199	0xbcc287a3	-0.023746317
200	0x3d1751d1	0.03694326
201	0xbbb39f98	-0.0054816715
202	0x3c98d6e7	0.01865716
203	0xbcc18ed7	-0.023627682
204	0x3d618e63	0.05506743
205	0xbb243208	-0.0025054235
206	0x3e04d1eb	0.12970702
207	0x3d8706d0	0.06593096
208	0x3899fb51	7.34242e-05
209	0x3d488c42	0.048961885
210	0x398f6be0	0.0002735546
211	0x3d9f72c7	0.07785564
212	0x3df2aacf	0.118489854
213	0xbde3c76f	-0.11122023
214	0x3e05302d	0.13006659
215	0x3dd18628	0.102306664
216	0x3d4d3bcc	0.050105855
217	0x3de3b30c	0.11118135
218	0x3d363046	0.04447963
219	0xbd2398ae	-0.03994053
220	0xbdb09156	-0.08621471
221	0x3d639e9c	0.055571184
222	0xbd53cc01	-0.051708225
223	0x3c619a4c	0.013769697
224	0xbce7a1bd	-0.028275365
225	0xbd527995	-0.05138548
226	0x3cac1c0a	0.021009464
227	0x3da33a32	0.07970084
228	0xbd14c66d	-0.036322046
229	0xbc897bbe	-0.016782638
230	0x3d2d2d9c	0.042279825
231	0x3d5bbf71	0.05364937
232	0x3db1ab8d	0.08675299
233	0xbc203647	-0.009778566
234	0x3db06acc	0.0861412
235	0x3d32e935	0.043679435
236	0x3dbcfe92	0.09228243
237	0xbd504f8d	-0.050857116
238	0xbc3d9c1c	-0.011572864
239	0x3d8adf1b	0.06780835
240	0xbd67bc74	-0.056576207
241	0x3db87286	0.090062186
242	0xbcd226e3	-0.025653308
243	0xbd03f59b	-0.03221665
244	0xbd306f37	-0.043074813
245	0x3d87e0cc	0.066346735
246	0x3d41a37b	0.047275048
247	0x3dc11ea1	0.0942967
248	0xbd81fb9e	-0.0634682
249	0xbc08279a	-0.008310223
250	0xbd8dfcef	-0.06933009
251	0xbcb1cf23	-0.021705216
252	0x3e609d09	0.21934904
253	0x3dacadce	0.08431588
254	0xbac44e87	-0.0014977016
255	0x3b593af9	0.0033146723

actor.4.bias f4 [128]
0	0x3d8eba71	0.069691546
1	0x3d6c186e	0.057640485
2	0xbcffa4cb	-0.03120651
3	0x3be05b56	0.0068468256
4	0x3caab904	0.020840175
5	0xbcc0a1b0	-0.023514599
6	0xbd4209ba	-0.047372557
7	0x3d4052eb	0.046954077
8	0x3d46b15d	0.04850899
9	0xbd6c75e2	-0.05772961
10	0x3d3002d5	0.04297145
11	0x3c6cf3f5	0.014462461
12	0x3d3b40e3	0.045716178
13	0xbd028de5	-0.031873602
14	0xbd77fc48	-0.06054333
15	0x3d74baac	0.059748337
16	0xbc981f64	-0.018569656
17	0xbd77c68d	-0.060492087
18	0x3d821f32	0.06353606
19	0x3c408d71	0.011752472
20	0xbd8d7346	-0.06906752
21	0xbd621bf9	-0.055202458
22	0xbd1738fb	-0.036919575
23	0x3d3024bb	0.04300378
24	0x3c26c8fb	0.010179753
25	0xbcfe29ed	-0.031025851
26	0xbd5ae376	-0.05343958
27	0x3ce78ece	0.028266337
28	0xb9b35bab	-0.00034209838
29	0xbd113cbb	-0.035458308
30	0xbc0a1a29	-0.008429089
31	0x3d8353da	0.06412478
32	0x3c542e72	0.012950527
33	0x3c41c86b	0.0118275685
34	0x3cf17a90	0.029477388
35	0xbd83e93d	-0.06440971
36	0xbca4d26a	-0.020119864
37	0x3d886f5c	0.06661865
38	0x3d0414f3	0.03224654
39	0xbd8954cc	-0.06705627
40	0xbcf03f61	-0.029327096
41	0xbd52756b	-0.05138151
42	0x3d15d41f	0.036579248
43	0x3d0e119d	0.034684766
44	0xba182772	-0.00058042177
45	0xbc9e7aa8	-0.019345596
46	0xbd1f037c	-0.038821682
47	0xbd168b2e	-0.036753826
48	0xbcf6f525	-0.03014619
49	0x3d07372a	0.033011593
50	0xbd500e8b	-0.05079512
51	0x3c1324cb	0.00898094
52	0xbceb1cb0	-0.028700203
53	0x3d7cc34c	0.061709687
54	0x3d42022d	0.047365356
55	0xbc6f94b9	-0.014622861
56	0xbc674610	-0.014115825
57	0xbc88af72	-0.016685221
58	0xbab5498e	-0.0013831125
59	0xbd25d148	-0.04048279
60	0x3ce30056	0.027710121
61	0x3d4903b7	0.04907581
62	0x3c64ce74	0.013965238
63	0x3c3ab1a8	0.011394896
64	0xbd6ed496	-0.058308206
65	0xbd64c10b	-0.055848163
66	0xbcdbaf87	-0.026817096
67	0xbd72124a	-0.059099473
68	0x3d807782	0.06272794
69	0xbd896445	-0.06708578
70	0x3aaf1c4f	0.0013359877
71	0xbd16877d	-0.036750305
72	0x3cbf01bf	0.023316262
73	0x3a8b3c56	0.001062284
74	0x3c89111a	0.016731787
75	0xbd0d88db	-0.034554344
76	0xbb17d828	-0.002316961
77	0x3c671dd8	0.014106236
78	0xbb2839f4	-0.0025669308
79	0xbd058d5f	-0.032605525
80	0x3a902d6c	0.0010999865
81	0x3d4522b8	0.048128814
82	0x3bd65c52	0.006541767
83	0xbcd400e9	-0.02587934
84	0xbd493700	-0.049124718
85	0xbba0527f	-0.004892647
86	0xbd3fb925	-0.046807427
87	0xbce48976	-0.027897578
88	0xbbafda4b	-0.0053665987
89	0x3d786836	0.06064626
90	0x3c074ebe	0.00825852
91	0x3d28cb7a	0.041209675
92	0xbd5a3936	-0.053277217
93	0x3cc008ac	0.023441635
94	0xbc82f24d	-0.015984679
95	0x3cd18520	0.025576174
96	0xbbbe2e59	-0.005803865
97	0xbd2c4e3c	-0.042066798
98	0x3b20bf88	0.0024528224
99	0xbc99e437	-0.01878558
100	0x3d59c861	0.05316961
101	0xbd62eaee	-0.055399828
102	0xbd4d7388	-0.050159007
103	0x3ce77e7a	0.02825855
104	0xbd0c200e	-0.034210257
105	0xbd0a2efc	-0.033736214
106	0x3d471a86	0.04860928
107	0xbd304b22	-0.043040402
108	0xbc8f89a1	-0.017521681
109	0xbbea9c9a	-0.0071597816
110	0xbc3405ef	-0.010987743
111	0x3c607b99	0.013701343
112	0x3ca24cb7	0.019811971
113	0x3d41b3a4	0.04729046
114	0x3cae2b0e	0.021260764
115	0xbd8daea1	-0.069180734
116	0x3d4f86f1	0.0506658
117	0xbd1283b5	-0.035770137
118	0x3ccb74fb	0.024836054
119	0xbb086340	-0.002081111
120	0xbc0637fb	-0.008192058
121	0xbd1012f2	-0.035174318
122	0xbc59d61b	-0.013295676
123	0xbd70baae	-0.05877178
124	0x3cbe0864	0.02319736
125	0x3cbc9d02	0.023024086
126	0xbd237510	-0.03990656
127	0xbab3ca9a	-0.0013716996

actor.7.weight f4 [128, 128]
0	0x3d83a191	0.06427301
1	0x3c3bbd19	0.011458659
2	0xbc20a1d3	-0.009804207
3	0xbe0553fa	-0.13020316
4	0xbd67c2e3	-0.056582343
5	0xbd2e2195	-0.042512495
6	0x3c812354	0.015763916
7	0xbd7e52da	-0.062090732
8	0xbdbc43ff	-0.09192657
9	0x3dc07853	0.0939795
10	0xbad9e52a	-0.0016624082
11	0xbc1cc721	-0.00956896
12	0x3d809bc6	0.062797114
13	0x3d1472c2	0.036242254
14	0xbbed9215	-0.0072500804
15	0x3c863328	0.016381815
16	0x3b702952	0.0036645723
17	0xbd54632f	-0.0518524
18	0x3d78a53f	0.060704466
19	0xbda1ea55	-0.079060234
20	0x3d048dc2	0.032361753
21	0x3d4f3ea2	0.05059684
22	0x3d922cbd	0.071374394
23	0xbd2fa426	-0.042881154
24	0xbd3a0df3	-0.04542346
25	0xbd51b19f	-0.051194783
26	0xbd87a8ff	-0.0662403
27	0x3dc833e6	0.09775524
28	0xbd2696e1	-0.040671233
29	0x3d181914	0.03713329
30	0xbdaba68d	-0.083813764
31	0xbd0872ea	-0.033312716
32	0xbd6f7395	-0.058459837
33	0x3b8abd35	0.004233981
34	0x3d9cc74e	0.07655202
35	0xbd567585	-0.05235817
36	0xbd31ebf3	-0.04343791
37	0xba80288d	-0.000977771
38	0x3daa7eae	0.083249435
39	0x3da7fc95	0.08202473
40	0x3c090e18	0.008365177
41	0x3cfc3f24	0.030791827
42	0x3c4af629	0.012387791
43	0xbce9269f	-0.028460799
44	0xbd2fa8bb	-0.042885523
45	0x3d87716e	0.06613432
46	0xbd83a5b3	-0.06428089
47	0xbd7b38af	-0.061333355
48	0xbc04918a	-0.00809134
49	0x3da4a622	0.080395
50	0x3cf970a8	0.030449226
51	0x3c794b26	0.015215671
52	0x3dc6b7a7	0.09702998
53	0x3d4ebba5	0.05047192
54	0x3dd8d134	0.10586777
55	0x3c02204b	0.00794227
56	0xbd42a0cf	-0.04751664
57	0xb9f9ccb0	-0.00047645485
58	0xbc047691	-0.008084909
59	0xbd35e590	-0.04440838
60	0xbd9cfb67	-0.07665139
61	0x3d723a1a	0.05913744
62	0xbd44d65d	-0.048055995
63	0xbd663882	-0.056206234
64	0xbdadc04f	-0.084839456
65	0x3d30b11b	0.04313765
66	0x3c1df877	0.009641758
67	0x3cee290a	0.029072303
68	0x3da7501b	0.08169576
69	0x3d2d562a	0.0423185
70	0xbd56e7ba	-0.052467085
71	0x3d7b26f2	0.061316438
72	0xbd436094	-0.047699526
73	0x3a9bbbd9	0.0011881544
74	0x3dc4c3e5	0.096076764
75	0xbd0906a0	-0.033453584
76	0x3d523381	0.05131865
77	0x3dcc87b3	0.0998682
78	0x3d3c5af1	0.045985166
79	0x3d40611e	0.04696762
80	0x3ca7517d	0.020424599
81	0xbcba09bc	-0.02270972
82	0xbdcc79fd	-0.09984205
83	0xbc9d5c97	-0.01920919
84	0x3d37f25a	0.04490886
85	0x3cd0c314	0.025483645
86	0x3e0298b2	0.12753561
87	0x3d197996	0.03746947
88	0xbd8c9764	-0.06864813
89	0x3e0271db	0.12738745
90	0x3ba8f32b	0.005155941
91	0xbd8aea31	-0.0678295
92	0x3d6e5850	0.05818969
93	0x3de87e4b	0.113522135
94	0x3b99aefc	0.004690049
95	0x3dccbf6e	0.0999745
96	0x3c8f112a	0.01746424
97	0xbd1cb190	-0.038255274
98	0xbc0b2232	-0.0084920395
99	0x3d9afb3b	0.0756745
100	0xbca52a66	-0.020161819
101	0xbdbd8353	-0.09253564
102	0xbd2400cd	-0.040039826
103	0xbcf9aae6	-0.030476999
104	0x3c8cb112	0.017174277
105	0xbd083ff2	-0.033264108
106	0x3dbedd10	0.09319508
107	0x3d4d1367	0.05006733
108	0xbd779d98	-0.060453027
109	0x3cfb9218	0.030709311
110	0x3d8ca56d	0.0686749
111	0xbdc49d78	-0.09600347
112	0xbd8c7cec	-0.068597645
113	0x3ca087c1	0.019595983
114	0xbc65ed97	-0.014033697
115	0x3be8f1e6	0.0071089147
116	0xbdae9feb	-0.08526596
117	0xbd905810	-0.070480466
118	0x3d976b3f	0.073935024
119	0xbcd0217e	-0.025406595
120	0xbd15f2fe	-0.03660869
121	0xbd807edd	-0.06274197
122	0xbcfe4547	-0.031038893
123	0x3d0b3de9	0.03399459
124	0xbc4f7751	-0.012662725
125	0xbd2bef1f	-0.04197609
126	0x3b0147ce	0.0019726637
127	0x3d6f8d09	0.05848411
128	0xbda22f20	-0.07919145
129	0xbdaa2d36	-0.083094046
130	0x3e25c1d7	0.16187225
131	0xbd255cab	-0.04037158
132	0xbda974c8	-0.082742274
133	0xbd698f9c	-0.057021722
134	0xbd1767b1	-0.036964122
135	0xbcb56065	-0.022140691
136	0xbdbea959	-0.09309644
137	0x3dc30e33	0.09524193
138	0x3d240839	0.040046904
139	0x3e38e892	0.18057469
140	0x3d84fd6c	0.06493649
141	0x3dce237e	0.10065363
142	0xbe1f1538	-0.15535438
143	0x3d03b48e	0.032154612
144	0x3ced4b96	0.028966706
145	0x3cfcc492	0.03085545
146	0x3c568241	0.013092578
147	0xbe4e06c2	-0.20119765
148	0x3dbeb1df	0.0931127
149	0xbdfc496f	-0.12318694
150	0xbdd425c0	-0.10358763
151	0xbe0c7be6	-0.13719139
152	0x3d98b9a2	0.07457282
153	0x3dd73e3d	0.10509918
154	0x3e1e8b79	0.15482892
155	0x3dbbf883	0.09178259
156	0xbcc53268	-0.024071887
157	0x3d3c0fa0	0.04591334
158	0xbe2c0556	-0.1679891
159	0x3da36d4f	0.07979833
160	0x3cbed67b	0.023295632
161	0xbb16bf84	-0.0023002336
162	0x3d05462c	0.032537624
163	0xbd8d16eb	-0.06889137
164	0xbdda9881	-0.10673619
165	0xbe111ea0	-0.14171839
166	0x3d8b2e35	0.06795923
167	0x3d3054d4	0.04304965
168	0xbc9c7f39	-0.019103633
169	0xbd87fd2a	-0.06640084
170	0x3d9a6466	0.07538681
171	0x3de39bc5	0.11113695
172	0xbe2ccc5f	-0.16874836
173	0x3d946a4f	0.07246839
174	0xbe036371	-0.12830903
175	0xbc980202	-0.018555645
176	0x3da9f99b	0.082995616
177	0x3e1b2bee	0.15153477
178	0x3db1d66f	0.08683478
179	0xbd316ca2	-0.04331649
180	0x3df6c511	0.12049306
181	0x3e00763a	0.125451
182	0x3d71b0cf	0.05900651
183	0xbdde7799	-0.10862655
184	0xbdcc2b83	-0.09969237
185	0x3df122c8	0.11774212
186	0xbe36445a	-0.17799512
187	0x3d38a124	0.04507555
188	0xbd887faa	-0.06664975
189	0x3d164ef3	0.036696386
190	0xbdf91c29	-0.12163574
191	0x3df22452	0.11823334
192	0xbb7c47d0	-0.0038494952
193	0xbc11ac6c	-0.008891206
194	0xbe0fdf85	-0.1405011
195	0x3d9e06e6	0.077161595
196	0x3db562b2	0.08856715
197	0x3dbf6b9e	0.09346698
198	0x3e202292	0.15638188
199	0xbd9e86cf	-0.077405564
200	0xbe02e3cd	-0.12782212
201	0xbd0052f2	-0.031329103
202	0xbe5a7aac	-0.21335858
203	0xbdc4dbce	-0.09612237
204	0x3d88d0a5	0.06680421
205	0x3e16a3e9	0.14710964
206	0x3c6ddb8d	0.014517677
207	0x3d8efed8	0.06982201
208	0x3d73a20e	0.05948072
209	0xbd5fdeb4	-0.054655746
210	0x3e41219e	0.1886048
211	0x3e14133c	0.14460462
212	0x3d4f6ac2	0.05063892
213	0xbd67e6f2	-0.05661673
214	0x3d54af16	0.051924787
215	0x3d2d7696	0.04234942
216	0xbe06ce97	-0.13164745
217	0x3db39107	0.08767896
218	0x3e1792d1	0.148021
219	0x3d433dff	0.047666546
220	0xbe282fbd	-0.1642446
221	0x3e29e2e9	0.16590466
222	0xbe2ebab3	-0.17063408
223	0x3c96bd5d	0.018400842
224	0x3d89ad11	0.06722463
225	0xbe34c928	-0.1765486
226	0xbd42ea91	-0.04758698
227	0x3e1c2930	0.15250087
228	0x3db04d38	0.08608478
229	0xbe4cffc0	-0.20019436
230	0xbdf48efa	-0.11941333
231	0xbddf0dff	-0.108913414
232	0xbd008c96	-0.031384073
233	0xbda5493b	-0.08070608
234	0xbcc54970	-0.02408287
235	0x3d3d1f66	0.046172522
236	0xbd24def8	-0.040251702
237	0x3e029a58	0.1275419
238	0x3d8b2499	0.0679409
239	0xbe013ff3	-0.12622051
240	0xbdf2a9e7	-0.118488126
241	0x3e157f25	0.14599283
242	0xbbea147d	-0.0071435557
243	0x3e3a0411	0.18165614
244	0xbdbbd043	-0.09170582
245	0x3d0602f3	0.032717656
246	0x3db894df	0.0901277
247	0x3bb24182	0.005439938
248	0xbd603efc	-0.054747567
249	0xbb4bf978	-0.0031124037
250	0x3d615082	0.05500842
251	0xbbf22d7d	-0.0073906765
252	0xbdc573cd	-0.09641228
253	0xbe3446f3	-0.1760519
254	0xbdfc7d9f	-0.12328648
255	0x3dede729	0.11616356

actor.7.bias f4 [128]
0	0xbc0a8435	-0.008454372
1	0xbbabc736	-0.0052422537
2	0x3b4a0e32	0.0030831215
3	0x3b714070	0.003681209
4	0xbc0e4eb5	-0.008685757
5	0xba1fca6d	-0.00060955324
6	0xbb5e88b0	-0.0033955984
7	0x3c1caa7a	0.009562129
8	0xbc3672ff	-0.011135816
9	0xbc45a02e	-0.012062116
10	0xbc1fdfd6	-0.0097579565
11	0x3b501b10	0.0031754412
12	0x3b4a0698	0.0030826684
13	0xbc7592ce	-0.014988614
14	0x3d10b00f	0.035324153
15	0xbc982396	-0.018571656
16	0xbc039f1b	-0.008033539
17	0x3c4e044c	0.012574267
18	0x3c937bfc	0.018003456
19	0xbb871470	-0.0041223094
20	0xbcf39b36	-0.029737096
21	0xbb1d1ad6	-0.0023972294
22	0xbc51d79d	-0.012807754
23	0xbb8062d3	-0.0039180308
24	0xb9367689	-0.0001740103
25	0x3c4cb15c	0.012493458
26	0x3c755540	0.014973938
27	0x3c580bcd	0.013186407
28	0x3ca4cdb9	0.020117627
29	0x3ccfb123	0.02535302
30	0x3cb9c607	0.022677435
31	0x3bcc5b64	0.0062364805
32	0x3c908c3b	0.017644992
33	0x3ccb54c3	0.024820691
34	0xbc090b4c	-0.00836451
35	0xbca231aa	-0.019799072
36	0xbc7cb23e	-0.015423356
37	0x3c9b9575	0.018992165
38	0xbc7c9320	-0.015415937
39	0x3b248b16	0.0025107316
40	0xbb8d2956	-0.004307906
41	0xbbf925dd	-0.0076033906
42	0x3c88eccb	0.016714474
43	0xbc206526	-0.009789741
44	0x3c4fc550	0.01268132
45	0x3afb7af5	0.0019186424
46	0x3c07462d	0.008256477
47	0xbc333ea0	-0.010940224
48	0xbb40b9f3	-0.002940771
49	0x3b68d087	0.0035524683
50	0xbbf3277c	-0.0074204784
51	0xba97a9db	-0.0011571007
52	0x39ded911	0.00042504867
53	0xbc3a2487	-0.011361248
54	0xbb39c564	-0.0028346414
55	0xbaa5d598	-0.0012652157
56	0x3c83b47b	0.01607727
57	0xbc818d59	-0.01581447
58	0x3b4225bd	0.0029624545
59	0x3bc2b0cf	0.0059414874
60	0xbb3fe2c5	-0.0029279452
61	0x3c35e313	0.011101502
62	0x3c17754e	0.009244276
63	0xbcd88af5	-0.026433447
64	0xbc2fd822	-0.010732682
65	0x3c0d312d	0.008617681
66	0xbc99eb3d	-0.018788928
67	0xbcc7a6de	-0.02437156
68	0xbb9c2c94	-0.0047660563
69	0xbc767559	-0.015042626
70	0x3b30943c	0.0026943823
71	0x3d148804	0.036262527
72	0x3ac118fe	0.001473218
73	0xbb68733b	-0.0035469073
74	0xbcc30133	-0.023804283
75	0x3c7c2ea8	0.015391983
76	0x3adc814f	0.0016823205
77	0xbb38a6fc	-0.0028175702
78	0x3ad3a9ca	0.0016148624
79	0x3c2c74fc	0.010525938
80	0xbd01e74a	-0.031714715
81	0x3c553b74	0.013014663
82	0xbbd6bc7c	-0.006553231
83	0x3c96514a	0.018349309
84	0x3c60362e	0.013684792
85	0xbcbb6805	-0.022876749
86	0x3b912dc2	0.0044305036
87	0xbb207b6c	-0.0024487628
88	0xbbba9ca1	-0.005694941
89	0x3ae2f116	0.0017314281
90	0x3b072293	0.0020619973
91	0xbb84e458	-0.004055541
92	0xba6df9d8	-0.0009078062
93	0xbbe87bbf	-0.00709483
94	0x3ba707ee	0.005097381
95	0xbc5fb82e	-0.013654752
96	0x3b177733	0.002311182
97	0x3c6a4695	0.014299055
98	0xba2c5199	-0.00065734383
99	0x3c838df2	0.016058896
100	0xbb26389f	-0.0025363339
101	0xbbee31a7	-0.0072691026
102	0xbcb24f52	-0.021766338
103	0x3c7471e5	0.014919733
104	0xbc58c127	-0.013229645
105	0x3c2577a9	0.01009933
106	0xbb715d6d	-0.0036829368
107	0x3c9c8e22	0.019110743
108	0xbc177a68	-0.0092454925
109	0x3c1182ae	0.008881254
110	0xbc0c4aca	-0.008562753
111	0x3cae401b	0.021270802
112	0x3c8a8256	0.016907852
113	0x3adab617	0.0016686347
114	0xbbb1da9d	-0.005427672
115	0xba8a24ab	-0.0010539492
116	0xbb0a5519	-0.002110785
117	0x3b953371	0.0045532514
118	0xbbbe8236	-0.005813862
119	0xbbe36d33	-0.006940508
120	0xbc9356b2	-0.017985675
121	0x3c75a2f2	0.0149924625
122	0xbb6710a1	-0.0035257714
123	0xbc06a893	-0.008218902
124	0x3c0a3c88	0.008437283
125	0x3a571185	0.000820421
126	0xbbdfe110	-0.0068322495
127	0xbc014fa5	-0.007892524

actor.10.weight f4 [1, 128]
0	0x3b160c24	0.002289542
1	0x3afb0003	0.0019149784
2	0x3bbdee82	0.0057962546
3	0x3b58cb39	0.0033080115
4	0x3b5b5eae	0.0033473182
5	0xba6f70a2	-0.000913391
6	0xb9cf7615	-0.00039570095
7	0xbc00834c	-0.007843804
8	0x3b9fddc3	0.004878731
9	0x3bef52c1	0.007303566
10	0x3b987885	0.004653039
11	0x3bcf1a3d	0.0063202665
12	0xbb1e1d4d	-0.0024126351
13	0xbabec49b	-0.0014554443
14	0xba858b58	-0.0010188622
15	0xbb1750a1	-0.002308883
16	0xbb874d49	-0.004129086
17	0x3ba3e5c1	0.005001754
18	0x3b3736f2	0.0027956334
19	0x3ad97211	0.001658978
20	0xbbec5296	-0.0072119934
21	0x3b40dcdc	0.0029428517
22	0x3b996b97	0.004682015
23	0xba82a30d	-0.0009966806
24	0x3b93bfb4	0.004508937
25	0x3b8210e5	0.003969299
26	0x3ae7bfac	0.0017681024
27	0x3b9b9c1b	0.004748834
28	0x3bb17d33	0.0054165362
29	0x39e65f2c	0.00043939927
30	0xb9af1887	-0.00033396875
31	0x3bc5453b	0.006020216
32	0x3c084bec	0.008318882
33	0x3b9e2af1	0.0048268964
34	0x3b5633ba	0.003268464
35	0xba915db3	-0.0011090547
36	0xbbaf211e	-0.005344524
37	0x3b68b2b6	0.003550691
38	0x3bfbf11d	0.007688655
39	0xbba559a0	-0.0050460845
40	0x3b01f497	0.0019829625
41	0x3bf3e35b	0.0074428744
42	0x3a00c94e	0.0004912809
43	0xbbada196	-0.0052988036
44	0x3bba5610	0.005686529
45	0xbb9d1387	-0.0047935876
46	0x3ba87e21	0.005141989
47	0xbbce8f67	-0.006303716
48	0xbbe9ee59	-0.007139009
49	0xbbda00a2	-0.0066529075
50	0xbb86aba1	-0.004109815
51	0xbb5d41b1	-0.003376108
52	0xbbabe40c	-0.005245691
53	0x3b8b3c7c	0.0042491537
54	0x3b8215a8	0.003969867
55	0x3bbb6773	0.005719119
56	0x3bfd4dc6	0.0077302186
57	0x3b54c831	0.0032467956
58	0x3b63f61e	0.0034784148
59	0x3bdc4741	0.0067223613
60	0x3b6ba25b	0.0035954926
61	0xbba4e9b3	-0.005032742
62	0xbb1a86a2	-0.0023578783
63	0xbb305d89	-0.002691122
64	0x3b2e9482	0.002663881
65	0x3bd78d10	0.0065780953
66	0xba8a6581	-0.0010558815
67	0xbb9eb7eb	-0.004843702
68	0x3b35e7c5	0.0027756554
69	0xbb7dd59f	-0.0038732064
70	0x3b2ab387	0.0026046948
71	0xbb8852e2	-0.004160271
72	0x3bf00fb2	0.00732609
73	0x3bc2d003	0.005945207
74	0xbc1d627e	-0.009606002
75	0x3b81421c	0.0039446484
76	0x3a26f569	0.00063689664
77	0x3ab6cbdf	0.0013946256
78	0xbb03e4bb	-0.0020125348
79	0xbbcdf65f	-0.0062854732
80	0xba93d405	-0.0011278397
81	0x3b7551e3	0.0037432841
82	0xbbfa7027	-0.007642764
83	0x3b8490b4	0.0040455703
84	0x3bd7fa49	0.0065911156
85	0xbbcfe66d	-0.0063446076
86	0xbba0df7e	-0.004909455
87	0x3b52e9fd	0.0032182925
88	0xbbc1bc8a	-0.005912368
89	0x3c089170	0.008335456
90	0x39c72840	0.00037986226
91	0x3be9f495	0.007139752
92	0xbb3a74ae	-0.0028450894
93	0xbb47a29e	-0.0030461918
94	0x3b0910b2	0.0020914492
95	0xb9206037	-0.00015294632
96	0x3a454907	0.00075258355
97	0xbb532d1a	-0.0032222928
98	0xbb6395a6	-0.0034726649
99	0xbb4ca4fa	-0.0031226263
100	0x3b00f0ae	0.0019674706
101	0xbb82d218	-0.0039923303
102	0xbb420bdb	-0.0029609117
103	0x3baf7654	0.005354682
104	0xbb3b9678	-0.0028623622
105	0x3a366fe1	0.000695942
106	0xbbba5811	-0.005686768
107	0x3b95020c	0.004547363
108	0x3b00df12	0.001966421
109	0x3b7101b8	0.0036774706
110	0xbb8b108b	-0.0042439154
111	0x3b64483f	0.00348331
112	0x3bc6e2cc	0.0060695168
113	0xbad6c569	-0.0016385737
114	0x3bf4ee8e	0.007474727
115	0xbb859df7	-0.004077669
116	0xbb894bb9	-0.004189935
117	0x3b9e5a7e	0.004832565
118	0xbbd166f8	-0.0063904487
119	0x3a696915	0.0008903903
120	0xba5ee00a	-0.00085020124
121	0x3baf4bd6	0.0053496165
122	0xb904f58b	-0.00012679973
123	0xbb361da7	-0.002778867
124	0x3bbafd72	0.0057064826
125	0x3b48aed5	0.0030621786
126	0x3be46ad4	0.0069707427
127	0xbb7ba91a	-0.0038400353
