PPO/PPO3_Trained/PPO_DoubleInvPendulum_500K.pth (torch, 410281 bytes, 18 tensors)

actor.0.weight f4 [128, 6]
0	0x3f1ae299	0.6050201
1	0x3eb0d70b	0.34539065
2	0x3c2fdb3c	0.010733422
3	0x3f0e279f	0.55529207
4	0x3f962b30	1.173193
5	0x3cf81e6c	0.030287944
6	0xbef32cbd	-0.4749507
7	0xbe05da74	-0.13071615
8	0x3eb3ee95	0.3514296
9	0xbef2840b	-0.47366366
10	0xbf96ed7f	-1.1791228
11	0x3ea1ad46	0.3157751
12	0xbf8fc6ae	-1.1232507
13	0x3d8aa6a6	0.06770067
14	0xbe9bcf7f	-0.30431744
15	0xbeb59a2f	-0.35469195
16	0xbf863dc9	-1.0487605
17	0x3f42145d	0.7581232
18	0xbf45f6fb	-0.7732999
19	0xbe96b077	-0.29431507
20	0xbdf2816b	-0.11841091
21	0xbe46b9fd	-0.19406886
22	0xbfa6df12	-1.3036826
23	0x3d302e3d	0.043012846
24	0xbf436517	-0.76326126
25	0x3e99c878	0.30035758
26	0xbeb44e5b	-0.3521603
27	0xbe35f631	-0.17769696
28	0xbf840c6c	-1.0316291
29	0x3f12c2a4	0.5732825
30	0xbf67a0a9	-0.9047952
31	0xbe97ad69	-0.2962449
32	0x3dcd56bf	0.10026311
33	0xbf4d31b3	-0.8015396
34	0xbf962e3c	-1.173286
35	0x3e29540b	0.16535966
36	0x3effc2e2	0.4995337
37	0x3e28dc8c	0.16490382
38	0x3e0182ba	0.12647524
39	0xbe3987c8	-0.18118203
40	0x3f11f9aa	0.5702158
41	0xbed81b77	-0.42208454
42	0xbf634ff9	-0.88793904
43	0x3d9b2785	0.07575897
44	0x3e747f7e	0.2387676
45	0x3e15bc30	0.14622569
46	0xbf8fade9	-1.1224948
47	0x3ee83eed	0.4536051
48	0xbf89a2ef	-1.0752848
49	0xbe90a61b	-0.28251728
50	0x3e765c5e	0.24058673
51	0xbf615d23	-0.8803274
52	0xbfafd333	-1.3736328
53	0xbdd3c175	-0.103396334
54	0x3e7c617b	0.24646561
55	0xbe6ae957	-0.22940575
56	0xbe0402fc	-0.12891763
57	0x3d5c7e57	0.053831425
58	0x3ef4a421	0.4778147
59	0xbed0e0f2	-0.4079662
60	0x3f4ce539	0.80037266
61	0xbe9eea65	-0.31038204
62	0xbe010bc9	-0.12602152
63	0x3e65c8ad	0.22439833
64	0x3f964f01	1.174286
65	0xbf06ad6d	-0.52608377
66	0x3f9ee3fa	1.2413323
67	0x3e0eeb43	0.13956933
68	0xbe7c288c	-0.24624842
69	0x3f367bee	0.7128285
70	0x3f9cdb59	1.225444
71	0xbe688d6c	-0.22710198
72	0xbe61dfb8	-0.22057998
73	0x3de2fc73	0.11083307
74	0xbe94e4eb	-0.290809
75	0x3e02a013	0.12756376
76	0xbf3c4dfe	-0.73556507
77	0x3e5145f5	0.20436843
78	0x3fa51375	1.2896563
79	0xbd2ca8c7	-0.042153146
80	0x3c9ac875	0.018894413
81	0x3f5ba193	0.8579342
82	0x3fc7fbe2	1.5623744
83	0xbd22c15d	-0.039735187
84	0x3e57f6cb	0.21090238
85	0x3ea8d0ce	0.32971805
86	0xbea7bcde	-0.32761282
87	0x3e8fd8b8	0.2809503
88	0x3f7ee80d	0.9957283
89	0x3d00443f	0.031315085
90	0x3e639e5a	0.22228375
91	0xbe373222	-0.17890218
92	0x3e144024	0.14477593
93	0x3f3da2d8	0.74076605
94	0x3f5fd2c2	0.87430966
95	0xbefcd3a8	-0.4938023
96	0x3f3fb1f0	0.74880886
97	0xbebee089	-0.37280682
98	0x3e03d9ee	0.12876102
99	0x3f58294c	0.84438014
100	0x3f8818b3	1.0632538
101	0xbb919525	-0.0044428282
102	0xbe77bcfc	-0.24193186
103	0x3e98c73b	0.298395
104	0x3e23f1c8	0.16010201
105	0xbf031488	-0.51203203
106	0xbf875b54	-1.0574746
107	0x3f3c371e	0.735216
108	0xbe42980a	-0.19003311
109	0x3bf7f507	0.0075670513
110	0x3d5a8054	0.05334504
111	0xbdc2571f	-0.09489273
112	0xbed0df5f	-0.4079542
113	0xbde23ad8	-0.1104638
114	0xbea20a32	-0.31648403
115	0xbe14a31c	-0.14515346
116	0x3d92694f	0.07148992
117	0x3e8fe540	0.2810459
118	0xbf3b5963	-0.7318327
119	0x3d477238	0.048692912
120	0xbfb5f97a	-1.4216759
121	0x3e6eaa88	0.2330724
122	0xbe168158	-0.14697778
123	0xbf18f18e	-0.59743583
124	0xc0017e47	-2.0233324
125	0x3f7118f6	0.9417871
126	0x3e263cc3	0.16234116
127	0xbeb2b8db	-0.3490666
128	0xbe117ccd	-0.14207764
129	0x3d612fe6	0.05497732
130	0x3f22bad0	0.63566303
131	0xbc82148f	-0.015878944
132	0x3da30122	0.079592004
133	0xbe5f155b	-0.2178549
134	0xbe708f8f	-0.23492263
135	0x3d77db53	0.0605119
136	0xbf20ab1c	-0.6276109
137	0x3ebb6ca7	0.36606333
138	0xbf3a39a7	-0.7274422
139	0xbde96654	-0.11396471
140	0xbe8f50fe	-0.2799148
141	0xbe64499d	-0.22293706
142	0xbfa15a4f	-1.2605685
143	0xbe06744a	-0.13130298
144	0xbecb4e63	-0.39708242
145	0x3e91f0fa	0.28504163
146	0xbde591d7	-0.11209457
147	0xbdfaebda	-0.12252016
148	0xbf1cb66c	-0.61215854
149	0x3dcb3c93	0.09923663
150	0x3f4724d1	0.7779055
151	0x3e561b81	0.2090893
152	0xbeb84143	-0.3598729
153	0x3f703e14	0.93844724
154	0x3fa09e8e	1.2548387
155	0xbd5824bb	-0.052769404
156	0xbf82300b	-1.0170912
157	0x3e845abf	0.25850484
158	0xbe986424	-0.297639
159	0xbe3038df	-0.17209195
160	0xbface4e8	-1.3507357
161	0x3f453be8	0.77044535
162	0xbf274264	-0.6533568
163	0xbe58a8a4	-0.21158081
164	0xbd673919	-0.056450937
165	0xbeb221f9	-0.34791544
166	0xbfcaa203	-1.5830692
167	0xbdfc27dd	-0.12312291
168	0xbf2628b9	-0.6490589
169	0x3d19da6f	0.03756183
170	0x3e374d6a	0.17900625
171	0xbe114118	-0.14184988
172	0xbf7e96db	-0.9944894
173	0x3e69a7a6	0.22817859
174	0x3e65f228	0.22455657
175	0xbe4bd566	-0.19905624
176	0x3e23ca6e	0.1599519
177	0x3ed8f57f	0.423748
178	0x3f3ab0e8	0.7292619
179	0xbe487898	-0.19577253
180	0xbf028f36	-0.5099977
181	0xbc8a6789	-0.016895073
182	0xbe9e0568	-0.308635
183	0xbebc453f	-0.3677158
184	0xbfb3c5b8	-1.4044714
185	0x3ed6313e	0.41834444
186	0x3f63e5d6	0.89022577
187	0xbdac89ff	-0.08424758
188	0x3ea92d3a	0.33042318
189	0x3f406489	0.75153404
190	0x3f83636e	1.0264719
191	0xbcde3fe0	-0.027130067
192	0x3f126aec	0.571944
193	0x3db776fb	0.089582406
194	0xbeb3a5b8	-0.3508737
195	0x3ede95af	0.43473575
196	0x3f6a6451	0.9155932
197	0x3dc422aa	0.09576924
198	0xbe88f50b	-0.26749453
199	0xbe0b075f	-0.1357703
200	0x3e521ca3	0.20518737
201	0x3e2177b2	0.15768316
202	0x3e56183f	0.20907687
203	0xbeb66bf2	-0.3562923
204	0x3e229b19	0.15879478
205	0xbe0e14e1	-0.13875152
206	0x3e2161a6	0.15759906
207	0xbe984822	-0.29742533
208	0x3d8a2451	0.06745208
209	0x3dacccfc	0.08437535
210	0xbf973e95	-1.1815974
211	0x3eb4a98e	0.3528561
212	0xbe9f446e	-0.31106895
213	0xbf584e78	-0.84494734
214	0xbfa63e0f	-1.2987689
215	0xbdaf970e	-0.08573733
216	0xbe474c74	-0.19462758
217	0xbcd66362	-0.026170436
218	0x3e25e0b6	0.16199002
219	0xbe06ff86	-0.13183412
220	0xbf81a147	-1.0127343
221	0x3ec4e9de	0.38459677
222	0x3f492672	0.7857429
223	0xbd0b4b2a	-0.03400723
224	0x3ebba3e3	0.36648473
225	0x3ee79b1c	0.45235527
226	0x3fa7712d	1.3081414
227	0xbead849b	-0.33890232
228	0x3f2accab	0.6671855
229	0x3da1bbee	0.07897173
230	0xbd2a1b6b	-0.041530054
231	0x3f4e22f3	0.8052208
232	0x3f94fe2c	1.1640067
233	0xbcb9d26d	-0.022683347
234	0xbe6aaf4b	-0.22918431
235	0xbe72a4d0	-0.23695683
236	0x3e96dc05	0.29464737
237	0xbeea6c3e	-0.45785707
238	0xbf3a28b5	-0.72718364
239	0x3e919054	0.28430426
240	0xbf7ff515	-0.9998334
241	0x3e1939fd	0.14963527
242	0xbe529057	-0.20562874
243	0xbf1d55fd	-0.6145933
244	0xbf90d1d6	-1.1314037
245	0x3eb60749	0.35552433
246	0xbf703ec4	-0.9384577
247	0xbd91491e	-0.07094024
248	0xbe814102	-0.2524491
249	0xbe89f66f	-0.26945826
250	0xbf991ae5	-1.1961333
251	0x3d1ed5d2	0.038778134
252	0x3f97db72	1.1863844
253	0xbdab6c20	-0.083702326
254	0x3e88ee3a	0.26744252
255	0x3f35873f	0.70909494

actor.0.bias f4 [128]
0	0xbe396b51	-0.18107344
1	0xbebb0520	-0.36527348
2	0xbda1252d	-0.07868419
3	0x3e67ec12	0.22648647
4	0x3e775441	0.24153234
5	0x3e9fb738	0.31194472
6	0x3ea08805	0.31353775
7	0xba86dd32	-0.001028931
8	0xbe036e7d	-0.12835117
9	0xbcdb403c	-0.026764028
10	0x3df6efea	0.12057479
11	0x3e36e528	0.17860854
12	0xbe909843	-0.28241166
13	0x3d9dc3cd	0.07703362
14	0xbd4018b6	-0.046898566
15	0xbd2b51b7	-0.041825976
16	0x3e9b41f4	0.30323756
17	0x3e875228	0.26429868
18	0x3e823c2e	0.25436538
19	0x3e1a10e4	0.15045506
20	0xbe148a20	-0.14505816
21	0xbe1ffc91	-0.1562369
22	0x3e826fa2	0.25475794
23	0xbc825f3c	-0.015914552
24	0xbe460709	-0.19338621
25	0x3e84de64	0.2595092
26	0x3d2c15e8	0.04201308
27	0x3e379569	0.17928089
28	0xbd4b92aa	-0.049700417
29	0x3cf392e1	0.029733123
30	0x3e9c9459	0.3058193
31	0x3cdacb1d	0.02670818
32	0xbe22235a	-0.15833798
33	0xbd3eaf18	-0.0465537
34	0x3e117f80	0.14208794
35	0xbe3c1e16	-0.18370852
36	0xbc93cd09	-0.018042104
37	0xbe292ad6	-0.16520247
38	0x3e411445	0.18855388
39	0x3e68ca40	0.22733402
40	0xbe20c947	-0.15701781
41	0x3d7e6ac5	0.062113542
42	0xbe1169e1	-0.14200546
43	0xbe2cfec8	-0.16894066
44	0x3d8560aa	0.06512578
45	0xbe3ad6cf	-0.18246005
46	0x3e9bf00a	0.30456573
47	0xbe7d95e7	-0.24764214
48	0x3d41ad10	0.047284186
49	0xbe8f472b	-0.27983984
50	0xbe097392	-0.13422993
51	0xbecdc4f4	-0.40189326
52	0x3d0ae680	0.03391123
53	0x3de50852	0.111832276
54	0x3e71461c	0.23561901
55	0xbdb6c270	-0.08923805
56	0xbe8d799b	-0.2763184
57	0xbeb8295a	-0.3596905
58	0xbe314438	-0.1731118
59	0xbe2215ff	-0.15828703
60	0x3ed05288	0.40687966
61	0xbe54c01d	-0.2077641
62	0x3d94d29b	0.07266732
63	0x3cb28207	0.021790517
64	0xbebd8a85	-0.37019745
65	0x3eaf2454	0.34207404
66	0x3e03d1c5	0.1287299
67	0xbd627166	-0.055283926
68	0x3e2e55d9	0.17024936
69	0x3e1a243b	0.15052883
70	0xbeae6e4e	-0.3406853
71	0x3ebabbf5	0.36471525
72	0xbead0929	-0.3379605
73	0xbea95bc0	-0.33077812
74	0x3ddf2045	0.10894827
75	0x3ea3cd15	0.31992403
76	0xbec0638a	-0.37575942
77	0x3eb61ffc	0.35571277
78	0x3c8f2f6b	0.017478665
79	0x3b48134c	0.003052908
80	0x3e80926f	0.2511172
81	0xbe58fb81	-0.21189691
82	0x3e358f38	0.17730415
83	0xbd3f87fe	-0.04676055
84	0xbe5bbaed	-0.21458025
85	0xbd6b59de	-0.05745875
86	0x3e8e0227	0.27736017
87	0x3e4acedf	0.19805478
88	0xbd9a0726	-0.07520895
89	0x3e48e291	0.19617678
90	0xbe106e19	-0.14104499
91	0x3e663dc2	0.22484496
92	0xbdb1d134	-0.086824805
93	0x3de39a8c	0.11113462
94	0x3e7df8cd	0.24801941
95	0x3e7094d2	0.2349427
96	0x3c512172	0.012764322
97	0xbdad19bb	-0.08452173
98	0x3db6ee71	0.08932198
99	0x3e9ab6f9	0.30217722
100	0x3d83d228	0.064365685
101	0x3e2edeaf	0.17077135
102	0x3e0e3a73	0.13889484
103	0xbe5b0f62	-0.21392587
104	0x3eacde94	0.33763564
105	0x3e4a57c3	0.19760041
106	0xbddde756	-0.108351395
107	0xbe96582a	-0.2936414
108	0x3cfdaeaa	0.030967075
109	0x3dd5ed5c	0.10445663
110	0xbe46b89c	-0.1940636
111	0x3d41b177	0.047288384
112	0xbde7009e	-0.112794146
113	0xbe5826b8	-0.2110852
114	0x3e3764df	0.17909573
115	0xbd422098	-0.047394365
116	0xbcb6d1d5	-0.022316853
117	0xbe43f077	-0.19134699
118	0xbe246533	-0.1605423
119	0x3c41b21f	0.0118222525
120	0x3dc88a1b	0.097919665
121	0xbe00901e	-0.12554976
122	0xbe9148b7	-0.2837579
123	0x3c7ea51f	0.015542298
124	0x3ea75d62	0.32688433
125	0x3e0a1963	0.13486247
126	0xbdce3b75	-0.10069934
127	0x3e603765	0.21896131

actor.2.weight f4 [128, 128]
0	0xbd045eba	-0.0323169
1	0xbe07409d	-0.13208242
2	0xbcc86bdc	-0.024465494
3	0xbdd069bd	-0.10176418
4	0xbd071549	-0.032979283
5	0xbe40e713	-0.18838148
6	0xbd18d084	-0.03730823
7	0x3d9dcd00	0.07705116
8	0xbdeb4871	-0.114884265
9	0xbc08122d	-0.008305115
10	0x3d6d8073	0.057983827
11	0x3f124e8c	0.57151103
12	0x3d0aa2d1	0.03384668
13	0x3e6b4fb3	0.22979622
14	0xbd4f1fc4	-0.050567403
15	0x3d03342a	0.03203217
16	0xbd00ca0b	-0.031442683
17	0xbcc12921	-0.023579182
18	0xbd70be98	-0.058775514
19	0xbd80be8d	-0.06286345
20	0xbf25ccd4	-0.6476567
21	0x3d5bdc5c	0.053676948
22	0x3d056f7b	0.03257702
23	0x3d4eef90	0.050521433
24	0x3b749e41	0.0037325772
25	0x3eaf996b	0.34296736
26	0xbe30cadb	-0.17264883
27	0xbd3915d6	-0.04518684
28	0x3b9cb9f9	0.004782912
29	0x3c9d57ac	0.019206844
30	0xbd33c358	-0.043887466
31	0x3d46be6f	0.048521455
32	0x3d7e23c6	0.062045835
33	0xbd2d1a8c	-0.042261645
34	0xbaa61756	-0.001267175
35	0xbe214137	-0.15747534
36	0x3d5cb074	0.053879216
37	0x3c055725	0.008138453
38	0x3d1a13c8	0.03761652
39	0xbd4d4543	-0.05011488
40	0x3d390933	0.04517479
41	0x3d832334	0.06403199
42	0xbcc8d48c	-0.024515413
43	0x3daf639c	0.08563921
44	0xbd55fb28	-0.052241474
45	0xbdb35c24	-0.08757809
46	0x3d434ba8	0.047679573
47	0x3cc08234	0.023499586
48	0x3dbe2d41	0.09285975
49	0x3acb99ac	0.0015533469
50	0xbdbbdf23	-0.09173419
51	0xbd51a084	-0.05117847
52	0x3b42b545	0.0029710096
53	0xbd8e58b1	-0.0695051
54	0xbb034d29	-0.0020035005
55	0x3d7de201	0.061983112
56	0xbc412e3a	-0.011790806
57	0x3bbb300d	0.005712515
58	0xbdac6333	-0.08417358
59	0x3dca13a3	0.09867027
60	0xbb6e234f	-0.0036336964
61	0xbc8fd29d	-0.017556483
62	0xbdb4aa52	-0.088215485
63	0x3b2e01fc	0.0026551476
64	0xbbec9859	-0.0072203097
65	0x3c52cb2a	0.012865821
66	0x3ba74142	0.005104215
67	0xbd4e481c	-0.050361738
68	0xbd155872	-0.0364613
69	0x3d1299fd	0.035791386
70	0xbd0946e9	-0.03351489
71	0x3d636870	0.05551952
72	0xbd445980	-0.047936916
73	0xbdd40e9f	-0.10354351
74	0x3d2816c8	0.04103735
75	0xbd8a64e8	-0.067575276
76	0xbde9d9cf	-0.11418497
77	0x3caa51c8	0.02079095
78	0xbd77d85b	-0.060509067
79	0xbd9856a0	-0.074383974
80	0xbd80f918	-0.06297511
81	0x3c5f5838	0.013631873
82	0x3c000bed	0.007815343
83	0x3d5b76c7	0.05358007
84	0xbd7719fb	-0.06032751
85	0x3ba069c7	0.004895422
86	0x3d5fda38	0.05465147
87	0xbda6dbc6	-0.08147387
88	0xbc36adc0	-0.011149824
89	0xbd11be7b	-0.035582047
90	0x3d0f0fa7	0.034927037
91	0xbded65f5	-0.115917124
92	0x3d1f8110	0.038941443
93	0xbdbabd6d	-0.09118161
94	0x3d925356	0.07144801
95	0xbd1024d6	-0.03519138
96	0xbd30ba9b	-0.04314671
97	0xbd916ea6	-0.07101183
98	0x3d819a3e	0.063282475
99	0xbc6e1e33	-0.014533567
100	0x3c54bd7a	0.012984628
101	0x3c593fad	0.01325981
102	0x3d9753e8	0.07389051
103	0x3caadc99	0.020857142
104	0xbd1b8d60	-0.037976623
105	0x3dbd7e2f	0.09252583
106	0xbdb1f627	-0.08689528
107	0xbd1fa32d	-0.038973976
108	0x3d9fc7b6	0.07801764
109	0x3e0443dd	0.12916513
110	0xbd30f155	-0.043198902
111	0xbd535813	-0.051597666
112	0xbd8b813e	-0.0681176
113	0x3d80a682	0.06281759
114	0x3c74c3dd	0.014939276
115	0xbd9e1f33	-0.077207945
116	0x3d2a9c8e	0.04165321
117	0x3c8d3afc	0.01724004
118	0xbd2bdf22	-0.041960843
119	0xbd050585	-0.032475967
120	0x3cc6da8d	0.024274135
121	0xbc702c72	-0.014659034
122	0x3d8d56b1	0.06901301
123	0x3e0d6a40	0.13810062
124	0x3d23eb2a	0.04001919
125	0x3e2e21e0	0.1700511
126	0xbdadb05a	-0.08480902
127	0x3a69ee78	0.0008923779
128	0xbbc09861	-0.00587754
129	0x3e0f8251	0.14014556
130	0x3d549787	0.05190232
131	0xbd37c29e	-0.044863336
132	0xbc0f544f	-0.008748128
133	0x3e3337f2	0.1750181
134	0x3dafc146	0.08581786
135	0x3db0d24e	0.086338624
136	0x3d84d730	0.06486356
137	0xbd9df659	-0.07713003
138	0x3d711ea4	0.05886711
139	0xbf0f8812	-0.56067
140	0x3d623694	0.05522783
141	0xbe519a08	-0.20468915
142	0x3ca7f714	0.020503558
143	0xbd302319	-0.04300222
144	0xbde67934	-0.112535864
145	0xbbe8e936	-0.007107879
146	0x3d269491	0.040669028
147	0x3d82e78c	0.0639182
148	0x3f460021	0.77343947
149	0x3d48fd0e	0.049069457
150	0xbcd23a0a	-0.02566244
151	0x3caef20c	0.021355651
152	0xbc86ea59	-0.016469168
153	0xbe9475ce	-0.28996128
154	0x3da1c125	0.078981675
155	0xbd6011c6	-0.05470445
156	0xbc83c292	-0.01608399
157	0xbc78eaf2	-0.015192734
158	0xbc52e495	-0.012871881
159	0xbc8b317a	-0.016991366
160	0xbd5b1eb7	-0.05349609
161	0xbd968042	-0.07348682
162	0x3cec6a89	0.028859394
163	0x3dc80b5a	0.0976779
164	0xbcf0a831	-0.029377075
165	0x3d3b4804	0.045722976
166	0x3d012d75	0.03153749
167	0xbc287c7d	-0.010283587
168	0x3caf15b4	0.021372654
169	0x3d982a2c	0.07429919
170	0xbcce4666	-0.025180053
171	0xbda385df	-0.07984518
172	0x3d9ce316	0.07660501
173	0x3d39a493	0.045322966
174	0x3db0454c	0.08606967
175	0x3d94fdb2	0.07274951
176	0xbd842950	-0.06453192
177	0xbd52e5e7	-0.051488783
178	0xba7a17e9	-0.0009540306
179	0xbab848ad	-0.0014059745
180	0xbc46ee24	-0.012141738
181	0x3aba0160	0.0014191084
182	0xbd7606b6	-0.060064994
183	0xbd48a75f	-0.048987743
184	0xbd14aece	-0.03629952
185	0xbdbfdccd	-0.09368286
186	0xbcbd1880	-0.023082972
187	0xbd92bd10	-0.07164967
188	0xbcde5819	-0.027141618
189	0x3db6ac70	0.089196086
190	0xbcd6b267	-0.026208116
191	0x3e06ad8c	0.1315214
192	0xbddbe388	-0.107367575
193	0x3d9aff57	0.075682335
194	0xbd248a86	-0.04017117
195	0xbc26eb28	-0.010187902
196	0x3d50311b	0.05082808
197	0xbd67a960	-0.056558013
198	0x3d271076	0.040787183
199	0x3d343024	0.043991223
200	0xbd40c192	-0.047059603
201	0xbc3b237b	-0.011422033
202	0x3da72c88	0.081627905
203	0xbd8779f9	-0.06615061
204	0x3dba58eb	0.09098991
205	0xbd4c5208	-0.04988292
206	0x3ce63418	0.028101012
207	0x3d30fa1a	0.043207265
208	0x3d56866c	0.05237429
209	0xbdae1fef	-0.085021846
210	0x3cb82a6a	0.022481162
211	0xbdc81c27	-0.09770995
212	0xbd66f559	-0.056386326
213	0xbd5d8a76	-0.054087125
214	0xbd351d45	-0.044217367
215	0x3d883acb	0.06651839
216	0xbd6592d0	-0.056048214
217	0xbca6936c	-0.020333968
218	0xbd221b71	-0.03957695
219	0x3d4a54d9	0.049397323
220	0xbcaf8d03	-0.021429544
221	0x3bd48228	0.0064852424
222	0xbcbc172d	-0.02296027
223	0xbd8b87ed	-0.06813035
224	0xbdcbccc9	-0.09951169
225	0x3ce9c362	0.028535549
226	0xbd78c352	-0.060733147
227	0x3aca94e7	0.0015455753
228	0x3cc9b1f1	0.024620982
229	0x3d3a1efe	0.045439713
230	0xbdb6ec43	-0.08931782
231	0x3d29aab7	0.041422572
232	0x3de030d7	0.109468155
233	0xbca34495	-0.019930163
234	0x3d0a21cf	0.03372365
235	0x3d54642b	0.05185334
236	0x3ccbc044	0.024871953
237	0xbdf6b8ec	-0.1204699
238	0x3d964697	0.07337683
239	0x3cd6377a	0.0261495
240	0x3c46b5b2	0.0121282805
241	0xbd9be55c	-0.07612106
242	0x3d9a8fbf	0.07546949
243	0xbd0f712d	-0.035020042
244	0xbc809325	-0.015695164
245	0xbd49b3ea	-0.049243845
246	0x3cf7ef6e	0.030265536
247	0x3d804cd6	0.06264655
248	0x3d51764f	0.05113822
249	0xbcc53305	-0.02407218
250	0x3c54a3b4	0.012978483
251	0xbc230a28	-0.009951152
252	0x3d91fe74	0.07128611
253	0xbdd1656a	-0.10224421
254	0x3b9abc0c	0.004722124
255	0x3d4a3ec8	0.04937628

actor.2.bias f4 [128]
0	0xbd1f6e56	-0.038923584
1	0x3d160860	0.03662908
2	0x3c87470c	0.01651337
3	0x3ca265c6	0.01982392
4	0xbd583276	-0.0527825
5	0xbd06d27f	-0.03291559
6	0x3cadf072	0.021232817
7	0x3d8d0e4a	0.06887491
8	0x3d146356	0.036227547
9	0xbc9d5a62	-0.019208137
10	0xbc2de9f4	-0.010614861
11	0x3daa0002	0.08300783
12	0x3d94864c	0.072521776
13	0x3d87bfe9	0.06628401
14	0xbc21256a	-0.00983558
15	0x3cea20ce	0.028580096
16	0x3d41fb76	0.047358952
17	0xbd332f60	-0.043746352
18	0x3cdc0ed7	0.026862545
19	0x3dafcf1e	0.08584426
20	0xbd6aaf90	-0.057296336
21	0x3db58a4d	0.088642694
22	0xbd9a8a5b	-0.075459205
23	0xbc4a2ec9	-0.012340256
24	0xbcb59dcc	-0.02216997
25	0xbcec4fe7	-0.028846694
26	0x3d29658f	0.04135662
27	0x3d869062	0.065705076
28	0xbd5e4ff2	-0.05427546
29	0x3d301871	0.04299206
30	0x3d9e32f6	0.07724564
31	0x3d8cf732	0.06883086
32	0xbd2fdf2a	-0.042937435
33	0xbc4987b8	-0.012300424
34	0x3cc1103a	0.023567308
35	0xbd291e9d	-0.04128896
36	0x3d5f3f8c	0.054503962
37	0xbda845d5	-0.082164444
38	0x3d0dba8c	0.034601733
39	0xbd8a2595	-0.067454495
40	0x3d0d5ccb	0.034512322
41	0xbd58336a	-0.052783407
42	0x3c80783d	0.015682334
43	0xbd117d2e	-0.03551977
44	0x3daf8b62	0.08571507
45	0x3d7a7e90	0.061155856
46	0xbd326716	-0.04355534
47	0xbcb0ac36	-0.021566492
48	0x3d8be910	0.068315625
49	0xbd13f987	-0.03612664
50	0x3d80d36c	0.062903255
51	0xbbcb1704	-0.006197812
52	0x3d506743	0.050879728
53	0x3d86b3c5	0.06577257
54	0xbd3a9a36	-0.045557223
55	0xba3b1687	-0.0007136841
56	0x3da7bbff	0.08190154
57	0x3da1b150	0.07895148
58	0x3d78b2ab	0.060717266
59	0x3d48f1d5	0.049058754
60	0x3d13dc79	0.03609893
61	0xbb4cffc1	-0.003128037
62	0xbd933fa8	-0.07189876
63	0xbcbd4e34	-0.02310858
64	0x3d70f843	0.05883051
65	0x3c928ac7	0.01788844
66	0xbd2fd5d2	-0.042928524
67	0xbd93047e	-0.07178591
68	0xbc948b4c	-0.018132828
69	0x3da12a1d	0.078693606
70	0x3d9f30d1	0.07772983
71	0x3d0e9548	0.034810334
72	0x3c9198d4	0.01777307
73	0xbbafd917	-0.0053664553
74	0x3cbd4bc3	0.023107415
75	0x3d0cd4ea	0.03438274
76	0xbd6328ea	-0.05545894
77	0x3d361bba	0.044460036
78	0x3cce7921	0.025204243
79	0xbd0230e2	-0.0317849
80	0xbd9c064a	-0.07618387
81	0xbc0ece32	-0.008716153
82	0xbc03dcff	-0.008048295
83	0x3c899cba	0.016798366
84	0x3d081eba	0.033232428
85	0x3ca1c1ee	0.019745793
86	0xbb55433e	-0.00325413
87	0x3b85e1fd	0.004085778
88	0x3d85c5b7	0.06531852
89	0xbd1fe0d6	-0.03903278
90	0x3d7ce5b1	0.06174249
91	0xb988d4a1	-0.00026098362
92	0xbcff885c	-0.03119295
93	0x3db31bc2	0.08745529
94	0xbcd51396	-0.026010316
95	0x3b846084	0.004039826
96	0x3d1a6b11	0.037699763
97	0x3d946324	0.07245472
98	0x3d4acf31	0.049514
99	0xbbe666d0	-0.007031299
100	0xbd881d4b	-0.06646212
101	0x3d09b210	0.03361708
102	0xbdba565a	-0.090985015
103	0xbc1f847e	-0.009736178
104	0x3c2cbcdc	0.010543074
105	0x3d21cec9	0.039503846
106	0xbd9e929d	-0.07742808
107	0xbce7b309	-0.028283613
108	0xbcd1393b	-0.025539985
109	0x3d943e81	0.07238484
110	0x3d95beb1	0.07311762
111	0x3d8fa941	0.070147045
112	0xbd773958	-0.06035742
113	0xbd5fdbe6	-0.05465307
114	0x3caeb768	0.02132769
115	0x3c9487f9	0.018131243
116	0xbac870e4	-0.0015292433
117	0x3d9ba9a5	0.076007165
118	0xbd6de0c9	-0.0580757
119	0xbd73fe43	-0.059568655
120	0xbd55c09e	-0.052185647
121	0x3d539a2d	0.051660705
122	0x3d2589e7	0.040414717
123	0x3d6c6b9f	0.057719823
124	0xbca7d60c	-0.020487808
125	0x3cca5d44	0.024702676
126	0x3db44ee9	0.088041134
127	0xbca1f539	-0.019770252

actor.4.weight f4 [128, 128]
0	0xbabf4bcf	-0.0014594736
1	0xbd53faad	-0.051752735
2	0xbd44bdd6	-0.048032604
3	0xbcf04980	-0.029331923
4	0x3e2ebc83	0.17064099
5	0xbc267d7a	-0.010161752
6	0x3cad6dea	0.021170575
7	0xbd425ced	-0.047451902
8	0xbd90dce7	-0.07073384
9	0xbb1cdd94	-0.0023935782
10	0xbd6a304b	-0.057174962
11	0xbd21d294	-0.039507464
12	0x3cd9ee2a	0.026602823
13	0xbcb2c0aa	-0.021820385
14	0xbd067799	-0.0328289
15	0x3d91e814	0.071243435
16	0xbc36de51	-0.011161403
17	0xbd1f9cb9	-0.03896782
18	0x3d49c406	0.04925921
19	0x3ce762cb	0.02824535
20	0xbc86a44c	-0.016435765
21	0xbd0735d0	-0.033010304
22	0x3cc5d142	0.024147633
23	0x3bc208cd	0.0059214593
24	0xbda9199c	-0.08256838
25	0xbc4ef4ac	-0.0126315765
26	0x3cefc485	0.029268513
27	0x3c2f39ae	0.010694904
28	0xbd8b6565	-0.06806449
29	0x3cc8dd69	0.02451964
30	0xbd5b6070	-0.053558767
31	0x3b680500	0.003540337
32	0x3d6474a7	0.05577531
33	0xbd9e6b90	-0.0773536
34	0x3cd134d7	0.025537891
35	0x3c9cc9e6	0.019139241
36	0x3d109c92	0.035305567
37	0x3d35913a	0.044327952
38	0x3d80c32f	0.06287228
39	0xbd0c3552	-0.034230538
40	0x3ad4c1e1	0.0016232097
41	0x3cf7ff6c	0.030273162
42	0xbc553c04	-0.013014797
43	0x3cdf0948	0.027226105
44	0xbda9316f	-0.08261382
45	0x3cf03bf7	0.029325468
46	0x3cced3f3	0.02524755
47	0x3e34ce23	0.1765676
48	0xbc8e4d61	-0.017370882
49	0xbc1fa713	-0.009744423
50	0x3d8513d6	0.06497924
51	0x3ca4e70c	0.020129703
52	0x3da58997	0.08082884
53	0xbd8d92b5	-0.06912748
54	0x3bf44da7	0.007455546
55	0xbc1d7e94	-0.009612698
56	0xbda87084	-0.08224586
57	0xbd26da66	-0.040735625
58	0xbd20f8f9	-0.03929994
59	0x3cca453d	0.024691219
60	0xbd520cf0	-0.05128187
61	0xbd239e11	-0.039945666
62	0xbc9fbf0c	-0.019500278
63	0xbdfe4fd6	-0.12417571
64	0x3d90f91d	0.070787646
65	0xbc527f90	-0.012847796
66	0x3d5c2190	0.053742945
67	0x3a1adedf	0.0005907844
68	0x3d621a63	0.055200946
69	0x3dc4877b	0.09596153
70	0x3e0702a6	0.13184604
71	0xbb04e23f	-0.0020276455
72	0xbc01b4a9	-0.007916608
73	0xbcd0eb0a	-0.0255027
74	0xbd02a6b8	-0.031897277
75	0xbd080ae1	-0.0332135
76	0xbc0b43ba	-0.008500034
77	0xbc6633da	-0.014050448
78	0x3a736558	0.0009284816
79	0xbd14c192	-0.036317416
80	0xbc8b26a0	-0.016986191
81	0xbd3e0444	-0.046390787
82	0xbd72f275	-0.059313256
83	0x3e0594b6	0.1304501
84	0x3d6ec5ff	0.058294293
85	0xbcd7c1f7	-0.026337607
86	0x3e0bb997	0.13645016
87	0x3d1f45a6	0.03888478
88	0x3d4e0177	0.050294366
89	0x3bffcad3	0.007806161
90	0xbc8ed08c	-0.017433427
91	0xbd467972	-0.048455663
92	0xbd0aaeb4	-0.033858016
93	0xbd4a3d30	-0.04937476
94	0x3cf5290a	0.029926796
95	0xbd9ee5b6	-0.07758658
96	0xbd7b0f59	-0.061293934
97	0x3b1351d4	0.0022479193
98	0xbcc99632	-0.024607752
99	0xbcb192c9	-0.021676438
100	0x3cf2c66f	0.029635636
101	0xbc7ceb4b	-0.015436958
102	0xbc983b2f	-0.018582908
103	0xbd10b2cb	-0.03532676
104	0x3c04f2c3	0.0081145195
105	0x3da69b25	0.0813506
106	0xbd4d32a4	-0.050097123
107	0xbccdb94a	-0.025112767
108	0x3def5735	0.11686555
109	0x3c86496e	0.016392436
110	0xbd6c47ee	-0.057685785
111	0x3c879286	0.01654936
112	0xbd28cf6b	-0.041213434
113	0x3d8894f5	0.06669036
114	0xbd152f7f	-0.03642225
115	0x3d1a1606	0.03761866
116	0xbc074165	-0.008255337
117	0x3d5d3bf3	0.05401225
118	0x3d4c9256	0.049944244
119	0x3d2d79da	0.042352535
120	0xbdb96487	-0.09052377
121	0x3d0b089e	0.033943765
122	0x3cc1d6e4	0.023662038
123	0xbd26a6fc	-0.040686592
124	0x3dbd3cc9	0.092401095
125	0x3c77b474	0.015118707
126	0xbcd62549	-0.026140826
127	0xbcead654	-0.028666653
128	0xbd7935cf	-0.06084233
129	0xba0e3d52	-0.00054260076
130	0xbca9888e	-0.020694997
131	0xbc8501f2	-0.01623628
132	0x3e83b2bb	0.25722298
133	0x3c9b608f	0.018966941
134	0x3c9b2dba	0.018942703
135	0xbd860381	-0.06543637
136	0x3d0d86ce	0.034552388
137	0x3cba2cd9	0.022726463
138	0x3cdf6dd4	0.02727405
139	0xbd5ffc04	-0.0546837
140	0xbd31500c	-0.04328923
141	0xbd84b316	-0.064794704
142	0xbd1a143d	-0.037616957
143	0x3c67000a	0.01409913
144	0x3c9123fa	0.01771735
145	0x3c9278e4	0.01787991
146	0xbca6bcc6	-0.020353686
147	0x3b6e1f13	0.003633444
148	0x3c5b6f39	0.013393217
149	0x3d179323	0.037005555
150	0x3bf17659	0.0073688445
151	0x3cbbb6b0	0.02291426
152	0xbd1b76c5	-0.037955064
153	0xbc3001dc	-0.010742631
154	0x3d00aa86	0.031412624
155	0x3d01497c	0.03156422
156	0xbd990dfc	-0.074733704
157	0x3d6ded0d	0.058087397
158	0xba61f112	-0.0008618991
159	0xbbd167ae	-0.0063905334
160	0xbcc033ab	-0.023462137
161	0x3d022d6c	0.0317816
162	0x3d59bdd2	0.053159542
163	0x3b727d9e	0.0037001143
164	0x3d1a66bb	0.037695628
165	0xbd394a55	-0.045236904
166	0xbd40f3d3	-0.04710753
167	0xbcdfa62b	-0.027300915
168	0xbd1964c4	-0.037449613
169	0xbc2cf33e	-0.01055604
170	0x3cd86956	0.026417416
171	0xbd4d6a02	-0.050149925
172	0xbd6ddc7b	-0.058071595
173	0xbd10da00	-0.03536415
174	0x3c341a85	0.010992651
175	0x3e3f5461	0.18684532
176	0xbd5098f9	-0.050927136
177	0x3d94725e	0.07248376
178	0x3cb0c50b	0.021578332
179	0xbd494e45	-0.04914691
180	0x3c961471	0.018320294
181	0x3d132f64	0.035933867
182	0xbce98004	-0.028503425
183	0x3d43347b	0.04765747
184	0xbba93594	-0.0051638577
185	0x3cb2ec79	0.021841275
186	0xbd21f565	-0.039540667
187	0xbd820d38	-0.063501775
188	0xbdc4b29d	-0.0960438
189	0x3c5d51e4	0.013508294
190	0x3d16e3d7	0.03683838
191	0xbda7ee58	-0.08199757
192	0x3d8d8fe1	0.06912208
193	0xbbedadb7	-0.0072533744
194	0x3dc3db59	0.095633216
195	0xbe0b7f8a	-0.13622871
196	0xbd3c8189	-0.04602197
197	0x3e4bdb0b	0.19907777
198	0x3e0b10d2	0.13580635
199	0xbce0cb70	-0.027440757
200	0x3ce199dd	0.027539188
201	0xbb3f400e	-0.0029182467
202	0x3cbe92f6	0.023263436
203	0xbceb3f95	-0.028716842
204	0x3d22a0e0	0.039704204
205	0xbb71e9a4	-0.0036912942
206	0x3d95c686	0.07313256
207	0x3cc849c3	0.024449235
208	0xbc5f6133	-0.013634014
209	0x3d049166	0.032365225
210	0x3d0e1c0b	0.034694713
211	0x3d8721df	0.06598257
212	0x3dc39051	0.095490105
213	0xbdb920e5	-0.09039477
214	0x3da1b4a9	0.07895786
215	0x3d14f866	0.036369704
216	0x3d3ec245	0.04657199
217	0x3d96dbaf	0.0736612
218	0x3d5e5978	0.054284543
219	0xbcff6b21	-0.031179013
220	0xbd9aa5d1	-0.07551158
221	0x3c566547	0.01308567
222	0xbd2584ba	-0.04040978
223	0x3c7a913b	0.015293415
224	0xbc9ab3e3	-0.018884605
225	0xbd2b27aa	-0.041785873
226	0x3d1b6ba2	0.037944444
227	0x3d92f8c5	0.07176355
228	0xbcd415b9	-0.025889264
229	0xba39dc89	-0.0007090052
230	0x3c63ea5a	0.013910854
231	0x3d46018b	0.048341315
232	0x3ced01ed	0.028931582
233	0xbb6d9c19	-0.0036256372
234	0x3d20abd4	0.039226368
235	0x3c98b568	0.018641189
236	0x3d8a2635	0.06745569
237	0xbc3cea80	-0.0115305185
238	0xbbcc1887	-0.00622851
239	0x3d8e9b44	0.06963208
240	0xbd0228b5	-0.031777103
241	0x3d8fb230	0.070164084
242	0xbc6bfeb2	-0.014403986
243	0xbd0a0114	-0.033692434
244	0xbd0d10c9	-0.034439836
245	0x3d16975c	0.03676544
246	0x3d405dea	0.046964563
247	0x3d5eff93	0.054442953
248	0x3c4f4d3c	0.012652691
249	0xbaba7de7	-0.0014228196
250	0xbd6b3697	-0.057425108
251	0xbcac4f84	-0.02103401
252	0x3e1cf8fc	0.15329355
253	0x3d6e3ef2	0.058165498
254	0xbb6f0a88	-0.0036474783
255	0x3b80e549	0.003933583

actor.4.bias f4 [128]
0	0x3d78ed76	0.060773335
1	0x3d5b4da3	0.053540837
2	0xbd04226e	-0.032259397
3	0x3c43a65c	0.011941519
4	0x3cdbc81a	0.026828814
5	0xbc503fe2	-0.012710543
6	0xbd0d63dd	-0.034519065
7	0x3d2f7aa0	0.042841554
8	0x3d2f537f	0.042804237
9	0xbd6a87d3	-0.05725844
10	0x3d098fbd	0.033584345
11	0x3c396a88	0.011316903
12	0x3d17ef82	0.037093647
13	0xbced8e8f	-0.028998641
14	0xbd5e0b31	-0.05420989
15	0x3d571445	0.052509565
16	0xbca5fa07	-0.020260824
17	0xbd5353f2	-0.05159373
18	0x3d58149f	0.05275404
19	0x3c0ceb91	0.008601085
20	0xbd68c2bd	-0.056826342
21	0xbd3d98e8	-0.0462884
22	0xbcf43e45	-0.029814849
23	0x3d2b2bae	0.041789703
24	0x3bee064d	0.0072639347
25	0xbcffd668	-0.031230167
26	0xbd403090	-0.046921313
27	0x3cc64d2f	0.024206726
28	0xbb370e4c	-0.0027932106
29	0xbce83c40	-0.028349042
30	0xbb97ed21	-0.0046364223
31	0x3d474206	0.04864695
32	0x3c456482	0.012047889
33	0x3c78822d	0.015167755
34	0x3cd55fba	0.026046623
35	0xbd51b70d	-0.05119996
36	0xbc45e102	-0.012077572
37	0x3d5cdf01	0.05392361
38	0x3cc8c488	0.024507776
39	0xbd7d0c29	-0.061779175
40	0xbcc74fd7	-0.024330063
41	0xbd2b5bdd	-0.041835655
42	0x3cfca4ce	0.030840304
43	0x3cf2a584	0.02961994
44	0xbb0d42dc	-0.0021554744
45	0xbca499ee	-0.02009293
46	0xbd062a67	-0.03275528
47	0xbcd7e1ba	-0.026352752
48	0xbcfb4765	-0.030673692
49	0x3cf38282	0.029725317
50	0xbd3f0d4f	-0.04664355
51	0x3c0859a2	0.008322151
52	0xbcd5008b	-0.026001235
53	0x3d49b39c	0.049243554
54	0x3d3dc679	0.046331856
55	0xbc4b6ebf	-0.012416541
56	0xbc83e09b	-0.016098311
57	0xbc99bc87	-0.018766655
58	0xbb6e051d	-0.0036318966
59	0xbd0ccfc5	-0.034377832
60	0x3cf60753	0.03003279
61	0x3d2ee7da	0.04270158
62	0x3c7a8e5e	0.015292732
63	0x3c071bcd	0.008246374
64	0xbd5be184	-0.053681865
65	0xbd2eeb84	-0.042705074
66	0xbc8a5b82	-0.016889337
67	0xbd4525dc	-0.04813181
68	0x3d52b88d	0.051445533
69	0xbd59d98f	-0.053185996
70	0xbb98c788	-0.004662458
71	0xbd058bf3	-0.03260417
72	0x3cc09335	0.023507694
73	0xbbc1e026	-0.005916613
74	0x3c3f1831	0.0116634825
75	0xbcfa984e	-0.030590203
76	0xbbdd6488	-0.006756369
77	0x3c32ae5c	0.010905828
78	0xbb9a4578	-0.0047079884
79	0xbd000b2c	-0.031260654
80	0xbab14237	-0.0013523762
81	0x3d34df3e	0.044158213
82	0x3bbc4ea8	0.0057466812
83	0xbcb8a93c	-0.022541635
84	0xbd23a7d4	-0.039954975
85	0xbb4c8462	-0.0031206836
86	0xbd26fb67	-0.0407671
87	0xbcba956f	-0.022776334
88	0xbb71dc12	-0.0036904854
89	0x3d65be32	0.056089588
90	0x3bff4195	0.0077898004
91	0x3d18af71	0.03727669
92	0xbd493393	-0.04912145
93	0x3c91d501	0.017801763
94	0xbc62ce93	-0.013843196
95	0x3c968b00	0.018376827
96	0xbbc60510	-0.006043084
97	0xbd0d78e0	-0.034539104
98	0xbb9e5500	-0.00483191
99	0xbc8b4062	-0.016998474
100	0x3d3b7aaf	0.045771297
101	0xbd3426af	-0.043982204
102	0xbd3bfb75	-0.045894105
103	0x3ce271c3	0.027642136
104	0xbcbfbb42	-0.023404721
105	0xbcf382c8	-0.029725447
106	0x3d21dbd0	0.03951627
107	0xbd19017d	-0.037354935
108	0xbc754a9d	-0.0149714025
109	0xbc21c799	-0.009874248
110	0xbc5da296	-0.013527533
111	0x3c1aa281	0.009438158
112	0x3c9893e1	0.018625202
113	0x3d1260a4	0.035736695
114	0x3ca5213a	0.020157445
115	0xbd7e3c6d	-0.062069345
116	0x3d3f48b0	0.04670018
117	0xbd042c64	-0.032268897
118	0x3caf2b5b	0.021382978
119	0xba8befac	-0.0010676286
120	0xbc22e080	-0.00994122
121	0xbcd7b046	-0.02632917
122	0xbc8f2605	-0.017474184
123	0xbd49ea40	-0.049295664
124	0x3ca9eaf5	0.020741919
125	0x3c80b972	0.015713427
126	0xbd1520b1	-0.03640813
127	0xbbcca7e7	-0.0062456015

actor.7.weight f4 [128, 128]
0	0x3d5cb30f	0.0538817
1	0x3c85c68c	0.016330026
2	0xbd3516f6	-0.04421135
3	0xbd984307	-0.074346595
4	0xbd0f4a20	-0.0349828
5	0xbc3ecba8	-0.011645235
6	0x3b9ea7e2	0.0048417905
7	0xbc89786c	-0.016781054
8	0xbd5b10ee	-0.053482942
9	0x3d800c1d	0.062523104
10	0xbd0cd40e	-0.03438192
11	0xbb71ebc2	-0.0036914204
12	0x3c655838	0.013998084
13	0x3d02141a	0.03175745
14	0xbce0a6ac	-0.027423225
15	0x3c441bcd	0.011969519
16	0xbc425669	-0.011861422
17	0xbd239931	-0.039941017
18	0x3ca3ac89	0.019979732
19	0xbd9b51a5	-0.07583932
20	0x3c37c4f5	0.011216392
21	0x3d422e9f	0.047407743
22	0x3d9ae214	0.07562652
23	0xbc89afec	-0.016807519
24	0xbd6f78d9	-0.05846486
25	0xbd55a7a8	-0.052161843
26	0xbd513d17	-0.05108365
27	0x3dc3e4f4	0.09565154
28	0xbd19b0c5	-0.037522096
29	0x3d2b1caa	0.041775383
30	0xbd917023	-0.071014665
31	0xbcaf655a	-0.021410633
32	0xbd8e2a1b	-0.06941625
33	0xbc8ac6a6	-0.016940426
34	0x3d940086	0.07226662
35	0xbd360977	-0.04444262
36	0xbcc102f1	-0.023560973
37	0x3c315a7a	0.010824794
38	0x3dcfb980	0.10142803
39	0x3d6bd56f	0.057576593
40	0x3cb9c700	0.022677898
41	0x3cdca7b4	0.026935436
42	0x3d051db2	0.032499023
43	0xbd6bfd57	-0.05761465
44	0xbd4cf824	-0.050041333
45	0x3c7a0d4a	0.015261957
46	0xbd512b7e	-0.051066868
47	0xbd8dd76b	-0.06925853
48	0x3c581ed1	0.013190941
49	0x3dbffd90	0.09374535
50	0x3cc43fa6	0.023956131
51	0x3cf7ac80	0.030233622
52	0x3da68020	0.08129907
53	0x3d110772	0.03540749
54	0x3d7d3d7b	0.06182621
55	0x3b483784	0.0030550668
56	0xbd57d16a	-0.052689947
57	0xbc3317f7	-0.010931007
58	0xbc7631d8	-0.015026532
59	0xbd27f70b	-0.041007083
60	0xbd26603f	-0.04061913
61	0x3cc9f762	0.024654094
62	0xbc141a37	-0.009039453
63	0xbd414f65	-0.047194857
64	0xbd7f200b	-0.062286418
65	0x3d483d80	0.048886776
66	0x3ceb6225	0.028733322
67	0x3c61bd9b	0.013778116
68	0x3d7c5146	0.061600946
69	0x3d3ac2a6	0.045595787
70	0xbd426571	-0.047460023
71	0x3d547693	0.051870894
72	0xbd025895	-0.03182276
73	0x3be42b96	0.0069632037
74	0x3ddc5db3	0.10760059
75	0xbd0fd1c1	-0.035112146
76	0x3d7095c3	0.058736574
77	0x3d860dd9	0.0654561
78	0x3d92de29	0.0717128
79	0x3d3700c1	0.044678453
80	0x3736cbc0	1.0895485e-05
81	0xbb0beab0	-0.0021349601
82	0xbdea07d1	-0.11427272
83	0xbd39c755	-0.045356113
84	0x3d06cffd	0.032913197
85	0x3ceae6d2	0.028674517
86	0x3de0e9f2	0.109821215
87	0x3d0a9918	0.033837408
88	0xbd7a7c8d	-0.061153937
89	0x3dda4dba	0.106593564
90	0x3c868265	0.016419599
91	0xbd62460d	-0.055242587
92	0x3d55ad35	0.052167136
93	0x3dbab7dd	0.091171004
94	0x3d29d494	0.041462496
95	0x3da52658	0.08063954
96	0xbbe49f81	-0.006977022
97	0xbd01c6c4	-0.0316837
98	0x37b754d8	2.1854808e-05
99	0x3d83b679	0.06431288
100	0xbccbc4ef	-0.024874179
101	0xbd127fd1	-0.035766426
102	0xbc943496	-0.018091481
103	0xbcf34eaa	-0.029700596
104	0xbba66f73	-0.0050792038
105	0xbd6c455d	-0.057683337
106	0x3d4f5126	0.0506145
107	0x3c94bf70	0.01815769
108	0xbd919608	-0.07108694
109	0x3b16ee1a	0.0023030103
110	0x3d78393f	0.06060147
111	0xbdc77133	-0.09738388
112	0xbd597135	-0.05308648
113	0x3c2c04bc	0.010499176
114	0xbc98ba42	-0.018643502
115	0x3b3f6c32	0.0029208777
116	0xbd15d244	-0.036577478
117	0xbd5b8fb6	-0.05360385
118	0x3d71db22	0.059046872
119	0xbc9c773b	-0.019099822
120	0xbccc4709	-0.024936216
121	0xbd3bff28	-0.045897633
122	0xbce2a9d2	-0.027668867
123	0x3d342210	0.043977797
124	0xbccb7272	-0.024834845
125	0xbd2f1a09	-0.04274944
126	0xbbfac39a	-0.007652712
127	0x3c586b33	0.013209152
128	0xbccdf9ca	-0.025143523
129	0xbbe2559b	-0.0069071776
130	0x3d8c9070	0.06863487
131	0x3cb76c92	0.022390638
132	0xbc7368aa	-0.014856497
133	0x3cde12a7	0.027108504
134	0xbb3423cb	-0.0027487155
135	0x3d0d64ba	0.03451989
136	0xbc442e85	-0.011973982
137	0x3cc85bb5	0.024457792
138	0xbcda7bcf	-0.026670365
139	0x3ddb15ed	0.106975414
140	0x3bac040a	0.005249505
141	0x3b84ab6e	0.0040487563
142	0xbdf89fa4	-0.12139824
143	0xbd1259e3	-0.035730254
144	0xbce62c96	-0.028097432
145	0xbd094ba9	-0.03351942
146	0xbd4ccfb1	-0.050002757
147	0xbe35d901	-0.17758562
148	0xbb02731c	-0.0019905036
149	0xbd67c305	-0.05658247
150	0xbd3176dc	-0.043326244
151	0xbd8e67c7	-0.06953388
152	0xbbcf2209	-0.006321196
153	0x3cb7be6b	0.022429666
154	0x3dac552f	0.08414685
155	0x3c3ed396	0.011647126
156	0x3d2e28c4	0.042519346
157	0xbc13187f	-0.008978008
158	0xbd8f9fa8	-0.07012874
159	0x3d186955	0.037209827
160	0xbd40fb36	-0.047114573
161	0x3d65fab9	0.05614731
162	0xbc8be05c	-0.017074756
163	0xbbd9a5f4	-0.0066420976
164	0xbbbc6ccb	-0.005750274
165	0xbd14f493	-0.036366057
166	0x3c5535ba	0.013013298
167	0xba9b2da5	-0.0011839165
168	0xbd8412b8	-0.06448883
169	0xbc4a9cd7	-0.012366495
170	0x3b92d1ee	0.004480592
171	0x3d7fb644	0.06242968
172	0xbdb4b589	-0.088236876
173	0xbc42c94b	-0.011888812
174	0xbd6d2f96	-0.05790671
175	0x3d9519f6	0.07280342
176	0x3d352402	0.044223793
177	0x3daf8247	0.0856977
178	0x3cafe1b7	0.021469934
179	0x3b86a9f8	0.0041096173
180	0x3c371281	0.011173845
181	0x3d1c9ec5	0.038237352
182	0xbd079c8b	-0.033108275
183	0xbbf47cb6	-0.0074611558
184	0xbd5007ac	-0.050788566
185	0x3d2180b1	0.03942937
186	0xbd88b03e	-0.066742405
187	0x3da0e77c	0.07856652
188	0xbc1865cb	-0.009301613
189	0xbc8cfcbf	-0.017210362
190	0xbd20bc0f	-0.039241847
191	0x3d485c2f	0.048916038
192	0x3d8844b6	0.066537306
193	0x3d16c4e1	0.036808852
194	0xbd3fb1ce	-0.046800427
195	0x3c6676e4	0.014066432
196	0x3d20034b	0.03906564
197	0x3cbf542e	0.02335557
198	0x3d9bcc1b	0.076072894
199	0xbdf21f7e	-0.11822413
200	0xbd9c0254	-0.076176316
201	0x3bde02ac	0.006775221
202	0xbda1c5eb	-0.07899078
203	0xbbc8e508	-0.0061308183
204	0x3c9ce191	0.019150527
205	0x3dbf462f	0.09339558
206	0x3d9a3991	0.07530511
207	0xbcdab8da	-0.026699472
208	0x3abedad9	0.0014561071
209	0x3d37a0a5	0.044830937
210	0x3dd339df	0.103137724
211	0x3db4ca70	0.088276744
212	0xbc15a309	-0.009133109
213	0x3d4faa8e	0.050699763
214	0xbc333265	-0.010937308
215	0x3c5a09ef	0.013308032
216	0xbd805e65	-0.06268004
217	0x3afb663c	0.0019180248
218	0x3dc66133	0.09686508
219	0x3c6fe174	0.014641155
220	0xbd905580	-0.07047558
221	0x3dc022db	0.09381648
222	0xbdf31f27	-0.11871176
223	0xbca645ae	-0.020296898
224	0xbb5121c1	-0.0031910988
225	0xbdb1ff5e	-0.086912856
226	0xbe04f2bb	-0.1298322
227	0x3d9315bd	0.071818806
228	0x3b841301	0.0040305858
229	0xbdeaa9db	-0.114581786
230	0xbccce590	-0.025011808
231	0xbd85256e	-0.0650128
232	0x3caee2e1	0.021348419
233	0xbd21b1c7	-0.039476182
234	0xbdbe970b	-0.09306153
235	0xbd571bb5	-0.052516658
236	0x3c8f97f2	0.017528508
237	0x3d8b89cc	0.06813392
238	0x39c9c709	0.00038486
239	0xbd697e63	-0.057005297
240	0xbc89123a	-0.016732324
241	0x3da7307b	0.08163544
242	0x3c786fd0	0.015163377
243	0x3dd32ca0	0.10311246
244	0xbc24765a	-0.010037983
245	0xbd603eaf	-0.05474728
246	0x3d1d5c6a	0.03841821
247	0xbd6278fa	-0.055291153
248	0x3b50d294	0.0031863796
249	0x3d8d8438	0.06909984
250	0xbc98627c	-0.018601649
251	0x3d0d9590	0.034566462
252	0xbc37636a	-0.011193136
253	0xbdc79c9e	-0.09746669
254	0xbc8a4e86	-0.016883146
255	0x3d02b97a	0.031915165

actor.7.bias f4 [128]
0	0xba2aea19	-0.00065198686
1	0xbbb604a7	-0.005554754
2	0xb94d6eff	-0.00019591673
3	0x3c186c63	0.009303185
4	0xbb44bfd1	-0.0030021558
5	0x3abcff58	0.001441936
6	0xbb61046d	-0.0034334913
7	0x3b0dba7c	0.0021626046
8	0x39de011d	0.0004234397
9	0xbbc921fa	-0.0061380835
10	0x3af41318	0.0018621413
11	0x3c1caf29	0.009563246
12	0x3b7545f9	0.003742574
13	0xbbafb84a	-0.005362545
14	0x3b1b05b5	0.0023654525
15	0xbb20903e	-0.0024500038
16	0xbb723ca4	-0.0036962414
17	0x3c1b740a	0.009488115
18	0x3b51a5fc	0.0031989804
19	0xbae4f6f5	-0.0017468618
20	0xbbaa03d8	-0.0051884465
21	0xbb2cb9f0	-0.0026355945
22	0x3b32e893	0.002729927
23	0xbbf3d53b	-0.0074411905
24	0xbb6dbc30	-0.0036275499
25	0x3b70e59e	0.0036757956
26	0x3ba47e8d	0.005019969
27	0x3b8cbbff	0.004294872
28	0xbb32058b	-0.0027163948
29	0x3b6d013e	0.003616407
30	0x385a7d64	5.209203e-05
31	0x3aceb9b4	0.0015771897
32	0x3b5a634f	0.0033323353
33	0x3b2ae567	0.0026076676
34	0xbb316db9	-0.0027073456
35	0x3b2c723c	0.0026313206
36	0x3b13a4c8	0.0022528637
37	0x3ba84841	0.0051355665
38	0x398fafb2	0.0002740599
39	0x3b41fbb2	0.0029599485
40	0xbbde268f	-0.006779499
41	0xbb34c977	-0.0027585903
42	0x3c167e85	0.009185438
43	0xbb211ae4	-0.0024582678
44	0xbb970692	-0.0046089375
45	0x3c7a585a	0.015279854
46	0xbb9cc98b	-0.004784768
47	0x3a960d37	0.001144803
48	0xbb7857a1	-0.0037894028
49	0x389652a6	7.167952e-05
50	0xbb6b50b7	-0.0035906264
51	0xbb5d81e2	-0.003379934
52	0xba1d2ed7	-0.00059960544
53	0xbaedece9	-0.001815227
54	0x3bba5a2e	0.00568702
55	0xbb8ad64c	-0.004236972
56	0x3af74343	0.001886465
57	0xbac9eed4	-0.0015406259
58	0x3ad2003d	0.00160218
59	0xbb293af9	-0.0025822504
60	0xbb87619a	-0.004131508
61	0x3b65758d	0.0035012693
62	0xbb55aa3b	-0.0032602686
63	0xbbeebe99	-0.0072859046
64	0xbb100582	-0.002197594
65	0x3b7b5b04	0.003835381
66	0x3a4c65a4	0.0007797128
67	0xb85a8015	-5.2094536e-05
68	0x3bf39d29	0.0074345064
69	0xbb985fb7	-0.004650082
70	0xb88385b6	-6.2714724e-05
71	0xba70f164	-0.00091912434
72	0x3b126a3e	0.0022341157
73	0x3b877c44	0.0041346867
74	0xba212899	-0.0006147712
75	0x3a5a7d04	0.0008334669
76	0xbb8208e1	-0.0039683436
77	0x3c1361d8	0.008995496
78	0x3a25ecaa	0.0006329516
79	0x3a031bff	0.0005001425
80	0xbc6029c2	-0.013681831
81	0x3abf80bd	0.001461051
82	0x3bc0d39d	0.0058846013
83	0xbb3a3810	-0.0028414764
84	0xba5c714f	-0.0008409218
85	0xbb06d474	-0.002057341
86	0x3b4b4a92	0.003101979
87	0xbb95f95c	-0.004576845
88	0xbb0fafd1	-0.0021924863
89	0xbacbdf13	-0.0015554152
90	0xbb880df8	-0.004152056
91	0x3b75ca36	0.003750456
92	0x3c05ef88	0.0081747845
93	0xbb9769bf	-0.00462076
94	0xbb4a83f8	-0.0030901413
95	0xbb59e615	-0.0033248712
96	0x3bb6503a	0.005563763
97	0xbba91eac	-0.005161127
98	0x3c0b075f	0.008485644
99	0x3b7b64a3	0.0038359545
100	0x3a4d254a	0.0007825686
101	0x38e23024	0.00010785487
102	0xbb30a8ed	-0.0026956156
103	0xbb7d26e1	-0.003862791
104	0x3b3464b8	0.0027525853
105	0xbb56ea10	-0.003279332
106	0x3baa8e51	0.0052049537
107	0x3ba6cd3a	0.005090383
108	0xba496eb8	-0.000768404
109	0x3bbb1ebc	0.005710451
110	0x3ac0710e	0.001468213
111	0x3bd414e9	0.0064722192
112	0xbbb54a61	-0.0055325483
113	0xbc330d1e	-0.01092842
114	0x3b3fbe3f	0.0029257683
115	0xbb4a0bff	-0.0030829904
116	0xbaf9603e	-0.0019025875
117	0x3b65ee4b	0.003508466
118	0xbb6e82fd	-0.0036393993
119	0x3b580378	0.0032961052
120	0x3bea12bf	0.007143348
121	0xba8a4bdd	-0.0010551173
122	0x3a8cf8d4	0.0010755309
123	0xbaadf118	-0.0013270704
124	0xba305df2	-0.0006727866
125	0x3b167c2f	0.0022962203
126	0xbc01d6eb	-0.007924776
127	0xbbb9070b	-0.0056465915

actor.10.weight f4 [1, 128]
0	0x3c791aca	0.015204141
1	0x3c1a883b	0.009431894
2	0x3c874438	0.016512021
3	0x3cc26ed6	0.023734491
4	0x3c86b708	0.016444698
5	0xbc6aee89	-0.014339098
6	0xbc4a9cdf	-0.012366503
7	0xbc5be53a	-0.013421351
8	0x3c78561b	0.015157248
9	0x3c704ee5	0.014667247
10	0xbc83f877	-0.016109688
11	0x3c88ad89	0.01668431
12	0xbc7b2bfa	-0.015330309
13	0xbc1f46ff	-0.009721517
14	0xbc32316f	-0.010876044
15	0xbc60e4cd	-0.013726425
16	0xbc88f549	-0.016718524
17	0x3ca171a8	0.019707516
18	0x3c3f1c3c	0.011664446
19	0x3c2994cf	0.01035042
20	0xbc2ad4d6	-0.010426721
21	0x3c6e1b7c	0.01453292
22	0x3c285183	0.01027334
23	0x3c81ecd6	0.015860002
24	0x3c570647	0.013124055
25	0x3c83199b	0.01600342
26	0x3c85ce43	0.016333705
27	0x3c61c04b	0.013778756
28	0x3c7bf086	0.0153771695
29	0x3c8c4519	0.017122792
30	0x3c90b103	0.01766253
31	0xbc6c300b	-0.014415751
32	0x3c3f6a20	0.011683017
33	0x3c70c5ee	0.014695628
34	0x3c2eb5a9	0.010663428
35	0xbc82ab95	-0.015950957
36	0xbc8a3e51	-0.016875418
37	0x3c2f13ed	0.010685903
38	0x3c451fd4	0.012031514
39	0xbc4f606c	-0.012657266
40	0x3c87244c	0.0164968
41	0x3c34c934	0.011034299
42	0x3c7458e0	0.014913768
43	0xbc83e2ba	-0.016099323
44	0x3c94f569	0.018183427
45	0xbc44df59	-0.012016141
46	0x3c788690	0.015168801
47	0xbc3db804	-0.011579517
48	0xbc46e08a	-0.012138495
49	0xbc5b50fc	-0.013386007
50	0xbc9ce51f	-0.019152222
51	0xbc2b93af	-0.010472222
52	0xbc6f3d78	-0.014602058
53	0x3c3c46db	0.011491503
54	0x3c7ea3cd	0.015541983
55	0x3c7699fa	0.015051359
56	0x3c9749ed	0.018467868
57	0x3c52331b	0.012829567
58	0x3c0568f8	0.008142702
59	0x3c2e3177	0.0106319105
60	0x3cac948d	0.021066928
61	0xbc7c2062	-0.01538858
62	0xbc4165e3	-0.011804077
63	0xbcc55f11	-0.024093183
64	0x3bc320cf	0.005954839
65	0x3c087ec8	0.008331008
66	0xbc1406c0	-0.009034812
67	0xbc816607	-0.01579572
68	0x3c049a46	0.008093422
69	0xbc47229d	-0.012154249
70	0x3c3be0a9	0.011467137
71	0xbc691265	-0.014225577
72	0xbc903e78	-0.017607912
73	0x3c9b2070	0.018936366
74	0xbc520b44	-0.012820069
75	0x3c48059a	0.012208367
76	0x3c1dc2ce	0.009628965
77	0x3c6aa586	0.01432169
78	0xbc71875b	-0.014741744
79	0xbc8740b9	-0.016510354
80	0xbc176f45	-0.009242837
81	0x3c967c8a	0.018369932
82	0xbc79b16e	-0.015240056
83	0x3c228505	0.00991941
84	0x3c472d55	0.012156804
85	0xbc788ed1	-0.015170769
86	0xbc0184c5	-0.00790519
87	0x3c442490	0.011971608
88	0xbcc95d25	-0.024580548
89	0x3c11c2e0	0.0088965595
90	0x3c473a6f	0.012159928
91	0x3c5b1fd1	0.013374285
92	0xbc31e313	-0.010857361
93	0xbc77d118	-0.015125535
94	0x3c534481	0.012894751
95	0xbcac5c20	-0.021040022
96	0x3c648d44	0.013949696
97	0xbc687f6f	-0.014190539
98	0xbc7af3b7	-0.015316895
99	0xbc773076	-0.015087238
100	0x3c1dd059	0.0096321935
101	0xbc9f256a	-0.01942702
102	0xbc82b660	-0.015956104
103	0x3c01d395	0.00792398
104	0xbc3a75da	-0.011380637
105	0xbc639be2	-0.013892146
106	0xbc4ec5da	-0.012620414
107	0x3c80e17d	0.015732521
108	0x3c473307	0.012158162
109	0x3c597b0e	0.013273967
110	0xbc3a9bf4	-0.011389721
111	0x3c87ce03	0.016577726
112	0x3c52c6b7	0.01286476
113	0xbc166c69	-0.00918112
114	0x3ca6bf8c	0.020355009
115	0xbc94b358	-0.018151924
116	0xbca45c71	-0.02006361
117	0x3c49ed21	0.012324602
118	0xbc5af59a	-0.01336422
119	0xbc521582	-0.012822511
120	0xbc1cbd5c	-0.009566631
121	0x3c133725	0.008985315
122	0xbc7e84d1	-0.015534596
123	0xbc8eb81c	-0.017421775
124	0x3c64bc0d	0.01396085
125	0x3c6b9d3b	0.014380748
126	0x3bd1b8a7	0.006400186
127	0xbc9180b3	-0.017761564
