PPO2_Trained/PPO2_DoubleInvPendulum.pth (torch, 109673 bytes, 18 tensors)

actor.0.weight f4 [64, 6]
000000 19 94 20 be 38 6d b4 be 0a bc 30 be 56 f9 17 3e
       -0.15681495 -0.35239577 -0.17259231 0.14841208
000010 66 95 13 3e a8 6c 16 3d 68 e2 8b 3e 5f 25 cf be
       0.1441246 0.036724716 0.27321172 -0.404582
000020 22 04 58 bd 08 50 5d 3e 65 e0 1c be 0a d6 7b 3e
       -0.052738316 0.21612561 -0.15319975 0.24593368
000030 78 a5 46 3f 45 06 7f bd bc 0a 02 be b6 88 bc be
       0.77596235 -0.06226184 -0.12699407 -0.36823052
000040 c9 33 6d be e6 45 1c 3f ed bb 4c 3f 9d 4e 6f be
       -0.23164286 0.61044157 0.7997425 -0.23369832
000050 02 a7 e3 bc 27 c9 bf be d5 82 b6 be 98 f3 d8 bd
       -0.027789596 -0.37458155 -0.35646692 -0.10593337
000060 91 59 18 bf 5a 85 60 be 5e a6 23 be 4e 71 8e 3e
       -0.5951167 -0.2192587 -0.15981433 0.2782082
000070 ea 36 da 3b 18 bb 62 be c5 f0 45 bd 11 da c9 be
       0.0066593783 -0.22141683 -0.04832532 -0.39424184
000080 2f 51 85 bd 0b 4a 11 3e 44 7e f3 3d 2f 5b 16 bf
       -0.06509625 0.14188401 0.11889318 -0.58732885
000090 76 ca 97 be 3f 89 c1 bd be 2e 22 3d 52 b9 4d 3e
       -0.29646653 -0.09450006 0.039595358 0.20090225
0000a0 c2 fb a8 3e fc a2 e2 be 98 44 1c 3f ea 1f dc be
       0.33004576 -0.44264972 0.61042166 -0.42993098
0000b0 41 96 81 be 7c db be be 50 18 7f bd 8a 56 82 3d
       -0.25309947 -0.37276828 -0.062279046 0.06364162
0000c0 f5 14 1a 3f 1e 91 74 be 14 d0 1b be 70 b2 6a be
       0.6018823 -0.23883483 -0.15216094 -0.22919631
0000d0 a0 c4 17 3d 15 65 a2 3e 6f af 93 3e b2 29 d5 bd
       0.03705275 0.31717744 0.28844783 -0.104083434
0000e0 03 d6 e8 3e 15 45 9e 3e 8d fd 84 3e ef e4 fd 3d
       0.45475778 0.3091208 0.25974694 0.12397181
0000f0 e5 00 2e 3f 58 db 9e 3c 10 d9 2d 3e 54 e8 d6 bd
       0.67970115 0.0193917 0.16977334 -0.10493532
000100 8c e8 9f be 48 68 37 3d 1e 60 f2 be 01 35 ba be
       -0.31232107 0.044777185 -0.47338957 -0.36368564
000110 b4 c6 5e 3e 6a ad 99 3e 9c 91 a3 bd bd 35 b0 bd
       0.21755487 0.30015117 -0.07986757 -0.08604
000120 4b 6f 61 3f b8 70 bc 3e 5f c6 b1 bd 0c 89 83 bd
       0.88060445 0.36804748 -0.086804144 -0.06422624
000130 11 cb a3 3d 8a be dd be ac d8 2e be 1f e5 66 be
       0.07997716 -0.43309432 -0.17074841 -0.2254834
000140 6a 3b 68 bc 96 bb 42 be 63 8b a8 3e 50 ea d9 be
       -0.014174322 -0.19016871 0.32918844 -0.4256158
000150 a7 e9 ad be 3b bd 79 3e c5 cb 34 3e 74 2d be 3e
       -0.33967325 0.24388592 0.17655857 0.37144053
000160 e1 15 a8 be 1e f8 fb 3e 18 6c 2c 3e 82 e9 bc 3e
       -0.32829192 0.49212736 0.1683811 0.36896902
000170 45 3b 52 be 14 63 66 3e 95 03 ad 3e a0 0e 90 3d
       -0.20530422 0.22498733 0.33791795 0.070340395
000180 9d 0a 04 bf 63 64 8e be a7 34 bb be 6c 03 3d be
       -0.51578695 -0.27810964 -0.36563608 -0.18458337
000190 eb 7f 99 be 4e cc 8c be 9d f5 91 3f 7d 0e 81 be
       -0.29980406 -0.27499622 1.140308 -0.25206366
0001a0 3a 4b e9 be 2f ad 6c bd 66 a6 a0 3e 03 d2 dd bd
       -0.45565206 -0.05778235 0.31376952 -0.10831072
0001b0 27 b6 ea 3d 14 93 32 3e 51 49 62 be 2b db bf be
       0.11460524 0.17438918 -0.2209828 -0.374719
0001c0 2c 97 be 3e e2 09 d6 be b1 10 9d 3d 75 3c 90 3e
       0.3722471 -0.41804415 0.07669199 0.28171125
0001d0 32 37 60 3d b3 c0 45 be 5e 33 27 3e 31 46 84 be
       0.05474014 -0.1931179 0.16328189 -0.25834802
0001e0 58 82 17 3f c5 67 fa 3d e3 64 99 be 8f 39 c5 3e
       0.59183264 0.12226824 -0.29959783 0.38520476
0001f0 97 d7 dc bd e3 46 a7 3c d0 ae 59 bf ed fc c9 be
       -0.10783308 0.020419544 -0.8503237 -0.3945078
000200 7b 8f 5e be 2c 24 33 be 13 4c 80 bd 8e bb df be
       -0.21734421 -0.17494267 -0.0626451 -0.4369778
000210 73 c2 10 3d b1 dc c5 3d 61 89 a4 3e 17 19 cb bd
       0.03534169 0.09661234 0.32136062 -0.09916895
000220 cc c9 94 3e be eb 38 3e 76 2a 4e be 34 31 3e be
       0.2906021 0.18058679 -0.20133385 -0.18573457
000230 43 29 e3 be 00 e3 1c bd a6 3e 93 3d 9a b4 6f be
       -0.44367418 -0.03830242 0.071896836 -0.23408738
000240 5e c5 86 be 48 ed cc be c8 fb b0 be 0c 90 b0 be
       -0.26322454 -0.4002478 -0.34567094 -0.344849
000250 f1 6c d0 be ce e7 b5 be 48 66 90 3f af ff 87 3c
       -0.40708116 -0.35528415 1.1281214 0.016601412
000260 d5 29 c3 3e 27 c6 f7 3d a9 80 06 3e 97 ca f6 be
       0.38117853 0.120983414 0.13135017 -0.4820144
000270 14 04 b2 bf fc 6b 2f bc 51 d3 bc 3e 7f 01 82 3c
       -1.3907495 -0.010706898 0.36879972 0.015869854
000280 15 52 27 be 60 13 34 bf f7 8b 6b bf 34 c2 54 3e
       -0.16339906 -0.70342064 -0.92010444 0.20777208
000290 73 1a e5 be 3f dd 2d 3e a0 d7 67 bd 5a 05 98 3e
       -0.44746742 0.1697893 -0.05660212 0.29691583
0002a0 f9 6c 03 3e c6 39 7e be 02 e1 68 be 91 8b ee bd
       0.12834539 -0.24826726 -0.22742084 -0.11647714
0002b0 a4 6c 26 3e 7b cb 9b be ae 69 0e bd 0c db 64 3e
       0.1625238 -0.3042868 -0.034768753 0.22349185
0002c0 37 32 f3 bd 5c 5c 99 be 3e 72 a3 3e b8 10 d0 bf
       -0.11874812 -0.29953277 0.31923097 -1.6255102
0002d0 c0 09 f2 3e 17 e9 d4 3d 5d ba 54 be bd a2 d8 3d
       0.47273064 0.10396021 -0.20774217 0.10577915
0002e0 c2 cd a7 3e 14 f3 f8 be d7 77 2d be 87 90 c7 be
       0.32774168 -0.48622954 -0.16940247 -0.38977453
0002f0 16 c1 4d 3e 7f 17 86 3c d2 d6 65 3e 2b d1 00 bf
       0.20093188 0.016368626 0.22445229 -0.50319165
000300 f0 f2 33 bf b4 30 c4 b9 1d b8 93 be 75 c2 06 3e
       -0.7029257 -0.0003742032 -0.28851405 0.13160117
000310 2e 70 86 be ab 42 0a 3f 32 eb 36 bf d5 da 3b be
       -0.2625746 0.5400798 -0.7145263 -0.18345197
000320 a6 5c f0 3d d4 bb a2 3d 0c 50 8f 3c da c6 be be
       0.11736421 0.079459816 0.017494224 -0.37261087
000330 af 49 6c 3f ad ae ca be 37 2f bb 3e 27 ea ae 3c
       0.9229993 -0.39586392 0.3655946 0.021351887
000340 11 7e 17 3e f5 29 f3 3e 6b 11 9f be 91 2a d1 3e
       0.14794184 0.47492948 -0.31067976 0.40852788
000350 bb 6a c0 be e4 4d 7d be 67 a8 83 3e 89 12 cf bf
       -0.3758143 -0.24736744 0.25714418 -1.6177531
000360 1a 62 8d bc 6e 2d 05 be f0 85 30 3e 4f d9 0a 3e
       -0.017258693 -0.13005611 0.17238593 0.13559459
000370 bb 66 d1 be d7 bf 59 be c0 39 79 3e 9c e9 a3 bd
       -0.4089869 -0.21264587 0.24338436 -0.08003542
000380 e5 9b fc bd a0 44 a6 3e ad 19 d1 be 87 29 7d 3f
       -0.12334422 0.32474232 -0.40839902 0.9889149
000390 10 7b 04 be 41 58 36 3e 77 fe c7 3e a2 25 54 3e
       -0.1293757 0.17807104 0.3906133 0.20717481
0003a0 d3 41 8d 3e cf 78 9e 3e 74 ef 3f bf 00 ab be be
       0.27589282 0.30951545 -0.7497475 -0.37239838
0003b0 c1 f3 ea 3d b1 95 8d be 1f 81 86 bd 0e 61 51 bf
       0.114722736 -0.27653268 -0.06567597 -0.8178872
0003c0 aa f5 0d bb c7 59 cb 3e 2d 07 1d be 89 6f c5 be
       -0.002166132 0.39716932 -0.15334769 -0.38561657
0003d0 b3 ad bf 3e fd 70 6d 3e 17 e8 c7 be 3f 04 8e 3b
       0.3743721 0.23187633 -0.39044258 0.0043340023
0003e0 1c 37 14 be 54 c1 38 be c6 79 46 3e b8 7d 16 be
       -0.14474148 -0.18042499 0.1938239 -0.14696395
0003f0 37 02 d8 be 87 78 82 be e4 ef 96 be 1e cc f5 bd
       -0.4218919 -0.2548258 -0.29479897 -0.12001823

actor.0.bias f4 [64]
000000 b1 a2 8c 3e 5f 5e 99 bc 80 eb 87 be 4e fb 16 3e
       0.27467874 -0.018721757 -0.2654686 0.14744303
000010 fb a8 8e be 0a 24 25 be f5 f9 5c bd 9a 69 15 3e
       -0.27863297 -0.16127029 -0.053949315 0.14591065
000020 d5 a4 ac be 23 bf a9 3e 42 84 56 be 9a 1d 43 3e
       -0.33719507 0.33153638 -0.2094889 0.19054261
000030 9c 4d b6 3e 65 73 a6 3e e7 63 a8 be ab a9 93 be
       0.35606086 0.32509914 -0.3288872 -0.28840384
000040 a2 58 80 be 8b 3a a7 be 17 5e 98 3e ca ea 6b 3e
       -0.2506762 -0.32661852 0.29759285 0.23038784
000050 48 4e c3 3e 8e 6f 01 3e 29 48 67 3e a9 12 10 3e
       0.3814566 0.12640211 0.2258612 0.14069618
000060 c5 2a c0 3d 4d 87 87 be 33 21 aa 3c 73 02 35 3e
       0.09383158 -0.26470414 0.020767784 0.17676716
000070 46 1a 46 bd e9 99 16 be 9e 37 d5 3e 51 b0 45 bc
       -0.0483649 -0.1470715 0.41643995 -0.012065963
000080 55 92 86 3e 54 2d a4 3c cf 4f 64 3e c9 b8 e5 3d
       0.26283517 0.020041145 0.2229607 0.112168856
000090 3f 65 8b 3d 3c 1a 83 3e 94 93 8a 3c af 0a 00 3e
       0.068064205 0.25605953 0.016916074 0.12504075
0000a0 96 26 53 be 59 e7 d1 3e 26 bd 7c 3e b1 ab ab be
       -0.20620188 0.40996817 0.2468153 -0.33529428
0000b0 c3 2f 3f 3c ef 20 6f bd 62 fe 5d 3e 1d 9d b2 bb
       0.011669102 -0.058381017 0.2167907 -0.0054508583
0000c0 23 dc 25 be 7d 25 83 bd b0 3a cb be fd c4 38 3e
       -0.16197257 -0.06403635 -0.39693213 0.18043895
0000d0 39 16 8e be 8b af b1 3d c1 6e 04 3e 97 f1 e9 3c
       -0.2775133 0.0867606 0.12932874 0.028557582
0000e0 ac ba cd 3e 9d 98 1f 3e 6d b0 b8 be fb b9 80 3e
       0.40181482 0.15585561 -0.36072102 0.25141892
0000f0 50 15 fa bd 14 c0 34 be de 71 30 be 4e 99 9a 3e
       -0.12211096 -0.17651397 -0.17230937 0.30195087

actor.2.weight f4 [64, 64]
000000 58 3f e6 3d 5d 3c f2 bd 06 c0 f6 3d dc 03 3a bd
       0.112425506 -0.1182792 0.12048344 -0.045413837
000010 e5 6f 39 3c 0d d5 13 3e f2 95 b4 bd 2a 49 9f bd
       0.011318182 0.14436741 -0.08817662 -0.07777627
000020 96 fb 04 be 4c 58 72 3d 3d 61 f8 bc 7f 50 71 3d
       -0.12986597 0.059166238 -0.030319804 0.058914658
000030 c8 dd 3c bb 62 33 1e bd ab e9 b0 bb ca f6 8e bb
       -0.0028818715 -0.03862322 -0.005398949 -0.0043629156
000040 5f b9 b7 be 33 e7 82 3d 80 05 a0 bd 2f 89 20 bd
       -0.35883614 0.06391754 -0.07813549 -0.03919333
000050 c1 94 35 3d 12 99 b9 bd d1 07 1c 3d 07 da a6 bd
       0.044331316 -0.09062399 0.03809339 -0.08147054
000060 ec c7 51 be a5 f6 98 3c 2b 68 02 3d f2 05 3b bb
       -0.2048642 0.018672297 0.031837624 -0.002853748
000070 53 6b 26 bd bd a4 12 bd 2d 96 7e bd 25 0d 75 3c
       -0.040629696 -0.035801638 -0.062154938 0.014956747
000080 01 4c 91 be f2 43 91 3d 16 0a f5 3d 49 e6 63 bd
       -0.283783 0.07093038 0.11964814 -0.05563954
000090 4f 8d e1 bd ed 22 37 3e 92 cb 6a bd 0b 2f 20 be
       -0.110132806 0.17884417 -0.057323046 -0.15642945
0000a0 d2 59 c4 bd af f2 16 3e ad d1 53 3e 7c f5 90 bc
       -0.09587444 0.14741014 0.20685454 -0.017695181
0000b0 85 0f c7 3d b9 a6 20 bb 09 ab 61 3d 56 dd 06 be
       0.09719757 -0.0024513437 0.055094752 -0.1317037
0000c0 32 ba 10 be 03 0d c4 3d 6c 58 1e be 7f a9 3f be
       -0.14133528 0.09572794 -0.15463418 -0.18717001
0000d0 fc 6f 4a bd 99 fa 56 bd 4e 8a 0f bc 61 ea 34 be
       -0.049423203 -0.052485082 -0.008761002 -0.17667533
0000e0 63 4a 95 3d 8b 4b 0b 3c 23 3c ce bd 0f d8 01 3e
       0.07289579 0.008501898 -0.10070064 0.12680076
0000f0 87 9b e2 bd f3 d4 d6 3d 9c 86 e5 3d 6b a3 2b bc
       -0.11064821 0.104898356 0.11207315 -0.010475974
000100 51 69 82 bd 98 94 08 be 11 00 08 3d b0 de 59 bc
       -0.06367744 -0.13337934 0.03320319 -0.013297722
000110 5a 75 9b be a2 f7 54 bd d0 91 26 bc b9 64 0b 3a
       -0.3036297 -0.051993974 -0.0101666 0.0005317438
000120 d2 fe 1b 3e 13 13 20 3e 80 ad 3c be a8 f1 03 3d
       0.15233925 0.15632276 -0.1842556 0.032212883
000130 bc 96 82 bd 74 f4 7d be ab 28 53 bb d1 72 b5 bc
       -0.063764066 -0.24800283 -0.0032220285 -0.022149475
000140 36 27 03 3e 42 f7 8b 3c dd 32 83 bd 88 27 e1 bd
       0.12807927 0.017085675 -0.06406186 -0.10993868
000150 89 40 e3 3d 82 fc a4 bd da ff db bd 9a d6 e6 bd
       0.110962935 -0.080559745 -0.10742159 -0.11271401
000160 ac 4e 76 3d 97 98 fd bd c9 01 6d 3d 7e 75 44 3e
       0.06013362 -0.1238262 0.05786303 0.19185445
000170 c6 51 e0 bd 56 d7 2d 3e 99 fb a2 bc 36 8a ae be
       -0.10953097 0.16976675 -0.019895362 -0.34089822
000180 7d 2e 17 3e 25 39 0c 3e 81 c4 a8 bd 64 54 55 3d
       0.14763828 0.13693674 -0.08240605 0.052082434
000190 56 8b 9a be fe aa 6e 3d d4 ed 13 bd 9f 7d 03 3e
       -0.3018443 0.05826854 -0.036115482 0.1284089
0001a0 a3 d9 e4 3c ae ba 35 bd 06 c9 25 3e bb 88 2f 3d
       0.027935809 -0.044367485 0.16189966 0.042855006
0001b0 81 9c a3 3b 55 28 73 3d 25 d0 5b be 6d 8d da 3c
       0.004993022 0.059364635 -0.2146612 0.026678765
0001c0 e9 87 72 3d 45 db 64 3e 8b f7 92 bd 4f 68 c7 bd
       0.059211645 0.2234927 -0.07176121 -0.09736692
0001d0 58 fd e6 bd 7a 69 ac bd cb 8e 48 be ab b2 13 3c
       -0.1127879 -0.084185556 -0.19585721 0.009014766
0001e0 e0 0e b1 3d f8 59 15 be e3 14 86 be cd 4d c1 3c
       0.08645415 -0.14585102 -0.2618781 0.023596669
0001f0 2f 81 6b be 43 df 61 be c0 66 92 be 07 4e a4 3c
       -0.22998498 -0.22057824 -0.28594017 0.020056738
000200 16 0b 4a be 79 eb 17 3d 91 de 7f be 53 76 8f 3d
       -0.19730791 0.0370898 -0.24987246 0.070049904
000210 1a e6 38 bd 5c 75 1e be 59 f2 1b 3c b5 45 94 be
       -0.045141317 -0.15474457 0.009518229 -0.28959432
000220 cd 3e 9e bd 79 94 bf 3d 6e 6c 41 3e ea e3 ad bd
       -0.07726822 0.09354491 0.18889019 -0.08490737
000230 40 74 9c 3c 91 1f 51 bd cc 40 88 3d b5 2f 0f 3d
       0.019098401 -0.051055495 0.06652984 0.034957606
000240 92 5e 49 be d9 6e 3f bd 9b fc 3c bd 21 0b 18 3d
       -0.19664982 -0.046736572 -0.04613934 0.03711999
000250 6c 99 a7 3d 19 78 18 bd aa 13 a6 bc 47 4d 3e bd
       0.0818356 -0.03722391 -0.020273048 -0.046460416
000260 6c 91 13 be df d9 ec 3d a8 40 76 3d 08 62 3f 3d
       -0.14410943 0.11564993 0.060120255 0.04672435
000270 ab 8f eb bd c4 38 b6 3e cf 55 ef bd 10 0d 8e 3d
       -0.11502012 0.35590184 -0.116862886 0.06936085
000280 4b 74 d3 3d 5f 54 5d 3d 92 d7 28 bd a9 29 1d 3e
       0.103249155 0.05403554 -0.04122121 0.15347923
000290 c0 a4 f2 bc db ba 10 3e 07 f8 d0 3d cf 3e 15 be
       -0.029619575 0.1413378 0.102035575 -0.14574741
0002a0 4e 80 24 3e da 67 27 3d 40 12 d1 bd 4b a0 2c 3d
       0.1606457 0.040870525 -0.10208559 0.042145055
0002b0 e2 ca 3e bd 3d 5c b5 bd fc d6 a8 bd 27 33 74 3e
       -0.046580203 -0.08855484 -0.0824413 0.23847638
0002c0 93 e9 56 bd 13 31 3d bd 16 79 2c 3e 4e 3e 85 bd
       -0.052468847 -0.04618938 0.16843066 -0.06506024
0002d0 67 84 13 bc a4 61 56 be 9e 65 60 bd ed 4f 94 bd
       -0.009003735 -0.20935684 -0.05478441 -0.07241807
0002e0 a1 fd 72 bd 65 ba b2 3d 11 14 cf bd 77 85 3f bc
       -0.05932391 0.08726958 -0.10111249 -0.011689535
0002f0 9f af 45 3d 12 a8 8d 3d a1 3b 44 be 73 ac a8 3c
       0.04826319 0.069168225 -0.19163372 0.020590043
000300 b0 63 c8 bc 77 8f f1 3c 2a f7 b7 bd 4c c9 ab bd
       -0.024461597 0.029487355 -0.0898269 -0.08388004
000310 d5 78 fd bc c8 ab 9b 3d aa fa d4 bd a0 74 ad bd
       -0.030941406 0.07601124 -0.10399373 -0.0846951
000320 68 af 8c be 56 83 45 be 9b ab 94 bb c5 f9 54 3b
       -0.27477574 -0.19288382 -0.0045370585 0.0032497507
000330 6d 02 8d 3d 73 db ab 3c ba 05 b1 3d 4d 89 30 be
       0.06885228 0.020978665 0.086436704 -0.17239876
000340 20 02 63 bd cf 42 42 3d 39 3e 2e bd 16 c0 2a 3d
       -0.05542195 0.047426995 -0.04253981 0.041687094
000350 97 2e 3b be 78 44 13 3e 9d 80 81 bd 72 a9 2d 3e
       -0.18279491 0.14381588 -0.06323359 0.1695917
000360 f2 de 0b bd c7 89 00 be 81 1f eb 3d 26 fd 58 3d
       -0.034148164 -0.12552558 0.11480618 0.052975796
000370 60 04 f3 bc 9e 18 e4 bd 0f bc e0 3c dc 21 f7 bd
       -0.029665172 -0.11137508 0.027433423 -0.12067005
000380 81 88 4c 3c 94 12 37 3d cd c0 b8 3c d7 53 63 bd
       0.012483717 0.04469545 0.022552872 -0.055499878
000390 25 d1 c9 3d 8c c4 3b bd 3c 47 14 bb a3 7e d0 3d
       0.09854344 -0.04584174 -0.0022625467 0.10180404
0003a0 e3 f2 3c be 13 e8 fc 3d 25 15 84 bd 34 fa ff 3d
       -0.18452029 0.12348952 -0.064493455 0.12498894
0003b0 93 52 5f bd f6 79 e3 bd 06 6d c9 bb f1 de af 3c
       -0.05452211 -0.111072466 -0.00614703 0.021468611
0003c0 ed 1d fa 3d 03 2a 04 be 0d c3 05 3e 97 a9 00 be
       0.12212739 -0.12906651 0.13062687 -0.12564693
0003d0 db f5 03 be 67 75 63 3d 21 fd f3 ba 59 a5 7e bc
       -0.12886755 0.055531885 -0.0018614867 -0.015542352
0003e0 e2 10 66 bd e7 90 d9 bd 9d 3d 7f bc 61 fb 81 3d
       -0.056168444 -0.10623341 -0.015578655 0.06346775
0003f0 a6 8d ee bd 90 74 5c 3d 3d fe 91 3d df 8b aa bc
       -0.11648111 0.0538221 0.0712857 -0.020818649

actor.2.bias f4 [64]
000000 a8 4a 09 3e 85 f7 b2 3d 51 60 b2 bc 5c f4 29 3d
       0.13407385 0.08738617 -0.021774443 0.041492805
000010 c7 7a 81 3d c8 ac 98 3d 2c 4f 26 bd 4b 79 5c 3c
       0.06322246 0.074548304 -0.040602848 0.013456653
000020 ac dd a5 3d eb e5 59 3c e2 ea d1 bd d4 21 98 bc
       0.08098921 0.013299446 -0.102498785 -0.018570818
000030 a5 1e c3 3d 81 dc 59 3d a8 42 66 bc 18 ba 04 be
       0.09527329 0.053188805 -0.014053978 -0.12961614
000040 9a 5f 92 3d 08 53 c7 3d 21 a3 b8 3d 02 d1 0a be
       0.07147141 0.09732634 0.09015489 -0.13556293
000050 dc d2 2d 3c c7 d0 8f bd fe 53 06 3e 6e 80 02 3e
       0.010609355 -0.07022243 0.13117978 0.12744305
000060 fa 10 9f bc 23 6c cd 3d 15 98 5d bd a1 ea da bd
       -0.019417275 0.10030391 -0.054100115 -0.10689283
000070 bd fb e4 3d cb 1b e5 3c 39 e4 0a ba 92 ee 95 3d
       0.11180828 0.027967354 -0.000529829 0.07320894
000080 75 09 a4 bd 6d ed b0 bd 10 e7 57 bd 99 8f 9a bd
       -0.08009616 -0.086390354 -0.052710593 -0.0754692
000090 7c 85 0b 3d 3e eb a9 bd 16 bc 3d bd f1 10 02 be
       0.034062847 -0.08296822 -0.04632195 -0.12701775
0000a0 d6 64 86 3d c9 30 2f 3d b3 3d 22 bd 85 b2 21 3d
       0.06562202 0.042771135 -0.039609622 0.03947689
0000b0 ae 2a 5d bd ef 12 03 be 2b af 79 3c 70 92 ee 3c
       -0.05399578 -0.12800191 0.015239517 0.029122561
0000c0 ff b6 e5 3d b2 a2 31 bd ce ae 86 3d 9c 80 44 bd
       0.11216544 -0.04336805 0.0657631 -0.047974214
0000d0 19 a4 90 bd 7e 09 c9 3d 22 68 2b bd 2d 1d 0c 3d
       -0.07062549 0.098162636 -0.041847356 0.03420751
0000e0 b5 2a b1 3d bd b9 9b 3d 57 60 9d bd b7 9d 14 be
       0.08650724 0.07603786 -0.07684391 -0.14513288
0000f0 eb 01 af bd 03 b7 87 bd a0 ea 87 bc 68 42 09 be
       -0.08545288 -0.066267036 -0.01659137 -0.13404238

actor.4.weight f4 [64, 64]
000000 a1 02 a3 3c 10 ef 90 be 14 b4 16 be 8e f3 42 3d
       0.019898714 -0.2830739 -0.14717132 0.047595553
000010 d1 04 5e 3d fb 4e 47 3c d8 ce e5 3d 1e 18 02 3e
       0.054203812 0.0121648265 0.11221093 0.12704512
000020 29 4c 46 3d ce 8e 87 3d a8 0f e1 3d 81 64 05 3e
       0.048412476 0.06619035 0.10989314 0.1302662
000030 fb 7a 13 3d 30 18 11 3e 55 3f 5c 3c c0 fa ac bd
       0.036005955 0.14169383 0.013442834 -0.08446264
000040 98 c6 57 3d 74 24 be 3d 1b 4a 0f 3e aa fc 82 bd
       0.052679628 0.09284297 0.13993113 -0.06395848
000050 31 27 05 3d 73 69 bd bd 13 84 cb bb ad 1f 64 bd
       0.03250808 -0.092486285 -0.006210813 -0.05569427
000060 87 3b a7 3d ec 5d 44 3c 01 15 b3 3c d1 6a a0 3e
       0.08165651 0.011985283 0.021860601 0.31331494
000070 85 3a 2f bc 75 2a 10 3e 66 2b 19 3d 6d 11 ac 3d
       -0.0106951045 0.14078696 0.037394904 0.08401761
000080 ae 19 96 bd bc 3e 01 bd 36 f0 bf bd 70 01 4c bc
       -0.07329117 -0.03155397 -0.093719885 -0.012451515
000090 d7 e5 c7 3d 12 41 75 3d 32 e2 4f 3c e9 e8 36 be
       0.09760635 0.05987651 0.0126882065 -0.17862286
0000a0 14 18 ff 3d 2f 1e c1 bd 5d 5c d3 bd 7f 99 3e bc
       0.124557644 -0.09429585 -0.10320351 -0.011633276
0000b0 c7 b7 6a bd 4a e5 3c 3e 53 25 44 3d 74 01 b1 bc
       -0.05730417 0.18446842 0.047887158 -0.021607138
0000c0 e0 31 c9 3d 15 92 00 3e 58 b3 97 bd cd b8 ea 3d
       0.09823966 0.12555726 -0.07407254 0.11461029
0000d0 ef c4 8b 3d 25 d0 ee 3d 58 dc 23 3d 00 46 c5 3c
       0.068246715 0.11660794 0.040005058 0.02408123
0000e0 9c 86 27 3d 58 b3 bd 3d 68 8c 68 bd 21 c8 f5 3d
       0.040899858 0.09262723 -0.056774527 0.12001062
0000f0 2f 00 bc 3a 26 ef 59 3e bd 57 9f 3d db 9f c4 3d
       0.0014343316 0.21282634 0.077804066 0.096008025
000100 73 61 6d 3d bf b9 81 be 10 75 17 3d bd cb 26 3c
       0.057954263 -0.25337026 0.036976874 0.010180411
000110 04 ae e1 bd 83 86 4d 3d 7c 2a 38 3e f5 86 d5 bd
       -0.11019519 0.05017711 0.17984957 -0.10426132
000120 8b c0 37 bd 45 2d 07 3e 53 41 61 bd f7 c3 f4 3c
       -0.044861358 0.13200863 -0.05499394 0.0298786
000130 4e 69 02 be 71 56 c3 bc ec 9a 46 bc 4b dd 7a bd
       -0.12735483 -0.02384493 -0.012121897 -0.061246198
000140 54 fd a8 3d 9b 01 dc bd 57 95 99 3d 63 43 1d bc
       0.082514435 -0.10742494 0.074991874 -0.009598586
000150 ad d8 89 3d 90 8f 65 bd b5 dd 70 3d 8f 21 d8 3d
       0.06730781 -0.056045115 0.058805186 0.10553276
000160 09 aa 96 3d 45 ab 92 bc 9b 4c 81 be 18 a8 88 3e
       0.073566504 -0.017903933 -0.25253758 0.26690745
000170 5d a8 f5 3b 7b 15 bf 3d 88 8c a5 3e 81 9f 8d bd
       0.007496877 0.09330269 0.3233378 -0.069151886
000180 64 39 7c bc a7 bf 54 be 10 bc 0f bd c8 07 18 3e
       -0.015394542 -0.20776235 -0.03509146 0.14846718
000190 14 04 40 3d e6 ef 4f be 51 df 32 3d 3c f9 61 3d
       0.04687889 -0.20306358 0.043670002 0.05516933
0001a0 c2 34 5a 3d 4c 98 bd bc f9 ee f1 bb c4 42 08 bd
       0.05327297 -0.02314391 -0.007383224 -0.033266798
0001b0 fa ce bc bd 69 3b 0a 3d 2d c1 53 be 9b 73 d8 3d
       -0.09219165 0.033748064 -0.2067916 0.10568925
0001c0 ac 87 df 3d ed 98 ae 3d 75 fa 2c bd f6 92 43 3d
       0.10914549 0.08525262 -0.042231042 0.047747575
0001d0 b8 03 52 bd 75 21 11 3e fb 27 ba 3d cb ac a9 3e
       -0.051273078 0.14172919 0.09089657 0.33139643
0001e0 a3 55 05 3e 57 3b 6f bd 40 62 6b 3c 92 99 f1 3d
       0.13020949 -0.0584062 0.014366686 0.11796869
0001f0 22 d1 07 be 28 65 89 3e c4 15 94 bd 55 25 52 3e
       -0.13263372 0.2683499 -0.07230714 0.20522054
000200 4d 20 5e 3e 5a 82 80 be 2a 35 f2 bd ce e0 ae 3d
       0.2169201 -0.2509945 -0.118265465 0.08538972
000210 98 12 44 bf b0 2e e6 3d 86 a1 d0 3b c9 42 a3 3d
       -0.7659087 0.11239374 0.0063669113 0.07971723
000220 d9 da 73 bd d4 71 b0 bd a1 6e be be ee 52 a8 3d
       -0.05953488 -0.08615461 -0.37193778 0.082189426
000230 bc f6 46 bc 4e 2e c7 bc cb 30 a3 bd 5f bb 03 3e
       -0.012143787 -0.024314072 -0.07968291 0.12864445
000240 49 02 41 be 55 ff 0b 3d c0 e5 28 3d 4d 25 8a 3d
       -0.18848528 0.03417905 0.04123473 0.06745396
000250 5f c5 58 bc 70 68 d8 3d a6 36 f5 bd b0 2c b2 3d
       -0.013230651 0.10566795 -0.11973314 0.0869993
000260 18 7f 6a be 56 8a 14 3e 8e 8d 11 3d 47 83 42 3e
       -0.22900045 0.14505896 0.035535388 0.18995391
000270 b1 14 8c bd 8f de 5f be c2 0c 00 bd ee 74 89 bd
       -0.06839884 -0.21862243 -0.031262167 -0.06711756
000280 0d e2 28 3e b0 1a d9 3d da bb 4f 3e 21 a6 22 3d
       0.16492482 0.10600793 0.20286503 0.039709214
000290 ba 02 10 be de 06 d5 bd 35 2b 09 bd 1c ec 6b be
       -0.1406354 -0.104017004 -0.03348847 -0.23039287
0002a0 5b 2d 97 3c a3 7a a3 be 97 b7 51 be 7d a1 f1 3d
       0.018454244 -0.31929502 -0.2048019 0.117983796
0002b0 82 9c 4a be 6a 8d a2 bd c3 b5 81 3d 10 b8 67 3d
       -0.19786265 -0.07937129 0.063334964 0.05657202
0002c0 68 27 d0 bc ef a5 57 3d f7 a8 f4 3d 5f b2 27 3d
       -0.025409415 0.05264848 0.1194629 0.040941592
0002d0 eb df ff 3d 21 1a 9c 3c 02 4e dd 3d 8c ef e3 bd
       0.12493881 0.019055428 0.108058944 -0.11129674
0002e0 b9 0a 9f 3c 69 78 ea bd a0 c4 94 bd d3 9e 95 3d
       0.019414293 -0.11448748 -0.07264066 0.07305684
0002f0 9c 31 96 bd 70 75 d7 3d 17 3c 24 3e 30 59 14 3e
       -0.07333681 0.10520446 0.16038547 0.14487147
000300 56 dc 09 be f2 0d 89 3e f6 98 8c 3d 3d 25 92 3c
       -0.13462958 0.26768452 0.068651125 0.017840022
000310 e6 3c 86 3c 08 17 4e bd 02 8a 64 bd de db 93 bd
       0.01638646 -0.050314933 -0.055795677 -0.07219671
000320 57 f1 79 bd e6 d6 01 be ae 32 5e bd 60 eb de bd
       -0.061021175 -0.12679633 -0.05424755 -0.10884738
000330 3c 71 5a 3d 6e 00 9b bd 30 fa ed 3d 5a a2 b5 3d
       0.053330645 -0.07568441 0.11619985 0.08868857
000340 e6 1e 86 bb 01 85 5e bd 24 d5 00 be 0d c5 6f 3e
       -0.004093039 -0.05432606 -0.12581307 0.23415013
000350 a5 23 c7 bd 64 d9 22 3c 14 af 42 bd 74 b9 22 3d
       -0.097235955 0.009939525 -0.04753025 0.039727643
000360 7f c8 47 bb 29 4b 11 3e f6 38 b6 3d 0f 60 ce be
       -0.0030484495 0.14188828 0.08897583 -0.40307662
000370 9d 54 eb 3d 66 8d 85 3d 70 de f4 bd de c3 b5 bd
       0.11490748 0.0652111 -0.11956489 -0.08875249
000380 d7 94 bc 3c 47 d1 8a 3d 6a de f5 3d f5 eb bb bd
       0.023020191 0.06778198 0.12005313 -0.091758646
000390 d4 19 54 3d b2 a2 03 3c ac d7 10 bd 7b 74 3c 3e
       0.051782444 0.008034395 -0.03536193 0.18403809
0003a0 bd 89 9f ba 22 b5 ef 3d fb 81 0f 3e 8c c3 8c 3d
       -0.0012171787 0.1170447 0.14014427 0.06873235
0003b0 44 3b 79 3e 26 5a 61 be f9 18 a6 3d 30 b5 80 3d
       0.24339014 -0.22007045 0.08110232 0.06284559
0003c0 9a 0f 0f bd 8f 4d b9 bd d1 2e f3 3d 07 77 26 3e
       -0.03492699 -0.09047996 0.11874164 0.16256343
0003d0 fc 8f 92 bd bd 93 14 be b8 35 26 3d 8b 79 a9 be
       -0.07156369 -0.14509483 0.040578574 -0.33100542
0003e0 ad e7 05 be 3f 77 df 3d 64 31 1c bb 0f e2 4a 3d
       -0.13076659 0.10911416 -0.002383315 0.049531993
0003f0 81 24 1a 3d be b5 8d bd 7a 63 66 be 46 23 8b be
       0.03763247 -0.0691943 -0.22498885 -0.2717535

actor.4.bias f4 [64]
000000 62 cf 7e 3d a3 ce b0 bd 37 25 8f 3d 4c a1 b3 3c
       0.062209494 -0.08633163 0.0698952 0.021927498
000010 cd 96 4a 3d 89 fe a8 3c 96 4f 7a bd 8f f8 4f 3d
       0.04946022 0.020629184 -0.061111055 0.050774153
000020 1f 6c cc bd cb ac b6 3d f1 fd a0 bd 48 6f c8 bd
       -0.0998156 0.089196764 -0.078609355 -0.0978685
000030 61 a6 25 3d 52 7c 74 3d aa 6f 39 3c b1 b4 ee bd
       0.040441874 0.059688874 0.011318127 -0.11655558
000040 46 9a eb bc a7 9a 83 3d 0d 7a 3f be 63 0a b4 3d
       -0.028760087 0.06425982 -0.18698902 0.087910436
000050 80 9e 13 be 03 2b d0 bd 30 43 43 3d d0 52 89 3d
       -0.14415932 -0.10164454 0.047671497 0.06705248
000060 1f 41 a8 bd c4 16 7e bd d8 7a 28 be b0 be 5d bd
       -0.08215546 -0.06203343 -0.16453111 -0.054136932
000070 e4 f7 d8 3d 65 76 23 3d 2d 11 d8 3d 0d 6e 45 bd
       0.105941564 0.03990783 0.10550151 -0.048200656
000080 55 19 ad bd ac fb 35 be e0 54 26 bc 9a 76 cb bd
       -0.08452097 -0.17771786 -0.010152072 -0.09934731
000090 6a 94 88 bd 0a c7 61 3c fa 98 9e bd 5a aa d3 bd
       -0.06668933 0.013780365 -0.07744022 -0.10335226
0000a0 08 fc a5 bd 1b a5 d0 3d 21 74 b0 3d 3f 1c d9 bc
       -0.08104712 0.10187741 0.086159 -0.026502727
0000b0 7e 05 d3 3c 28 11 73 3a a7 dc f0 3d bf ef b1 bd
       0.025759455 0.0009272271 0.11760836 -0.08688306
0000c0 a4 45 42 bd 18 4d f8 3c 6c 68 0a 3e 2f 49 60 bd
       -0.047429696 0.030310199 0.13516396 -0.054757293
0000d0 7d 12 93 3d 40 ef 4c bd c5 78 7e bd 2e 8a 1f bd
       0.07181261 -0.050032854 -0.062126894 -0.038950138
0000e0 ca b0 65 3d 56 fc 18 bd 0e ed 81 bd 06 18 af 3d
       0.056076802 -0.03735002 -0.06344043 0.08549504
0000f0 05 d9 d7 3d af bc 9f bc 6e 9b c9 3d 50 ca 8f bd
       0.1053944 -0.019499151 0.09844099 -0.0702101

actor.6.weight f4 [64, 64]
000000 f3 23 d4 3d df b8 a7 be 18 f0 04 bf 65 2d e1 3b
       0.10358419 -0.32758233 -0.51928854 0.0068718665
000010 da a9 c4 bd 15 34 b0 3c c6 34 4e 3d b4 a6 b0 3d
       -0.09602709 0.02150921 0.050343297 0.08625546
000020 17 94 4c 3e 5e ef 5d be 14 eb 76 be 77 28 1a be
       0.19978367 -0.21673343 -0.24113113 -0.15054499
000030 db b1 f1 3b c4 eb 35 be 1f 2b 1e bc 1c e2 28 be
       0.0073759384 -0.17765719 -0.009653836 -0.16492504
000040 c0 8d bf bd 5d 3b 47 bc 96 26 28 3d e5 be 8b bd
       -0.093532085 -0.012160149 0.041052423 -0.068235196
000050 b9 46 e5 bd 7a c4 81 bd 59 97 31 be 35 e0 bc bc
       -0.1119513 -0.06336303 -0.17342891 -0.023056129
000060 0f 38 35 bf 8f fe e0 3d 50 89 38 3e 93 10 7e 3d
       -0.70788664 0.10986053 0.1802113 0.062027525
000070 2b f5 13 bc fa 50 94 bd 9d 0a 4b be 28 86 cd bd
       -0.009030621 -0.072420076 -0.19828267 -0.10035354
000080 21 02 c1 3d 00 c3 20 be 56 4a 61 be 0f 75 b5 bd
       0.09424234 -0.15699387 -0.22001013 -0.08860218
000090 df 1e 9f bc 93 f1 6d 3e ca 94 14 3e 20 99 b9 be
       -0.0194239 0.23236685 0.14509884 -0.36249638
0000a0 aa ed 31 be e5 b0 83 be f4 5d 91 be c2 e3 3c 3e
       -0.17375818 -0.25720897 -0.28391993 0.18446258
0000b0 82 e7 02 3e 92 d2 99 3d cd 13 87 be 3d b3 f9 3e
       0.12783626 0.07510866 -0.26382294 0.4876956
0000c0 14 a0 e6 3d e0 eb 1d 3a 66 3a 8a bd 6a e3 23 be
       0.11261001 0.0006024223 -0.0674942 -0.1600472
0000d0 b4 c4 2b be 69 70 11 bc 0a 38 1b be c0 4a ce 3d
       -0.16774255 -0.008876898 -0.15158096 0.10072851
0000e0 be f2 e6 3d 84 b4 80 3c c8 ca f6 3b d2 ac 75 be
       0.11276768 0.015711077 0.0075314976 -0.23991707
0000f0 5e 23 a5 bd 6c fd a2 be a8 80 65 3d 2c 05 bb bd
       -0.080633864 -0.3183397 0.0560309 -0.09131846
000100 e4 8a 5d bd b8 24 32 3d e7 54 80 be c3 79 07 3e
       -0.054087535 0.04349205 -0.25064775 0.13230042
000110 54 32 2c be 2d d6 ef 3c 66 bc 5e 3d e3 26 94 bb
       -0.16816074 0.029276932 0.05437889 -0.004521237
000120 e7 68 e4 3d ea b1 13 be bf 96 ff bd 63 db 05 3d
       0.11152821 -0.14423338 -0.124799244 0.032679927
000130 28 e9 41 bd e2 65 cb 3c 2b d9 6e bd d6 e3 16 be
       -0.047341496 0.024828855 -0.058312576 -0.1473535
000140 e7 81 d8 3d 58 ba ac bd 2f b6 81 bc 31 74 27 bd
       0.10571652 -0.0843398 -0.015833942 -0.040882293
000150 7a 2d ad bd 2d 93 08 3e 12 22 d5 3d b1 0a 28 3e
       -0.084559396 0.13337393 0.10406889 0.16410328
000160 cb 7e 9c be f2 48 1f be 70 0c 56 3d 15 c9 ab bd
       -0.30565485 -0.1555517 0.052257955 -0.08387963
000170 15 31 af 3d 91 a0 aa bd 0f aa de bb 4e cb b5 be
       0.085542835 -0.08331407 -0.006795175 -0.35506672
000180 bb 27 ec bd 24 7b bc be 58 64 03 be 7b f4 07 be
       -0.115310155 -0.368127 -0.12831247 -0.13276856
000190 de 5d cd bc d0 13 06 3d 85 a0 09 3e 01 4e 15 be
       -0.025069173 0.03273374 0.1344014 -0.14580537
0001a0 d6 4d 1a 3d a2 a3 e3 be 3f cc be bd a9 f0 2f 3e
       0.037671886 -0.4446078 -0.093163006 0.17181648
0001b0 d3 29 17 3e 3a 60 0d 3e bf b3 a9 bc 3d 2d 10 3f
       0.14762048 0.13806239 -0.020715592 0.5631903
0001c0 52 bd 9c bd df 7d ca bc f8 eb 14 3e 4c 8c 89 be
       -0.076532975 -0.024718223 0.1454314 -0.2686485
0001d0 4c 97 a5 3d 91 27 8a bc 76 56 7f 3b 90 ef c6 3d
       0.08085498 -0.01686457 0.0038961447 0.09713662
0001e0 af 71 1f 3e cd 48 9d bd c0 fd 8a bd df 9b a0 be
       0.1557071 -0.07679901 -0.0678668 -0.3136892
0001f0 62 90 ff 3d bc c9 3b be bb 91 ca bc 97 ae c1 3d
       0.12478711 -0.18338674 -0.024727693 0.094571285
000200 bb 87 2f bd 14 5d 0b be 57 e4 b7 be 2e 14 ab bd
       -0.042854052 -0.13609725 -0.35916397 -0.08353458
000210 ee 9f 6e be 21 fe 8d 3c 2c 41 02 3d fc 05 a3 3d
       -0.23303196 0.017333092 0.031800434 0.07960126
000220 fd 8e 1a 3e 72 64 84 bd 80 10 7a bc 4c 27 e3 3d
       0.15093608 -0.06464471 -0.015262723 0.1109148
000230 c0 b8 01 bd d9 57 fa bd da 82 55 3d bd 9e 23 bd
       -0.031670332 -0.12223787 0.052126743 -0.039946306
000240 f3 90 7a bd ac b4 96 bd fb 9d 6f 3e ca 01 89 bd
       -0.06117339 -0.07358679 0.23400109 -0.06689794
000250 2c 53 31 3d 32 f1 29 3e 3b a5 24 be 81 fd 23 bd
       0.04329221 0.16595915 -0.16078655 -0.040036682
000260 b2 8c ed be 0d af 29 be 5e 0b a7 3c e1 1e 36 be
       -0.46396405 -0.16570683 0.020391162 -0.17785217
000270 c0 29 d8 3d 2d d1 62 bd 4d 9f 67 bc 78 cd 45 be
       0.10554838 -0.055375267 -0.014137101 -0.19316661
000280 17 d9 5c be 11 00 8b bd b3 fd 1f be 42 7a 76 3d
       -0.21567188 -0.06787122 -0.15624122 0.060175188
000290 4d 8e eb bd 69 43 c3 3d 91 01 1a bd b3 50 92 bd
       -0.11501751 0.09534342 -0.03759915 -0.071442984
0002a0 db 42 df 3d 4c 97 3b be 58 6a 71 be 14 12 1a bc
       0.109014235 -0.18319434 -0.23575723 -0.009403724
0002b0 80 15 23 3e 76 43 58 3e cb ff 0e be b9 3a 2a 3f
       0.1592617 0.21119484 -0.13964765 0.66495854
0002c0 ba 12 a9 3d a5 8f b7 bd 4e f8 08 3c 32 6f 28 be
       0.08255525 -0.08962945 0.008359982 -0.16448668
0002d0 0f 55 2d 3e 4f d4 02 3e 50 77 ce 3c 15 a2 e2 3c
       0.16926979 0.12776302 0.025203377 0.027665177
0002e0 28 00 c1 3d 96 95 cf bb 47 25 f7 3d 8f 15 95 be
       0.09423858 -0.0063349707 0.12067657 -0.2911801
0002f0 b1 53 a2 bd 22 5e 26 be a2 bf 34 3c 9d 2d dd 3d
       -0.07926119 -0.16246846 0.011032017 0.10799716
000300 17 21 2f be cc 16 3d be 28 e6 4a 3d 11 c0 81 3b
       -0.17102467 -0.18465728 0.0495359 0.0039596637
000310 70 b9 7d be a2 6e 4a 3d cd 1c 4b be 59 ff 70 bd
       -0.2477777 0.049421914 -0.19835205 -0.05883727
000320 97 98 0b 3f d4 6f a7 bc 51 68 52 be 9b cb ab bc
       0.5452971 -0.020439066 -0.20547606 -0.02097111
000330 6d 0f b3 3d 7e 17 db bd 3f 7a 81 bd 05 d3 25 be
       0.087431766 -0.1069784 -0.06322145 -0.16193779
000340 67 89 d9 3d ee 5e 9e bd 6e 48 9c 3e be 08 3b 3d
       0.106219105 -0.0773295 0.3052401 0.045662634
000350 fc cc 07 be 09 9a aa bd 7d 63 4e bc 20 e3 61 bd
       -0.13261789 -0.08330161 -0.012596962 -0.055148244
000360 b6 ea dc bd b3 e3 04 bf e2 7b a1 be d5 bd 93 bd
       -0.10786955 -0.5190994 -0.31539828 -0.07213942
000370 06 08 56 3d c3 86 c1 3d a1 f9 8a 3d d8 43 c5 be
       0.052253745 0.09449532 0.06785894 -0.38528323
000380 68 9a 9c be a8 e7 87 3d 75 8b 9c be 9e fb e2 3d
       -0.30586553 0.06635982 -0.30575147 0.110831484
000390 d1 69 84 be 59 f6 a9 3d 8a 4d d6 3d 35 64 2d be
       -0.25861982 0.0829894 0.10464008 -0.16932757
0003a0 85 7c eb bd 27 2d 1a bf 00 f0 aa bd 8a a8 84 3c
       -0.114983596 -0.60225147 -0.083465576 0.016193647
0003b0 62 09 25 3d 94 03 c6 3e a0 b4 de 3d 74 1e 46 3f
       0.04029215 0.38674605 0.10874295 0.7739022
0003c0 4d b1 06 bf 27 ba bf 3c 65 a3 f9 3d b1 fc 4b 3c
       -0.5261429 0.023404194 0.12189368 0.012450383
0003d0 01 ee e6 bd 3b 45 53 3d 4a ad 6a be 8e 60 21 3e
       -0.112758644 0.051579695 -0.22917667 0.15759489
0003e0 76 fb 4a 3d f7 f3 b7 be 9d 40 9a 3c 11 4f 42 be
       0.049556218 -0.35928318 0.018829638 -0.18975474
0003f0 99 08 17 be 28 b4 49 be ef 5a a8 bd 12 97 6f bd
       -0.14749373 -0.1969763 -0.08220469 -0.05849368

actor.6.bias f4 [64]
000000 2f 6c 11 be d7 a4 b1 3d c4 bc 1e 3d b5 f1 83 3d
       -0.14201425 0.08674019 0.03875424 0.06442586
000010 8a eb 3b bd 7f 47 76 3d ad 12 ce 3d 1c 76 e4 bc
       -0.045878924 0.060126778 0.10062156 -0.02788835
000020 84 18 2b 3d 62 18 50 be 60 d8 13 bd d7 65 d2 bd
       0.041771427 -0.20321801 -0.036095023 -0.10273331
000030 29 24 57 3d 50 d7 aa 3c 3e 24 0c 3d 50 b9 e0 3d
       0.05252472 0.020854622 0.03421425 0.109728456
000040 f8 8f f0 bc e0 ec c3 bd 41 f6 26 3a dc be ca 3d
       -0.029365525 -0.09566665 0.0006369092 0.09899685
000050 83 4b b0 bc 81 7f ce 3c 9a 4c e6 bd 6e 69 36 3c
       -0.021520382 0.025207283 -0.11245079 0.011133535
000060 e2 3f be bc 32 4b 9a bc 71 0b cf 3d 55 e7 c5 bd
       -0.023223821 -0.018834684 0.10109604 -0.09663264
000070 41 74 09 3e e8 97 a3 3d 8b 54 3f bd 6d b6 53 3d
       0.13423254 0.07987958 -0.046711486 0.051687647
000080 6c f6 af 3d 75 57 86 bd 8d 19 f2 3d 47 a9 b7 bb
       0.08591923 -0.0655965 0.1182128 -0.005604896
000090 9d 8d fc 3d 86 29 0e be 32 64 26 3d 96 ce e6 3d
       0.12331698 -0.13883027 0.040622897 0.11269872
0000a0 09 0c 86 3c 71 a6 c3 3d 69 98 c6 bb f1 29 ba 3d
       0.01636316 0.095532306 -0.006060649 0.09090031
0000b0 0e 38 dc bd 44 27 2c bd db 27 e9 bd 76 a3 a9 3b
       -0.10752879 -0.042029634 -0.11384555 0.0051769568
0000c0 36 b9 bb 3d c9 11 f4 3c 4a c9 e7 bd ca a0 07 bd
       0.091661856 0.029793637 -0.1131769 -0.033112325
0000d0 38 5a e3 bd 8c 82 c3 bb 65 dc b9 bb 5f cf a7 bc
       -0.11101192 -0.00596649 -0.005672025 -0.020484624
0000e0 f5 3d be 3c d5 39 00 be 0c f4 bc bd b2 c8 d3 3c
       0.023222903 -0.12522061 -0.09226236 0.025852535
0000f0 6e 50 d1 bd 51 21 c2 bd ba 18 ba 3d de a0 7c bd
       -0.10220419 -0.09479011 0.090867475 -0.061676852

actor.8.weight f4 [1, 64]
000000 27 2b 10 bf 00 22 22 be a5 58 72 be a2 15 e1 be
       -0.56315845 -0.15833282 -0.23666628 -0.43961817
000010 54 09 02 be a8 13 21 bf d7 c2 0c be 8f 35 a0 3e
       -0.12698871 -0.6292062 -0.137462 0.31290862
000020 d9 0e 4a be 8c 53 20 bf 52 c4 12 be 4b 43 9c 3e
       -0.19732226 -0.6262748 -0.14332703 0.3052009
000030 00 23 b7 3d 7d 86 c1 3d 79 09 11 3e 44 fb ce be
       0.089422226 0.0944948 0.1416377 -0.40426075
000040 ad 46 c5 be 9a 83 de 3d 07 24 02 3e bd 0e 21 be
       -0.38530484 0.10864945 0.12709056 -0.15728278
000050 4b c2 9d be ff 39 0d bf 18 9c e0 be e7 43 8e 3d
       -0.30812296 -0.5516662 -0.4386909 0.06946545
000060 b4 5c af 3e 87 f5 13 3e ac 4a 80 bc 7b 1a cb 3e
       0.34250414 0.1444913 -0.015660606 0.3966864
000070 b5 ed f5 bd 02 c3 ec 3d 3b 21 f3 3d 2e 12 4a 3e
       -0.1200823 0.11560632 0.118715726 0.19733498
000080 06 2e 2c 3e ab 4d 05 be 98 7e f8 3d ef 68 33 3e
       0.16814432 -0.13017909 0.12133521 0.17520498
000090 92 02 df 3d f0 f9 3c bf 7d 44 f7 3e cd 74 13 be
       0.10889162 -0.73818874 0.4829444 -0.14400025
0000a0 08 3c 01 3e 2e c3 f0 3d 1c 35 95 be 28 70 bd bd
       0.12620556 0.117559776 -0.29142082 -0.09249908
0000b0 9a 15 5c be 34 46 5a 3e 8f 94 0c bf 69 a3 3b be
       -0.21492615 0.21315843 -0.5491418 -0.18324055
0000c0 26 59 08 be 53 1f 18 3f cd df 4f 3f a0 0b b5 bd
       -0.13315257 0.59422797 0.8120087 -0.08840108
0000d0 9c 10 27 bf 5a 75 ef bc 78 39 a9 be b4 37 72 be
       -0.6525972 -0.029230762 -0.33051658 -0.23654062
0000e0 20 d2 62 3d 8a 49 c2 be 98 03 6d be 02 c2 8c be
       0.055376172 -0.3794673 -0.23145902 -0.27491766
0000f0 b6 47 28 3e e6 88 f3 3e 2d c1 3c be 29 54 b2 be
       0.16433606 0.47565383 -0.18433066 -0.34829834

critic.0.weight f4 [64, 6]
000000 99 b8 b9 3f af 6f dc bd b7 5d 5f 3e 02 1f 03 be
       1.450946 -0.107634895 0.21813093 -0.12804797
000010 1a fd 09 3e 87 33 97 3f a8 c9 e2 3f 68 79 d6 be
       0.13475457 1.18126 1.7717791 -0.418895
000020 da 37 8b be 2a d9 92 be b5 c6 49 3e 0d d5 1d bf
       -0.2719105 -0.28681308 0.19704707 -0.61653215
000030 50 e1 50 bf a4 8f 77 bd bc 6d cb 3d 15 94 28 3e
       -0.815938 -0.06043972 0.099330395 0.16462739
000040 ef 48 37 be dd 1d 69 bf 5e c5 43 bf 08 2d 90 3e
       -0.17898916 -0.9106119 -0.76473033 0.28159356
000050 e4 2e b0 bd 5e 95 81 3e ad 4f 83 be d1 9a 38 be
       -0.08602694 0.2530927 -0.25646725 -0.18027808
000060 8b fc 93 3e 36 57 c8 3e 75 3f a1 be 2f e5 a2 3e
       0.28903612 0.39129037 -0.31493726 0.31815478
000070 74 74 a1 be 25 41 60 bf 0c 66 2f 3f 4e fd d6 be
       -0.3153416 -0.875994 0.68515086 -0.4199013
000080 d2 16 74 bd 9a 6f 55 bd fa cb 00 3e e9 01 09 c0
       -0.059592076 -0.052108385 0.12577811 -2.1407416
000090 72 37 da bd af 4b aa 3e bd 37 ea be ec aa 9c 3e
       -0.106551066 0.33260867 -0.4574565 0.30599153
0000a0 f1 e2 9a be d9 30 23 3f 5e 4c ff be 92 88 ae be
       -0.30251268 0.6374641 -0.4986295 -0.3408857
0000b0 79 69 96 3d 0e cc bb be 51 89 9e 3e ce ee 62 bf
       0.07344336 -0.3667912 0.3096414 -0.8864564
0000c0 27 99 94 3f 8d 7d e8 bd ef b2 e8 bd 5d 5c 2f be
       1.1609238 -0.11352072 -0.11362254 -0.17125078
0000d0 dc ca 1f 3e f9 5b 88 3f d5 6e bd be 96 6d d1 be
       0.15604728 1.0653068 -0.3699862 -0.4090392
0000e0 72 db c3 3d d8 ef da 3d 59 8f 22 be 35 d9 aa 3e
       0.0956334 0.10690278 -0.15874995 0.3336884
0000f0 d7 30 bb bf 8c 37 51 bd b5 6c e3 be 3c 7d 76 bd
       -1.462428 -0.051078364 -0.44418874 -0.060178027
000100 e3 a9 0f be 8e d1 29 bf 7e f1 4d bf f7 9c cb be
       -0.1402965 -0.6633538 -0.8044661 -0.39768192
000110 76 c7 fb 3b 60 c9 a3 bd 6e dd bb bc 94 b1 0d c0
       0.0076836897 -0.079973936 -0.022932734 -2.2139635
000120 3e 1a 19 c0 cf 75 80 be f7 5e 04 3d cf e0 9a 3e
       -2.3922267 -0.2508988 0.032317128 0.3024964
000130 51 35 83 be 69 46 eb 3e 38 2d 37 3f bc e2 e5 3d
       -0.25626615 0.45952156 0.71553373 0.11224887
000140 b8 c3 4a be d6 bf c8 bb 3a f9 34 3c dd d6 13 3f
       -0.19801223 -0.0061263843 0.011045748 0.5774973
000150 eb 13 55 bf ac 65 fa 3c e8 13 5c be 8f 4a bd bd
       -0.8323352 0.030566059 -0.21491969 -0.092427365
000160 d0 fd b3 3d ee d9 6b 3f c8 23 f9 be 5e bb 06 bf
       0.08788645 0.9212941 -0.4866011 -0.5262965
000170 72 48 b0 3e 3b be 84 3e d7 2f 80 be a9 91 86 bf
       0.3443027 0.25926384 -0.250365 -1.0513202
000180 b1 ae f2 3f 0a b2 0a bf d5 1f 22 3d d5 11 12 3e
       1.8959562 -0.54177916 0.03958114 0.14264615
000190 14 8e 3c be bd 68 a6 bf 4b c3 22 3f 2e 4e db 3d
       -0.18413574 -1.3000714 0.63579243 0.10708271
0001a0 bd 71 8c be 08 f9 da 3e 09 f7 d9 be 2c b1 2d 3d
       -0.27430525 0.4276812 -0.42571285 0.042405292
0001b0 6a 82 5c be 23 b6 e9 3e bf 30 99 be 8b ed b3 3e
       -0.21534124 0.45646772 -0.29920003 0.35142168
0001c0 ac 04 b6 be d7 fc ba 3f 1c 84 66 3e 64 31 ed bd
       -0.3555044 1.4608411 0.22511333 -0.11581686
0001d0 95 ef 99 3e a9 d4 cb bd 3d 73 9a 3d e5 53 97 3f
       0.300656 -0.09952671 0.07541511 1.1822478
0001e0 8e a0 a8 3e 86 33 86 be 94 10 d8 be 05 49 c5 3d
       0.32934994 -0.26211184 -0.42200148 0.09633068
0001f0 58 e0 14 be 1a 2a a4 bf a2 08 a4 3c 85 bd d6 3d
       -0.14538705 -1.2825348 0.020023648 0.10485367
000200 08 36 55 be e9 46 e6 bd 2f de 30 3d c1 10 65 3d
       -0.20821393 -0.11243994 0.04318064 0.05592418
000210 db 7f 65 3f 26 01 0e be c3 2a d7 be dc 97 2c bd
       0.89648217 -0.13867626 -0.42024812 -0.042137012
000220 7f 91 b4 3c 1c ae 69 bd 22 f3 d5 bf 50 83 d3 be
       0.022042034 -0.05705081 -1.6714823 -0.4131112
000230 70 11 12 3e b5 06 4c 3e b3 66 22 be 2a 77 97 3e
       0.14264464 0.19924434 -0.15859489 0.29583102
000240 5f 0a 55 bf 27 ba 1d be 53 ad f5 bd 35 25 ca be
       -0.8321895 -0.15403043 -0.119959496 -0.39481512
000250 de 2f c7 3e fb b4 6f 3f c5 73 56 3f 2f c9 81 bd
       0.38903707 0.9363553 0.837704 -0.06337201
000260 2d 1f d5 bd e9 08 c2 3d 97 fb d6 bd 36 cf 8b 3f
       -0.10406337 0.09474356 -0.10497206 1.0922611
000270 d4 bd 65 40 3e b3 ee bd f6 bc 44 be a4 46 60 3d
       3.5897112 -0.116552815 -0.19212708 0.05475487
000280 46 bc 47 bd c3 fd 19 bf cb 32 55 be 0c 40 5c 3e
       -0.048763536 -0.60152835 -0.20820157 0.21508807
000290 6b 41 af be 2a 6b 81 3e af 76 81 be c0 a2 99 be
       -0.34229597 0.25277072 -0.2528586 -0.3000698
0002a0 c0 a0 c4 bd a1 8e 54 3e 6c 90 92 be fc e3 95 be
       -0.09600973 0.20757534 -0.2862581 -0.292755
0002b0 f7 d2 9c 3e d5 26 c9 3e 2b e5 59 3f 25 c3 22 3e
       0.30629703 0.3928744 0.8511531 0.15894754
0002c0 05 2b 45 bd b2 53 8c 3d b6 d8 98 bd 63 f8 9d 3e
       -0.04813673 0.06851901 -0.07463209 0.30853567
0002d0 e6 22 75 bf 01 77 5d be 14 dc 62 bd 57 47 3e bd
       -0.95756376 -0.21627428 -0.055385664 -0.046454754
0002e0 75 f4 c7 3c f9 d0 a0 3f 56 5b 3e 3f 4a 13 a2 3e
       0.024408558 1.2563773 0.7435812 0.3165534
0002f0 74 8e 10 3e 37 76 18 3e b1 08 07 be e5 1b fe bf
       0.14116842 0.14888845 -0.1318691 -1.9852263
000300 54 ce 2d 3e b7 26 a4 3e 14 9a 57 3d dc 21 a4 3e
       0.16973239 0.32060787 0.052637175 0.32057083
000310 89 e0 a0 be 55 09 eb be 65 3c 94 3f 72 1f 00 bf
       -0.31421307 -0.45905557 1.1580931 -0.5004798
000320 1e ed 05 3e 03 1a 15 3e 89 80 21 be 97 f5 8a 3f
       0.13078734 0.14560704 -0.15771689 1.0856198
000330 92 34 23 c0 22 4c 69 3c 55 8f f7 3b e0 19 70 3d
       -2.5500836 0.014239343 0.0075549283 0.058618426
000340 c1 7a c2 bc f4 b0 8d be 14 b5 a7 3e 8c bb fc 3c
       -0.023740174 -0.27674067 0.3275534 0.030851148
000350 d7 54 de be 03 86 36 3e 78 68 2b be cd cf f4 be
       -0.43424103 0.17824559 -0.1673907 -0.4781479
000360 47 98 88 3e 66 9f 1a be f8 ad 92 3e c6 1f 3f be
       0.26678678 -0.15099868 0.28648353 -0.18664464
000370 3c 43 34 3e fd 8b 51 3f f1 4f 98 3f 67 9d f7 be
       0.17603773 0.8185423 1.1899396 -0.48362276
000380 1a 1d 7d bc a4 63 fe bc 3f 6c b2 3d dc 53 84 3e
       -0.015448833 -0.031053372 0.087120526 0.2584523
000390 50 84 44 3f 64 8e 89 be 0b e2 5a be 05 f5 6d 3e
       0.7676439 -0.26866448 -0.21375291 0.23237999
0003a0 d0 f6 b1 be d3 26 07 bf b5 47 77 bf f0 c7 e3 be
       -0.34758615 -0.52793616 -0.9659379 -0.44488478
0003b0 aa 89 a3 3d 7f dc 48 3d 47 eb 37 bd 03 37 d4 be
       0.07985242 0.049038406 -0.044902112 -0.4144822
0003c0 e3 d3 31 c0 1f f5 d5 bd c5 a5 67 3e 5d 16 94 bd
       -2.7785575 -0.10447144 0.2262183 -0.07230828
0003d0 c7 34 8d 3d 8a 20 aa 3f 27 82 e0 bf cc e4 18 be
       0.06894832 1.329118 -1.7539719 -0.14931029
0003e0 2a 43 06 be f6 b6 35 3e ed 83 3c be e1 b3 c1 3e
       -0.13111559 0.17745575 -0.184097 0.3783255
0003f0 13 f2 34 3e 22 1a 1d bd 5f 90 aa 3e ca 66 7b ba
       0.17670469 -0.038355 0.3331327 -0.0009590207

critic.0.bias f4 [64]
000000 68 df 9a 3d 24 da 1f be c8 26 42 bc 7f 2f 37 be
       0.075621426 -0.15610558 -0.0118500665 -0.17889212
000010 34 1c e2 3c 04 ef 86 3e 22 5c ad 3e 6e f3 57 3e
       0.027601339 0.2635423 0.33859354 0.21088955
000020 76 24 cb be f8 5b b2 3d c1 d9 50 3e 20 c9 e3 bb
       -0.39676255 0.08708948 0.20395567 -0.006951466
000030 6b 8b 1f bf d3 f5 3a 3d 51 7e cc 3e 09 15 c7 3e
       -0.6232211 0.045644592 0.39940122 0.38883236
000040 a3 a4 65 3e f3 7b c9 3e 7f 0d 24 be 88 2b 1e be
       0.22426085 0.39352378 -0.16020773 -0.15446293
000050 d8 ad a8 bc 29 00 09 bf 2e 5b 23 bf b8 78 e0 bd
       -0.020590708 -0.5351587 -0.63811004 -0.10960525
000060 89 a4 38 be 0a 57 ec 3d 97 1c 81 bb 59 76 5f 3e
       -0.18031515 0.11540039 -0.0039401758 0.2182249
000070 57 67 29 3e a0 51 39 3e b9 25 f7 3c 8c 4c c6 be
       0.16543327 0.18097544 0.030169355 -0.38730276
000080 16 53 93 be 2f 53 5a be ae be 0a bf 07 57 9c be
       -0.28774327 -0.21320795 -0.54197204 -0.30535147
000090 d7 f8 c7 3d 51 89 16 bf 58 8d 22 3d 72 a4 38 3e
       0.09764259 -0.5880328 0.039685577 0.18031481
0000a0 f9 11 95 be 2b 4c 01 bf 73 f2 0b be d5 9d d4 be
       -0.29115275 -0.5050685 -0.13666706 -0.41526666
0000b0 8b a5 0e be 48 61 2e 3b 20 4b 3e bd 0d 16 57 3d
       -0.13930337 0.0026608277 -0.046458364 0.052511264
0000c0 0d a6 87 be 77 59 dd bd 49 b8 c4 be e9 17 4f 3e
       -0.26493874 -0.1080808 -0.38421848 0.20223965
0000d0 c0 4f 88 3d 41 c7 c2 bd 2c 80 25 be a3 d6 7c be
       0.06655836 -0.09510661 -0.16162175 -0.24691252
0000e0 63 41 8c 3e 31 ac 37 be 09 06 24 bb cb c5 29 bf
       0.27393636 -0.1793678 -0.0025028011 -0.66317433
0000f0 9e b8 4d be 9d c8 98 3e a9 99 2d bd c0 e4 a9 3b
       -0.20089957 0.29840556 -0.04238287 0.00518474
