PPO2_Trained/PPO_DoubleInvPendulum_100K.pth (torch, 109673 bytes, 18 tensors)

actor.0.weight f4 [64, 6]
000000 1f 8a d1 be 73 d5 c4 be 0f 7c 5a be 93 ba dc 3d
       -0.4092569 -0.384441 -0.21336387 0.10777774
000010 78 6d ec 3d 87 d8 99 3e 88 ea cd 3e c7 d2 c1 be
       0.11544317 0.3004801 0.40217996 -0.37856123
000020 e8 c4 7e bc ec a0 6e 3e 20 d3 11 be 0e 47 53 3e
       -0.015549876 0.23303574 -0.14240694 0.20632574
000030 a8 5c b6 3e de 90 a9 bd dc f3 02 be 67 27 ab be
       0.35617566 -0.08279584 -0.12788337 -0.334285
000040 46 d0 56 be 65 67 0a 3e c0 0b 1b 3f a0 45 4b be
       -0.20977888 0.13516004 0.60564804 -0.19850779
000050 51 89 b8 3c a2 ca c3 be 33 4d b8 be 74 63 27 be
       0.022526415 -0.38240534 -0.35996398 -0.16346532
000060 a1 db f4 be 80 43 04 be 62 89 9b bd 61 2c a4 3e
       -0.47823814 -0.12916374 -0.07594563 0.32065108
000070 89 32 35 3d 88 f6 f1 bd aa 1a cd bb dc d5 cc be
       0.044237647 -0.118146 -0.006259282 -0.40006912
000080 5f e1 b0 bd fc 91 c3 3d 30 b9 aa 3d df 11 d6 be
       -0.08636736 0.09549329 0.08336103 -0.4181051
000090 ad c8 10 be fd 52 70 bd f6 8c af 3d c6 f6 4f 3e
       -0.14139052 -0.058672894 0.08571808 0.2030898
0000a0 1f 45 ad 3e 61 36 72 be 39 8f 2b 3f b0 49 cd be
       0.33841798 -0.23653556 0.67015415 -0.40095282
0000b0 37 99 55 be 0b 42 bf be 29 cc 8a bd ae ce 19 be
       -0.20859228 -0.37355074 -0.06777222 -0.15020248
0000c0 ea 82 55 3f 08 5d 2e be 14 a1 84 bd e8 da 82 be
       0.83402884 -0.17027676 -0.06476036 -0.25557637
0000d0 ff 42 14 ba 40 60 d6 3d 4e 93 0e be 29 93 06 be
       -0.0005655735 0.10467577 -0.1392338 -0.13142075
0000e0 12 1d d5 3e fd f0 b3 3e 26 5a 97 3e 3c 30 27 3e
       0.4162374 0.35144797 0.29560965 0.16326994
0000f0 31 43 3d 3f 08 fc 2b bc ec 84 1d 3e 4f 39 e3 bd
       0.7393065 -0.010497101 0.15382737 -0.11094915
000100 a6 65 a0 be 89 b2 13 3e f0 61 e3 be e0 f9 b2 be
       -0.31327552 0.14423575 -0.44410658 -0.34956264
000110 b6 09 61 3e 1b 8f 9b 3e 95 b2 a1 bd c4 7d 19 be
       0.2197636 0.30382618 -0.0789539 -0.14989382
000120 cf e2 1a 3e 9f 12 cb 3e e3 74 1f bd a1 66 b0 bd
       0.15125583 0.39662644 -0.03892983 -0.08613325
000130 7c 56 8a 3d 88 04 51 bd bc 58 ad be 7c d7 84 be
       0.06754777 -0.051029712 -0.3385676 -0.25945652
000140 0b 30 6a bd 6b 87 57 be 82 3d 9d 3e 38 32 a4 be
       -0.057174724 -0.21047752 0.3071099 -0.32069564
000150 50 18 15 bf a2 e0 78 3e 6c 6b 23 3e 95 1b bd 3e
       -0.5824022 0.2430444 0.15958947 0.36935106
000160 d0 04 a7 be ff fc f1 3e e3 8a e3 3e a6 40 bc 3e
       -0.3262086 0.47263333 0.444419 0.36768073
000170 c8 04 48 be 28 d2 66 3e 5f e0 ad 3e e4 d6 de 3d
       -0.19533074 0.22541106 0.33960244 0.10880831
000180 82 f7 02 bf 72 91 5c be ed 9a a1 be 01 59 42 be
       -0.51158917 -0.21539858 -0.31563511 -0.18979265
000190 02 09 9b be 95 0a c9 bd 2a bd 65 3f 28 ce 68 be
       -0.3028031 -0.098164715 0.89741766 -0.22734892
0001a0 a0 61 d1 be 48 db 5a bd 60 df 9c 3e e9 5d 82 be
       -0.40894794 -0.05343178 0.30639172 -0.25462273
0001b0 a7 c9 ab 3e 11 89 36 3e 6e 28 4e be 99 f5 c0 be
       0.33552286 0.17825724 -0.2013261 -0.37687376
0001c0 21 6c be 3e ef 54 b5 be d8 6c 3a bd 14 f8 a2 3e
       0.3719187 -0.35416362 -0.045513958 0.31829894
0001d0 2e 3a dd 3d cc c8 57 be ec ff 1a 3e 26 1c ab be
       0.108021125 -0.21072692 0.15136689 -0.33419913
0001e0 0e 79 38 3f e5 ee ca 3d 7c 34 9f be 85 de c4 3e
       0.72059715 0.09908847 -0.3109473 0.3845102
0001f0 7a d6 d9 bd f1 c7 37 bd 2d 6b 20 be 30 a5 c5 be
       -0.10636611 -0.044868413 -0.15665884 -0.3860259
000200 c4 70 80 be 34 6b 02 be 51 0d 4f bc ec 4e ee bd
       -0.25086033 -0.12736207 -0.012637452 -0.11636147
000210 32 4e fa 3e 0e e7 bb 3d 36 47 a9 3e 53 f0 d6 bd
       0.48887783 0.091749296 0.33062142 -0.10495057
000220 74 24 91 3e 8f 5b 08 bb 32 40 1d be 41 68 4a be
       0.28348124 -0.0020806526 -0.1535652 -0.19766332
000230 ee e6 f4 be 05 13 24 bd d1 1a 95 3d 89 1e 08 be
       -0.47832435 -0.0400572 0.072805054 -0.13292898
000240 dd e0 9d 3e 4c 35 c6 be 5c 43 a4 be 92 99 ae be
       0.3083562 -0.38712537 -0.3208264 -0.3410154
000250 3b d1 d0 be 9d 50 90 be 21 ac cb 3e 2d b6 a2 bd
       -0.4078463 -0.28186503 0.3977976 -0.079449035
000260 40 e5 92 3e e5 32 00 3e 40 bd 0e 3e ec 63 d0 be
       0.2869053 0.12519415 0.1393938 -0.40701234
000270 e1 4e 1e bf 5b a8 cb bc 0e be ab 3e 94 c7 1b bd
       -0.6183911 -0.024860552 0.33543438 -0.03803213
000280 66 09 57 be 02 67 12 be e6 66 d8 be 48 5b 82 3e
       -0.20999679 -0.14297107 -0.42266005 0.25460267
000290 cb ba d3 be 0f cf 57 3e 3c 75 65 bc 7a d3 9e 3e
       -0.4135345 0.2107508 -0.014005002 0.3102072
0002a0 f9 a2 b7 be 0b 49 93 be 2a 92 90 be d2 6c 0c be
       -0.35866526 -0.28766665 -0.28236514 -0.13713387
0002b0 30 fa 13 3e 72 a7 9c bd fb 2c 46 be e6 8e 71 3e
       0.14450908 -0.07649125 -0.19353096 0.23589668
0002c0 25 f9 c0 bd 2d 07 a7 be d8 1f 9e 3e bd fd e1 be
       -0.094225205 -0.32622662 0.3088367 -0.441389
0002d0 6d 7a ad be 64 2b 5b 3d 3c 53 87 be 8e 4f eb 3d
       -0.33882466 0.053508177 -0.2643069 0.11489783
0002e0 8e 58 b2 3e d5 c5 59 be c5 94 24 bd 52 a5 ce be
       0.34833187 -0.21266873 -0.04018094 -0.40360504
0002f0 f7 7f 35 3e dc 84 3d bc 04 5c 4e 3e 9e 2c a4 bd
       0.17724596 -0.011567321 0.20152289 -0.080163226
000300 20 39 0d bf 4d d7 08 3d 3d 20 8b be c5 00 02 3e
       -0.5516529 0.03340845 -0.27173033 0.12695606
000310 0a 6e 89 be ec 5b cc 3e e0 70 23 bf 48 9c 3e be
       -0.26841766 0.3991388 -0.6384411 -0.18614304
000320 c7 31 cf 3d 34 35 9f 3d c4 4a 96 3c 25 7b 3b be
       0.10116916 0.077738196 0.018346198 -0.18308695
000330 1a 9b d8 3e ef ac e6 be c6 bd 9c 3e fb 57 4e 3d
       0.42305833 -0.45053813 0.30613536 0.050376873
000340 9d a9 2e 3e 4c e7 79 3e 51 04 a3 be 40 4c cf 3e
       0.1705689 0.24404639 -0.3183923 0.40487862
000350 06 b5 ba be 21 35 80 be 8a ad 8a 3e f2 63 6e bf
       -0.36466235 -0.25040534 0.27085525 -0.93121254
000360 9e 24 1b be 2c e3 05 be b3 14 21 3e 33 a1 16 3e
       -0.15150687 -0.1307494 0.15730552 0.1470993
000370 ce c5 ce be cd 9c db be 27 42 23 be 46 81 9a bd
       -0.40385288 -0.42893067 -0.15943204 -0.07544188
000380 68 83 07 be e7 9f ab 3e ab c7 c8 be 7c d7 19 3f
       -0.13233721 0.33520433 -0.39214835 0.6009443
000390 03 d9 ce 3e 54 aa 1e 3e 68 6c bf 3e da 70 8b 3e
       0.40399942 0.15494663 0.37387395 0.27234536
0003a0 a4 ab b6 3e bb d5 cc 3d 48 1e 4f bf e5 9b b8 be
       0.35677826 0.10001703 -0.8090558 -0.36056438
0003b0 f2 f2 e8 3d a3 c0 94 be 98 c6 9f bd 6f 84 8b be
       0.11374463 -0.2905322 -0.078015506 -0.27249476
0003c0 a6 88 82 3d 65 39 bd 3e 84 f6 28 be 53 a4 c3 be
       0.0637372 0.3695785 -0.16500288 -0.38211307
0003d0 d8 33 c4 3e 6f 18 6c 3e 1d d4 17 bf 62 78 31 3c
       0.38320804 0.23056196 -0.59308034 0.010831924
0003e0 0a ff 1c be 30 b4 3d be c2 d6 3f 3e 18 c7 bf ba
       -0.15331665 -0.18525767 0.18734267 -0.0014631478
0003f0 e9 38 05 bf 07 9d 2b be 02 01 61 be 11 cb c8 bd
       -0.52039963 -0.1675912 -0.2197304 -0.09804357

actor.0.bias f4 [64]
000000 d1 43 68 3e 59 49 9c 3c 34 05 86 be 20 d9 46 3e
       0.2268212 0.019077944 -0.26175845 0.19418764
000010 7f b4 45 be c5 66 3d be e9 ff 56 bc 10 a5 41 3e
       -0.19307135 -0.18496235 -0.013122537 0.18910623
000020 58 9e 7e be 87 2a 98 3e 83 47 6b be 84 bb 48 3e
       -0.24865091 0.29719946 -0.22976498 0.19602782
000030 db 12 cb 3e 90 75 91 3e 40 88 af be 03 61 90 be
       0.39662823 0.28410006 -0.34283638 -0.28199014
000040 26 c1 4c be e4 44 8e be c3 2a a0 3e d9 7f 8f 3e
       -0.19995555 -0.27786934 0.31282625 0.28027228
000050 37 c5 bb 3e 5a b5 c1 3d 9f 48 6e 3e 6d c6 eb 3d
       0.366739 0.09458418 0.2326989 0.11512456
000060 bd bb ed 3d ce 47 b7 be 24 16 89 bc 9d e7 57 3e
       0.11608074 -0.3579697 -0.01673419 0.21084447
000070 aa 03 c5 bd 7b ea 05 be c9 71 b6 3e 37 54 1d bd
       -0.096198395 -0.13077728 0.35633686 -0.03841039
000080 6c a2 91 3e 37 7b 9c 3b 64 c1 2c 3e 83 44 ec 3d
       0.2844423 0.0047754305 0.16870648 0.11536505
000090 74 23 75 3d 83 68 7f 3e ba 46 83 bb b6 77 fe 3d
       0.059848264 0.24942212 -0.004006234 0.12425177
0000a0 81 08 64 be 99 28 cf 3e 54 53 9e 3e c7 27 b6 be
       -0.22268869 0.4046066 0.3092295 -0.35577223
0000b0 52 73 85 bb bb a6 8e bc 2d 4a 6e 3e 5d f1 71 bb
       -0.004072585 -0.017413488 0.23270483 -0.0036917545
0000c0 c3 18 c4 bd 7f 35 6c bc dc 12 ac be ca 7d 44 3e
       -0.095750354 -0.014417051 -0.3360814 0.1918861
0000d0 98 aa 8c be 2a f2 c4 3d 6a 60 1e 3e ff 65 2c 3d
       -0.27473903 0.09616502 0.15466467 0.04208946
0000e0 bf 07 cc 3e bc d5 35 3e 64 26 af be dd d5 88 3e
       0.3984966 0.17757314 -0.34208977 0.26725665
0000f0 3c 95 c3 bd bb a6 19 be 89 3f 46 be 4b bc a5 3e
       -0.095499486 -0.15005009 -0.19360174 0.3237022

actor.2.weight f4 [64, 64]
000000 ff 54 18 3e 6a fa fc bd d4 a1 8d 3d 37 48 2f bd
       0.14876173 -0.1235245 0.06915632 -0.04279348
000010 f6 23 d2 3b 6b da 9a 3d d2 c3 ab bd b8 ee ef bc
       0.0064129783 0.07561191 -0.08386959 -0.029288635
000020 b1 b9 f6 bd 83 e0 4c 3d b8 b8 05 bd 95 80 8c 3d
       -0.120471366 0.0500188 -0.032646865 0.068604626
000030 e6 60 1e bc e7 76 30 bd 99 90 28 3c 8a 91 6d bb
       -0.009666657 -0.043082144 0.010288381 -0.0036250078
000040 fe 09 12 be 4c b8 8c 3d 37 85 d3 bd a7 e4 42 bd
       -0.14261624 0.06871089 -0.10328143 -0.04758134
000050 56 39 41 3d 9d 39 97 bd 79 39 a6 3c ce ce 8e bd
       0.04717382 -0.07384036 0.020291077 -0.069730386
000060 21 a7 1e be b6 83 86 3c 64 ce 23 3d 8f 14 84 3c
       -0.15493442 0.016420227 0.03999175 0.016123084
000070 d1 75 03 bd c7 6c 31 3d e6 42 5b bd 9c 2e 9d 3c
       -0.03209478 0.04331663 -0.053530596 0.019187264
000080 bf b8 4f bd 5c 90 ab 3d 81 f5 b0 3d c3 c2 fb bc
       -0.050713297 0.08377144 0.08640576 -0.030732518
000090 47 f0 d3 bd ca ef 56 3d ad 18 8b bd 78 11 02 be
       -0.10348564 0.052474774 -0.06791816 -0.12701976
0000a0 be 5e 05 be f3 d5 1c 3e e4 7b 6a 3e 2d b6 a3 bc
       -0.13024423 0.1531599 0.22898823 -0.01998433
0000b0 6f d4 d5 3d 3e b1 4c bb 3e a5 76 3d c1 73 0d be
       0.10440909 -0.0031233574 0.06021618 -0.13813688
0000c0 c3 67 00 be 9a df b9 3d 13 75 13 be da 6e f6 bd
       -0.12539582 0.09075852 -0.14400129 -0.12032862
0000d0 8f a5 2e bd 12 3e e3 bc 6a 3f 1a bb 96 1a 8a bd
       -0.042638358 -0.027739558 -0.0023536333 -0.06743352
0000e0 f4 24 88 3d 64 d6 9d 3b f0 40 ee bd 04 3c fe 3d
       0.06647673 0.004816817 -0.116334796 0.12413791
0000f0 c3 81 cb bd e7 86 d9 3d da b8 a0 3d fe a2 42 3b
       -0.099368595 0.10621434 0.07847758 0.0029699202
000100 64 8f 0c be 0c fc b0 bd e9 42 36 3d 36 25 82 bc
       -0.13726574 -0.08641824 0.044497404 -0.015886884
000110 66 f6 bd bd 9f 29 26 bd 2a 0f b5 bc 63 ec b9 3a
       -0.092755124 -0.040567037 -0.022101957 0.0014184829
000120 4f 97 24 3e 65 c7 1d 3e 1c fe 09 be ff ab 7b bc
       0.16073345 0.15408094 -0.13475841 -0.015360831
000130 14 29 96 bd 80 e2 00 bd 21 06 da bc 4b 26 b4 bc
       -0.07332054 -0.031466007 -0.02661425 -0.021990916
000140 1c 41 e9 3d 18 e2 23 3d d5 fe 29 bd 72 56 fb bd
       0.11389372 0.04001054 -0.041502792 -0.122723475
000150 e5 3c d3 3d 2c 2e a5 bd e1 17 d7 bd 80 71 e3 bd
       0.10314349 -0.08065447 -0.105026014 -0.11105633
000160 8f 4c 49 3d a5 75 e2 bd 18 34 a2 bc d1 38 1c 3e
       0.049145278 -0.11057595 -0.01980023 0.15256049
000170 15 c5 d6 bd fb 7d d4 bd e7 8b 14 bd 8f 6b 93 3d
       -0.10486809 -0.10375591 -0.036266234 0.071982495
000180 52 51 9e 3d 3e 0a 0c 3e be 0d 24 bd 4e 75 e2 39
       0.07730354 0.13675782 -0.040052168 0.00043193478
000190 17 3a 11 be c0 41 d8 3a 83 11 14 bd c0 b6 de 3d
       -0.14182316 0.0016499087 -0.036149513 0.108747005
0001a0 dc 48 ad 3d e9 b9 98 bd e8 ef e9 3d 68 81 81 3d
       0.084611624 -0.074573345 0.114227116 0.063235104
0001b0 5b a1 2b bc 9a 0d 46 3d 68 3f a3 bd 41 18 18 3d
       -0.010475482 0.048352815 -0.07971078 0.037132505
0001c0 6b 18 d7 3d e8 ee 61 3e f7 6c f7 bc d3 c2 03 be
       0.10502704 0.22063792 -0.030203326 -0.12867288
0001d0 3e c1 f9 bd fa 80 af bd 97 81 0d be e4 ee 8f bc
       -0.12195061 -0.08569522 -0.13818966 -0.017569967
0001e0 2c 46 8e 3d d3 f4 32 be f2 5b 14 be 36 4b 95 bc
       0.06946978 -0.17476206 -0.144882 -0.01822434
0001f0 02 03 82 bd 88 60 5f be 6f 89 91 bc 28 e2 15 3d
       -0.0634823 -0.21814167 -0.017765729 0.036592633
000200 13 1f 3b be 17 9e 15 3d c0 1a 5c be 9e 3f a2 3d
       -0.18273573 0.03652772 -0.2149458 0.0792229
000210 da 72 34 bd ac a9 93 bd 80 5d 85 3c a4 e8 38 be
       -0.044054843 -0.07210097 0.016279936 -0.18057495
000220 d2 0a 9e bd dc e8 c9 3d 7e 64 4c 3e b9 c3 9b bd
       -0.077169076 0.098588675 0.1996021 -0.076056905
000230 53 6b 99 3c cf 9f 06 bd f9 5c 2f 3d f2 8b 1b 3d
       0.018727934 -0.03286725 0.042813275 0.03797526
000240 e4 77 9a bd ca 9f d9 bd 0b 03 07 bd ab a6 1c 3d
       -0.075423986 -0.106261805 -0.032961886 0.038244884
000250 0c e1 b4 3d 99 e7 29 bd 25 04 55 bc 55 65 52 bd
       0.08831987 -0.041480634 -0.013001476 -0.05136617
000260 b0 45 0e be a4 0b fc 3d 07 d6 49 3d a9 90 ca 3c
       -0.13893771 0.12306908 0.049276378 0.024727182
000270 f5 75 ef bd 56 97 8d 3e dc d8 f1 bd f8 c9 c7 3d
       -0.116924204 0.27654523 -0.11808941 0.09755319
000280 e2 88 68 3d f5 da 66 3d 87 d8 99 bc a3 09 ff 3d
       0.056771167 0.056361157 -0.018780006 0.1245301
000290 1b 54 d6 bc c7 a2 89 3e f9 a8 d8 3d b4 59 0a be
       -0.026163151 0.26882002 0.10579104 -0.13510782
0002a0 62 82 23 3e d0 6f d8 3c 7e 00 1f be e7 f4 75 3d
       0.15967706 0.026420504 -0.15527532 0.06004801
0002b0 c6 79 3b bd b0 8b a7 bd 58 45 95 bd d1 95 6b 3e
       -0.04577043 -0.0818094 -0.07288617 0.23006369
0002c0 fd c5 a0 bd f1 be 2b bd 2b 88 08 3e 6e cc 88 bd
       -0.07850263 -0.041930143 0.13333194 -0.06679617
0002d0 a0 25 a4 bb 20 13 49 be cb f9 48 bd b7 d0 3f bd
       -0.005009368 -0.19636202 -0.049066346 -0.046829905
0002e0 89 c1 75 bd e1 40 c1 3d 3f 0f be bd 9f 18 44 bc
       -0.059999023 0.09436203 -0.09280252 -0.011968761
0002f0 64 86 37 3d 4c 36 92 3d 21 44 24 be b8 ab a5 3c
       0.0448059 0.071392626 -0.16041614 0.020223483
000300 b1 cd 57 3c b5 2e af 3c 25 b4 57 bd 4d c4 77 bd
       0.013171599 0.021384576 -0.052662034 -0.06048994
000310 d8 a2 4e bd ee b9 61 3d 68 47 5c bd bf d7 63 bd
       -0.05044827 0.055108957 -0.053779036 -0.055625673
000320 e7 cd 17 be f9 f8 4f be b9 3a 5a 3c 3a a7 73 3d
       -0.1482464 -0.2030982 0.013319665 0.05948565
000330 18 00 8b 3d ff 96 9a 3d 62 4c ac 3d ae 52 0c be
       0.06787127 0.075483315 0.08413006 -0.13703415
000340 1d d0 b1 bc ec b6 e7 3c 3f af 44 bd 18 23 1d 3d
       -0.021705681 0.028285466 -0.04801869 0.038363546
000350 e9 b4 0a be 71 17 f8 3d d4 fd 9c bd c5 35 35 3e
       -0.13545574 0.12113846 -0.076656014 0.17696293
000360 f0 cb 67 bb 97 e2 b3 bd 17 64 e2 3d dc 64 a1 3d
       -0.003536936 -0.08783453 0.11054247 0.078805655
000370 b2 c1 c5 bc a6 e4 2c bd d1 22 95 3d 7f 10 82 bd
       -0.024140213 -0.042210244 0.07282031 -0.06350803
000380 0e ec 86 3d af 11 bd 3d 3d 27 d2 3b 73 ff 57 bd
       0.065879926 0.092318885 0.006413369 -0.05273385
000390 00 70 e3 3d f1 8b df 3c 31 25 b9 bc 5f 2f ee 3d
       0.11105347 0.027288409 -0.022600742 0.11630129
0003a0 ed 6e 40 be 0e a7 f6 3d f2 dc 28 bd 66 f3 fe 3d
       -0.18792315 0.12043582 -0.041226335 0.12448768
0003b0 25 8a 2a 3c 33 f7 a7 bd e7 aa 5d 3c ce 6e be 3c
       0.010408913 -0.082014464 0.013529516 0.023246195
0003c0 1f ab 08 3e 23 ae d5 bd 88 56 08 3e 9f e1 cc bd
       0.13346528 -0.104336046 0.13314259 -0.10003971
0003d0 39 69 7c bd 0c 3b 45 3d e5 b2 ad 3b a6 e3 a4 3c
       -0.061623786 0.048152015 0.005300867 0.020128082
0003e0 4a 62 6d bd 54 36 c6 bd ff 64 49 bb ff 9f 86 3d
       -0.057955064 -0.09678331 -0.0030730364 0.065734856
0003f0 8a aa cc bd cc 81 dc 3d 27 3a 99 3d 04 5a 38 bc
       -0.09993465 0.10766944 0.07481795 -0.01125193

actor.2.bias f4 [64]
000000 d8 25 01 3e be 87 9e 3d 42 86 9d bc 1c 1b 11 3d
       0.12612092 0.077407345 -0.019229058 0.035426244
000010 44 a5 4f 3d 3b e2 75 3d 31 92 55 bd 1b e0 0d 3d
       0.05069472 0.060030203 -0.052141372 0.03463755
000020 af be c3 3d 81 38 9e bb 8e 31 dd bd 33 21 18 bd
       0.095578544 -0.004828513 -0.108004674 -0.037141036
000030 85 34 da 3d 7f f9 a3 3d 66 da ee bc 7b 08 b7 bd
       0.106545486 0.08006572 -0.029156875 -0.089371644
000040 27 e8 85 3d c4 74 d0 3d f9 d8 9e 3d 27 e9 d8 bd
       0.0653842 0.10178521 0.07756228 -0.10591345
000050 91 a0 36 3c c2 9f 79 bd 5b 62 e8 3d 68 69 f5 3d
       0.01114668 -0.060943373 0.11346885 0.11982995
000060 ff 9a 7d bd bb 27 cc 3d e8 46 22 bd 64 4d f0 bd
       -0.061915394 0.099685155 -0.039618403 -0.11733511
000070 bd b3 dd 3d 03 a9 88 3c 29 1e 5b 3d 11 80 97 3d
       0.10825298 0.016682154 0.05349556 0.073974736
000080 0e 40 87 bd 67 02 a3 bd a8 6f 49 bd 80 62 c9 bd
       -0.06604014 -0.079594426 -0.04917875 -0.098332405
000090 bd 8e ca 3c 91 5e 61 bd c3 9f 28 bd d0 4d 8d bd
       0.024726266 -0.055021826 -0.041167986 -0.06899607
0000a0 9a 2f 35 3d 02 68 21 3d 2d 02 16 bd 50 a3 32 3d
       0.04423485 0.03940583 -0.03662317 0.04361278
0000b0 d7 1e e0 bb 00 51 05 be 0b 92 8a 3c 4f e4 01 3d
       -0.006839614 -0.1301918 0.016915342 0.031711873
0000c0 bd f5 03 3e b1 1f 2c 3d 88 aa a3 3d fc b9 de 3b
       0.1288671 0.04202241 0.07991511 0.0067970734
0000d0 30 59 81 bd 7e 04 bf 3d c9 1d bc bc ab 65 e2 3c
       -0.06315839 0.09327029 -0.022963421 0.02763637
0000e0 05 b7 b5 3d 17 be 9f 3d 3a 18 88 bd bd 08 05 be
       0.08872799 0.07799929 -0.06645246 -0.12991615
0000f0 de 20 8b bd 11 d5 8a bd 9c 2e 9f bb 38 49 f2 bd
       -0.06793378 -0.067789204 -0.004857851 -0.118303716

actor.4.weight f4 [64, 64]
000000 a4 95 ef 3b 2d b8 35 be 5d d7 23 be 56 5d 6c 3d
       0.0073115397 -0.17746039 -0.16000123 0.0577062
000010 48 44 1e 3d 24 1d 5e 3b fe fe f0 3d 90 72 ff 3d
       0.038639337 0.003389188 0.11767386 0.12473023
000020 fd a7 f1 3c 9d 7e 3f 3d 12 0a fb 3d 2d 99 92 3d
       0.029499048 0.046751607 0.1225778 0.07158122
000030 3e ed 05 3d ba 5d e3 3d e0 05 9d 3c 40 5b 93 bd
       0.032696955 0.11101861 0.01916784 -0.07195139
000040 4c 04 a2 3d 5a 33 c1 3d 3c df d2 3d 3f 85 49 bd
       0.07910976 0.09433623 0.10296485 -0.04919934
000050 65 bc e1 3c 82 0d a0 bd 44 a8 bb bb ea ba 9f bd
       0.027555654 -0.078150764 -0.005726846 -0.07799323
000060 ad 3b 15 3e de 66 e6 3b 17 e6 2f 3d 99 f2 44 3e
       0.14573546 0.0070313057 0.04294404 0.19233169
000070 59 a4 ad bc 2b e5 11 3e a3 48 d8 3c e5 00 9d 3d
       -0.021196531 0.14247577 0.026401823 0.07666186
000080 1a 7c e4 bd 93 95 9d bd b2 de f4 bd 22 4b 0e bd
       -0.11156483 -0.07694545 -0.11956538 -0.03473962
000090 f2 29 ed 3d f8 8f 96 3d 0d 2a 85 3b bd c5 ba bd
       0.11580266 0.073516786 0.0040638507 -0.09119747
0000a0 ce f3 03 3e c7 05 bb bd 30 59 c2 bd 8e d4 46 bc
       0.12885973 -0.09131961 -0.094896674 -0.012135638
0000b0 f1 c0 41 ba b4 ff 35 3e 70 9e ae 3d 2c 8a 67 bc
       -0.0007391116 0.17773324 0.08526313 -0.014132064
0000c0 c0 48 94 3d 81 48 42 3d 98 9e 6b bd ae 01 41 3e
       0.072404385 0.047432426 -0.057524294 0.18848297
0000d0 8e 67 9a 3d 5d 99 d6 3d 40 de b2 3b d6 c0 27 bc
       0.07539283 0.104784705 0.005458623 -0.010238847
0000e0 5f be 8b 3d 9b 14 d3 3d 22 5a 87 bd 76 c3 d4 3d
       0.0682342 0.103066646 -0.06608988 0.10388844
0000f0 55 69 66 3c 8c 5f 39 3e 4d 46 23 bd bb f7 98 3d
       0.014063199 0.18102854 -0.039861966 0.07469126
000100 59 53 4e 3d 46 23 41 be dc bc 8b 3c a6 23 e1 3c
       0.050372455 -0.18861112 0.017057829 0.027482819
000110 4f 0a 02 be 2f a0 34 3d a6 b7 39 3e b6 3c 94 bd
       -0.12699245 0.044098075 0.18136463 -0.07238142
000120 51 82 9d bd 41 5e 0f 3d f1 21 35 bd 29 22 de 3a
       -0.076908715 0.035001997 -0.044221822 0.0016947436
000130 d9 81 08 be 63 29 89 bd 32 5a b5 bd 58 77 56 bd
       -0.13330783 -0.06697347 -0.08855094 -0.05235991
000140 ad 7c 93 3d ae 58 dd bd 28 b6 3d 3d c2 94 a8 3b
       0.072015144 -0.1080793 0.046316296 0.0051446864
000150 ea e2 71 3d 28 72 42 bd af 21 69 3d 40 23 95 3d
       0.059054293 -0.04747215 0.05691689 0.07282114
000160 6f 1b 90 3d bb b8 9e bc e4 59 cb bc b1 bd 74 3e
       0.070364825 -0.019375196 -0.024823137 0.23900487
000170 c9 52 85 bb 59 ca bf 3d b3 20 fc 3d f1 38 92 bd
       -0.0040687067 0.09364767 0.123109244 -0.07139767
000180 ed a8 4f bd 68 4b 75 be 87 2a 15 bd 2d de 06 3e
       -0.05069821 -0.23954546 -0.03641751 0.13170691
000190 05 f6 5d 3d 78 36 21 bd bb 98 40 3d e9 b8 8c 3d
       0.0541897 -0.039358586 0.047020655 0.06871206
0001a0 8f 8c 3d 3d de aa aa bc 69 de cd bc 02 af 07 bd
       0.046276625 -0.020833429 -0.025130467 -0.033125885
0001b0 92 81 97 bd 02 82 4e 3c 67 3e 08 3d 64 9b e7 3d
       -0.073977605 0.012604238 0.033262637 0.11308935
0001c0 d4 82 a9 3d b7 70 3d 3d c9 3d f1 3b de 20 cb 3d
       0.082769066 0.04625007 0.0073621017 0.09918378
0001d0 f7 19 53 bd 0b 13 08 3e 6b eb 74 3d 93 db 37 3e
       -0.051538434 0.13288514 0.059794825 0.17954855
0001e0 d8 46 1a 3e 74 77 35 bd e8 53 37 3b a7 ba 66 bc
       0.15066087 -0.044303373 0.0027973596 -0.014082587
0001f0 10 e9 ea bd 36 98 6f 3e 9b 31 85 3d 4f 2a 1e 3e
       -0.114702344 0.23397908 0.06503602 0.15445827
000200 33 a2 0e 3e 53 f4 32 3c 8a 8f 0b be bb 0d 8f 3d
       0.13929062 0.010922509 -0.13628975 0.06985041
000210 a4 fd 03 be e6 18 d5 3d ea c6 7d 3c dc ee 80 3d
       -0.12889725 0.104051396 0.015489319 0.06295559
000220 14 f2 99 bd 6b 8b c0 bd cb 6d b0 bd b0 8b b3 3d
       -0.07516876 -0.09401592 -0.08614691 0.08766878
000230 fc f8 85 bd 53 b7 e7 bc 52 68 75 bd b5 f5 06 3e
       -0.065416306 -0.028285658 -0.05991394 0.13179667
000240 a4 09 dc bd a2 de 3d 3d 83 48 14 3d fb 0d 16 3d
       -0.10744026 0.046354897 0.036201965 0.036634427
000250 d3 51 f0 bb fa 4a f8 3d 02 fd d8 bd c8 3d 13 3d
       -0.007333973 0.12123676 -0.105951324 0.03594759
000260 18 61 ca bd 6f f8 f1 3d a9 ec 8a 3d 43 e3 8a 3d
       -0.098818004 0.11814963 0.067834206 0.06781628
000270 95 8e 16 be 9e 5c 21 be 59 94 25 bd d2 8b cb bd
       -0.14702828 -0.15757987 -0.04042468 -0.09938778
000280 fb 7a ac 3d 3c ca 4e 3d 53 73 eb 3d 21 bc 18 3d
       0.08421894 0.050485834 0.11496606 0.03728879
000290 5f 9a a4 bd 1b 9a f9 bc 94 0c 3c bd 01 53 4f bd
       -0.080372564 -0.030468991 -0.045910433 -0.050616268
0002a0 29 ae c4 bd 5a e7 12 be 89 51 6c bd dd 3b f7 3d
       -0.09603531 -0.14346066 -0.057694945 0.12071965
0002b0 1b 3b c0 bb e6 78 9d bd 07 aa 23 3d 5f 83 92 3d
       -0.005866421 -0.07689075 0.039957073 0.07153963
0002c0 54 e9 a9 bd 34 1e 30 3d 4e 1e 0b 3e e5 af 21 3d
       -0.08296457 0.042997554 0.13585779 0.039474387
0002d0 0b 0e e5 3d 0a 97 58 bc 31 b1 6a 3d b1 f5 c6 bd
       0.11184319 -0.013219604 0.05729789 -0.09714831
0002e0 79 47 81 3c de 86 c2 bd 6a 3a 6d bd 02 6f df 3d
       0.015781151 -0.0949838 -0.057917036 0.10909845
0002f0 5e 5b 79 bd 2c fc ac 3c c5 0b ae bc bb 67 06 3e
       -0.06087815 0.021116339 -0.021245847 0.13125508
000300 62 05 f3 bd c2 49 47 3e 92 d7 9c 3d 71 42 02 3b
       -0.11866261 0.1946173 0.07658304 0.0019876028
000310 64 c2 ed 3c 44 8f 31 bd 3e 75 70 bd a7 be 93 bd
       0.029023357 -0.04334952 -0.05870556 -0.072140984
000320 7b 66 98 bd 4a cb f6 bd 68 bb 72 bd b1 35 78 bd
       -0.074414216 -0.12050493 -0.059260756 -0.06059808
000330 d0 04 8d 3d 6c 5f 5f bd c0 13 de 3d e5 c4 95 3d
       0.068856835 -0.05453436 0.10843611 0.07312945
000340 74 9e a9 bc 5c 44 46 bd d4 e0 c2 bd d8 6b 5a 3e
       -0.02070544 -0.048405036 -0.09515539 0.21330202
000350 c2 05 be bd dd 5f e6 b9 d7 37 4b bd f3 2e 4b 3d
       -0.09278442 -0.00043940442 -0.0496138 0.04960532
000360 9c 92 9b bd ea 98 04 3e 12 78 a4 3d cd 98 89 be
       -0.07596323 0.12948957 0.08030714 -0.2687439
000370 5b fb 03 3e 81 10 8f 3d a7 53 f5 bd e1 46 a2 bd
       0.12888853 0.0698557 -0.11978846 -0.07923675
000380 15 b4 46 3d 35 40 cb 3d f0 8c 08 3e 12 2d 9c bd
       0.048511583 0.09924356 0.13335013 -0.07625784
000390 01 c5 32 3d e1 c9 1e 3b e9 b4 0b bd ad bb f8 3d
       0.04364491 0.0024229216 -0.034108076 0.12145171
0003a0 9b 78 bc ba a5 df 04 3e 6c 59 fa 3d 08 40 90 3d
       -0.0014379205 0.12975939 0.12224087 0.07043463
0003b0 40 ed 27 3e dc 48 48 be 41 05 57 3d 6e 81 64 3d
       0.16399097 -0.19559044 0.052495245 0.055787496
0003c0 9e 0b 26 bc f2 7b 09 bd 17 fa d5 3d 9d 47 b4 3d
       -0.010134606 -0.03356547 0.104480915 0.08802722
0003d0 d5 df 88 bd 66 e9 0e be 3a b4 83 3d f7 89 80 be
       -0.066833176 -0.13956222 0.0643086 -0.2510526
0003e0 b6 33 fa bd 8e b5 c8 3d 7d f7 ca 3b 40 cf f9 3d
       -0.12216894 0.09800254 0.0061940537 0.12197733
0003f0 e2 b4 04 3d f8 ff bb bc 3b f6 db bd e5 56 57 be
       0.032399066 -0.022949204 -0.10740324 -0.21029241

actor.4.bias f4 [64]
000000 b5 86 4f 3d 51 0c c4 bd 56 ac 8a 3d bd 57 07 3d
       0.050665576 -0.09572662 0.06771152 0.033042658
000010 67 f2 5e 3d 39 59 68 3c e0 70 34 bd 63 8c 46 3d
       0.05443039 0.014181429 -0.04405296 0.048473727
000020 a3 56 93 bd b4 a2 96 3d ab c4 9f bd cb 55 99 bd
       -0.07194259 0.07355252 -0.07801183 -0.07487067
000030 0f 52 4d 3d d1 71 85 3d b4 6e 65 3c 75 94 ff bd
       0.050127085 0.065158494 0.014003444 -0.12479488
000040 b3 79 36 bc 6f 0f d1 3d 8c 29 ed bd 54 6a bf 3d
       -0.011137414 0.10208022 -0.1158019 0.09346452
000050 9a 08 14 be fd 07 14 3d 0c 58 4a 3d f6 61 84 3d
       -0.14456406 0.03614043 0.049400374 0.06463997
000060 13 e2 d7 bd 21 58 cd bd 3e 19 38 be 33 e5 69 bd
       -0.10541167 -0.10026575 -0.17978379 -0.057103347
000070 63 68 f0 3d 04 f5 84 3d 7d 8e ff 3d f5 24 43 bd
       0.1173866 0.064920455 0.12478349 -0.047642667
000080 a1 40 d4 bd a4 4d dc bd 79 67 c4 bc 50 71 e6 bd
       -0.103638895 -0.10756996 -0.02397512 -0.112520814
000090 ad 0a bd bd 52 cd 46 3c 12 89 9a bd 30 af 06 be
       -0.09230552 0.012133913 -0.07545675 -0.13152766
0000a0 bc 36 ce bd a5 25 af 3d dd ee bf 3d 2c 60 4c bc
       -0.100690335 0.08552102 0.093717314 -0.012474101
0000b0 12 91 2d 3d 7d af 3c 3d e6 6c 49 3d cd de e2 bd
       0.042374678 0.046065796 0.04917612 -0.11077652
0000c0 61 f3 51 bc 3b 8a a4 3c ce 8f eb 3d 0d d9 4a bd
       -0.012814374 0.020085445 0.11502038 -0.049523402
0000d0 1f 72 8f 3d 82 63 79 bd af 3e 5c bc b3 2d 95 bb
       0.07004189 -0.060885914 -0.013442679 -0.004552567
0000e0 e7 3e ac 3d 90 4f 4c bd ed f0 66 bd 19 bb d5 3d
       0.08410435 -0.049880564 -0.05638211 0.10436077
0000f0 b7 bb 9c 3d b2 92 e5 bc 25 43 e6 3d 54 2c 88 bd
       0.07652991 -0.028024051 0.112432756 -0.0664908

actor.6.weight f4 [64, 64]
000000 40 97 bf 3d 16 7d 0e be a7 72 e1 bd 7d 4a 7f bc
       0.093550205 -0.13914904 -0.11008196 -0.015581724
000010 93 d1 71 bd d6 ca 07 3d e9 9e e0 3c 1a a1 ab 3d
       -0.059037756 0.033152424 0.027419524 0.08380337
000020 40 e1 53 3e 11 b5 60 be d6 c2 32 be 73 dc 22 be
       0.20691395 -0.21944071 -0.17457137 -0.15904407
000030 6e 1d 16 3e b6 5e 25 be 1d 3f 11 b9 3b 08 da bd
       0.14659664 -0.1614941 -0.00013851789 -0.10646101
000040 db c2 94 bd 50 b9 fc bc 7b 25 ce 3c a7 f3 f5 3c
       -0.07263728 -0.030850083 0.025164356 0.030023409
000050 9d 96 ed bd 07 dc c1 bd d3 b5 20 be 53 89 f3 bc
       -0.11600993 -0.09465795 -0.1569436 -0.029728567
000060 b8 18 43 be 54 f7 8b 3d 67 0a d4 3d 8d d9 5c 3d
       -0.19052398 0.068342835 0.103535466 0.05391841
000070 74 be be 39 29 2e 63 bd c6 bb b2 bd 72 4c 97 bd
       0.00036381523 -0.055463944 -0.08727221 -0.07387628
000080 f3 e3 c4 3c d8 ea 16 be 29 1e 19 be 53 31 93 bd
       0.024034476 -0.14738023 -0.14952911 -0.07187142
000090 39 37 d9 3c a5 c7 41 3e b8 80 b3 3d ef 77 35 bb
       0.02651559 0.18923815 0.087647855 -0.0027689894
0000a0 f3 88 01 be b7 b7 be ba 06 eb 02 be b8 05 3a 3e
       -0.12649898 -0.0014550601 -0.12784967 0.18166244
0000b0 ab 76 15 3e 9d 5a 95 3d 47 c8 09 be c4 2d ef 3e
       0.1459605 0.07292674 -0.13455306 0.46714604
0000c0 b7 0d 89 3d 72 12 10 bc dd a0 44 bd f9 78 25 be
       0.06692069 -0.00879346 -0.048004974 -0.16159429
0000d0 ae 94 39 be 56 22 87 bc 20 d1 e1 bd ef 11 9a 3d
       -0.18123123 -0.016495865 -0.110262156 0.07522952
0000e0 c8 69 de 3d d4 47 58 bc d2 ad b3 bc 63 8a 95 bc
       0.1086002 -0.013200719 -0.02193347 -0.018254464
0000f0 6f 76 97 bd 7d 84 3d be 2f 52 4d 3d 83 a2 92 bd
       -0.07395636 -0.18507572 0.050127205 -0.07159903
000100 c0 a6 ae bd 65 a2 10 3d d4 c9 07 bd 4b 51 f5 3d
       -0.08527899 0.03531112 -0.033151463 0.11978396
000110 42 02 e3 bd 46 59 24 3d 4c f9 ca 3d e3 ca 69 bc
       -0.11084415 0.0401242 0.09910831 -0.014269563
000120 23 c4 c5 bb ab 24 2d be 99 59 f1 bd 3d 42 bb 3c
       -0.006035344 -0.16908519 -0.117846675 0.022858733
000130 59 c5 6a bd e3 fe d5 3c 74 e7 48 bd 7f 2d f0 bd
       -0.05731711 0.026122516 -0.049048856 -0.11727428
000140 73 88 f3 3d 52 2f ca bd 10 28 a0 bd a4 52 22 bd
       0.1189126 -0.09872307 -0.07820141 -0.039629593
000150 85 79 ae bd d4 22 12 3e 66 99 9b 3d 74 eb f2 3d
       -0.08519272 0.14271098 0.07597618 0.11861315
000160 a9 c4 80 be 1c 43 33 be bb 1a 4e bc e4 51 c4 bd
       -0.2515004 -0.17506069 -0.012579615 -0.09585932
000170 ea 3b b8 3d 1a 13 9a bd 0d 4d 9e 3b 14 75 4e be
       0.08995803 -0.075231746 0.0048309625 -0.2016185
000180 87 36 93 bd 62 38 89 bd c2 34 29 be 9e 9d f2 bd
       -0.07188135 -0.06700207 -0.16524032 -0.11846469
000190 5f 52 64 3c 93 87 e5 3c af 4b fc 3d 5f f1 d8 bd
       0.013935654 0.028018748 0.12319123 -0.10592913
0001a0 26 22 c6 3d ed c9 a5 bd c5 4c 89 bd 63 cd 36 3e
       0.09674482 -0.08095155 -0.06704096 0.17851786
0001b0 ff 4c 15 3e 84 a6 67 3d 5c 7f a9 ba ba 4c 3a 3e
       0.14580153 0.056555286 -0.0012931633 0.18193331
0001c0 e6 f2 d5 bd 2e 0f e4 bc de 7c 14 3e 11 3c 85 be
       -0.1044672 -0.02783927 0.14500758 -0.2602239
0001d0 6a 1b 8f bd 46 17 3d bd 1a 8e 6e 3c 83 bd b8 3d
       -0.06987651 -0.046164773 0.014560247 0.090205215
0001e0 8e d0 22 3e 42 37 d2 bd 1a ff a7 bd 14 a3 8d 3c
       0.1589987 -0.10264446 -0.08202954 0.017289676
0001f0 51 42 dd 3d 69 8f 46 be 26 cb be bc 4f 50 a8 3d
       0.108036645 -0.19390644 -0.023290228 0.08218443
000200 82 ec 0d bd c5 20 b1 bd 64 8e 8f bd 34 37 87 bd
       -0.03464938 -0.086488284 -0.07009581 -0.06602326
000210 99 f2 00 be cf 3a 70 3d 58 2b 54 3d ac 8a d3 3d
       -0.12592544 0.058649834 0.05179915 0.10329184
000220 a7 30 31 bc a0 e5 31 bd 33 4b 45 3a 8a e2 8d 3d
       -0.010814822 -0.043431878 0.0007526159 0.069279745
000230 cd 41 38 bd 7a a0 03 be 88 66 b3 3d 96 7d e5 bc
       -0.044984628 -0.12854186 0.08759791 -0.028013986
000240 31 ac 40 bd d3 a5 81 bd 3d d5 d9 3d 5f e1 89 3d
       -0.047039215 -0.063304566 0.10636375 0.06732439
000250 0f ac 58 3c 89 0b 16 3e 16 93 04 be 7e e6 9b bd
       0.013224616 0.14652838 -0.12946734 -0.07612322
000260 cb 4f 23 be 1c 3d 0c be eb f1 2f bc 37 7d 24 be
       -0.15948407 -0.13695186 -0.01073883 -0.1606339
000270 eb 9c 16 3e 0e f0 a9 bd 4e ae 79 bc 87 84 98 bd
       0.14708297 -0.0829774 -0.015239311 -0.074471526
000280 35 81 d5 bd e0 39 19 3d ab d7 f9 bd 4c cf 1e 3d
       -0.10425035 0.03740871 -0.121993385 0.038771912
000290 a6 dd db bb 41 49 b7 3d 5a 4d 49 bd 71 07 58 bd
       -0.006709772 0.08949519 -0.049146034 -0.05274147
0002a0 21 0a 1a 3d fc 8d 89 bd 7b be 0a be d8 a5 0b 3d
       0.037607316 -0.067165345 -0.13549225 0.034093708
0002b0 bd ab 0b 3e 54 fa 79 3d de 93 95 bd e4 80 a4 3e
       0.13639732 0.061029747 -0.07303594 0.32129586
0002c0 d4 41 9b 3d cc 64 7e bc 72 1e 4e 3d e9 60 51 be
       0.07580915 -0.015526962 0.050322004 -0.20447125
0002d0 73 69 a6 3d 8c 08 e6 3d d3 3d d6 3c 1b 27 82 3d
       0.081255816 0.11232099 0.026152527 0.06355115
0002e0 24 13 06 3e 07 0f 04 bc 34 56 0d 3e 71 d2 ec bd
       0.13093239 -0.008060223 0.13802415 -0.11563576
0002f0 bc 22 5f bd 60 37 3a be 5e c3 52 3d 1d 94 94 3d
       -0.054476485 -0.18185186 0.051455848 0.07254813
000300 b1 c7 e2 bd c6 f6 4a bd e5 aa 25 3d 28 f9 81 3c
       -0.11073244 -0.049551748 0.04044618 0.015865877
000310 94 4e 43 3d 6e d0 50 3d 07 01 16 be 24 d6 23 bd
       0.04768236 0.050980024 -0.1464883 -0.039999142
000320 1c 63 42 3e 6a f5 1b bd e3 bd 03 be 10 92 84 3c
       0.1898312 -0.038075842 -0.12865405 0.01618293
000330 89 ab 05 3c 31 8d 60 bd a1 a1 89 bd 98 cb b7 bb
       0.008158573 -0.05482215 -0.067202814 -0.005608987
000340 d5 f7 ee 3d 3b b2 05 be 05 3c a3 3d bc ae d3 3c
       0.11668364 -0.13056271 0.07970432 0.025840156
000350 dc 6e 03 be 5a 91 b5 bd 7d 63 28 bd a0 ce 26 bd
       -0.12835258 -0.08865614 -0.041110504 -0.040724397
000360 73 1c 65 bd db c6 fe bc 52 ff 95 bd 68 fd dc 3c
       -0.055935334 -0.031100681 -0.07324089 0.026976302
000370 c7 4f 5b 3d f2 e6 c0 3d 99 6a 68 3d 4c 0a 4a be
       0.05354288 0.09419049 0.056742284 -0.1973049
000380 82 1b 6b 3c ce 02 55 3d 6d 40 96 be a0 12 d4 3d
       0.01434982 0.052004628 -0.29346028 0.10355115
000390 27 07 b3 3b fc be fa 3d f1 c9 11 3e 68 99 1a be
       0.005463499 0.12243459 0.14237191 -0.15097582
0003a0 f4 13 16 3d fd 6d 37 37 3a 76 fa bd 0e bd fc 3b
       0.036640123 1.0933259e-05 -0.12229581 0.0077129668
0003b0 1c c5 59 3d 70 22 0a 3e 7d 85 98 3d 98 0a a6 3e
       0.053166494 0.134897 0.07447336 0.32429957
0003c0 a9 ef 15 be cd 94 7b bd 9b c9 ce 3d 99 ce b2 3c
       -0.14642204 -0.061421204 0.10097047 0.021827029
0003d0 ca 3a 21 be a6 d0 17 3d 19 06 b1 bc f8 c5 e9 3d
       -0.15745082 0.037064217 -0.021609353 0.11414713
0003e0 8d 48 ac 3c 86 70 63 be ee d5 83 3d f2 96 8b bd
       0.021030689 -0.22210893 0.06437288 -0.068159
0003f0 74 de 2c be 5c 6b 5e be 07 8a a9 bd 89 19 0b bd
       -0.16881734 -0.21720642 -0.0827828 -0.0339599

actor.6.bias f4 [64]
000000 85 97 e4 bd 41 09 b4 3d 2b f7 b3 3d 3d 47 1d 3d
       -0.111617126 0.087908275 0.08787378 0.038398016
000010 86 dc 05 bd 78 60 80 3c 70 f5 dc 3d 06 29 29 bd
       -0.03268101 0.015671 0.10789001 -0.04129889
000020 09 b3 3c 3d 00 ea e0 bd 09 90 c6 bc ae 5e e8 bd
       0.04606918 -0.10982132 -0.024238603 -0.11346184
000030 7c b9 3b 3d 7c da 64 3c 70 35 02 3d 34 34 07 3e
       0.04583119 0.013968106 0.031789243 0.13203508
000040 c8 0d fa 3b 34 50 da bd 0a fd b6 bb 64 ba c8 3d
       0.0076310374 -0.10659829 -0.005584364 0.09801176
000050 a9 24 c3 bc f3 bd 67 bc a4 9d 8f bd 61 db fe 3b
       -0.023821192 -0.0141444085 -0.070124894 0.007777617
000060 71 d7 9a bc fc 6d db bc c1 76 e5 3d 1e ea 9f bd
       -0.018901559 -0.026785843 0.11204291 -0.07808326
000070 b4 33 12 3e 19 78 ba 3d 33 1e 1b bd fd 5a 52 3d
       0.14277536 0.09104938 -0.037870597 0.051356304
000080 45 d2 87 3d d6 20 4f bc d4 6d e3 3d 15 22 58 bc
       0.066319026 -0.012642106 0.111049324 -0.01319172
000090 a3 3c ee 3d c3 8c a5 bd b4 c4 d1 3c c3 de fc 3d
       0.11632659 -0.08083489 0.02560649 0.12347176
0000a0 ea b0 c2 3c 85 e9 b4 3d e0 d7 a6 bc 57 52 c9 3d
       0.023766 0.08833603 -0.02036661 0.09830158
0000b0 14 2c ed bd 5e d5 5f bd f5 a2 ba bd 4c d3 ae 3c
       -0.11580673 -0.054646842 -0.09113113 0.021340989
0000c0 9d 12 ff 3d 4d c2 88 bc 42 db b9 bd da 85 21 bd
       0.12454722 -0.016694212 -0.09075023 -0.03943429
0000d0 78 64 1b bd 68 35 a9 3a 2f 7d cd bc af 67 1e bd
       -0.03793761 0.0012909593 -0.025084106 -0.0386731
0000e0 71 6c 91 3c 40 00 bd bd 8e b4 78 bd f8 c0 34 3d
       0.017751904 -0.09228563 -0.060719065 0.04412934
0000f0 c8 0a 59 bd b8 c4 00 be d8 72 ba 3d 99 ca 6d bd
       -0.052988797 -0.12575042 0.09103936 -0.05805454

actor.8.weight f4 [1, 64]
000000 3e cb a8 be 92 e2 27 be 9d d2 1c be 64 f2 f0 bd
       -0.3296756 -0.16395023 -0.15314718 -0.11764982
000010 ce 8d d7 bd a7 d5 d8 be a9 1c 0c be 78 4b f9 3d
       -0.10525094 -0.42350504 -0.13682808 0.12172598
000020 fd f5 0b be a6 87 05 be 4a 5c 01 be cf f5 8b 3e
       -0.13668056 -0.13040027 -0.12632862 0.27335975
000030 35 8f a5 3d 6a 41 b5 3d ca 88 35 3d 4d 52 fb bd
       0.08083955 0.08850367 0.044319905 -0.12271557
000040 37 50 2e be 0d 91 ae 3d 7b f8 03 3e fe f2 18 be
       -0.17022787 0.0852376 0.12887757 -0.14936444
000050 9b 4b 7b be a7 03 be be 91 af 2a be 42 b1 82 3d
       -0.2454056 -0.37112162 -0.16668536 0.063814655
000060 80 8b db 3d 52 0b 0e 3e c1 d6 df bc 30 f3 48 3e
       0.10719967 0.13871506 -0.027324082 0.19624019
000070 c7 90 d8 bd 89 ab 8d 3d 29 98 c4 3d 36 cc 0c 3e
       -0.10574489 0.06917483 0.09599335 0.13749775
000080 25 5e 9d 3d 2d 60 82 bd 75 f6 e6 3d 98 59 29 3e
       0.07683972 -0.06366 0.11277477 0.16538084
000090 e7 21 cf 3d 86 c7 e8 be 07 03 cc 3e 8f ad 0e be
       0.10113888 -0.45464724 0.3984606 -0.13933395
0000a0 3b 62 bd 3d 61 4f ee 3d 4e e1 36 be c0 eb bd bd
       0.092472516 0.11636234 -0.17859384 -0.09273481
0000b0 af 6d 25 be 7f f7 0a 3e 8b ea 00 be 1a fa 11 be
       -0.16155122 0.13570975 -0.12589471 -0.14255562
0000c0 f1 3f 0f be 96 f4 c3 3e 37 5f 88 3e c3 3f 87 bd
       -0.13989235 0.38272542 0.26635143 -0.066039585
0000d0 83 90 2b be 19 a7 92 bc c7 18 8e be ea e0 46 be
       -0.16754346 -0.017901944 -0.2775328 -0.19421735
0000e0 a2 af 40 3d 5a 68 fa bd 46 9b 45 be b8 26 32 be
       0.047042497 -0.12226935 -0.19297513 -0.17397583
0000f0 d8 28 07 3d d0 80 96 3e 6b bd cc bd cb 46 71 be
       0.032997936 0.2939515 -0.09997066 -0.23562162

critic.0.weight f4 [64, 6]
000000 6f e1 2e 3f 89 98 86 bd 26 42 16 3e 86 44 4b bd
       0.68312734 -0.065720625 0.14673671 -0.049625896
000010 ea 1f b2 3d a3 c5 7d 3f 4e 5e 2d 40 ca b9 b8 be
       0.086974934 0.99129695 2.708881 -0.36079246
000020 7c 0f 86 be f2 85 82 bd 64 ef b2 3e 7e 63 93 bd
       -0.2618369 -0.06373204 0.34948266 -0.07196711
000030 bd a1 90 bf 72 9c b4 bd 26 e6 3f 3e f8 3c 18 3e
       -1.1299359 -0.08818902 0.18740138 0.14867008
000040 84 4b ce 3c 91 d2 03 bf 56 3d e0 3e 26 ca 8e 3e
       0.025182493 -0.51493174 0.43796796 0.27888602
000050 c9 13 19 3d ee 10 82 3e ea f4 fc bd 9c 28 ba bb
       0.037372384 0.2540354 -0.12351401 -0.0056811105
000060 e7 e1 c4 3f 1b 23 c5 3e 56 7b 7d be 7f fc 44 3e
       1.538144 0.38503346 -0.2475408 0.19236945
000070 31 40 3c be d6 0c 24 bf 21 82 73 3f 46 7b af be
       -0.18383862 -0.64082086 0.95120436 -0.34273738
000080 f6 6f 01 bd d7 8a 9f bd 57 e7 1d 3e 20 74 91 bf
       -0.031600915 -0.077901535 0.1542028 -1.1363564
000090 d2 5b 5e 3f c6 24 a9 3e 8a dc c2 be 1a 9b a8 3e
       0.86858857 0.33035868 -0.38058883 0.32930833
0000a0 c3 d3 34 bd 65 80 06 be 85 bf 37 bf 35 9f 85 be
       -0.044147264 -0.13134916 -0.7177661 -0.26098028
0000b0 ae c4 07 3e 63 53 1f be ae 7a b5 3e 0f 1a 28 bf
       0.13258621 -0.15559153 0.3544516 -0.6566476
0000c0 e4 66 c0 3f 98 19 82 bd 96 8b 1c be a9 c8 9d 3d
       1.50314 -0.06352538 -0.15287623 0.077042885
0000d0 56 25 9e 3e bc c8 40 3f 34 0e ac 3d 6a c8 c3 be
       0.3088786 0.75306296 0.084011465 -0.3823884
0000e0 62 4f df 3c ed 71 f8 bc 5f 69 8d be be cf 4a 3f
       0.027259532 -0.030327762 -0.27619454 0.7922324
0000f0 db 76 99 bf 65 0b 40 bb 40 71 d4 be 38 ca 66 be
       -1.1989397 -0.0029303667 -0.41492653 -0.22538078
000100 15 1f c5 be be 1b da bd 05 59 8e bd 99 dc bc be
       -0.38500276 -0.10649823 -0.06950573 -0.36887053
000110 9a 2c d0 3d 85 82 25 3e d2 30 bb 3e d7 83 f9 bf
       0.10164757 0.1616307 0.36560684 -1.9493359
000120 72 94 ba bf db 5b ab bd 12 8a d6 3e ed f3 b0 3e
       -1.4576552 -0.083671294 0.41902214 0.345611
000130 4c db 9f be 9e fa 9e 3e 48 6d 84 3f b0 cc 55 3e
       -0.31221998 0.3105058 1.034585 0.20878863
000140 c9 bc 0e be 3f 77 4a be bb 7d 18 bd 64 3d 2f 3f
       -0.13939203 -0.19772051 -0.03722928 0.6845305
000150 7b 90 b2 bf 16 55 92 3d eb 4e f6 bd ac 65 fa 3d
       -1.3950342 0.07145135 -0.12026771 0.122264236
000160 df ce 34 3d 36 f6 68 3f 0f ca 46 bf 6f 6a d5 be
       0.0441426 0.9100069 -0.77652067 -0.41682765
000170 aa e0 b4 3e e2 6a e5 3c b2 3b a2 be e2 a7 e8 be
       0.35327655 0.028005067 -0.3168617 -0.45440584
000180 c2 3e b2 be b7 bf ed be 6d 2f 07 3e cd 44 ad 3e
       -0.34813505 -0.4643533 0.13201685 0.33841553
000190 79 d4 c8 3d db 4b 0e bf 97 1a 81 3f 70 66 0f 3e
       0.09806151 -0.55584496 1.008624 0.1400392
0001a0 aa ec 4e be 72 f2 7f 3e ee 27 aa be 8c 8c bb 3e
       -0.20207468 0.2499483 -0.3323359 0.36630666
0001b0 5c ce b4 3e 34 d8 b1 3e 8c 96 c2 be 17 f2 73 3e
       0.3531369 0.34735262 -0.38005483 0.23822819
0001c0 76 cf ac be b1 9f 99 3f 05 c1 69 3f 0f ca 59 be
       -0.3375203 1.2001859 0.9131015 -0.21268485
0001d0 24 fa eb 3d 72 40 69 3e 2d 16 b2 3e 70 bd 11 3f
       0.1152232 0.2277849 0.34782544 0.56929684
0001e0 69 fa 6d 3f b2 7c 84 be ac c4 ab be 54 82 aa 3e
       0.9296022 -0.25876385 -0.33548486 0.33302557
0001f0 67 c6 bd 3d dc 79 49 3c dd 56 dd 3b d0 56 86 3e
       0.09266358 0.01229712 0.0067547397 0.26238108
000200 10 52 82 bd 74 0f 84 be 99 49 57 be c2 0e fd 3e
       -0.063633084 -0.2579304 -0.21024169 0.49425322
000210 0c 5c 57 3f 7e b5 33 3d b6 7b 6f be bc ca 80 3e
       0.8412483 0.043874256 -0.23387036 0.25154674
000220 5a 86 aa 3e d2 5c af bd 62 50 8d bf b7 f1 80 be
       0.33305627 -0.08562626 -1.1040156 -0.25184414
000230 ba 66 9e 3e 73 08 c1 3e fb b6 fe 3a c4 90 03 3f
       0.3093775 0.3770176 0.0019433195 0.5139277
000240 d2 88 bc be 11 ed 97 be f0 7e af be 7c 4b 99 be
       -0.36823136 -0.29673055 -0.34276533 -0.29940403
000250 4f e7 9d 3e 5c 1e 9e 3e 32 5b 66 3f 0b cb 40 be
       0.30840537 0.30882537 0.89982903 -0.18827455
000260 41 95 a0 be fc 08 54 3e 31 90 1b 3c 37 8c 63 3f
       -0.31363872 0.20706552 0.009494827 0.88885826
000270 03 88 53 3f 51 b6 c0 bc 8c 44 55 be 46 e4 0c be
       0.8262941 -0.023524435 -0.2082693 -0.13758954
000280 35 6a ef 3c 09 c4 0f bf 62 4c 0f be 6d e7 30 3e
       0.029225448 -0.561585 -0.13993981 0.17275782
000290 61 91 91 be 8e 8d c2 3d 52 27 b9 bd 8e 44 90 bf
       -0.28431228 0.09499656 -0.09040703 -1.1270921
0002a0 b5 0d d4 3e ec 2a 41 3e 25 87 a5 be 20 cd cd bd
       0.41416708 0.1886403 -0.3232967 -0.1004889
0002b0 14 0b cc 3e f5 02 49 3f 9c 10 27 3f 26 ac a1 3e
       0.39852202 0.7852014 0.6525972 0.3157665
0002c0 b7 9e c6 bc 9a 84 63 3e e8 45 d1 3b 21 91 41 3f
       -0.024245603 0.22218552 0.0063865073 0.75612074
0002d0 f5 60 ab bd 00 34 b3 be 4a 8c 4d be 29 51 56 3e
       -0.083681025 -0.3500061 -0.20073047 0.20929398
0002e0 ee 75 07 be 47 71 30 3f b3 5b 37 3f a6 86 90 3e
       -0.1322858 0.6892285 0.71624297 0.2822773
0002f0 56 43 41 3e 2b 67 8a 3d d7 98 82 bd 0c d7 76 bf
       0.18873343 0.06757959 -0.06376808 -0.96421885
000300 00 f7 18 3f 26 1a d3 3e f0 8c 5f 3e 93 c7 5e 3e
       0.5975189 0.41230887 0.21831107 0.21755819
000310 2a d0 79 be 55 69 a0 be 3c 02 69 3f 03 b4 92 be
       -0.24395815 -0.31330362 0.91019034 -0.28652963
000320 f1 21 97 3e 28 d2 9d 3e dc 34 8c 3d 49 05 73 3f
       0.29518083 0.308244 0.068460196 0.9492994
000330 44 55 96 bf d7 25 19 3e c2 3d 90 3e db fc d7 bd
       -1.1744771 0.14955841 0.28172117 -0.10546275
000340 55 16 7d be 3f b9 e6 3e d4 1c 07 3e fd c1 0b 3d
       -0.2471555 0.45063207 0.13194591 0.03412055
000350 3c 02 bf be 46 a6 7f 3c 76 f9 69 be 9b cd 23 be
       -0.37306392 0.0156036075 -0.22849068 -0.15996401
000360 36 e0 51 be 4f 6a fa bc 0f fc a6 3e dc 15 93 be
       -0.20495686 -0.03056827 0.3261418 -0.28727615
000370 d9 7d b4 bd fe 93 3f 3f af 84 60 3d 1b 17 8a be
       -0.08813066 0.74835193 0.054814037 -0.26970753
000380 bb fd 35 3e b4 3a e2 3d 62 db 59 3e fb ce 84 be
       0.17772572 0.11046353 0.21275094 -0.25939164
000390 3d 17 00 3f 24 b0 a2 be 7a ca 56 be 5f b4 81 3e
       0.5003546 -0.3177501 -0.20975676 0.25332925
0003a0 ba 36 41 be 24 76 0d bf 89 7b d6 be b7 23 a2 be
       -0.18868533 -0.55258393 -0.41891125 -0.31667873
0003b0 56 af 3b 3e 3d 73 5d 3e 5e 12 ab 3d 8c 28 b8 bd
       0.18328604 0.21625991 0.08353113 -0.08992109
0003c0 08 4c a0 bf d4 ac 97 be 3e f5 94 3d 05 73 3b be
       -1.2523203 -0.29624045 0.07273339 -0.18305595
0003d0 72 3f 75 be 6f 9b 79 3f 3d 6c cb bf c2 78 80 3d
       -0.23949984 0.975028 -1.5892407 0.06273033
0003e0 09 4a 80 3e 39 47 45 3e b5 08 19 be 5e 39 18 3f
       0.25056484 0.1926545 -0.14944728 0.59462535
0003f0 cc 92 d8 be a2 e6 c1 3d 1d d3 ef 3e a3 37 98 bd
       -0.42299497 0.09467818 0.46840754 -0.07432487

critic.0.bias f4 [64]
000000 46 27 64 3d a1 cc e8 bd 08 8d 17 bc 10 88 e6 bd
       0.055701517 -0.11367155 -0.009249933 -0.112564206
000010 8d 8d c9 3c 5d 82 87 3e c0 04 b0 3e c6 80 a2 3e
       0.02460363 0.26466647 0.34378624 0.3173887
000020 b1 6d c3 be c5 ac b6 3c c5 6f 89 3e 47 30 b7 3b
       -0.38169625 0.02229918 0.26843086 0.005590472
000030 c6 91 79 be db 09 95 3d 18 a9 0d 3f b5 0d be 3e
       -0.24372014 0.072772704 0.5533614 0.37119833
000040 d3 7a 90 3e fa 80 c9 3e be df 89 be 13 b2 91 be
       0.28218707 0.39356214 -0.26928514 -0.28456172
000050 63 8e 1c 3d c0 d3 b0 be 44 b7 eb be f5 a9 3d 3d
       0.038221728 -0.34536552 -0.46038258 0.04630466
000060 69 e5 95 be b3 8a c5 bc 00 cd 40 bd 6b c1 45 3e
       -0.2927659 -0.024113989 -0.047070503 0.19312064
000070 40 f6 23 3e ef 22 78 3e 57 7b dc bb 26 dc c9 be
       0.16011906 0.24232076 -0.0067285704 -0.39425772
000080 92 29 35 be 43 00 07 bd ba a9 89 be 02 59 93 be
       -0.17691639 -0.032959234 -0.26887304 -0.28778845
000090 a4 46 42 3e 5b 53 bd be b2 2f ea bc 65 88 99 3e
       0.1897226 -0.36977658 -0.028587196 0.29986873
0000a0 c5 36 c8 be 64 fa 21 be 81 da a6 3c 88 d6 8a be
       -0.39104286 -0.15818173 0.020367863 -0.271168
0000b0 9c f3 18 bd 98 d5 1d 3e df 87 15 bd dd e3 12 3d
       -0.0373417 0.15413511 -0.03650653 0.03586184
0000c0 ae 77 ab be 65 8a 99 bc 3d b1 74 be 39 66 9c 3e
       -0.33489746 -0.01874275 -0.23895736 0.3054674
0000d0 37 af b6 3e 5e 94 a3 3d ff 56 d8 3d c0 3e eb bd
       0.35680553 0.07987283 0.10563468 -0.11486578
0000e0 71 15 b5 3e 26 5a 36 be 5e 33 54 be 2f 6e c0 be
       0.3536792 -0.17807826 -0.2072272 -0.37584063
0000f0 b0 fe 51 3d 10 d1 d0 3e 49 d4 25 3e 52 3c 03 3e
       0.05126828 0.40784502 0.16194262 0.12815979
