PPO2_Trained/PPO_DoubleInvPendulum_200K.pth (torch, 109673 bytes, 18 tensors)

actor.0.weight f4 [64, 6]
-0.4023483 -0.3848078 -0.21543226 0.112045154 0.1180533 0.19357495 0.41397476 -0.3935009
-0.03241807 0.23106587 -0.14083657 0.2166697 0.7107977 -0.12081986 -0.17464152 -0.3283469
-0.20481253 0.22143485 0.57361317 -0.19342105 0.023997862 -0.382331 -0.36290053 -0.13852255
-0.35327724 -0.1477424 -0.09318615 0.31598863 0.038715277 -0.20032157 -0.24724774 -0.40389776
-0.08232166 0.114659816 0.099236004 -0.39893636 -0.19395629 -0.08136465 0.05841674 0.2113659
0.34443587 -0.33048886 0.46930146 -0.41648725 -0.22602355 -0.362684 -0.056929957 -0.18964277
0.75171286 -0.17669247 -0.07470553 -0.2548328 -0.0015983853 0.10775398 0.026015773 -0.106997214
0.4446339 0.3278022 0.27416253 0.2155191 0.7816014 0.006225838 0.16524479 -0.11335129
-0.31725582 0.1178652 -0.3701363 -0.34619996 0.22682776 0.30158365 -0.080251545 -0.16023396
0.21093556 0.3866317 -0.05449929 -0.08531762 0.06760734 -0.11884046 -0.24963565 -0.22285502
-0.018029744 -0.19009258 0.3278997 -0.29332027 -0.5529834 0.24704023 0.16871822 0.36528778
-0.3290153 0.5299859 0.22530232 0.35355195 -0.21266536 0.22691357 0.34053046 0.059762616
-0.5887204 -0.22905739 -0.32363823 -0.18200043 -0.29401237 -0.098826446 1.163439 -0.21359476
-0.4026385 -0.04234762 0.32048407 -0.21998522 0.27471325 0.17335407 -0.21134774 -0.37177932
0.3747566 -0.4392382 -0.29710117 0.29728705 0.08616815 -0.20508997 0.15379278 -0.33122295
0.55606985 0.113694064 -0.29937294 0.38439986 -0.10803783 -0.031226553 -0.5932086 -0.41237804
-0.26619986 -0.128204 -0.010223128 -0.211583 0.2772298 0.09213521 0.32802278 -0.09377174
0.2921831 0.032862484 -0.16627267 -0.20848417 -0.48043954 -0.049837813 0.06119566 -0.1338455
0.15565634 -0.3819254 -0.31885904 -0.342082 -0.40919712 -0.34678152 0.60344774 -0.05469157
0.3157598 0.12936494 0.14575425 -0.34675673 -0.85273576 -0.03340837 0.33191514 -0.035833307
-0.2063575 -0.23795196 -0.4219068 0.25230318 -0.41302383 0.20662169 -0.017305119 0.303206
-0.15246242 -0.28421378 -0.27666768 -0.12762713 0.15650146 -0.1266867 -0.32672113 0.22247568
-0.11141629 -0.31022623 0.32228166 -0.70423526 -0.07758299 0.059642766 -0.25631183 0.11251125
0.34643412 -0.26751834 -0.17403992 -0.39451352 0.18857619 0.00034404284 0.21375623 -0.27560043
-0.3536828 0.013383223 -0.28860065 0.1336927 -0.26146653 0.5212915 -0.66888845 -0.1587298
0.13294932 0.085012175 0.02616192 -0.17204776 0.63937896 -0.4332007 0.3222433 0.04093065
0.15808919 0.2796766 -0.44510683 0.42294267 -0.3518531 -0.25021464 0.26680195 -1.1001722
0.08078546 -0.10233082 0.18888952 0.14068082 -0.40571252 -0.27704614 0.13418333 -0.08700492
-0.1416917 0.34620857 -0.38213044 0.8870296 0.23420338 0.16087689 0.37780803 0.25099245
0.32393995 0.18088517 -0.86277395 -0.35821715 0.11938389 -0.28722298 -0.072861366 -0.44044146
-0.007869606 0.3766511 -0.16283047 -0.38292912 0.3794102 0.19844753 -0.54651403 0.01072088
-0.14878798 -0.18433209 0.19138905 -0.07966994 -0.5849475 -0.190817 -0.2392752 -0.09579347
00000000: 9900 cebe 8705 c5be 469a 5cbe ee77 e53d
00000010: eec5 f13d 8338 463e 80f4 d33e f378 c9be
00000020: cfc8 04bd 889c 6c3e 7637 10be a9de 5d3e
00000030: d7f6 353f 6770 f7bd 3ad5 32be 161d a8be
00000040: 60ba 51be d1bf 623e 50d8 123f 2b10 46be
00000050: 2a97 c43c e4c0 c3be 19ce b9be dbd8 0dbe
00000060: c1e0 b4be c949 17be 61d8 bebd 43c9 a13e
00000070: e993 1e3d 1921 4dbe 832e 7dbe b0cb cebe
00000080: 4298 a8bd c4d2 ea3d 3f3c cb3d 6341 ccbe
00000090: 7a9c 46be 82a2 a6bd 6446 6f3d 4d70 583e
000000a0: e659 b03e d635 a9be 4848 f03e d13d d5be
000000b0: b872 67be b8b1 b9be 632f 69bd b731 42be
000000c0: 4170 403f dfee 34be 37ff 98bd 7279 82be
000000d0: e980 d1ba 1eae dc3d 081f d53c 5b21 dbbd
000000e0: 0ea7 e33e b1d5 a73e 085f 8c3e 0ab1 5c3e
000000f0: 0817 483f 1d02 cc3b ee35 293e b924 e8bd
00000100: 5b6f a2be 4f63 f13d 8182 bdbe 1f41 b1be
00000110: 8945 683e 2c69 9a3e ec5a a4bd 5f14 24be
00000120: 7eff 573e 97f4 c53e a63a 5fbd 01bb aebd
00000130: b875 8a3d a162 f3bd 7da0 7fbe 1b34 64be
00000140: 1db3 93bc a1a7 42be 78e2 a73e 132e 96be
00000150: 5290 0dbf 1df8 7c3e 78c4 2c3e 0007 bb3e
00000160: b274 a8be 28ad 073f a7b5 663e c304 b53e
00000170: f3c4 59be 085c 683e 025a ae3e a5c9 743d
00000180: 61b6 16bf 058e 6abe e9b3 a5be 525e 3abe
00000190: ca88 96be 8565 cabd 92eb 943f 96b8 5abe
000001a0: a226 cebe b374 2dbd 7d16 a43e ce43 61be
000001b0: 37a7 8c3e bb83 313e 8b6b 58be dc59 bebe
000001c0: 19e0 bf3e d4e3 e0be a51d 98be 0236 983e
000001d0: ed78 b03d 1b03 52be db7b 1d3e 0e96 a9be
000001e0: 985a 0e3f 6fd8 e83d 6947 99be 0fd0 c43e
000001f0: f042 ddbd d4ce ffbc 85dc 17bf 3723 d3be
00000200: 594b 88be e947 03be e87e 27bc 37a9 58be
00000210: 10f1 8d3e 63b1 bc3d 9af2 a73e 660b c0bd
00000220: 0699 953e d09a 063d 6243 2abe e07c 55be
00000230: 2cfc f5be bc22 4cbd 4da8 7a3d cb0e 09be
00000240: 6064 1f3e ba8b c3be 7e41 a3be 5f25 afbe
00000250: 4982 d1be 598d b1be 8d7b 1a3f 4504 60bd
00000260: 45ab a13e 3e78 043e 9a40 153e 198a b1be
00000270: e44c 5abf 37d7 08bd c8f0 a93e f2c5 12bd
00000280: 614f 53be aea9 73be 2b04 d8be e22d 813e
00000290: dc77 d3be a394 533e 77c3 8dbc d13d 9b3e
000002a0: 1c1f 1cbe 7884 91be 63a7 8dbe b0b0 02be
000002b0: eb41 203e 29ba 01be fe47 a7be aad0 633e
000002c0: 392e e4bd f9d5 9ebe 1a02 a53e c348 34bf
000002d0: d5e3 9ebd f94b 743d 4e3b 83be 4c6c e63d
000002e0: d05f b13e 2af8 88be 8537 32be adfd c9be
000002f0: 1e1a 413e a660 b439 eae2 5a3e 801b 8dbe
00000300: e915 b5be 4e45 5b3c 77c3 93be bde6 083e
00000310: f1de 85be 5c73 053f 463c 2bbf 118a 22be
00000320: de23 083e dd1a ae3d 8651 d63c 4a2d 30be
00000330: 57ae 233f 7bcc ddbe 13fd a43e e6a6 273d
00000340: 22e2 213e c531 8f3e 0be5 e3be f18b d83e
00000350: 1726 b4be 221c 80be 449a 883e 71d2 8cbf
00000360: d972 a53d d292 d1bd 416c 413e a20e 103e
00000370: 8db9 cfbe fed8 8dbe 5b67 093e a32f b2bd
00000380: a117 11be 4042 b13e 9aa6 c3be 5f14 633f
00000390: 03d3 6f3e e9bc 243e 0e70 c13e 1582 803e
000003a0: 75db a53e f639 393e c1de 5cbf 3d68 b7be
000003b0: 8a7f f43d e40e 93be 5738 95bd 8b81 e1be
000003c0: 85ef 00bc 6ad8 c03e 08bd 26be 490f c4be
000003d0: 0e42 c23e d435 4b3e 58e8 0bbf a1a6 2f3c
000003e0: e05b 18be 8dc1 3cbe 7efb 433e fe29 a3bd
000003f0: 1fbf 15bf 8865 43be 8f04 75be 5e2f c4bd

actor.0.bias f4 [64]
0.22765101 -0.00033997188 -0.30780923 0.19742766 -0.21006776 -0.18235305 -0.037633847 0.17350502
-0.25631776 0.32320267 -0.2159749 0.20167947 0.38344908 0.322022 -0.3359803 -0.2973484
-0.20997415 -0.27230307 0.3054141 0.26031393 0.37999776 0.082486846 0.23193225 0.10760843
0.12023296 -0.332229 -0.021066226 0.21046352 -0.091316566 -0.14495404 0.36341974 -0.02586597
0.26471525 0.035139296 0.18449356 0.1316616 0.08701101 0.23695117 0.0015354918 0.12928261
-0.21797521 0.40722406 0.29387498 -0.36939368 0.008089196 -0.03266729 0.23245522 -0.0041982452
-0.1147157 -0.051772412 -0.36036202 0.22897258 -0.27389044 0.04300394 0.15938644 0.06737296
0.3985384 0.17391264 -0.34291154 0.27269727 -0.10283716 -0.14479077 -0.18622953 0.3192418
00000000: 591d 693e 413e b2b9 2c99 9dbe 7a2a 4a3e
00000010: 011c 57be c2ba 3abe f325 1abd 4dab 313e
00000020: 153c 83be d27a a53e 8628 5dbe 1085 4e3e
00000030: 7053 c43e 11e0 a43e 9c05 acbe 0d3e 98be
00000040: 7703 57be 4f6b 8bbe 3d5f 9c3e de47 853e
00000050: 118f c23e ddee a83d a67f 6d3e cf61 dc3d
00000060: b33c f63d eb19 aabe 1493 acbc c083 573e
00000070: 2e04 bbbd d56e 14be 2712 ba3e dfe4 d3bc
00000080: c288 873e 39ee 0f3d e1eb 3c3e 4cd2 063e
00000090: d432 b23d 54a3 723e 8e42 c93a a962 043e
000000a0: e534 5fbe ac7f d03e c876 963e 2b21 bdbe
000000b0: 8c88 043c 23ce 05bd be08 6e3e 6f91 89bb
000000c0: 11f0 eabd 4f0f 54bd 5f81 b8be ca77 6a3e
000000d0: 5e3b 8cbe e624 303d 3336 233e d6fa 893d
000000e0: 3a0d cc3e 2816 323e 1a92 afbe fa9e 8b3e
000000f0: 4a9c d2bd 0844 14be f4b2 3ebe a973 a33e

actor.2.weight f4 [64, 64]
0.13863094 -0.13659908 0.11083753 -0.029333765 -0.00017141964 0.13425615 -0.08382822 0.00077935314
-0.123514414 0.054135922 -0.019797478 0.06704925 -0.00091232744 -0.04697788 0.0053644334 -0.0015683895
-0.15654917 0.053192865 -0.08416888 -0.037521157 0.048726562 -0.08174036 0.029861594 -0.07996102
-0.13964523 0.0201614 0.04541004 0.007469851 -0.041242268 0.043061305 -0.054932423 0.019509591
-0.07836173 0.074061595 0.09152929 -0.031088796 -0.09465283 0.07110109 -0.062531754 -0.1350238
-0.10586768 0.15579203 0.22474502 -0.026721029 0.09864971 -0.0041849366 0.07714448 -0.12577115
-0.11710322 0.09110575 -0.16722775 -0.1469179 -0.04729864 -0.032502856 0.00892706 -0.08948205
0.077295326 0.016686745 -0.118876815 0.13480763 -0.09454284 0.10376826 0.11032224 0.004533371
-0.10349837 -0.12507659 0.044746745 -0.0093976455 -0.10702319 -0.05662098 -0.020492097 -0.005856848
0.15919553 0.15743788 -0.12095184 0.0049258834 -0.06454844 -0.18586138 -0.005669214 -0.027432041
0.11644328 0.016735714 -0.058443107 -0.112103365 0.103845626 -0.08535531 -0.10259118 -0.11837258
0.049858354 -0.12470135 0.037082635 0.17743514 -0.11343793 -0.08506642 -0.032445602 0.005133136
0.04609416 0.1557859 -0.062344354 0.017937962 -0.14326867 -0.0011482768 -0.03456169 0.119621076
0.060535014 -0.054039773 0.09822708 0.048473876 0.0015546004 0.05131756 -0.13324809 0.046132773
0.052997474 0.2225866 -0.057756115 -0.11493736 -0.12152642 -0.08799974 -0.16787812 -0.006533261
0.08929222 -0.107735 -0.17897455 0.017605731 -0.09379474 -0.22635713 -0.0857833 0.14814451
-0.18251407 0.05379978 -0.24526218 0.0682732 -0.043046884 -0.11446562 0.015303555 -0.27771142
-0.07372795 0.096658915 0.18924102 -0.07654512 0.015650006 -0.04087068 0.054427672 0.03697865
-0.13014638 -0.047382068 -0.04625556 0.033701636 0.08684325 -0.038545802 -0.017442986 -0.046894386
-0.16998933 0.11914353 0.048896767 0.033382107 -0.11340873 0.27821746 -0.11760285 0.0838338
0.06292739 0.05875933 -0.021262892 0.13315031 -0.03229338 0.26557174 0.10326564 -0.140215
0.15288636 0.030226689 -0.14405899 0.056140177 -0.042554867 -0.081689246 -0.08419175 0.22578813
-0.09218606 -0.04158025 0.18286768 -0.06742198 -0.0034429706 -0.19561161 -0.05747773 -0.050140187
-0.06306774 0.08717768 -0.09203152 -0.016589344 0.04101184 0.07259713 -0.18024752 0.020014863
0.012908311 0.023174273 -0.05309388 -0.06286333 -0.05314007 0.058284327 -0.053015765 -0.053747904
-0.14756106 -0.20207608 0.011234479 0.0578072 0.06324081 0.058360454 0.07769257 -0.1320671
-0.021507166 0.03623926 -0.053127702 0.033501115 -0.12972051 0.13261735 -0.08108977 0.17990464
-0.0045121587 -0.0889784 0.106435224 0.07595927 -0.020019358 -0.051445603 0.07019865 -0.06993887
0.062098235 0.08387238 0.015336266 -0.064586386 0.106992535 0.023137199 -0.021466708 0.112996005
-0.19003981 0.1123518 -0.043854445 0.12853675 0.011085039 -0.081090935 0.010829602 0.020256042
0.14243138 -0.10265701 0.1349107 -0.10276966 -0.06337535 0.04885577 0.0018168743 0.018165914
-0.061751403 -0.09997998 -0.0031329007 0.061849058 -0.1038122 0.10933149 0.07226643 -0.014783426
00000000: 45f5 0d3e a1e0 0bbe c9fe e23d 5d4d f0bc
00000010: 1cbf 33b9 727a 093e 21ae abbd 814d 4c3a
00000020: 20f5 fcbd a1bd 5d3d 522e a2bc 1e51 893d
00000030: 4229 6fba e16b 40bd 21c8 af3b 6b92 cdba
00000040: 6d4e 20be c3e0 593d bc60 acbd c9af 19bd
00000050: 8195 473d 7d67 a7bd 4da0 f43c 9ac2 a3bd
00000060: 29ff 0ebe 8529 a53c e1ff 393d a7c5 f43b
00000070: a7ed 28bd 0d61 303d d200 61bd 94d2 9f3c
00000080: 1d7c a0bd 9bad 973d b573 bb3d eead febc
00000090: 58d9 c1bd 739d 913d a610 80bd ae43 0abe
000000a0: 27d1 d8bd f287 1f3e 8f23 663e 0fe6 dabc
000000b0: dc08 ca3d cb21 89bb edfd 9d3d 27ca 00be
000000c0: d0d3 efbd a795 ba3d c03d 2bbe a571 16be
000000d0: 38bc 41bd b721 05bd ce42 123c 5d42 b7bd
000000e0: 034d 9e3d a4b2 883c b075 f3bd 030b 0a3e
000000f0: ad9f c1bd 7484 d43d a0f0 e13d ac8c 943b
00000100: f4f6 d3bd 1414 00be 5d48 373d 95f8 19bc
00000110: f92e dbbd 67eb 67bd 0bdf a7bc cdea bfbb
00000120: 2704 233e 6537 213e 99b5 f7bd 4e69 a13b
00000130: f931 84bd 7252 3ebe d0c4 b9bb 29b9 e0bc
00000140: d079 ee3d 5619 893c 0a62 6fbd 7396 e5bd
00000150: 04ad d43d c4ce aebd 531b d2bd 536d f2bd
00000160: 4638 4c3d 6c63 ffbd f6e3 173d 8fb1 353e
00000170: 2552 e8bd 4e37 aebd aee5 04bd de33 a83b
00000180: 3bcd 3c3d 5786 1f3e cb5c 7fbd a2f2 923c
00000190: 06b5 12be c781 96ba 8f90 0dbd e5fb f43d
000001a0: 90f3 773d cf58 5dbd 482b c93d 8b8c 463d
000001b0: bcc3 cb3a 5d32 523d 3072 08be b8f5 3c3d
000001c0: e113 593d beed 633e ad91 6cbd 4764 ebbd
000001d0: d8e2 f8bd 3539 b4bd 3ee8 2bbe f714 d6bb
000001e0: d7de b63d 2ba4 dcbd 1b45 37be e539 903c
000001f0: 7517 c0bd 2aca 67be 28af afbd 32b3 173e
00000200: f8e4 3abe 285d 5c3d 0226 7bbe d2d2 8b3d
00000210: ee51 30bd f36c eabd c3bb 7a3c 3130 8ebe
00000220: aefe 96bd 1cf5 c53d 66c8 413e b0c3 9cbd
00000230: 7134 803c 0468 27bd 8def 5e3d ed76 173d
00000240: 1845 05be b313 42bd 7876 3dbd ba0a 0a3d
00000250: e0da b13d 34e2 1dbd 98e4 8ebc 5414 40bd
00000260: af11 2ebe 8601 f43d fa47 483d adbb 083d
00000270: d642 e8bd 8572 8e3e c3d9 f0bd 0eb1 ab3d
00000280: 13e0 803d a0ad 703d 842f aebc 8e58 083e
00000290: 1046 04bd 05f9 873e f07c d33d 8594 0fbe
000002a0: 3e8e 1c3e f69d f73c 3384 13be 3ef3 653d
000002b0: 034e 2ebd b14c a7bd b96c acbd 0135 673e
000002c0: 0ccc bcbd 0d50 2abd aa41 3b3e 8914 8abd
000002d0: 76a3 61bb 694e 48be c56d 6bbd cc5f 4dbd
000002e0: a929 81bd 368a b23d 067b bcbd 60e6 87bc
000002f0: 08fc 273d cead 943d ce92 38be 36f6 a33c
00000300: 617d 533c f9d7 bd3c f878 59bd 7dbe 80bd
00000310: 67a9 59bd 8cbb 6e3d 0f27 59bd c326 5cbd
00000320: 3f1a 17be 08ed 4ebe d210 383c 3ec7 6c3d
00000330: 6684 813d 5f0b 6f3d 481d 9f3d 993c 07be
00000340: cc2f b0bc 9e6f 143d 6f9c 59bd 7738 093d
00000350: 74d5 04be d8cc 073e 6512 a6bd ec38 383e
00000360: bbda 93bb 4f3a b6bd b6fa d93d 8990 9b3d
00000370: a3ff a3bc a0b8 52bd 4fc4 8f3d 1c3c 8fbd
00000380: b85a 7e3d 48c5 ab3d f644 7b3c de45 84bd
00000390: e71e db3d 398a bd3c f3da afbc 736a e73d
000003a0: cc99 42be b318 e63d b8a0 33bd 239f 033e
000003b0: 069e 353c 0113 a6bd a56e 313c 00f0 a53c
000003c0: 88d9 113e d73d d2bd 0826 0a3e e678 d2bd
000003d0: efca 81bd fd1c 483d 2f24 ee3a afd0 943c
000003e0: 0aef 7cbd 4ec2 ccbd 5a51 4dbb 7055 7d3d
000003f0: 7e9b d4bd 30e9 df3d 6c00 943d 2f36 72bc

actor.2.bias f4 [64]
0.13431573 0.088025436 -0.022069452 0.030758223 0.06100022 0.05690344 -0.04935105 0.023234954
0.10059781 -0.0036858057 -0.10593225 -0.039038397 0.105898775 0.08445195 0.010614612 -0.1047601
0.06244566 0.089699745 0.075306155 -0.11669281 0.011045624 -0.062315587 0.12337889 0.12301899
-0.048303235 0.102232784 -0.030466262 -0.099111095 0.1219947 0.019843558 0.041761182 0.084308125
-0.07054071 -0.080206215 -0.053883262 -0.08728454 0.02758954 -0.050220847 -0.03846436 -0.08477511
0.043552786 0.027116342 -0.033349667 0.024144402 0.0037171796 -0.12779738 0.018117163 0.029490199
0.12187581 0.018840851 0.08750822 -0.0039455094 -0.08027326 0.07757231 -0.025492482 0.014484495
0.08935534 0.07262308 -0.06492075 -0.1259105 -0.08120624 -0.061358012 -0.018012876 -0.124309264
00000000: 108a 093e ae46 b43d ffca b4bc abf8 fb3c
00000010: 5edb 793d 9513 693d 5424 4abd 3b57 be3c
00000020: 3906 ce3d 8f8d 71bb 02f3 d8bd bae6 1fbd
00000030: 75e1 d83d 25f5 ac3d e9e8 2d3c 778c d6bd
00000040: 05c7 7f3d 80b4 b73d 1d3a 9a3d a4fc eebd
00000050: b4f8 343c a13e 7fbd 12ae fc3d 61f1 fb3d
00000060: 9dd9 45bd 6c5f d13d 6294 f9bc c2fa cabd
00000070: 5bd8 f93d f58e a23c c60d 2b3d bda9 ac3d
00000080: a677 90bd 2843 a4bd b2b4 5cbd 3dc2 b2bd
00000090: 7603 e23c 60b4 4dbd ce8c 1dbd 939e adbd
000000a0: 6864 323d 1723 de3c a999 08bd 7bca c53c
000000b0: ed9b 733b 51dd 02be 726a 943c 6e95 f13c
000000c0: 069a f93d 2158 9a3c 8237 b33d 5549 81bb
000000d0: 4f66 a4bd 3bde 9e3d 9cd5 d0bc 6050 6d3c
000000e0: efff b63d 69bb 943d 2cf5 84bd afee 00be
000000f0: 754f a6bd 8a52 7bbd bd8f 93bc db95 febd

actor.4.weight f4 [64, 64]
0.01947873 -0.2686876 -0.14897445 0.049474332 0.044512767 0.009301885 0.12115889 0.1252755
0.04387329 0.062157124 0.11881407 0.07818076 0.032192867 0.12056708 0.01840467 -0.07960099
0.066406555 0.093736626 0.112569466 -0.07207112 0.03281438 -0.07960172 -0.00049026095 -0.0587316
0.09612056 0.020889623 0.036727265 0.25495923 -0.01593203 0.14411753 0.025177108 0.07637113
-0.09042767 -0.05015478 -0.09107296 -0.020437576 0.11152293 0.06536733 0.008426209 -0.09973132
0.11797052 -0.08745354 -0.09289241 -0.006248579 -0.03301718 0.17825392 0.07673065 -0.013497691
0.079127274 0.048208423 -0.058460303 0.17871892 0.06509179 0.121577635 0.019595219 0.004704599
0.06347065 0.10104538 -0.05837937 0.1191705 -0.0039759288 0.21278225 -0.035211045 0.08462687
0.043132912 -0.22338936 0.010657236 0.027604878 -0.12556258 0.03645488 0.16932155 -0.086538106
-0.081740685 0.045870915 -0.05182917 -0.00926208 -0.1690019 -0.059052072 -0.11749741 -0.046852183
0.076192446 -0.11687595 0.05386131 -0.0051476 0.049281087 -0.059374396 0.0507908 0.07727736
-0.01583966 -0.036579054 -0.09253684 0.29073858 -0.012479594 0.08907572 0.10686793 -0.058509216
-0.054915834 -0.23851284 -0.041275736 0.13617891 0.048991747 -0.113325104 0.030665796 0.04647186
0.053153474 -0.023422854 -0.027609099 -0.038960375 -0.10445276 0.045999426 -0.040667716 0.09975737
0.078746915 0.052999076 -0.007986234 0.08937458 -0.061032705 0.14513649 0.057343114 0.194174
0.13912289 -0.071929 -0.0008265786 -0.009124587 -0.12287201 0.25646836 0.06418723 0.17577392
0.17840156 -0.0986254 -0.13349833 0.06685275 -0.5239477 0.10804462 0.014077514 0.07402089
-0.082467705 -0.08306095 -0.10882225 -0.000566614 -0.054294884 -0.027668511 -0.05797802 0.14347579
-0.11486016 0.050349545 0.03933779 0.065565236 -0.011974101 0.12426304 -0.109693356 0.03924272
-0.12875651 0.12780176 0.06550173 0.18695776 -0.10770592 -0.17824066 -0.032589577 -0.09784333
0.09782312 0.064838886 0.13765675 0.054087423 -0.09882115 -0.0331429 -0.04683448 -0.05470234
-0.1032965 -0.18020917 -0.18387643 0.12134509 -0.031914648 -0.077012174 0.04261266 0.07115782
-0.08779775 0.05875865 0.13184653 0.042440068 0.11432243 -0.044045337 0.06417998 -0.110233955
0.003450793 -0.09307389 -0.07742552 0.16312687 -0.06585693 0.08915122 -0.014437703 0.16258936
-0.12465336 0.19932102 0.07136242 0.0055322708 0.028820466 -0.04539536 -0.059052438 -0.07038775
-0.08505816 -0.13048173 -0.054922972 -0.06316692 0.0642283 -0.05803385 0.11109029 0.07500365
-0.012801509 -0.046562456 -0.09737177 0.23359336 -0.09431653 0.0035449623 -0.05016444 0.034393735
-0.019423304 0.12168174 0.08622503 -0.32568166 0.13142101 0.07320806 -0.11980878 -0.08085559
0.03356516 0.08039734 0.11243758 -0.07809987 0.04977139 0.007595608 -0.037367046 0.121806435
0.003499892 0.13047881 0.12146575 0.069093965 0.20389502 -0.21450119 0.056219473 0.0575196
-0.012619417 -0.041305177 0.10765006 0.09704641 -0.057350405 -0.15100014 0.056039404 -0.28086987
-0.11545721 0.10001006 0.004047794 0.09152336 0.041862037 -0.04740152 -0.10787481 -0.2484026
00000000: dc91 9f3c 6c91 89be c28c 18be 99a5 4a3d
00000010: 0553 363d ef66 183c 2722 f83d 3848 003e
00000020: 7bb4 333d 7898 7e3d cb54 f33d 3c1d a03d
00000030: abdc 033d e0eb f63d 64c5 963c d805 a3bd
00000040: 2900 883d fdf8 bf3d d28a e63d 069a 93bd
00000050: 5f68 063d 3a06 a3bd db84 00ba 8c90 70bd
00000060: dbda c43d b720 ab3c 546f 163d 048a 823e
00000070: e383 82bc 8c93 133e 3940 ce3c 7868 9c3d
00000080: 2432 b9bd 196f 4dbd 7684 babd b46c a7bc
00000090: 2266 e43d 4fdf 853d 150e 0a3c ef3f ccbd
000000a0: 879a f13d d71a b3bd 603e bebd e1c0 ccbb
000000b0: 063d 07bd 3288 363e f624 9d3d 6b25 5dbc
000000c0: 7b0d a23d 3276 453d 1274 6fbd 1802 373e
000000d0: d84e 853d b2fd f83d 2786 a03c 0929 9a3b
000000e0: e6fc 813d e1f0 ce3d 351f 6fbd aa0f f43d
000000f0: 8248 82bb 97e3 593e 7539 10bd da50 ad3d
00000100: 23ac 303d 2ec0 64be b09b 2e3c a023 e23c
00000110: 7a93 00be b651 153d a162 2d3e e43a b1bd
00000120: a967 a7bd 24e3 3b3d d34a 54bd fbbf 17bc
00000130: d60e 2dbe 96e0 71bd 7ba2 f0bd 13e8 3fbd
00000140: c90a 9c3d a85c efbd ad9d 5c3d 33ad a8bb
00000150: f7da 493d 9132 73bd 040a 503d 9843 9e3d
00000160: 2dc2 81bc ebd3 15bd f483 bdbd b0db 943e
00000170: 3677 4cbc 556d b63d 93dd da3d 5ca7 6fbd
00000180: 6def 60bd b63c 74be bf10 29bd 7c72 0b3e
00000190: 92ab 483d fe16 e8bd d636 fb3c 4759 3e3d
000001a0: 75b7 593d 49e1 bfbc 7a2c e2bc ea94 1fbd
000001b0: 54eb d5bd e569 3c3d 3193 26bd 984d cc3d
000001c0: 1046 a13d 8f15 593d b1d8 02bc 050a b73d
000001d0: 6efd 79bd a99e 143e 9de0 6a3d 8dd5 463e
000001e0: 3b76 0e3e 834f 93bd c0ae 58ba 4b7f 15bc
000001f0: 52a4 fbbd d24f 833e 9874 833d 14fe 333e
00000200: e6ae 363e 1dfc c9bd c9b3 08be 18ea 883d
00000210: 7021 06bf 7f46 dd3d 60a5 663c 4498 973d
00000220: d4e4 a8bd dc1b aabd 33de debd d288 14ba
00000230: 5064 5ebd 13a9 e2bc 5c7a 6dbd 51eb 123e
00000240: ce3b ebbd 533b 4e3d aa20 213d 1147 863d
00000250: 052f 44bc 9f7d fe3d e9a6 e0bd f9bc 203d
00000260: bfd8 03be 77de 023e c525 863d db71 3f3e
00000270: ec94 dcbd b884 36be a67c 05bd 1562 c8bd
00000280: 7d57 c83d 40ca 843d e4f5 0c3e c68a 5d3d
00000290: be62 cabd d9c0 07bd 83d5 3fbd 900f 60bd
000002a0: 1e8d d3bd c188 38be 1a4a 3cbe c683 f83d
000002b0: efb8 02bd 8fb8 9dbd 9d8a 2e3d 31bb 913d
000002c0: 4fcf b3bd e9ac 703d c702 073e a3d5 2d3d
000002d0: e121 ea3d e268 34bd cb70 833d 57c2 e1bd
000002e0: b326 623b 869d bebd 4591 9ebd bb0a 273e
000002f0: 00e0 86bd ea94 b63d 1e8c 6cbc d37d 263e
00000300: 434a ffbd cf1a 4c3e 7626 923d 0d48 b53b
00000310: e618 ec3c 7cf0 39bd f8e0 71bd 7427 90bd
00000320: f932 aebd 019d 05be e9f6 60bd a85d 81bd
00000330: 208a 833d e7b4 6dbd 4e83 e33d 839b 993d
00000340: 6cbd 51bc 46b8 3ebd da6a c7bd 1933 6f3e
00000350: 0629 c1bd 9952 683b 3a79 4dbd 72e0 0c3d
00000360: 9f1d 9fbc 4734 f93d c096 b03d bfbf a6be
00000370: 3b93 063e 1bee 953d 4e5e f5bd 9e97 a5bd
00000380: 9f7b 093d 5ca7 a43d ad45 e63d d3f2 9fbd
00000390: 16dd 4b3d 94e4 f83b 300e 19bd a775 f93d
000003a0: 725e 653b 3d9c 053e 09c3 f83d 2381 8d3d
000003b0: dbc9 503e 33a6 5bbe 6446 663d ac99 6b3d
000003c0: acc1 4ebc 9e2f 29bd a277 dc3d 45c0 c63d
000003d0: 42e8 6abd c89f 1abe 9389 653d 2dce 8fbe
000003e0: d474 ecbd 13d2 cc3d 5ba3 843b 9970 bb3d
000003f0: 8777 2b3d 1928 42bd 78ed dcbd 405d 7ebe

actor.4.bias f4 [64]
0.06005657 -0.10003325 0.06480564 0.028275779 0.051062375 0.014449479 -0.039157722 0.05029384
-0.08947026 0.07936325 -0.091153614 -0.06582824 0.034131385 0.0836725 0.013520454 -0.14297473
-0.006321994 0.10779817 -0.13917203 0.09973182 -0.14695568 0.0064741937 0.055743758 0.0736035
-0.11038554 -0.08343112 -0.17651 -0.05963048 0.11592433 0.06884178 0.1127108 -0.034230985
-0.094153725 -0.12534843 -0.020569623 -0.0974308 -0.080537215 0.014929314 -0.07712476 -0.13149367
-0.09817782 0.09548168 0.09403951 -0.016311796 0.038918916 0.03504062 0.07416932 -0.09175041
-0.051553704 0.021721125 0.12430368 -0.05560047 0.05939863 -0.03972485 -0.014312588 -0.020448081
0.078643225 -0.05540824 -0.055426423 0.08637271 0.07747621 -0.029804086 0.11040809 -0.06503864
00000000: e1fd 753d 3cde ccbd d2b8 843d 9ba2 e73c
00000010: c826 513d 82bd 6c3c d963 20bd ea00 4e3d
00000020: 2f3c b7bd 3389 a23d bfae babd f5d0 86bd
00000030: 5acd 0b3d 7d5c ab3d e584 5d3c f867 12be
00000040: bb28 cfbb 49c5 dc3d 1d83 0ebe 3240 cc3d
00000050: 8d7b 16be 7925 d43b 9153 643d 6fbd 963d
00000060: d011 e2bd efdd aabd 0abf 34be 173f 74bd
00000070: bc69 ed3d ebfc 8c3d ebd4 e63d ca35 0cbd
00000080: abd3 c0bd 575b 00be a081 a8bc cd89 c7bd
00000090: b2f0 a4bd 159a 743c 96f3 9dbd 47a6 06be
000000a0: 7411 c9bd e68b c33d c997 c03d 51a0 85bc
000000b0: 7169 1f3d c186 0f3d 16e6 973d a4e7 bbbd
000000c0: fa29 53bd 80f0 b13c ee92 fe3d 52bd 63bd
000000d0: fa4b 733d 86b6 22bd 587f 6abc bc82 a7bc
000000e0: b30f a13d c0f3 62bd d106 63bd 2de4 b03d
000000f0: d9ab 9e3d b327 f4bc a31d e23d fa32 85bd

actor.6.weight f4 [64, 64]
0.10913519 -0.13928126 -0.1753621 -0.005276088 -0.06679657 0.019221107 0.045038294 0.08026405
0.19473301 -0.20766725 -0.20216602 -0.16043714 0.14249673 -0.16462998 -0.017014107 -0.11074922
-0.08293738 -0.018432999 0.02795309 0.038765922 -0.11353327 -0.08946138 -0.1336393 -0.023429498
-0.4316174 0.100983284 0.15779741 0.017102873 -0.007157585 -0.06451742 -0.118637554 -0.095643386
0.07988407 -0.16191798 -0.14274094 -0.08485793 0.0434496 0.23966289 0.102307394 -0.25692293
-0.14232351 -0.260182 -0.26169595 0.17885855 0.12747446 0.06946382 -0.21785794 0.46965984
0.091372274 0.019254776 -0.057256583 -0.15826681 -0.1367055 -0.019180708 -0.10120775 0.085822836
0.10767357 0.006677895 -0.009488649 -0.0008590401 -0.07166082 -0.19068971 0.050488506 -0.06982429
-0.077708825 0.035347372 -0.08656843 0.11524337 -0.10208971 0.03466876 0.106210016 -0.014335586
0.07698734 -0.15976268 -0.12627017 0.03004902 -0.06207319 0.025066048 -0.058395926 -0.11198906
0.11065144 -0.098931484 -0.009107868 -0.043240853 -0.080476075 0.14056437 0.08580895 0.14466767
-0.35215873 -0.17914285 0.007852848 -0.13621727 0.08531262 -0.06964799 -0.005354244 -0.32065305
-0.13373968 -0.11032976 -0.15780327 -0.1179307 -0.02624076 0.025548197 0.123064324 -0.16614987
0.099302016 -0.21323684 -0.07794555 0.1708298 0.13971637 0.12767407 -0.017311567 0.41144568
-0.10164148 -0.03111483 0.14148997 -0.25511193 -0.02496342 -0.03828144 0.016799506 0.08737152
0.15528628 -0.09738968 -0.08451209 0.017364198 0.11193643 -0.19550328 -0.028212557 0.08020562
-0.028012985 -0.08667187 -0.12360573 -0.071287625 -0.116573215 0.05293361 0.057939272 0.102543324
0.07307614 -0.0347464 -0.00809673 0.07703381 -0.04974655 -0.12960087 0.07818678 -0.022220243
-0.055505864 -0.064278826 0.17609137 0.06307038 0.018217972 0.14393628 -0.12050805 -0.049924485
-0.26341808 -0.14383176 0.0055813733 -0.21144605 0.14200574 -0.076655366 -0.025451584 -0.19281091
-0.18149817 -0.0060375365 -0.11511384 0.04001226 -0.052888542 0.08702371 -0.049277227 -0.115295805
0.04090378 -0.20035727 -0.14639126 0.025892278 0.13025078 0.13284664 -0.08937692 0.5515679
0.07724789 -0.019688414 0.04658239 -0.1992675 0.12717383 0.12023656 0.027756352 0.060116168
0.12671737 -0.003748202 0.13498156 -0.116464265 -0.05121798 -0.18378967 0.046016872 0.07059681
-0.13114855 -0.088240296 0.13595337 0.01824495 0.0064668003 0.07563835 -0.1502498 -0.019614983
0.50574356 -0.030542701 -0.13658664 -0.012021416 0.037935827 -0.06501847 -0.048717458 -0.033330865
0.12763256 -0.11372295 0.31778517 0.034451116 -0.13738303 -0.07801607 -0.030973129 -0.03737598
-0.082029626 -0.2714757 -0.09748692 -0.012732352 0.07009119 0.095743336 0.080817714 -0.33938935
-0.04681475 0.074772015 -0.31994617 0.10041808 -0.12238411 0.14397421 0.14920431 -0.16452226
0.021525724 -0.19345032 -0.11238419 0.024895554 0.05795339 0.3810443 0.097500846 0.74106276
-0.2723603 -0.024841212 0.118632354 0.0076714973 -0.21475177 0.048076034 -0.0018003352 0.14001031
0.049874224 -0.28031185 0.06567532 -0.08698325 -0.15221709 -0.20680697 -0.06380905 -0.03952579
00000000: 4582 df3d bf9f 0ebe 1f92 33be 09e3 acbb
00000010: a4cc 88bd 9575 9d3c 137a 383d 7a61 a43d
00000020: 1768 473e b9a6 54be 9c04 4fbe a249 24be
00000030: aaea 113e c394 28be 2b61 8bbc 7dd0 e2bd
00000040: 13db a9bd cd00 97bc e1fd e43c 04c9 1e3d
00000050: 2284 e8bd 8737 b7bd bed8 08be 38ef bfbc
00000060: f5fc dcbe 53d0 ce3d a595 213e 531b 8c3c
00000070: 2d8a eabb b621 84bd 3ff8 f2bd aee0 c3bd
00000080: 429a a33d d4cd 25be ae2a 12be ffc9 adbd
00000090: 35f8 313d 306a 753e 8a86 d13d 678b 83be
000000a0: 41bd 11be 9336 85be 03fd 85be b226 373e
000000b0: aa88 023e 0c43 8e3d 2716 5fbe 4177 f03e
000000c0: 6321 bb3d 31bc 9d3c e185 6abd b210 22be
000000d0: 87fc 0bbe dc20 9dbc 0246 cfbd e2c3 af3d
000000e0: f683 dc3d 3ed2 da3b 4776 1bbc 3531 61ba
000000f0: e8c2 92bd 2a44 43be 09cd 4e3d 0a00 8fbd
00000100: ce25 9fbd 68c8 103d ca4a b1bd b704 ec3d
00000110: 6914 d1bd d400 0e3d a384 d93d cedf 6abc
00000120: 8aab 9d3d d498 23be f84c 01be 5d29 f63c
00000130: 7540 7ebd 5057 cd3c 9130 6fbd 855a e5bd
00000140: 399d e23d 979c cabd 2b39 15bc 521d 31bd
00000150: a4d0 a4bd 1bf0 0f3e 9abc af3d c323 143e
00000160: 264e b4be 3971 37be 3ba9 003c 8a7c 0bbe
00000170: 62b8 ae3d 9ba3 8ebd a772 afbb a32c a4be
00000180: 0ef3 08be 92f4 e1bd 2e97 21be a785 f1bd
00000190: ddf6 d6bc 744a d13c 2609 fc3d 3123 2abe
000001a0: db5e cb3d c25a 5abe eba1 9fbd 02ee 2e3e
000001b0: cf11 0f3e febc 023e fdd0 8dbc 02a9 d23e
000001c0: 6929 d0bd 87e4 febc bfe2 103e 089e 82be
000001d0: 1680 ccbc 00cd 1cbd 1e9f 893c d7ef b23d
000001e0: 5e03 1f3e 3e74 c7bd ad14 adbd 5d3f 8e3c
000001f0: ed3e e53d 0332 48be 051e e7bc d842 a43d
00000200: 7d7b e5bc 0581 b1bd 0025 fdbd 3fff 91bd
00000210: f0bd eebd ead0 583d bb51 6d3d 3c02 d23d
00000220: f1a8 953d 3e52 0ebd 26a8 04bc e7c3 9d3d
00000230: 0ac3 4bbd 17b6 04be 6420 a03d 3a07 b6bc
00000240: 1e5a 63bd 9ea4 83bd 4c51 343e 0b2b 813d
00000250: db3d 953c 0864 133e edcc f6bd 9e7d 4cbd
00000260: bcde 86be a248 13be f4e3 b63b 5085 58be
00000270: f469 113e 7dfd 9cbd d77f d0bc 3970 45be
00000280: a8da 39be 87d6 c5bb cec0 ebbd e5e3 233d
00000290: a8a1 58bd 7d39 b23d ebd6 49bd 3520 ecbd
000002a0: b98a 273d 752a 4dbe 97e7 15be 0b1c d43c
000002b0: 7660 053e f308 083e 3f0b b7bd 8e33 0d3f
000002c0: 2434 9e3d 9949 a1bc 2dcd 3e3d c80c 4cbe
000002d0: db39 023e 963e f63d 4a61 e33c 5f3c 763d
000002e0: 33c2 013e 65a4 75bb 9b38 0a3e d184 eebd
000002f0: f2c9 51bd 5c33 3cbe 307c 3c3d 0f95 903d
00000300: ce4b 06be 54b7 b4bd 5c37 0b3e 6f76 953c
00000310: 74e7 d33b 47e8 9a3d 15db 19be 9aaf a0bc
00000320: 6978 013f b034 fabc 5edd 0bbe 79f5 44bc
00000330: 9962 1b3d 6728 85bd f58b 47bd f285 08bd
00000340: 1cb2 023e 94e7 e8bd bdb4 a23e 9d1c 0d3d
00000350: 23ae 0cbe e4c6 9fbd 5cbb fdbc 8e17 19bd
00000360: 26ff a7bd ddfe 8abe 39a7 c7bd 5b9b 50bc
00000370: f88b 8f3d 1515 c43d c283 a53d 71c4 adbe
00000380: d3c0 3fbd 1222 993d fccf a3be ffa7 cd3d
00000390: 85a4 fabd fa6d 133e 04c9 183e 8678 28be
000003a0: b756 b03c d717 46be af29 e6bd c3f1 cb3c
000003b0: 8960 6d3d 3d18 c33e 86ae c73d 4ab6 3d3f
000003c0: cf72 8bbe cc7f cbbc 85f5 f23d 2f61 fb3b
000003d0: e3e7 5bbe 60eb 443d 3af9 ebba dd5e 0f3e
000003e0: ea48 4c3d 0985 8fbe c880 863d 4624 b2bd
000003f0: ccde 1bbe 35c5 53be 52ae 82bd cbe5 21bd

actor.6.bias f4 [64]
-0.12202393 0.08470564 0.08441937 0.061085343 -0.034730904 0.047532786 0.10685908 -0.03489345
0.04397679 -0.13208362 -0.02774725 -0.13985404 0.04909012 0.017262675 0.039295632 0.122389235
0.0016025607 -0.10821484 -0.002772447 0.09461924 -0.017667068 0.0020597854 -0.06913031 0.0062800115
-0.011754235 -0.022893133 0.11234802 -0.06655851 0.13908857 0.09266337 -0.0379831 0.04860427
0.07150461 -0.015275781 0.114398316 -0.009804289 0.11964728 -0.09186261 0.043072682 0.11991428
0.015546977 0.09165695 -0.010369842 0.096786045 -0.13163188 -0.0475489 -0.112717666 0.02095211
0.12184046 -0.020244328 -0.07166614 -0.03961953 -0.05921294 -0.00010502663 -0.02658834 -0.0364111
0.020842137 -0.11435043 -0.06146099 0.051474188 -0.03621856 -0.14766625 0.08586932 -0.04660062
00000000: afe7 f9bd 277a ad3d 10e4 ac3d a034 7a3d
00000010: fe41 0ebd bdb1 423d efd8 da3d 6fec 0ebd
00000020: 0221 343d ee40 07be 334e e3bc e635 0fbe
00000030: b912 493d 746a 8d3c 75f4 203d 35a7 fa3d
00000040: 040d d23a be9f ddbd f1b1 35bb bbc7 c13d
00000050: 87ba 90bc 77fd 063b 3194 8dbd 8ec8 cd3b
00000060: d694 40bc 618a bbbc b816 e63d d44f 88bd
00000070: 3c6d 0e3e 4bc6 bd3d 2b94 1bbd 4515 473d
00000080: 0271 923d 4547 7abc aa49 ea3d 2ba2 20bc
00000090: a209 f53d 7722 bcbd fb6c 303d 9e95 f53d
000000a0: bfb8 7e3c a4b6 bb3d 45e6 29bc c337 c63d
000000b0: 82ca 06be a3c2 42bd 85d8 e6bd c2a3 ab3c
000000c0: 7e87 f93d 6fd7 a5bc b2c5 92bd 1748 22bd
000000d0: 4589 72bd be41 dcb8 cacf d9bc ce23 15bd
000000e0: 21bd aa3c 8f30 eabd 85be 7bbd 99d6 523d
000000f0: ea59 14bd d235 17be 41dc af3d 4be0 3ebd

actor.8.weight f4 [1, 64]
-0.44371483 -0.16142862 -0.15206072 -0.30579525 -0.11094618 -0.61268383 -0.13585475 0.1763544
-0.1301325 -0.46265718 -0.12291832 0.29001534 0.08538477 0.09295869 0.07654901 -0.119630545
-0.23057619 0.0813788 0.13056313 -0.1531138 -0.2772006 -0.4431376 -0.17185181 0.064959235
0.19103016 0.14053488 -0.022579124 0.20203906 -0.11019371 0.081980176 0.10535991 0.14591868
0.14870924 -0.059986163 0.11697321 0.16971739 0.10611148 -0.60592574 0.44047585 -0.13927287
0.10458931 0.11945225 -0.24823909 -0.08892626 -0.18105695 0.18772286 -0.4255948 -0.15144768
-0.13533539 0.4338596 0.5330963 -0.07420219 -0.5800636 -0.025436435 -0.29095075 -0.22292641
0.052644867 -0.2901248 -0.19404417 -0.17435026 0.036595855 0.3603173 -0.1191789 -0.2492649
00000000: 972e e3be 8b4d 25be ceb5 1bbe 3291 9cbe
00000010: c037 e3bd d9d8 1cbf 821d 0bbe 3f96 343e
00000020: 7441 05be 67e1 ecbe 9abc fbbd e47c 943e
00000030: 36de ae3d 2061 be3d bac5 9c3d dc00 f5bd
00000040: 2a1c 6cbe eea9 a63d 57b2 053e ddc9 1cbe
00000050: 3ded 8dbe eee2 e2be ecf9 2fbe 5909 853d
00000060: 699d 433e 60e8 0f3e dbf7 b8bc 54e3 4e3e
00000070: 3dad e1bd 39e5 a73d f0c6 d73d b56b 153e
00000080: 3c47 183e 0db4 75bd a68f ef3d 65ca 2d3e
00000090: fa50 d93d f31d 1bbf 0d86 e13e 8c9d 0ebe
000000a0: ec32 d63d 62a3 f43d 6332 7ebe f91e b6bd
000000b0: fe66 39be 6c3a 403e 90e7 d9be 1a15 1bbe
000000c0: 5c95 0abe d822 de3e 0079 083f 51f7 97bd
000000d0: 0c7f 14bf 1260 d0bc 7ff7 94be d246 64be
000000e0: 25a2 573d 3d8b 94be 84b3 46be e088 32be
000000f0: 89e5 153d 827b b83e 1114 f4bd 4c3f 7fbe

critic.0.weight f4 [64, 6]
1.1972206 -0.059683174 0.17113973 -0.07475618 0.12144733 1.2606759 3.0521817 -0.3667511
-0.2721229 -0.049721755 0.36529273 -0.15318148 -1.2927419 -0.069976054 0.18787959 0.19763634
0.026471825 -0.5355105 -0.040850915 0.27852613 0.02926781 0.25651765 -0.18223713 0.0804292
0.94244426 0.39227256 -0.2600472 0.24718237 -0.24716944 -0.79586726 0.9192463 -0.3322298
-0.03903545 -0.11563065 0.11059706 -1.5548038 1.0847656 0.35107985 -0.36564586 0.3542713
-0.097069204 -0.13796996 -1.1937623 -0.25020808 0.14810665 -0.19863483 0.34780908 -0.91876996
1.9600098 -0.1776645 -0.26873738 0.014671626 0.26493633 0.74756813 0.11461469 -0.36230695
0.056473352 -0.04828304 -0.2882824 0.71583974 -0.87358457 0.06795609 -0.34988585 -0.21190478
-0.3683925 -0.4101649 -0.6635943 -0.47900718 -0.028785512 0.08943081 0.2468861 -2.527203
-1.6377697 -0.12906677 0.3650141 0.34677428 -0.3317243 0.5794652 1.0805215 0.20777337
-0.1329328 -0.17816001 -0.080924936 0.9173484 -0.9932513 0.074133344 -0.117093235 0.0831335
0.04137655 1.1999912 -1.2804949 -0.4248697 0.36195296 0.068395525 -0.24602784 -1.0996011
-0.49060157 -0.47768027 0.10856332 0.34121868 0.09439036 -0.6698675 1.0035913 0.14211154
-0.22086415 0.34192353 -0.3753029 0.55389726 0.26924106 0.41173166 -0.2789624 0.2664989
-0.32384115 1.4772818 0.93244505 -0.17753488 0.16158329 0.2298801 0.35573125 0.60464895
0.737048 -0.2289107 -0.31454578 0.33904073 0.09003375 -0.017118907 0.047751572 0.21264003
-0.109846234 -0.227315 -0.15385069 0.5648352 0.66563845 -0.09730167 -0.38158232 0.16398366
0.24033889 -0.24186163 -1.2478437 -0.21726087 0.34102327 0.34906107 -0.040289223 0.5484893
-0.36414793 -0.23483713 -0.24551001 -0.2741457 0.36521786 0.55955297 1.1163645 -0.19432805
-0.31401855 0.20673904 0.017926333 0.9613614 1.328017 0.0052123778 -0.17900008 -0.17405379
0.0027767068 -0.66403866 -0.1753011 0.18397884 -0.3133072 0.18308069 -0.17901316 -0.49500015
0.22650443 0.24878122 -0.24913424 -0.112203225 0.39780614 0.64877754 0.97126234 0.33636582
0.007530574 0.19504623 0.031797107 1.0027788 0.27984875 -0.41441295 -0.26691818 0.21703976
-0.11953697 0.6795514 0.57747173 0.28662258 0.18227714 0.0806025 -0.074244976 -1.2685835
0.2807201 0.4018816 0.19532037 0.23882842 -0.27155098 -0.36708686 0.9516223 -0.47371292
0.11144405 0.21237087 -0.025351947 1.2107837 -2.008918 0.0834019 0.2164809 -0.06104194
-0.1975146 0.06868427 -0.3883445 -0.046098024 -0.46042117 0.06485983 -0.18013166 -0.338027
-0.25127268 -0.058209877 0.31308594 -0.3452266 -0.08649539 0.7014264 -0.08243394 -0.27461046
0.16805036 0.12872453 0.24419963 -0.20218141 0.39484504 -0.2680416 -0.16894321 0.24982926
-0.22389172 -0.67508227 -0.26152956 -0.41711757 0.0736836 0.23833059 0.08095775 0.020479796
-1.1101495 -0.34697402 0.034481034 -0.16485897 -0.20885168 1.3709153 -1.8027323 0.055100195
0.22106586 0.16517046 -0.194485 0.9090888 -0.004120852 0.07090345 0.45499104 -0.09439086
00000000: 863e 993f 5876 74bd 413f 2f3e c519 99bd
00000010: 61b9 f83d d45d a13f f256 4340 cdc6 bbbe
00000020: b153 8bbe 0aa9 4bbd a607 bb3e 9bdb 1cbe
00000030: 9178 a5bf 9b4f 8fbd 8263 403e 2e61 4a3e
00000040: 71db d83c 3717 09bf 4a53 27bd fa9a 8e3e
00000050: 0cc3 ef3c 4856 833e 5f9c 3abe 10b8 a43d
00000060: 0744 713f f3d7 c83e e824 85be 601d 7d3e
00000070: fc19 7dbe f5bd 4bbf ba53 6b3f 061a aabe
00000080: a3e3 1fbd c3cf ecbd b680 e23d d003 c7bf
00000090: 99d9 8a3f bdc0 b33e ef35 bbbe 0c63 b53e
000000a0: 38cc c6bd ff47 0dbe 34cd 98bf 461b 80be
000000b0: 45a9 173e ee66 4bbe 0814 b23e 8234 6bbf
000000c0: 9ae1 fa3f afed 35be f297 89be 4261 703c
000000d0: bca5 873e a060 3f3f 1bbb ea3d 4c80 b9be
000000e0: 9a50 673d 70c4 45bd c099 93be 4641 373f
000000f0: 3da3 5fbf 902c 8b3d 3d24 b3be 91fd 58be
00000100: f19d bcbe 2201 d2be 51e1 29bf 6e40 f5be
00000110: 98cf ebbc 8027 b73d b6cf 7c3e b2bd 21c0
00000120: 70a2 d1bf 142a 04be 21e3 ba3e 668c b13e
00000130: c4d7 a9be d557 143f 874e 8a3f 8bc2 543e
00000140: 891f 08be 946f 36be f9bb a5bd 58d7 6a3f
00000150: b845 7ebf 39d3 973d 94ce efbd e541 aa3d
00000160: 757a 293d 5099 993f 42e7 a3bf 8588 d9be
00000170: e651 b93e f412 8c3d b9ee 7bbe bbbf 8cbf
00000180: 2130 fbbe 8292 f4be 7256 de3d 37b4 ae3e
00000190: bc4f c13d 707c 2bbf ae75 803f b085 113e
000001a0: 362a 62be 9a10 af3e b427 c0be 36cc 0d3f
000001b0: f7d9 893e 7ece d23e 29d4 8ebe 8b72 883e
000001c0: 82ce a5be 9217 bd3f b8b4 6e3f b4cb 35be
000001d0: 1776 253e b065 6b3e 6822 b63e 46ca 1a3f
000001e0: 2daf 3c3f 9167 6abe 250c a1be bf96 ad3e
000001f0: 9d63 b83d f33c 8cbc 2797 433d 4fbe 593e
00000200: 10f7 e0bd 43c5 68be 098b 1dbe 0a99 103f
00000210: 4867 2a3f 1946 c7bd c25e c3be 55eb 273e
00000220: 661b 763e 93aa 77be 58b9 9fbf a279 5ebe
00000230: 9a9a ae3e 22b8 b23e 5006 25bd cb69 0c3f
00000240: 9971 babe 2579 70be fa66 7bbe d35c 8cbe
00000250: d6fd ba3e dd3e 0f3f 08e5 8e3f effd 46be
00000260: 0ac7 a0be 66b3 533e 3fda 923c c81b 763f
00000270: 76fc a93f 98cc aa3b cc4b 37be 283b 32be
00000280: 69f9 353b 70fe 29bf 2282 33be f364 3c3e
00000290: cd69 a0be 8179 3b3e 3a4f 37be a970 fdbe
000002a0: c7f0 673e 81c0 7e3e 0c1d 7fbe ceca e5bd
000002b0: 3fad cb3e 4916 263f a6a4 783f 2438 ac3e
000002c0: 09c3 f63b 33ba 473e af3d 023d 0e5b 803f
000002d0: 5648 8f3e ef2d d4be 80a9 88be ac3f 5e3e
000002e0: cdcf f4bd 15f7 2d3f 30d5 133f 32c0 923e
000002f0: dca6 3a3e ec12 a53d c00d 98bd f260 a2bf
00000300: 8cba 8f3e 6dc3 cd3e 1002 483e 708f 743e
00000310: bb08 8bbe cff2 bbbe 859d 733f 808a f2be
00000320: c73c e43d c077 593e e3ae cfbc f6fa 9a3f
00000330: 1d92 00c0 9ece aa3d 2bad 5d3e 1d07 7abd
00000340: 4441 4abe 57aa 8c3d 17d5 c6be 48d1 3cbd
00000350: 53bc ebbe 3bd5 843d 6f74 38be e011 adbe
00000360: d0a6 80be 7b6d 6ebd cd4c a03e 8ac1 b0be
00000370: 7f24 b1bd ae90 333f 20d3 a8bd be99 8cbe
00000380: 6515 2c3e 5dd0 033e 780f 7a3e a508 4fbe
00000390: 2129 ca3e c03c 89be 73ff 2cbe 3ed3 7f3e
000003a0: df43 65be 31d2 2cbf 34e7 85be 6f90 d5be
000003b0: 6de7 963d ef0c 743e 2dcd a53d 3fc5 a73c
000003c0: 6119 8ebf 94a6 b1be fc3b 0d3d cad0 28be
000003d0: 37dd 55be 277a af3f efbf e6bf beb0 613d
000003e0: 175f 623e 7222 293e 1327 47be 0bba 683f
000003f0: 3608 87bb d435 913d 96f4 e83e ff4f c1bd

critic.0.bias f4 [64]
0.06384689 -0.12286458 0.012657322 -0.10361359 0.039282385 0.27266023 0.37423053 0.32453877
-0.5080026 0.046539005 0.33475277 -0.092002 -0.2920525 0.089494556 0.54317856 0.38008058
0.26476422 0.40887335 -0.1822536 -0.2437448 0.06668537 -0.40057334 -0.60024583 0.08251005
-0.2378441 -0.031973913 -0.02185456 0.20364653 0.22867072 0.2616361 -0.07664242 -0.39159957
-0.18765606 -0.22220483 -0.33180916 -0.36756793 0.16437502 -0.38588974 0.02962748 0.19424963
-0.44249538 -0.17803721 -0.00073165493 -0.2674162 -0.045392614 0.1768389 -0.07763736 0.039803546
-0.32643396 -0.05084802 -0.2723872 0.28501108 0.34548426 -0.010478336 -0.016025783 -0.15740862
0.35015738 -0.16954154 -0.25156632 -0.418983 -0.0014016595 0.4342402 0.12265092 0.0688493
00000000: 29c2 823d 6da0 fbbd a860 4f3c 5d33 d4bd
00000010: 91e6 203d 1f9a 8b3e 259b bf3e f229 a63e
00000020: 750c 02bf af9f 3e3d b764 ab3e 8b6b bcbd
00000030: e887 95be ec48 b73d c00d 0b3f ec99 c23e
00000040: 2d8f 873e d957 d13e b0a0 3abe 3d98 79be
00000050: 5792 883d f317 cdbe b6a9 19bf 07fb a83d
00000060: 678d 73be 14f7 02bd 5608 b3bc b788 503e
00000070: a828 6a3e 2bf5 853e b3f6 9cbd bd7f c8be
00000080: e928 40be aa89 63be e4e2 a9be dd31 bcbe
00000090: ed51 283e 5793 c5be 54b5 f23c 60e9 463e
000000a0: c18e e2be 634f 36be 88cc 3fba c7ea 88be
000000b0: 9bed 39bd 4215 353e 5600 9fbd 0b09 233d
000000c0: 5a22 a7be 0346 50bd 5676 8bbe f9ec 913e
000000d0: 50e3 b03e 54ad 2bbc 8148 83bc ba2f 21be
000000e0: d447 b33e 4c9c 2dbe 4dcd 80be f184 d6be
000000f0: e3b7 b7ba bb54 de3e 6830 fb3d dd00 8d3d

critic.2.weight f4 [64, 64]
0.18005173 -0.18347676 0.16330443 -0.027337603 -0.16174746 0.2313426 -0.10038695 0.17079003
-0.081278205 0.075057894 0.09443861 0.04582129 0.1915354 -0.26999032 0.12002936 -0.029722517
0.00061627844 -0.12892468 -0.34491476 -0.023160841 -0.10274552 0.09453289 -0.053765465 0.1277859
-0.13766861 0.08802801 -0.062104188 1.5654416 0.07871239 -0.04564161 0.05228905 0.068438336
-0.12196374 0.045236126 -0.04513716 0.14564507 0.031701587 -0.0049563544 0.00994896 0.09974793
0.14260532 0.23983301 0.08541282 0.07448247 0.027759286 -0.041741394 -0.0058167847 0.11487563
-0.06917513 -0.011919984 0.11396339 0.075792424 0.06480406 -0.049915712 -0.16653441 0.037036713
-0.046458542 -0.046686597 -0.13092364 0.17003946 0.0654676 0.030712256 -0.03669452 -0.03585051
-0.25820804 0.050291244 0.0092824595 -0.059619192 -0.38828823 0.05526649 -0.1713195 0.13406652
-0.12511729 0.0233568 -0.13197942 -0.09991165 0.05893021 -0.10168834 0.0233957 -0.055349417
-0.0077167866 -0.18369319 -0.20079951 -0.09343574 0.070542395 -0.079235554 -0.09531691 -0.07146603
0.06251577 -0.0068124 0.037372958 -0.23672155 -0.13205774 -0.18925454 0.14207478 -0.087593585
-0.15855058 -0.2361994 0.09084044 0.18838212 -0.09921262 -0.086380854 0.21303944 0.0026730965
0.076719806 0.048753753 0.009963426 -0.15832838 0.031881385 0.0012177703 -0.017234275 -0.18269287
-0.11591851 -0.03139529 0.121903196 -0.21923572 -0.05364638 -0.08068946 0.018289916 -0.20720653
-0.13386592 -0.07547512 0.14294642 0.004616053 -0.10855394 -0.09320482 -0.24341497 -0.059667416
0.20090647 -0.039682016 -0.030465137 0.07456483 -0.31660947 -0.17513521 0.033679135 -0.04292077
-0.067526065 0.03941542 0.015529835 -0.10798671 0.33136392 -0.12973082 0.1932387 0.049997717
0.041563194 -0.052623812 -0.33370444 0.1206765 0.108445674 -0.06822422 -0.09799206 -0.20684874
-0.11081106 -0.06310121 -0.092458546 0.7733254 -0.003940909 0.017044213 -0.036442216 -0.2062024
-0.14817269 0.04044414 0.11791016 -0.06290048 -0.034178425 -0.080434926 -0.119004935 -0.006529016
0.14163654 0.07284548 -0.06238862 -0.00830786 -0.16345836 -0.051038526 0.04802815 -0.02426637
-0.38344207 -0.24013914 0.030122794 -0.067696236 -0.046712022 -0.0021275051 -0.026301157 -0.044763178
-0.11474719 -0.15558109 -0.014878468 0.21689303 0.06234353 0.027533822 -0.0879594 -0.092284426
-0.009669973 -0.19594344 0.18209216 -0.04039105 -0.075434834 -0.48030838 0.039211027 0.16801216
-0.32878035 -0.31747186 -0.11628346 0.024523541 0.16493802 -0.24132676 0.17137307 -0.06036892
0.17056572 0.11862811 -0.2931383 -0.15142064 -0.09501158 0.0037840276 -0.109027974 0.1989963
-0.079593435 -0.19731408 -0.25252533 -1.2935618 -0.12611413 0.009214659 -0.038186453 0.063656874
0.13854717 -0.0600541 0.031860493 -0.064049825 -0.10319533 -0.049335334 -0.12567031 -0.0071538077
-0.21658425 0.038347334 -0.08421628 -0.0028538203 -0.039760068 0.013790938 0.14097135 -0.09639895
0.06164815 0.21029595 0.11526497 0.09569593 0.1420948 -0.06084472 0.030123254 -0.004015176
0.15985838 -0.20556454 0.013551575 -0.12832497 0.07303519 -0.065265365 -0.027981747 0.007312326
00000000: 7b5f 383e 55e1 3bbe 4739 273e 1cf3 dfbc
00000010: 20a1 25be 13e5 6c3e ac97 cdbd 95e3 2e3e
00000020: 3075 a6bd f4b7 993d 0869 c13d 1baf 3b3d
00000030: db21 443e 2c3c 8abe f4d1 f53d a37c f3bc
00000040: bf8d 213a d504 04be ab98 b0be cebb bdbc
00000050: 3e6c d2bd 769a c13d 2d39 5cbd 4fda 023e
00000060: 00f9 0cbe 0848 b43d f660 7ebd 6460 c83f
00000070: f633 a13d b2f2 3abd 0b2d 563d 6629 8c3d
00000080: 20c8 f9bd 8449 393d bee1 38bd fb23 153e
00000090: 86d9 013d ea68 a2bb f600 233c a548 cc3d
000000a0: 2107 123e c996 753e ebec ae3d 448a 983d
000000b0: 7167 e33c 06f9 2abd ba9a bebb ea43 eb3d
000000c0: b1ab 8dbd 094c 43bc a365 e93d 0f39 9b3d
000000d0: feb7 843d 6b74 4cbd ff87 2abe cfb3 173d
000000e0: 504b 3ebd 723a 3fbd d910 06be d31e 2e3e
000000f0: e113 863d 4598 fb3c fe4c 16bd fcd7 12bd
00000100: d833 84be 31fe 4d3d 7515 183c 4133 74bd
00000110: b7cd c6be 1d5f 623d 616e 2fbe bc48 093e
00000120: bf1e 00be c356 bf3c 9d25 07be 7b9e ccbd
00000130: ce60 713d fa41 d0bd 57a8 bf3c 12b6 62bd
00000140: 19dd fcbb 111a 3cbe 639e 4dbe 3d5b bfbd
00000150: 8878 903d 4046 a2bd 8335 c3bd c85c 92bd
00000160: 4508 803d 8e3a dfbb 6314 193d 2267 72be
00000170: 253a 07be f1cb 41be 0d7c 113e 4464 b3bd
00000180: 155b 22be 41de 71be 8d0a ba3d 3ee7 403e
00000190: fc2f cbbd 72e8 b0bd 0327 5a3e 1e2f 2f3b
000001a0: 461f 9d3d 04b2 473d a33d 233c d620 22be
000001b0: 0e96 023d 979d 9f3a e52e 8dbc d713 3bbe
000001c0: af66 edbd 5998 00bd 62a8 f93d 547f 60be
000001d0: 4ebc 5bbd 8440 a5bd bcd4 953c f32d 54be
000001e0: 2614 09be b392 9abd 8c60 123e 4242 973b
000001f0: 8751 debd 2be2 bebd c641 79be d265 74bd
00000200: 6dba 4d3e 9c89 22bd 0692 f9bc 72b5 983d
00000210: a31a a2be a556 33be 22f3 093d b0cd 2fbd
00000220: 1b4b 8abd 1072 213d d970 7e3c 2328 ddbd
00000230: 88a8 a93e 28d8 04be 5ee0 453e 68ca 4c3d
00000240: 2b3e 2a3d 118c 57bd 4fdb aabe 3e25 f73d
00000250: c418 de3d 24b9 8bbd 10b0 c8bd 28d0 53be
00000260: e9f0 e2bd 353b 81bd e85a bdbd a7f8 453f
00000270: be22 81bb 4ea0 8b3c 6f44 15bd b926 53be
00000280: 95ba 17be c1a8 253d e27a f13d f8d1 80bd
00000290: adfe 0bbd 11bb a4bd dcb8 f3bd 5bf1 d5bb
000002a0: 2b09 113e 0330 953d 368b 7fbd b11d 08bc
000002b0: a161 27be c60d 51bd 2ab9 443d 44ca c6bc
000002c0: 8552 c4be 09e7 75be 14c4 f63c 53a4 8abd
000002d0: 1b55 3fbd 9d6d 0bbb 8675 d7bc 9859 37bd
000002e0: 9300 ebbd a650 1fbe d1c4 73bc 3519 5e3e
000002f0: ee5b 7f3d 9c8e e13c 0f24 b4bd 9eff bcbd
00000300: ce6e 1ebc 66a5 48be 5e76 3a3e 1671 25bd
00000310: 947d 9abd fbea f5be be9b 203d 610b 2c3e
00000320: e655 a8be ac8b a2be 0626 eebd 98e5 c83c
00000330: 83e5 283e 5d1e 77be 6c7c 2f3e 6745 77bd
00000340: c8a8 2e3e 4bf3 f23d 3916 96be 030e 1bbe
00000350: 6e95 c2bd 73fd 773b 0f4a dfbd b0c5 4b3e
00000360: e201 a3bd b40c 4abe 004b 81be 6f93 a5bf
00000370: 1024 01be 15f9 163c 6669 1cbd 895e 823d
00000380: 4fdf 0d3e 4afb 75bd 2680 023d 8e2c 83bd
00000390: 1358 d3bd d913 4abd b8af 00be 7d6a eabb
000003a0: 43c8 5dbe 1812 1d3d 9679 acbd 2907 3bbb
000003b0: 74db 22bd 63f3 613c cb5a 103e d06c c5bd
000003c0: c582 7c3d d257 573e 0a10 ec3d 3afc c33d
000003d0: 4d81 113e 5038 79bd 0bc5 f63c bd91 83bb
000003e0: eab1 233e 837f 52be 6d07 5e3c 9f67 03be
000003f0: 7993 953d d9a9 85bd fa39 e5bc 3d9c ef3b

critic.2.bias f4 [64]
0.108547896 0.08006819 -0.09329506 0.14866392 0.06522147 0.14866595 -0.07866416 0.080849506
0.09351256 0.04267733 0.04032055 -0.0047013713 -0.09134143 0.0750399 -0.15041739 -0.14579323
-0.022167949 -0.13074076 -0.028860524 0.08523335 -0.018750357 0.10875607 0.048749875 -0.07555128
-0.08509752 -0.09851757 0.032435138 -0.043948784 -0.2197552 0.09129323 0.05297085 0.030691653
0.12610242 -0.1444216 -0.060491856 0.10753367 -0.037345383 -0.001839257 -0.012396864 0.13696742
-0.15972681 0.080734484 0.029271897 0.04422845 -0.041080855 0.051008765 -0.011461083 0.08173543
0.005860879 -0.043788023 -0.16858241 0.0587284 -0.12178545 -0.020613002 0.17952947 -0.115249455
0.046851195 0.019923067 0.0069152946 -0.21266119 -0.056305163 0.065004274 -0.035343345 0.14794661
00000000: 5c4e de3d cbfa a33d 7b11 bfbd 5b3b 183e
00000010: d692 853d e33b 183e ad1a a1bd 6d94 a53d
00000020: 8383 bf3d 6dce 2e3d 2927 253d f60d 9abb
00000030: 3711 bbbd 85ae 993d 0407 1abe d24a 15be
00000040: 8f99 b5bc e8e0 05be e86c ecbc d38e ae3d
00000050: 599a 99bc 81bb de3d f3ad 473d a1ba 9abd
00000060: 9c47 aebd 94c3 c9bd b5da 043d a403 34bd
00000070: 8207 61be f2f7 ba3d f6f7 583d 106d fb3c
00000080: fe20 013e 42e3 13be 4fc6 77bd 9d3a dc3d
00000090: 79f7 18bd 3913 f1ba 371c 4bbc 3041 0c3e
000000a0: 6d8f 23be 1f58 a53d 9ecb ef3c e428 353d
000000b0: 6644 28bd 91ee 503d 44c7 3bbc e864 a73d
000000c0: 9e0c c03b 125b 33bd dea0 2cbe 318d 703d
000000d0: a66a f9bd 99dc a8bc 93d6 373e e807 ecbd
000000e0: 0ae7 3f3d b335 a33c b299 e23b dbc3 59be
000000f0: 3ea0 66bd f620 853d 2fc4 10bd 517f 173e
