PPO/PPO2_Trained/PPO_DoubleInvPendulum_300K.pth (torch, 109673 bytes, 18 tensors)

actor.0.weight f4 [64, 6]
-0.39933345 -0.37727645 -0.20605403 0.122015804 0.12572436 0.16054757 0.3975602 -0.4021069
-0.04276461 0.22686924 -0.14210068 0.20538314 0.574287 -0.1156404 -0.17100134 -0.33587396
-0.20786688 0.2884185 0.59170663 -0.19563371 0.02035606 -0.37533534 -0.35569733 -0.11726312
-0.43603915 -0.15045883 -0.09458728 0.31534156 0.03823947 -0.25727358 -0.23665671 -0.40187323
-0.07882159 0.12108191 0.1039185 -0.46229723 -0.3724055 -0.07451781 0.064725675 0.20653985
0.34311914 -0.33076742 0.40755835 -0.41256148 -0.22365406 -0.36668617 -0.057851315 -0.04623238
0.8063449 -0.18966529 -0.09046016 -0.24707915 0.008272473 0.12972566 0.11581295 -0.10358408
0.44860607 0.31657296 0.26150325 0.20672823 0.6562432 0.004657995 0.16283928 -0.11694197
-0.31805223 0.13160269 -0.37564817 -0.3499827 0.22406508 0.30351326 -0.078541964 -0.13774145
0.2662176 0.38427427 -0.05975473 -0.082681865 0.07077767 -0.12093423 -0.22706886 -0.22644728
-0.021082599 -0.1880143 0.32935518 -0.3268343 -0.4759225 0.24293217 0.1659985 0.36678997
-0.3299376 0.5168396 0.15955701 0.3568209 -0.21040101 0.22566879 0.34050292 0.07008859
-0.5396176 -0.23357159 -0.32658777 -0.17893809 -0.29406524 -0.20109834 1.182838 -0.21757007
-0.4079726 -0.046746712 0.31577796 -0.1721624 0.16504861 0.17312938 -0.21279247 -0.3718559
0.377514 -0.40232295 -0.12349962 0.28971067 0.07602531 -0.20331712 0.15307724 -0.2803915
0.5863886 0.12840202 -0.28610063 0.3776506 -0.11383874 -0.047334068 -0.59254175 -0.41646415
-0.26107818 -0.12500092 -0.005160946 -0.20163204 0.33771154 0.09308576 0.32739055 -0.09525282
0.29205266 0.108490646 -0.18438834 -0.19816546 -0.4659647 -0.033377577 0.075912155 -0.13649292
0.096791185 -0.39506555 -0.3333264 -0.33509856 -0.40033314 -0.32136485 0.83809894 -0.03473775
0.3346984 0.12675206 0.14241034 -0.2735926 -0.9808055 -0.03153729 0.33539468 -0.03047328
-0.2058157 -0.34149724 -0.5869921 0.27693942 -0.3873706 0.20327741 -0.019955922 0.3142524
-0.13770214 -0.28390998 -0.26808614 -0.12221647 0.16544633 -0.10898523 -0.33538228 0.22496864
-0.110520594 -0.31214392 0.317436 -1.1079146 0.037882734 0.05931755 -0.25658238 0.108388215
0.34112722 -0.31755286 -0.22963789 -0.385189 0.19923216 0.005068254 0.21793193 -0.36731923
-0.33188483 0.022500344 -0.27663997 0.13197093 -0.265748 0.52940106 -0.73065454 -0.1688689
0.12410457 0.08526501 0.024768366 -0.21780568 0.87230396 -0.43190998 0.32464454 0.039254867
0.15515387 0.36820093 -0.59739995 0.41150808 -0.36485788 -0.25298834 0.26510775 -1.288393
0.15119876 -0.1208056 0.1720853 0.14082788 -0.40908533 -0.29719913 0.21075761 -0.08631783
-0.1408731 0.3442003 -0.38539886 0.881377 0.2596452 0.16844025 0.3837223 0.21029553
0.2774462 0.15253642 -0.7866319 -0.34609234 0.13237424 -0.28411573 -0.07258355 -0.5524806
-0.046093754 0.3848812 -0.15612927 -0.38442355 0.37912726 0.19675454 -0.4553538 0.0113925
-0.14706907 -0.18270814 0.18983157 -0.16048771 -0.5694122 -0.20079586 -0.24619184 -0.10241031
00000000: 6f75 ccbe 612a c1be d4ff 52be 6ce3 f93d
00000010: e3bd 003e 9566 243e 038d cb3e f5e0 cdbe
00000020: f229 2fbd 6950 683e d782 11be f54f 523e
00000030: 7904 133f e0d4 ecbd fa1a 2fbe acf7 abbe
00000040: 0edb 54be 97ab 933e 167a 173f 3454 48be
00000050: c0c1 a63c f42b c0be f61d b6be a627 f0bd
00000060: 8640 dfbe e111 1abe fab6 c1bd 7374 a13e
00000070: fea0 1c3d 5db9 83be 2356 72be 54c2 cdbe
00000080: 376d a1bd cbf9 f73d 39d3 d43d 39b2 ecbe
00000090: efab bebe cb9c 98bd e58e 843d 2f7f 533e
000000a0: 50ad af3e 595a a9be 7dab d03e 423b d3be
000000b0: 9205 65be 4abe bbbe 80f5 6cbd 2a5e 3dbd
000000c0: 9f6c 4e3f 9e37 42be 2d43 b9bd 5102 7dbe
000000d0: 4489 073c ced6 043e 572f ed3d e423 d4bd
000000e0: b2af e53e da15 a23e c1e3 853e 91b0 533e
000000f0: 8eff 273f 18a2 983b 57bf 263e 467f efbd
00000100: bed7 a2be dbc2 063e f554 c0be ef30 b3be
00000110: 5171 653e 1766 9b3e 9cda a0bd 180c 0dbe
00000120: ac4d 883e 99bf c43e 60c1 74bd 1c55 a9bd
00000130: e2f3 903d 5eac f7bd bd84 68be cce1 67be
00000140: 6ab5 acbc d286 40be 3ea1 a83e d356 a7be
00000150: 1dac f3be 36c3 783e 83fb 293e e5cb bb3e
00000160: 95ed a8be 9a4f 043f ea62 233e 3bb1 b63e
00000170: 5d73 57be b815 673e 6656 ae3e 9b8a 8f3d
00000180: 6124 0abf 642d 6fbe 8336 a7be 8c3b 37be
00000190: b88f 96be b9ec 4dbe 3c67 973f b0ca 5ebe
000001a0: c9e1 d0be 7b79 3fbd a6ad a13e 574b 30be
000001b0: 8102 293e d448 313e 45e6 59be e663 bebe
000001c0: 8449 c13e 46fd cdbe 5eed fcbd f554 943e
000001d0: 28b3 9b3d 5d32 50be 48c0 1c3e 7a8f 8fbe
000001e0: 901d 163f d27b 033e c87b 92be 6b5b c13e
000001f0: 4924 e9bd 5ee1 41bd d1b0 17bf ca3a d5be
00000200: 0aac 85be 3e00 00be 271d a9bb a178 4ebe
00000210: 87e8 ac3e bfa3 be3d bc9f a73e e913 c3bd
00000220: ed87 953e 5830 de3d 4cd0 3cbe e3eb 4abe
00000230: ed92 eebe edb6 08bd d577 9b3d cdc4 0bbe
00000240: 753a c63d 0846 cabe c2a9 aabe 0a92 abbe
00000250: 77f8 ccbe ef89 a4be a78d 563f 2c49 0ebd
00000260: 975d ab3e 4bcb 013e 04d4 113e 5414 8cbe
00000270: 1216 7bbf 3f2d 01bd dab8 ab3e 1aa3 f9bc
00000280: 5ac1 52be bad8 aebe 1d45 16bf 01cb 8d3e
00000290: 7055 c6be f427 503e 9a7a a3bc b1e5 a03e
000002a0: ca01 0dbe a65c 91be 9642 89be a14c fabd
000002b0: c36a 293e a633 dfbd 3ab7 abbe 2e5e 663e
000002c0: 9f58 e2bd 54d1 9fbe f986 a23e 25d0 8dbf
000002d0: ed2a 1b3d f6f6 723d c45e 83be a4fa dd3d
000002e0: 3aa8 ae3e 4a96 a2be 3226 6bbe 7e37 c5be
000002f0: 8403 4c3e 9913 a63b 8c29 5f3e 4411 bcbe
00000300: cfec a9be a452 b83c c1a3 8dbe 6323 073e
00000310: 1f10 88be d486 073f 2d0c 3bbf f8eb 2cbe
00000320: 892a fe3d 6c9f ae3d 07e7 ca3c 7408 5fbe
00000330: 504f 5f3f 4e23 ddbe cf37 a63e b6c9 203d
00000340: a8e0 1e3e d584 bc3e 34ef 18bf 30b1 d23e
00000350: a7ce babe b087 81be 34bc 873e 10ea a4bf
00000360: d9d3 1a3e ed68 f7bd 2137 303e 2f35 103e
00000370: a273 d1be 7c2a 98be d8d0 573e 67c7 b0bd
00000380: 0a41 10be 063b b03e 0053 c5be eca1 613f
00000390: 37f0 843e 9a7b 2c3e 4077 c43e b657 573e
000003a0: 6e0d 8e3e 8232 1c3e b560 49bf 0433 b1be
000003b0: 1d8d 073e 9e77 91be afa6 94bd 5e6f 0dbf
000003c0: cecc 3cbd 260f c53e 5ae0 1fbe 2ad3 c4be
000003d0: f81c c23e 067a 493e 2224 e9be 9ca7 3a3c
000003e0: 4699 16be d817 3bbe 3563 423e e456 24be
000003f0: ffc4 11bf 6e9d 4dbe b719 7cbe 7fbc d1bd

actor.0.bias f4 [64]
0.237942 -0.009698132 -0.30610478 0.19391009 -0.21139506 -0.1776002 -0.03135781 0.17456672
-0.2729369 0.3272428 -0.21879193 0.19845442 0.3789372 0.31908292 -0.3386155 -0.29478553
-0.21124326 -0.2777137 0.30376664 0.25038674 0.39376068 0.079987355 0.23085742 0.1197395
0.105248354 -0.31422457 -0.014280923 0.23686434 -0.09034859 -0.1421838 0.36348608 -0.014673941
0.27635247 0.026625847 0.1850919 0.119509645 0.07060198 0.23833586 0.00922379 0.1434194
-0.21077572 0.40949208 0.2864942 -0.35605723 0.011676416 -0.03418121 0.23351575 -0.004347267
-0.13305937 -0.042879313 -0.37951532 0.21188976 -0.27440864 0.049501576 0.1593181 0.101421475
0.39843917 0.1737672 -0.34723866 0.2780333 -0.09791992 -0.14682356 -0.1945669 0.31767774
00000000: 11a7 733e eae4 1ebc c4b9 9cbe 5e90 463e
00000010: f277 58be d4dc 35be 0c71 00bd 9ec1 323e
00000020: 63be 8bbe 5e8c a73e fe0a 60be a337 4b3e
00000030: 0f04 c23e d65e a33e 035f adbe 21ee 96be
00000040: 2750 58be 7d30 8ebe 4d87 9b3e b132 803e
00000050: 009b c93e 69d0 a33d e365 6c3e fc39 f53d
00000060: 738c d73d 0be2 a0be 88fa 69bc 918c 723e
00000070: ae08 b9bd a198 11be d91a ba3e f86a 70bc
00000080: 127e 8d3e 731e da3c bb88 3d3e 79c1 f43d
00000090: c597 903d 510e 743e 611f 173c 89dc 123e
000000a0: 97d5 57be f2a8 d13e 5eaf 923e 224d b6be
000000b0: 704e 3f3c 9901 0cbd c11e 6f3e 8573 8ebb
000000c0: b740 08be 38a2 2fbd d54f c2be a1f9 583e
000000d0: 4a7f 8cbe 2ac2 4a3d 4924 233e 10b6 cf3d
000000e0: 3800 cc3e 07f0 313e 44c9 b1be 615a 8e3e
000000f0: 3d8a c8bd ea58 16be 8c3c 47be a8a6 a23e

actor.2.weight f4 [64, 64]
0.14046936 -0.12731361 0.12694901 -0.016428946 0.001763353 0.12590662 -0.083739966 0.027986016
-0.13505422 0.056270182 -0.007582546 0.06672469 0.003331791 -0.04810035 0.008577435 -0.00016913767
-0.17129473 0.04623394 -0.0805182 -0.03366593 0.049413074 -0.08624233 0.03350906 -0.08506249
-0.11791373 0.01825566 0.050141 0.009592087 -0.046341248 -0.040792514 -0.05542754 0.017229544
-0.088380545 0.07045395 0.09646686 -0.04062786 -0.08475082 0.06099377 -0.05981007 -0.14123443
-0.10426483 0.1551189 0.22695675 -0.027372025 0.09969238 -0.0045268945 0.08604847 -0.11948008
-0.13558343 0.092647634 -0.16228141 -0.14990523 -0.047469962 -0.035451517 0.01998769 -0.09419925
0.08298433 0.02473964 -0.11720212 0.14091448 -0.08429004 0.10490387 0.11898258 0.011594322
-0.11649423 -0.1396402 0.04256783 -0.007993601 -0.1560056 -0.05281721 -0.018338531 -0.0033445565
0.15605491 0.15442714 -0.14012957 0.012793132 -0.06422455 -0.18320571 -0.01289473 -0.033792537
0.120014206 0.015630657 -0.055785865 -0.10852693 0.09520939 -0.08087441 -0.1042402 -0.11535066
0.054271284 -0.12824759 0.049487144 0.17000069 -0.11045632 0.019831503 -0.031026049 0.11442206
0.035343923 0.17768924 -0.0782041 0.032165494 -0.1761984 -0.0140874535 -0.037624586 0.1356229
0.061005227 -0.04213853 0.09033124 0.036404397 -0.018030101 0.053847186 -0.099514544 0.037829332
0.054288898 0.21866843 -0.07616524 -0.10339265 -0.12889346 -0.08559071 -0.20152883 0.0069993674
0.08846401 -0.10899854 -0.19477952 0.024069874 -0.119651705 -0.24086797 -0.062673435 0.14397411
-0.19344038 0.039922204 -0.20775792 0.07729145 -0.046384048 -0.121185176 0.014324778 -0.26431972
-0.07101724 0.09561223 0.1968639 -0.078070916 0.0177077 -0.041924175 0.055589907 0.036082864
-0.1360229 -0.052377246 -0.04422251 0.036341935 0.085800216 -0.038374778 -0.017631764 -0.048591033
-0.14257342 0.11986139 0.055632826 0.032431252 -0.11495479 0.3457251 -0.1178012 0.083978556
0.07957449 0.058340795 -0.023692533 0.14228402 -0.026235117 0.27404046 0.1018328 -0.115746245
0.16026776 0.03512247 -0.14565556 0.04955704 -0.04386102 -0.082251966 -0.07447004 0.23088445
-0.082026586 -0.042585198 0.17318429 -0.04363285 -0.0043539754 -0.19549304 -0.048389234 -0.024744526
-0.058901813 0.09407584 -0.09299977 -0.011345627 0.047612306 0.07168945 -0.17427585 0.028500345
0.009982305 0.032681532 -0.057677053 -0.062018093 -0.05096475 0.05359935 -0.056047995 -0.05441261
-0.16462755 -0.19818227 0.012875906 0.0544638 0.06784618 0.050224513 0.086154945 -0.13233453
-0.02564863 0.03236013 -0.052122135 0.037015066 -0.12896287 0.12595868 -0.07547002 0.17367986
-0.0071834065 -0.09083117 0.108962245 0.078008346 -0.025954347 -0.08909846 0.067270234 -0.07890631
0.061400946 0.07438872 0.02389443 -0.07260592 0.11118305 0.027104162 -0.016582629 0.10982187
-0.19300182 0.1108625 -0.039366838 0.1267433 0.009482696 -0.08299906 0.010959251 0.023584666
0.121718444 -0.1011114 0.13939129 -0.10546083 -0.06806744 0.038997687 0.0055793608 0.015931414
-0.057319097 -0.098161 -0.00437565 0.06520716 -0.10122343 0.107891224 0.07293963 -0.012825836
00000000: 33d7 0f3e 805e 02be ecfe 013e ff95 86bc
00000010: 4f20 e73a aaed 003e dc7f abbd ee42 e53c
00000020: a74b 0abe 907b 663d 0277 f8bb f4a6 883d
00000030: 2d5a 5a3b df04 45bd 5f88 0c3c 8c5a 31b9
00000040: e367 2fbe cd5f 3d3d bae6 a4bd 49e5 09bd
00000050: 5d65 4a3d d29f b0bd cc40 093d 3e35 aebd
00000060: c17c f1bd e58c 953c a660 4d3d 2128 1d3c
00000070: 52d0 3dbd 0d16 27bd fd07 63bd f924 8d3c
00000080: dc00 b5bd 294a 903d 6b90 c53d 6669 26bd
00000090: d791 adbd 9ad4 793d 67fb 74bd c29f 10be
000000a0: cd88 d5bd 7dd7 1e3e 5a67 683e 4c3b e0bc
000000b0: 852b cc3d 5856 94bb 2e3a b03d f9b1 f4bd
000000c0: 62d6 0abe 0bbe bd3d 192d 26be c280 19be
000000d0: dd6f 42bd 9c35 11bd 39bd a33c 89eb c0bd
000000e0: b0f3 a93d c9aa ca3c aa07 f0bd e34b 103e
000000f0: 42a0 acbd d7d7 d63d 24ad f33d 1cf6 3d3c
00000100: 8794 eebd d7fd 0ebe 9b5b 2e3d 98f7 02bc
00000110: efbf 1fbe dc56 58bd b03a 96bc 5930 5bbb
00000120: dccc 1f3e 2622 1e3e 207e 0fbe 499a 513c
00000130: 2988 83bd 479a 3bbe 6b44 53bc 0b6a 0abd
00000140: 02ca f53d dd0b 803c b87f 64bd 5e43 debd
00000150: 24fd c23d 7ca1 a5bd e37b d5bd f83c ecbd
00000160: 914b 5e3d 5653 03be 08b3 4a3d a914 2e3e
00000170: ec36 e2bd ad75 a23c 572a febc 1d56 ea3d
00000180: cac4 103d 2bf4 353e 7929 a0bd f7bf 033d
00000190: 5a6d 34be 10cf 66bc 3d1c 1abd bbe0 0a3e
000001a0: 9ee0 793d 7499 2cbd 96ff b83d c71c 153d
000001b0: ddb3 93bc de8e 5c3d 48ce cbbd eef2 1a3d
000001c0: 095e 5e3d 9eea 5f3e 85fc 9bbd 87bf d3bd
000001d0: a6fc 03be 2f4a afbd 935d 4ebe f35a e53b
000001e0: 9e2c b53d a03a dfbd 4874 47be 2f2e c53c
000001f0: f40b f5bd 18a6 76be ee5a 80bd f36d 133e
00000200: 3c15 46be 7785 233d 7ebe 54be fb4a 9e3d
00000210: 33fd 3dbd ef2f f8bd 79b2 6a3c ea54 87be
00000220: 7d71 91bd 58d0 c33d b196 493e a5e3 9fbd
00000230: bd0f 913c afb8 2bbd 3eb2 633d a0cb 133d
00000240: 9649 0bbe 8689 56bd aa22 35bd 48db 143d
00000250: 06b8 af3d df2e 1dbd 7d70 90bc 6407 47bd
00000260: c4fe 11be e379 f53d 3fdf 633d a2d6 043d
00000270: 6b6d ebbd e102 b13e c141 f1bd f3fc ab3d
00000280: f3f7 a23d c2f6 6e3d d816 c2bc e7b2 113e
00000290: 07eb d6bc 084f 8c3e b78d d03d 5e0c edbd
000002a0: 3b1d 243e 94dc 0f3d bb26 15be 53fc 4a3d
000002b0: 9da7 33bd b873 a8bd c083 98bd f96c 6c3e
000002c0: 8efd a7bd d16d 2ebd 3957 313e 5cb8 32bd
000002d0: cbab 8ebb 542f 48be ca33 46bd 08b5 cabc
000002e0: 0743 71bd d6aa c03d aa76 bebd 02e3 39bc
000002f0: 1f05 433d ebd1 923d 5e75 32be 8e79 e93c
00000300: d28c 233c 12dd 053d c63e 6cbd af06 7ebd
00000310: 6ac0 50bd fe8a 5b3d 9592 65bd c2df 5ebd
00000320: 2094 28be 4bf0 4abe 77f5 523c 6f15 5f3d
00000330: f0f2 8a3d 38b8 4d3d 0172 b03d b482 07be
00000340: 131d d2bc 0e8c 043d 057e 55bd 1c9d 173d
00000350: d80e 04be 50fb 003e 0790 9abd 22d9 313e
00000360: c862 ebbb b105 babd 9927 df3d d7c2 9f3d
00000370: 369e d4bc 4179 b6bd fac4 893d a299 a1bd
00000380: 8f7f 7b3d 1d59 983d 40be c33c 6ab2 94bd
00000390: f0b3 e33d 8c09 de3c 4bd8 87bc 4aea e03d
000003a0: 45a2 45be e10b e33d 1f3f 21bd ffc8 013e
000003b0: 4f5d 1b3c 69fb a9bd 6e8e 333c a134 c13c
000003c0: 8547 f93d 7e13 cfbd 97bc 0e3e d9fb d7bd
000003d0: f166 8bbd 0abc 1f3d 12d3 b63b 9982 823c
000003e0: 6ec7 6abd a208 c9bd 9d61 8fbb 558b 853d
000003f0: 3b4e cfbd 13f6 dc3d 5f61 953d 7523 52bc

actor.2.bias f4 [64]
0.13868411 0.08806876 -0.02061037 0.03609242 0.06368054 0.058866713 -0.04798854 0.026838237
0.09715816 -0.0012469224 -0.10435024 -0.04121149 0.09902453 0.078882776 0.025552189 -0.10560366
0.06358932 0.09224666 0.073072754 -0.12673989 0.0109438915 -0.060444023 0.12495448 0.12476447
-0.041229717 0.09801443 -0.047886346 -0.09066458 0.11792762 0.009151947 0.026038641 0.08024676
-0.07057967 -0.0811126 -0.057103332 -0.0839321 0.027505249 -0.05079356 -0.042379092 -0.09755766
0.043668635 0.02878018 -0.03686088 0.026283396 0.001826923 -0.13119061 0.013910075 0.028102769
0.11567813 0.020879993 0.07842082 -0.015923752 -0.07430227 0.08263885 -0.027443683 0.019618355
0.089436896 0.068916656 -0.06798143 -0.12710276 -0.08227092 -0.06444997 -0.021681007 -0.11837614
00000000: 3503 0e3e 655d b43d 14d7 a8bc a5d5 133d
00000010: f16a 823d 391e 713d a28f 44bd dddb db3c
00000020: dbfa c63d c66f a3ba 94b5 d5bd 61cd 28bd
00000030: 5fcd ca3d 4b8d a13d d352 d13c bb46 d8bd
00000040: 1e3b 823d d1eb bc3d 2ba7 953d 1ac8 01be
00000050: 024e 333c 2794 77bd 22e8 ff3d 8484 ff3d
00000060: 7ee0 28bd cabb c83d 7924 44bd 5aae b9bd
00000070: 0984 f13d 0cf2 153c fd4e d53c 6a58 a43d
00000080: 138c 90bd 5d1e a6bd 2fe5 69bd 98e4 abbd
00000090: b052 e13c e80c 50bd b395 2dbd 4fcc c7bd
000000a0: e2dd 323d 69c4 eb3c 6ffb 16bd 4750 d73c
000000b0: 5d75 ef3a d556 06be 15e7 633c c737 e63c
000000c0: a8e8 ec3d 850c ab3c 189b a03d 8772 82bc
000000d0: ca2b 98bd 8f3e a93d 93d1 e0bc acb6 a03c
000000e0: b12a b73d 2d24 8d3d d939 8bbd 3a27 02be
000000f0: a87d a8bd 59fe 83bd 5e9c b1bc 316f f2bd

actor.4.weight f4 [64, 64]
0.019618027 -0.2632909 -0.15070745 0.049134523 0.04364664 0.008055696 0.12085032 0.13008662
0.04240659 0.05958788 0.11560141 0.075732745 0.032463927 0.11081542 0.014482094 -0.07712303
0.066493206 0.092731535 0.11126477 -0.06363737 0.03167314 -0.08059692 -0.001776254 -0.055961534
0.09712436 0.014405202 0.03313672 0.2887532 -0.012668588 0.14232898 0.024261577 0.0794124
-0.08897192 -0.050135843 -0.08925523 -0.012858202 0.10949196 0.062267017 0.007634411 -0.115395136
0.11900951 -0.08630994 -0.098833404 -0.0065688747 -0.04155817 0.19034728 0.071678534 -0.0148681635
0.07788637 0.047835648 -0.06043442 0.17146902 0.047392517 0.116849706 0.02278812 0.0637309
0.062921904 0.09523649 -0.059973802 0.12200596 -0.0022283925 0.24055181 0.003705184 0.09042508
0.044322386 -0.20346382 0.01338325 0.02465302 -0.12389241 0.03991472 0.16969486 -0.098590836
-0.082031086 0.045041826 -0.053041134 -0.01140277 -0.15875755 -0.06654312 -0.13928375 -0.044230137
0.07216815 -0.1137454 0.0552138 0.0023140109 0.04829206 -0.05657862 0.05217483 0.08137517
-0.01687011 -0.051048793 -0.15107161 0.2694537 -0.007579131 0.08928493 0.104187205 -0.05952528
-0.051469292 -0.2404349 -0.0377786 0.14270815 0.051340867 -0.15839294 0.030713089 0.029918315
0.051223498 -0.020267364 -0.026230603 -0.037294753 -0.109615035 0.05539833 -0.05610088 0.101089485
0.07863459 0.04802982 -0.005595312 0.08667294 -0.07053037 0.14272508 0.065111354 0.3741023
0.14022511 -0.07957142 -0.00036146597 -0.0067721857 -0.12646848 0.27474332 0.050000962 0.1853508
0.20449379 -0.088725045 -0.12127973 0.06293087 -0.5995609 0.10769314 0.031520024 0.083672024
-0.06679489 -0.08024784 -0.10698156 -3.649329e-05 -0.03965498 -0.033006854 -0.06444136 0.12632103
-0.12480879 0.04632185 0.04426293 0.05723822 -0.0058575585 0.12095948 -0.10581158 0.083200514
-0.15210037 0.14121707 0.065285884 0.19130561 -0.07615873 -0.18145896 -0.040387835 -0.09018677
0.108706445 0.08183385 0.16900735 -0.040204722 -0.10933001 -0.03700805 -0.04206098 -0.06469565
-0.10830518 -0.17380348 -0.20820266 0.12855026 -0.14496264 -0.08400912 0.047349043 0.0711672
-0.08874283 0.052218616 0.12930058 0.03505309 0.1124203 -0.04327284 0.064106114 -0.11918475
0.009802913 -0.10116212 -0.06879233 0.14579447 -0.075761974 0.13884997 0.04990044 0.14953722
-0.12706852 0.19499813 0.0708551 0.00886204 0.026480796 -0.044644292 -0.060900215 -0.07286466
-0.08512595 -0.12745099 -0.056959193 -0.06314362 0.06651156 -0.055638146 0.11251798 0.07787339
-0.011627628 -0.04862997 -0.10198375 0.22760013 -0.09509827 0.0035310993 -0.051124748 0.031980176
-0.022671247 0.1276133 0.08671269 -0.3370977 0.12594472 0.070037104 -0.1207827 -0.08155175
0.03091102 0.08083575 0.11388055 -0.08698856 0.04818726 0.007544274 -0.037211526 0.12762353
0.00436972 0.123795554 0.12401761 0.067475095 0.20859563 -0.22432384 0.05852581 0.057649326
-0.014525978 -0.04194436 0.10939701 0.098888114 -0.04976073 -0.15526119 0.053426415 -0.3337404
-0.11864316 0.10290928 0.0029041222 0.091439694 0.040134147 -0.070865035 -0.13059597 -0.2535408
00000000: fcb5 a03c 11ce 86be 0e53 1abe 4841 493d
00000010: d2c6 323d 0afc 033c 5f80 f73d 6d35 053e
00000020: 88b2 2d3d 6c12 743d 6fc0 ec3d c519 9b3d
00000030: e5f8 043d 32f3 e23d 4e46 6d3c aef2 9dbd
00000040: 972d 883d 08ea bd3d c9de e33d 4f54 82bd
00000050: b2bb 013d ff0f a5bd 32d1 e8ba ec37 65bd
00000060: 23e9 c63d cc03 6c3c 5fba 073d 76d7 933e
00000070: e98f 4fbc b0be 113e 37c0 c63c f8a2 a23d
00000080: e936 b6bd 3e5b 4dbd 72cb b6bd 35ab 52bc
00000090: 523d e03d b30b 7f3d 152a fa3b 4954 ecbd
000000a0: 42bb f33d 44c3 b0bd 2b69 cabd b73f d7bb
000000b0: e638 2abd 66ea 423e 32cc 923d 9999 73bc
000000c0: e482 9f3d 50ef 433d 158a 77bd 9395 2f3e
000000d0: a81e 423d e64e ef3d 27ae ba3c 5985 823d
000000e0: 33dd 803d 590b c33d 17a7 75bd 43de f93d
000000f0: 390a 12bb 3753 763e acd2 723b c930 b93d
00000100: 648b 353d d258 50be 6b45 5b3c 21f5 c93c
00000110: 4ebb fdbd 9e7d 233d 7dc4 2d3e fee9 c9bd
00000120: eaff a7bd c77d 383d a941 59bd afd2 3abc
00000130: 5791 22be c247 88bd 66a0 0ebe a92a 35bd
00000140: e5cc 933d 59f3 e8bd de27 623d a9a6 173b
00000150: e5cd 453d fcbe 67bd 46b5 553d 06a8 a63d
00000160: 2f33 8abc 8a18 51bd 84b2 1abe d6f5 893e
00000170: 5c5a f8bb 04db b63d 1a60 d53d c8d0 73bd
00000180: 77d1 52bd 9134 76be bcbd 1abd 1622 123e
00000190: cd4a 523d c231 22be 049a fb3c 4117 f53c
000001a0: bbcf 513d be07 a6bc 90e1 d6bc 62c2 18bd
000001b0: d97d e0bd 5ce9 623d 09ca 65bd 0108 cf3d
000001c0: 2c0b a13d ebba 443d e158 b7bb 9581 b13d
000001d0: 3a72 90bd 8626 123e 1a59 853d 568a bf3e
000001e0: 2c97 0f3e 57f6 a2bd 2483 bdb9 36e9 ddbb
000001f0: f480 01be 28ab 8c3e cfcd 4c3d 9acc 3d3e
00000200: d266 513e 7ab5 b5bd 8261 f8bd e6e1 803d
00000210: d37c 19bf 398e dc3d 241b 013d 3d5c ab3d
00000220: c2cb 88bd fb58 a4bd 2619 dbbd 5f10 19b8
00000230: 436d 22bd 3232 07bd d5f9 83bd 4d5a 013e
00000240: c09b ffbd fbbb 3d3d 0c4d 353d a072 6a3d
00000250: c3f0 bfbb 9bb9 f73d beb3 d8bd 0865 aa3d
00000260: 33c0 1bbe 359b 103e 9bb4 853d 9ee5 433e
00000270: 1cf9 9bbd 61d0 39be b76d 25bd d7b3 b8bd
00000280: 7ca1 de3d 8198 a73d 4310 2d3e b5ad 24bd
00000290: 6ae8 dfbd c195 17bd 2248 2cbd 277f 84bd
000002a0: 1bcf ddbd 8af9 31be 1433 55be aea2 033e
000002b0: 1671 14be f90c acbd 12f1 413d 1cc0 913d
000002c0: cdbe b5bd 30e3 553d 5f67 043e d493 0f3d
000002d0: 9d3c e63d dd3e 31bd 114a 833d 2217 f4bd
000002e0: 669c 203c 162e cfbd fee2 8cbd 254b 153e
000002f0: 1829 9bbd b02e 0e3e 6764 4c3d 4920 193e
00000300: 401e 02be 97ad 473e 7b1c 913d 1732 113c
00000310: 41ee d83c efdc 36bd 8172 79bd 113a 95bd
00000320: 8456 aebd 8382 02be 0b4e 69bd 7151 81bd
00000330: 3637 883d d3e4 63bd d46f e63d 157c 9f3d
00000340: ce81 3ebc 3830 47bd dbdc d0bd 0210 693e
00000350: e2c2 c2bd 046a 673b 2f68 51bd a5fd 023d
00000360: 0db9 b9bc 10ad 023e 6c96 b13d 1298 acbe
00000370: a7f7 003e 9d6f 8f3d ec5c f7bd 9b04 a7bd
00000380: 1b39 fd3c 378d a53d 353a e93d 0f27 b2bd
00000390: 0160 453d f535 f73b 1d6b 18bd beaf 023e
000003a0: de2f 8f3b 8688 fd3d f2fc fd3d 6230 8a3d
000003b0: 189a 553e 26b5 65be c2b8 6f3d b321 6c3d
000003c0: 5efe 6dbc d9cd 2bbd 8a0b e03d da85 ca3d
000003d0: e8d1 4bbd cafc 1ebe a8d5 5a3d 06e0 aabe
000003e0: 2ffb f2bd 1ac2 d23d 1653 3e3b bc44 bb3d
000003f0: b463 243d b021 91bd f3ba 05be 1ad0 81be

actor.4.bias f4 [64]
0.059812307 -0.09893961 0.07499375 0.026835948 0.03943879 0.014082328 -0.047979426 0.04744107
-0.09303751 0.079174176 -0.08795779 -0.06547708 0.038708523 0.08308436 0.012477266 -0.13116184
-0.007340639 0.10041208 -0.14317356 0.100555375 -0.14611746 0.006912491 0.052750155 0.07705236
-0.10414511 -0.098047756 -0.19003092 -0.058060076 0.11383681 0.06955515 0.10834932 -0.03630841
-0.08614653 -0.14853692 -0.019769358 -0.1016313 -0.07489592 0.01191712 -0.07804191 -0.119851455
-0.09810853 0.09993355 0.093180425 -0.016868573 0.034933787 0.03422673 0.074283175 -0.08917687
-0.04196214 0.022228906 0.12788904 -0.05658673 0.07552789 -0.053950477 -0.01841309 -0.027156377
0.076190785 -0.054689433 -0.058978613 0.09959984 0.07807807 -0.025900424 0.106671534 -0.054590676
00000000: c0fd 743d daa0 cabd 5396 993d 10d7 db3c
00000010: 928a 213d 91b9 663c 1386 44bd 9151 423d
00000020: 738a bebd 1226 a23d 3723 b4bd d918 86bd
00000030: d48c 1e3d 2228 aa3d 726d 4c3c 4a4f 06be
00000040: be89 f0bb d9a4 cd3d 179c 12be faef cd3d
00000050: d19f 15be 2d82 e23b 8c10 583d a1cd 9d3d
00000060: 084a d5bd 43cd c8bd 7797 42be 67d0 6dbd
00000070: 4623 e93d ee72 8e3d 40e6 dd3d 21b8 14bd
00000080: 986d b0bd 101a 18be 59f3 a1bc 1224 d0bd
00000090: 0863 99bd 0640 433c 70d4 9fbd ae74 f5bd
000000a0: 20ed c8bd f6a9 cc3d 61d5 be3d f62f 8abc
000000b0: bb16 0f3d 5431 0c3d c721 983d 5da2 b6bd
000000c0: 7ee0 2bbd 6519 b63c 58f5 023e 7dc7 67bd
000000d0: 5eae 9a3d 2dfb 5cbd 0cd7 96bc 0d77 debc
000000e0: ea09 9c3d 0702 60bd 8f93 71bd 00fb cb3d
000000f0: 65e7 9f3d 202d d4bc 9b76 da3d 799a 5fbd

actor.6.weight f4 [64, 64]
0.10284607 -0.14207342 -0.18799849 -0.00800834 -0.070325956 0.0138950655 0.042849228 0.074386545
0.20134158 -0.21701026 -0.20854911 -0.1546048 0.14807191 -0.16998686 -0.020229451 -0.10493265
-0.08778802 -0.022835169 0.03675269 0.0266811 -0.10771279 -0.0940427 -0.14075541 -0.021467675
-0.4157181 0.102999635 0.15823609 0.024274692 -0.012911064 -0.06033421 -0.11570356 -0.09189854
0.076561764 -0.15609473 -0.15410945 -0.07981943 0.04062831 0.23948137 0.11061416 -0.28325683
-0.13827103 -0.2575664 -0.26926956 0.17362954 0.12890758 0.07866563 -0.22277667 0.4851511
0.087082505 0.011675877 -0.06472465 -0.15455036 -0.15320462 -0.016691303 -0.10444124 0.081899956
0.102129824 0.0010196493 -0.012473214 -0.008993296 -0.079971105 -0.23452498 0.044749223 -0.076579586
-0.07639698 0.024907993 -0.1541962 0.11785792 -0.12983048 0.037546147 0.10891535 -0.010555415
0.0739355 -0.15806463 -0.1319655 0.029225055 -0.052072365 0.019602822 -0.055748403 -0.11343312
0.10922877 -0.09618396 -0.009746177 -0.04472808 -0.08204038 0.14009567 0.088005334 0.14469959
-0.35477018 -0.17228329 0.01360919 -0.12150199 0.08781327 -0.07190813 -0.0041472265 -0.3366365
-0.13246031 -0.12251959 -0.15668292 -0.119786136 -0.022626141 0.022566617 0.12640393 -0.1527863
0.09543139 -0.22797956 -0.08161279 0.1726045 0.14048856 0.13954446 -0.015950477 0.44561574
-0.100680016 -0.032654542 0.14342083 -0.2545013 0.010668289 -0.03914381 0.011285736 0.08825342
0.15733653 -0.09951552 -0.08215171 0.011665413 0.11463023 -0.19580495 -0.026095256 0.08412149
-0.026735459 -0.09714178 -0.19152565 -0.06870584 -0.14434715 0.055816207 0.060611594 0.1062932
0.070032574 -0.03305989 -0.013806944 0.07622605 -0.039644096 -0.13507457 0.08082138 -0.023669006
-0.05693938 -0.061572578 0.17546378 0.061566506 0.016663704 0.14345358 -0.11832052 -0.04988152
-0.26629752 -0.13702822 0.011220639 -0.19712125 0.14449108 -0.07888789 -0.024234965 -0.20875798
-0.1802903 -0.018294962 -0.11399948 0.03818348 -0.049331788 0.0840382 -0.045930497 -0.10268848
0.03705336 -0.2151542 -0.15008487 0.027649501 0.13103151 0.14478509 -0.088008314 0.58589804
0.07812234 -0.021260511 0.04851095 -0.19863275 0.16302334 0.11939008 0.022215221 0.060966536
0.12875809 -0.0059191934 0.1373038 -0.12224305 -0.04853597 -0.18408638 0.048121333 0.074521996
-0.13944568 -0.10898535 0.08173065 0.0123654585 -0.04620038 0.0730033 -0.16330227 -0.030615374
0.5042368 -0.033446938 -0.15638168 -0.011887558 0.10326572 -0.07656777 -0.052186344 -0.03725146
0.12034811 -0.123112686 0.3201332 0.038601525 -0.13597836 -0.08492876 -0.02721247 -0.04706775
-0.07930487 -0.27010915 -0.094270416 -0.013894528 0.06810355 0.098467514 0.07399777 -0.39440045
-0.056640998 0.076009125 -0.3241052 0.10261519 -0.132201 0.12923032 0.14238201 -0.16650496
0.02360587 -0.23639707 -0.11444651 0.023291305 0.05175925 0.40553617 0.10242042 0.7664848
-0.28669265 -0.022185063 0.11898171 0.013539971 -0.18543717 0.044602934 -0.009785574 0.13387927
0.05119897 -0.3169803 0.055118002 -0.14228867 -0.15322702 -0.20955318 -0.06582158 -0.050071258
00000000: f6a0 d23d b27b 11be ad82 40be 6a35 03bc
00000010: 0e07 90bd 21a8 633c ac82 2f3d f957 983d
00000020: 7d2c 4e3e f037 5ebe e68d 55be b850 1ebe
00000030: 2aa0 173e 0911 2ebe 3cb8 a5bc eee6 d6bd
00000040: 35ca b3bd d210 bbbc fd89 163d 5292 da3c
00000050: 8698 dcbd 7699 c0bd 3022 10be fadc afbc
00000060: 01d9 d4be 79f1 d23d a408 223e b8db c63c
00000070: ed88 53bc 0121 77bd fdf5 ecbd 4d35 bcbd
00000080: 6acc 9c3d 4cd7 1fbe dece 1dbe 5f78 a3bd
00000090: df69 263d 9b3a 753e ad89 e23d 0a07 91be
000000a0: ec96 0dbe bedf 83be b3dd 89be f1cb 313e
000000b0: 5900 043e 721b a13d 911f 64be ba65 f83e
000000c0: 5058 b23d 2d4c 3f3c 5b8e 84bd 7342 1ebe
000000d0: ace1 1cbe 33bc 88bc 4ae5 d5bd 2abb a73d
000000e0: 7129 d13d c1a5 853a 745c 4cbc 9e58 13bc
000000f0: e4c7 a3bd 5127 70be f64a 373d c2d5 9cbd
00000100: 0576 9cbd d90b cc3c 9ce5 1dbe 7e5f f13d
00000110: 48f2 04be fdc9 193d 030f df3d 9ff0 2cbc
00000120: 7f6b 973d b2db 21be f721 07be 6269 ef3c
00000130: d549 55bd 1996 a03c 7058 64bd a04f e8bd
00000140: 55b3 df3d 19fc c4bd 6eae 1fbc cb34 37bd
00000150: c904 a8bd 3d75 0f3e 243c b43d 212c 143e
00000160: 70a4 b5be 086b 30be 14f9 5e3c 09d6 f8bd
00000170: 72d7 b33d 9244 93bd 75e5 87bb 9f5b acbe
00000180: ada3 07be 8deb fabd 7d71 20be 6f52 f5bd
00000190: 755a b9bc a0dd b83c 0870 013e 0374 1cbe
000001a0: 8871 c33d 7973 69be 9b24 a7bd 3cbf 303e
000001b0: 3cdc 0f3e bee4 0e3e 93aa 82bc bf27 e43e
000001c0: 5331 cebd c5c0 05bd e9dc 123e ff4d 82be
000001d0: 0cca 2e3c 4255 20bd cfe7 383c 36be b43d
000001e0: d41c 213e cbce cbbd 283f a8bd 4a20 3f3c
000001f0: 41c3 ea3d 1881 48be b8c5 d5bc e347 ac3d
00000200: 5204 dbbc 45f2 c6bd 4d1f 44be a6b5 8cbd
00000210: bdcf 13be 899f 643d dd43 783d 40b0 d93d
00000220: 3d6d 8f3d cf69 07bd 8536 62bc 671c 9c3d
00000230: d961 22bd fd50 0abe ae85 a53d 81e5 c1bc
00000240: 4439 69bd 8733 7cbd c7ac 333e 292d 7c3d
00000250: 5282 883c 7fe5 123e 0752 f2bd 9150 4cbd
00000260: 2658 88be 2051 0cbe c5d6 373c 27da 49be
00000270: 78f5 133e f98f a1bd 6888 c6bc a7c4 55be
00000280: 059e 38be 51df 95bc 8f78 e9bd 4866 1c3d
00000290: 2110 4abd 381c ac3d 9e21 3cbd 564e d2bd
000002a0: 44c5 173d 6251 5cbe d9af 19be 3581 e23c
000002b0: 202d 063e 8b42 143e b43d b4bd 6afd 153f
000002c0: 9bfe 9f3d 862a aebc 6bb3 463d 6266 4bbe
000002d0: 97ef 263e c982 f43d b2fc b53c 0cb8 793d
000002e0: 29d9 033e cbf5 c1bb 5e99 0c3e 905a fabd
000002f0: a7cd 46bd 2481 3cbe e01a 453d fd9e 983d
00000300: d9ca 0ebe b633 dfbd 6662 a73d 7e98 4a3c
00000310: 9c3c 3dbd c182 953d b638 27be 18cd fabc
00000320: aa15 013f a8ff 08bd 8522 20be 08c4 42bc
00000330: fa7c d33d 90cf 9cbd 59c1 55bd fd94 18bd
00000340: 1279 f63d 8122 fcbd 80e8 a33e a21c 1e3d
00000350: e93d 0bbe 21ef adbd b0ec debc 1dca 40bd
00000360: 976a a2bd bf4b 8abe d910 c1bd e0a5 63bc
00000370: e079 8b3d 56a9 c93d 258c 973d dbee c9be
00000380: 6400 68bd acaa 9b3d 1ef1 a5be ea27 d23d
00000390: b35f 07be f454 043e 97cc 113e 4780 2abe
000003a0: 1961 c13c 1312 72be ef62 eabd 68cd be3c
000003b0: 8201 543d 70a2 cf3e ccc1 d13d 5938 443f
000003c0: 61c9 92be 73bd b5bc afac f33d c1d6 5d3c
000003d0: 3ee3 3dbe 91b1 363d ac53 20bc a617 093e
000003e0: 03b6 513d 3e4b a2be 6ac3 613d 1fb4 11be
000003f0: 8be7 1cbe 1c95 56be 77cd 86bd 8517 4dbd

actor.6.bias f4 [64]
-0.1303097 0.08557644 0.08528474 0.06110406 -0.03513066 0.049139395 0.10777978 -0.022665096
0.03803148 -0.14245449 -0.026780618 -0.13713199 0.047781523 0.015985504 0.038590718 0.11522369
-0.0062116673 -0.10888897 -0.0039854418 0.095500186 -0.015784603 -0.0046643764 -0.080323584 0.005649556
-0.034084804 -0.024240293 0.11228918 -0.072405964 0.13985178 0.09075947 -0.04373885 0.044117477
0.07769451 -0.015050038 0.11316185 -0.010969493 0.11837965 -0.09446728 0.041916106 0.1207603
0.011381828 0.09043492 -0.009888 0.09752567 -0.13281389 -0.04708989 -0.11911222 0.024753157
0.122973934 -0.016146805 -0.0460317 -0.03930475 -0.06819996 0.0019948282 -0.012961249 -0.039824743
0.019339647 -0.10497089 -0.060357694 0.053377032 -0.048976008 -0.16856883 0.08386665 -0.042475484
00000000: e86f 05be b342 af3d c4a9 ae3d 4048 7a3d
00000010: 2be5 0fbd 6446 493d a5bb dc3d 27ac b9bc
00000020: e6c6 1b3d 97df 11be 0763 dbbc 546c 0cbe
00000030: 8fb6 433d 08f4 823c 4d11 1e3d 66fa eb3d
00000040: 3e8b cbbb 2e01 dfbd 4f98 82bb 9a95 c33d
00000050: b64e 81bc a0d7 98bb b180 a4bd e91f b93b
00000060: 829c 0bbd 9493 c6bc dff7 e53d 9449 94bd
00000070: 4e35 0f3e 1ae0 b93d 8227 33bd 87b4 343d
00000080: 4d1e 9f3d 6f94 76bc 66c1 e73d 63b9 33bc
00000090: 0871 f23d 1078 c1bd 39b0 2b3d 2d51 f73d
000000a0: d97a 3a3c f135 b93d 4701 22bc 8abb c73d
000000b0: 5d00 08be 54e1 40bd 1cf1 f3bd 22c7 ca3c
000000c0: c2d9 fb3d 4e46 84bc bc8b 3cbd 04fe 20bd
000000d0: 6cac 8bbd aabb 023b 6b5b 54bc 451f 23bd
000000e0: 2e6e 9e3c fafa d6bd a139 77bd e0a1 5a3d
000000f0: 119b 48bd 4f9d 2cbe 47c2 ab3d c6fa 2dbd

actor.8.weight f4 [1, 64]
-0.45458958 -0.163974 -0.1567104 -0.3461989 -0.107805245 -0.6316007 -0.14140613 0.20555805
-0.13978845 -0.4641163 -0.12774582 0.29694664 0.08683145 0.09284356 0.07774344 -0.13079455
-0.2552196 0.08264206 0.13237435 -0.15874174 -0.28018013 -0.52164334 -0.18613876 0.06269989
0.1967219 0.14234233 -0.023726111 0.20475657 -0.11440761 0.082042724 0.10614124 0.15168989
0.14953238 -0.06555465 0.117816105 0.17183976 0.106426574 -0.6103173 0.4435479 -0.14111562
0.108045965 0.11839957 -0.24956784 -0.092246346 -0.18605535 0.19364673 -0.4281439 -0.15506415
-0.13860582 0.45512044 0.55175585 -0.075577565 -0.5818799 -0.023066316 -0.33694428 -0.22292413
0.052714016 -0.3191708 -0.19556588 -0.23403993 0.02982803 0.35912433 -0.13992557 -0.25745806
00000000: f7bf e8be cde8 27be b178 20be fb40 b1be
00000010: ffc8 dcbd 95b0 21bf c5cc 10be cf7d 523e
00000020: b424 0fbe a7a0 edbe cdcf 02be 6409 983e
00000030: b0d4 b13d c424 be3d f437 9f3d 02ef 05be
00000040: 25ac 82be 3e40 a93d 248d 073e 328d 22be
00000050: c573 8fbe 6b8a 05bf 299b 3ebe cd68 803d
00000060: 7771 493e 30c2 113e 435d c2bc b5ab 513e
00000070: 894e eabd 0406 a83d 9460 d93d 9854 1b3e
00000080: 041f 193e 8441 86bd 9249 f13d c3f6 2f3e
00000090: 2df6 d93d c13d 1cbf b618 e33e 9d80 10be
000000a0: 3447 dd3d 797b f23d b68e 7fbe a7eb bcbd
000000b0: 4b85 3ebe 544b 463e ad35 dbbe 23c9 1ebe
000000c0: afee 0dbe 8c05 e93e df3f 0d3f 69c8 9abd
000000d0: 15f6 14bf 92f5 bcbc f683 acbe 3946 64be
000000e0: a7ea 573d 5b6a a3be 6c42 48be 2aa8 6fbe
000000f0: ea59 f43c 25df b73e a648 0fbe 8bd1 83be

critic.0.weight f4 [64, 6]
1.4334579 -0.07539853 0.17011525 -0.09270699 0.12373641 1.2896951 2.4442778 -0.43892232
-0.32868338 -0.11049573 0.30896962 -0.11737642 -0.75414115 -0.0519473 0.17505355 0.16385263
-0.060188603 -0.6741211 -0.420751 0.27435482 0.010889478 0.26066837 -0.20640524 0.05680136
0.60858303 0.39275014 -0.27659938 0.26668307 -0.2734007 -0.8965985 1.0372084 -0.30742165
0.009167615 -0.08872352 0.11131755 -1.6059978 1.1666765 0.31416014 -0.4130006 0.35980693
-0.15348668 -0.21833353 -1.0584263 -0.24819493 0.16831338 -0.2499105 0.34053993 -0.9108768
1.8133862 -0.21911268 -0.30485407 -0.040271234 0.21318667 0.7486647 0.3176219 -0.3356302
0.08431485 -0.039805558 -0.28509942 0.7210928 -1.0856591 0.02723901 -0.3733292 -0.21087782
-0.33353212 -0.36779082 -0.8027393 -0.5492176 -0.0977281 0.009244203 0.15931195 -2.5543902
-1.4218907 -0.17336166 0.30187556 0.3505339 -0.34660566 0.394666 0.39247015 0.22627571
-0.12204937 -0.16111635 -0.067516945 0.9059453 -0.59245914 0.06131988 -0.11485772 0.06849828
0.07112441 1.0901725 -0.96410626 -0.44087744 0.34436175 0.10552812 -0.25099394 -1.0074047
0.017165154 -0.49349752 0.077992246 0.32506445 0.06867892 -0.6604532 0.54220176 0.14823161
-0.23160243 0.36513472 -0.3872571 0.48515484 -0.15652938 0.4254423 -0.2735867 0.3120311
-0.3232594 1.389655 0.6255697 -0.23232818 0.122312926 0.17797042 0.306566 0.7016767
0.4227496 -0.23835263 -0.33459684 0.3083244 0.060057577 -0.07429139 -0.081110306 0.21424
-0.09277549 -0.23455055 -0.13632393 0.60110646 0.6830319 -0.110944465 -0.40158927 0.1319056
0.20859557 -0.23167755 -0.83176523 -0.24841149 0.29207334 0.31762993 -0.08828717 0.4956268
-0.32829213 -0.22489464 -0.24113122 -0.2549038 0.3840693 0.5665755 0.6859299 -0.24400426
-0.35422483 0.16330066 -0.023024838 0.95166755 1.3805737 -0.07632232 -0.26218942 -0.11817581
0.04208513 -0.66241646 -0.1776704 0.1864821 -0.31940284 0.21910605 -0.219055 -0.24574885
-0.14260693 0.2211865 -0.26171386 -0.12922697 0.39098978 0.5557541 0.7726666 0.3229141
0.0071095745 0.15915205 0.01431923 0.9736021 0.34900585 -0.3702093 -0.23146771 0.23646589
-0.1203647 0.7545431 0.22638981 0.27182752 0.15271325 0.093194 -0.09417052 -1.2917951
0.09308652 0.39559984 0.17386788 0.26225877 -0.2806783 -0.34204686 0.9048056 -0.4714465
0.11289277 0.23870869 0.0022826442 1.2049019 -1.7607862 0.086868756 0.21979271 -0.04597527
-0.16961649 0.08798388 -0.34545177 -0.034486093 -0.46386716 0.08444281 -0.17302276 -0.35206977
0.2638568 -0.075761266 0.308725 -0.3287047 -0.046428077 0.7034505 0.30595422 -0.3130892
0.14074759 0.10308505 0.21756238 -0.120545395 0.46001372 -0.28288743 -0.22753398 0.29088584
-0.2226022 -0.6681436 -0.32312214 -0.42873874 0.07564087 0.22347566 0.07218774 -0.01827381
-0.92680293 -0.34181276 0.04202394 -0.16366965 -0.20697863 1.3735318 -1.158339 0.04644255
0.18809877 0.20884763 -0.16153163 0.80694395 0.22070093 0.05751253 0.45114884 -0.09194001
00000000: 8c7b b73f 8b6a 9abd b132 2e3e 2add bdbd
00000010: 8469 fd3d bb14 a53f 0c6f 1c40 6dba e0be
00000020: 3049 a8be 964b e2bd 4431 9e3e 0c63 f0bd
00000030: 650f 41bf b1c6 54bd 3d41 333e fcc8 273e
00000040: 5388 76bd 3393 2cbf ad6c d7be 3c78 8c3e
00000050: c869 323c 5376 853e e55b 53be 8ba8 683d
00000060: 19cc 1b3f 8c16 c93e 6f9e 8dbe af8a 883e
00000070: 2dfb 8bbe 7b87 65bf 3fc3 843f 5f66 9dbe
00000080: c433 163c adb4 b5bd 75fa e33d 5691 cdbf
00000090: a855 953f 99d9 a03e d174 d3be 9d38 b83e
000000a0: 9d2b 1dbe d392 5fbe 837a 87bf d026 7ebe
000000b0: 585a 2c3e 8ae8 7fbe 405b ae3e 392f 69bf
000000c0: 0a1d e83f 135f 60be d515 9cbe 73f3 24bd
000000d0: 9b4d 5a3e 7da8 3f3f 569f a23e b9d7 abbe
000000e0: 44ad ac3d 270b 23bd 8df8 91be 8a99 383f
000000f0: e1f6 8abf 5824 df3c 0125 bfbe 5bf0 57be
00000100: b9c4 aabe 144f bcbe 5380 4dbf 8699 0cbf
00000110: ac25 c8bd ff74 173c ac22 233e 217b 23c0
00000120: 8400 b6bf b885 31be 6f8f 9a3e 2e79 b33e
00000130: 4c76 b1be a911 ca3e d9f1 c83e d2b4 673e
00000140: 05f5 f9bd affb 24be 5346 8abd 08ec 673f
00000150: 67ab 17bf 8e2a 7b3d 863a ebbd d448 8c3d
00000160: ada9 913d c68a 8b3f abcf 76bf b0ba e1be
00000170: 2f50 b03e 211f d83d 4782 80be a3f2 80bf
00000180: f09d 8c3c b5ab fcbe 66ba 9f3d d96e a63e
00000190: 89a7 8c3d 7613 29bf bccd 0a3f 07ca 173e
000001a0: 3029 6dbe f0f2 ba3e 9046 c6be 3766 f83e
000001b0: 3d49 20be 93d3 d93e 8e13 8cbe 8ac2 9f3e
000001c0: 4282 a5be 37e0 b13f 5625 203f 70e7 6dbe
000001d0: 337f fa3d e13d 363e 38f6 9c3e 16a1 333f
000001e0: a372 d83e b612 74be 4750 abbe b2dc 9d3e
000001f0: effe 753d 1626 98bd 291d a6bd bb61 5b3e
00000200: 1301 bebd 052e 70be 8098 0bbe 1de2 193f
00000210: 2edb 2e3f da36 e3bd 1c9d cdbe 4312 073e
00000220: 149a 553e e13c 6dbe 91ee 54bf 955f 7ebe
00000230: a38a 953e 64a0 a23e e7cf b4bd ccc2 fd3e
00000240: e815 a8be c84a 66be 1aeb 76be c082 82be
00000250: bba4 c43e 180b 113f 1a99 2f3f 41dc 79be
00000260: f55c b5be 4a38 273e 969e bcbc 7ca0 733f
00000270: a4b6 b03f e04e 9cbd b13d 86be 2906 f2bd
00000280: 7561 2c3d 2094 29bf 3bef 35be 2af5 3e3e
00000290: c588 a3be 565d 603e f44f 60be 96a5 7bbe
000002a0: 8d07 12be b77e 623e 5cff 85be 1354 04be
000002b0: d02f c83e e745 0e3f 7acd 453f ff54 a53e
000002c0: 6ff7 e83b c1f8 223e 349b 6a3c fd3d 793f
000002d0: e5b0 b23e 138c bdbe df05 6dbe 1d24 723e
000002e0: c581 f6bd bd29 413f bbd2 673e fa2c 8b3e
000002f0: dd60 1c3e 7fdc be3d 79dc c0bd 8b59 a5bf
00000300: 25a4 be3d 108c ca3e 6c0a 323e c846 863e
00000310: 11b5 8fbe c420 afbe 57a1 673f 7061 f1be
00000320: 5334 e73d 0d70 743e 6a98 153b 3a3a 9a3f
00000330: 7161 e1bf 3fe8 b13d 5711 613e 9150 3cbd
00000340: f2af 2dbe e430 b43d 0edf b0be 4a41 0dbd
00000350: ff7f edbe 5af0 ac3d e12c 31be 7d42 b4be
00000360: 3d18 873e b928 9bbd 3411 9e3e fc4b a8be
00000370: 5e2b 3ebd 5515 343f 08a6 9c3e 3a4d a0be
00000380: 2320 103e 411e d33d acc8 5e3e 81e0 f6bd
00000390: eb86 eb3e 9fd6 90be abfe 68be fdee 943e
000003a0: d5f1 63be 750b 2bbf 4470 a5be a583 dbbe
000003b0: 9ae9 9a3d ced6 643e 2ad7 933d f5b2 95bc
000003c0: f542 6dbf 1502 afbe 4b21 2c3d 0499 27be
000003d0: 35f2 53be e4cf af3f 7444 94bf 8b3a 3e3d
000003e0: f79c 403e 27dc 553e 8c68 25be e193 4e3f
000003f0: 6dff 613e 4292 6b3d fbfc e63e 0b4b bcbd

critic.0.bias f4 [64]
0.05577464 -0.18531315 0.018646609 -0.114982046 0.03299673 0.3192788 0.33992326 0.3322098
-0.54819894 0.07588958 0.2980488 -0.15786408 -0.34444577 0.104740836 0.534324 0.36825386
0.24029136 0.40757304 -0.16634113 -0.2878995 0.049893405 -0.39426824 -0.619138 0.04134025
-0.23273835 -0.07535152 -0.098021165 0.20890714 0.21101774 0.2557448 -0.03652958 -0.41223252
-0.20084816 -0.22060052 -0.33594763 -0.36253235 0.15296568 -0.41678807 0.0077647436 0.19111745
-0.4367033 -0.20340085 -0.007401512 -0.29093167 -0.06845009 0.17340215 -0.09798217 0.04564386
-0.32833907 -0.047980152 -0.3131893 0.27280742 0.29602972 -0.033844292 -0.065467924 -0.22349519
0.34054446 -0.14277034 -0.24370772 -0.42180568 -0.074889526 0.38244805 0.13467734 0.05319052
00000000: f373 643d bbc2 3dbe c6c0 983c b57b ebbd
00000010: 9427 073d 8378 a33e 6c0a ae3e 6717 aa3e
00000020: c456 0cbf ff6b 9b3d da99 983e 1fa7 21be
00000030: 325b b0be 5d82 d63d 75c9 083f c58b bc3e
00000040: f00e 763e 6aad d03e 5455 2abe 9067 93be
00000050: 075d 4c3d 87dd c9be d47f 1ebf 6554 293d
00000060: f652 6ebe e651 9abd 52bf c8bd c1eb 553e
00000070: 0915 583e fcf0 823e 0aa0 15bd 2410 d3be
00000080: 24ab 4dbe 1ae5 61be 5401 acbe d79d b9be
00000090: 09a3 1c3e 3f65 d5be 646f fe3b 4bb4 433e
000000a0: 9397 dfbe 5048 50be 6288 f2bb fff4 94be
000000b0: 902f 8cbd 5590 313e e0aa c8bd 0ef5 3a3d
000000c0: 0f1c a8be d686 44bd 595a a0be 6aad 8b3e
000000d0: 3591 973e 50a0 0abd 0c14 86bd ecdb 64be
000000e0: d85b ae3e 6332 12be 848e 79be eaf6 d7be
000000f0: ae5f 99bd 3bd0 c33e dbe8 093e 4dde 593d

critic.2.weight f4 [64, 64]
0.17618342 -0.1902125 0.16702181 -0.022685276 -0.15915996 0.19548425 -0.099998705 0.16888289
-0.10186958 0.07724968 0.09843878 0.047603227 0.2052803 -0.26289132 0.11476228 -0.020226719
0.01125779 -0.11239818 -0.35374728 -0.0298241 -0.081938945 0.09483083 -0.0364587 0.13446729
-0.14046499 0.10832368 -0.078612484 2.338984 0.06452629 -0.047962382 0.04460748 0.07284034
-0.11643508 0.03994483 -0.035036836 0.121820204 0.035371408 0.0053719943 -0.016543172 0.10218768
0.13489045 0.24424252 0.0914969 0.071517274 0.0279478 -0.038955696 0.056794453 0.09504692
-0.047035214 0.015067341 0.113241345 0.08194198 0.071730375 -0.04264403 -0.17044611 0.02592812
-0.03995757 -0.04159085 -0.15654835 0.14902966 0.059329994 0.026131773 -0.036756102 -0.041080285
-0.13416457 0.032728847 0.0319518 -0.006633649 -0.34509626 0.059676584 -0.12320474 0.14964536
-0.14810142 0.044942208 -0.12193758 -0.100701034 0.06350958 -0.07248694 0.096168 -0.055808075
0.011776489 -0.14159338 -0.16021329 -0.073098935 0.12796932 -0.059437763 -0.060753174 -0.035857037
0.04851729 -0.014035212 0.063291185 -0.24433811 -0.084951505 -0.10852032 0.122996174 -0.045461036
-0.115700684 -0.22861694 0.087082885 0.19004607 -0.07582336 -0.04634823 0.22110575 0.023015302
0.08917011 0.07836882 0.039055113 -0.07971765 0.08933553 0.03226576 -0.050463796 -0.116033286
-0.03801047 -0.059099793 0.16439608 -0.21808352 -0.036402 -0.062572464 0.032489702 -0.19674632
-0.08633645 -0.05247073 0.15519851 5.431332e-05 -0.1122337 -0.052573342 -0.22678298 0.006612799
0.18855734 -0.09928378 -0.02425096 0.076924734 -0.31574768 -0.202263 0.023296254 -0.03252841
-0.11864527 0.04697114 0.02177293 -0.09859936 0.35327312 -0.117919944 0.18882406 0.062070094
0.045522306 -0.034886196 -0.338093 0.1064904 0.108466305 -0.064983584 -0.10549746 -0.20232601
-0.11422361 -0.10796977 -0.10060966 1.3980037 -0.017920284 0.011085844 -0.048420258 -0.20045549
-0.14113295 -0.00087063416 0.12861219 -0.08024818 -0.026635695 -0.07737513 -0.13978882 -0.011452897
0.14492595 0.0843534 -0.05187442 -0.016279643 -0.16213855 -0.04705279 0.07097344 -0.054386117
-0.36258683 -0.20101325 0.038139608 -0.060822405 -0.03535543 0.008638584 -0.02524855 -0.05811756
-0.10858637 -0.14063151 -0.04116541 0.20765358 0.06255121 0.02565823 -0.08472596 -0.09515031
0.002726911 -0.1973343 0.16222781 -0.04648534 -0.07437191 -0.52834654 0.027377259 0.15331005
-0.32236266 -0.30281305 -0.10576858 0.014234101 0.13742086 -0.22469352 0.16948943 -0.07033366
0.15957582 0.10726451 -0.24160418 -0.14495069 -0.09719677 0.023117466 -0.10439094 0.17752051
-0.07730715 -0.23092036 -0.24520653 -2.383707 -0.11785786 0.011587895 -0.042563308 0.060791768
0.13715477 -0.049950324 0.03326747 -0.06223923 -0.08946523 -0.042827975 -0.13249937 -0.007964621
-0.28374684 0.019082362 -0.081438646 0.008166378 -0.030872444 0.028583279 0.06831327 -0.08241391
0.044229146 0.20606689 0.11339587 0.097656295 0.14666829 -0.05036999 0.03318699 0.021926748
0.15261152 -0.19562118 0.011651606 -0.12601852 0.06043553 -0.0561133 -0.008308036 0.022880923
00000000: 6d69 343e 11c7 42be c407 2b3e 79d6 b9bc
00000010: d4fa 22be 062d 483e 1fcc ccbd a3ef 2c3e
00000020: 00a1 d0bd 1535 9e3d 459a c93d 9afb 423d
00000030: 0035 523e b199 86be 7c08 eb3d 81b2 a5bc
00000040: 9872 383c 0431 e6bd 5d1e b5be ac51 f4bc
00000050: 9bcf a7bd ab36 c23d b855 15bd cbb1 093e
00000060: 0ed6 0fbe ced8 dd3d 95ff a0bd eab1 1540
00000070: 5c26 843d 3474 44bd 55b6 363d 512d 953d
00000080: 8475 eebd 319d 233d c982 0fbd df7c f93d
00000090: 9ce1 103d 8e07 b03b 8c85 87bc c647 d13d
000000a0: b920 0a3e b61a 7a3e ba62 bb3d a677 923d
000000b0: c9f2 e43c 0290 1fbd 4da1 683d f6a7 c23d
000000c0: ffa7 40bd 02dd 763c 14eb e73d 32d1 a73d
000000d0: 60e7 923d 82ab 2ebd 6d89 2ebe 3567 d43c
000000e0: 8daa 23bd 2b5b 2abd 364e 20be 3b9b 183e
000000f0: 0204 733d 4d12 d63c 918d 16bd cd43 28bd
00000100: 7062 09be af0e 063d e4df 023d 155f d9bb
00000110: 75b0 b0be 6f6f 743d c452 fcbd a23c 193e
00000120: e6a7 17be 5215 383d 69ba f9bd 583c cebd
00000130: 5011 823d 0874 94bd baf3 c43d 0297 64bd
00000140: 2df2 403c dbfd 10be f40e 24be e5b4 95bd
00000150: 640a 033e 0375 73bd 52d8 78bd d4de 12bd
00000160: 11ba 463d f2f3 65bc cf9e 813d c533 7abe
00000170: 0efb adbd e73f debd 6be5 fb3d 5a35 3abd
00000180: 7bf4 ecbd 8f1a 6abe 8358 b23d 709b 423e
00000190: 4749 9bbd a4d7 3dbd 8c69 623e 968a bc3c
000001a0: d29e b63d d57f a03d 41f8 1f3d 0243 a3bd
000001b0: 8cf5 b63d 1a29 043d 20b3 4ebd dca2 edbd
000001c0: deb0 1bbd a012 72bd 7257 283e 4951 5fbe
000001d0: 431a 15bd fe25 80bd ec13 053d de77 49be
000001e0: 2ad1 b0bd 8ceb 56bd 5cec 1e3e 7cce 6338
000001f0: c8da e5bd 2557 57bd cc39 68be 2eb0 d83b
00000200: 2d15 413e 4b55 cbbd f3a9 c6bc b78a 9d3d
00000210: aea9 a1be 081e 4fbe c9d7 be3c 833c 05bd
00000220: 4bfc f2bd cf64 403d 255d b23c 76ee c9bd
00000230: 37e0 b43e 0380 f1bd 185b 413e 363d 7e3d
00000240: 9975 3a3d d4e4 0ebd 871a adbe a417 da3d
00000250: 9523 de3d 1d16 85bd 0d0f d8bd 8d2e 4fbe
00000260: 11ee e9bd 411f ddbd 700c cebd c9f1 b23f
00000270: 8fcd 92bc 66a1 353c 5254 46bd 3444 4dbe
00000280: 2885 10be 453b 64ba eab2 033e 2859 a4bd
00000290: 1a33 dabc da76 9ebd cd24 0fbe efa4 3bbc
000002a0: 7867 143e 7ac1 ac3d 467a 54bd e35c 85bc
000002b0: a607 26be 6dba 40bd 865a 913d fac3 5ebd
000002c0: fba4 b9be 6bd6 4dbe 4738 1c3d ea20 79bd
000002d0: dbd0 10bd d988 0d3c 0cd6 cebc ae0c 6ebd
000002e0: 8862 debd b501 10be 109d 28bd 24a3 543e
000002f0: d91a 803d 3531 d23c ce84 adbd 2ade c2bd
00000300: fab5 323b 0112 4abe 0c1f 263e 6967 3ebd
00000310: 4d50 98bd b841 07bf 4646 e03c 4ffd 1c3e
00000320: b80c a5be 500a 9bbe 339d d8bd 2636 693c
00000330: 0eb8 0c3e 0f16 66be a38e 2d3e 180b 90bd
00000340: d867 233e 7fad db3d 1667 77be f46d 14be
00000350: 1a0f c7bd d760 bd3c ebca d5bd f0c7 353e
00000360: 3653 9ebd 6376 6cbe 6c17 7bbe a88e 18c0
00000370: 765f f1bd 28db 3d3c dd56 2ebd ca00 793d
00000380: 4d72 0c3e b698 4cbd 7843 083d 90ee 7ebd
00000390: 8c39 b7bd 636c 2fbd eaad 07be 0b7e 02bc
000003a0: 4447 91be 9d52 9c3c 4ec9 a6bd 46cc 053c
000003b0: 35e8 fcbc 7b27 ea3c d4e7 8b3d a0c8 a8bd
000003c0: 9f29 353d 3303 533e 183c e83d 0600 c83d
000003d0: 3630 163e c350 4ebd 15ef 073d b99f b33c
000003e0: 3246 1c3e eb50 48be 61e6 3e3c 000b 01be
000003f0: 3f8b 773d 0fd7 65bd 6e1e 08bc c670 bb3c

critic.2.bias f4 [64]
0.11418662 0.124353096 -0.085624635 0.14531869 0.057307277 0.14383908 -0.076541595 0.08557977
0.09608077 0.05172425 0.042033017 -0.013981938 -0.09298698 0.06712161 -0.15107751 -0.13275751
-0.051703095 -0.11669482 -0.065476306 0.09314187 -0.05229092 0.09778608 0.057785776 -0.09465821
-0.1108829 -0.10551464 0.019794744 -0.038458284 -0.23731516 0.096395776 0.037434813 0.031103803
0.10888075 -0.19170721 -0.10216658 0.08950334 -0.046841227 -0.004932322 -0.018451387 0.14817809
-0.15199992 0.04528772 0.0176028 0.050121818 -0.03691721 0.062333483 0.05992622 0.058254916
0.004248006 -0.03874737 -0.16313888 0.06929786 -0.14099158 -0.030685207 0.18481594 -0.12831357
-0.020123934 0.0030355577 -0.014500095 -0.22487496 -0.050429866 0.06846275 -0.04617306 0.13610145
00000000: adda e93d d6ac fe3d f85b afbd 6cce 143e
00000010: 09bb 6a3d 8d4a 133e d7c1 9cbd 7244 af3d
00000020: ffc5 c43d cfdc 533d d02a 2c3d 8014 65bc
00000030: f56f bebd 0e77 893d 10b4 1abe 96f1 07be
00000040: a0c6 53bd b2fd eebd 7118 86bd 2ac1 be3d
00000050: 012f 56bd 1144 c83d c7b0 6c3d 2adc c1bd
00000060: 9316 e3bd 0f18 d8bd 9628 a23c 6f86 1dbd
00000070: bf02 73be 266b c53d 3f55 193d 67cd fe3c
00000080: dffc de3d e54e 44be b63c d1bd 874d b73d
00000090: 96dc 3fbd 519f a1bb 5d27 97bc ffbb 173e
000000a0: dea5 1bbe 9e7f 393d bf33 903c 894c 4d3d
000000b0: 8036 17bd 6551 7f3d 3275 753d b59c 6e3d
000000c0: db32 8b3b 90b5 1ebd e10d 27be 09ec 8d3d
000000d0: 1960 10be 8b5f fbbc 6440 3d3e a264 03be
000000e0: f3da a4bc 35f0 463b ce91 6dbc 9f45 66be
000000f0: 8c8f 4ebd 3336 8c3d f61f 3dbd 2e5e 0b3e
