PPO/PPO2_Trained/PPO_DoubleInvPendulum_800K.pth (torch, 109673 bytes, 18 tensors)

actor.0.weight f4 [64, 6]
00000000: ae14 62be 4b29 bcbe cea4 42be 6e47 0f3e
00000010: 22eb 0b3e 427d e03d 0b1b 9f3e 050d cebe
00000020: d3a1 46bd 106f 653e fd2c 14be a2e4 6b3e
00000030: 995d 473f 5cd3 b8bd 5c79 1cbe bf65 b2be
00000040: 1f79 5ebe 1f42 063f 46eb 343f 0600 69be
00000050: 0700 96bc e007 c0be b408 b6be f8bb 453a
00000060: 4e6d f5be 3dab 46be bf40 0dbe 253c 933e
00000070: 6f02 7d3c fc96 7cbe eb49 83be 90ac c3be
00000080: e1e2 60bd 424d 183e a567 043e c061 06bf
00000090: 53dd 7fbe 7d79 b4bd b644 403d 7551 4e3e
000000a0: bb8e a93e b5f2 dabe 188f 283f 9c4d ddbe
000000b0: f766 80be b1be bdbe 52b9 78bd b13a 593d
000000c0: 5f6c 213f be44 6bbe 3f08 0cbe 55e9 67be
000000d0: 3386 0e3d be98 bf3e 26a1 aa3e 43de e0bd
000000e0: 1aad e43e 0189 a53e 0f3b 8a3e c03b 123e
000000f0: 45a1 183f 4518 a13c 26d2 303e 1c49 e5bd
00000100: 46cb a0be 589b 1c3e 64d1 d5be e131 b6be
00000110: 0763 643e 0474 9a3e 2bb2 a2bd 881f d6bd
00000120: a2bd 3b3f 2f72 bd3e 29e4 a5bd 8597 a9bd
00000130: 8679 853d 561e cbbe ccb2 66be 3e30 6ebe
00000140: 37b6 b6bc 46f3 41be 687a a83e 89bb d1be
00000150: f430 d8be e3e8 783e 3bcb 303e 5bcb bd3e
00000160: 0f76 a7be 30ac 073f a721 df3d 134e b83e
00000170: 4ef3 58be c857 673e dbf6 ad3e 4162 753d
00000180: 9772 0bbf e061 64be 1294 a0be 1117 5fbe
00000190: 9fb2 aabe 2765 87be 6293 b93f 6ccd 6dbe
000001a0: 1c77 ddbe e8d0 52bd 741d a03e 53f7 4abe
000001b0: 193b bb3d ad13 323e f549 5fbe efeb bfbe
000001c0: 273f bf3e 724d cbbe 5f7e d0bc ffae 903e
000001d0: 0cbf 7a3d a285 45be db03 283e df8e 83be
000001e0: 7cc4 0b3f e0d9 013e c8f1 95be e30f c23e
000001f0: 0e1a e6bd 56d9 103c e98a 4ebf bb26 ccbe
00000200: 174d 6abe e33d 28be e1c8 4fbd c164 f4be
00000210: 0494 d33d 458a b23d 39e4 a13e 6a13 cdbd
00000220: 13d7 933e 5701 fb3d 067e 23be c7ad 42be
00000230: 641d e7be 689d 0fbd 175d 953d cd3c 87be
00000240: a00d 2f3c a882 c6be 7465 a9be a5be b2be
00000250: d440 d3be ad95 c1be 74c1 813f 33cb 333c
00000260: d61a c33e 5db8 dd3d bdf6 f33d 3958 f3be
00000270: 7868 b1bf 32b6 11bd 06b0 ad3e ee81 043c
00000280: 647f 30be e97e 22bf 85f8 33bf 0167 6d3e
00000290: 052f dabe b33f 443e 4f69 1abd ce55 b73e
000002a0: 9324 2f3e ea43 8dbe fcaa 82be 0e72 0abe
000002b0: 6c1f 163e b916 95be 4213 073d b13a 693e
000002c0: 21d1 e5bd c568 9bbe 2919 a13e 2f69 d6bf
000002d0: ef57 d73e 35b5 8d3d ed8d 78be ae73 cd3d
000002e0: b6bd a63e 0172 dcbe a299 16be 40e5 c5be
000002f0: 90ea 4e3e 52be 0f3c 615a 603e f379 ddbe
00000300: 1438 1cbf 1606 0b3c e274 90be 3486 063e
00000310: fab8 86be b055 163f 6322 37bf 153f 2fbe
00000320: 2d8f 023e 5989 ae3d 6ec9 be3c a228 9dbe
00000330: c1c1 713f 7910 d1be 7f38 b43e c52e d63c
00000340: 5f4b 193e 428e fb3e 57a0 b0be 35a0 cb3e
00000350: 1797 c4be e213 77be 5a76 883e f36f d0bf
00000360: 6113 7a3d a418 1dbe beff 133e 5e59 093e
00000370: 0c8d d3be 33b3 73be 3e82 a93e 94c6 c2bd
00000380: 0535 12be f6d8 b13e 5e0f c7be c22f 653f
00000390: 5093 11be c4da 3d3e fe68 cc3e e71e 593e
000003a0: f65d 8f3e 3b53 bb3e 9fa4 3ebf bd2b b7be
000003b0: aa51 013e 6871 8fbe 4203 8fbd d4fe 52bf
000003c0: 3985 b6bd 5d29 c83e aee2 1fbe 6779 c7be
000003d0: b81d bf3e e108 723e 23b9 b4be 4eb1 cc3b
000003e0: f0ab 15be a071 38be a4b1 443e f124 3ebe
000003f0: 1d52 e4be 3a72 80be f190 96be be86 ddbd
-0.22078201 -0.36750254 -0.1900818 0.13992092 0.13663915 0.10961391 0.3107532 -0.40244308
-0.04849417 0.22405648 -0.14470287 0.23036435 0.77877194 -0.090246886 -0.1528067 -0.3484325
-0.21725892 0.5244464 0.706715 -0.22753915 -0.01831056 -0.37506008 -0.35553515 0.0007542963
-0.47934955 -0.1940126 -0.1379423 0.28756824 0.015442475 -0.24666971 -0.25642332 -0.38217592
-0.05490387 0.14873222 0.12930162 -0.52492905 -0.24986772 -0.088122346 0.046940528 0.20148261
0.33116707 -0.42763296 0.65843344 -0.43223274 -0.25078556 -0.37059548 -0.06072361 0.053034488
0.63055986 -0.22975442 -0.1367502 -0.22647603 0.03479595 0.3742122 0.33326072 -0.10979893
0.44663316 0.32331088 0.26998183 0.14280605 0.5962108 0.019664893 0.17267665 -0.11195585
-0.31405085 0.15293634 -0.41761315 -0.3558493 0.22303401 0.30166638 -0.07944139 -0.10455233
0.7333623 0.37001178 -0.08100159 -0.08280853 0.065173194 -0.39671582 -0.22529143 -0.2326059
-0.022303684 -0.18940458 0.3290589 -0.4096339 -0.42224848 0.24307589 0.17265026 0.3706921
-0.3270726 0.5299711 0.108950906 0.35997066 -0.21186563 0.2259208 0.33977398 0.059908155
-0.54471725 -0.22302961 -0.3136297 -0.21786143 -0.33339402 -0.2644436 1.4498103 -0.23222893
-0.43254936 -0.05146876 0.3127247 -0.19820909 0.09142131 0.17390318 -0.21805556 -0.3748469
0.3735287 -0.39707524 -0.025450883 0.2825851 0.061217353 -0.19289258 0.1640772 -0.2569494
0.54596686 0.12680769 -0.29286027 0.37902746 -0.11235438 0.008840879 -0.8068071 -0.398733
-0.2288097 -0.16429858 -0.050728682 -0.4773312 0.10330966 0.08717779 0.31619433 -0.100134686
0.28875026 0.12256115 -0.15966043 -0.19011603 -0.4513961 -0.035062224 0.07293146 -0.26413575
0.010684401 -0.38771558 -0.33085215 -0.34911075 -0.41260397 -0.37809506 1.0137162 0.010973739
0.38106412 0.1082618 0.11912296 -0.47528246 -1.3860006 -0.035574146 0.33923358 0.008087618
-0.17236096 -0.634749 -0.70301086 0.23183824 -0.42613998 0.19164924 -0.037698086 0.3580765
0.17103796 -0.27590877 -0.25521076 -0.13520071 0.14660424 -0.291189 0.03297735 0.22776295
-0.11221529 -0.3035337 0.31464508 -1.675085 0.42059276 0.06919328 -0.2427289 0.1003183
0.32566613 -0.43055728 -0.14707044 -0.38651466 0.20206666 0.008773403 0.21909477 -0.43257102
-0.6102307 0.008485338 -0.28214175 0.13137132 -0.26313 0.587245 -0.71536845 -0.17113908
0.1274993 0.08522291 0.023289409 -0.30695063 0.9443627 -0.4083288 0.35199353 0.026145348
0.14970158 0.49131972 -0.3449733 0.39770666 -0.38396522 -0.24128678 0.26652795 -1.6284164
0.061053637 -0.15341431 0.14453027 0.13412997 -0.41318548 -0.23798828 0.3310718 -0.09510532
-0.14278038 0.3473584 -0.38878912 0.89526 -0.14216352 0.18540484 0.39923853 0.21203195
0.28001374 0.36586937 -0.7446994 -0.35775557 0.12628809 -0.2801621 -0.06983043 -0.82420087
-0.08912129 0.39094058 -0.15613815 -0.3895981 0.3732736 0.236362 -0.35297498 0.0062467223
-0.1461637 -0.18012094 0.1920839 -0.1856878 -0.44593897 -0.25087148 -0.29407457 -0.10816716

actor.0.bias f4 [64]
00000000: 32a2 833e fe6d 70bc e8ca 94be fdcf 1f3e
00000010: 3709 83be d1a7 1bbe 6305 41bd cf33 173e
00000020: 87d8 a4be 0f07 a63e 39d1 54be 3e55 493e
00000030: f69d b83e 8898 a23e 5f5c aabe 6849 97be
00000040: 19e9 4abe fab5 9abe 4971 993e 9caa 713e
00000050: 016b c63e e56b ec3d 3986 613e 4e1b 093e
00000060: 2ac3 dd3d c5d4 87be e869 08bc 328d 4b3e
00000070: 524b 9dbd 5b3b 10be 64a1 c23e bed1 38bc
00000080: bdbc 893e 84ee f93c ce10 573e 1047 d33d
00000090: e575 293d 2efd 733e 41c0 cf3c 3d81 0c3e
000000a0: 8ef0 56be 11a4 d13e 058d 7e3e e812 afbe
000000b0: f2b4 153c d481 50bd ab06 523e 7eec 81bb
000000c0: bc2b 14be 9325 5abd b642 cabe eddf 473e
000000d0: 361b 8fbe dea6 b53d 2d7a 1e3e 89a2 5f3d
000000e0: 988e cf3e b758 303e 3d6f b2be d72a 873e
000000f0: 8a1c f3bd 6303 2ebe 272f 38be 13ab 9e3e
0.25709683 -0.014674662 -0.29061055 0.15606685 -0.25592968 -0.15200736 -0.047124278 0.14765857
-0.32196447 0.3242726 -0.20782937 0.19661424 0.36058015 0.31756997 -0.332736 -0.29548192
-0.19815482 -0.30216962 0.29969242 0.23600239 0.38753513 0.11544017 0.22023858 0.13389322
0.1082824 -0.26529518 -0.008326031 0.1987808 -0.07680382 -0.14085142 0.38013756 -0.011280475
0.26901808 0.03050924 0.21002504 0.103162885 0.0413722 0.23827049 0.025360228 0.13721175
-0.20990202 0.40945485 0.24858482 -0.34194112 0.009137379 -0.050905064 0.20510356 -0.0039649596
-0.14469808 -0.05325849 -0.3950402 0.19519015 -0.27950448 0.08869718 0.15476294 0.054598365
0.40538478 0.17221342 -0.34850493 0.26399872 -0.11870678 -0.1699348 -0.17986737 0.30989894

actor.2.weight f4 [64, 64]
00000000: 7b6c 073e 462a f3bd 0887 f13d 4e26 0fbd
00000010: 84bf 16bc 29ae e53d 8b6a b7bd 262e bcbd
00000020: 3159 05be b5f7 643d a671 b3bc 6ec7 733d
00000030: 55b0 0bbb 9e29 1abd 3bcb d9ba e89f a6bb
00000040: 0121 b4be 4235 7b3d 7e8c a9bd 69b3 21bd
00000050: 93f9 413d 34f8 b6bd 61ea 0f3d 0fee a6bd
00000060: b4af 2cbe 76cb 8e3c 894d 043d 2382 573b
00000070: 11fb 28bd 5133 83bd 1eef 81bd 4b78 6d3c
00000080: 1953 0dbe fb8d 953d c539 e53d 8ecf 68bd
00000090: 948e cbbd cd40 553e 7491 7bbd 13b6 1cbe
000000a0: 844d d4bd e2ca 133e 849b 523e 9911 a9bc
000000b0: a0a5 c13d dee9 b6bb 5887 873d 03dd 04be
000000c0: b887 30be e379 bd3d 594d 1dbe f5c5 41be
000000d0: 5e74 53bd bd00 4dbd 4266 79b9 7f02 01be
000000e0: 76ff 983d 766a 543c 2a4c d7bd c3e3 053e
000000f0: 6f46 cbbd b770 d33d 352d e33d c26b 85bb
00000100: 6154 e2bc 3458 0bbe 9d6c 193d be01 69bc
00000110: 85b8 97be 0bdf 5abd 054c 7dbc 74b8 c4ba
00000120: 1d53 1d3e 69dd 1f3e 6d7a 3bbe ab47 d33c
00000130: a09a 86bd 72a5 84be 10f8 12bb f69e cbbc
00000140: e89e fe3d 244b 763c 2608 7cbd 776b dfbd
00000150: b9aa d23d 8f9e a7bd c8e4 d7bd 7646 eabd
00000160: c4e6 6a3d 6127 03be d232 723d 26c4 3a3e
00000170: acd4 e2bd f00f d73d ee8f c6bc a50f 4bbe
00000180: d2f9 bf3d 9393 083e 7d6c a7bd e09e 0e3d
00000190: 409f 85be 42b6 823c bd4a 0fbd 6e85 023e
000001a0: fe34 493d 27bd 29bd 84a4 223e 92e0 243d
000001b0: eea3 f1bb 8ca6 743d 83b2 58be 6f6b 1a3d
000001c0: 16c0 763d 9e42 673e 2f55 98bd 8d7d cabd
000001d0: eb98 02be b8f4 b2bd 7e90 47be 2771 923b
000001e0: c80f b23d 5dd9 0ebe bd88 7fbe 5a00 bd3c
000001f0: d769 7bbe 04c5 71be 3662 8bbe 1189 8e3d
00000200: 681f 53be 9f9b 1e3d 656f 7abe 07fc 863d
00000210: 612d 32bd 228e 1fbe 59dc 653c 01fb 93be
00000220: c5ef 96bd 50d4 c23d b881 3e3e 7465 a3bd
00000230: a46b 7d3c 6162 45bd 12ef 803d 9cac 183d
00000240: d410 2ebe 79e9 44bd f872 3fbd e42f 103d
00000250: 69b7 a73d f255 06bd d775 a2bc 5db8 37bd
00000260: d5d2 22be ac1c ee3d 51c2 783d 6430 233d
00000270: 7b54 e7bd b316 c23e 6755 ecbd 3692 9c3d
00000280: 731a ef3d d775 683d ad3a 13bd e81a 153e
00000290: 56f0 12bd ad69 0b3e bead d33d 3d48 0ebe
000002a0: 4b6f 273e d61e 2b3d 8db4 ccbd 0e4e 503d
000002b0: 5fff 34bd 16f7 aabd f9fd a9bd 227b 713e
000002c0: f108 90bd a888 2dbd dff1 2b3e 4161 57bd
000002d0: 89ca c3bb f413 53be 26d5 6cbd 243b 2abd
000002e0: f8c5 7dbd ead2 ad3d 4baf cabd ecb8 8cbc
000002f0: 1e9d 243d ec49 903d de46 44be 7925 ae3c
00000300: ba1f d03a 30ae ff3c 8ba2 97bd f4ff 96bd
00000310: 1713 86bd 56da d93c b88a 9fbd 29fb afbd
00000320: a135 82be 4312 4cbe 3ace 613b 11d5 0f3d
00000330: 2582 8e3d 70ba 773d 346b a63d 709e 1cbe
00000340: f0df 4abd bc6d 443d 1eed 3dbd 2997 233d
00000350: a62e 1ebe 22cd 243e 2306 90bd 158e 2f3e
00000360: 0989 adbc 75c2 c2bd 03a8 e53d 740b 873d
00000370: 7dc6 e2bc 5b8b b1bd 2355 353d 002d c2bd
00000380: 2d12 763c b29a a23d 1dd1 d43c bb5f 49bd
00000390: aa90 dd3d 8bc9 e7bc 5dc2 82bc f2b8 dc3d
000003a0: d128 49be c90b ed3d 587c 85bd 467c ff3d
000003b0: 6cf6 eabc f364 bcbd 8f5b 273a b70f 8d3c
000003c0: 0be6 953d 5676 e7bd df81 093e 405c f2bd
000003d0: 84c2 cfbd 6769 5e3d 4abd 953b afc5 163c
000003e0: c18d 66bd fd29 d1bd b3c5 85bb 6994 863d
000003f0: 91ac dbbd bc6f 9d3d fa31 9c3d 150a 8abc
0.13224976 -0.118732974 0.11793333 -0.03494864 -0.009200934 0.11214859 -0.08955868 -0.091884896
-0.13022305 0.055900294 -0.021904778 0.059516363 -0.002131482 -0.037637345 -0.0016616354 -0.0050849803
-0.3518143 0.061330087 -0.0827875 -0.03947774 0.047357153 -0.0893406 0.03513563 -0.08150875
-0.168639 0.017431002 0.032300506 0.0032883964 -0.04125506 -0.06406272 -0.06344436 0.014494012
-0.1380123 0.07302471 0.11192659 -0.056838565 -0.09939304 0.20825501 -0.06141801 -0.15303831
-0.103663474 0.14432862 0.20567137 -0.020638274 0.094554186 -0.0055820784 0.06617612 -0.12974934
-0.17239273 0.09251764 -0.15361537 -0.18923171 -0.05162465 -0.050049532 -0.00023784584 -0.12598608
0.074706 0.012964835 -0.10512574 0.13075165 -0.099255435 0.10324233 0.11092607 -0.0040716836
-0.027628126 -0.13607866 0.037457097 -0.014221607 -0.29632965 -0.053435367 -0.015460019 -0.0015008585
0.15363736 0.15611805 -0.1830842 0.02579101 -0.06572461 -0.25907475 -0.0022425689 -0.024856072
0.12432653 0.015032563 -0.06153121 -0.10909169 0.10286469 -0.081845395 -0.105416834 -0.114392206
0.05734898 -0.1280799 0.059130497 0.18238887 -0.1107572 0.10501087 -0.024238553 -0.19830187
0.09373821 0.13337545 -0.08174989 0.034819484 -0.2609806 0.015956048 -0.034983385 0.12746212
0.049122803 -0.041440155 0.1588307 0.04025323 -0.0073742783 0.059729144 -0.21161847 0.037700113
0.06024178 0.22584006 -0.074381225 -0.09887228 -0.12753646 -0.08738083 -0.19488713 0.004469055
0.08694416 -0.13950105 -0.24954505 0.023071457 -0.24552093 -0.23610312 -0.27223366 0.06959737
-0.2061745 0.03872263 -0.24456556 0.06591039 -0.043500308 -0.15581563 0.014029586 -0.28902438
-0.07369951 0.09513152 0.18604171 -0.07978335 0.015467558 -0.048189525 0.06295599 0.037273988
-0.16998607 -0.04807422 -0.046740502 0.035201922 0.081892796 -0.032796808 -0.019831581 -0.044853557
-0.15900739 0.116265625 0.06073219 0.03984107 -0.1129541 0.37907943 -0.11539727 0.07645075
0.11674967 0.056753006 -0.03594463 0.14561045 -0.035873733 0.13614531 0.10335873 -0.13894744
0.16351049 0.041777454 -0.09995375 0.05085569 -0.044188853 -0.08347909 -0.083003946 0.23582128
-0.070329554 -0.042366654 0.16791485 -0.052582983 -0.005975072 -0.2061308 -0.05782046 -0.041560307
-0.061956376 0.08487494 -0.09896716 -0.017178021 0.0401889 0.070453495 -0.19167659 0.021258103
0.0015878596 0.031210989 -0.074040495 -0.07373038 -0.0654661 0.026593369 -0.077901304 -0.08592827
-0.2543154 -0.19928841 0.0034455196 0.035115305 0.06958417 0.060480535 0.08125916 -0.15294814
-0.04952997 0.047956213 -0.04636871 0.03993908 -0.15447482 0.16093877 -0.070324205 0.17144044
-0.021183508 -0.09509746 0.11213686 0.065939814 -0.027682537 -0.08669158 0.044270646 -0.09481239
0.015018982 0.07939662 0.02597862 -0.04916356 0.10818608 -0.028294345 -0.01596182 0.10777463
-0.19644476 0.115745135 -0.06517857 0.12474875 -0.028681956 -0.09198942 0.0006384188 0.017219407
0.07319268 -0.11301868 0.13428448 -0.118340015 -0.10144523 0.05429974 0.004569684 0.009202405
-0.05628753 -0.10213087 -0.0040824055 0.06571276 -0.10726274 0.07687327 0.0762672 -0.01685051

actor.2.bias f4 [64]
00000000: c839 093e 4c59 b33d 3c41 bebc 97e1 213d
00000010: c2e1 823d f123 963d 6bcf 31bd 5499 9e3c
00000020: c633 b23d 185e 613c 35bc dbbd 31d4 eebc
00000030: 1ec8 d13d e1cb 8d3d 6c3c ccbb e21b d9bd
00000040: 7beb 873d ce9d c63d eb84 b33d 925f 0fbe
00000050: 9b15 2f3c 8168 7cbd e616 013e abf9 013e
00000060: 62bd a2bc 7604 c83d db41 6cbd 6286 c4bd
00000070: 4520 e63d 12a1 aa3c d275 48ba 5b8c a93d
00000080: 364e 92bd cf8a abbd 3f3d 75bd e113 9dbd
00000090: 894a 023d 910f 91bd 8cbc 53bd d819 ebbd
000000a0: b634 8b3d f17f 083d 4db2 21bd f753 393d
000000b0: f308 18bd 378c 08be f63a 953c cd10 e73c
000000c0: d255 d13d 535b 3abd 30d4 a73d 9682 14bd
000000d0: 4b3d 90bd 6807 c03d 1d6c 0cbd 2b64 1a3d
000000e0: c491 b13d 6f70 9c3d 2c42 97bd 04fb 0abe
000000f0: 9c56 b3bd 5b2a 7cbd fd5a 91bc acd8 02be
0.13400948 0.087572664 -0.023224466 0.03952178 0.06390716 0.07331074 -0.0434107 0.019360222
0.08701281 0.013755344 -0.10729257 -0.029153915 0.102432474 0.069236524 -0.006232789 -0.10601021
0.06636711 0.096980676 0.087655865 -0.14001301 0.0106863035 -0.0616231 0.12606391 0.12692897
-0.019865695 0.09766476 -0.057679992 -0.09595944 0.11236624 0.020828757 -0.0007646951 0.08278724
-0.07143824 -0.08376085 -0.059872862 -0.07669807 0.031809364 -0.07083047 -0.051693484 -0.11479539
0.06797163 0.03332514 -0.03947668 0.04524609 -0.03711791 -0.13334738 0.018216591 0.028206253
0.10221447 -0.04549725 0.081947684 -0.03625735 -0.07042941 0.09376413 -0.034282792 0.037693184
0.08670381 0.076386325 -0.07385668 -0.13572317 -0.08756754 -0.06156383 -0.017743582 -0.12777966

actor.4.weight f4 [64, 64]
00000000: e6a7 a03c d0c7 8fbe 1479 1abe fc4a 4b3d
00000010: c81b 3d3d d2d7 043c eaa2 e83d 323c 053e
00000020: 7daf 343d cd60 803d a74d d03d 3479 f73d
00000030: 28b3 2b3d 97bc 1d3e 1f01 483c 97c8 a0bd
00000040: 965c 6d3d 359c b13d 5ac9 fa3d f904 82bd
00000050: b44f 0b3d 8e7c b8bd d16a d8bb e7e8 73bd
00000060: e379 9a3d e9be e13b 397c e93c fbda a73e
00000070: 8ae5 43bc 7827 0d3e 6a48 073d f3e5 b23d
00000080: c7f9 a6bd 2545 2bbd 3371 acbd 3692 6bbc
00000090: e27e d53d bc31 673d 684d 413c 41fd 2cbe
000000a0: c53e fe3d eb2f cabd e52f cebd ed98 42bc
000000b0: 120d 81bd cc68 413e 9dcd 683d 1d1c adbc
000000c0: 8a39 bc3d 47a2 e83d 648b 87bd cbe6 073e
000000d0: 12ee 803d 9794 eb3d f69c fc3c 14a2 c83d
000000e0: 576a 6f3d bff7 bb3d 7f39 7cbd d09c e43d
000000f0: 02c5 6d3a f071 703e 089d 9c3c f89a bb3d
00000100: 9a6b 733d 69e8 7cbe 2638 063d 1d06 753c
00000110: fdc1 e8bd 43b4 473d c631 3b3e 7148 7cbd
00000120: ecc1 64bd 04d0 043e 1403 6cbd d173 ef3c
00000130: e3b0 ebbd 7ce2 0ebd 7f89 f3bc bb92 5ebd
00000140: 4358 5e3d 5646 e5bd f95b 893d 63ef f5bb
00000150: ddae 893d 04b3 69bd 5439 763d 0d15 cc3d
00000160: a611 e23c 2087 c1bc 47c1 42be 3f60 8b3e
00000170: df0b 153c 5f35 bc3d 73c1 9a3e f712 89bd
00000180: f685 c0bc cb2c 58be 7ad5 60bc 19cc 183e
00000190: a77b 573d 4e01 68be 3c20 3e3d d7b2 6c3c
000001a0: 81ab 403d b54e c1bc a167 24bc 50ae 08bd
000001b0: a8df eabd 9858 133d 2f84 39be b0ee da3d
000001c0: 8fe3 db3d 92dd 8d3d 4d80 9cbb 7342 303d
000001d0: 76e9 66bd c4ae 0d3e 46fa b13d 08af ce3e
000001e0: 9c72 133e c941 83bd 83fd 283c f313 8e3d
000001f0: db37 0dbe b065 913e 4b61 1fbd 8038 2b3e
00000200: 4546 5f3e f497 48be 6fc0 e4bd b07b 503d
00000210: 5f52 40bf 5691 fa3d 227c 8e3c 1c3b b93d
00000220: 25ac 71bd 2323 9cbd 4d51 90be 8675 8c3d
00000230: 822a 16bc 197c 15bd 1426 87bd 8aa5 f53d
00000240: 6395 1cbe 5889 483d 69fa ee3c ad85 4b3d
00000250: c739 56ba 47ac ec3d 05c6 ddbd 3494 b83d
00000260: 14c2 57be acce 153e a8e9 823d 94bb 3a3e
00000270: ae8c 81bd f8d3 55be b732 87bc f2ef a9bd
00000280: ed9e 1e3e 39f4 dd3d a375 503e ede9 1c3d
00000290: bfcc f9bd bf93 1bbd a4a4 d2bc 2efd 63be
000002a0: 5ff0 c3bc e655 7fbe 674c 4abe c06b 053e
000002b0: bf68 55be 6b68 b6bd 3d0d 9a3d 224e 8e3d
000002c0: 9c13 97bd e37b 2f3d 1f83 053e bf1d f33c
000002d0: 2474 e53d 7b80 ff3b b1ac c73d 7b16 03be
000002e0: a43d 1a3d 37d7 cfbd 3954 82bd d857 5d3d
000002f0: dc51 aabd fbe5 ee3d c056 683d f268 0b3e
00000300: 7959 05be ad42 843e b7bc 8d3d 621c 0a3c
00000310: f698 d63c 2ec1 47bd 7a43 79bd 989d 9dbd
00000320: e9cc 9fbd 9f0a 04be 53ff 44bd 409a cabd
00000330: 53dd 743d 5b5e 7fbd 6a8c e63d 58cd a93d
00000340: 1477 07bc f883 4abd c695 d9bd c405 753e
00000350: f898 d1bd 642a bd3b dd23 4bbd d3fd 1b3d
00000360: f74b d4bb bc21 0a3e eae8 aa3d aacc d5be
00000370: 6d7a fb3d 53dd 973d 93f4 fcbd 7800 afbd
00000380: 3a98 203d 6987 9a3d 3a70 dd3d 5a1a afbd
00000390: 1f95 443d 71f4 f33b 2602 23bd 8b6b 2d3e
000003a0: 4d76 74bb 4637 063e 8c56 0a3e e4e3 883d
000003b0: a831 793e 21cd 60be 0d07 a33d 3694 6c3d
000003c0: 0a6e a7bc 16a3 acbd 829c e23d f50e 123e
000003d0: 1747 58bd 115a 13be d061 483d 7da3 b2be
000003e0: ecbe efbd 498b d73d bafb 5b3b ca37 9b3d
000003f0: 9e6f 223d 62ce 95bd a72c 30be 541e 84be
0.01961131 -0.28082132 -0.1508525 0.049632058 0.046169072 0.008108096 0.113591984 0.13011244
0.04411267 0.06268463 0.10171061 0.120836645 0.041918904 0.15403973 0.012207299 -0.078507595
0.057949625 0.08672372 0.12245436 -0.06348605 0.034011558 -0.09008132 -0.0066045304 -0.059548285
0.07542779 0.0068892133 0.028501617 0.32784256 -0.011956582 0.13784587 0.033028044 0.087352656
-0.0815311 -0.04181399 -0.084200285 -0.014378121 0.104245916 0.056443915 0.01179824 -0.16893484
0.12414316 -0.09872421 -0.10067729 -0.011877281 -0.06301321 0.18887633 0.056836713 -0.02113157
0.09190662 0.11359077 -0.066183835 0.13271634 0.06295408 0.11502951 0.030836564 0.09796539
0.058451023 0.09178113 -0.06157827 0.11162722 0.0009070189 0.23480964 0.019117847 0.09160417
0.05942879 -0.24698032 0.03276839 0.014955071 -0.11365125 0.048755895 0.18280706 -0.061592523
-0.055849 0.12969977 -0.057620123 0.02923003 -0.11508348 -0.03488396 -0.02972865 -0.05433915
0.05428339 -0.11195056 0.067069955 -0.0075053438 0.06722806 -0.05705549 0.060113266 0.099649526
0.027596306 -0.023624003 -0.19019042 0.27221867 0.009097069 0.09189867 0.30225715 -0.066930704
-0.023501378 -0.21110837 -0.013722772 0.14921607 0.05260816 -0.22656748 0.04641746 0.014446936
0.04703856 -0.0235971 -0.010034473 -0.033369362 -0.1146844 0.03597316 -0.1811683 0.10690057
0.10736763 0.06927027 -0.004776037 0.04303212 -0.05637499 0.13836199 0.08690314 0.40367913
0.14399189 -0.06409032 0.010314348 0.06937399 -0.13790838 0.28397894 -0.038911145 0.16720772
0.2180415 -0.19589216 -0.11169516 0.050899208 -0.7512569 0.12234752 0.017393176 0.09044477
-0.05900206 -0.07623889 -0.28187028 0.06858353 -0.009165408 -0.036495302 -0.0659906 0.11994465
-0.15291362 0.048959106 0.02917214 0.04968803 -0.00081720616 0.11556297 -0.10828785 0.090126425
-0.21070129 0.1462962 0.06392223 0.18235618 -0.06325661 -0.20881641 -0.016503675 -0.08297719
0.15490313 0.108375974 0.20357375 0.038309027 -0.12197255 -0.0379827 -0.025713272 -0.22264549
-0.023918329 -0.24935111 -0.19755708 0.13029385 -0.20840739 -0.08906635 0.07522056 0.069484964
-0.07376787 0.042842757 0.130383 0.02967727 0.11203793 0.0077972985 0.09749735 -0.12801544
0.03765644 -0.10148471 -0.063637204 0.054038852 -0.08316395 0.11664959 0.056723356 0.13614252
-0.13022412 0.2583212 0.0692076 0.008429619 0.026195984 -0.048768215 -0.060855366 -0.07696074
-0.078027554 -0.12894677 -0.04809506 -0.09892702 0.059781384 -0.062345844 0.112572506 0.08291119
-0.0082681365 -0.04944226 -0.1062427 0.2392798 -0.102342546 0.0057728756 -0.04959475 0.038083863
-0.0064787823 0.13489431 0.08345206 -0.4175771 0.1227921 0.07415261 -0.12351336 -0.08545011
0.039207675 0.07545359 0.10812421 -0.08549948 0.047993775 0.007444911 -0.03979697 0.16935556
-0.0037301958 0.13107023 0.13509578 0.06684092 0.24335349 -0.2195325 0.07960329 0.057758532
-0.020438213 -0.08429544 0.11065008 0.14263518 -0.05280217 -0.14389826 0.048921406 -0.34890357
-0.11706337 0.105246134 0.0033566789 0.07579 0.039657228 -0.07314755 -0.17204534 -0.2580439

actor.4.bias f4 [64]
00000000: 7851 753d 8fb6 afbd 8f7e a33d 936e b33c
00000010: 5f19 153d eab2 b43c c224 5bbd 1b78 4e3d
00000020: d3d5 c0bd 9c51 b33d 76b9 a8bd 9265 97bd
00000030: ce9e 473d 08b4 643d cb39 563c c14e e6bd
00000040: f0c8 89bc c841 ae3d ddd1 3bbe 6242 c63d
00000050: cac8 17be b0ba b9bd 261d 813d 264c 853d
00000060: 6abc b2bd 734b 95bd 42d0 27be 6c6c 44bd
00000070: 3b2b df3d 55f7 2d3d 4a84 ee3d 9d2b 4ebd
00000080: 2cd2 a0bd 3e96 28be 8f2d 6abc 091d b8bd
00000090: 254f 96bd 65bf 663c a47a 9abd 811a d9bd
000000a0: 6f5d 98bd bb40 d33d 44ab be3d fad1 c6bc
000000b0: 0812 f33c 85da 803b c362 ec3d 3cdc b2bd
000000c0: 5118 45bd 0972 df3c a367 123e 9177 56bd
000000d0: ca0b a33d 70bd 35bd e055 ffbc 9eb7 26bd
000000e0: 36d7 813d 6810 34bd bd9b 82bd e244 903d
000000f0: c54b bc3d de21 dabc f875 ca3d f8ec 82bd
0.059892148 -0.08579742 0.079831235 0.021903312 0.03640115 0.02205797 -0.05350185 0.05040751
-0.09415784 0.087558 -0.08238499 -0.0739242 0.048735432 0.055835754 0.013075302 -0.1124549
-0.016819447 0.085086405 -0.18341775 0.0968063 -0.14822689 -0.09068811 0.06304388 0.06508665
-0.087273434 -0.072897814 -0.16388038 -0.04795496 0.108969174 0.042472202 0.11646326 -0.05033456
-0.07852587 -0.16463563 -0.014293089 -0.08989913 -0.07339314 0.014083718 -0.07542923 -0.10600758
-0.07439696 0.10315081 0.0931001 -0.024270047 0.029671684 0.0039322996 0.11542275 -0.087334126
-0.048118893 0.027276056 0.14297347 -0.05236012 0.07961233 -0.044370115 -0.031168878 -0.040702455
0.06339876 -0.04396096 -0.06377361 0.07044388 0.091941394 -0.026627477 0.09885782 -0.063928545

actor.6.weight f4 [64, 64]
00000000: eb47 df3d 1730 8bbe 6ec8 f7be 0e60 b63a
00000010: 5e37 babd 61d4 f73c 06d9 503d 3968 a93d
00000020: c1d9 443e 590b 55be 4544 78be 9183 23be
00000030: 4789 213c f9be 2dbe bc94 75bc c21d 2bbe
00000040: 19ca babd dae4 66bc b96f 013d e032 093d
00000050: a2f1 e7bd 7745 9abd 2c6a 29be 1dd2 a6bc
00000060: 7a6e 30bf 9fda e73d 25c7 2f3e d8ac 603d
00000070: 1254 f9bb de33 8dbd 80a2 40be df83 d1bd
00000080: fa5f ac3d b0af 25be cf32 2dbe 408c b5bd
00000090: f97b f93c 0a85 723e 047f f53d 5e90 b3be
000000a0: 8956 26be 9b64 73be dc7c 84be 814f 3a3e
000000b0: a9b5 073e 35d5 933d e680 83be 4abe f33e
000000c0: 0168 d23d 251a 7d3c bf99 75bd ccdb 24be
000000d0: da64 2fbe c29c b4bb 8d4b 0cbe f2d4 b93d
000000e0: e819 e33d 88ab 503c cdf6 483a ed48 debd
000000f0: 5677 92bd 7ac7 a1be 17df 4f3d 89e0 b5bd
00000100: e8e8 85bd 2091 283d 27b2 64be 3fea f93d
00000110: 27e4 2ebe 1d64 033d 02ea 553d 8773 40bc
00000120: 1615 973d af5c 19be a7eb 01be 447b 093d
00000130: 00f8 59bd ae2e ba3c 57ce 71bd 4af4 1fbe
00000140: 4d9b db3d 3a14 bdbd fb55 3bbc 9683 1cbd
00000150: af16 aabd e563 093e 44b2 cc3d 41a2 1f3e
00000160: fe16 9cbe 077d 27be 5a50 243d be00 c7bd
00000170: 131e aa3d 11e7 a4bd 2bb5 f0bb 3c6f b1be
00000180: 37f7 f4bd 659a b0be 399a 0cbe 8480 01be
00000190: 69d8 bcbc 360b ee3c 1d38 063e b220 1abe
000001a0: ad04 213d 1f19 97be e48e b8bd facb 2d3e
000001b0: 09a5 173e 67ad 123e 292f 9fbc eb7b 053f
000001c0: 57e2 b5bd 603b bfbc f126 143e fd97 7fbe
000001d0: 14de 603c b7e1 9fbc e815 7b3b dcce b63d
000001e0: 3199 1f3e ec55 b1bd 37c4 9ebd 9c0b 9bbd
000001f0: 2231 f53d 01cd 3bbe ec0b e5bc 16f2 b83d
00000200: de3e c1bc 935b 05be a02d bfbe 59ab 87bd
00000210: 1ba4 48be 4741 c53c 71b5 2b3c 06a4 dd3d
00000220: a06e 3b3e 507a 51bd 65df 81bb 29b7 c53d
00000230: 72d3 c1bc beaf e3bd e1df 8f3d 054e d5bc
00000240: daed 46bd c43f 82bd 823d 603e afa1 32bb
00000250: 7e99 e23c 9b0f 1f3e 445d 2dbe f213 07bd
00000260: d155 eabe d3f6 12be 0266 073d f7f4 2fbe
00000270: 5abd 083e 4baf 98bd 98f6 34bc 8b78 59be
00000280: 084d 42be 5870 21bd 6bd2 14be 70ce 303d
00000290: 9177 87bd c667 e33d 75b8 e7bc ffaa b4bd
000002a0: 3dbd e53d 7be5 6ebe ec79 3abe db6c a13c
000002b0: 1d2c 2c3e a528 4c3e c49e f7bd b319 143f
000002c0: bdcc b83d 553c 9ebd 2058 be3c e7c2 46be
000002d0: d9aa 0a3e 768b 093e f653 013d 6d59 6e3d
000002e0: 78c5 e33d 489e f63b 5a37 143e 694d 7abe
000002f0: f54f 80bd 5f27 27be 5b52 113d b284 f33d
00000300: 7fd0 1dbe e5ec 20be 4fa4 893d e945 373c
00000310: be85 19be a4af a13d 32ac 62be ee6e 0cbd
00000320: 81e6 073f ea92 bfbb 9e53 37be 75e3 28bd
00000330: 69ad d93d acb0 e4bd 7889 21bd 49e7 13be
00000340: 9a56 093e 8697 d6bd 40e3 923e b376 923d
00000350: 42ef 1fbe 469a d4bd d139 623b 18c9 07bd
00000360: b606 d1bd 1b33 f6be 76e9 98be cb3a b0bd
00000370: 4026 963d c351 8f3d 03fb 953d b93f d0be
00000380: f9ed 9dbe 0074 363d 4cee 94be ab1d b23d
00000390: 4e8a 91be dc76 cf3d 0831 083e c269 45be
000003a0: 7da3 e8bd d9be fbbe 38c0 6fbd 6f56 1d3d
000003b0: 5284 923d 8370 bb3e c1f7 033e 68ff 393f
000003c0: 1174 0cbf 3a6c 1f3d 64df 113e c299 8c3c
000003d0: 0cef 31be 6345 933d 686a 05be 05fb 093e
000003e0: 2b6a 923d 2391 adbe 9cd8 333d 10e8 4cbe
000003f0: a692 04be 5df5 36be 00e9 6cbd 40bc 07bd
0.10902389 -0.27185127 -0.48395103 0.0013914125 -0.09092592 0.030252637 0.05098822 0.08271832
0.19223692 -0.2080511 -0.24244793 -0.15968157 0.00985939 -0.16967382 -0.014989074 -0.1671057
-0.09120578 -0.014092648 0.031600688 0.033495784 -0.11325385 -0.075327806 -0.16544408 -0.020363862
-0.68918574 0.113209955 0.17165811 0.054852337 -0.007608899 -0.068946585 -0.18811989 -0.102302305
0.084167436 -0.161803 -0.16913913 -0.08864641 0.030454623 0.23683563 0.11987117 -0.3507108
-0.16243948 -0.23768847 -0.2587651 0.18194391 0.13252892 0.072184004 -0.2568428 0.47606117
0.102737434 0.015448128 -0.059961077 -0.16099471 -0.17128316 -0.005511851 -0.13700695 0.09073819
0.110889256 0.012736209 0.0007666171 -0.10853753 -0.07151668 -0.315975 0.050749864 -0.08880717
-0.06538564 0.041154027 -0.22333585 0.12202882 -0.1707922 0.032077897 0.05222512 -0.011746294
0.07377069 -0.14976762 -0.1268755 0.03356482 -0.053215027 0.022727337 -0.05903467 -0.15620533
0.10722981 -0.092323735 -0.011434074 -0.038211428 -0.08305108 0.13417013 0.09994939 0.15589239
-0.30486292 -0.16356288 0.04011569 -0.097169384 0.083065175 -0.08051885 -0.0073458157 -0.34655178
-0.11961215 -0.34492794 -0.13730706 -0.12646681 -0.023052411 0.02905808 0.13107343 -0.15051535
0.0393111 -0.29511353 -0.09011629 0.16972342 0.1480905 0.1432396 -0.019431667 0.5214221
-0.088810615 -0.023343742 0.1446798 -0.24960323 0.013724823 -0.019516809 0.0038312618 0.08926174
0.15585782 -0.086589664 -0.07752269 -0.07570574 0.11972262 -0.18339922 -0.027959786 0.09030549
-0.023589548 -0.13023214 -0.37339497 -0.06624479 -0.19593851 0.024078978 0.010480271 0.108223006
0.18303919 -0.051142037 -0.0039633983 0.09654076 -0.023660395 -0.111175045 0.070251234 -0.02603818
-0.048566677 -0.063598186 0.21898463 -0.0027257015 0.027661081 0.15533297 -0.1693011 -0.032978006
-0.45768598 -0.14351968 0.033056267 -0.1718329 0.13353482 -0.074553095 -0.011045121 -0.2123739
-0.18974698 -0.03941378 -0.14533393 0.043165624 -0.06614602 0.111037776 -0.028286198 -0.088216774
0.11217735 -0.23329727 -0.18210572 0.019705227 0.16813703 0.1993738 -0.12090829 0.57851714
0.09023426 -0.07726351 0.02323538 -0.19410287 0.13541736 0.13432106 0.031574212 0.05819075
0.111216486 0.007526193 0.1447424 -0.24443592 -0.062652506 -0.16323613 0.03547893 0.11890544
-0.15411566 -0.15715368 0.067207925 0.0111861015 -0.14992425 0.07894829 -0.22136 -0.03428548
0.53086096 -0.005846371 -0.17902991 -0.041232545 0.106287785 -0.1116651 -0.03943774 -0.14443697
0.13411942 -0.104781196 0.28689003 0.07151546 -0.15618613 -0.10380988 0.0034519325 -0.033150762
-0.10206358 -0.48085865 -0.29865617 -0.08604964 0.07331514 0.06998017 0.07323267 -0.40673617
-0.3084562 0.04454422 -0.29088056 0.08697065 -0.2842583 0.101300925 0.13299954 -0.19278625
-0.11359308 -0.49169043 -0.058532923 0.038412508 0.07154144 0.36609277 0.1288748 0.72655344
-0.54864603 0.038921572 0.14245373 0.017163161 -0.17376345 0.07190969 -0.13028872 0.13474663
0.07149156 -0.33899793 0.043907747 -0.200104 -0.12946567 -0.17867036 -0.057839394 -0.033138514

actor.6.bias f4 [64]
00000000: 7aa1 04be 8d66 af3d ab6e 6e3d a653 ad3d
00000010: 66a2 1cbd ef1f 823d bda3 d33d 8b4d 4bbc
00000020: 67ea a43c 618d 44be 921f 27bd ac71 f0bd
00000030: 6165 4e3d 4e26 993c b6ce 2e3d b497 b23d
00000040: 6d1b 8fbc 6c77 b8bd c5b7 9dba 24af cd3d
00000050: c4cc a0bc 43e8 8f3c e39f f5bd bb20 e03b
00000060: eb8b 0dbd c3ec a1bc 106e d73d a3d8 debd
00000070: ba65 0d3e e71b b33d e381 30bd 3061 3d3d
00000080: fb62 b53d e6d5 39bd 7193 ed3d f57f 01bc
00000090: 7814 f83d d39a 0abe fcb1 333d 294d ed3d
000000a0: edbb 973c fa21 bf3d 624d edbb f101 c03d
000000b0: 157e 00be e0e4 35bd 842b e0bd a113 f43c
000000c0: 5f29 f33d ba13 843c c40e afbd dea7 24bd
000000d0: 9261 bcbd a1c2 16bb ce99 9abb 3b47 33bc
000000e0: a270 ae3c b3ac 05be ddd2 92bd df35 f73c
000000f0: f46c d6bd b7c4 d6bd 40db b73d bfff 60bd
-0.12952223 0.08564482 0.05821101 0.0846322 -0.038240813 0.06353747 0.10333965 -0.012408624
0.020131303 -0.19194557 -0.040801592 -0.11740431 0.05038965 0.018695023 0.042677604 0.08720341
-0.017469132 -0.09007153 -0.0012032917 0.10043171 -0.01962889 0.017566806 -0.119933866 0.0068398393
-0.034557264 -0.019766217 0.1051904 -0.10881164 0.13808337 0.08745556 -0.04309262 0.046235263
0.0885677 -0.045370005 0.11600388 -0.0079040425 0.12113279 -0.13535623 0.04387091 0.11586983
0.018522227 0.093326524 -0.0072418908 0.0937537 -0.12548096 -0.044407725 -0.109458 0.029794516
0.11873125 0.016122688 -0.08547738 -0.040199153 -0.091982976 -0.0023004191 -0.004718042 -0.010942276
0.021293942 -0.13054161 -0.07169125 0.030177055 -0.1047 -0.10486739 0.089773655 -0.0549314

actor.8.weight f4 [1, 64]
00000000: 5261 fbbe fc79 22be 4f41 6abe c833 e1be
00000010: 165f e4bd 2780 1dbf d112 0cbe 7f2f 893e
00000020: 4938 3ebe d589 10bf eee7 0bbe 8d51 993e
00000030: 12ba af3d 2cbe bc3d 3bcb 073e b8ac c3be
00000040: 6826 a0be 8445 d23d 207d ff3d 72e6 1ebe
00000050: 83cc 97be e37d 0cbf 33ba 90be 7ce6 7b3d
00000060: 6cbc 9e3e babe 0e3e d7e6 98bc 4508 7b3e
00000070: 5816 ebbd b58c c13d 7f8f e93d 1ba2 3e3e
00000080: e8f3 2a3e 1368 d7bd 9a6d f03d 234d 303e
00000090: 7027 d83d bcb1 37bf 1a39 e93e ba9c 0bbe
000000a0: c0b7 f93d fd03 ee3d 89ba 90be 8d29 bcbd
000000b0: ed20 55be 0c08 4f3e 0a65 05bf d29b 30be
000000c0: b5cc 02be a3b8 173f e105 353f 0877 a8bd
000000d0: 9f27 23bf 151d b9bc 28a7 aabe 494e 6fbe
000000e0: c771 4f3d 5c55 c0be f147 49be 2199 8dbe
000000f0: cc10 293e 66ca f43e 6fa2 28be cbb3 98be
-0.49097687 -0.15866846 -0.22876476 -0.43984818 -0.11150949 -0.6152367 -0.13679053 0.2679405
-0.18576159 -0.56460315 -0.13662693 0.2994503 0.08580412 0.0921596 0.1326112 -0.3821771
-0.31279302 0.10267165 0.124750376 -0.15517595 -0.29648218 -0.5487959 -0.2826706 0.061499104
0.3100313 0.13939944 -0.01866476 0.24514873 -0.11478871 0.09450666 0.11404323 0.18616526
0.16694605 -0.105178975 0.11739655 0.17216925 0.10554397 -0.71755576 0.45551378 -0.13634005
0.12193251 0.116218545 -0.28267315 -0.09187613 -0.20813341 0.20217913 -0.521073 -0.1724694
-0.12773402 0.5926611 0.70712095 -0.082258284 -0.6373233 -0.022596875 -0.33330655 -0.23369707
0.050645616 -0.37565124 -0.1965635 -0.2765589 0.16510314 0.47810668 -0.16468213 -0.2982467

critic.0.weight f4 [64, 6]
00000000: d733 bd3f 9cc9 debd a32e 2d3e 013e 02be
00000010: c04c 0f3e 88f6 ae3f f4fe 1040 f4e4 e9be
00000020: 847a a8be af0b 75be 0514 723e e2d4 a3be
00000030: adf3 62bf 385f 8ebd b332 033e 1133 283e
00000040: 275f 18be 9c77 5bbf 011d 38bf e444 723e
00000050: ad25 8ebd 14e2 833e 0a64 85be d82d c7be
00000060: 587d d93e c02a c33e 8a8e 98be 4296 a03e
00000070: 58d7 9dbe 2288 8ebf 6e46 8a3f 5c67 e4be
00000080: 5949 c0bd a4da 9dbd a7e3 e13d 396b f6bf
00000090: f03d 2d3e cbaa 973e 34aa e8be 5a09 9d3e
000000a0: af16 99be 5a01 f33e e647 4fbf cdd7 88be
000000b0: 638b 183e 3ffe a6be ca38 b13e 82b9 31bf
000000c0: be05 b93f 64b4 54be 3b49 6fbe b997 42be
000000d0: dda6 083e 528e 6a3f 515b 81be c02d b5be
000000e0: 473b f93d a959 be3c 012a 7dbe 55ac 153f
000000f0: 274e c1bf ddfc 36bc 50c0 d7be f5c5 15be
00000100: 5e08 62be 2925 1dbf f52c 42bf 79a2 02bf
00000110: 3c5b 90bd 3d85 4abd e09d 073d 0719 02c0
00000120: 74ac 22c0 b83e d4bd e68a 683e 3db0 933e
00000130: 1a7c a2be c577 d73e b74d 433f 3216 4b3e
00000140: 0da3 0bbe 3b2d 0abd ce76 543c d490 2a3f
00000150: 3aa4 8abf 5029 893d 08e1 1fbe 6f05 71bd
00000160: 64e9 a03d fa20 6d3f 0e90 35bf 62f6 ffbe
00000170: 9cc7 aa3e 951a 723e a80d 6dbe e138 87bf
00000180: 84f2 dd3f f7ff 0bbf 4846 6cba b97b 3c3e
00000190: ec65 c3bd 6066 a1bf 7611 0c3f 67cf f83d
000001a0: 08ac 83be 2f37 d33e 806f d4be 27a6 7b3e
000001b0: e8fb 93bd d810 e23e ada9 8dbe 3b14 b53e
000001c0: a3cf b8be e821 ae3f 6f9c 453e d37c 9dbe
000001d0: 4146 e73d 6bf2 9ebd 85ff c93d b23a 8e3f
000001e0: 848a 3a3f 6da8 bbbe 0502 00bf 49af 413e
000001f0: c932 7abd e688 9abf a943 2a3e 7c29 563e
00000200: 391d dcbd 4935 53be 597d 64bd 0ea9 673e
00000210: 81ca 883f 0dc9 5bbe 5406 ffbe 4e6c 5b3d
00000220: 00c2 003e 897b 143e d580 b3bf 07de bbbe
00000230: 48e7 2c3e 3555 5f3e f0d7 50be 83c6 de3e
00000240: 6cf5 42bf d02c 06be d29a f9bd dc52 babe
00000250: b065 b63e 7af4 693f e2c0 293f 6bd3 4ebe
00000260: 61eb 8fbe 434e 013d 3822 b0bd 4f90 883f
00000270: 0e45 5640 c0c4 a9bd f4a7 64be 4dd6 80bd
00000280: 3e17 30bb 0a29 b2bf 069a 66be c731 423e
00000290: 656e a7be 5104 813e 1ae3 80be 2e5c 99be
000002a0: 0d01 84be 82d3 4f3e df69 8bbe fa5e 77be
000002b0: ffb6 a83e 1dd7 ca3e 6685 4d3f 7844 3e3e
000002c0: bb07 55bd 8c02 9d3d 609a 53bd a757 103f
000002d0: 857d 4dbf 0237 7ebe b6d8 cebd 31ec 0c3d
000002e0: ff99 57bd eaf8 993f 40c9 8f3f d765 3b3e
000002f0: 846a 423d 1508 0b3e 1159 1fbe 5380 f7bf
00000300: 7e34 373e 35f6 a93e c2e2 ca3d 234f 9a3e
00000310: 0d39 a5be 27ca 31bf c67f 4b3f 3673 0bbf
00000320: 55ef 9b3d ee6c 003e 6f41 dabd 1597 853f
00000330: 3084 22c0 d533 5d3d f076 e33d 8920 163d
00000340: 5ae7 89bd 19d9 293e 7129 e43c f1ba ec3c
00000350: 560b d7be cee2 193e f8c7 33be a97a abbe
00000360: c39a a73e 0e8f c5bd ef9c 9c3e 536a 7bbe
00000370: 81e0 d63d 06ba 5a3f c1a6 933f db8e e0be
00000380: dc01 143d 7eff 25bc 4338 dc3d ad68 273c
00000390: 12b8 1e3f 737b 7bbe 0d80 40be c479 a13e
000003a0: 12c1 7abe 7e75 21bf 9205 29bf a342 08bf
000003b0: db8a 23bc d47f e13d b80d d4bc fcbb aebd
000003c0: ae54 37c0 ec71 7abe 3b6f 1d3e 801b 20bd
000003d0: 1591 debb 72fc d43f 6e2c e9bf b0a9 343c
000003e0: b3e3 833d bd81 2d3e f6a4 49be 4ed6 013f
000003f0: 81b8 853e 258a b63c d656 cd3e 491d bbbc
1.4781445 -0.10878298 0.16912322 -0.12718965 0.13994122 1.3668985 2.265561 -0.4568249
-0.32905972 -0.23930238 0.2364045 -0.31998354 -0.8865307 -0.06951755 0.12812309 0.1642573
-0.14880048 -0.85729384 -0.71919256 0.23659092 -0.0694078 0.2575842 -0.26052886 -0.38902164
0.42478442 0.38118553 -0.2979625 0.31364638 -0.30828357 -1.1135294 1.0802743 -0.44610107
-0.0938899 -0.07707718 0.11029749 -1.9251472 0.16918159 0.29622492 -0.45442355 0.30671197
-0.2990012 0.4746197 -0.80969083 -0.26727143 0.14896922 -0.3261585 0.3461364 -0.6942369
1.4454877 -0.20771939 -0.23367779 -0.1900319 0.13344903 0.91623414 -0.2526498 -0.35386467
0.121695094 0.023236113 -0.24723054 0.5846608 -1.5101975 -0.011168686 -0.4213891 -0.14626296
-0.22073504 -0.61384827 -0.7584985 -0.51029164 -0.070486516 -0.049443472 0.033109546 -2.0327775
-2.5417757 -0.10363525 0.22709236 0.28845397 -0.31735307 0.42083564 0.7629046 0.19832686
-0.13636418 -0.03373454 0.012967778 0.6662724 -1.0831368 0.06697333 -0.15613186 -0.058843073
0.07857016 0.92628443 -0.70922935 -0.49992663 0.33355415 0.23642953 -0.2314974 -1.0564233
1.7339635 -0.54687446 -0.0009013158 0.18406571 -0.095409244 -1.2609367 0.54714143 0.12148934
-0.25717187 0.4125304 -0.41491318 0.24575101 -0.07225782 0.44153476 -0.27668515 0.35366997
-0.36095914 1.3604097 0.19297956 -0.30759296 0.11292697 -0.07761081 0.098631896 1.1111662
0.7286761 -0.36651936 -0.5000308 0.18914522 -0.06108359 -1.2073028 0.16627373 0.20914263
-0.10747761 -0.20625795 -0.055783603 0.22623083 1.0686799 -0.21463414 -0.49809515 0.053570084
0.12574005 0.1450025 -1.4023691 -0.3669283 0.16885102 0.21809848 -0.20394874 0.43510827
-0.76155734 -0.13103032 -0.12187733 -0.36391342 0.35624456 0.91388667 0.6630994 -0.20197837
-0.28109267 0.031568777 -0.08600277 1.066904 3.3479648 -0.0828948 -0.22329694 -0.06290875
-0.0026869322 -1.3918774 -0.22519693 0.18964301 -0.32701412 0.25198606 -0.25173265 -0.2995314
-0.25782052 0.20295528 -0.2722921 -0.24157324 0.32952115 0.39617243 0.80281675 0.18580806
-0.052009325 0.076665014 -0.051660895 0.56383747 -0.8026965 -0.24825671 -0.10099928 0.034404937
-0.052637096 1.2029088 1.1233292 0.18300568 0.047464862 0.13577302 -0.1556132 -1.9336036
0.17891118 0.33195654 0.09906532 0.30138502 -0.3227009 -0.69449085 0.7949184 -0.5447267
0.07614008 0.12541553 -0.10657012 1.0436732 -2.539318 0.05400451 0.1110667 0.03665212
-0.0673358 0.16586722 0.027851792 0.028897734 -0.42000836 0.15027925 -0.17556751 -0.3349202
0.3273526 -0.09646426 0.3058848 -0.24552278 0.104920395 0.854401 1.1535264 -0.4385899
0.036134586 -0.010131715 0.107529186 0.010217828 0.6199962 -0.24558811 -0.18798847 0.31538212
-0.24487713 -0.63069904 -0.66024125 -0.5322668 -0.009981836 0.110107094 -0.025885448 -0.08531949
-2.8645434 -0.2445752 0.15374462 -0.039088726 -0.0067921975 1.663954 -1.8216684 0.011026785
0.064399146 0.16944022 -0.19691834 0.5071763 0.26117328 0.02228267 0.40105313 -0.022841113

critic.0.bias f4 [64]
00000000: 938d 0f3d e24b 57be bd8a 3b3b b412 32be
00000010: 4c0e 0f3d 0310 5e3e faee a83e 2890 943e
00000020: b3cb 01bf f8df ef3d 5a62 6b3e aeb3 e6bd
00000030: 1010 d7be 9ca5 d23d b379 ee3e 564d c13e
00000040: 193b 373e d12e ce3e 298a 14be f4c9 adbe
00000050: 3294 d6bd c5f1 dcbe 2013 38bf d82e 95bd
00000060: 0019 28be 0d6f 52bd d186 22bd 67df 623e
00000070: 64f8 3b3e 7c57 373e 0d5f 113c e6dc f9be
00000080: a7ea 80be 9d6b 88be 092e e4be 7ab3 98be
00000090: 60bc 033e b1d4 07bf 96aa 743d 84cd c53d
000000a0: 2d56 b5be 6f03 a0be fcc7 88bd 87a9 9fbe
000000b0: 6d90 00be 86a4 093e ba26 c3bd 36df 5e3d
000000c0: af3f a0be fd3a e6bd 4104 c2be 1629 5f3e
000000d0: 187e 023e e7c5 9dbc ca7f 3abe b768 8bbe
000000e0: f87e a03e 6464 41be 8110 87bd b394 01bf
000000f0: 273a 48be 00bb a93e 7bb8 073d 70b7 8a3c
0.035047125 -0.21025041 0.002861663 -0.17389947 0.034925744 0.21685795 0.32994825 0.29016232
-0.50701445 0.117126405 0.22986737 -0.1126474 -0.42004442 0.10285494 0.46577224 0.37754315
0.17893638 0.40270093 -0.14505829 -0.3394314 -0.10477485 -0.43153206 -0.7190418 -0.07284325
-0.16415787 -0.051375438 -0.039679352 0.22155534 0.18356472 0.17904466 0.0088727595 -0.48801345
-0.25179026 -0.26644602 -0.44566372 -0.2982443 0.12864828 -0.53058916 0.059732996 0.096583396
-0.3541731 -0.3125262 -0.06678769 -0.31184027 -0.12555094 0.13441667 -0.09528871 0.05441209
-0.31298587 -0.1124172 -0.3789387 0.21793017 0.12743413 -0.019259406 -0.1821281 -0.2722833
0.3134687 -0.18885952 -0.06594945 -0.5061752 -0.19553433 0.33150482 0.03313492 0.016933173

critic.2.weight f4 [64, 64]
00000000: db72 373e 1411 34be 5789 fd3d ba12 2bbb
00000010: eef3 06be ecb4 983e ecbb cabd 4509 1d3e
00000020: b7d8 e6bd c86b 013c f029 163d ccd8 ef3c
00000030: 0def 7a3e b0e3 69be bf9d f63d 62d7 0fbe
00000040: 3690 9fb9 080b cbbd 79b0 7fbe 9846 85bd
00000050: d932 f1bc 0387 563d 21ff dc3c 9f6f c23d
00000060: fdcc 3dbe 427e 0b3e d560 4fbb e6de 9c40
00000070: 1674 8c3d ff64 1bbd f619 0a3c 13e3 203e
00000080: 7d05 d6bd 1ca8 4d3d aac5 443c 6dca fa3d
00000090: 1620 d33c 8840 5c3d 3ee1 0f39 2b38 a93d
000000a0: 873e 183e ff32 9a3e 9fa5 a43d c5e0 a33d
000000b0: f7b1 0f3d dad0 ef3c bee1 6e3d 4f20 b23d
000000c0: e3f5 90bc e012 123d 0b67 133e 3870 133d
000000d0: 27e0 f53d b760 31bd e1a2 103e 0a6a 6f3d
000000e0: 485a 10bd d3af 64bd 8a03 06be 840f 2f3e
000000f0: b810 123e a6bf 723d 3426 5ebd e0cc cdbc
00000100: 1d3f ca3d a0ee 553b bd89 1f3d 74e2 013b
00000110: 5016 01bf dfbb aebd f9dd 36be c3f2 7b3e
00000120: 6668 71be 52a8 fa3d 25a8 5abc fc9f 94bd
00000130: 30a7 eebf e75a 96bc 7b60 3a3e f4ca 4a3d
00000140: c76b c5bc 73ae ffbd 101a ccbe a18b eb3c
00000150: 7bb6 6abe 0e59 a03c 517e edbd 4cc2 a9be
00000160: c462 22be 3ec2 5ebe d197 97bd d5ab 3ec0
00000170: 968d 4cbc 1885 61bc d88f 12be ced3 aabe
00000180: ca26 96bd ee84 bebe 4ee7 bcbe ea2f eb3d
00000190: 38ac 153d c43f 09bc dad4 473e 5558 a4bc
000001a0: 75bc 1cbf d624 e3bd 8610 e53d af32 80bc
000001b0: 263e 3e3e 0165 f93d cbb2 ecbd 7778 8e3d
000001c0: c25f 143d 2d4d 50be d076 083e 84d2 18be
000001d0: cb76 32bd 9daf 373a e0e1 20bf 7ad0 abbe
000001e0: 8003 5ebd d92a b0bd 38da f03d 5615 11be
000001f0: 8ccc 33be a94f b5bd 1fcf 44be fab3 043e
00000200: 8891 1abe 42cb 50be 5dc0 023e 3445 383e
00000210: aa16 70be 4abb 8ebe 75c5 73bd 9ce2 a03e
00000220: 457a 37be 79ba d4bd 1891 acbc 293d 97bc
00000230: 37c7 783e bcd9 473d d6e3 413e f749 35be
00000240: 242e bfbc 3101 bebe 9d45 03bf 54d1 df3d
00000250: 4d92 b33e d036 52bd 2224 02be db28 08bf
00000260: 9cd9 053e b3f2 55be 2088 0fbe 2866 4840
00000270: f934 073e 7fa4 89bb face c3bd 0970 63bd
00000280: 0d0b c9bd 63a1 9fbe 639f 44be 49b8 a1bd
00000290: 502d 13bd 9193 bfbd 887c 1cbe 76b0 2a3d
000002a0: 0f6e 71bd 35a6 0a3e 338c e5bd 4a36 8fbc
000002b0: ff7a febd 74a3 2a3e f700 9bbb d202 3abe
000002c0: 0395 a0bf ecb6 a6be 0bb3 053e 56a2 32be
000002d0: 4657 8c3e 1a1a 9a3d 4d74 153e ae69 d7bb
000002e0: 82bd 7bbd 8c8f 40be c217 4dbe d250 493e
000002f0: 395f 313e 3677 af3e c5df 8abd 295c 02be
00000300: 66c3 52bd e5f0 24be f474 a03d 531c eabd
00000310: b753 e6bd f848 fabe 47d1 e8bb 2499 4b3d
00000320: dbd6 74be 557f 4abe 4ea1 4ebd 89f3 883d
00000330: 9d15 c93c 1e16 74be 602c bc3d 8bd9 17be
00000340: 79de e23d 35c2 6b3d f257 85be 3058 22be
00000350: 71f2 06be c294 b93d 95ce 3bbe 8be4 133e
00000360: bfd0 ccbd 4e52 0abe 7bcf 16be 54e5 8bc0
00000370: 5bd1 63be 9408 3bbd f219 9c3d ed2e 10bd
00000380: e946 a63d 13f8 03be e66f a6bd 4f72 643c
00000390: 706e d6bd 118a d5bd 144f a9bd 6150 35bd
000003a0: 4dd0 c3be 6f9c c2bd 1858 f0bd 0bcc cebb
000003b0: 92fe a3bd 2833 c6bd 8d5b f63d 0e45 1fbe
000003c0: 9186 b4bc d2f7 a53e 107f 7dbb d642 f13d
000003d0: 4d61 7a3d 3a39 45bd 8229 e23d ad90 733c
000003e0: 225a b13d e9ca d6bd 2955 663d 9a14 62bd
000003f0: 2bcb 143e 5255 b8bd e0f3 8c3d f650 19bd
0.17914908 -0.1758464 0.12379711 -0.0026103691 -0.1317899 0.29825532 -0.098991245 0.15335567
-0.11271804 0.007899232 0.03666109 0.029278181 0.24505253 -0.22840762 0.120418064 -0.14047006
-0.0003043429 -0.099142134 -0.24969663 -0.06507605 -0.029443191 0.05237485 0.026977124 0.09493946
-0.18535228 0.13622382 -0.003164341 4.9022093 0.06858079 -0.037938114 0.008429041 0.15711622
-0.104502656 0.05020915 0.012010017 0.12245641 0.025772136 0.05377248 0.00013721452 0.08262666
0.14867602 0.30117032 0.08039402 0.08001856 0.03508183 0.029274393 0.058320753 0.086975686
-0.017695373 0.03566253 0.14394777 0.035995692 0.12005644 -0.043305125 0.14124633 0.058450736
-0.03524235 -0.05583174 -0.13087288 0.17095762 0.1426419 0.0592648 -0.054235652 -0.025122106
0.09875319 0.0032643452 0.038949717 0.0019818814 -0.5042467 -0.08531927 -0.17858113 0.24604325
-0.23574981 0.12239136 -0.013345753 -0.07257077 -1.8644772 -0.018353892 0.18200867 0.049509957
-0.024099244 -0.124844454 -0.39863634 0.028753104 -0.22921173 0.019573715 -0.115963586 -0.3315605
-0.15857989 -0.21753785 -0.074020036 -2.9792378 -0.012484929 -0.013764642 -0.14312685 -0.3336472
-0.07331617 -0.37210792 -0.3689522 0.11483748 0.036541194 -0.008377019 0.1951479 -0.020061651
-0.6122506 -0.1109101 0.11184792 -0.015649168 0.18578395 0.12177468 -0.115575396 0.069565706
0.036224134 -0.2034194 0.13326573 -0.14924055 -0.04357032 0.00070070644 -0.6284466 -0.33557492
-0.054202557 -0.086019225 0.11760372 -0.14168295 -0.17558497 -0.088530846 -0.19219635 0.1295928
-0.15094578 -0.20390037 0.12768693 0.17995149 -0.23446146 -0.27877265 -0.05951448 0.3142289
-0.17917736 -0.10387129 -0.02106528 -0.01846178 0.24294744 0.048791632 0.18934569 -0.17703997
-0.023337431 -0.37110284 -0.51278096 0.10928598 0.35072556 -0.051321805 -0.12709096 -0.5318734
0.13071293 -0.20893364 -0.14016771 3.1312351 0.13203801 -0.0042005177 -0.09560962 -0.055526767
-0.09816561 -0.31177816 -0.19201426 -0.07896478 -0.035931885 -0.09354318 -0.1528188 0.041672193
-0.05894285 0.13539965 -0.112083815 -0.017481942 -0.124258034 0.16663915 -0.0047303396 -0.18165138
-1.2545475 -0.32561433 0.1305658 -0.17444739 0.27410334 0.0752451 0.14595146 -0.0065738773
-0.061460026 -0.18804759 -0.20028594 0.19659737 0.17321481 0.34270638 -0.06780962 -0.12730469
-0.051455878 -0.16107519 0.07834807 -0.11431184 -0.11246436 -0.48883796 -0.007105026 0.049706593
-0.23910086 -0.19775136 -0.0504468 0.06687076 0.024546439 -0.23836562 0.09188151 -0.1482908
0.110775895 0.057558257 -0.2604366 -0.15853953 -0.13178422 0.090615764 -0.18340524 0.14442651
-0.10000753 -0.13507959 -0.14727585 -4.371744 -0.22247832 -0.045662478 0.07622136 -0.035201002
0.08118994 -0.12887602 -0.08126812 0.013943269 -0.10470283 -0.10426725 -0.08267036 -0.04426611
-0.38244858 -0.095024936 -0.117355525 -0.006310945 -0.0800754 -0.09677726 0.12029181 -0.15553686
-0.022036823 0.32415634 -0.0038680471 0.11780326 0.06112795 -0.04815028 0.11043073 0.014866036
0.086597696 -0.10487921 0.05623356 -0.05519543 0.14530627 -0.090006486 0.06882453 -0.037430726

critic.2.bias f4 [64]
00000000: a2e6 ea3d 1634 533e 357d e9bd 31ae 973d
00000010: b854 083d 18e0 cc3d 4a78 bdbd 7ebc 073e
00000020: 16de 9d3d 250f 193e 95d6 063d 2320 7ebd
00000030: 590d cabd a8f1 453d 9531 58be 2724 46be
00000040: afbf 0b3c 3751 22be e2fe 49be d81f 503d
00000050: ae59 a6bd 12e5 f03d 2032 183d 65e3 28be
00000060: 0da6 83bb 8fac 15be f821 3fbd 5578 84bd
00000070: b79c 98be 1de2 bf3d d498 c53b 9d60 923d
00000080: edb6 6f3d d2e9 adbe 4d1e f7bd 0780 913d
00000090: c41f 60bd 977d 31be 981f a0bd 9ae5 2e3e
000000a0: 3379 88bd 3207 493d 10cd eebc 23fb 053d
000000b0: 9e8e 59bd b104 583d 53e8 f5bc f3ee 703d
000000c0: bf99 b73d a881 57bd 9ce2 68be 024e d93d
000000d0: c297 7cbe e4e6 e4bc d7ee 383e 855d dcbc
000000e0: a9a5 893c d714 6fbd 8d4a 8abd 88d8 19be
000000f0: a6c5 19bc ca90 553d be3c d2bd ca58 d13d
0.11469771 0.20625338 -0.114008345 0.07406271 0.03328392 0.1000368 -0.09251459 0.13255498
0.07708375 0.14947183 0.032919485 -0.062042367 -0.09865827 0.048326164 -0.21112664 -0.19349729
0.008529588 -0.15851294 -0.19726136 0.05081162 -0.08122574 0.11762442 0.037157178 -0.16492994
-0.0040175975 -0.14616607 -0.046663254 -0.06468264 -0.29807064 0.093692996 0.0060301814 0.07147334
0.05852406 -0.33967453 -0.12066326 0.071044974 -0.054717794 -0.17333065 -0.07818526 0.17079774
-0.06663742 0.049079128 -0.029150516 0.032710206 -0.053114526 0.05273885 -0.030018007 0.05882163
0.089648716 -0.052613884 -0.22742695 0.10610582 -0.24667266 -0.027942128 0.1805986 -0.026900062
0.016802626 -0.058369484 -0.06752501 -0.15024006 -0.009385502 0.052140035 -0.10265492 0.10222013
