PPO/PPO2_Trained/PPO_DoubleInvPendulum_900K.pth (torch, 109673 bytes, 18 tensors)

actor.0.weight f4 [64, 6]
000000 90 fd 00 be 25 20 b4 be 7b 59 31 be e6 94 19 3e
       -0.12596726 -0.35180774 -0.1731929 0.14998206
000010 81 ec 14 3e df f9 99 3d be 8e 9a 3e f6 a5 cf be
       0.14543344 0.07518362 0.3018703 -0.40556306
000020 be 6a 56 bd 07 dc 60 3e c6 a5 19 be 98 22 7a 3e
       -0.05234789 0.21958934 -0.15004644 0.24427259
000030 97 c1 57 3f 64 e9 96 bd 15 36 0d be e9 a6 b5 be
       0.8427977 -0.073687345 -0.13790162 -0.35478905
000040 f7 98 65 be 2a 65 0c 3f a0 bb 44 3f 10 e9 6b be
       -0.22421633 0.54841864 0.76848793 -0.23038125
000050 0a 44 b7 bc 4e 04 c0 be 4e 2c b6 be a1 2f 62 bd
       -0.02237131 -0.37503284 -0.35580677 -0.055221204
000060 39 84 23 bf d3 81 5b be 5d 45 20 be b3 f3 8c 3e
       -0.6387363 -0.21436243 -0.1565146 0.27529678
000070 f5 eb c9 3b 41 55 06 be 25 0d fa bd 13 af c4 be
       0.0061621615 -0.1311846 -0.12209538 -0.3841482
000080 7a 7d 66 bd a6 03 18 3e d1 0e 02 3e 4f 74 0d bf
       -0.056272008 0.14845142 0.12700965 -0.552556
000090 11 fc 84 be f8 57 b4 bd 22 c3 41 3d 91 24 4f 3e
       -0.2597356 -0.08805841 0.047305234 0.20228793
0000a0 bb 2d a9 3e e4 de f4 be 55 17 2b 3f 5d ca de be
       0.33042702 -0.47826302 0.66832477 -0.43513766
0000b0 d1 a2 82 be 54 86 bc be c2 4e 71 bd 9f d0 8e 3d
       -0.25514844 -0.36821234 -0.058913 0.06973385
0000c0 bc 16 2f 3f 71 d8 77 be 55 7d 1b be 02 d9 57 be
       0.68394065 -0.2420366 -0.15184529 -0.21078876
0000d0 cd 5d 52 3d aa 96 b5 3e 59 fe 6a 3e 87 82 d0 bd
       0.051358987 0.3546651 0.22948588 -0.10181146
0000e0 5e 7f e9 3e ed fa 9e 3e 95 00 86 3e 6b 6c 1f 3e
       0.45604986 0.31050816 0.2617232 0.15568702
0000f0 27 9e 24 3f c5 be 8a 3c 05 c5 2c 3e c4 9e df bd
       0.6430382 0.01693667 0.16872032 -0.10918954
000100 7b 37 a0 be af 75 3b 3d 93 2c d0 be 16 0f b6 be
       -0.31292328 0.04576653 -0.40659007 -0.35558385
000110 0b 64 65 3e 54 02 9b 3e 82 60 a0 bd 2b 74 af bd
       0.22401445 0.30275214 -0.078309074 -0.08567079
000120 7d 04 5e 3f 91 3f bc 3e 50 ae ad bd c2 40 9e bd
       0.867256 0.36767247 -0.08480513 -0.07727195
000130 0d cf 8b 3d 01 a6 ea be 76 d0 56 be a8 84 69 be
       0.06826601 -0.45829776 -0.20977959 -0.2280451
000140 85 d5 90 bc 2a 45 41 be 61 61 a9 3e fa 70 b6 be
       -0.017679939 -0.1887404 0.33082107 -0.3563307
000150 3e bf c7 be 1c 41 77 3e ea 82 30 3e c4 a9 bf 3e
       -0.39013094 0.24145931 0.1723744 0.37434208
000160 bd 14 a6 be 18 0b 07 3f 09 fc b8 3d 0d 78 b8 3e
       -0.32437697 0.527513 0.09032447 0.3602909
000170 0f 63 59 be 45 3e 66 3e f3 95 ad 3e ac 40 63 3d
       -0.21229194 0.22484691 0.33903465 0.055481598
000180 bd 19 f1 be 68 5b 73 be 5e 4d a8 be 7a 13 52 be
       -0.4708995 -0.23765337 -0.32871526 -0.20515242
000190 e5 33 a5 be 05 92 92 be 40 36 99 3f 3e bd 77 be
       -0.32266155 -0.2862703 1.1969681 -0.24193284
0001a0 f0 04 e3 be 77 d1 4c bd 57 1b a4 3e 4b 7a 19 be
       -0.44339705 -0.05000445 0.3205211 -0.14988057
0001b0 4c fb f1 3d d7 a6 32 3e 1f 17 60 be d5 f1 bf be
       0.11815509 0.17446457 -0.2188382 -0.3748919
0001c0 d5 fb be 3e f5 ea dd be 19 60 90 3d 60 16 93 3e
       0.37301508 -0.4334332 0.07049579 0.28728008
0001d0 67 55 80 3d 8c 10 42 be ee 26 2b 3e d5 4f 80 be
       0.06266289 -0.18951625 0.16714069 -0.25060907
0001e0 85 b4 10 3f 3d 17 fe 3d 09 b2 97 be 48 a5 c3 3e
       0.5652545 0.12406776 -0.29628018 0.38212037
0001f0 d0 30 e2 bd b8 7c 9e bc 3d 2a 60 bf 6e 8c ca be
       -0.110444665 -0.01934658 -0.8756445 -0.39560264
000200 fe aa 62 be b3 a7 2c be b8 d2 61 bd 92 d4 dc be
       -0.22135541 -0.16860847 -0.055132598 -0.43130928
000210 76 52 cb 3b b2 cc ba 3d bb e4 a2 3e 37 7a c4 bd
       0.0062048985 0.09121074 0.31815132 -0.09593623
000220 c3 5a 97 3e d9 e4 37 3e b0 11 46 be 72 58 40 be
       0.29561433 0.17958392 -0.19342685 -0.18783739
000230 94 72 e5 be a3 99 1d bd 8c e1 91 3d fe ac 51 be
       -0.4481398 -0.038476598 0.07123098 -0.20476148
000240 0f ec 5c be aa 06 cb be f6 c4 ad be ab f3 b1 be
       -0.21574424 -0.39653522 -0.33939332 -0.34756216
000250 f6 be d1 be b1 10 b7 be 1d 7a 8b 3f 82 c5 5e 3c
       -0.40966004 -0.35754922 1.0896641 0.013596894
000260 12 25 c3 3e ff 22 e7 3d bf bb fd 3d a4 f9 dd be
       0.3811422 0.11285972 0.12389325 -0.43354523
000270 38 a5 b9 bf cb 0e dc bc 0b 02 b3 3e 29 fc 14 3c
       -1.4503546 -0.026862523 0.34962496 0.009093323
000280 11 ec 2d be 66 62 29 bf 0d 56 44 bf d5 ac 74 3e
       -0.16984583 -0.6616577 -0.76693803 0.23894055
000290 22 bb d5 be 28 57 43 3e af 9c 1a bd 80 e9 b9 3e
       -0.41744334 0.19076216 -0.03774708 0.3631096
0002a0 3e 99 43 3e c1 f9 8c be ab e0 81 be 71 f3 09 be
       0.19101426 -0.27534297 -0.2536672 -0.13471772
0002b0 94 0f 17 3e a1 81 8c be 43 dc 30 3b 91 c4 65 3e
       0.14752036 -0.2744265 0.0026986755 0.22438265
0002c0 c9 b6 ed bd 49 ce 9b be ec 6e a0 3e 3e f0 d9 bf
       -0.11607129 -0.3043082 0.31334627 -1.7026441
0002d0 80 eb f9 3e b0 56 a8 3d 2a fb 68 be 36 d3 d1 3d
       0.48812485 0.08219659 -0.22752061 0.102453634
0002e0 00 37 a6 3e 46 97 fc be 3c a9 7a be 93 6d c9 be
       0.32463837 -0.49334162 -0.2447862 -0.3934141
0002f0 71 12 49 3e 30 c6 0e 3c 8a 89 60 3e 4d 9c ca be
       0.19635941 0.008714244 0.21927467 -0.39572373
000300 ed be 32 bf 66 c6 fd ba 50 25 94 be 74 df 0f 3e
       -0.6982258 -0.0019361496 -0.28934717 0.14050084
000310 46 cf 80 be d9 f5 11 3f 9a e5 35 bf c8 8e 3b be
       -0.25158137 0.5701576 -0.7105347 -0.18316185
000320 1b 29 ee 3d f1 bf ab 3d b1 e1 b9 3c 8f fc 89 be
       0.11628934 0.08386219 0.022690626 -0.269505
000330 f0 70 5d 3f e2 09 ca be d3 69 bb 3e e8 b4 9b 3c
       0.86500454 -0.39460665 0.36604175 0.019007161
000340 57 7e 16 3e 20 99 08 3f 8d f9 a7 be fc d3 ce 3e
       0.14696632 0.5335865 -0.3280758 0.40396106
000350 35 c9 c1 be 62 32 79 be 62 cf 86 3e 9c ca ce bf
       -0.3784882 -0.24335626 0.26330096 -1.6155581
000360 8c 91 bc 3c cc 77 1b be aa 48 17 3e 24 f9 08 3e
       0.02301862 -0.15182418 0.14773813 0.1337629
000370 2c 53 d3 be 90 99 6b be 44 3a 8e 3e e9 d5 98 bd
       -0.41274393 -0.23007798 0.27778828 -0.07462675
000380 e7 83 f6 bd 9b 8f aa 3e 68 88 cd be 9b bb 74 3f
       -0.12036877 0.33312687 -0.40143132 0.95598763
000390 5d f8 04 be b5 5d 38 3e 01 8c c9 3e 85 bb 58 3e
       -0.12985368 0.18004496 0.39364627 0.21165283
0003a0 d3 e9 8f 3e 49 4a a0 3e 88 c3 2c bf d1 fe bb be
       0.2810808 0.31306675 -0.67485857 -0.36717847
0003b0 3a 92 ef 3d e2 31 8f be 29 67 8f bd 19 c2 4b bf
       0.116978124 -0.27967745 -0.07002098 -0.79593045
0003c0 a6 41 79 bd c8 df c9 3e b0 c7 1d be 3c bf c6 be
       -0.060853623 0.39428544 -0.15408206 -0.38817775
0003d0 2b 5a bf 3e 2b ca 59 3e 78 b9 be be 27 78 c4 3b
       0.3737348 0.21268527 -0.37250876 0.0059957686
0003e0 9a b6 14 be 71 5d 39 be 5b 85 44 3e a0 6a 0b be
       -0.14522782 -0.18102051 0.19191496 -0.13614893
0003f0 3f 02 d8 be 42 ec 81 be c4 6e 97 be a7 39 f4 bd
       -0.42189214 -0.25375563 -0.29576695 -0.11925059

actor.0.bias f4 [64]
000000 52 67 8c 3e 08 26 98 bc 0f ee 8c be 10 f9 1b 3e
       0.27422577 -0.018572822 -0.27525374 0.15231729
000010 53 4b 8d be c5 71 1c be d4 a8 3d bd cb 17 13 3e
       -0.2759653 -0.15277775 -0.046303585 0.14364545
000020 c9 42 ac be 04 79 aa 3e 9e 3d 58 be bf 14 4a 3e
       -0.33644703 0.33295453 -0.21117255 0.19734477
000030 db 12 b7 3e a0 b2 a4 3e f6 81 aa be 00 71 97 be
       0.35756573 0.3216753 -0.33302277 -0.295784
000040 4c a6 59 be 13 f5 a0 be 3a 3f 99 3e 6e c3 73 3e
       -0.21254843 -0.31436977 0.2993105 0.2380502
000050 3d e6 c4 3e 9b 73 fa 3d bd 59 63 3e 01 cc 0b 3e
       0.38456908 0.12229081 0.22202201 0.1365204
000060 05 07 cc 3d a9 cc 87 be 84 a3 ec 3a 8d 3a 54 3e
       0.09962276 -0.2652333 0.0018054103 0.2072546
000070 a6 d3 9a bd b5 f0 13 be 95 f3 ca 3e f7 0e 8e bc
       -0.075599 -0.14447291 0.39638963 -0.01734112
000080 0d d1 85 3e 63 ca 99 3c 2d b7 64 3e 4f 33 df 3d
       0.26136056 0.018773263 0.22335501 0.10898458
000090 25 98 34 3d 2d f7 84 3e a6 02 a1 3c 6a d9 02 3e
       0.04409041 0.2596983 0.019654583 0.1277825
0000a0 0c 60 54 be a1 e1 d1 3e 24 2a 7c 3e 3a fa ac be
       -0.20739764 0.40992454 0.2462545 -0.33784658
0000b0 1c dd 47 3c 9a 4c 71 bd 68 0e 55 3e b3 89 ca bb
       0.012198713 -0.058910944 0.20806277 -0.006180966
0000c0 fe 5e 1d be 89 47 79 bd 57 cc cb be 7b 60 25 3e
       -0.15368268 -0.060859237 -0.39804336 0.16150086
0000d0 85 89 8d be 78 66 b7 3d 1e 28 12 3e e8 60 e7 3c
       -0.27643982 0.08955091 0.14273116 0.02824445
0000e0 e8 49 cf 3e 08 43 28 3e f3 37 b4 be ab e1 7d 3e
       0.40486073 0.1643182 -0.35198936 0.24793117
0000f0 ba ca fe bd b0 cc 32 be 36 0e 36 be c3 a4 9b 3e
       -0.12441011 -0.17460895 -0.17778859 0.3039914

actor.2.weight f4 [64, 64]
000000 35 8f ee 3d 3d 16 ed bd 93 e6 bf 3d d6 9c 4f bd
       0.11648408 -0.11576507 0.093701504 -0.05068668
000010 fb 9d 0e bc 53 17 e8 3d e7 f2 b7 bd 99 54 af bd
       -0.008704658 0.11332574 -0.08981877 -0.085610576
000020 4d 4f 03 be 30 59 6f 3d 6d 21 12 bd 28 2f 6c 3d
       -0.1282322 0.058434665 -0.03567641 0.05766216
000030 64 d0 a2 bb e5 4c 24 bd b4 e6 83 bb 47 ed 72 bb
       -0.0049686898 -0.040112395 -0.0040253047 -0.0037067698
000040 77 0d b7 be 88 0c 88 3d e7 83 a9 bd c4 2b 2b bd
       -0.3575246 0.06643015 -0.082771115 -0.041789785
000050 5f 32 33 3d 77 3d b7 bd 9c 72 12 3d 8b d4 a1 bd
       0.04374921 -0.0894727 0.03575383 -0.079018675
000060 b4 b9 5d be d6 ce 8a 3c 3d 99 e6 3c a1 1c 89 3a
       -0.21652871 0.01694433 0.028149242 0.0010460803
000070 27 fb 1e bd e2 87 7e bd 5d 8c 82 bd c9 74 21 3c
       -0.038813736 -0.062141307 -0.063744284 0.009854504
000080 ff 38 5e be 9a 6c 8a 3d 58 28 ea 3d 1e 78 69 bd
       -0.2170143 0.06758995 0.11433476 -0.05699932
000090 4d d1 e7 bd 8c 94 36 3e dc 19 6f bd f4 12 32 be
       -0.11319218 0.17830104 -0.05837427 -0.17390043
0000a0 ea 0d cf bd 75 47 13 3e 1d e2 55 3e 30 6b 8e bc
       -0.10110076 0.14382727 0.20887037 -0.017385095
0000b0 f8 26 be 3d f0 24 a9 bb 7d 75 50 3d 35 38 08 be
       0.092847764 -0.005161874 0.050893296 -0.13302691
0000c0 88 66 27 be db ac bf 3d f6 e9 1a be 3b eb 5c be
       -0.16347706 0.093591414 -0.15128312 -0.21574108
0000d0 bd bb 5b bd 64 e1 56 bd 70 6e 44 bc b0 13 51 be
       -0.053645838 -0.052461043 -0.011989221 -0.20417666
0000e0 03 3e 90 3d 0d 4c 31 3b 0a 3a d4 bd ec 36 fd 3d
       0.07043078 0.0027053386 -0.103626326 0.12363991
0000f0 78 0b e7 bd f5 e6 cf 3d 28 8b d5 3d ac 84 77 bc
       -0.11281484 0.101514734 0.104269326 -0.015107315
000100 0b a1 54 bd f5 16 0b be e0 98 01 3d f7 1a 71 bc
       -0.051911395 -0.13582976 0.031639934 -0.014715902
000110 01 20 9b be ed 60 59 bd 03 88 2d bc 1e be 17 bb
       -0.30297855 -0.05307095 -0.01059151 -0.002315409
000120 18 a1 19 3e 15 1f 22 3e b2 d4 35 be 7c 01 11 3d
       0.15002859 0.1583217 -0.17756918 0.035401806
000130 03 93 81 bd 08 ee 81 be 0e e5 be ba 81 7f c8 bc
       -0.063268684 -0.25376916 -0.0014564113 -0.024474861
000140 fb 98 fc 3d c4 21 5a 3c 04 79 7c bd 81 99 dc bd
       0.12333866 0.013313714 -0.061638847 -0.10771466
000150 c2 0d dd 3d 3a c2 a8 bd f7 20 d6 bd 39 81 ec bd
       0.1079364 -0.08240171 -0.10455506 -0.11548085
000160 8f db 65 3d 1c 51 fe bd e4 d1 81 3d cd d1 38 3e
       0.05611759 -0.12417814 0.063388616 0.18048783
000170 06 8f e5 bd 6b cd 0a 3e 8f 06 a5 bc 44 e7 7a be
       -0.1120892 0.13554923 -0.020144729 -0.24502283
000180 52 11 11 3e 9b ab 18 3e c7 47 a1 bd 61 21 38 3d
       0.14166763 0.14909212 -0.078750186 0.044953708
000190 8d fc 83 be 4f e1 a9 3c d1 c7 0a bd 4e 37 02 3e
       -0.25778618 0.020737318 -0.033881966 0.1271641
0001a0 d6 4f 0a 3d 22 93 22 bd ec c8 24 3e 3a 97 26 3d
       0.033767544 -0.039691098 0.1609227 0.040671565
0001b0 2e 97 da 3b 5f 49 80 3d 58 cf 5f be b8 05 f5 3c
       0.006670854 0.062639944 -0.21856439 0.029909953
0001c0 87 80 6a 3d 0e 3f 67 3e d6 be 9c bd c1 69 cb bd
       0.05725148 0.22582647 -0.076535866 -0.0993228
0001d0 55 a3 e6 bd 53 59 b1 bd 40 3f 46 be 5f a1 c8 3b
       -0.11261622 -0.08659615 -0.19360065 0.0061227526
0001e0 f6 65 b7 3d 3d e4 01 be 24 dc 82 be 1e ab de 3c
       0.089549944 -0.12684722 -0.2555858 0.027181204
0001f0 50 af 87 be 05 56 65 be c2 e2 8d be 2f e1 94 3d
       -0.2650094 -0.22396095 -0.27712065 0.07269513
000200 8f c2 4f be 53 33 22 3d e5 77 89 be b4 34 6a 3d
       -0.20289062 0.039599728 -0.26849285 0.057179168
000210 8a 5c 34 bd 23 7e 1f be dc 22 46 3c 2e a4 95 be
       -0.044033565 -0.15575461 0.012093272 -0.29226822
000220 44 96 9b bd 4e 77 c1 3d 04 ac 38 3e e0 15 a8 bd
       -0.0759702 0.09446584 0.18034369 -0.08207297
000230 fd 79 81 3c 4c 69 49 bd f3 35 80 3d 89 3e 11 3d
       0.015805239 -0.049172685 0.0626029 0.03546003
000240 b6 eb 48 be 71 2a 3d bd 36 1f 41 bd fe 88 0d 3d
       -0.19621167 -0.046183053 -0.047148906 0.034554474
000250 c9 01 a9 3d 65 de 06 bd cc d2 a8 bc ed 0a 33 bd
       0.082522936 -0.032926936 -0.020608328 -0.04371159
000260 4d 9d 38 be 10 c5 ef 3d 93 a6 6b 3d b3 19 26 3d
       -0.18028755 0.117075086 0.057531904 0.040551852
000270 9b 5a e5 bd 94 bf bf 3e f7 aa ec bd 9f 99 93 3d
       -0.11198922 0.3745085 -0.115560465 0.07207035
000280 e8 1c a9 3d fb 13 63 3d 47 b6 1a bd ee d0 18 3e
       0.082574666 0.055438977 -0.03777149 0.1492345
000290 03 be 25 bd 50 6a f8 3d b9 39 d3 3d f4 f7 15 be
       -0.040464412 0.121296525 0.10313744 -0.14645368
0002a0 09 14 23 3e dd d5 27 3d 25 33 ca bd ef d2 55 3d
       0.15925612 0.04097544 -0.09873036 0.052203115
0002b0 6c 9c 3d bd 1f 66 af bd 47 1b bb bd c6 28 6e 3e
       -0.046291754 -0.085644 -0.09136062 0.23257741
0002c0 7a 00 88 bd 8c 21 35 bd 30 19 2e 3e aa 88 87 bd
       -0.06640716 -0.044221446 0.17001796 -0.066178635
0002d0 dd 39 04 bc e3 99 53 be 27 9e 83 bd 2d 84 40 bd
       -0.008070436 -0.20664172 -0.064266495 -0.047001053
0002e0 db 9d 81 bd 2d ee a4 3d 7a 0e cf bd 1d 60 93 bc
       -0.06328937 0.08053241 -0.10110183 -0.017990166
0002f0 93 5c 16 3d dd 22 8c 3d 85 cb 48 be 9c c9 6f 3c
       0.03670938 0.06842587 -0.19608887 0.01463547
000300 11 7e a4 bc 48 14 e1 3c eb 8e c0 bd da 3b b0 bd
       -0.020079644 0.027475491 -0.094022594 -0.08605166
000310 22 b4 7b bd d2 89 05 3d 86 cc d9 bd fc 21 ae bd
       -0.061451085 0.03260214 -0.10634713 -0.08502576
000320 48 7d 87 be 32 2a 48 be 8a 2a b5 bb 24 db 75 b9
       -0.2646277 -0.19547346 -0.0055287527 -0.00023446657
000330 9f ec 8a 3d 6f 53 eb 3c 05 34 b4 3d 43 64 33 be
       0.06783413 0.028726308 0.087989844 -0.17518716
000340 1f 2f 49 bd 3c 9e 3a 3d 18 c1 24 bd 44 b9 2c 3d
       -0.049117204 0.04556106 -0.04022321 0.04216887
000350 99 53 40 be e9 4d 22 3e 3e ec 82 bd 1d 52 2e 3e
       -0.1878189 0.15850033 -0.06392716 0.17023511
000360 48 81 10 bd 44 d3 06 be 42 44 f0 3d 4d 3f 79 3d
       -0.035279542 -0.13166529 0.11731769 0.060851384
000370 2a b5 f5 bc 1f de b8 bd d4 66 a8 3c d8 59 ff bd
       -0.029993612 -0.09026741 0.020556845 -0.12468308
000380 47 75 9a 3c 1b f3 83 3d 99 23 40 3c 6d 41 34 bd
       0.01885475 0.06442853 0.011727237 -0.044007707
000390 85 ef c8 3d 85 d3 5c bd 3c e3 52 bb 6d b9 cc 3d
       0.0981131 -0.05391266 -0.00321789 0.09996305
0003a0 68 95 36 be 2d 0d 03 3e 14 ff 81 bd 5d 13 fc 3d
       -0.17830431 0.12797995 -0.063474804 0.12308381
0003b0 c6 6f 73 bd a7 6b ee bd 2d 06 89 bb 62 b4 cc 3c
       -0.059432767 -0.11641627 -0.0041816444 0.024988357
0003c0 63 67 b3 3d e0 a8 08 be 44 e7 04 3e 6c b7 01 be
       0.08759954 -0.1334567 0.12978846 -0.12667626
0003d0 cb e2 07 be 99 bd 6b 3d 69 41 4e bb 25 c0 5e bc
       -0.13270108 0.05755386 -0.0031472093 -0.0135956155
0003e0 8f 26 66 bd 51 fd d9 bd c9 b1 b7 bc cc 4d 83 3d
       -0.056189116 -0.106440194 -0.022423642 0.06411323
0003f0 c9 b2 eb bd 12 59 43 3d e6 2e 93 3d da f5 a5 bc
       -0.1150871 0.047692366 0.071866795 -0.020258833

actor.2.bias f4 [64]
000000 81 dd 06 3e eb 8f b8 3d 2f 4d c4 bc 9e 59 28 3d
       0.13170435 0.09011825 -0.023962585 0.04110109
000010 db d9 81 3d 1f f5 9e 3d a3 7b 2e bd ba a9 82 3c
       0.06340381 0.07761597 -0.042598378 0.015950073
000020 44 06 ab 3d 4e 58 7e 3c 74 33 d7 bd 32 b5 b8 bc
       0.083508044 0.015523983 -0.10507861 -0.022547338
000030 cf 1a cc 3d 2c 89 83 3d ea ac 1e bb 64 8b e4 bd
       0.09966051 0.06422648 -0.0024211952 -0.11159399
000040 26 f6 86 3d 00 af c8 3d 0e f6 b9 3d d8 07 0f be
       0.06589918 0.097990036 0.09080134 -0.13967836
000050 f6 d1 32 3c ac 8a 88 bd 8c c8 06 3e a0 ed 03 3e
       0.010914316 -0.066670746 0.1316244 0.12883615
000060 45 6c ab bc 32 8a d1 3d a7 ea 34 bd cb e8 da bd
       -0.02092565 0.10231437 -0.044169094 -0.10688933
000070 00 77 e6 3d 24 4d 7d 3c 09 29 6f bb d0 ba ad 3d
       0.11253166 0.015460286 -0.0036492965 0.08482897
000080 05 fc 96 bd 26 7d ad bd cc 42 62 bd d0 a0 9a bd
       -0.07372288 -0.08471136 -0.055239484 -0.07550204
000090 f0 64 00 3d 0e 74 a4 bd 4a bf 4a bd c2 e4 ef bd
       0.03134626 -0.08029948 -0.049498834 -0.11713554
0000a0 7e ac 80 3d 29 d4 24 3d b6 7f 26 bd a3 f9 52 3d
       0.062829 0.040241394 -0.04064914 0.051507603
0000b0 a1 eb 41 bd 72 54 06 be 26 33 80 3c 07 19 e0 3c
       -0.047343854 -0.13118151 0.01564939 0.027355684
0000c0 7b 13 d1 3d ba ec 40 bd 10 87 92 3d 9c f2 28 bd
       0.10208794 -0.04710076 0.071546674 -0.041246995
0000d0 e8 f6 8e bd 8c e8 c4 3d 8b f8 25 bd 4e 37 1a 3d
       -0.069806874 0.09614667 -0.040520232 0.0376504
0000e0 ef 6b ae 3d cc 94 a3 3d d8 55 94 bd c2 66 10 be
       0.085166804 0.07987365 -0.07242936 -0.14101699
0000f0 7a 66 b0 bd e5 6d 7e bd 01 47 b1 bc 6e 10 03 be
       -0.08613296 -0.062116522 -0.021640303 -0.12799236

actor.4.weight f4 [64, 64]
000000 aa 2c 92 3c 74 6e 92 be 98 03 19 be cf fc 59 3d
       0.017843563 -0.28599894 -0.14942777 0.053219613
000010 eb ad 50 3d 7c ae 2e 3c 80 28 e3 3d f7 58 05 3e
       0.05094711 0.0106617175 0.11091709 0.13022219
000020 03 8d 3b 3d 17 71 86 3d 51 6c d3 3d a9 b4 01 3e
       0.045788776 0.06564539 0.10323394 0.12666573
000030 dd 8f 20 3d 13 d2 18 3e 15 9c 71 3c d9 75 a3 bd
       0.0391997 0.14923887 0.0147466855 -0.07981462
000040 7a 68 54 3d 11 bd b7 3d 52 40 01 3e d6 20 87 bd
       0.05185745 0.089716084 0.12622193 -0.0659806
000050 6e 74 fb 3c eb df b7 bd e3 cb f9 bb fe d7 74 bd
       0.030695166 -0.08978256 -0.007623182 -0.0597763
000060 0c 43 a5 3d 6c 2b 58 3c 64 88 ca 3c 9f 25 a4 3e
       0.08069429 0.013193946 0.02472324 0.32059953
000070 37 2e 41 bc 78 94 0a 3e 6a 2d 1b 3d bb 47 ac 3d
       -0.011790804 0.13533199 0.037885107 0.08412119
000080 02 47 a4 bd 42 09 0e bd cd f4 b8 bd d9 c5 87 bc
       -0.08021356 -0.034676798 -0.09031067 -0.016573833
000090 5c 0a c9 3d 31 c1 6b 3d 5f 5b 54 3c 95 99 27 be
       0.09816429 0.05755729 0.012961238 -0.1636718
0000a0 15 d9 ed 3d 1c 67 c7 bd e3 f5 cb bd 50 46 54 bc
       0.11613671 -0.097364634 -0.099590085 -0.012956217
0000b0 f8 68 63 bd e0 f1 3e 3e 3d 7f 4f 3d 1c cd ab bc
       -0.055520028 0.18646955 0.050658453 -0.020971827
0000c0 a6 d6 bc 3d 24 b3 00 3e ff d6 89 bd 65 25 00 3e
       0.092206284 0.12568337 -0.067304604 0.12514265
0000d0 63 1d 79 3d 32 cc e2 3d 7b b3 1b 3d c0 13 4c 3d
       0.06081904 0.110741034 0.038012963 0.049823523
0000e0 5c c3 18 3d 20 ae be 3d 18 8e 79 bd 9e f2 f3 3d
       0.037295684 0.093105555 -0.060926527 0.1191151
0000f0 15 c1 f2 3a 3f a0 5e 3e db ae 6c 3d 86 8a c0 3d
       0.0018520678 0.21740817 0.057783943 0.09401421
000100 81 88 6e 3d 07 fd 84 be 9d 24 10 3d 0d 44 52 3c
       0.05823565 -0.25974295 0.035191167 0.012833607
000110 c4 6d e0 bd 60 e7 49 3d 34 59 38 3e 80 e9 c2 bd
       -0.10958436 0.049292922 0.18002778 -0.09517193
000120 a4 4e 5c bd 77 a5 05 3e ae 53 62 bd 98 4a 00 3d
       -0.053785935 0.13051401 -0.055255584 0.03132114
000130 37 dd fd bd 39 d4 e6 bc 4e 87 eb bc a7 e2 59 bd
       -0.12395709 -0.028177368 -0.028751042 -0.05319467
000140 10 1d 4e 3d 1c 5a e2 bd 98 4e 91 3d b1 77 98 bc
       0.050320685 -0.11052343 0.07095069 -0.01861176
000150 25 fc 82 3d 61 0c 82 bd 0d 5f 6f 3d 70 cd d0 3d
       0.06395749 -0.06350017 0.058440257 0.10195434
000160 08 3a 3f 3d 16 62 a5 bc c3 5a 7e be 12 cb 89 3e
       0.046686202 -0.020188373 -0.2483931 0.26912743
000170 79 23 ec 3b 20 20 be 3d 46 9f 9c 3e 98 69 8a bd
       0.007206377 0.09283471 0.30590266 -0.06758422
000180 32 2c a5 bc 13 c4 55 be f5 38 bc bc ac 64 18 3e
       -0.020162676 -0.20875578 -0.022976378 0.14882153
000190 25 1d 42 3d 44 3e 64 be de 82 38 3d 3f cd eb 3c
       0.047391076 -0.22289377 0.04504668 0.028784392
0001a0 1c a2 38 3d 5a ea b1 bc b1 7b 83 bc 5a e9 07 bd
       0.045076475 -0.021718193 -0.016050192 -0.033181526
0001b0 c1 84 c0 bd 9f 7a 12 3d f9 a4 4c be b0 88 d5 3d
       -0.09400321 0.03576147 -0.19984807 0.10426462
0001c0 cb 37 dc 3d 61 96 ba 3d 9a 63 f9 bb 0d 80 43 3d
       0.10752829 0.09110714 -0.0076107504 0.04772954
0001d0 8d 96 55 bd f7 35 08 3e df 55 b1 3d e8 c2 b1 3e
       -0.05214553 0.13301836 0.08658957 0.34719014
0001e0 3f c7 09 3e 09 23 8b bd 2e 93 40 3c 54 b3 d2 3d
       0.13454913 -0.06793792 0.01175384 0.102881104
0001f0 59 c9 0a be 0c ba 8b 3e 1e aa a9 bd 82 0a 48 3e
       -0.1355337 0.2729038 -0.082844004 0.19535258
000200 45 63 60 3e dd fb 60 be a1 fa e8 bd 16 a6 bf 3d
       0.21912868 -0.21971078 -0.11375929 0.0935785
000210 6f e1 3d bf ad fb ec 3d 6e db 34 3c 85 4b 9d 3d
       -0.7417211 0.11571441 0.011038644 0.0768042
000220 76 85 6f bd df 8e a6 bd 29 15 b1 be 08 a4 b8 3d
       -0.058476888 -0.08132719 -0.34586456 0.090156615
000230 82 f9 a4 bc c6 d6 e3 bc 22 a0 a3 bd 0d f3 01 3e
       -0.020138506 -0.027812373 -0.07989527 0.12690373
000240 ac 8b 1c be 36 88 14 3d ae 42 46 3d 40 77 81 3d
       -0.15287656 0.036262713 0.048403434 0.06321573
000250 0f 7d 18 bc da 44 d5 3d 41 9b ee bd 43 04 b4 3d
       -0.00930716 0.10413523 -0.11650706 0.08789875
000260 b5 b1 72 be 9d 0c 17 3e de d7 35 3d 5d c2 44 3e
       -0.23700602 0.14750905 0.04439532 0.19214769
000270 31 25 88 bd 74 ed 5f be cd e9 ce bc 4b eb 94 bd
       -0.06647719 -0.21867925 -0.02525797 -0.07271441
000280 21 d5 1d 3e 2e cb d9 3d 49 53 4c 3e 76 53 15 3d
       0.15413333 0.106344566 0.19953646 0.036456548
000290 38 78 0c be 8d 29 6c bd 09 c7 08 bd 1d 45 6c be
       -0.13717735 -0.057656813 -0.03339294 -0.2307324
0002a0 b0 33 c0 bc 65 f6 86 be 29 78 52 be 68 c7 fe 3d
       -0.023462147 -0.2635986 -0.2055365 0.124403775
0002b0 d5 55 4c be 26 bd a8 bd ec 76 7b 3d 84 a4 73 3d
       -0.19954617 -0.08239202 0.06139271 0.059483066
0002c0 03 8e 51 bd 13 5b 49 3d 11 fd f1 3d 11 39 1b 3d
       -0.051160824 0.04915912 0.11815847 0.03789622
0002d0 80 33 f5 3d cd c5 ea 3a b7 7f b5 3d d3 4e 22 be
       0.119727135 0.0017911732 0.0886225 -0.15850382
0002e0 d0 8a c3 bc 82 82 e8 bd 68 6e 8a bd 62 dc 8e 3d
       -0.023869902 -0.113530174 -0.067593396 0.069756284
0002f0 a3 bf 9a bd 63 85 b0 3d 72 54 9f 3d 20 8c 12 3e
       -0.07556083 0.086191915 0.077797785 0.14311266
000300 c0 67 0e be 17 2a 8a 3e 25 b9 73 3d 74 0d 15 3c
       -0.13906765 0.26985237 0.05950274 0.009097446
000310 58 21 a7 3c ee b4 5d bd 02 be 82 bd ff 34 96 bd
       0.020401642 -0.054127626 -0.06383897 -0.07334327
000320 51 cf b6 bd 3f fb 09 be 37 cb 48 bd e2 e2 df bd
       -0.08926261 -0.13474749 -0.049021926 -0.10931946
000330 11 55 5d 3d 68 c3 86 bd f6 38 ea 3d 63 ec b3 3d
       0.054036204 -0.065802395 0.11436646 0.087853216
000340 3d ba e2 3a 54 65 51 bd 74 7b e1 bd 46 27 80 3e
       0.0017297935 -0.051122025 -0.11009875 0.25029963
000350 da 97 dc bd 1c 34 ed 3b e0 73 59 bd 2f f3 e8 3c
       -0.10771151 0.007238878 -0.053089023 0.028436271
000360 85 0f a4 bb 20 f7 fd 3d f2 7b b1 3d cd 49 d0 be
       -0.005006733 0.12400651 0.08666219 -0.40681306
000370 da 0d f3 3d b7 67 95 3d 47 67 f8 bd 31 09 ac bd
       0.11867876 0.07295173 -0.121290736 -0.084001906
000380 19 bf 00 3d 48 33 8a 3d ba 19 d9 3d 13 b0 c0 bd
       0.031432245 0.06748062 0.1060061 -0.094085835
000390 1f 10 42 3d d3 6c 20 3c 91 91 3d bd e2 1d 2d 3e
       0.047378656 0.009791571 -0.0462814 0.1690593
0003a0 dd 5b 96 bb 63 0b 02 3e fc 7c 09 3e 3c 22 82 3d
       -0.0045885877 0.12699656 0.13426584 0.06354186
0003b0 9a e3 7a 3e e5 7d 5c be b0 24 b0 3d e6 39 66 3d
       0.24500886 -0.215324 0.086007476 0.05620756
0003c0 e3 13 df bc 80 bc ba bd e1 df e4 3d e3 e6 10 3e
       -0.027231162 -0.09117985 0.11175514 0.14150576
0003d0 40 13 60 bd 6c 21 1b be f0 12 31 3d 7a 3a 9a be
       -0.05470586 -0.15149468 0.04323095 -0.3012274
0003e0 c5 dc e3 bd 03 77 d9 3d a2 5f 14 bb 01 5e 86 3d
       -0.11126093 0.10618403 -0.002264001 0.065608986
0003f0 70 f9 37 3d 21 f2 9d bd 6e d6 53 be 2e b5 83 be
       0.044915617 -0.07712198 -0.20687267 -0.25724167

actor.4.bias f4 [64]
000000 e1 a0 77 3d 8b 87 b1 bd 47 7d 94 3d 5c 02 8b 3c
       0.06045616 -0.08668431 0.07250457 0.016968898
000010 2e 88 25 3d 4f d6 b2 3c 7e c3 60 bd 6a 44 50 3d
       0.040413074 0.021830706 -0.054873936 0.050846495
000020 d8 12 bd bd 80 be b5 3d 6e a1 9c bd 42 bb d2 bd
       -0.0923211 0.088742256 -0.07647978 -0.10289623
000030 a7 cf 37 3d 0f 79 45 3d 39 40 1d 3c 0b 51 e4 bd
       0.044875767 0.048211154 0.009597831 -0.1114827
000040 f9 b8 94 bc 7a 3a a6 3d a7 7e 3d be 71 f1 cd 3d
       -0.018154608 0.08116622 -0.18505345 0.10055817
000050 c5 ee 17 be 5b 83 ca bd 99 a7 65 3d 30 25 8d 3d
       -0.14837177 -0.09888335 0.056068037 0.068918586
000060 28 f8 b4 bd f1 27 8b bd 0d 1a 24 be c4 14 3c bd
       -0.088363945 -0.067947276 -0.16025563 -0.04591824
000070 b7 41 d9 3d 2c f5 27 3d aa a5 ff 3d 03 5d 4a bd
       0.10608237 0.0410053 0.1248277 -0.04940511
000080 db c7 a7 bd 88 5e 34 be a1 7b 48 bc a2 5b c0 bd
       -0.08192416 -0.17614186 -0.012236507 -0.093924776
000090 49 c0 9c bd 7d c0 c3 3b 24 bb 95 bd e1 ca e8 bd
       -0.07653863 0.005973874 -0.07311085 -0.11366821
0000a0 f9 6b 9b bd c1 8d cf 3d 7a ba ae 3d 5e 91 e0 bc
       -0.075889535 0.10134459 0.08531661 -0.027413066
0000b0 83 59 ef 3c 44 45 20 3b 3d d9 e4 3d 0e 0b af bd
       0.029217487 0.0024455348 0.111742474 -0.085470304
0000c0 f0 7a 78 bd 09 9e ed 3c 6f 41 0f 3e 41 f1 5e bd
       -0.060664117 0.029006021 0.13989805 -0.054429296
0000d0 58 70 b0 3d 30 97 34 bd e9 ff 2d bd b7 ce 13 bd
       0.08615178 -0.044089496 -0.042480383 -0.03608581
0000e0 ca 04 86 3d 96 23 22 bd bf 85 77 bd f5 f8 a9 3d
       0.06543882 -0.03958472 -0.060430285 0.08299438
0000f0 8f a1 cd 3d 72 90 ab bc ae 57 c7 3d e5 66 84 bd
       0.100405805 -0.0209429 0.097335204 -0.06464938

actor.6.weight f4 [64, 64]
000000 fe ff be 3d bc 56 9a be a4 ed f9 be df 30 08 bc
       0.093261704 -0.30144298 -0.48814118 -0.008312433
000010 40 45 ab bd b2 8b 85 3c 3a fe 81 3d 3a bc 93 3d
       -0.08362818 0.016301963 0.06347318 0.07213636
000020 58 05 53 3e 25 28 66 be 6e 5b 83 be 3a e8 10 be
       0.20607507 -0.22476251 -0.25655693 -0.14151087
000030 fa 2a 3e 3c 74 c2 23 be 22 72 d5 bc 43 8d 35 be
       0.011606926 -0.15992147 -0.0260554 -0.17729668
000040 d4 42 ce bd 31 6c d7 bc 5b fa 4b 3d 0b e5 1e bc
       -0.1007134 -0.026296707 0.049799304 -0.009698163
000050 b6 a7 ca bd 69 ae 60 bd 06 ca 2c be 78 0a 23 bc
       -0.098952696 -0.05485383 -0.16873941 -0.009951226
000060 48 92 31 bf 22 fc c7 3d 94 20 29 3e ed 95 48 3d
       -0.6936383 0.097648874 0.16516334 0.048971105
000070 d8 3a a2 bc b3 ed 70 bd c0 44 51 be 6d 63 b9 bd
       -0.01980345 -0.058820438 -0.20436382 -0.09052167
000080 27 59 89 3d 80 97 15 be be 14 65 be f6 93 a1 bd
       0.067064576 -0.14608574 -0.22371194 -0.078895494
000090 27 f5 62 bd 58 cb 78 3e f4 58 04 3e 46 af b1 be
       -0.055409577 0.2429632 0.12924558 -0.34704036
0000a0 fa 1e 24 be 0e 0e 73 be 39 2e 98 be 65 ae 2e 3e
       -0.16027442 -0.2373583 -0.29722765 0.17058714
0000b0 f3 93 08 3e c7 ca b0 3d c4 cd 8c be 45 3f fe 3e
       0.13337688 0.08632427 -0.27500737 0.49657646
0000c0 5e f0 c6 3d b0 5a be 38 14 df a4 bd 13 54 18 be
       0.09713815 9.076798e-05 -0.08050361 -0.14875822
0000d0 19 53 23 be 76 5f 0a ba 31 cf 0b be 98 ee af 3d
       -0.15949668 -0.0005278507 -0.13653256 0.0859043
0000e0 03 10 cb 3d 57 a9 41 3b 14 cc f2 bb c0 07 16 be
       0.09915163 0.0029550397 -0.007409582 -0.14651394
0000f0 b8 e0 be bd 3e 3f a1 be 68 88 26 3d 6c 95 ac bd
       -0.093202055 -0.31493562 0.04065743 -0.084269375
000100 be 53 5c bd 99 c3 3e 3d 34 d9 62 be aa 89 03 3e
       -0.0537908 0.046573255 -0.22153169 0.12845483
000110 7e b0 21 be 2d 6d 0d 3d 39 0a 5c 3d 89 e9 af bb
       -0.15789983 0.034527946 0.053720687 -0.0053684157
000120 46 9c ba 3d d4 5e 14 be 96 7b f7 bd 85 74 f8 3c
       0.09111838 -0.14489299 -0.12084119 0.030328998
000130 05 40 3b bd 71 e9 ea 3c ce 8c 68 bd 22 65 14 be
       -0.04571535 0.028675767 -0.056774907 -0.14491704
000140 24 46 e3 3d d4 5a b6 bd 1d ac 83 bc 54 46 1a bd
       0.11097363 -0.08904043 -0.016073281 -0.037664726
000150 f5 ca b1 bd 67 b1 06 3e f7 ef d3 3d ce 62 2c 3e
       -0.08681289 0.13153611 0.10348504 0.16834566
000160 db 5b 96 be 8d 5d 25 be 2b b2 3e 3d 23 86 be bd
       -0.29366955 -0.16148968 0.046556633 -0.09302928
000170 de f4 b2 3d 1c d1 ab bd 07 fe 73 bb 69 4c b5 be
       0.08738111 -0.08389494 -0.003723027 -0.3540986
000180 1d cf ea bd 5b f4 b5 be c3 81 04 be d9 fe 08 be
       -0.11465285 -0.3553799 -0.12940125 -0.13378467
000190 1c 93 e6 bc 7c a3 1e 3d a7 ab 0c 3e c3 d9 18 be
       -0.02814632 0.03873013 0.13737355 -0.1492682
0001a0 20 86 2d 3d 40 e7 ac be 31 43 b5 bd 33 e6 30 3e
       0.04236424 -0.3377018 -0.08850706 0.17275314
0001b0 f6 ad 1c 3e 1a 06 0d 3e 18 1d 94 bc bf 13 14 3f
       0.15300736 0.13771859 -0.01808028 0.5784263
0001c0 49 2c aa bd f0 28 ca bc 30 f6 16 3e 7e 0d 8a be
       -0.08309228 -0.024677724 0.1474235 -0.2696342
0001d0 56 29 62 3d f5 fd 67 bc 04 9f 0f 3c 2a 6e c3 3d
       0.055215202 -0.014159669 0.00876594 0.095424965
0001e0 27 71 21 3e 0e a6 9c bd ea 72 8c bd 59 f5 6f be
       0.1576582 -0.0764886 -0.068578556 -0.23433436
0001f0 57 b9 00 3e 9f 50 39 be df 36 c4 bc 1f d7 cb 3d
       0.12570702 -0.18097161 -0.023951946 0.099531405
000200 a9 32 f0 bc 3c 30 fd bd 22 f7 bd be c6 38 a2 bd
       -0.029321032 -0.123627156 -0.3710261 -0.07920985
000210 4c c2 50 be a2 61 cb 3c 56 41 34 3c c6 11 c0 3d
       -0.20386618 0.024826828 0.011001905 0.0937839
000220 5c 9c 25 3e ee ba 65 bd 30 fb 09 bb 54 7c c8 3d
       0.16172928 -0.056086473 -0.002105426 0.09789339
000230 80 ff 94 bc f6 98 f1 bd 35 db 84 3d 98 be e0 bc
       -0.018188238 -0.11796753 0.06487123 -0.027434632
000240 59 1c 40 bd 58 2a 99 bd b8 4d 64 3e 12 94 68 bd
       -0.046902034 -0.074787796 0.22295272 -0.056781836
000250 6b 19 fa 3c ce 21 1f 3e 1a 1d 1e be 61 f0 d9 bc
       0.030529698 0.15540239 -0.15440789 -0.02660388
000260 02 c3 f4 be 46 e7 27 be b8 90 b5 3c 37 9a 35 be
       -0.4780503 -0.16396818 0.022163734 -0.1773461
000270 69 63 fa 3d a4 7c 8b bd c2 cb c3 bb 5c 5b 53 be
       0.12225992 -0.06810883 -0.0059752176 -0.2064032
000280 7c 7f 5e be 16 3b 41 bd 46 ae 16 be 5c a0 40 3d
       -0.21728319 -0.04717549 -0.14714918 0.04702793
000290 01 b4 01 be 42 9e e5 3d 04 39 c7 bc 8e e8 a6 bd
       -0.12666322 0.11211826 -0.02431918 -0.08149825
0002a0 ec 83 ef 3d fb c1 48 be a0 30 5a be da f6 f7 3b
       0.11695084 -0.19605248 -0.21307611 0.007567269
0002b0 dd e4 30 3e d5 03 4e 3e bc a6 02 be 66 cb 22 3f
       0.17274804 0.2011865 -0.12758917 0.6359161
0002c0 80 13 ab 3d 04 a1 9c bd e5 bc 97 3c 40 30 3b be
       0.08353329 -0.07647899 0.01852269 -0.18280125
0002d0 4e fd fe 3d 0a ed 0e 3e c6 8d b8 3c 22 00 44 3d
       0.12450658 0.1395761 0.02252854 0.04785169
0002e0 e6 11 dc 3d 05 27 b3 3b 2e 53 0c 3e 5b f1 97 be
       0.10745601 0.005467298 0.13703606 -0.29676327
0002f0 5c c0 8d bd 69 12 1d be d5 65 d0 3c e4 c6 f9 3d
       -0.06921455 -0.15339054 0.025439182 0.121961385
000300 60 22 19 be 06 e4 1d be 45 fb a5 3d 35 11 32 3c
       -0.1495452 -0.15419015 0.081045665 0.01086836
000310 82 a4 8b be 20 a4 8a 3d 98 14 5f be cf 10 2d bd
       -0.27273947 0.067695856 -0.217852 -0.042252358
000320 d1 1d 06 3f 84 c5 cd ba 9d 94 3e be 4a 95 22 bd
       0.52389246 -0.0015699123 -0.18611379 -0.039693154
000330 07 68 d0 3d 7a 64 ee bd 30 2e 42 bd 52 b7 28 be
       0.10176092 -0.11640258 -0.04740733 -0.16476181
000340 98 e5 f5 3d a3 23 c4 bd 45 d4 91 3e 00 1a 8a 3d
       0.12006682 -0.0957711 0.2848226 0.0674324
000350 92 0d 1c be 7b 8d d4 bd 3e 2e 15 3c 82 2e 01 bd
       -0.15239552 -0.10378548 0.009105263 -0.031538494
000360 d1 ee cf bd 82 a3 ea be 74 cf 99 be e5 d4 c0 bd
       -0.101529725 -0.45827872 -0.30041087 -0.094156064
000370 ef 0d 83 3d f3 6c 97 3d ee fa 8b 3d 99 32 cf be
       0.06399142 0.07393827 0.068349704 -0.4046829
000380 46 8b a3 be 0b 5a 3a 3d ea 0a 90 be c1 55 b2 3d
       -0.31942195 0.045496028 -0.28133327 0.087077625
000390 3d 4c 8f be 2c 1b d4 3d 35 7e fb 3d 5b 1d 40 be
       -0.27987853 0.10356745 0.122799315 -0.18761198
0003a0 e7 7a d3 bd a2 29 05 bf f6 6a 29 bd 77 7e 0f 3d
       -0.10326176 -0.5201665 -0.04136177 0.035032716
0003b0 1f c9 75 3d a6 3f bb 3e ae aa 03 3e 55 31 59 3f
       0.060006257 0.36571997 0.12858078 0.848409
0003c0 d3 36 0b bf bb d8 35 3d fe a3 0f 3e f7 5c af bb
       -0.5438053 0.044396143 0.14027402 -0.0053516584
0003d0 05 35 bb bd 85 d9 90 3d 06 b8 7f be a7 ad 2c 3e
       -0.09140972 0.070727386 -0.24972543 0.16863118
0003e0 09 e5 8c 3d 1b 35 ad be e8 43 2d 3d 03 00 4e be
       0.068796225 -0.3382958 0.04230109 -0.20117192
0003f0 61 4f 02 be 60 b1 34 be b5 0c 85 bd 98 e6 1b bd
       -0.12725593 -0.17645788 -0.06496564 -0.03806171

actor.6.bias f4 [64]
000000 53 bc 1a be c5 49 b5 3d b0 18 51 3d 49 3d ab 3d
       -0.15110902 0.08851961 0.051048934 0.083612986
000010 f0 ef 1d bd ca 26 66 3d 9c 69 d2 3d cf dc 71 bc
       -0.0385589 0.056189336 0.1027405 -0.0147621175
000020 91 84 f7 3c 41 3a 48 be bc 4e 45 bd 9d bf e2 bd
       0.03021458 -0.19553472 -0.04817079 -0.110717036
000030 12 94 4f 3d e2 a6 9b 3c 36 16 19 3d d4 21 d2 3d
       0.05067832 0.019000474 0.037374698 0.102603585
000040 18 bb e4 bc 18 ff c3 bd a6 16 8e ba 45 2f cc 3d
       -0.027921245 -0.0957014 -0.001084049 0.099699534
000050 79 24 9e bc a2 a7 c6 3c 6e 84 ea bd 37 f3 e7 3b
       -0.0193045 0.024249855 -0.1145104 0.007078554
000060 8b fe 12 bc e6 cc aa bc 8c e1 d4 3d 9c 19 b8 bd
       -0.008971821 -0.020849656 0.10394582 -0.089892596
000070 a9 2c 0d 3e 93 36 9c 3d 47 bf 48 bd 92 b3 5c 3d
       0.13786568 0.07627597 -0.04901054 0.05388219
000080 7a 11 b5 3d 97 23 3f bd 10 40 ee 3d 87 c9 f6 bb
       0.08841224 -0.0466648 0.11633313 -0.007531348
000090 3d ba f8 3d 96 ad 09 be 38 04 22 3d 77 0d ec 3d
       0.12144897 -0.13445124 0.039554805 0.11526006
0000a0 65 76 a2 3c ff cd bf 3d fb a6 82 bb ec 47 be 3d
       0.019831846 0.093654625 -0.003987191 0.09291062
0000b0 18 8e f2 bd b1 68 34 bd 08 37 e8 bd be 09 d5 3c
       -0.118435085 -0.044045154 -0.113386214 0.026005622
0000c0 fa 8a d1 3d f7 55 e1 3c 42 99 e5 bd 4c fc 1c bd
       0.10231586 0.027506812 -0.11210872 -0.038326547
0000d0 2c a9 d9 bd 3f e6 0e bb 4b 39 9d bb 8a ee 7c bc
       -0.1062797 -0.0021804718 -0.0047980896 -0.0154377315
0000e0 4c e0 af 3c 18 ae fe bd 14 97 93 bd 6d 22 e4 3c
       0.021469258 -0.124355495 -0.0720655 0.027848447
0000f0 01 96 d5 bd 89 0e ce bd 57 68 a8 3d 13 85 64 bd
       -0.104290016 -0.10061366 0.08223026 -0.055790972

actor.8.weight f4 [1, 64]
000000 e4 ff 08 bf 35 00 25 be 31 f2 73 be d1 e2 dd be
       -0.5351546 -0.1611336 -0.23822857 -0.4333711
000010 2d 9e e9 bd fc 96 1d bf 8e 4c 0e be 28 31 8c 3e
       -0.11407123 -0.6155851 -0.13896391 0.27381253
000020 0e da 46 be 62 ae 1e bf 6c c9 11 be 43 87 99 3e
       -0.19419119 -0.6198484 -0.14236993 0.2998601
000030 53 fe b0 3d 11 84 bc 3d 6a c0 10 3e 03 eb d3 be
       0.086422585 0.09204877 0.141359 -0.41390237
000040 0c 04 b7 be 60 92 db 3d a5 6d 00 3e 8c 38 21 be
       -0.35745275 0.10721278 0.12541826 -0.15744227
000050 23 f1 9b be 7c d0 0c bf c7 d2 af be 2b d7 80 3d
       -0.3045741 -0.5500562 -0.34340498 0.0629104
000060 af 52 aa 3e a4 ff 10 3e ba 8c 93 bc a7 fd 9e 3e
       0.33266208 0.14160019 -0.01801144 0.31052896
000070 d1 8b f4 bd 7d bd cd 3d d1 0a ea 3d 4e d4 41 3e
       -0.1194073 0.10045908 0.11427844 0.18928644
000080 c0 2e 2b 3e 8e 5a 05 be 6f 41 f3 3d 7d 5d 31 3e
       0.16717052 -0.13022825 0.11877715 0.17320819
000090 86 72 da 3d ce e4 3b bf e5 0e e8 3e 91 02 13 be
       0.10666375 -0.73396003 0.45323864 -0.14356448
0000a0 a2 9e f6 3d 57 58 ed 3d 68 dd 93 be 37 bf c0 bd
       0.120419756 0.11589115 -0.28879857 -0.09411471
0000b0 77 ea 5a be e4 f0 53 3e 8b f5 08 bf 07 b0 36 be
       -0.21378504 0.20697361 -0.5349967 -0.17840587
0000c0 3a cd 05 be 2f 53 17 3f 07 16 3a 3f 61 e6 b6 bd
       -0.13066569 0.59111303 0.7268986 -0.0893066
0000d0 0e 83 25 bf b6 c4 cd bc 7e 28 ab be b6 2e 73 be
       -0.646531 -0.025118213 -0.3342933 -0.23748288
0000e0 9d 81 55 3d c2 eb c2 be 07 be 48 be fe 99 8c be
       0.052125562 -0.38070494 -0.1960374 -0.27461237
0000f0 13 cb 29 3e 0e 96 f3 3e ea f9 2d be 7b b7 a5 be
       0.16581373 0.4757542 -0.16989866 -0.32366547

critic.0.weight f4 [64, 6]
000000 4b 3d b1 3f 51 20 cf bd 3d b1 45 3e a6 8a 0e be
       1.384683 -0.10113586 0.19305892 -0.13920078
000010 ce c4 08 3e ec 68 a5 3f fc fa 01 40 dc fd de be
       0.13356325 1.2922645 2.0309439 -0.43553054
000020 29 73 96 be bc 23 94 be ec 0f 44 3e 44 12 f1 be
       -0.29384735 -0.28933513 0.19146699 -0.47084248
000030 eb 3a 2f bf a8 ec b0 bd cb 77 ca 3d 71 06 1f 3e
       -0.68449277 -0.086388886 0.0988613 0.15529801
000040 22 e2 33 be bf 04 75 bf 63 54 11 bf 6f 28 6d 3e
       -0.17566732 -0.95710367 -0.5676939 0.23159955
000050 b9 ad cb bd e1 bd 84 3e 1c 9f 84 be 58 ff ea be
       -0.09945244 0.25926116 -0.2590264 -0.45897937
000060 68 17 ea 3e 93 9e c0 3e 05 45 a0 be 1e 0a a3 3e
       0.45720983 0.37620983 -0.31302658 0.31843656
000070 23 b3 a1 be bf 08 81 bf be 6c 45 3f 78 37 e5 be
       -0.31581983 -1.0080794 0.7711905 -0.44768882
000080 57 ce c3 bd 54 53 f8 bd 4c 00 94 3d b4 ce 07 c0
       -0.095608406 -0.121252686 0.07226619 -2.1219912
000090 21 d1 b2 3d dc cd 9c 3e db 54 ed be 29 8f 9d 3e
       0.087312944 0.30625808 -0.46353802 0.30773285
0000a0 21 15 9b be 23 b2 11 3f 03 06 1d bf ce 1c 98 be
       -0.30289558 0.5691244 -0.613373 -0.29709476
0000b0 99 80 03 3e e9 9d ae be 7b 8a ad 3e 49 98 2b bf
       0.12842025 -0.3410485 0.33894715 -0.67029244
0000c0 20 7b 8e 3f 2a ff 3e be 6a 9c 45 be 12 32 77 be
       1.1131325 -0.18652025 -0.19297948 -0.24140194
0000d0 86 f7 af 3d 31 fc 72 3f 41 c0 6a be 89 02 c5 be
       0.08592133 0.94916064 -0.22924902 -0.38478497
0000e0 21 64 c7 3d e0 f0 4e 3d 2a 98 62 be 53 f3 0e 3f
       0.09735895 0.050522685 -0.22128358 0.55840033
0000f0 f1 de da bf 6f 51 75 bd 53 7f ed be 21 c8 d2 bd
       -1.7099286 -0.059892114 -0.46386203 -0.10292078
000100 9a 8d 35 be 52 79 57 bf fc 30 2f bf 88 bc 00 bf
       -0.17729798 -0.84169495 -0.6843412 -0.50287676
000110 49 6e 9d bd 9e 33 0a bd a0 ca 10 3d 17 92 ef bf
       -0.07687051 -0.033740632 0.03534949 -1.8716458
000120 b7 e2 2e c0 89 98 a7 bd 78 e8 58 3e e0 64 87 3e
       -2.7325876 -0.08183391 0.2118243 0.2644415
000130 00 28 94 be eb 65 e3 3e e6 58 2b 3f 40 65 39 3e
       -0.28936768 0.44413695 0.66932523 0.1810503
000140 ac 46 0b be 42 e2 44 bc 6b 69 52 3c 88 06 1a 3f
       -0.13601178 -0.012016835 0.012842516 0.60166216
000150 c7 70 7b bf 48 4a 24 3d fb 23 46 be 3b 2e 97 bd
       -0.9821896 0.040109903 -0.19349663 -0.07381865
000160 22 46 b0 3d f7 ca 60 3f f2 2f 16 bf 5a 93 03 bf
       0.08607127 0.878097 -0.5866691 -0.51396716
000170 d9 7e aa 3e 71 c0 7b 3e 6d 9b 76 be 80 d7 89 bf
       0.33299902 0.2458513 -0.24082728 -1.076889
000180 eb e6 e5 3f dc be 0d bf 83 41 a2 bb 30 26 1e 3e
       1.7961096 -0.55369353 -0.0049516573 0.15444255
000190 6a f7 03 be be f2 a1 bf df c2 1d 3f 85 1b f6 3d
       -0.1288735 -1.2652204 0.61625475 0.12016968
0001a0 14 8a 86 be 6c 10 d6 3e be a9 d8 be d4 7b 49 3e
       -0.2627722 0.41809404 -0.42317003 0.19676143
0001b0 a0 c8 4f bd 76 65 dd 3e 60 f2 99 be 96 56 b6 3e
       -0.05072844 0.4324147 -0.3006773 0.35612935
0001c0 95 1f b8 be 44 6f b8 3f e1 df 93 bd af 2a 91 be
       -0.35961595 1.4408956 -0.07220436 -0.28352877
0001d0 12 20 14 3e 21 eb 9c bd 4c 44 fb 3d c7 fa 98 3f
       0.14465359 -0.07662035 0.12268886 1.1951531
0001e0 2d 0c f2 3e 37 49 a2 be d2 d6 ee be 2d 2f 1f 3e
       0.47274914 -0.31696483 -0.4664827 0.1554534
0001f0 e1 90 b2 bd 21 5c a2 bf 67 c1 99 bd 3e c6 18 3e
       -0.0871904 -1.2684366 -0.07507592 0.14919373
000200 22 86 28 be 08 a6 26 be dc e7 c5 bb f0 c9 1f 3e
       -0.16457418 -0.16274273 -0.0060396027 0.15604377
000210 84 bd 70 3f 6e 52 46 be c0 25 f6 be 4e 53 3a 3b
       0.9403918 -0.19367382 -0.48075676 0.0028431
000220 30 9b a1 3d bb 7f 87 3c f9 58 c2 bf 4e 63 c0 be
       0.07890928 0.016540399 -1.5183402 -0.37575763
000230 09 39 33 3e 29 c4 4f 3e 2d 3b 4a be da 7c e1 3e
       0.17502226 0.20289673 -0.19749136 0.44040567
000240 d6 37 56 bf c6 cf eb bd 88 38 b9 bd 94 2f c7 be
       -0.8367895 -0.11514239 -0.090439856 -0.38903487
000250 ab e3 b5 3e 1c 3e 6d 3f 5a 85 d2 3e 8b c9 5d be
       0.3552526 0.92672896 0.41117364 -0.21658914
000260 ab 55 8b be 8a eb 8c 3d 29 a6 4a bd 27 0f 90 3f
       -0.27213797 0.06880863 -0.04947487 1.1254624
000270 a7 72 60 40 39 7d a1 bd 22 d4 4f be d6 d7 c6 bb
       3.5069978 -0.078852125 -0.20295766 -0.00606821
000280 0f 57 62 3c 06 1a a0 bf 37 13 91 be 43 f6 51 3e
       0.013814702 -1.2507942 -0.28334972 0.20504098
000290 ff 0a ab be ae 9a 80 3e 5e cb 80 be 08 0d c2 be
       -0.33406827 0.2511801 -0.25155157 -0.37900567
0002a0 56 4f 8d be 39 28 49 3e f1 22 8f be e0 22 8b be
       -0.2759959 0.1964425 -0.27956346 -0.27175045
0002b0 70 55 9f 3e ad 35 51 3e d2 98 54 3f ee 58 28 3e
       0.3111987 0.20430632 0.83045685 0.16440174
0002c0 73 d3 80 bd e7 a0 a1 3d 98 f2 59 bd 7d 1b 05 3f
       -0.06290331 0.07892018 -0.05320987 0.5199507
0002d0 8a e3 76 bf 8b c7 1e be 00 5f 55 37 bf a1 da bb
       -0.9644095 -0.15505807 1.2717908e-05 -0.0066721137
0002e0 42 a8 82 bc 6f 15 a0 3f 3e 57 82 3f 68 5d 70 3e
       -0.015949372 1.2506541 1.0182874 0.23473132
0002f0 5b e3 ae 3d d7 e9 17 3e 5a 89 11 be 46 8e 0f c0
       0.08539458 0.14835297 -0.14212552 -2.2430587
000300 65 64 a7 3e 5e 0e a1 3e 58 9d 8f 3d f6 71 9c 3e
       0.32693782 0.31456274 0.07012433 0.30555695
000310 48 77 a9 be a1 2b 19 bf ce 7b 56 3f b0 8c 10 bf
       -0.33098817 -0.598322 0.8378266 -0.5646467
000320 1c 59 85 3d 9b 33 c0 3d c4 ae 20 be 63 10 87 3f
       0.06511137 0.09384843 -0.15691668 1.0551876
000330 f5 5a 27 c0 80 5d 22 3d 75 cb b5 3d 64 70 42 3d
       -2.6149266 0.03963995 0.08876697 0.047470465
000340 b8 3e 53 bd 3f 32 51 3c 26 c7 43 3e 1f 1c 0b 3d
       -0.051573485 0.012768327 0.19118938 0.033962365
000350 1a 74 d7 be 62 b5 2d 3e 57 8c 2b be ab 76 9b be
       -0.42080766 0.16963723 -0.16752754 -0.30363974
000360 19 44 79 3e 83 b9 f1 bd 5c 74 99 3e 85 27 59 be
       0.24342383 -0.11802962 0.29971588 -0.21206482
000370 0f 48 16 3e ad d0 4e 3f 92 12 97 3f e6 7e d9 be
       0.14675926 0.80787164 1.1802542 -0.42479628
000380 b4 0d 61 3d 47 7e 80 bd e6 dc 6a 3d ce 3d 66 3e
       0.05494471 -0.062740855 0.05733957 0.22484514
000390 ae 93 4d 3f dc 50 86 be 0d 22 59 be 87 13 98 3e
       0.80303466 -0.26233566 -0.21204396 0.29702398
0003a0 29 95 89 be 84 92 35 bf 81 5b 31 bf 44 79 08 bf
       -0.26871613 -0.7092669 -0.6928025 -0.53310037
0003b0 45 ed 1f bc dc 64 b1 3d 14 37 12 bd 81 48 34 bd
       -0.009761159 0.086618155 -0.035697058 -0.044014458
0003c0 c9 df 47 c0 29 44 d6 bd eb f6 84 3e 50 2d 4f bd
       -3.1230338 -0.10462219 0.25969633 -0.050580323
0003d0 d6 68 5f 3d 74 2c cd 3f c6 9e f1 bf 32 b8 33 bd
       0.05454334 1.6029191 -1.8876579 -0.043876834
0003e0 80 01 13 bc 30 60 20 3e 14 65 4d be a6 e1 e6 3e
       -0.008972526 0.15661693 -0.2005809 0.4509403
0003f0 f9 3b 7d 3e 93 49 a7 ba b9 25 bc 3e 67 77 b7 bc
       0.24729909 -0.0012763016 0.3674753 -0.022395803

critic.0.bias f4 [64]
000000 68 17 62 3d 4a dc 36 be b2 5e a2 bc 98 61 4b be
       0.055198103 -0.17857471 -0.019820545 -0.19861448
000010 51 bd cb 3c ab 60 61 3e 81 5e a7 3e b8 17 87 3e
       0.024870547 0.22009532 0.32689288 0.26385283
000020 91 20 f1 be e1 74 bd 3d 62 cb 3e 3e 84 29 eb bd
       -0.4709516 0.092508085 0.18632272 -0.11482528
000030 c8 92 e1 be f9 1c d8 3d a5 40 d9 3e c4 c3 c1 3e
       -0.44057298 0.10552401 0.42432132 0.3784467
000040 5a 1b 35 3e c7 94 cd 3e 5d c7 29 be 2d 0a a3 be
       0.17686215 0.4015257 -0.16579957 -0.318437
000050 df df 8d bd ac a2 fb be b5 45 33 bf b8 b5 99 bd
       -0.06927466 -0.49147546 -0.7002824 -0.07505363
000060 13 e7 0c be 40 19 58 bd ab 36 92 bc 2d e1 61 3e
       -0.13760023 -0.052758455 -0.017848333 0.22058554
000070 31 ca 31 3e f0 47 2b 3e a6 74 c9 3d 7d 21 e5 be
       0.17362286 0.1672666 0.09836702 -0.44752112
000080 07 31 8d be e0 38 8f be 23 57 ef be 15 ad 97 be
       -0.27576467 -0.2797308 -0.46746168 -0.2962424
000090 67 02 f0 3d 36 a2 03 bf 48 27 21 3d 8d 10 bc 3d
       0.11719208 -0.5141939 0.039344102 0.09182844
0000a0 77 76 84 be c4 cf c4 be de 49 cf bd 2d 4c c6 be
       -0.25871632 -0.38439763 -0.10121511 -0.38729993
0000b0 fc 8e fb bd 1b 49 a7 3c 38 5c 83 bd 27 59 82 3d
       -0.122831315 0.020420602 -0.06414074 0.06364661
0000c0 26 51 93 be db 13 06 be 70 2d cf be 69 fd 4a 3e
       -0.2877285 -0.13093512 -0.40464354 0.19823231
0000d0 93 c9 bb 3d e6 c7 7f bd 6e e1 65 be 73 be 89 be
       0.091693066 -0.062446497 -0.22449276 -0.26903114
0000e0 22 b8 99 3e 80 64 23 be 4a 92 27 bd aa da 02 bf
       0.30023295 -0.15956306 -0.040910996 -0.51114905
0000f0 8b 45 34 be d7 bb 9b 3e 97 24 a1 bc 16 20 49 3c
       -0.17604654 0.30416748 -0.019670768 0.012275716
