PPO/PPO2_Trained/PPO_DoubleInvPendulum_500K.pth (torch, 109673 bytes, 18 tensors)

actor.0.weight f4 [64, 6]
00000000: a0bf 02be 38b9 c2be 6777 55be c23a 013e
00000010: 434b 013e 463d b23c 3c08 d23e f1b4 cebe
00000020: 5e54 3bbd 6bfd 633e 8e1d 16be a05a 593e
00000030: d444 3b3f 80d1 98bd daac 07be 07d0 b0be
00000040: ee0a 5cbe 4a23 c73e 8bc0 1a3f 8f31 4fbe
00000050: 5d3b 323c 3d69 c1be 526b b6be 77d3 63bd
00000060: 64d0 05bf 15a0 18be 003d bdbd d2ae a13e
00000070: 2ba9 2a3d 97a4 0ebe 8cb5 edbd 42db c4be
00000080: a4c9 7dbd a8d7 113e 51f9 fd3d c629 1ebf
00000090: 64ce 67be d574 9abd 2e0b 803d 95db 593e
000000a0: d205 b03e 6aff dbbe afd2 193f e81a e0be
000000b0: 0622 81be 4e97 b8be 9f39 4abd 6139 a63c
000000c0: c605 513f 9caa 62be b71e ffbd cef6 66be
000000d0: 597d 053d acbf 783e fffb 4f3e 2664 e8bd
000000e0: 4444 e13e 2b63 a73e dcdb 8b3e 285e 413e
000000f0: 433e 183f 429a f8ba 39db 1d3e bc8a f3bd
00000100: bef1 a2be 68df 553e 4989 d9be 672e b7be
00000110: 64f5 5e3e 4d0e 9a3e 8864 a3bd 5ac3 dbbd
00000120: a0f5 f83e f495 c33e 1fb6 84bd 7974 acbd
00000130: d750 8c3d f07d 22be 1f6b 01be 7285 6ebe
00000140: 13ee d9bc 5314 42be b12d a83e d528 c2be
00000150: ffe1 dfbe df01 7d3e 8f12 303e bd19 be3e
00000160: 5e12 a7be d767 003f 7922 223e ad82 b83e
00000170: eed2 54be bc88 683e fafd ad3e 3b8a 273d
00000180: 3f9d 20bf a200 7bbe 0033 acbe 87da 2cbe
00000190: c46d 91be b2d5 02be 264a ab3f 0e35 63be
000001a0: 9d4f d4be 002e 4ebd b895 9e3e 4e60 8fbe
000001b0: e9de c93d e6e8 2f3e d410 5dbe f4fc bfbe
000001c0: 4af7 bf3e 2a9d b8be 3a48 febd d914 923e
000001d0: 76df 8d3d 68eb 4fbe 92e5 1c3e cf5c 4ebe
000001e0: 2e17 213f 5d36 fd3d e4a3 95be 211a c23e
000001f0: 9a5b e8bd e691 13bd c1a1 59bf 3cfb bbbe
00000200: c919 52be 4f2d 3bbe b65e 88bd e2cf c4be
00000210: 74f7 8a3e 1f81 c03d 0d36 a73e 9b6c cdbd
00000220: 39d1 923e 9721 fe3d d546 4ebe 570b 49be
00000230: fe7d ecbe 724f 0dbd 5444 963d b715 03be
00000240: 439d 34bc 7fc6 c3be 4534 a5be 8a8a b1be
00000250: b899 d1be 8aad 6bbe a64a 873f 0bef 9d3a
00000260: 3881 bd3e 659c dc3d 8f00 f93d 3676 cfbe
00000270: 1668 98bf ec3f 48bd c9fe a43e fad4 e8bc
00000280: 7bb6 53be c7ca f7be 052f 1dbf c41c 883e
00000290: 36f1 cabe bdc4 4d3e 1cf6 c6bc e557 693e
000002a0: a3ec 37bd ca47 90be 6b86 87be c880 fbbd
000002b0: 0bf6 273e 7241 ebbd e19d 67be 8441 683e
000002c0: 0c3f e2bd b2c6 9ebe 19b7 a13e cb96 b4bf
000002d0: f27c 083e e0df 6b3d bedc 83be 221d d73d
000002e0: 46f9 ac3e 82a4 abbe c6c5 78be c3b8 cabe
000002f0: 2216 423e 66ba 3eba 5103 5a3e 85dd 9cbe
00000300: d7f0 d8be 6f12 6d3c 33b3 90be 4557 153e
00000310: a240 81be bb7b 073f b6d8 36bf 2099 37be
00000320: 81d2 ea3d c56b a93d 59b3 bf3c 110a 88be
00000330: c094 5f3f 3f17 dabe 65e7 a93e fd6f 063d
00000340: ec53 1b3e 906d cd3e 3eb3 f3be 1c02 ce3e
00000350: 286f c0be 41f3 81be aabd 853e 8eb6 bbbf
00000360: 9ced 003e c6b4 febd 8fed 2d3e af96 0c3e
00000370: 9011 d3be 7f30 83be 2f6f e63e 98c7 b8bd
00000380: b492 14be b207 b23e f628 c7be 1f15 4c3f
00000390: 46ca 283d cb42 223e fd7a bf3e e3d2 753e
000003a0: 8374 9c3e 100b 203e 295f 4abf 27f8 bbbe
000003b0: 58c1 e83d 91a0 8fbe 7761 8ebd e058 2dbf
000003c0: 19c5 efbd f0da c43e 491a 22be 8011 c8be
000003d0: 1c29 bf3e 54e8 663e 71f4 cdbe cf87 233c
000003e0: b214 16be ef0c 39be c5a3 433e b593 28be
000003f0: db60 04bf c905 62be 5b54 88be 27ee afbd
-0.12768412 -0.38031936 -0.2084633 0.1262007 0.12626366 0.021757733 0.41021907 -0.40372422
-0.045734756 0.2226464 -0.14659712 0.21225977 0.731519 -0.07461834 -0.13249531 -0.34533712
-0.21488544 0.3889411 0.6045005 -0.20233749 0.010878411 -0.37775603 -0.35628754 -0.05562159
-0.52271104 -0.14904816 -0.092401505 0.3157869 0.041665237 -0.13929974 -0.11606893 -0.3844853
-0.061959878 0.14242423 0.12401069 -0.6178249 -0.22637326 -0.07541815 0.06252132 0.2127517
0.3437944 -0.42968303 0.600871 -0.43770528 -0.2522127 -0.36052936 -0.049371358 0.020291032
0.81649435 -0.22135395 -0.1245703 -0.22555086 0.032590244 0.24291867 0.20310973 -0.11347227
0.43997395 0.32692847 0.27316177 0.18883574 0.59470004 -0.0018966871 0.15415658 -0.11891696
-0.3182506 0.20886004 -0.42487553 -0.3577759 0.21773297 0.30089036 -0.07978159 -0.1073062
0.48624897 0.38200343 -0.06480049 -0.08420653 0.068513565 -0.15868354 -0.1263852 -0.23293093
-0.02660278 -0.18953066 0.3284736 -0.37921777 -0.4372711 0.24707745 0.1719458 0.37129012
-0.326312 0.5015845 0.15833463 0.36037198 -0.20783588 0.2270841 0.3398283 0.04090331
-0.6273994 -0.2451196 -0.3363266 -0.16880237 -0.28404057 -0.12776831 1.3382003 -0.22188208
-0.4146699 -0.050336838 0.309736 -0.28003162 0.0985697 0.17178687 -0.2158845 -0.37497675
0.37493354 -0.36057407 -0.1241612 0.2853153 0.069273874 -0.20304644 0.15321949 -0.20152591
0.62925994 0.123638846 -0.292266 0.3791056 -0.113455966 -0.03602781 -0.8501244 -0.36715114
-0.20517649 -0.18279003 -0.0665869 -0.38439852 0.27141917 0.09399628 0.32658425 -0.100304805
0.2867525 0.124087505 -0.20144208 -0.19633232 -0.46189874 -0.034499593 0.07337251 -0.12801252
-0.011023822 -0.38237378 -0.3226644 -0.3467601 -0.4093759 -0.23015419 1.0569656 0.001204939
0.3701265 0.107720174 0.1215831 -0.40519875 -1.1906765 -0.048889086 0.32225636 -0.028421868
-0.2067508 -0.48396894 -0.6139987 0.26584446 -0.39637154 0.20094581 -0.024287276 0.22787435
-0.04490341 -0.2817977 -0.2646974 -0.122804224 0.16402452 -0.11487092 -0.2261882 0.22681242
-0.110471815 -0.31010967 0.31585005 -1.4108518 0.13328913 0.05758655 -0.2575435 0.105036035
0.3378393 -0.33523947 -0.24294195 -0.39594087 0.18953755 -0.00072757003 0.21290328 -0.30637756
-0.42371246 0.014469727 -0.28261718 0.14584072 -0.25244623 0.5292317 -0.71424425 -0.17929506
0.11465932 0.082725085 0.02340095 -0.2657018 0.8733635 -0.4259586 0.33184353 0.032821644
0.15168732 0.40122652 -0.47597688 0.40235984 -0.37584805 -0.253809 0.26121265 -1.4665086
0.12590641 -0.124368235 0.16985153 0.13729356 -0.41224337 -0.25622937 0.450067 -0.090224445
-0.14509088 0.34771496 -0.38898438 0.7971973 0.041208528 0.15845792 0.3739852 0.24006228
0.3055764 0.1562922 -0.7905145 -0.36712763 0.113650024 -0.2805219 -0.06952184 -0.6771374
-0.11707515 0.38448286 -0.1583034 -0.3907585 0.3733605 0.22549564 -0.40225556 0.00998111
-0.14656332 -0.1807134 0.19105442 -0.16462596 -0.5171029 -0.2207252 -0.26626858 -0.08590346

actor.0.bias f4 [64]
00000000: 1ed0 733e 11a9 4fbc 0cf8 89be 68c6 3c3e
00000010: bc94 57be d5c0 22be 2fe8 03bd a2ca 143e
00000020: d1ff 9dbe deea a23e 5309 69be cd39 443e
00000030: 7acc bf3e 5e8b a03e 245d aabe aa43 95be
00000040: 5cc8 62be 2fe3 90be 6d06 9a3e 6307 793e
00000050: 688f c63e 0ab4 0d3e a0d6 6b3e aa7f fd3d
00000060: 2169 ec3d 7a09 8ebe ca53 dabc 57d4 693e
00000070: 4004 b2bd 6358 10be 0d9b b93e 848a ccbc
00000080: d466 8a3e 3563 8c3c d11a 443e 8654 e03d
00000090: 651f 8b3d 5432 733e 3b45 1539 8729 ff3d
000000a0: 1aea 59be efc7 d13e 5677 8a3e d062 b4be
000000b0: 7098 0c3c e32f 57bd 9954 6a3e e18e f0bb
000000c0: aa51 08be 5d5d 6dbd d60f c4be 391b 273e
000000d0: bf7e 92be 53fd 643d f159 163e 8aa6 8b3d
000000e0: d913 cb3e f84f 3d3e e6ec c1be bc61 883e
000000f0: dd82 cebd 54ea 21be fbfd 46be cda0 a03e
0.23809859 -0.012674586 -0.26947057 0.18435061 -0.21052831 -0.15893872 -0.03220385 0.14530423
-0.30859235 0.31819814 -0.22757463 0.19162674 0.3746069 0.3135633 -0.33274186 -0.29153186
-0.22146744 -0.28298327 0.30083027 0.24319224 0.38781285 0.1383821 0.23031092 0.123778656
0.11543489 -0.27741605 -0.026651282 0.22834907 -0.08692217 -0.14096217 0.36251107 -0.024968393
0.27031577 0.01713715 0.19150855 0.109536216 0.067930974 0.23749667 0.00014235538 0.124590926
-0.21280709 0.4097285 0.2704417 -0.35231638 0.008581266 -0.052535903 0.22883834 -0.0073412512
-0.13312402 -0.057950366 -0.38293332 0.16318978 -0.28612325 0.05590565 0.14682747 0.06818874
0.3966358 0.18487537 -0.37876052 0.26637065 -0.10083554 -0.15812045 -0.19432823 0.3137268

actor.2.weight f4 [64, 64]
00000000: 8599 053e 614c 00be b729 0a3e 2197 cbbc
00000010: 6227 99bc 4355 0a3e 70db b7bd b133 9cbc
00000020: 21b6 09be 2ee9 6a3d c88f 55bc c445 713d
00000030: 7ea6 2e3b 486f 51bd 4062 9a3b d25f b9bb
00000040: 300a 42be ec3f 823d eb6e a2bd 52c7 0dbd
00000050: 6249 3f3d b167 b5bd 16df 0e3d b5b6 adbd
00000060: f584 ebbd 956d 883c 2e69 343d 6435 133b
00000070: ef70 3abd 00c6 a3bd 8bf1 82bd 84ad bf3b
00000080: e471 cdbd 8110 813d 08bc c43d 8047 40bd
00000090: bd34 b6bd d062 853d 8ad9 7bbd b325 15be
000000a0: 8d8f d4bd 7f1e 1b3e 47a8 673e a9c7 d4bc
000000b0: 4c66 ba3d 8678 11bc d07e 9f3d 47c1 fabd
000000c0: 9101 20be 4e30 b53d 595a 22be 9bab 25be
000000d0: 68ab 62bd c5ed 4ebd f0be 253c fb3d cdbd
000000e0: 9739 a63d 042e a93c a322 f0bd 958e 0d3e
000000f0: 3d90 b6bd b231 c83d f809 ed3d 50db cd3b
00000100: 0209 b5bd ecf8 04be b950 213d 6ea9 83bc
00000110: df7e 8cbe 97f3 23bd ea5e 2ebc c51e 1d3b
00000120: cf0a 243e 3c9d 1b3e e42b 2dbe 75b6 c43c
00000130: 22b3 93bd c9c8 36be b28b 98bc b52a e1bc
00000140: 4cef 003e 2f51 cd3c df4e 80bd 4eb0 edbd
00000150: 8554 c73d dd2c 98bd 5a28 e2bd 1018 dabd
00000160: c67c 623d d315 04be 655b 203d 5ea6 333e
00000170: 4a62 d1bd e742 c73d fee9 c2bc 3eee 383d
00000180: e254 9f3d a3ad 3f3e 7df6 a5bd 8528 363d
00000190: 310a 5fbe 7c25 903c 5d6b 26bd c1ac 0a3e
000001a0: e64e 313d 175d 3bbd 129b f23d 47ed 3b3d
000001b0: 8e10 0abc 5fe6 743d cf82 55be eef1 993c
000001c0: e0cc 8e3d b847 653e e9d1 8abd 6692 cbbd
000001d0: 6c9d f2bd c1e7 a1bd a0ff 49be a44b ee3b
000001e0: 46f9 9d3d bea1 23be 6581 64be 4e64 333c
000001f0: 7d73 2cbe 738c 6bbe 8fd4 22be 11af b13d
00000200: 39e8 49be 3c2f 1c3d f9bb 64be 7cc6 9c3d
00000210: 874e 17bd 94dd 17be 26f5 743c a059 66be
00000220: fe65 93bd 6a9b c33d 85e6 463e d639 9bbd
00000230: 3688 953c 6913 31bd 6244 753d f15a 163d
00000240: c09e 13be 4da3 7bbd 4b3a 39bd 7c22 183d
00000250: 371d af3d 068d 1fbd 2332 91bc 54e7 46bd
00000260: e1d9 1ebe 2593 f53d 5002 713d fbb7 173d
00000270: 4770 ecbd caad c53e ec51 ecbd c4c7 b53d
00000280: 204d b03d 531c 7f3d 8c38 d2bc c26f 163e
00000290: 5eba f1bc e29b 813e a100 d53d 691f fabd
000002a0: f769 253e 2898 1e3d 7ebc 07be 99d8 453d
000002b0: 3a43 2fbd 2018 a7bd 2bbb 99bd 0468 6e3e
000002c0: 8a9e 8bbd aaaf 2abd 108e 293e e7b7 37bd
000002d0: 2f84 79bb 40fd 51be 1449 4cbd f9fd febc
000002e0: 33e0 6fbd db2e bd3d a077 c4bd 4f9f 3abc
000002f0: 009c 413d 1406 943d 78c8 36be b821 d93c
00000300: 76bd 063c 9608 093d 05b5 67bd c508 86bd
00000310: 3c78 88bd 1659 703d f9f3 77bd 2329 92bd
00000320: 47f4 5ebe e446 4bbe d7fa 293c 07cf 443d
00000330: be1a 893d 87ce 503d 3bd7 a93d b6f2 0bbe
00000340: c078 07bd aa4b 543d 434d 55bd 4aec 153d
00000350: bb48 08be 5aa5 083e dc3d 9abd bd04 323e
00000360: 1e8f 9bbb 89b8 bebd a37f db3d 9098 923d
00000370: a842 cfbc 5c44 00be b4f1 753d f48c a8bd
00000380: bef3 653d 0d0a 913d 4e89 b43c 9cf1 a0bd
00000390: ac98 e23d c36f 943c 9090 a4bc aeab e03d
000003a0: 632a 48be eb34 e03d 1eb6 26bd 4482 023e
000003b0: 9fd1 913a ccdf aebd d572 033c cb71 a83c
000003c0: 31bd bf3d bd36 d4bd c0e5 0d3e 5915 dcbd
000003d0: ebd1 99bd 950b 513d e98a 933b 6010 873c
000003e0: 019d 6dbd 8626 ccbd 0db9 0dba b862 833d
000003f0: e491 d4bd 756a cf3d 8b37 953d a392 62bc
0.13046844 -0.12529136 0.13492475 -0.024852337 -0.018695537 0.13509087 -0.08977401 -0.019067617
-0.13448383 0.057351284 -0.013034768 0.058904424 0.002664953 -0.051131517 0.0047114193 -0.0056571746
-0.18949199 0.063598484 -0.07931312 -0.034613915 0.046700843 -0.08857668 0.03488072 -0.08482114
-0.11499969 0.016653815 0.04404562 0.0022462243 -0.045517858 -0.0799675 -0.06393727 0.005849542
-0.100314885 0.06301976 0.096061766 -0.046943188 -0.08896778 0.065129876 -0.06148676 -0.14565162
-0.10378943 0.15148352 0.22622786 -0.025974112 0.09101543 -0.008878833 0.077878594 -0.12243896
-0.15625598 0.08847104 -0.15854777 -0.16178744 -0.055339247 -0.050519723 0.010116324 -0.100215875
0.08116453 0.020651825 -0.117253564 0.13823922 -0.0891423 0.09775104 0.11574167 0.0062822476
-0.08839609 -0.12985581 0.039383624 -0.016072001 -0.27440545 -0.040027227 -0.010642746 0.002397464
0.16019748 0.15196699 -0.16911274 0.024012784 -0.07211901 -0.17850031 -0.0186213 -0.027486185
0.12591285 0.025063125 -0.062650435 -0.11605893 0.09732918 -0.07430432 -0.11042853 -0.10649121
0.055294774 -0.1289895 0.03914966 0.17543933 -0.10223825 0.097295575 -0.023793217 0.04514908
0.07779862 0.18718581 -0.081036545 0.044472236 -0.21781231 0.017595999 -0.040629733 0.13542463
0.043288134 -0.045743074 0.118459836 0.045880582 -0.0084267985 0.05979001 -0.20850681 0.018792119
0.069726706 0.2239064 -0.067783184 -0.09940033 -0.11846432 -0.07905532 -0.1972642 0.0072722007
0.07713561 -0.15979668 -0.22314985 0.0109492075 -0.1684093 -0.23002796 -0.15901397 0.086759694
-0.19717492 0.038130984 -0.22337331 0.076550454 -0.036940124 -0.14830619 0.014951026 -0.22495127
-0.07197188 0.09551127 0.19423874 -0.07579391 0.018253427 -0.0432314 0.059879668 0.036707822
-0.14416027 -0.061435033 -0.045221608 0.037142262 0.08550494 -0.03895285 -0.017724102 -0.048560455
-0.15512802 0.11990956 0.058840096 0.03704069 -0.11544853 0.38609153 -0.11539063 0.08875993
0.086084604 0.06228287 -0.02566173 0.1469107 -0.029507812 0.25314242 0.104005106 -0.12213022
0.16153704 0.038719326 -0.13255498 0.048302267 -0.04278872 -0.08158898 -0.075064026 0.23281866
-0.06817348 -0.041671433 0.16558099 -0.044853117 -0.0038073172 -0.20506763 -0.04987438 -0.031126963
-0.058563422 0.092374526 -0.09593129 -0.011390521 0.047267914 0.07227722 -0.1784991 0.026505336
0.008223882 0.033455454 -0.056569118 -0.065446414 -0.06663558 0.05867871 -0.060535405 -0.071367525
-0.21772872 -0.19851261 0.010374746 0.048049 0.06694554 0.05097821 0.08293005 -0.13666806
-0.03307414 0.05182997 -0.052075636 0.036602296 -0.13308994 0.13344327 -0.0753133 0.1738462
-0.0047472855 -0.09312541 0.10717704 0.07158005 -0.025300339 -0.12526077 0.06004496 -0.0823001
0.056140654 0.07081995 0.022038128 -0.07858583 0.11064276 0.018119698 -0.020088464 0.10970245
-0.19547419 0.10947593 -0.040701024 0.12745005 0.0011125094 -0.085387796 0.008022984 0.020562073
0.09362257 -0.10362003 0.13857174 -0.10746259 -0.07510742 0.051036436 0.0045026434 0.0164873
-0.05801106 -0.09968285 -0.0005406298 0.064153135 -0.10379389 0.10127727 0.072859846 -0.013828906

actor.2.bias f4 [64]
00000000: 3e4f 0d3e 9187 a53d 8749 a5bc bf12 133d
00000010: 5cab 7d3d 5ae8 6a3d 6ae2 3fbd 0c40 d03c
00000020: 7990 ba3d 5c92 1c3b a06c c9bd afd8 42bd
00000030: e261 d13d 8e85 8b3d 8238 293c 27ad ebbd
00000040: 34cd 863d b5d8 bf3d 0577 ad3d 9c2c 0cbe
00000050: f3e1 053c b294 82bd 10be 013e 74db ef3d
00000060: a28f 1cbd 7b73 cc3d 1728 50bd 8cf2 c4bd
00000070: 1c02 ef3d ee42 bf3c 1473 5f3a a0ba a73d
00000080: a900 a0bd 39f2 abbd 2267 52bd b392 9dbd
00000090: b716 ef3c a9b9 80bd fb84 33bd 3e69 d9bd
000000a0: ed1e 403d 93ad 103d 29be 1fbd fc11 8c3c
000000b0: ab22 42bc e9f7 07be 8dde 353c ee1e e43c
000000c0: d55e f03d 406d 54bc d524 a33d c248 0dbd
000000d0: aa76 95bd 8cbc be3d 62ad efbc dda0 a13c
000000e0: a420 b73d 01b4 843d 2db4 8cbd a6ec 0abe
000000f0: 5c8d aebd 76a4 75bd 0a6e bbbc fa0b fdbd
0.1379976 0.08082498 -0.020176662 0.03590655 0.061931 0.057350494 -0.046846785 0.025421165
0.09109587 0.0023890948 -0.09835172 -0.047569927 0.10223748 0.06812583 0.010328414 -0.115076356
0.06582108 0.093675055 0.08469967 -0.13688892 0.008171546 -0.06376018 0.1267016 0.11711779
-0.038222916 0.09982964 -0.050819483 -0.09616575 0.11670324 0.023347344 0.0008523923 0.08189893
-0.07812626 -0.0839581 -0.051367886 -0.07693996 0.029185636 -0.06285412 -0.043827992 -0.106157765
0.046904493 0.035321783 -0.03899971 0.01709842 -0.011849086 -0.13278164 0.0111004235 0.02784678
0.11736838 -0.0129655 0.079660095 -0.034493215 -0.07298024 0.09313306 -0.02925748 0.019730026
0.089417726 0.064796455 -0.06870303 -0.13566837 -0.08523056 -0.059971295 -0.02287962 -0.123558

actor.4.weight f4 [64, 64]
00000000: deaf 9c3c fc67 86be a10d 1abe c697 323d
00000010: 8a5c 3a3d 9aec 403c ce76 ef3d 6843 013e
00000020: b604 383d 6a87 813d daaa e63d 39cd 993d
00000030: 4079 183d bdeb 083e 763f 813c fc18 a3bd
00000040: 1233 763d 7119 c23d 8dc9 f13d 6183 88bd
00000050: ba49 0b3d 3f90 a9bd 7354 d7ba 69e0 59bd
00000060: c435 bd3d db1c 093c 4322 f23c d922 a13e
00000070: 984e 3fbc cc12 123e 4cb4 143d dce9 a33d
00000080: 37eb a8bd 4d14 33bd b396 b1bd dfca edbb
00000090: b36d e53d 4613 733d b66c 643c 84d1 0ebe
000000a0: 552f ed3d c06a b2bd 8b83 babd 213b b3bb
000000b0: 0392 40bd 057b 403e 38d7 7e3d 0966 78bc
000000c0: 2288 a83d 7c48 913d 821f 6bbd dc97 263e
000000d0: c722 5c3d 8196 f93d 7765 033d 3450 893d
000000e0: acc7 6a3d fe8f c43d f9fa 70bd 2ba8 ee3d
000000f0: b388 68bb 5718 7a3e 7365 ca3b a049 b73d
00000100: da2b 5f3d 450a 5dbe 2304 c83c 1a6d ac3c
00000110: b14f f6bd 3a88 4c3d cf0a 3b3e 34a4 e5bd
00000120: 5f32 83bd 0f4b f33d 7cec 69bd d943 48bc
00000130: 1002 04be 5ce9 5ebd 887d 66bd 5561 63bd
00000140: 8afc 7c3d ce2a e9bd 65f2 6e3d 6387 23bc
00000150: 9a2d 843d 0079 64bd 3b31 7c3d 3f94 c03d
00000160: 431e e9bc 8ce6 bbbc d93e 3abe c9b4 893e
00000170: 4384 edba 5f8c b33d a55e 0f3e 4fda 90bd
00000180: f531 1cbd 0c68 60be 5c1e b0bc 4c20 173e
00000190: b44e 683d 0572 80be e091 3d3d 9a71 423c
000001a0: e37d 323d 21a3 c1bc 6f2c 69bc 41c3 eebc
000001b0: f240 e6bd 9b7d 1d3d 2638 21be b6b0 eb3d
000001c0: 1df8 b03d 7516 103d 7057 763c 99d7 733d
000001d0: 3c4c 99bd 4c35 113e 80ef a93d 64db b53e
000001e0: 317c 103e cd8b 83bd 86ce df3b dd6c 84bc
000001f0: acd3 0fbe 5d35 923e 100c 8e3c 48e0 2d3e
00000200: ac75 503e 6317 0abe c0c7 fdbd f59d 4d3d
00000210: 5c39 2fbf 6b00 ea3d 0b07 a03c 81ef b13d
00000220: 6f7d 8abd 2402 a7bd 3f1c 3fbe 694d 38b9
00000230: 29c1 e4bc 0020 02bd d780 87bd 624a 043e
00000240: 4ac7 0fbe 66b2 4a3d a1f7 3f3d c052 7b3d
00000250: 0241 17bc 66a0 f13d 7916 e5bd c7f7 b43d
00000260: 6674 46be 8076 0c3e 1303 7b3d 5236 3b3e
00000270: e878 96bd 2242 50be 4e2a e0bc a370 a9bd
00000280: 4f94 043e 58c5 bb3d 11f5 3d3e 1e60 913c
00000290: 1af3 f7bd 8462 29bd 915b 1abd 95f2 3bbe
000002a0: 40a3 edbd fc14 34be 6dc3 51be 6952 023e
000002b0: df59 4abe 0dbb a8bd 107d 643d 7421 8a3d
000002c0: 2a62 c3bd cf7e 493d b821 063e 0d45 153d
000002d0: 1cce eb3d 1696 b1bb e17d a03d e2b0 fdbd
000002e0: baff d13a 6efb d7bd 22bd 99bd 0ff9 d43d
000002f0: b0d5 9abd 03a5 f43d 5bef 4b3d 5e88 173e
00000300: 5b92 03be 4c7a 463e 9ae0 8a3d 30f0 373c
00000310: 23a3 d53c 8225 44bd 0f07 81bd c9c9 93bd
00000320: 2883 b8bd d07e 05be cc77 57bd 234f 86bd
00000330: 280b 833d c988 58bd 99fd e63d e068 a93d
00000340: a5fa e6bb cb65 41bd 7f8a d3bd 40ca 733e
00000350: 50e0 cfbd acc5 ad3b cfbc 5abd 986f da3c
00000360: ac1d 90bc 6c59 073e 41e5 b33d 3f1a d1be
00000370: 4c90 003e 1e25 953d abe7 00be d880 a8bd
00000380: 96f7 cc3c 16cc 9c3d 9c24 e73d a7ed bcbd
00000390: 2862 313d a5d2 213c 0a64 2fbd ed13 173e
000003a0: 545d d73b 7e16 013e 6f9a f33d 7ad3 813d
000003b0: b88d 603e d38d 61be c3b6 893d 0c27 693d
000003c0: 16bc a6bc c15b 7cbd 6339 db3d 0454 ff3d
000003d0: 255a 24bd 3301 21be 6300 4b3d d135 abbe
000003e0: 2f55 f5bd 8293 d43d 0163 673a 4449 c43d
000003f0: 2e8a 323d abc0 a3bd a081 1ebe 0daf 82be
0.019126829 -0.2625121 -0.15044262 0.043601774 0.04549841 0.01177516 0.11692582 0.1262337
0.044926368 0.06324656 0.11263056 0.07509846 0.037225008 0.13371177 0.01577733 -0.0796375
0.0601073 0.09477509 0.11806021 -0.066656835 0.034005858 -0.08279466 -0.0016428366 -0.05319253
0.092387706 0.008368696 0.029557353 0.314719 -0.011676453 0.14264983 0.036304757 0.080035895
-0.08247989 -0.043720532 -0.08671322 -0.00725685 0.11202564 0.059344552 0.013941934 -0.13947111
0.115812935 -0.08711767 -0.09107121 -0.005469695 -0.047014248 0.18796928 0.062216967 -0.015161046
0.0822909 0.070939034 -0.057403095 0.16268867 0.053744104 0.121869095 0.032079186 0.06704751
0.05731933 0.09597777 -0.058833096 0.11653169 -0.003548187 0.24423347 0.0061766445 0.0894959
0.05448518 -0.21585949 0.024416035 0.021048117 -0.12026919 0.049934603 0.18265842 -0.1121296
-0.06406092 0.11879551 -0.057110295 -0.012223207 -0.12891412 -0.054421768 -0.05627206 -0.055512745
0.061764278 -0.113851175 0.058336634 -0.009981009 0.0645401 -0.055779457 0.061570387 0.09403276
-0.028456813 -0.022937082 -0.18188037 0.2689574 -0.0018121082 0.08767008 0.14000948 -0.07072889
-0.03813358 -0.2191469 -0.021498851 0.14758414 0.056715682 -0.2508699 0.046281695 0.011867905
0.043577086 -0.023637356 -0.014231785 -0.029145839 -0.11242856 0.038449865 -0.15744075 0.11508314
0.08641074 0.035177667 0.015035495 0.05953178 -0.07485244 0.14180487 0.08297634 0.35518944
0.14109875 -0.06423149 0.0068300394 -0.016165191 -0.1404559 0.28556338 0.017339736 0.16980088
0.20357388 -0.13485484 -0.12391615 0.050199468 -0.684469 0.11425861 0.019534608 0.0868826
-0.06762206 -0.08154705 -0.18663119 -0.00017576445 -0.027924137 -0.0317688 -0.06616371 0.12919
-0.14040866 0.04948654 0.046867017 0.061358213 -0.009231808 0.11798172 -0.11185927 0.08836322
-0.1938034 0.13717079 0.06128223 0.1828244 -0.0734728 -0.20337728 -0.027363922 -0.08273437
0.129472 0.091685 0.18550517 0.017746028 -0.12106915 -0.041353717 -0.03768498 -0.18354256
-0.11603403 -0.1758613 -0.20484705 0.1272675 -0.19760846 -0.08238802 0.05578333 0.06744662
-0.09540208 0.0491932 0.130988 0.036442805 0.115139216 -0.005419503 0.078365095 -0.12387253
0.0016021647 -0.10546003 -0.07506777 0.10399067 -0.07560289 0.11945536 0.049788814 0.14798114
-0.12848799 0.1938259 0.067811206 0.011226699 0.026078766 -0.047887333 -0.063001744 -0.07216222
-0.09009391 -0.13036656 -0.05260448 -0.06558063 0.06398612 -0.052864823 0.11278839 0.082719564
-0.007048922 -0.047216218 -0.103291504 0.23807621 -0.10150206 0.0053031053 -0.05340272 0.02666454
-0.017592274 0.13217705 0.08783961 -0.40840337 0.12555045 0.0728247 -0.12588374 -0.082277
0.025020402 0.07656114 0.112862796 -0.09225016 0.0433065 0.009876882 -0.042820014 0.14753695
0.006572405 0.12606236 0.1189469 0.06339164 0.21929061 -0.22026758 0.06724312 0.056922004
-0.020353358 -0.06161094 0.10704305 0.124671966 -0.04012503 -0.15723114 0.049560916 -0.33439496
-0.11979138 0.103796974 0.00088267034 0.09584287 0.04358881 -0.07995733 -0.15479136 -0.25524178

actor.4.bias f4 [64]
00000000: 22f8 7d3d 2d50 afbd 4062 953d 07e4 b33c
00000010: 1550 353d 0d19 803c 4eb3 42bd d83b 493d
00000020: 83ad cabd 89ca a43d f78a b0bd 5b52 7bbd
00000030: f19c 423d 6197 a83d 509f 2c3c 097d 0cbe
00000040: 3451 50bc 535a c63d 78ee 2cbe edcd d03d
00000050: b440 17be f949 42bd c684 6e3d 2e6d ab3d
00000060: f01c dbbd 392e acbd 04c0 2bbe 3ca3 5abd
00000070: b39e ea3d fc00 6e3d fab9 ed3d 7f35 38bd
00000080: 076b b1bd cb38 26be a374 9dbc d299 cdbd
00000090: 223f 8ebd 7e9a bf3c 6f65 9ebd 1e6b eabd
000000a0: 8f70 c6bd d8ed d13d 0694 c33d f973 9dbc
000000b0: f4e8 f93c 5487 cd3c b632 cd3d 96b1 b5bd
000000c0: 0402 22bd fb8f bf3c e14b 043e 0156 5cbd
000000d0: 9fb5 8e3d a3c2 46bd 6a83 c3bc fbb1 d5bc
000000e0: 74f7 8f3d 02e0 4ebd 4295 63bd 2be5 bb3d
000000f0: 0f17 b23d b521 bdbc 9456 d73d 1ead 78bd
0.062004216 -0.08560214 0.0729413 0.021959318 0.044265825 0.015636945 -0.04753428 0.049129337
-0.09896376 0.08046443 -0.086202554 -0.061357837 0.047512952 0.08231998 0.01053603 -0.13719572
-0.012714673 0.09685197 -0.16887844 0.10195527 -0.14770776 -0.047433827 0.05823209 0.08370434
-0.10698879 -0.08407254 -0.16772467 -0.05337833 0.11456051 0.058106408 0.11607738 -0.044972893
-0.08662992 -0.16232602 -0.019220656 -0.100391045 -0.069456354 0.023389097 -0.07734191 -0.11446212
-0.096894376 0.10250443 0.095497176 -0.01922034 0.030506589 0.025088944 0.10019438 -0.088717625
-0.039552703 0.023384085 0.1291957 -0.053792957 0.06968235 -0.048525464 -0.023866374 -0.026085844
0.0702962 -0.0505066 -0.055562265 0.0917457 0.08695804 -0.023087362 0.1051456 -0.060711972

actor.6.weight f4 [64, 64]
00000000: 3dfb f53d 86cf 1cbe 38f2 7fbe 2be0 063c
00000010: 554a b1bd 8d66 ed3c faa4 7f3d 6138 ba3d
00000020: 8d16 3a3e 7c7c 46be 5b71 65be b69a 30be
00000030: 74ef 2b3e 68d2 33be b25c 8bbb 1085 3ebe
00000040: 756f 97bd 9bf4 b8bb e53c 823c fe89 743d
00000050: ca96 01be eeed 9fbd 0a45 e8bd 5f0c ffbc
00000060: b4d2 e9be b28e fa3d c66f 313e aee9 353d
00000070: f699 863b c868 9cbd 3fa1 16be df77 debd
00000080: 6541 d33d a420 35be d28a ffbd a745 c9bd
00000090: cf8a 7a3d caef 6d3e ead5 f83d 044c b2be
000000a0: dfcf 1ebe 7a90 68be c1cc 7fbe 8a2f 433e
000000b0: 7aad 023e 835c 703d feb9 71be 77d6 eb3e
000000c0: 9c37 d93d 2e1c 093d 76a9 2cbd 998b 2bbe
000000d0: a55f 33be 1027 c0bc 3268 f3bd 5f14 c83d
000000e0: e399 f63d b26c aa3c cf9b 7a3b 6c92 f63b
000000f0: 8624 74bd 649e a2be 199f 7d3d bc98 bcbd
00000100: d992 95bd 42ac e43c b691 56be 429c f23d
00000110: f64e 0dbe 0a48 003d 1b92 963d c55a 47bc
00000120: b3a4 a33d 5f9e 21be 5fdd 08be 4e6e 0b3d
00000130: bfa0 5cbd dbb2 903c 724c 78bd 72ad 1ebe
00000140: eb43 d83d 85b0 c6bd 0b28 c2bb 044f 3cbd
00000150: bfef a3bd fb25 0e3e 4bb0 b43d 0ecb 153e
00000160: 8d51 babe 819c 2cbe f192 f33c aca8 d9bd
00000170: 72f9 ac3d 0683 8dbd e162 1bbc cd70 adbe
00000180: 1a95 02be 8411 36be 1489 1ebe f269 f6bd
00000190: ba98 b8bc 1ff1 c33c 5d0c 023e cd7d 31be
000001a0: 3c33 c13d 0c4e 74be 38b6 bfbd 25b0 2d3e
000001b0: ea05 0e3e 6f11 1b3e d738 acbc 4285 d83e
000001c0: de0a c4bd a655 00bd 47a9 0f3e 7b57 81be
000001d0: 7fd7 e43b a34c 10bd 9e0a 1d3c eb83 b33d
000001e0: ecc3 1d3e 66f7 c4bd 4a02 a7bd e9ba 5e3c
000001f0: f6ce e83d 29a8 4abe 2928 f0bc d789 a73d
00000200: 2831 d4bc 6e07 f5bd d33f 5bbe d6fb 8abd
00000210: b41b 1cbe 135f 223d 3a15 f53c b544 d83d
00000220: 1242 b63d ce2e 1cbd 4222 b4bc ff15 b53d
00000230: 9699 3abd c545 19be 87cf 8c3d d15c 82bd
00000240: 85cc 83bd dc36 86bd 609e 413e c114 513d
00000250: 94bd d13c e782 113e ad9a 05be 6e03 80bd
00000260: 3990 88be de2b 0cbe e027 c13c cade 3fbe
00000270: d95a 0d3e 53b7 96bd f86c 23bd 8a5e 58be
00000280: 26b7 36be e502 87bd cf82 f5bd f152 2a3d
00000290: b8c3 55bd faae a23d bca0 59bd f586 07be
000002a0: ec14 353d facd 7bbe 4325 27be cb69 b93c
000002b0: 412c f33d 0d26 293e 0016 d9bd c46f 0e3f
000002c0: 4a14 a53d 9038 f6bc ae0e 113d ff38 46be
000002d0: 171f 263e 0f22 d83d 6efb b63c 5891 703d
000002e0: d3d0 f43d d918 e3ba 6966 0a3e 04c9 febd
000002f0: ac29 64bd 0f32 4fbe e98d 263d c864 853d
00000300: 67e7 08be 6a1f 43be 9940 e63d 90be 1b3d
00000310: cf50 02be 73d5 713d 4573 24be 23c9 223b
00000320: 275a f43e b2d5 debb f281 67be feb7 c2bc
00000330: 8221 953d a9b3 eebd 0551 3cbd ddcb 31be
00000340: d31e d43d 3dc8 a5bd e35c 953e af0b 8a3d
00000350: a61a 17be 1c90 c4bd 07d9 fd3a d1f9 b5bd
00000360: fb33 a0bd 7f70 96be 791b 1ebe c2f1 dbbc
00000370: 2515 bd3d 78fe 8c3d 6283 3e3d fd9d cebe
00000380: 1ac4 1bbe 281f 583d d383 9dbe 38f0 953d
00000390: b6ee 38be 97d5 323d 43c6 ba3d 8746 31be
000003a0: b78b a93b 0a5d 9cbe da66 82bd 634f 473d
000003b0: 6fb2 dc3c 2d7a bb3e 81fb f53d 682c 083f
000003c0: 1af7 8ebe e71f 353c 58f8 083e e351 343c
000003d0: 870d 36be faf6 8e3c 4694 d3bd 654b 103e
000003e0: bfc4 943d 2cf6 a9be 6bff 433d af51 4abe
000003f0: 3da8 fdbd 8f58 4cbe 9638 45bd 49dd cabd
0.120108105 -0.15313539 -0.24994743 0.008232157 -0.08656756 0.028979564 0.062413193 0.09092785
0.18172665 -0.19383425 -0.22406523 -0.17246518 0.16790563 -0.17560732 -0.0042529935 -0.18605447
-0.073943056 -0.0056443936 0.015898177 0.059701912 -0.12655178 -0.07809053 -0.11341293 -0.031133829
-0.45668566 0.12234248 0.17327794 0.044412307 0.004107709 -0.07637173 -0.14709948 -0.10862707
0.103152074 -0.17688233 -0.1247765 -0.09827738 0.061167534 0.23236004 0.12150176 -0.3482362
-0.15508984 -0.22711363 -0.24980451 0.19061103 0.12761489 0.058681976 -0.23606107 0.4606206
0.1060631 0.03347414 -0.042153798 -0.16752471 -0.17516954 -0.023456126 -0.11885108 0.097695105
0.1204107 0.020803783 0.0038239842 0.007524779 -0.059605144 -0.31761467 0.061919305 -0.09208819
-0.073033996 0.02791417 -0.20954022 0.1184621 -0.13799652 0.0313187 0.07352086 -0.012167637
0.07990398 -0.1578307 -0.13365696 0.03404074 -0.053864237 0.01766341 -0.06061978 -0.15495852
0.10559829 -0.09701637 -0.0059251837 -0.045973793 -0.08004712 0.13881676 0.08822688 0.1462824
-0.36390343 -0.16856577 0.029733153 -0.10627875 0.084460154 -0.06909756 -0.009484024 -0.33875123
-0.1275219 -0.17780119 -0.15481979 -0.12031926 -0.022533763 0.023918686 0.12700029 -0.17333145
0.094336 -0.23857898 -0.09360927 0.16961725 0.13869444 0.15143369 -0.021023197 0.42289168
-0.09572385 -0.03133168 0.14029418 -0.25262055 0.006983697 -0.035229336 0.009585051 0.08765396
0.1540677 -0.096175 -0.081547335 0.013594368 0.113676 -0.1979071 -0.029316025 0.08180588
-0.025902346 -0.11964308 -0.21411066 -0.06786315 -0.15244943 0.03964145 0.029917348 0.1055998
0.08899321 -0.038130574 -0.021988992 0.08842086 -0.045556627 -0.14968021 0.0687552 -0.063653596
-0.064354934 -0.06553432 0.18908072 0.051045183 0.025603093 0.14210092 -0.13047285 -0.06250654
-0.26672533 -0.13688609 0.023578584 -0.18737331 0.13804187 -0.07359185 -0.039898843 -0.21129814
-0.17843303 -0.06592349 -0.119878404 0.041583005 -0.052188605 0.079435304 -0.053131804 -0.13235076
0.044209406 -0.24590293 -0.16322808 0.022633454 0.11873675 0.16518421 -0.10599899 0.5563929
0.080605105 -0.030056268 0.03541439 -0.1935768 0.16222797 0.10553371 0.022336688 0.05873236
0.119538926 -0.0017326131 0.13515629 -0.124406844 -0.055703804 -0.2023394 0.04066268 0.06513363
-0.13369523 -0.19054952 0.1124279 0.03802353 -0.12726139 0.05904145 -0.16059597 0.0024839125
0.4772503 -0.006800377 -0.22608164 -0.023769375 0.07281782 -0.11655361 -0.045975704 -0.17362924
0.10357442 -0.08094833 0.2917243 0.0674051 -0.1475626 -0.09597799 0.0019367047 -0.08885539
-0.078224145 -0.29382703 -0.15440167 -0.026848678 0.092325486 0.068844736 0.046512015 -0.4035491
-0.15211526 0.052764088 -0.30764636 0.07321209 -0.18059811 0.043660726 0.09119847 -0.1731206
0.005174126 -0.30539733 -0.06367274 0.048659693 0.026940553 0.3661665 0.12010861 0.5319276
-0.279229 0.011054969 0.13375986 0.011005851 -0.17778598 0.017451752 -0.10331015 0.1409126
0.07264089 -0.33195627 0.047851007 -0.19757722 -0.123856045 -0.19955657 -0.048149668 -0.09905488

actor.6.bias f4 [64]
00000000: 6732 e2bd 704b a83d 5d4a 953d 0b50 9f3d
00000010: da42 20bd 7bab 4c3d fa58 d33d 1f23 bfbc
00000020: d79d 1a3d bf63 26be 8d0d 02bd cfb9 01be
00000030: c2be 533d 2b40 a33c 223c 963d 345c c23d
00000040: 2b4f d7bb 6b55 b9bd dbb7 6837 7cce bc3d
00000050: 1077 84bc 524a 553c 5026 b1bd ad8a ee3b
00000060: 4295 1cbd 2905 abbc 61c8 da3d 875b 7fbd
00000070: c48c 0a3e 3939 ba3d 34c0 0cbd c4d6 4b3d
00000080: ee9f 993d 862e 9fbc 5bf5 ef3d 4e4c e1bb
00000090: dc90 fa3d fda5 e4bd fa4e 243d b31c ee3d
000000a0: 0362 ae3c a772 c13d 23c4 37bc 52aa be3d
000000b0: bfd1 04be 9ced 31bd 7cbd 0dbe ed6f 6b3c
000000c0: 931b f13d 1dff 77bb 25f1 45bd f967 1ebd
000000d0: 1685 81bd 6a1e b4ba 0efd 2ebc 66a7 7abc
000000e0: 7571 bc3c c9d5 07be b908 84bd f31d 3a3d
000000f0: a8f7 7bbd 2690 1abe 338e b73d 7bfd 53bd
-0.1104477 0.082175136 0.07289574 0.07778939 -0.039126255 0.049968224 0.10319705 -0.023332177
0.037748184 -0.16248988 -0.031751204 -0.12668537 0.051695593 0.019928059 0.07335688 0.094902426
-0.006570717 -0.09049495 1.3871085e-05 0.09219071 -0.016170055 0.013018208 -0.08649886 0.007279715
-0.03822828 -0.020876484 0.106827505 -0.062343147 0.1353026 0.090929456 -0.034362987 0.049765363
0.07501207 -0.019431364 0.1171672 -0.0068755513 0.12234661 -0.11164472 0.04011438 0.11626568
0.02128697 0.09445696 -0.011216196 0.0930983 -0.12970637 -0.043439493 -0.13841814 0.014369947
0.117728375 -0.0037841268 -0.048325676 -0.038673375 -0.06324212 -0.0013741974 -0.01068045 -0.0152987
0.02300332 -0.13265146 -0.06446976 0.045438718 -0.06151548 -0.15094051 0.08962669 -0.05175541

actor.8.weight f4 [1, 64]
00000000: c8db efbe f6e4 22be 12ed 1fbe 0df8 cdbe
00000010: b0f0 e3bd a3af 1fbf b924 0bbe 34fb 723e
00000020: 587a 15be ab06 fabe e358 fbbd dd04 9c3e
00000030: eaeb b53d ef50 c13d 1dbe ce3d 15d3 2cbe
00000040: 0f30 8abe 6315 b43d e0c7 073e 6bb8 1fbe
00000050: 7021 90be 618c 05bf e7d5 47be ea41 7b3d
00000060: 3756 863e 616d 123e e0e5 9abc 1f91 5c3e
00000070: c657 e4bd 1a62 b93d cf22 e33d 6ff7 2b3e
00000080: 1e10 1f3e 2277 79bd add5 f53d 1a0b 333e
00000090: a76e dd3d fb53 21bf c5be e53e b5e3 0bbe
000000a0: e618 ef3d 6b88 f53d c035 85be ddfa b3bd
000000b0: 3209 57be c285 4e3e 50f4 f6be baaf 1fbe
000000c0: ccfe 05be 9bd3 153f 0de0 1b3f 4ad7 99bd
000000d0: 5c77 14bf ab2b ccbc db1d a5be ab34 65be
000000e0: 58a5 5e3d 1e20 acbe a66f 49be 3d47 62be
000000f0: 2243 ed3d 5c14 ea3e c664 25be 38f7 81be
-0.46847367 -0.15907654 -0.15617779 -0.4022831 -0.11129892 -0.62377375 -0.13588227 0.23728639
-0.14597452 -0.48833212 -0.12272813 0.3047246 0.08882888 0.09439265 0.10094855 -0.16877396
-0.2698979 0.08793142 0.1325984 -0.15597694 -0.2815051 -0.52167326 -0.19515191 0.061342157
0.26237652 0.14299537 -0.018908441 0.21539734 -0.11149554 0.090519145 0.110906236 0.16793607
0.15533492 -0.06090463 0.12003646 0.17484704 0.10812121 -0.6301877 0.44872108 -0.13661082
0.11674671 0.1198891 -0.2601757 -0.08788083 -0.20999601 0.20168212 -0.4823327 -0.15594378
-0.13085479 0.5852601 0.6088875 -0.07511766 -0.5799463 -0.024923166 -0.3224934 -0.22383372
0.054356903 -0.33618253 -0.19671497 -0.22097488 0.1158507 0.45718658 -0.16151723 -0.25383925

critic.0.weight f4 [64, 6]
00000000: 5f20 c23f 4464 a0bd 4162 323e 6250 dbbd
00000010: f5b0 0a3e 869d a73f 1ef1 1d40 87a7 f7be
00000020: 7baa bdbe f831 1ebe b98a 943e 6f42 a4be
00000030: 02dd 44bf d3dc 68bd ac33 263e cdf8 173e
00000040: d4cc f8bd 3b65 37bf 4daf 07bf 13ec 863e
00000050: e79d cdbb 36ac 833e 051f 75be d6d1 a7bd
00000060: 8451 b73e ebc5 c83e 46c5 90be fc4b 923e
00000070: 0ddf 93be ef23 6bbf 7eea a63f be48 b7be
00000080: f04f f7bc 36ec babd 153a c63d a44f 00c0
00000090: bc69 413f e2fd a03e 5c03 d3be 798c 9d3e
000000a0: f4c7 80be 428b e8bb 4a0b 90bf e668 88be
000000b0: f599 1a3e f461 9cbe 5028 a53e 24c4 3bbf
000000c0: a8fe cd3f 2de6 4fbe 071f 8dbe bede cfbd
000000d0: df2f 443e e3b9 583f a8af e83e d948 babe
000000e0: f8c2 7b3d 2012 eebc 806d 8fbe 771a d83e
000000f0: c8c9 a3bf f6ec 91b9 bbd3 cdbe ae01 47be
00000100: 1b45 95be 2b50 bbbe 1713 3cbf 1f88 06bf
00000110: 564f 8ebd f81e dfbc 3f1d c13d 04b8 17c0
00000120: ab2b dfbf b9b2 1cbe 543c 9a3e 74ed b33e
00000130: c1cb b7be d85f ba3e 919c d43e c45d 5e3e
00000140: 5d8e 07be 4aa7 febd e7a6 24bd 56fa 673f
00000150: 9982 50bf 711f 9a3d efb1 d2bd c01b 2d3b
00000160: c1ae 623d 2271 873f 186f 6dbf e65f e8be
00000170: 550d ac3e 793a 503e 5235 46be d2a5 73bf
00000180: 47e6 e23f 498f 06bf 968d eb3c 0671 943e
00000190: 2244 9f3c 4714 46bf da45 f23e e467 123e
000001a0: 132f 78be 8207 c33e acad cdbe f4a2 cf3e
000001b0: 13e0 1dbe a9d0 d93e 8f5d 8dbe c4a3 af3e
000001c0: f918 adbe cf90 aa3f 39fd a33e 0119 95be
000001d0: 653a 9b3d 4bd0 c33d e231 6e3e feee 643f
000001e0: d0bd 373f 3364 78be 6342 b3be ad24 933e
000001f0: b350 fd3c 2715 1dbf ceda 8cbd fbb6 4d3e
00000200: b644 d5bd 5ba9 62be 14c4 cbbd ee1d 1d3f
00000210: 95f6 793f f12d 3abe 2f48 f3be 371e 993d
00000220: be6a 1d3e 5205 64be 881e 49bf 0602 73be
00000230: b143 953e d2ad 863e 3f9d 28be 95b1 843e
00000240: a317 b9be 0950 71be d53b 81be b805 70be
00000250: 328d d43e a262 2f3f 21bc 4e3f 350d 68be
00000260: 5677 a4be 0e05 d23d c30b 70bd 50c5 763f
00000270: 5c44 2240 1a2b 12be a519 a1be 3526 ebbd
00000280: a1d9 c83c d0aa d2be ac91 29be 4c48 3a3e
00000290: c19f a4be aa33 753e e679 75be e3f2 82be
000002a0: 0d1b 3cbe 682c 663e 937f 7fbe 97a2 2bbe
000002b0: ba51 be3e 90e3 173f 6d7f 393f 059b 9b3e
000002c0: ddf2 d2bb 6cc5 c83d 85f9 92bc 580b 563f
000002d0: f9a8 0bbf 0740 8cbe 19dc ffbd d6f4 0c3e
000002e0: e200 cbbd 3ecb 8a3f 4fba 3f3e db3f 803e
000002f0: eadd 013e eae5 f63d 95ef eabd 7e2a acbf
00000300: 58c1 d03d ca0e c03e 84f9 163e 6b04 8d3e
00000310: bc75 99be 1657 eabe 3bae 5b3f 61ac 02bf
00000320: 6c98 953d 02ca 6d3e 7b45 faba af0e 8f3f
00000330: 6845 13c0 b395 2bbd 0766 a53d 214a 0e3c
00000340: b0e6 d9bd 1970 ee3d fa22 9fbe dba2 c9bc
00000350: c321 ecbe bacf bd3d 7e24 43be c26d b5be
00000360: e8e5 053f 5754 abbd 4a27 9c3e 7dbe 9fbe
00000370: 89a1 92bb bc3e 423f 4eaf fa3e 344f aebe
00000380: 5056 f73d a6b8 913d cffc 433e 6601 29be
00000390: 8771 a03e ef7d 88be b3f0 5fbe b0a7 903e
000003a0: 9926 7abe 85b7 31bf ce17 b8be 57ba e8be
000003b0: 0b2e 6a3d 3858 3b3e 55f9 203d 8520 093e
000003c0: 914a f0bf 57b7 93be c44c d43d 4585 0abe
000003d0: 015b 33be 2261 b33f b1bd aabf ba00 443d
000003e0: b382 343e 1438 4d3e 3b39 40be 2e32 1d3f
000003f0: 34bd b73e ac54 2e3d b8b1 e23e 7f23 a5bd
1.5166129 -0.07831624 0.17420293 -0.10708691 0.13544066 1.3094947 2.4678416 -0.4837
-0.3704413 -0.15448749 0.29012087 -0.32081935 -0.7689973 -0.05685122 0.16230649 0.14841004
-0.12148443 -0.7163884 -0.5300186 0.26351985 -0.006274927 0.25717324 -0.23937614 -0.0819432
0.3580438 0.392135 -0.28275508 0.28573596 -0.28881112 -0.91851705 1.3040311 -0.35797685
-0.030189484 -0.09127085 0.09679047 -2.0048609 0.7555196 0.31443697 -0.412135 0.30771235
-0.25152552 -0.007096679 -1.1253445 -0.2664253 0.15097792 -0.30543482 0.32257318 -0.7334616
1.609334 -0.20302649 -0.27562734 -0.101499066 0.19158886 0.8465864 0.45446515 -0.36383703
0.061465234 -0.029061377 -0.2801323 0.4220769 -1.2795954 -0.00027833105 -0.402006 -0.19434234
-0.29154286 -0.365846 -0.7346663 -0.52551454 -0.06948726 -0.027236447 0.094294064 -2.3706064
-1.7435201 -0.15302552 0.30124152 0.351421 -0.3589764 0.36401248 0.415257 0.21715456
-0.13237901 -0.124342516 -0.040198233 0.9061636 -0.81449276 0.07525528 -0.102878444 0.0026414245
0.05534244 1.05814 -0.9274764 -0.45385665 0.33603922 0.20334806 -0.19356278 -0.95174897
1.7726525 -0.52562386 0.028754037 0.2899248 0.019441668 -0.7737469 0.47318918 0.14297444
-0.24236707 0.38091666 -0.40171564 0.4055401 -0.15417509 0.42542008 -0.27610442 0.3430463
-0.33808115 1.3325442 0.3202913 -0.2912064 0.07579497 0.09561213 0.23261216 0.89427173
0.71774006 -0.24256973 -0.35011587 0.2873892 0.03092227 -0.613604 -0.06877671 0.20089333
-0.10413496 -0.22134916 -0.09949508 0.61373794 0.9764188 -0.18181588 -0.4751601 0.07476466
0.1537275 -0.22267655 -0.7856221 -0.2373124 0.29153207 0.2630449 -0.16466235 0.25916734
-0.36150846 -0.23565687 -0.2524096 -0.23439682 0.41513973 0.68509877 0.8075581 -0.22661288
-0.32122296 0.1025487 -0.058604967 0.96394825 2.5354223 -0.14274254 -0.31464878 -0.11481897
0.024517836 -0.41145945 -0.16559476 0.18191642 -0.32153133 0.2394549 -0.23972282 -0.25575933
-0.18369694 0.22477877 -0.2495101 -0.16761242 0.37171727 0.5933161 0.7246006 0.30391708
-0.006437643 0.0980328 -0.017941246 0.8361106 -0.54554707 -0.273926 -0.12493152 0.13765272
-0.09912278 1.0843275 0.18723415 0.25048718 0.1268231 0.120555714 -0.11471478 -1.3450468
0.101931274 0.37511283 0.1474362 0.27542433 -0.29972637 -0.45769566 0.8581273 -0.5104428
0.07304463 0.23221591 -0.0019094193 1.1176356 -2.3011112 -0.04189081 0.08076101 0.008684666
-0.10639703 0.11642475 -0.31081372 -0.024613788 -0.46119508 0.09268136 -0.1905689 -0.354353
0.52303934 -0.08365696 0.30498725 -0.3120002 -0.004474823 0.75876975 0.48961872 -0.34044802
0.1207701 0.07115297 0.19139408 -0.1650444 0.31336614 -0.2665858 -0.21869163 0.28252935
-0.24428786 -0.69420654 -0.35955662 -0.45454666 0.057172816 0.18295372 0.03930028 0.13391311
-1.8772756 -0.28850815 0.103662044 -0.13527401 -0.17515184 1.4014018 -1.3339139 0.047852255
0.17627983 0.20040923 -0.18771832 0.61404693 0.35886538 0.04256122 0.44276214 -0.08063411

critic.0.bias f4 [64]
00000000: c45a 533d 868f 73be 4af8 9d3c 4b65 fdbd
00000010: 1152 153d a10d 903e b448 b53e af48 9c3e
00000020: 484b 09bf 34f1 5e3d f0cd 843e 574f febd
00000030: 1904 acbe 2f30 cb3d 42e6 083f dc57 bc3e
00000040: 7548 4c3e d1c2 cf3e e302 21be 420e afbe
00000050: 0cfd 303d 92da d4be 4ec2 31bf 6aaa 4f3d
00000060: d2dd 82be 0deb 80bd 9fe3 14be 4cc8 5c3e
00000070: 2831 5d3e b4a7 6f3e 2c01 f23c 5c16 dabe
00000080: c341 5fbe bafb 84be 33f8 f3be ba33 b4be
00000090: ab14 113e c599 e2be 011b b33c 67a1 2a3e
000000a0: 9930 c2be 6ebb 54be f4c1 a1bc c873 a9be
000000b0: 4a0d aabd df56 2b3e e34a e0bd 8054 0a3d
000000c0: 8067 acbe 6607 83bd 9fa7 aabe 42af 813e
000000d0: cc01 743e aece 52bd f4a0 edbd e442 a0be
000000e0: e10b ab3e f5d3 4cbe 81cb 6fbe 1366 debe
000000f0: 7121 19be a650 b53e 525f db3d 512b 243d
0.051600233 -0.23785219 0.019283433 -0.12372836 0.036455218 0.28135398 0.3540703 0.30524203
-0.53630495 0.054429248 0.25938368 -0.124174766 -0.33596876 0.099213 0.53476346 0.3678578
0.19949515 0.4057832 -0.15723757 -0.34190565 0.043210074 -0.41573006 -0.6943711 0.05069963
-0.2555986 -0.062948324 -0.14539956 0.21560782 0.21600783 0.23403817 0.029541574 -0.42595184
-0.2180243 -0.25973302 -0.47650298 -0.35195714 0.1416804 -0.44257942 0.021863462 0.16663133
-0.37927702 -0.20774624 -0.019745804 -0.33096147 -0.08303316 0.16732357 -0.109517835 0.03377199
-0.33672714 -0.063978955 -0.3333101 0.25329024 0.2382881 -0.051466636 -0.11602965 -0.31301033
0.334075 -0.2000273 -0.23417474 -0.4343725 -0.14954163 0.35413092 0.1071154 0.040080372

critic.2.weight f4 [64, 64]
00000000: fa00 383e b0df 32be 6c20 2c3e 98a4 6bbc
00000010: 26e1 1dbe 047d 933e 2d7a d5bd 8f3c 2d3e
00000020: 31d8 debd 9023 6b3d d471 ab3d 88f2 303d
00000030: 6f3e 6b3e 0439 87be f367 eb3d c559 60bc
00000040: aa41 9d3a 6174 cbbd 64a4 b2be 448f 19bd
00000050: 8222 b8bd 064d 973d d775 b6bb 4f87 0c3e
00000060: 5064 2abe b85b bb3d f2f2 43bb e189 7a40
00000070: 9396 693d 2a94 3dbd 2a0d 8b3b 139c a33d
00000080: f44c e4bd 5279 7a3d 5d1a f4bc 92f9 f23d
00000090: 807e fb3c eb38 16bc 9334 52bc 3c33 bd3d
000000a0: 1b76 d23d 4eb7 843e 82b8 b53d 32a1 af3d
000000b0: 1499 d93c c7fe 1bbd 904a 883d ee55 aa3d
000000c0: 6035 9abc ade0 0a3d 3ef3 e53d 0eb2 933d
000000d0: c450 963d 549a 4abd ca51 2abe d7d4 553d
000000e0: d357 10bd eac1 45bd 7c8b 1dbe 1620 9e3d
000000f0: 7f2c d43d 3cf0 423c d03d 48bd 580a 31bd
00000100: 7b51 833d 31d0 543d 07a0 0bbb ab41 05bc
00000110: 50c7 edbe fae6 a3bd c241 2abe c9a7 4e3e
00000120: 53a6 2abe cc9d 00bd 0f3e 49be bd27 26bd
00000130: c28d 03bf fa21 c5bd 06ba 2f3e c661 debd
00000140: 88c7 afbd a556 23be b691 67be 4afe e0bd
00000150: 9f08 113c ae3a fabd 9dfc a2bd 376f 9ebd
00000160: 5c1f dabc 5009 77bd 2952 d33d c861 d8bf
00000170: 8224 4bbd aff2 10bd 8284 993c dddc f5bd
00000180: e411 e6bd bcab afbe 60f0 a33c b25e 2b3e
00000190: 8609 a4bd d81d 60bd f541 833e be20 f7bd
000001a0: 739f e6bd bc64 d23d 1e74 143d 5934 89bc
000001b0: 6234 0d3e 8d2f 01bd 99eb 73bd c712 a03d
000001c0: 284c cf3c 47db a6bd 0da8 6a3e e91c 98be
000001d0: 807e 4ebd c9dd 0fbe b392 c6be 7baf 8ebe
000001e0: cb2d b8bd 3399 3abd ec38 1e3e 2ac4 873d
000001f0: 88b9 d5bd cb15 82bd 0a73 86be fdb1 b53d
00000200: 089b 043e 7993 2cbe f7f8 113c a8e8 aa3d
00000210: 6af4 d7be c956 97be 892d 59bc 2cba c13d
00000220: f984 02be f83b bc3c e419 bb39 9161 a5bd
00000230: 7192 a73e 0125 f8bd 2534 583e 6d12 7d3d
00000240: ecdd e33c a0e1 1cbe 43ee dfbe 042f 093e
00000250: a32c b13d 7f25 bbbd 6f33 1cbe 3f9b 3bbe
00000260: b0e6 513e 03ed 01be 7138 c5bd 5af9 1940
00000270: 56ee ff3c fe9f 113c 2938 5cbe 453d 84be
00000280: 7fef 25be a91c 1ebe 13d5 dd3d d36e b7bd
00000290: 157d 0dbd e31d 99bd 7c83 1dbe 01d9 c13c
000002a0: 0059 ca3d 6d0b 073e 85b6 7dbd 024d a3bc
000002b0: 9ee0 3bbe 8a0f 3f3c d7a3 19bb 296b 39bd
000002c0: 7eb7 f1be b49b 48be ea20 073e d022 9ebd
000002d0: e0d1 fabc 25f5 cd3a 0cc9 32bc 6183 8abd
000002e0: db61 eabd ca7d 3cbe 9a31 4cbd 8f05 163e
000002f0: 9aae d93d 3689 a9bc cdb0 c5bd 81b4 c7bd
00000300: 0ee0 d6bc cc4d 47be 67a3 053e a9e2 9ebd
00000310: 726a abbd 052c 02bf ea2b 2e3c 897d 013e
00000320: 7643 95be 4c31 86be 2cbb 20be fc7b 313d
00000330: 1d45 e43d 03d2 77be 0482 093e d5ff f8bd
00000340: c49f 133e 617e 993d dc6f 81be faaa 27be
00000350: 3608 cebd 7d3b 6a3d e567 47be b1c8 163e
00000360: 0300 e2bd 81c2 52be b2b1 56be cf52 77c0
00000370: 0777 08be a5e3 6fbc 163a b5bc 5167 3b3d
00000380: 07ac e13d b51e 35be 5c3c 10bd d6d5 febc
00000390: 9113 edbd f309 0ebd e44d dcbd fca6 f9bc
000003a0: cf39 17bf e766 34bd caa8 dfbd 207b a7bb
000003b0: d58f 4cbd 4561 443c 539d be3d 611e efbd
000003c0: ef0c 73bc fac2 6b3e 7695 833d 125c c33c
000003d0: 489a fc3d 4841 2dbd d69d 663d 44d3 b93b
000003e0: 5044 fd3d eecf 25be f799 253d 2795 c8bd
000003f0: 41ea be3d f28f 46bd fc72 e73c e6f7 83ba
0.17969123 -0.17468143 0.16809243 -0.014382504 -0.15417919 0.28806317 -0.10423694 0.16917633
-0.10881079 0.057406962 0.0837132 0.043200046 0.22973035 -0.26410687 0.11494436 -0.013693278
0.0011997719 -0.09934307 -0.34891045 -0.037490144 -0.08990957 0.07387738 -0.005568247 0.13723491
-0.16639829 0.09148353 -0.0029899445 3.9146655 0.057028364 -0.04628388 0.0042435126 0.07988753
-0.1114749 0.061150856 -0.029797727 0.11864008 0.030699968 -0.009168844 -0.0128299175 0.09238288
0.10276433 0.259211 0.08873083 0.085756674 0.026562251 -0.03808477 0.06654847 0.08317171
-0.01882428 0.033905674 0.112280354 0.072116956 0.073396236 -0.049463585 -0.16632763 0.052204933
-0.035240006 -0.048280634 -0.1538524 0.07720964 0.103600495 0.011898097 -0.048887074 -0.043222755
0.064120255 0.05195636 -0.00213051 -0.008133332 -0.46441126 -0.0800304 -0.16626647 0.20181192
-0.1666501 -0.031400487 -0.1965258 -0.04056524 -0.5138818 -0.09625621 0.17160806 -0.108584926
-0.085829794 -0.15951021 -0.22614178 -0.10986002 0.008852153 -0.122182235 -0.079583384 -0.07736056
-0.026626281 -0.060311615 0.10318405 -1.690484 -0.049595363 -0.03538769 0.018739942 -0.12005017
-0.11233881 -0.3431071 0.02001208 0.16735342 -0.08009629 -0.05471596 0.2563626 -0.12066792
-0.11260881 0.1027312 0.03624355 -0.016748594 0.13789514 -0.03153949 -0.059550855 0.078160815
0.025304869 -0.081472926 0.22915669 -0.29709557 -0.05041361 -0.14049448 -0.38783798 -0.27868256
-0.08993109 -0.04555626 0.15451401 0.06629212 -0.10435778 -0.06351813 -0.26259643 0.08871839
0.12949765 -0.16853131 0.0089094555 0.08345157 -0.4217866 -0.295584 -0.013255485 0.094593376
-0.12746038 0.022977814 0.0003568671 -0.0807525 0.32728913 -0.12116433 0.21113642 0.06178515
0.027815782 -0.15320444 -0.43736467 0.13396841 0.08651092 -0.09138011 -0.15253995 -0.1832094
0.20498157 -0.12688069 -0.09629906 2.4058442 0.031241577 0.008888243 -0.21505798 -0.25827995
-0.16204642 -0.1544062 0.10831656 -0.08956685 -0.034543116 -0.074764036 -0.15382189 0.023663046
0.09880257 0.13187952 -0.061941642 -0.019934181 -0.18347403 0.01166142 -0.0023443603 -0.04526821
-0.47210306 -0.19590646 0.1319615 -0.07721484 -0.030617654 0.0015713318 -0.010912191 -0.0676334
-0.11444446 -0.1840736 -0.04985199 0.14650558 0.10629006 -0.02069531 -0.09652863 -0.09751225
-0.026229884 -0.19463271 0.13050614 -0.07758076 -0.08369912 -0.5084842 0.010630587 0.12645544
-0.2915303 -0.26209486 -0.156964 0.04333113 0.11145995 -0.24201207 0.13428503 -0.12158171
0.14416414 0.07494808 -0.25280654 -0.16373816 -0.1006016 0.05718564 -0.19473226 0.14724995
-0.110351585 -0.2058201 -0.20966223 -3.8644292 -0.13326655 -0.014641677 -0.022122424 0.045752827
0.1101914 -0.17687495 -0.035213813 -0.031107824 -0.115759976 -0.034677457 -0.10757044 -0.030475132
-0.59072584 -0.044043448 -0.10920866 -0.005111113 -0.049941856 0.0119860815 0.09307351 -0.11675716
-0.014834627 0.23023596 0.06424992 0.023847613 0.12334114 -0.042298585 0.056302868 0.005670937
0.12366545 -0.161926 0.040430035 -0.097940736 0.09322024 -0.04847712 0.028253071 -0.0010068386

critic.2.bias f4 [64]
00000000: 26f3 f03d 123c 1c3e d2ea b8bd 848f e83d
00000010: 0947 343d fd7c ed3d fb1d 33bd 9582 b03d
00000020: 9e98 8c3d 05c4 943d ea7d 203d 8bc7 bbbc
00000030: b2b7 bbbd e06a ad3d cccf 53be b46e 23be
00000040: 960e 31bd c261 aabd 202b f0bd ac03 8f3d
00000050: 461f 5dbd 0a80 c33d 3936 723d bb83 f0bd
00000060: ec34 2cbd 52de d6bd 8721 84bc ec54 8dbd
00000070: 4cdd 80be 23d6 b73d c1aa 87bb f099 593d
00000080: 3cc2 cc3d cc6f 81be 4443 80bd 4f67 bc3d
00000090: fa27 61bd 6867 323b 06e8 c2bd d0dc 1b3e
000000a0: 62a4 12be 5508 263d a597 84b9 0491 063d
000000b0: 1f20 23bd 0947 8d3d 8fe3 633d 9474 523d
000000c0: 91f9 853c 4f43 46bd b4c0 3bbe 606d 983c
000000d0: 7d7d 0dbe 2839 bdbc 3d31 433e d69b 6ebd
000000e0: 11ec bbbc 6f34 933c bde3 48bc b7bd 14be
000000f0: aebe 28bd 4a50 9c3d f1e7 10bd 2dc1 ed3d
0.11765127 0.1525729 -0.090291634 0.113554984 0.044013057 0.11596105 -0.043729763 0.086186565
0.06865047 0.0726395 0.03918258 -0.022922298 -0.091658965 0.084676504 -0.20684737 -0.15960199
-0.0432268 -0.08319427 -0.117269754 0.06983122 -0.053984903 0.09545906 0.059133742 -0.117438756
-0.042042658 -0.10491623 -0.016129268 -0.06900963 -0.25168836 0.0897639 -0.0041402285 0.053125322
0.09997985 -0.25280607 -0.0626283 0.09199392 -0.054969765 0.002722228 -0.09516911 0.15220952
-0.1432052 0.04053529 -0.00025289986 0.03285314 -0.039825555 0.068983145 0.05563694 0.05138071
0.016354354 -0.048404034 -0.18335229 0.018606842 -0.13817401 -0.023098543 0.19061752 -0.058254085
-0.022939714 0.017969338 -0.012261328 -0.14525495 -0.04119747 0.076325014 -0.035377447 0.11609111
