PPO/PPO2_Trained/PPO_DoubleInvPendulum_400K.pth (torch, 109673 bytes, 18 tensors)

actor.0.weight f4 [64, 6]
-0.2279286 -0.3710774 -0.19944952 0.13103874 0.1320959 0.121061966 0.3877586 -0.39947432
-0.039474867 0.2352623 -0.13422565 0.24119116 0.542368 -0.092897795 -0.14873567 -0.34260628
-0.21176574 0.349332 0.594097 -0.19589502 0.018969776 -0.37648332 -0.35651755 -0.108473055
-0.47527876 -0.14563175 -0.08904956 0.31704158 0.041157402 -0.14258502 -0.17409953 -0.4105886
-0.08799405 0.11896471 0.10120311 -0.5114946 -0.20851247 -0.081969194 0.056315005 0.20611793
0.34082684 -0.38463485 0.49115804 -0.41314954 -0.22593494 -0.37114412 -0.06136828 0.0036019844
0.816204 -0.21000771 -0.11202863 -0.23291627 0.025144279 0.23025967 0.1759033 -0.10993148
0.44251966 0.325462 0.270955 0.19454092 0.564707 0.002603342 0.16021143 -0.11711568
-0.3174597 0.18020679 -0.4184059 -0.34874976 0.22589812 0.30273265 -0.07932829 -0.09996182
0.29086053 0.37944955 -0.065447286 -0.08454315 0.06906879 -0.11260896 -0.14683942 -0.22906257
-0.023211107 -0.18755183 0.32852754 -0.35752252 -0.44608733 0.24651878 0.17038141 0.36959082
-0.32843947 0.5036771 0.17537813 0.3587412 -0.20905644 0.2266953 0.3414794 0.0582464
-0.5422005 -0.24452402 -0.33681083 -0.17116725 -0.2870034 -0.2034174 1.4686716 -0.21804336
-0.41034153 -0.05020014 0.30759412 -0.36628914 0.11358308 0.17123604 -0.21531293 -0.3734013
0.3767251 -0.3752936 -0.21385197 0.29092366 0.07719146 -0.19829985 0.1565738 -0.31838605
0.6552562 0.12536956 -0.29012594 0.37728176 -0.11356078 -0.054491628 -0.7241097 -0.3888341
-0.22953714 -0.16512972 -0.048937056 -0.34152287 0.235067 0.08972734 0.32367274 -0.09695194
0.2906754 0.1020338 -0.18542829 -0.19975522 -0.46650165 -0.03084242 0.07657702 -0.14074422
-0.001497424 -0.38815123 -0.32716417 -0.3404812 -0.40422574 -0.23005377 0.9244695 -0.023441711
0.34571558 0.116865724 0.1313087 -0.306287 -0.9451425 -0.04540228 0.32252517 -0.029711727
-0.2074148 -0.5043521 -0.61709934 0.27667302 -0.38724414 0.20709012 -0.016010081 0.28958434
-0.11229319 -0.28679854 -0.27032328 -0.123731054 0.162794 -0.10554199 -0.28520784 0.22504222
-0.11119817 -0.31494057 0.31330952 -1.3063211 0.12029983 0.05528525 -0.26034316 0.10505129
0.3369803 -0.3279825 -0.2495604 -0.39585418 0.18884149 -0.0017545111 0.21145675 -0.32592064
-0.39954698 0.015739588 -0.28250483 0.13641967 -0.26079333 0.5228564 -0.6910136 -0.1780812
0.11507926 0.080460384 0.019139081 -0.25591758 0.86090094 -0.42955622 0.3277115 0.038818836
0.15370296 0.35039338 -0.5580049 0.40663165 -0.3704866 -0.2533864 0.26401475 -1.3928251
0.059929606 -0.12230039 0.1715544 0.13897604 -0.41058934 -0.24155784 0.5207613 -0.084824294
-0.14097343 0.34292662 -0.3937301 0.7498055 0.055614907 0.17279463 0.38885057 0.21861322
0.286517 0.15109816 -0.6804753 -0.36188608 0.11701627 -0.27861902 -0.06847486 -0.6328903
-0.09308646 0.3846908 -0.15698242 -0.39009866 0.37432924 0.21856442 -0.40479678 0.010435359
-0.14732759 -0.18203568 0.18928815 -0.18537636 -0.546509 -0.21022768 -0.25592047 -0.10089906
00000000: 1d66 69be dbfd bdbe 7f3c 4cbe 052f 063e
00000010: 2644 073e 56ef f73d 4c88 c63e e687 ccbe
00000020: 66b0 21bd 9ae8 703e 7372 09be d1fa 763e
00000030: a1d8 0a3f 3341 bebd 2a4e 18be 176a afbe
00000040: 1ed9 58be a5db b23e be16 183f b498 48be
00000050: 8166 9b3c 6cc2 c0be 7889 b6be 1f27 debd
00000060: bd57 f3be 7d20 15be 9e5f b6bd 4653 a23e
00000070: aa94 283d cf01 12be 2647 32be ab38 d2be
00000080: 3936 b4bd c5a3 f33d 9343 cf3d 4ff1 02bf
00000090: 4b84 55be 77df a7bd 90aa 663d 9410 533e
000000a0: db80 ae3e dcee c4be 1179 fb3e 5688 d3be
000000b0: 7d5b 67be 9a06 bebe 4e5d 7bbd 450f 6c3b
000000c0: bff2 503f 430c 57be 446f e5bd 9a81 6ebe
000000d0: 60fb cd3c 31c9 6b3e ff1f 343e c123 e1bd
000000e0: f091 e23e f5a2 a63e 9dba 8a3e bc35 473e
000000f0: a390 103f d59c 2a3b 770e 243e 58da efbd
00000100: 148a a2be 2188 383e 4c39 d6be 548f b2be
00000110: d651 673e c6ff 9a3e df76 a2bd c8b8 ccbd
00000120: aceb 943e 3647 c23e 3a09 86bd f624 adbd
00000130: f073 8d3d 879f e6bd 135d 16be 618f 6abe
00000140: 3825 bebc 960d 40be c334 a83e 310d b7be
00000150: 8f65 e4be 6b6f 7c3e 7778 2e3e 023b bd3e
00000160: 3829 a8be fcf0 003f 5396 333e edac b73e
00000170: e412 56be d022 683e 63d6 ae3e c793 6e3d
00000180: a7cd 0abf 8164 7abe 7872 acbe 7846 2fbe
00000190: 1cf2 92be a74c 50be 6efd bb3f c246 5fbe
000001a0: 4918 d2be a99e 4dbd fa7c 9d3e 408a bbbe
000001b0: 3f9e e83d 8058 2f3e fe7a 5cbe 752e bfbe
000001c0: 1de2 c03e 7c26 c0be 03fc 5abe f2f3 943e
000001d0: 8e16 9e3d 1e0f 4bbe e254 203e 7f03 a3be
000001e0: dfbe 273f e160 003e 638b 94be 132b c13e
000001f0: 8e92 e8bd 9d32 5fbd 415f 39bf 4315 c7be
00000200: c90b 6bbe c417 29be 3972 48bd 16dc aebe
00000210: 67b5 703e f8c2 b73d 6fb8 a53e bd8e c6bd
00000220: 68d3 943e 19f7 d03d eae0 3dbe a28c 4cbe
00000230: 4ed9 eebe 3ea9 fcbc 6ad4 9c3d 411f 10be
00000240: 3645 c4ba c2bb c6be 1082 a7be 8d53 aebe
00000250: adf6 cebe 3793 6bbe 08aa 6c3f d508 c0bc
00000260: a201 b13e 4c57 ef3d ca75 063e a6d1 9cbe
00000270: dcf4 71bf bef7 39bd 0522 a53e 0266 f3bc
00000280: 8c64 54be 381d 01bf 39fa 1dbf 16a8 8d3e
00000290: dd44 c6be 6f0f 543e 9327 83bc 6644 943e
000002a0: f9f9 e5bd 42d7 92be d067 8abe b566 fdbd
000002b0: 78b3 263e 6626 d8bd c306 92be 7871 663e
000002c0: debb e3bd e43f a1be 1b6a a03e 8835 a7bf
000002d0: c25f f63d c972 623d b34b 85be 2125 d73d
000002e0: af88 ac3e 52ed a7be c38c 7fbe 66ad cabe
000002f0: aa5f 413e a0f7 e5ba 1e88 583e 12df a6be
00000300: 6c91 ccbe 4ff0 803c 79a4 90be 99b1 0b3e
00000310: b486 85be ebd9 053f 44e6 30bf eb5a 36be
00000320: adae eb3d 6ac8 a43d 90c9 9c3c a107 83be
00000330: 0164 5c3f cbee dbbe cdc9 a73e 8000 1f3d
00000340: 4f64 1d3e c366 b33e 69d9 0ebf 0632 d03e
00000350: 6bb0 bdbe ddbb 81be f12c 873e 1848 b2bf
00000360: bf78 753d a078 fabd f5ab 2f3e bc4f 0e3e
00000370: c438 d2be f05a 77be 9d50 053f 5cb8 adbd
00000380: 575b 10be 1494 af3e fe96 c9be 41f3 3f3f
00000390: 75cc 633d 13f1 303e 6c17 c73e 25dc 5f3e
000003a0: 5bb2 923e 7ab9 1a3e a133 2ebf 2249 b9be
000003b0: 3aa6 ef3d 27a7 8ebe 8c3c 8cbd 1905 22bf
000003c0: 1da4 bebd 31f6 c43e 00c0 20be 03bb c7be
000003d0: 15a8 bf3e 5acf 5f3e 8641 cfbe 11f9 2a3c
000003e0: 0bdd 16be 9067 3abe c1d4 413e 4dd3 3dbe
000003f0: 04e8 0bbf ed45 57be 0208 83be 2ba4 cebd

actor.0.bias f4 [64]
0.24570735 -0.0076773134 -0.28543648 0.19266595 -0.20679593 -0.1860825 -0.03935177 0.17195989
-0.29611802 0.32102203 -0.22148213 0.20015806 0.37337586 0.3173208 -0.3340981 -0.29335746
-0.22128583 -0.2771897 0.30118304 0.25216174 0.38972184 0.11421081 0.22722179 0.119508564
0.11100678 -0.30255327 -0.026326064 0.23719671 -0.09246775 -0.14228785 0.3598636 -0.02534569
0.27024415 0.017965369 0.18829624 0.11425127 0.06985967 0.24196637 0.014478802 0.12833825
-0.21169908 0.40933064 0.27783355 -0.35026395 0.0072497055 -0.05157071 0.23881787 -0.0054300856
-0.12549643 -0.049677905 -0.38175806 0.20469539 -0.2629799 0.06510597 0.1464635 0.07594691
0.3975976 0.16902784 -0.36786458 0.27871326 -0.091321744 -0.15098946 -0.20069614 0.31842238
00000000: b59a 7b3e f991 fbbb bb24 92be 394a 453e
00000010: 50c2 53be 698c 3ebe 522f 21bd 4116 303e
00000020: c89c 97be 005d a43e 36cc 62be 3cf6 4c3e
00000030: 1f2b bf3e df77 a23e e80e abbe f332 96be
00000040: c198 62be cfeb 8dbe aa34 9a3e 581b 813e
00000050: 9f89 c73e 5be7 e93d d4ac 683e e8c0 f43d
00000060: 8657 e33d 43e8 9abe c2a9 d7bc b2e3 723e
00000070: bb5f bdbd e8b3 11be 0b40 b83e c4a1 cfbc
00000080: 715d 8a3e 1c2c 933c bbd0 403e 92fc e93d
00000090: 9612 8f3d 08c6 773e 7f38 6d3c 1a6b 033e
000000a0: a5c7 58be c993 d13e 3340 8e3e cc55 b3be
000000b0: f08e ed3b cf3b 53bd ac8c 743e dcee b1bb
000000c0: 2382 00be 0f7b 4bbd cb75 c3be ab9b 513e
000000d0: 4da5 86be 4756 853d 87fa 153e 0e8a 9b3d
000000e0: ea91 cb3e a215 2d3e bf58 bcbe 81b3 8e3e
000000f0: e506 bbbd fb9c 1abe 4a83 4dbe 4208 a33e

actor.2.weight f4 [64, 64]
0.1409812 -0.1256763 0.14029412 -0.016064866 -0.008934031 0.14254731 -0.0865432 0.0077924263
-0.13267614 0.05486714 -0.0071503795 0.064049296 0.0020595079 -0.052373223 0.0050884453 -0.003429971
-0.17326212 0.05355481 -0.08143996 -0.03506427 0.04774864 -0.08492959 0.03220167 -0.08390878
-0.10613711 0.0154855875 0.047633734 0.0070264447 -0.045058846 -0.07522589 -0.059499715 0.0099765295
-0.09528223 0.06592393 0.09468493 -0.047377095 -0.08583292 0.031993512 -0.06323361 -0.14031678
-0.10697347 0.1518652 0.22315937 -0.025912043 0.09554798 -0.006718275 0.08399474 -0.12169689
-0.13296126 0.09052921 -0.16058181 -0.15065403 -0.051020093 -0.048703447 0.018835371 -0.09297054
0.08188755 0.02361916 -0.11933894 0.13992783 -0.08556399 0.100845315 0.11864336 0.009897173
-0.104418464 -0.13997482 0.035589784 -0.022848437 -0.21865244 -0.053394932 -0.014177402 -0.0041586016
0.15553027 0.15653664 -0.17381957 0.014040904 -0.06321439 -0.17571001 -0.012829894 -0.027650107
0.118430816 0.016860088 -0.052072998 -0.10774236 0.09888808 -0.082321234 -0.102678336 -0.11574442
0.049880717 -0.123316884 0.04461716 0.17357376 -0.11071762 0.08606094 -0.025158828 0.092853904
0.062564574 0.18280755 -0.07281245 0.042036455 -0.18143675 0.02251282 -0.03541276 0.12876564
0.06742423 -0.041085247 0.09656762 0.035963874 -0.015987039 0.056691665 -0.13711134 0.039215576
0.054934688 0.22268146 -0.075195335 -0.1083022 -0.12685701 -0.0875847 -0.20749523 -0.00035603723
0.087157585 -0.12383922 -0.19346982 0.022287805 -0.11078266 -0.23498219 -0.084992476 0.11860215
-0.19674416 0.03761673 -0.21697332 0.07912132 -0.039556116 -0.14035012 0.015940435 -0.23216313
-0.07207699 0.09618048 0.19885193 -0.07664509 0.019607421 -0.03828769 0.05814733 0.037881475
-0.12839806 -0.05761305 -0.04217524 0.03844867 0.085551396 -0.040077418 -0.016378576 -0.050172508
-0.14800197 0.12065973 0.059243117 0.034355193 -0.11669987 0.39275208 -0.11562791 0.08911683
0.082794145 0.06358159 -0.023423888 0.15074854 -0.022499122 0.280693 0.104181565 -0.1152147
0.16306378 0.038743168 -0.14422543 0.046838325 -0.042187605 -0.08049651 -0.071551494 0.23383123
-0.080104314 -0.04081299 0.17070985 -0.042050753 -0.002860238 -0.20331806 -0.04535361 -0.024934774
-0.057002828 0.09662569 -0.090910375 -0.009459183 0.051854867 0.0736265 -0.1721358 0.031416826
0.020472726 0.03403916 -0.054141637 -0.062481396 -0.05566103 0.0726157 -0.056133177 -0.06195471
-0.20024255 -0.19743106 0.012030546 0.054654796 0.06674181 0.050765786 0.08367425 -0.13348651
-0.025731493 0.041218966 -0.053118497 0.035949916 -0.12915006 0.12515943 -0.07609794 0.1746525
-0.0030477752 -0.0914588 0.106951244 0.079242766 -0.024918199 -0.113222204 0.06602092 -0.078120895
0.056465022 0.07524206 0.02353486 -0.07637535 0.11021633 0.022540307 -0.018376917 0.11049325
-0.19755378 0.10891221 -0.044851035 0.12794183 0.007500986 -0.08184609 0.008468326 0.020611728
0.12930907 -0.10020626 0.1405433 -0.10505859 -0.06902544 0.059053626 0.005644199 0.017397847
-0.05840179 -0.09975107 -0.0023117433 0.0641049 -0.10295381 0.105988175 0.07174497 -0.014523037
00000000: 605d 103e 4ab1 00be 43a9 0f3e 779a 83bc
00000010: 0b60 12bc ecf7 113e 903d b1bd 9c57 ff3b
00000020: 41dc 07be 5ebc 603d bb4d eabb 472c 833d
00000030: cff8 063b 4e85 56bd f9bc a63b 5dc9 60bb
00000040: a06b 31be 4a5c 5b3d fec9 a6bd 8d9f 0fbd
00000050: 1494 433d 91ef adbd e6e5 033d 5ed8 abbd
00000060: 6a5e d9bd 43b7 7d3c 971b 433d 173e e63b
00000070: a08f 38bd 0810 9abd f9b5 73bd 9974 233c
00000080: 5423 c3bd 2003 873d 2cea c13d 7c0e 42bd
00000090: 2cc9 afbd a10b 033d 9f80 81bd 34af 0fbe
000000a0: e814 dbbd 8d82 1b3e e483 643e 7e45 d4bc
000000b0: a9ae c33d fa24 dcbb 6f05 ac3d 383c f9bd
000000c0: ff26 08be 6167 b93d 8f6f 24be 0d45 1abe
000000d0: 72fa 50bd 447d 47bd a34c 9a3c 5767 bebd
000000e0: a9b4 a73d f87c c13c f967 f4bd 3e49 0f3e
000000f0: 2c3c afbd fd87 ce3d 4afb f23d c127 223c
00000100: 59d9 d5bd 8f55 0fbe 98c6 113d a52c bbbc
00000110: 6de6 5fbe a5b4 5abd 5548 68bc e144 88bb
00000120: 5443 1f3e 244b 203e c2fd 31be d20b 663c
00000130: 8c76 81bd 53ed 33be 7a34 52bc 7a82 e2bc
00000140: db8b f23d 2b1e 8a3c 7f4a 55bd 07a8 dcbd
00000150: d585 ca3d 0998 a8bd 0549 d2bd 690b edbd
00000160: b94f 4c3d 908d fcbd 7cc0 363d 52bd 313e
00000170: ebbf e2bd b840 b03d e319 cebc 302a be3d
00000180: db21 803d e731 3b3e b21e 95bd 6b2e 2c3d
00000190: 8eca 39be ce6c b83c f80c 11bd 24db 033e
000001a0: b715 8a3d 0149 28bd 3fc5 c53d db4e 133d
000001b0: 40f7 82bc 8535 683d ea66 0cbe 83a0 203d
000001c0: 3203 613d 9c06 643e 0300 9abd 8bcd ddbd
000001d0: cee6 01be 9b5f b3bd a179 54be 82aa bab9
000001e0: ad7f b23d 6b9f fdbd f41c 46be ea94 b63c
000001f0: 05e2 e2bd 2c9f 70be 8910 aebd afe5 f23d
00000200: 4d77 49be 0014 1a3d 412e 5ebe 5c0a a23d
00000210: 9805 22bd f1b7 0fbe 8495 823c 2cbc 6dbe
00000220: 1a9d 93bd 46fa c43d d79f 4b3e 1af8 9cbd
00000230: be9f a03c 8ed3 1cbd e52b 6e3d 9b29 1b3d
00000240: c87a 03be a9fb 6bbd f2bf 2cbd 5a7c 1d3d
00000250: 9235 af3d 3828 24bd 5d2c 86bc b081 4dbd
00000260: d48d 17be 731c f73d e9a8 723d 08b8 0c3d
00000270: 5700 efbd cd16 c93e 53ce ecbd e282 b63d
00000280: fa8f a93d 1137 823d 74e3 bfbc d35d 1a3e
00000290: 1450 b8bc feb6 8f3e 255d d53d aff5 ebbd
000002a0: 31fa 263e 28b1 1e3d d5af 13be 8bd9 3f3d
000002b0: e9cc 2cbd 5bdb a4bd 9789 92bd 7471 6f3e
000002c0: bb0d a4bd 862b 27bd 90ce 2e3e 693d 2cbd
000002d0: d572 3bbb 9c32 50be b5c4 39bd 0344 ccbc
000002e0: cc7b 69bd b1e3 c53d 382f babd b0fa 1abc
000002f0: c565 543d 7ec9 963d 5e44 30be eeae 003d
00000300: 6bb6 a73c a56c 0b3d 9fc3 5dbd 7eec 7fbd
00000310: d2fc 63bd 8ab7 943d e7eb 65bd 39c4 7dbd
00000320: 620c 4dbe 5e2b 4abe c41b 453c b5dd 5f3d
00000330: eeaf 883d c9ef 4f3d 685d ab3d b0b0 08be
00000340: daca d2bc 38d5 283d c892 59bd 3840 133d
00000350: ea3f 04be cb29 003e 3dd9 9bbd 1bd8 323e
00000360: 2fbd 47bb c04e bbbd 4109 db3d 084a a23d
00000370: 4021 ccbc 0be1 e7bd fa35 873d d9fd 9fbd
00000380: de47 673d 8218 9a3d 2ecc c03c ae6a 9cbd
00000390: 19b9 e13d 73a6 b83c 308b 96bc 494a e23d
000003a0: 8a4b 4abe 5d0d df3d b8b5 37bd 2f03 033e
000003b0: d5ca f53b ec9e a7bd bcbe 0a3c edd9 a83c
000003c0: 9969 043e f138 cdbd 95ea 0f3e f528 d7bd
000003d0: 365d 8dbd 37e2 713d f9f2 b83b ee85 8e3c
000003e0: b736 6fbd 4a4a ccbd 9e80 17bb 6e49 833d
000003f0: 72d9 d2bd 5410 d93d 07ef 923d 08f2 6dbc

actor.2.bias f4 [64]
0.13733177 0.088238284 -0.018860733 0.03528339 0.06331927 0.058870085 -0.047084652 0.026740862
0.09301771 -0.0009579841 -0.10394115 -0.040742524 0.1034588 0.0736059 0.02071075 -0.11503567
0.06717986 0.09491903 0.0788777 -0.13189378 0.008313414 -0.06187443 0.12682505 0.120098114
-0.041028857 0.09941293 -0.04458025 -0.094099976 0.117965505 0.028652249 0.0076818014 0.07986716
-0.07390849 -0.08156825 -0.05767672 -0.0789485 0.029769871 -0.059502825 -0.042779673 -0.099314965
0.045347124 0.0324313 -0.036836352 0.018452642 0.001189134 -0.13224125 0.007388461 0.02980986
0.11606802 -0.0044351765 0.07827912 -0.030913554 -0.07842983 0.09032447 -0.030011512 0.023671754
0.08991614 0.06401337 -0.0719643 -0.12648863 -0.08315253 -0.059958372 -0.016316386 -0.11938097
00000000: b3a0 0c3e 46b6 b43d d381 9abc 5185 103d
00000010: 89ad 813d c221 713d d6db 40bd a70f db3c
00000020: 1280 be3d 3a21 7bba 19df d4bd a2e1 26bd
00000030: 35e2 d33d b1be 963d 97a9 a93c d297 ebbd
00000040: 9895 893d e964 c23d a28a a13d 2a0f 07be
00000050: fc34 083c 0b70 7dbd 6dde 013e 00f6 f53d
00000060: e00d 28bd 0299 cb3d c899 36bd 7db7 c0bd
00000070: e697 f13d 1fb8 ea3c 9fb7 fb3b 6591 a33d
00000080: 565d 97bd 410d a7bd 6d3e 6cbd c0af a1bd
00000090: f2df f33c 3cb9 73bd bd39 2fbd a565 cbbd
000000a0: e8bd 393d afd6 043d b7e1 16bd ff29 973c
000000b0: b7dc 9b3a 406a 07be e71a f23b cf33 f43c
000000c0: 12b5 ed3d f554 91bb ce50 a03d 6c3e fdbc
000000d0: d29f a0bd 09fc b83d b4da f5bc 44eb c13c
000000e0: f425 b83d 7119 833d 0562 93bd 3c86 01be
000000f0: e04b aabd e996 75bd f1a9 85bc 037e f4bd

actor.4.weight f4 [64, 64]
0.020385101 -0.25236517 -0.15142383 0.045533385 0.04480369 0.010640961 0.11808475 0.1275585
0.04324577 0.060106803 0.11342585 0.075385064 0.034503665 0.11833408 0.01448181 -0.0782624
0.06352344 0.093439974 0.117996395 -0.0654337 0.032989036 -0.08046286 -0.0013429571 -0.05351396
0.09699924 0.00954605 0.030686643 0.31331745 -0.011978574 0.14288002 0.029774765 0.079895124
-0.08151563 -0.0472576 -0.08795741 -0.007481957 0.11228903 0.060887918 0.011760963 -0.1309733
0.117540814 -0.08523549 -0.09632012 -0.0053628082 -0.040387135 0.18996184 0.0691586 -0.014667164
0.08108556 0.069014266 -0.058643717 0.16486761 0.04353479 0.12227052 0.028629653 0.05495363
0.0626622 0.09480371 -0.0595691 0.12017303 -0.0031805134 0.24969813 0.006828484 0.089383766
0.05192064 -0.20092098 0.019682327 0.022889668 -0.122585304 0.04853653 0.17900145 -0.11208388
-0.07163381 0.091505654 -0.058900345 -0.01297482 -0.14608699 -0.062013276 -0.11020465 -0.05183484
0.06670843 -0.117316954 0.059234228 -0.0040403632 0.05924441 -0.05304995 0.058859512 0.09110469
-0.022053657 -0.031849217 -0.16492596 0.27105555 -0.00456832 0.08880999 0.12574987 -0.06719121
-0.04076059 -0.22890095 -0.025908714 0.14774455 0.057979763 -0.19896202 0.04278933 0.018893367
0.046464726 -0.022276692 -0.019621793 -0.0310044 -0.1121179 0.04520093 -0.10869825 0.11139186
0.084140755 0.03768091 0.005365232 0.066175304 -0.0819237 0.14174709 0.0742639 0.3247018
0.14445618 -0.072286285 0.0041785887 -0.00970668 -0.13641104 0.29076487 0.027746702 0.17568043
0.19920422 -0.13087897 -0.12829982 0.056426544 -0.65574014 0.10488054 0.020151962 0.08241104
-0.06997532 -0.08792646 -0.12629414 -0.0016573068 -0.03426408 -0.02863006 -0.06571501 0.13104597
-0.12899925 0.046541333 0.047166795 0.060088318 -0.0087247845 0.11652611 -0.112033665 0.07295912
-0.18155296 0.12573068 0.063666925 0.19737202 -0.081907175 -0.19612005 -0.041082934 -0.08436875
0.11871215 0.0842319 0.17289996 -0.06301654 -0.11543401 -0.036931302 -0.040138733 -0.14727505
-0.10862485 -0.1732701 -0.19961083 0.12426845 -0.16398926 -0.080204606 0.054756597 0.06543097
-0.09457063 0.05416311 0.1270143 0.039060052 0.11502484 -0.041621212 0.066945605 -0.115326375
0.0031484682 -0.104057506 -0.07447236 0.13059098 -0.071126945 0.11417545 0.037478708 0.15192817
-0.12720054 0.18852976 0.07267324 0.00846913 0.02866468 -0.045179255 -0.060084425 -0.07303006
-0.08505606 -0.12804227 -0.05273297 -0.060182296 0.06634074 -0.060834225 0.11221947 0.078181975
-0.011968754 -0.04837757 -0.104176074 0.23118593 -0.09695154 0.0038195974 -0.05116402 0.031511765
-0.02307795 0.13327257 0.08665998 -0.4036876 0.12733401 0.07230488 -0.12466462 -0.08259312
0.028388306 0.08079488 0.114331536 -0.089094885 0.046075255 0.0074573266 -0.03916466 0.13838856
0.0039474256 0.12648131 0.123665266 0.066772275 0.2098446 -0.2238633 0.0572873 0.057490636
-0.015016154 -0.07740728 0.10866983 0.10220036 -0.04163267 -0.15291092 0.05239684 -0.32760185
-0.12048464 0.10310791 0.0037810246 0.090350695 0.04037759 -0.078875184 -0.14518113 -0.25312677
00000000: a8fe a63c 0236 81be d90e 1bbe 3781 3a3d
00000010: 1384 373d 6d57 2e3c 6bd6 f13d b29e 023e
00000020: 7a22 313d 8d32 763d d04b e83d 7c63 9a3d
00000030: b753 0d3d 2359 f23d 1d45 6d3c 0a48 a0bd
00000040: 9418 823d 755d bf3d 18a8 f13d 1b02 86bd
00000050: 831f 073d b6c9 a4bd 2a06 b0ba 7431 5bbd
00000060: 8aa7 c63d 0967 1c3c 8e62 fb3c 256b a03e
00000070: c841 44bc 244f 123e 35ea f33c 0ea0 a33d
00000080: abf1 a6bd 2f91 41bd 0423 b4bd 342b f5bb
00000090: caf7 e53d 9c65 793d 0eb1 403c dd1d 06be
000000a0: 3db9 f03d f28f aebd 7c43 c5bd 7fba afbb
000000b0: fb6c 25bd 5b85 423e 06a3 8d3d 8b4e 70bc
000000c0: 3010 a63d 5a57 8d3d 6534 70bd 0ed3 283e
000000d0: 8951 323d f768 fa3d bc88 ea3c 0f17 613d
000000e0: 0a55 803d 7328 c23d bbfe 73bd 471d f63d
000000f0: 2970 50bb deb0 7f3e 7ac1 df3b d60e b73d
00000100: bdaa 543d 3bbe 4dbe d53c a13c 1d83 bb3c
00000110: 010e fbbd 3ece 463d 284c 373e 3c8c e5bd
00000120: bfb4 92bd 5167 bb3d 7d41 71bd 5794 54bc
00000130: d497 15be a201 7ebd fab2 e1bd c550 54bd
00000140: 6e9e 883d df43 f0bd 979f 723d 0665 84bb
00000150: 44aa 723d e84a 59bd ac16 713d 1995 ba3d
00000160: dfa9 b4bc 5374 02bd 5ae2 28be cbc7 8a3e
00000170: d8b1 95bb 03e2 b53d 93c4 003e 8c9b 89bd
00000180: 94f4 26bd 0365 6abe 833e d4bc 594a 173e
00000190: 307c 6d3d b3bc 4bbe dd43 2f3d 43c6 9a3c
000001a0: cc51 3e3d 9c7d b6bc e2bd a0bc f1fc fdbc
000001b0: 129e e5bd 9c24 393d 309d debd 6a21 e43d
000001c0: fd51 ac3d 4c57 1a3d d4ce af3b eb86 873d
000001d0: 9dc7 a7bd 2626 113e ac17 983d 503f a63e
000001e0: 52ec 133e d50a 94bd 8bec 883b c408 1fbc
000001f0: 56af 0bbe 22df 943e 0d4d e33c 92e5 333e
00000200: 31fc 4b3e 2305 06be 0761 03be 851f 673d
00000210: 96de 27bf 9ccb d63d ba15 a53c 1fc7 a83d
00000220: 384f 8fbd ca12 b4bd 4053 01be fd39 d9ba
00000230: 7e58 0cbd 9689 eabc 9795 86bd ea30 063e
00000240: 6118 04be 20a2 3e3d f831 413d 2b1f 763d
00000250: 66f2 0ebc 3ea5 ee3d e871 e5bd 976b 953d
00000260: 05e9 39be 8bbf 003e ce63 823d e41b 4a3e
00000270: f3be a7bd b2d3 48be 9446 28bd 86c9 acbd
00000280: 5b1f f33d c681 ac3d b00c 313e d10e 81bd
00000290: ab68 ecbd 4745 17bd 8368 24bd 45cf 16be
000002a0: b576 debd b86d 31be c866 4cbe 7580 fe3d
000002b0: cdec 27be 5042 a4bd 7448 603d ac00 863d
000002c0: 3fae c1bd 23da 5d3d 0910 023e 6ffd 1f3d
000002d0: 2592 eb3d 017b 2abd c71a 893d 3c30 ecbd
000002e0: 8856 4e3b 1a1c d5bd f784 98bd a4b9 053e
000002f0: 01ab 91bd d1d4 e93d 4683 193d 0f93 1b3e
00000300: dc40 02be f20d 413e b5d5 943d 1bc2 0a3c
00000310: 31d2 ea3c e20d 39bd 161b 76bd c990 95bd
00000320: df31 aebd 831d 03be 87fe 57bd b681 76bd
00000330: a7dd 873d 4f2d 79bd 52d3 e53d df1d a03d
00000340: 9818 44bc 8f27 46bd 445a d5bd 01bc 6c3e
00000350: 878e c6bd 3652 7a3b 5d91 51bd 7b12 013d
00000360: f80d bdbc 9b78 083e ca7a b13d 24b0 cebe
00000370: d963 023e 9514 943d 2a50 ffbd 9526 a9bd
00000380: 988e e83c c977 a53d a726 ea3d 6177 b6bd
00000390: 68b9 3c3d 975c f43b 1f6b 20bd bbb5 0d3e
000003a0: 6859 813b 5184 013e 3744 fd3d e7bf 883d
000003b0: 81e1 563e 6c3c 65be 16a6 6a3d 4d7b 6b3d
000003c0: 5106 76bc b587 9ebd 4a8e de3d 6c4e d13d
000003d0: 0587 2abd ae94 1cbe 129e 563d 6ebb a7be
000003e0: a7c0 f6bd 3d2a d33d 11cb 773b c909 b93d
000003f0: f962 253d 5089 a1bd 5daa 14be d599 81be

actor.4.bias f4 [64]
0.06110611 -0.08980767 0.07041283 0.025901202 0.040539566 0.014073106 -0.051737204 0.047475163
-0.09159249 0.07795628 -0.08280337 -0.06255022 0.045127977 0.082653 0.012372702 -0.1344971
-0.009333248 0.09807989 -0.15242888 0.10151331 -0.14792974 -0.010985677 0.056854125 0.08196292
-0.10544699 -0.09443618 -0.17200151 -0.059596892 0.11457252 0.06825425 0.11940796 -0.03836385
-0.08853071 -0.15810332 -0.020026697 -0.10367833 -0.06899846 0.017568473 -0.07905876 -0.12354061
-0.096882485 0.10324236 0.09319867 -0.017571265 0.03350392 0.030499713 0.061886597 -0.0890197
-0.06398089 0.022164743 0.12823665 -0.055759136 0.07300001 -0.050896607 -0.017077962 -0.026709756
0.076672055 -0.05001348 -0.05579954 0.09848026 0.08099791 -0.024739916 0.10600157 -0.06126149
00000000: 674a 7a3d 15ed b7bd 9a34 903d c22e d43c
00000010: d10c 263d e392 663c 64ea 53bd 5175 423d
00000020: d894 bbbd 8ba7 9f3d d094 a9bd 541a 80bd
00000030: 1dd8 383d fa45 a93d e0b6 4a3c 9cb9 09be
00000040: 7bea 18bc 1cde c83d 5116 1cbe 36e6 cf3d
00000050: e57a 17be 45fd 33bc dfdf 683d 2ddc a73d
00000060: 97f4 d7bd c267 c1bd 2a21 30be df1b 74bd
00000070: ffa4 ea3d e2c8 8b3d 298c f43d 6a23 1dbd
00000080: 974f b5bd d6e5 21be 070f a4bc 4e55 d4bd
00000090: 114f 8dbd c2eb 8f3c 8fe9 a1bd dc02 fdbd
000000a0: 536a c6bd bb70 d33d f2de be3d 9df1 8fbc
000000b0: 683b 093d 89da f93c cd7c 7d3d f64f b6bd
000000c0: 6a08 83bd d692 b53c 7850 033e b163 64bd
000000d0: 0781 953d f678 50bd 15e7 8bbc 6bce dabc
000000e0: 3d06 9d3d efda 4cbd 0f8e 64bd 05b0 c93d
000000f0: 3be2 a53d 5dab cabc 5a17 d93d 54ed 7abd

actor.6.weight f4 [64, 64]
0.11395428 -0.15357201 -0.20400138 0.0025050088 -0.08220958 0.009949942 0.053032856 0.0850569
0.18970363 -0.20188195 -0.22409332 -0.1659057 0.076565854 -0.1727989 -0.009575639 -0.17382692
-0.07910215 -0.011417793 0.023785872 0.04994624 -0.11974348 -0.082662016 -0.12343021 -0.027428178
-0.4607496 0.11103504 0.16740236 0.033916645 -0.0018077311 -0.07051076 -0.13132925 -0.1028936
0.092582285 -0.16938509 -0.13757825 -0.091546714 0.054622073 0.23715454 0.098663226 -0.34819502
-0.14828357 -0.237649 -0.2550299 0.18448243 0.13369144 0.06668825 -0.23238398 0.4682875
0.09719925 0.027007459 -0.052355208 -0.16337188 -0.16906053 -0.020852936 -0.1123146 0.09148954
0.11393205 0.013816293 -0.002075606 0.0035685108 -0.0673968 -0.26062265 0.055581335 -0.083216526
-0.07646453 0.020634292 -0.1532657 0.11729135 -0.14208496 0.037123926 0.106825106 -0.012323976
0.07377811 -0.15779585 -0.1317729 0.031114941 -0.05156994 0.01839076 -0.057182528 -0.15520118
0.10835029 -0.099318944 -0.008591902 -0.04615705 -0.08132882 0.13944411 0.08693711 0.14625831
-0.36930865 -0.1753807 0.018706247 -0.11850285 0.08655639 -0.070201784 -0.004741779 -0.33639494
-0.13428667 -0.1492358 -0.15718628 -0.11854741 -0.029254096 0.025494743 0.12820576 -0.18889505
0.09704238 -0.232769 -0.09181901 0.17103668 0.14064467 0.15063618 -0.017589632 0.4275056
-0.106280774 -0.031840045 0.14290002 -0.25407052 0.009391729 -0.03601432 0.011925135 0.08639359
0.15603769 -0.09963253 -0.083259515 0.0088239955 0.11330375 -0.19617818 -0.027522745 0.08468759
-0.027135983 -0.10190771 -0.19052316 -0.06958217 -0.1566912 0.05522176 0.058262244 0.10428821
0.070393294 -0.033095054 -0.01379225 0.07837892 -0.03919696 -0.1365339 0.07912733 -0.06539485
-0.058006186 -0.06504931 0.17697205 0.059759036 0.017681213 0.1426145 -0.11982416 -0.048631277
-0.28126478 -0.14137349 0.015438885 -0.1962866 0.14298213 -0.076881446 -0.025017163 -0.20813827
-0.18259732 -0.04465057 -0.114851646 0.039756883 -0.056495044 0.086968325 -0.044242937 -0.14158016
0.038967248 -0.22089927 -0.16035011 0.025838323 0.1310037 0.15636764 -0.089910276 0.5680099
0.071795434 -0.020935033 0.047717508 -0.19793585 0.16212462 0.122144684 0.022697067 0.058799386
0.12715998 -0.006406947 0.13594149 -0.12551153 -0.050192572 -0.18479854 0.046453252 0.07504155
-0.14572026 -0.13016506 0.14035304 0.018475069 -0.06428581 0.08930396 -0.19496521 -0.024193076
0.48261106 -0.019417936 -0.18087728 -0.023001838 0.08942259 -0.07759963 -0.038005315 -0.05585417
0.1170889 -0.13397181 0.29835242 0.054773435 -0.14662421 -0.084440306 -0.006935151 -0.04362347
-0.090028726 -0.28431198 -0.10285717 -0.028353903 0.08191765 0.08722603 0.06867246 -0.37751526
-0.07204547 0.05931377 -0.3138034 0.091834255 -0.15572035 0.1069233 0.14434594 -0.17832729
0.009227127 -0.24809082 -0.08973563 0.03487359 0.056809463 0.38688362 0.12094449 0.6934442
-0.30202466 -0.0044421987 0.13504839 0.010445208 -0.17712665 0.05505006 -0.07111034 0.13207243
0.064894184 -0.34800634 0.053429887 -0.16932008 -0.1351015 -0.19633587 -0.05578628 -0.043580215
00000000: dd60 e93d fb41 1dbe bde5 50be 132b 243b
00000010: 7f5d a8bd 1505 233c fb38 593d 5032 ae3d
00000020: ab41 423e 24ba 4ebe b878 65be 2fe3 29be
00000030: 8fce 9c3d 32f2 30be 24e3 1cbc afff 31be
00000040: 4f00 a2bd b211 3bbc 97da c23c 6e94 4c3d
00000050: 123c f5bd b44a a9bd fac8 fcbd 0fb1 e0bc
00000060: 5fe7 ebbe 5766 e33d 866b 2b3e 2eec 0a3d
00000070: 64f1 ecba f267 90bd 2d7b 06be e1b9 d2bd
00000080: c89b bd3d 4973 2dbe 50e1 0cbe d87c bbbd
00000090: 65bb 5f3d a4d8 723e f20f ca3d 9e46 b2be
000000a0: a6d7 17be 425a 73be 4793 82be f6e8 3c3e
000000b0: 69e6 083e d993 883d 11f6 6dbe 61c3 ef3e
000000c0: 6610 c73d bf3e dd3c 6a72 56bd f54a 27be
000000d0: 341e 2dbe c7d3 aabc 3205 e6bd de5e bb3d
000000e0: 3555 e93d bc5d 623c e406 08bb addd 693b
000000f0: 5507 8abd 5570 85be 41a9 633d 6d6d aabd
00000100: 6f99 9cbd 3f09 a93c aff1 1cbe 7336 f03d
00000110: b87e 11be 420f 183d 1fc7 da3d 80ea 49bc
00000120: fa18 973d 3c95 21be 7aef 06be c3e4 fe3c
00000130: 003b 53bd 38a8 963c 3a38 6abd 0fed 1ebe
00000140: c2e6 dd3d bb67 cbbd 0dc5 0cbc 2d0f 3dbd
00000150: b98f a6bd 70ca 0e3e 150c b23d bdc4 153e
00000160: 0616 bdbe 0097 33be d83d 993c 9fb1 f2bd
00000170: 7a44 b13d f4c5 8fbd ed60 9bbb f53b acbe
00000180: 7282 09be 45d1 18be 71f5 20be fcc8 f2bd
00000190: 49a6 efbc 5ada d03c 5f48 033e b46d 41be
000001a0: 28be c63d ff5a 6ebe 9b0b bcbd 3d24 2f3e
000001b0: 2805 103e 5f40 1a3e 2218 90bc 04e2 da3e
000001c0: bca9 d9bd b56a 02bd 6254 123e 8815 82be
000001d0: c4df 193c c083 13bd a461 433c 1fef b03d
000001e0: 58c8 1f3e 240c ccbd f783 aabd 8592 103c
000001f0: cc0b e83d efe2 48be 6177 e1bc b070 ad3d
00000200: 484c debc fdb4 d0bd 8118 43be 1981 8ebd
00000210: a873 20be 3630 623d 64a4 6e3d 0f95 d53d
00000220: 5c2a 903d ae8e 07bd e4f8 61bc 2185 a03d
00000230: fe8c 20bd 8bcf 0bbe 820d a23d bced 85bd
00000240: e597 6dbd 9338 85bd 2938 353e e4c5 743d
00000250: 31d8 903c 8909 123e 5f66 f5bd 9731 47bd
00000260: f001 90be 36c4 10be 61f3 7c3c 5bff 48be
00000270: e869 123e 0574 9dbd cbf0 ccbc 3322 55be
00000280: cbfa 3abe 84e3 36bd 5737 ebbd 1dd8 223d
00000290: 5967 67bd 731c b23d 1538 35bd 64fa 10be
000002a0: 1f9c 1f3d 6b33 62be d232 24be e4aa d33c
000002b0: d525 063e d71e 203e e122 b8bd 1969 113f
000002c0: 7c09 933d f27f abbc 6f73 433d b2af 4abe
000002d0: ff03 263e fe26 fa3d 33ef b93c a0d7 703d
000002e0: 3a36 023e 5ef1 d1bb 3f34 0b3e 1886 00be
000002f0: ba96 4dbd d43b 3dbe c445 3e3d 62af 993d
00000300: b137 15be fd49 05be b5b8 0f3e 0759 973c
00000310: 47a8 83bd ffe4 b63d f6a4 47be 8f30 c6bc
00000320: cc18 f73e 5d12 9fbc e537 39be 5a6e bcbc
00000330: 3123 b73d 8eec 9ebd 76ab 1bbd 58c7 64bd
00000340: 4ecc ef3d e82f 09be a6c1 983e 1c5a 603d
00000350: a824 16be 0aef acbd 4340 e3bb 86ae 32bd
00000360: fb60 b8bd 5791 91be c8a6 d2bd 7246 e8bc
00000370: 71c4 a73d 90a3 b23d 26a4 8c3d ae49 c1be
00000380: 938c 93bd fff2 723d d7aa a0be 9913 bc3d
00000390: 2875 1fbe 9afa da3d 6ccf 133e 6e9b 36be
000003a0: 602d 173c 850b 7ebe 50c7 b7bd 9cd7 0e3d
000003b0: 0ab1 683d 9c15 c63e bfb1 f73d 8f85 313f
000003c0: faa2 9abe dd8f 91bb 204a 0a3e 6122 2b3c
000003d0: b060 35be 2c7c 613d 4ca2 91bd ff3d 073e
000003e0: 3ee7 843d e32d b2be 4cd9 5a3d 3e62 2dbe
000003f0: 0c58 0abe 450c 49be 2880 64bd 2b81 32bd

actor.6.bias f4 [64]
-0.11741795 0.08418331 0.0836064 0.07532208 -0.036348697 0.046337564 0.10628558 -0.018710954
0.037004475 -0.14345643 -0.028486168 -0.12467206 0.048962716 0.017186435 0.040153205 0.11074629
0.012345596 -0.10732952 -0.0027364676 0.09376809 -0.0152751915 0.0079608355 -0.08411886 0.007259237
-0.016871324 -0.022917304 0.11036235 -0.06606197 0.13832556 0.09203701 -0.040356178 0.053673994
0.07505177 -0.016989278 0.11439195 -0.009695333 0.1195956 -0.10025534 0.04203495 0.119286746
0.014869708 0.091667764 -0.01029647 0.09599263 -0.1428484 -0.047237176 -0.12492316 0.023643162
0.12156016 -0.011886652 -0.0443368 -0.0399671 -0.057982598 0.001322765 -0.011457368 -0.025396148
0.020402642 -0.119052425 -0.061641783 0.062559605 -0.05763883 -0.1644425 0.087826006 -0.04536157
00000000: d278 f0bd 4d68 ac3d d539 ab3d 7642 9a3d
00000010: 5fe2 14bd 75cc 3d3d 41ac d93d b747 99bc
00000020: 0192 173d 3ee6 12be d35b e9bc 1154 ffbd
00000030: 218d 483d 91ca 8c3c b077 243d f3ce e23d
00000040: 2f45 4a3c 94cf dbbd 4f56 33bb 7c09 c03d
00000050: cc44 7abc 2a6e 023c 8246 acbd e5de ed3b
00000060: bb35 8abc 12bd bbbc a805 e23d 804b 87bd
00000070: 37a5 0d3e e67d bc3d 854c 25bd 43d9 5b3d
00000080: beb4 993d 192d 8bbc 5446 ea3d 2dd9 1ebc
00000090: 8aee f43d ac52 cdbd d72c 2c3d 9c4c f43d
000000a0: 13a0 733c 4fbc bb3d 86b2 28bc c997 c43d
000000b0: da46 12be c57b 41bd b7d7 ffbd 4eaf c13c
000000c0: 88f4 f83d 3bc0 42bc 819a 35bd 8bb4 23bd
000000d0: 297f 6dbd a160 ad3a afb7 3bbc 950b d0bc
000000e0: 7123 a73c c2d1 f3bd 187c 7cbd 401f 803d
000000f0: b216 6cbd 9d63 28be 1fde b33d 0ecd 39bd

actor.8.weight f4 [1, 64]
-0.4601014 -0.16343851 -0.15622741 -0.38413274 -0.10849266 -0.6401496 -0.13980274 0.2128993
-0.14248265 -0.47017372 -0.12736377 0.30153638 0.087697715 0.09404999 0.07723869 -0.16260472
-0.27180713 0.08092929 0.13381776 -0.15912642 -0.2807211 -0.52522993 -0.18515475 0.06245474
0.23734286 0.14397652 -0.022886258 0.20756331 -0.114246786 0.08530987 0.10909255 0.15883185
0.15295967 -0.063697 0.11906279 0.17454673 0.1080577 -0.6116298 0.44883287 -0.1402641
0.11176808 0.11953783 -0.2529707 -0.09159438 -0.19448704 0.19757053 -0.4453361 -0.15609132
-0.1369269 0.49307474 0.57959646 -0.076391324 -0.5828391 -0.024133055 -0.33776906 -0.22465497
0.053694606 -0.31747317 -0.19656336 -0.23412684 0.06858048 0.4335225 -0.16673173 -0.26174766
00000000: 6992 ebbe 6d5c 27be 14fa 1fbe 0cad c4be
00000010: 6631 debd d8e0 23bf 7328 0fbe 4602 5a3e
00000020: f9e6 11be 9cba f0be a66b 02be fa62 9a3e
00000030: dc9a b33d 489d c03d 512f 9e3d da81 26be
00000040: 4e2a 8bbe 41be a53d 8607 093e 09f2 22be
00000050: adba 8fbe 7875 06bf 3599 3dbe 8bd0 7f3d
00000060: 020a 733e 956e 133e f67b bbbc 7a8b 543e
00000070: 38fa e9bd f1b6 ae3d ea6b df3d d1a4 223e
00000080: 76a1 1c3e 9373 82bd 31d7 f33d 61bc 323e
00000090: 5b4d dd3d c593 1cbf 6ccd e53e 64a1 0fbe
000000a0: aae6 e43d 40d0 f43d 6085 81be d695 bbbd
000000b0: 9c27 47be ee4f 4a3e 1803 e4be 67d6 1fbe
000000c0: 9136 0cbe 4b74 fc3e 6f60 143f 0e73 9cbd
000000d0: f134 15bf afb2 c5bc 11f0 acbe f40b 66be
000000e0: e0ee 5b3d d88b a2be e847 49be f2be 6fbe
000000f0: ec73 8c3d a9f6 dd3e b9bb 2abe ca03 86be

critic.0.weight f4 [64, 6]
1.3226414 -0.073959544 0.17264354 -0.1046286 0.1248219 1.2948841 2.2830048 -0.45031235
-0.3392137 -0.13605112 0.29687276 -0.2029149 -0.9632607 -0.05645081 0.16534431 0.16711615
-0.07792882 -0.68845063 -0.31327823 0.26496133 0.00093558565 0.25571227 -0.22644515 0.019988291
0.5393245 0.3927991 -0.27765888 0.27770352 -0.2793706 -0.87705153 0.7111282 -0.35001948
-0.03227724 -0.10939022 0.09076839 -1.6308502 0.6722081 0.30386403 -0.4252868 0.34388492
-0.18657169 -0.124111466 -1.214483 -0.26443368 0.15311912 -0.26865086 0.33991286 -0.7221691
1.8593391 -0.2138684 -0.2971962 -0.057740223 0.2034512 0.76413006 0.11975178 -0.34575617
0.07175712 -0.032978382 -0.27974945 0.6291528 -1.2879921 0.00021532609 -0.399065 -0.20166163
-0.31105894 -0.4158366 -1.0987217 -0.5467939 -0.09863255 -0.036509812 0.10703373 -2.4200063
-1.4326911 -0.14973971 0.3210441 0.38643935 -0.31358162 0.31888857 0.66533375 0.21862453
-0.1279878 -0.13786788 -0.04883073 0.96270263 -0.7046229 0.067539565 -0.10775245 0.040916976
0.06704128 1.0687995 -1.1961924 -0.43795907 0.34136993 0.18537451 -0.19232415 -0.89468443
0.9721949 -0.5270399 0.037134726 0.3052707 0.040921707 -0.6697914 0.59821904 0.14372002
-0.23709877 0.3707188 -0.39633587 0.4378547 -0.2388242 0.4261776 -0.27482978 0.32133695
-0.3342004 1.3120687 0.33509254 -0.27174664 0.08507128 0.13966277 0.27034974 0.7152366
0.64523077 -0.23305002 -0.3310556 0.2998371 0.04641725 -0.29407507 -0.18627393 0.20697333
-0.098273955 -0.23006217 -0.11957935 0.54261124 0.8050297 -0.092203334 -0.38273916 0.14373507
0.22097363 -0.038070448 -0.5909677 -0.23697175 0.29970008 0.2899683 -0.12555973 0.33434787
-0.5516992 -0.2185512 -0.22911988 -0.2239715 0.42233157 0.64511865 0.7292868 -0.24772225
-0.35891142 0.14411618 -0.039191015 0.86745113 2.0932753 -0.09475084 -0.28730232 -0.13514282
0.01659864 -0.6721893 -0.17827779 0.18862762 -0.32245737 0.22932164 -0.23011845 -0.27131176
-0.29285783 0.232855 -0.24818717 -0.15739366 0.37022746 0.58853984 0.5682613 0.30923185
-0.0053499206 0.1386244 0.00449097 0.9670518 -0.11043575 -0.34667376 -0.2054676 0.20315452
-0.14862807 0.9501672 0.16846874 0.25825793 0.13748264 0.10129082 -0.107344024 -1.3052564
0.17768943 0.38551664 0.16268559 0.267554 -0.29091313 -0.40282595 1.0499544 -0.50869995
0.08054385 0.20803626 -0.029910484 1.1599752 -2.0232694 0.058973737 0.19169766 -0.034173366
-0.15359232 0.13819812 -0.23216888 -0.030154878 -0.46081313 0.088388234 -0.17935498 -0.35943505
0.25805187 -0.082999885 0.30212146 -0.3230569 -0.027759066 0.7090937 0.46403438 -0.33564398
0.11745466 0.08370664 0.20067732 -0.1408876 0.55025405 -0.27915636 -0.22346176 0.28569168
-0.23471351 -0.6702397 -0.4554921 -0.46079627 0.045240212 0.19784941 0.05038783 0.09947909
-1.7564548 -0.2993782 0.08524223 -0.17509894 -0.21684521 1.306147 -1.0474395 0.049587574
0.18842433 0.21194118 -0.16558968 0.705522 0.050177403 0.06427231 0.45683107 -0.057936847
00000000: 504c a93f 1a78 97bd 78c9 303e 8547 d6bd
00000010: a0a2 ff3d c3be a53f c01c 1240 578f e6be
00000020: 6bad adbe fc50 0bbe b5ff 973e ecc8 4fbe
00000030: 4198 76bf f738 67bd 0550 293e 7f20 2b3e
00000040: 2599 9fbd 4d3e 30bf 0166 a0be 03a9 873e
00000050: 1742 753a b8ec 823e 3de1 67be 7cbe a33c
00000060: 2c11 0a3f f71c c93e 4e29 8ebe 282f 8e3e
00000070: aa09 8fbe 7386 60bf 7f0c 363f c135 b3be
00000080: 2435 04bd fb07 e0bd c7e4 b93d b3bf d0bf
00000090: d415 2c3f 1194 9b3e 31bf d9be af11 b03e
000000a0: a60c 3fbe 272e febd 2e74 9bbf da63 87be
000000b0: 42cb 1c3e 9b8c 89be 0f09 ae3e 13e0 38bf
000000c0: d3fe ed3f 5100 5bbe 1a2a 98be 0381 6cbd
000000d0: 8355 503e 079e 433f 6c40 f53d f406 b1be
000000e0: 66f5 923d 5714 07bd 523b 8fbe 2810 213f
000000f0: eddc a4bf 28c9 6139 3f52 ccbe 6380 4ebe
00000100: 1e43 9fbe 89e8 d4be eaa2 8cbf affa 0bbf
00000110: ddff c9bd 508b 15bd 8034 db3d 62e1 1ac0
00000120: 6c62 b7bf 5e55 19be e45f a43e 61db c53e
00000130: c58d a0be 5d45 a33e 5053 2a3f 1cdf 5f3e
00000140: 3c0f 03be 3d2d 0dbe bb02 48bd ae73 763f
00000150: 2b62 34bf 2f52 8a3d 51ad dcbd 8f98 273d
00000160: f04c 893d 6cce 883f d51c 99bf 2c3c e0be
00000170: 0ac8 ae3e d1d2 3d3e 9ff0 44be 0a0a 65bf
00000180: c4e1 783f 16ec 06bf 951a 183d 714c 9c3e
00000190: 859d 273d 7377 2bbf e224 193f 572b 133e
000001a0: 05ca 72be dbce bd3e 89ec cabe 7e2e e03e
000001b0: 558e 74be f333 da3e 7db6 8cbe 4786 a43e
000001c0: 511c abbe def1 a73f 4091 ab3e 6022 8bbe
000001d0: da39 ae3d c203 0f3e 486b 8a3e bf19 373f
000001e0: d82d 253f aaa4 6ebe 1f80 a9be 4084 993e
000001f0: 0420 3e3d 0291 96be 98be 3ebe d1f0 533e
00000200: db43 c9bd 6b95 6bbe 05e6 f4bd 92e8 0a3f
00000210: 6d16 4e3f 1ad5 bcbd 63f6 c3be 492f 133e
00000220: e946 623e c2ef 1bbd a949 17bf b9a8 72be
00000230: 4a72 993e ba76 943e bb92 00be a52f ab3e
00000240: 293c 0dbf e3cb 5fbe 679e 6abe c958 65be
00000250: d83b d83e 7f26 253f 8ab2 3a3f e7aa 7dbe
00000260: 3dc3 b7be 3193 133e c286 20bd 4711 5e3f
00000270: 39f8 0540 ba0c c2bd 4a19 93be e162 0abe
00000280: dff9 873c 9914 2cbf 748e 36be 9927 413e
00000290: 2219 a5be 4bd3 6a3e 2ca4 6bbe 60e9 8abe
000002a0: 76f1 95be 8b71 6e3e c724 7ebe ce2b 21be
000002b0: 748e bd3e 8caa 163f 9379 113f a353 9e3e
000002c0: 634e afbb 8ef3 0d3e fd28 933b b590 773f
000002d0: 232c e2bd 397f b1be 1966 52be bd07 503e
000002e0: f531 18be 283e 733f 1283 2c3e 623a 843e
000002f0: 40c8 0c3e 9071 cf3d 2fd7 dbbd a412 a7bf
00000300: 38f4 353e 7062 c53e 0d97 263e d6fc 883e
00000310: 91f2 94be 343f cebe e864 863f 293a 02bf
00000320: 2df4 a43d 7507 553e d506 f5bc 117a 943f
00000330: 3f7d 01c0 728e 713d 644c 443e 5ff9 0bbd
00000340: 4e47 1dbe cf83 0d3e aebd 6dbe 5d07 f7bc
00000350: b3ef ebbe e404 b53d d5a8 37be df07 b8be
00000360: 601f 843e d8fb a9bd aaaf 9a3e b767 a5be
00000370: fb66 e3bc 2a87 353f ea95 ed3e 87d9 abbe
00000380: 128c f03d 636e ab3d 5b7e 4d3e d744 10be
00000390: 73dd 0c3f 95ed 8ebe 29d3 64be 2e46 923e
000003a0: bd58 70be d494 2bbf 4336 e9be 7ded ebbe
000003b0: cd4d 393d 0999 4a3e 7863 4e3d b1bb cb3d
000003c0: 83d3 e0bf 1948 99be 7a93 ae3d 234d 33be
000003d0: ac0c 5ebe d32f a73f 7f12 86bf 571c 4b3d
000003e0: 4ff2 403e 1c07 593e 5790 29be 179d 343f
000003f0: d286 4d3d 33a1 833d c3e5 e93e 304f 6dbd

critic.0.bias f4 [64]
0.055014584 -0.20061521 0.01462232 -0.12176464 0.03584153 0.2782661 0.33287886 0.31279504
-0.54443806 0.064395726 0.26762712 -0.1569239 -0.32303387 0.10037029 0.5363669 0.37037444
0.20349732 0.4057426 -0.16248214 -0.32667798 0.057208583 -0.40445527 -0.6011342 0.052929636
-0.22805971 -0.081220135 -0.1186855 0.2104956 0.22193336 0.24032481 -0.016593225 -0.42251137
-0.20835845 -0.25268978 -0.36564526 -0.35663873 0.1433106 -0.44208485 0.013566402 0.15823929
-0.3939297 -0.20046921 -0.002837858 -0.314501 -0.075835794 0.17902724 -0.10767025 0.03918198
-0.33261457 -0.06059404 -0.3210045 0.25079316 0.28300947 -0.056384627 -0.09879175 -0.28302416
0.33656758 -0.18617812 -0.23919111 -0.4213381 -0.11655309 0.3613328 0.10784383 0.046922132
00000000: f956 613d 136e 4dbe 7592 6f3c bd5f f9bd
00000010: 91ce 123d e578 8e3e 196f aa3e ac26 a03e
00000020: 4b60 0bbf e8e1 833d 6c06 893e a9b0 20be
00000030: b264 a5be f08e cd3d 574f 093f b8a1 bd3e
00000040: 9a61 503e 7ebd cf3e b861 26be 5642 a7be
00000050: 8c53 6a3d c314 cfbe eee3 19bf bfcc 583d
00000060: 7c88 69be be56 a6bd 6211 f3bd 298c 573e
00000070: 8042 633e b517 763e 84ee 87bc 6953 d8be
00000080: eb5b 55be 8e60 81be db35 bbbe 5a99 b6be
00000090: 04c0 123e f258 e2be 9d45 5e3c 7b09 223e
000000a0: 27b1 c9be cd47 4dbe 5bfb 39bb 4606 a1be
000000b0: cc4f 9bbd eb52 373e 3882 dcbd 497d 203d
000000c0: 754c aabe 7531 78bd b45a a4be f667 803e
000000d0: 9ee6 903e 91f3 66bd 5453 cabd 8be8 90be
000000e0: 9652 ac3e 7aa5 3ebe 84ee 74be a1b9 d7be
000000f0: 63b3 eebd 9d00 b93e 3add dc3d 6c31 403d

critic.2.weight f4 [64, 64]
0.15933028 -0.1805061 0.16814865 -0.016079431 -0.15272667 0.16130455 -0.10073989 0.16383654
-0.10190764 0.061709296 0.09163173 0.04756072 0.21504451 -0.26519755 0.114999905 -0.024406577
0.009271368 -0.11133466 -0.3275383 -0.033903882 -0.07949595 0.0848594 -0.0056226472 0.13484699
-0.1533529 0.10745517 -0.03906108 3.253022 0.060754854 -0.050615627 0.044096854 0.07705509
-0.11533086 0.078230165 -0.025281979 0.12478529 0.030142965 -0.0041400585 -0.014531895 0.108059615
0.12882866 0.25534448 0.085837066 0.07469985 0.02241497 -0.035611097 0.06491142 0.081094086
-0.048257012 0.050937347 0.11428084 0.07889705 0.07109954 -0.049704656 -0.16582839 0.037717436
-0.0381984 -0.05120537 -0.15529628 0.093281806 0.07533755 0.024072949 -0.049603198 -0.046670333
0.12489967 0.0049275435 0.018720113 0.026628138 -0.41201594 -0.13268755 -0.15062647 0.22024894
-0.17762035 -0.017226648 -0.17042893 -0.08876056 -0.47866848 -0.04191048 0.21319859 -0.07032722
-0.11964539 -0.11409427 -0.12886629 -0.1282022 -0.01848249 -0.09246645 -0.061585896 -0.06319651
0.017401287 -0.05372213 0.06309883 -1.4588081 -0.036310006 0.00059941196 0.057724666 -0.076682314
-0.077237375 -0.33091652 0.0767001 0.13130642 -0.033946 -0.102856845 0.21358964 -0.14465578
-0.07525094 0.16905427 0.081019394 0.04611529 0.16948272 -0.063987896 -0.10224855 0.14873095
0.10955291 -0.03931629 0.29468265 -0.26731905 -0.015407936 -0.12839113 -0.43613777 -0.27529433
-0.059697542 -0.082042515 0.112787716 0.034366608 -0.13762192 -0.034242988 -0.27049303 0.13562988
0.17802404 -0.09597429 -0.021531569 0.086986616 -0.30629528 -0.24025533 0.024322744 -0.03489787
-0.123211674 0.033605892 0.018020054 -0.10212283 0.3430907 -0.11454246 0.19224738 0.05983054
0.046006892 -0.029539311 -0.30849388 0.10347352 0.10769225 -0.07156513 -0.084410615 -0.20099218
-0.13380025 -0.11441683 -0.08588242 2.2777932 -0.020155167 0.011988118 -0.055291638 -0.19327098
-0.1358168 0.011525435 0.14407265 -0.081484266 -0.026464876 -0.08996861 -0.14232132 -0.006405001
0.14075495 0.097479284 -0.053017642 -0.008149347 -0.16265537 -0.041874047 0.07309969 -0.065512255
-0.3584233 -0.17597398 0.043572765 -0.060334485 -0.03157492 0.0042506917 -0.022913188 -0.048744965
-0.10324496 -0.18593949 -0.044048574 0.13904253 0.063990474 0.027063992 -0.09529114 -0.095343925
-0.003940427 -0.1895611 0.15000333 -0.06485587 -0.093617536 -0.48387355 0.021016184 0.15231486
-0.3101008 -0.27067402 -0.090078205 0.027856955 0.12505597 -0.23255467 0.15650725 -0.07476822
0.15974541 0.0878069 -0.29211926 -0.14556868 -0.08987899 0.053158455 -0.14547163 0.16741785
-0.049342744 -0.22464448 -0.23207639 -3.347693 -0.12244464 -0.00017695232 -0.035761695 0.047080323
0.123040736 -0.052669253 0.018459465 -0.05147219 -0.09409045 -0.021571103 -0.12239199 -0.016606443
-0.32387775 -0.007291513 -0.087777555 -0.011864595 -0.038854826 0.026068414 0.073481366 -0.08472803
0.020830086 0.21287142 0.10009715 0.10688153 0.13723205 -0.036759242 0.034065276 0.016038286
0.13812645 -0.18325475 0.02368527 -0.1100504 0.07111971 -0.06150766 0.0062175835 0.013461289
00000000: 7a27 233e 97d6 38be 292f 2c3e 03b9 83bc
00000010: 6164 1cbe 052d 253e b750 cebd c4c4 273e
00000020: f4b4 d0bd e3c2 7c3d 6ba9 bb3d 08cf 423d
00000030: a134 5c3e f9c7 87be 1285 eb3d 4df0 c7bc
00000040: f0e6 173c 6d03 e4bd 1ab3 a7be ccde 0abd
00000050: c6ce a2bd c4ca ad3d 2f3e b8bb 5415 0a3e
00000060: 8b08 1dbe 7511 dc3d 83fe 1fbd 8331 5040
00000070: 15da 783d 5552 4fbd e79e 343d 0fcf 9d3d
00000080: 9632 ecbd 2337 a03d 271c cfbc 6e8f ff3d
00000090: 61ee f63c 54a9 87bb 2f17 6ebc 5c4e dd3d
000000a0: a9eb 033e 83bc 823e 58cb af3d 3cfc 983d
000000b0: 999f b73c f1dc 11bd 47f0 843d a814 a63d
000000c0: 25a9 45bd aea3 503d 130c ea3d c794 a13d
000000d0: a39c 913d 1c97 4bbd ebce 29be 997d 1a3d
000000e0: ed75 1cbd b9bc 51bd fd05 1fbe 880a bf3d
000000f0: 934a 9a3d a234 c53c b92c 4bbd 6429 3fbd
00000100: 66cb ff3d 3b77 a13b ec5a 993c 4123 da3c
00000110: c1f3 d2be 3fdf 07be d33d 1abe f088 613e
00000120: 1ce2 35be e61e 8dbc ec84 2ebe 19c8 b5bd
00000130: 0914 f5be 53aa 2bbd bb50 5a3e b807 90bd
00000140: a408 f5bd 42aa e9bd 86f5 03be 7047 03be
00000150: 9768 97bc 0d5f bdbd 7e41 7cbd 2c6d 81bd
00000160: 258d 8e3c bc0b 5cbd f639 813d 39ba babf
00000170: cdb9 14bd db21 1d3a b370 6c3d 9e0b 9dbd
00000180: a12e 9ebd e46d a9be f114 9d3d 3175 063e
00000190: f60a 0bbd 9ca6 d2bd 3eb7 5a3e a520 14be
000001a0: 2a1d 9abd 901c 2d3e 7fed a53d 63e3 3c3d
000001b0: e18c 2d3e 160c 83bd b067 d1bd ed4c 183e
000001c0: 475d e03d 1e0a 21bd a5e0 963e 0bde 88be
000001d0: 9171 7cbc f778 03be 734d dfbe 61f3 8cbe
000001e0: 6985 74bd e805 a8bd 3ffd e63d 00c4 0c3d
000001f0: c3ec 0cbe 6042 0cbd 107e 8abe 8fe2 0a3e
00000200: ef4b 363e 2b8e c4bd f962 b0bc 0a26 b23d
00000210: bcd2 9cbe 7e05 76be 7e40 c73c 12f1 0ebd
00000220: 6756 fcbd 55a6 093d cb9e 933c c625 d1bd
00000230: 96a9 af3e 3d95 eabd 7fdc 443e de10 753d
00000240: b971 3c3d 6dfc f1bc e9f2 9dbe ede9 d33d
00000250: c18d dc3d bd90 92bd 79df acbd e5d0 4dbe
00000260: ef02 09be 5f53 eabd 1fe3 afbd 5dc7 1140
00000270: 731c a5bc d069 443c 7c79 62bd d4e8 45be
00000280: 8f13 0bbe 2ed5 3c3c c887 133e 39e1 a6bd
00000290: decc d8bc 7641 b8bd aebc 11be 0be1 d1bb
000002a0: 1122 103e 38a3 c73d 0729 59bd d784 05bc
000002b0: 218f 26be 1f84 2bbd 4ab5 953d 4a2b 86bd
000002c0: 4283 b7be 8632 34be 5b79 323d 4b21 77bd
000002d0: b454 01bd 6349 8b3b 70b4 bbbc cda8 47bd
000002e0: 1872 d3bd ec66 3ebe 476c 34bd 2a61 0e3e
000002f0: 700d 833d 4eb5 dd3c 0028 c3bd ad43 c3bd
00000300: b31e 81bb 4e1c 42be 799a 193e 28d3 84bd
00000310: 8dba bfbd 46be f7be 222a ac3c 6df8 1b3e
00000320: 88c5 9ebe c995 8abe ec7a b8bd 4534 e43c
00000330: ac0e 003e d022 6ebe 7043 203e 1520 99bd
00000340: 4d94 233e 1bd4 b33d a890 95be f50f 15be
00000350: 7a12 b8bd aebc 593d 84f6 14be 966f 2b3e
00000360: 9e1b 4abd 3409 66be 6fa5 6dbe 9a40 56c0
00000370: 41c4 fabd 478c 39b9 db7a 12bd 4cd7 403d
00000380: c8fc fb3d b7bb 57bd 4e38 973c 81d4 52bd
00000390: 7eb2 c0bd e2b5 b0bc a7a8 fabd 3c0a 88bc
000003a0: 4ed3 a5be a5ed eebb b8c4 b3bd b863 42bc
000003b0: 3d26 1fbd 6d8d d53c 667d 963d e485 adbd
000003c0: dba3 aa3c f7fa 593e bcff cc3d b4e4 da3d
000003d0: 8f86 0c3e dc90 16bd 0888 0b3d b962 833c
000003e0: 0571 0d3e 22a7 3bbe 9d07 c23c 1b62 e1bd
000003f0: 36a7 913d 75ef 7bbd dfbc cb3b bd8c 5c3c

critic.2.bias f4 [64]
0.11189779 0.18940891 -0.083613224 0.13398504 0.05147241 0.116114385 -0.066841625 0.084660344
0.08402786 0.056939203 0.040672306 -0.016995376 -0.09496731 0.07610919 -0.16108572 -0.15214421
-0.03854395 -0.15074848 -0.09001123 0.08431888 -0.059035767 0.097831056 0.060941372 -0.10345971
-0.07531891 -0.14051722 0.016982201 -0.03360639 -0.2271861 0.09707975 -0.0022464355 0.031471975
0.09903508 -0.21443184 -0.09874689 0.10173913 -0.04694976 -0.00207996 -0.0058522443 0.1497022
-0.15226369 0.046734 0.0028298877 0.05150279 -0.038823288 0.075501755 0.056797445 0.060905885
0.007908568 -0.040400926 -0.18339942 0.047555704 -0.13339975 -0.03444952 0.18468992 -0.071798064
0.012844153 0.008187183 -0.033946414 -0.24572206 -0.05242761 0.069874205 -0.047235597 0.13007763
00000000: ab2a e53d 69f4 413e 693d abbd 6033 093e
00000010: bcd4 523d 61cd ed3d 43e4 88bd 6762 ad3d
00000020: cc16 ac3d 1539 693d 0198 263d e339 8bbc
00000030: 397e c2bd 23df 9b3d a8f3 24be b1cb 1bbe
00000040: 43e0 1dbd cf5d 1abe cf57 b8bd 61af ac3d
00000050: 7dcf 71bd a65b c83d a99d 793d afe2 d3bd
00000060: cd40 9abd bfe3 0fbe 421e 8b3c dba6 09bd
00000070: 79a3 68be bfd1 c63d ef38 13bb c2e8 003d
00000080: e7d2 ca3d 0594 5bbe cf3b cabd 9b5c d03d
00000090: 644e 40bd f04f 08bb 2fc4 bfbb 894b 193e
000000a0: 03eb 1bbe 276c 3f3d a375 393b 97f4 523d
000000b0: 2b05 1fbd aaa0 9a3d 70a4 683d 7378 793d
000000c0: f092 013c 717b 25bd 0fcd 3bbe c5c9 423d
000000d0: f299 08be f11a 0dbd 5b1f 3d3e dd0a 93bd
000000e0: 4870 523c 8923 063c 650b 0bbd 909e 7bbe
000000f0: 55be 56bd 351a 8f3d 1d7a 41bd 1233 053e
