PPO/PPO2_Trained/PPO_DoubleInvPendulum_600K.pth (torch, 109673 bytes, 18 tensors)

actor.0.weight f4 [64, 6]
000000 d1 46 f0 bd 79 03 c5 be 04 d0 57 be 94 65 00 3e
       -0.11732257 -0.38479212 -0.21075445 0.12538749
000010 01 63 fb 3d 9e 27 14 3c 88 c6 c6 3e 15 e1 ce be
       0.12274743 0.009042649 0.38823342 -0.404061
000020 0c 1d 48 bd 84 2d 5e 3e c3 80 1b be 66 89 43 3e
       -0.048855826 0.2169705 -0.15185837 0.19095382
000030 23 3f 42 3f 3d 31 85 bd 72 09 fe bd 0e ca b3 be
       0.7587759 -0.06503532 -0.12404145 -0.35115093
000040 2a 85 60 be 84 27 da 3e 07 68 2c 3f 81 e1 4f be
       -0.21925798 0.42608273 0.67346233 -0.20300867
000050 28 c4 0f 3c 62 b7 c0 be 2d 07 b6 be 1b 9e 85 bd
       0.008774795 -0.3763991 -0.3555235 -0.06524297
000060 52 0a 24 bf f6 05 15 be d9 86 b3 bd 88 90 a2 3e
       -0.6407825 -0.14553055 -0.087659545 0.31750894
000070 c7 4b 3c 3d 70 cd 53 bd 7d 36 51 be f2 97 c5 be
       0.045970704 -0.051709592 -0.20430942 -0.38592488
000080 6b 89 7a bd b5 4c 14 3e 68 0e 01 3e 4d 8a 0f bf
       -0.06116621 0.14482386 0.12603152 -0.56070405
000090 88 e9 2c be 81 8a 85 bd cd e1 91 3d ed 37 56 3e
       -0.1688596 -0.06520558 0.07123146 0.20919771
0000a0 90 53 ad 3e 36 e7 e4 be 91 b0 21 3f 7c db e3 be
       0.33852816 -0.4470765 0.63160044 -0.4450339
0000b0 85 31 85 be b2 46 b7 be 11 ef 40 bd 3d 44 93 3c
       -0.26014343 -0.35796124 -0.04710299 0.017976874
0000c0 63 4f 3d 3f 20 08 59 be d7 d9 ed bd f8 c9 73 be
       0.7394926 -0.21194506 -0.11613815 -0.23807514
0000d0 2b a0 b5 3c 1a 46 8a 3e 2e 44 87 3e 63 b5 e2 bd
       0.0221711 0.27006608 0.26419204 -0.11069753
0000e0 e8 64 e3 3e c5 3a a5 3e de 93 8a 3e 41 a7 2b 3e
       0.44412923 0.322714 0.2706594 0.16763021
0000f0 28 97 15 3f f0 cd 0b bb b2 4e 1c 3e 7f af f0 bd
       0.5843377 -0.0021332465 0.15264395 -0.11752223
000100 c9 5e a2 be 3f 9c 5a 3e 8c 33 d0 be 07 78 b2 be
       -0.3171294 0.21348666 -0.40664327 -0.348572
000110 86 e3 69 3e b9 94 9a 3e 9f 27 a2 bd 89 f2 0f be
       0.228407 0.3019159 -0.079177134 -0.14057364
000120 eb e2 17 3f 4f 47 c1 3e f7 4f 90 bd bd a1 ac bd
       0.59330624 0.37749717 -0.07046502 -0.08429287
000130 77 a2 89 3d 41 da 73 be 35 6d 40 be b2 f0 6f be
       0.06720441 -0.23813726 -0.18791659 -0.23431662
000140 24 cf d6 bc 03 6a 41 be 9f 60 a8 3e 3a 15 cf be
       -0.02622182 -0.18888097 0.32886216 -0.40445882
000150 8b 9b e3 be eb 52 7f 3e bc f1 33 3e 92 00 be 3e
       -0.44454607 0.24933974 0.17572683 0.3710981
000160 1d 34 a7 be 87 9c 02 3f bb 06 f4 3d 3f b8 bd 3e
       -0.32656947 0.5102009 0.11915346 0.3705463
000170 a2 b1 4b be ef 94 67 3e 89 e7 ad 3e b0 3c 66 3d
       -0.1989198 0.22615407 0.3396571 0.05621022
000180 4a df 24 bf 25 4d 6e be 53 c2 a5 be 44 10 39 be
       -0.6440321 -0.23271616 -0.3237482 -0.18072611
000190 67 32 97 be d8 52 25 be f6 de 9a 3f f2 9a 5f be
       -0.2953064 -0.16144884 1.2099292 -0.2183645
0001a0 a6 0e d4 be 29 b9 45 bd 38 90 a2 3e 74 05 9d be
       -0.41417426 -0.048272286 0.31750655 -0.30668223
0001b0 7e 95 d3 3d f6 39 2f 3e 42 55 5f be 51 2a bf be
       0.10331248 0.17111954 -0.21809867 -0.37336972
0001c0 57 79 c0 3e c7 fe b1 be a5 82 95 ba 9a de 95 3e
       0.37592575 -0.34764692 -0.0011406733 0.29271394
0001d0 94 46 98 3d 3d bb 4d be 50 a2 1e 3e f3 27 84 be
       0.07435337 -0.20090957 0.15491605 -0.2581173
0001e0 64 a6 30 3f cc 19 02 3e e9 d1 94 be ec f7 c0 3e
       0.6900389 0.12705153 -0.290664 0.3768915
0001f0 da 0b ef bd 3f b9 75 bd 57 7b 6a bf 1c f4 be be
       -0.116721824 -0.059991118 -0.9159445 -0.37295616
000200 4c dd 55 be e8 ec 36 be 60 61 80 bd 7b f3 c5 be
       -0.208852 -0.1786381 -0.06268573 -0.38662323
000210 0a 7d 06 3e 2d c6 c4 3d 47 ba a7 3e e4 e7 cd bd
       0.13133636 0.096081115 0.32759306 -0.10053995
000220 33 f5 93 3e 45 95 39 3e c6 be 95 be 85 6f 48 be
       0.2889801 0.18123348 -0.2924711 -0.19573791
000230 ac 53 eb be a4 54 05 bd 62 05 9c 3d 2b 3f 02 be
       -0.45962274 -0.032551423 0.07618214 -0.12719409
000240 4e 1b 91 3d 03 41 c6 be dc 36 a8 be c3 82 b1 be
       0.07085286 -0.38721475 -0.32854354 -0.34670076
000250 fa 70 d1 be 81 ab 82 be 22 d0 80 3f 3f 37 16 3b
       -0.40906507 -0.25521472 1.0063517 0.0022921113
000260 a2 01 be 3e ae 57 e6 3d c6 98 00 3e 0a cb cc be
       0.3711062 0.11247192 0.12558278 -0.39998657
000270 5c c7 99 bf 4f 40 5d bd 3d 57 a3 3e 71 78 38 bc
       -1.2013965 -0.054016408 0.31902495 -0.011259184
000280 1e a9 44 be 6e f7 05 bf 7b f1 17 bf d0 6b 80 3e
       -0.19205138 -0.5233067 -0.59352845 0.25082254
000290 c0 6c d1 be fb a2 53 3e ce 4e b9 bc 81 8b 43 3e
       -0.40903282 0.20667641 -0.022620585 0.19096185
0002a0 a5 86 a0 bd d7 af 91 be 86 36 88 be 51 42 02 be
       -0.078381814 -0.28454468 -0.26604098 -0.1272061
0002b0 f0 da 24 3e 7e 5b e3 bd 1b 23 86 bc 37 4d 68 3e
       0.16099143 -0.11101435 -0.016374161 0.22685705
0002c0 a6 77 e4 bd 4e 7e 9d be be f0 a0 3e a9 73 c4 bf
       -0.11155634 -0.30760425 0.31433672 -1.5347797
0002d0 4a 9e 4e 3e a5 bb 80 3d 7f d3 80 be fe 68 ce 3d
       0.2017757 0.0628579 -0.2516136 0.100786194
0002e0 13 d0 a9 3e 40 15 b6 be 96 05 96 be 55 8a cd be
       0.3316656 -0.35563087 -0.29301137 -0.401446
0002f0 ed 2d 3e 3e e5 0d ce ba 77 e1 57 3e 37 38 94 be
       0.18572207 -0.0015720694 0.21082102 -0.2894914
000300 41 e3 af be 97 e2 3e 39 bc f6 97 be 7d 35 18 3e
       -0.34353068 0.00018204223 -0.2968043 0.14864154
000310 5b 7b 80 be 3e d8 fe 3e 2f 0e 22 bf e5 e8 34 be
       -0.25094113 0.49774355 -0.6330289 -0.17666967
000320 8b 4f f4 3d 39 69 b1 3d e7 79 c5 3c 25 da b9 be
       0.11929234 0.08662648 0.02410598 -0.36299244
000330 b4 e9 59 3f 8d d1 d4 be fd 96 af 3e 53 99 f7 3c
       0.8512223 -0.41566125 0.34294882 0.030224478
000340 db 5d 1e 3e e0 ba ed 3e 2f 60 bd be 80 93 cd 3e
       0.1546549 0.46431637 -0.36987445 0.40151596
000350 83 91 c1 be 0d 2b 7f be 16 74 86 3e 34 96 c3 bf
       -0.3780633 -0.24918766 0.26260442 -1.5280213
000360 1a ad fc 3d ce c5 0b be eb ae 22 3e e6 06 07 3e
       0.12337704 -0.13649675 0.15887038 0.13186225
000370 32 be d5 be a9 c7 96 be 28 7c f2 3e 29 16 ae bd
       -0.4174667 -0.29449204 0.4736035 -0.085003205
000380 8b af 0e be bb d9 b0 3e 23 f6 c8 be e3 78 48 3f
       -0.13934152 0.34541115 -0.39250287 0.7830946
000390 c3 72 39 3e 83 2a 37 3e 7d 95 c8 3e 57 af 71 3e
       0.18110184 0.1788731 0.3917655 0.23602043
0003a0 42 61 98 3e aa 1c 2e 3e 3c 8f 4f bf 87 ca b6 be
       0.29761702 0.17003122 -0.81077933 -0.3570139
0003b0 d5 1f 00 3e ea 8f 90 be e9 9a 94 bd 5d 04 47 bf
       0.12512143 -0.28234798 -0.07256109 -0.7774103
0003c0 85 3a f1 bd cd f6 c4 3e c8 82 23 be 02 ae c8 be
       -0.1177874 0.38469544 -0.15967858 -0.39195257
0003d0 b2 87 be 3e 10 9d 78 3e 77 0c cd be be 4e 01 3c
       0.37212902 0.24278665 -0.40048572 0.007892309
0003e0 fe af 16 be 9e e3 38 be 48 19 44 3e 36 16 49 be
       -0.14715573 -0.18055579 0.19150269 -0.19637379
0003f0 eb a3 f0 be b3 1d 68 be 6c 9d 8a be 0d 1c 93 bd
       -0.4700006 -0.2266758 -0.27073228 -0.07183085

actor.0.bias f4 [64]
000000 e4 54 72 3e 2d ba 68 bc 80 44 86 be d2 06 3b 3e
       0.23665196 -0.014204544 -0.26224136 0.1826432
000010 8a df 53 be 51 22 22 be 0c 82 bb bc 98 cb 0c 3e
       -0.20690742 -0.15833403 -0.02288916 0.1374954
000020 64 21 9a be 5e cb a4 3e 6b 38 6a be 1e 2c 4f 3e
       -0.301036 0.32186407 -0.22873084 0.20231673
000030 4e 42 bd 3e 06 b8 a0 3e 3f 8d a8 be 79 b3 90 be
       0.3696465 0.313904 -0.32920262 -0.28261927
000040 9f 17 56 be 27 57 91 be 36 11 99 3e af 00 7f 3e
       -0.20907448 -0.28386804 0.29895943 0.24902605
000050 26 aa c7 3e c7 d6 09 3e 55 86 6c 3e ec b4 00 3e
       0.38997 0.13460837 0.23098119 0.12569016
000060 81 8f e0 3d 32 3f 8d be 44 b3 ed bc 4f e5 5d 3e
       0.10964871 -0.27587277 -0.029016145 0.21669506
000070 5e b9 b5 bd 92 8d 10 be e2 08 bd 3e 4f 34 ea bc
       -0.088732466 -0.14116505 0.3692084 -0.028589396
000080 b7 8f 83 3e a2 f1 b9 3c 2c 2c 4e 3e aa 5a dd 3d
       0.25695583 0.022698227 0.20134038 0.108083084
000090 dc 24 68 3d bc 92 79 3e af c0 99 3c 54 c4 0b 3e
       0.056675777 0.24372381 0.018768637 0.13649112
0000a0 91 1e 5b be f2 5e d1 3e df 5b 89 3e c4 9d b0 be
       -0.21398379 0.4089275 0.26827905 -0.34495366
0000b0 f9 d7 29 3c 24 69 0a bd 5b b0 52 3e a9 a8 95 bb
       0.010366433 -0.033791676 0.20575087 -0.004567225
0000c0 e8 a5 04 be 79 14 8d bd eb 53 c9 be 59 0b 44 3e
       -0.12953913 -0.068886705 -0.39321837 0.19144954
0000d0 51 44 8e be a1 20 30 3d eb f9 2c 3e c4 0c 87 3d
       -0.27786496 0.042999867 0.16892211 0.06594232
0000e0 91 66 cb 3e b9 ba 39 3e 95 e5 c0 be 63 06 88 3e
       0.3972669 0.18137635 -0.37675157 0.26567373
0000f0 6e d5 eb bd 3c 0b 2d be 5c 33 4d be dd 4f 9e 3e
       -0.11515318 -0.16898817 -0.20039123 0.30920306

actor.2.weight f4 [64, 64]
000000 55 b2 0a 3e 07 da fb bd f3 25 01 3e 32 fa de bc
       0.13544591 -0.12297445 0.12612133 -0.027218912
000010 39 ce 54 bc 57 e5 00 3e c4 02 b2 bd 50 c3 79 bd
       -0.01298862 0.12587486 -0.08691934 -0.06097728
000020 a3 92 08 be e3 fb 69 3d 70 77 82 bc c4 44 7d 3d
       -0.13337187 0.057124984 -0.015926093 0.061833158
000030 6e 49 87 3a c7 e1 28 bd 66 52 9c 3a f4 dc 44 bb
       0.0010321566 -0.041230943 0.0011926412 -0.0030038925
000040 00 5d 7c be 54 80 84 3d 23 02 a1 bd 1b 2f 14 bd
       -0.24644852 0.06469789 -0.07861736 -0.036177736
000050 cf b7 3e 3d 5f b6 b8 bd a8 4a 11 3d ea 34 ab bd
       0.046562012 -0.090191595 0.03547159 -0.08359702
000060 c4 09 0a be 3a bf 83 3c b3 c6 21 3d 40 49 7c 3b
       -0.13480288 0.016082395 0.039496135 0.003849581
000070 df 0c 33 bd 01 ae 93 bd 78 f9 79 bd 5c 9b 48 3c
       -0.043713447 -0.07210923 -0.061028928 0.012244072
000080 a9 e5 dd bd 29 bc 8f 3d 4f 5c d6 3d 42 0f 4e bd
       -0.1083482 0.070183106 0.10466825 -0.05030752
000090 61 04 bd bd 3c 3a cd 3d db 71 76 bd a1 68 1a be
       -0.09229351 0.10020873 -0.060167175 -0.15078975
0000a0 c6 e5 d1 bd 7d 49 19 3e 3e 7c 5a 3e 9c 9f c0 bc
       -0.10248904 0.1496944 0.21336457 -0.023513608
0000b0 31 21 c3 3d 3c 48 88 bb e7 49 99 3d 1c a1 00 be
       0.09527815 -0.0041590016 0.07484799 -0.12561458
0000c0 bb 99 24 be 28 3e c0 3d 60 98 20 be a2 f9 31 be
       -0.16074269 0.09386855 -0.15683126 -0.17380384
0000d0 dc 8b 52 bd b9 09 51 bd ee 5a d8 3b 40 97 e0 bd
       -0.05140291 -0.051034663 0.0066026365 -0.10966349
0000e0 0e b7 a0 3d 83 6d 98 3c 0c 59 d6 bd a9 d5 0a 3e
       0.07847415 0.018606907 -0.10466203 0.13558067
0000f0 ff eb bd bd 8e ac d4 3d 33 17 f0 3d 44 01 36 3b
       -0.09273528 0.10384475 0.11723175 0.002777175
000100 f0 fc a2 bd be 79 03 be 70 74 0d 3d 78 73 8d bc
       -0.079584 -0.1283941 0.03453487 -0.017266974
000110 20 13 88 be f0 03 1a bd bc 6d db ba 4a e3 83 3a
       -0.2657709 -0.03760141 -0.0016741077 0.0010062244
000120 e5 b1 21 3e 3e 10 20 3e 94 53 35 be 4c ec 13 3d
       0.15790518 0.15631196 -0.17707664 0.036114022
000130 8e 72 92 bd 02 a5 51 be e2 6b 59 bc c7 42 8f bc
       -0.07150756 -0.20473102 -0.01327035 -0.017487897
000140 9b b2 fe 3d c6 a1 dc 3c 2c d1 8d bd a3 e5 ef bd
       0.1243641 0.026932608 -0.06924662 -0.117137216
000150 92 f1 df 3d d9 29 9f bd 9a c8 df bd b8 41 da bd
       0.10934748 -0.07771654 -0.109269336 -0.10657066
000160 31 34 62 3d 9d 2e fc bd 60 6c 0b 3d 61 bd 40 3e
       0.055225555 -0.12313578 0.0340389 0.18822242
000170 12 a3 d2 bd 6d cb 05 3e 9b 1a 7f bc 03 94 a9 bd
       -0.102850094 0.13065882 -0.015570308 -0.08280184
000180 e1 f6 8f 3d 83 f4 2c 3e b2 47 98 bd b5 41 30 3d
       0.0702951 0.16890149 -0.0743555 0.043031413
000190 b7 a5 60 be 16 eb 24 3c 2c a3 17 bd db 5e 06 3e
       -0.21938215 0.0100658145 -0.037020847 0.13122122
0001a0 91 45 f6 3c f5 34 4a bd 08 58 01 3e a2 f8 34 3d
       0.030062469 -0.04936691 0.12631238 0.044182427
0001b0 b3 3e 7c 3c 5d e2 89 3d ff 46 58 be 80 5f 56 3c
       0.015395808 0.067326285 -0.21120833 0.013084292
0001c0 a9 1b 96 3d 26 db 6e 3e a9 14 85 bd 58 e3 cf bd
       0.073294945 0.23325786 -0.06498081 -0.10150784
0001d0 d5 6c c8 bd c6 4d a6 bd a4 ec 4a be 94 37 91 3b
       -0.09786383 -0.08120303 -0.19816834 0.0044316743
0001e0 ad 0c 9a 3d 1d 31 47 be 05 91 68 be 66 2d 86 3b
       0.07521949 -0.19452329 -0.2271157 0.0040947674
0001f0 7c b9 5e be 8b 31 59 be 64 78 75 be 8a 04 bc 3d
       -0.21750444 -0.21210305 -0.23971707 0.09180553
000200 92 cb 52 be 5b 80 10 3d 72 f6 64 be b2 24 9a 3d
       -0.20585468 0.03527866 -0.22359636 0.0752653
000210 d1 bf 23 bd f7 03 28 be 32 88 6d 3c cd 1a 66 be
       -0.039977852 -0.16407762 0.0144978035 -0.22471161
000220 62 a4 9a bd 3e 63 c5 3d 01 ec 46 3e 0e 4d 9f bd
       -0.07550885 0.096380696 0.19425966 -0.07778369
000230 92 3b a1 3c 52 db 39 bd 24 f2 81 3d 13 ff 17 3d
       0.019681726 -0.045375176 0.06345013 0.037108492
000240 44 ed 15 be 17 e6 86 bd a0 0b 35 bd a4 76 1e 3d
       -0.14641291 -0.06586855 -0.04420054 0.038687363
000250 08 92 ad 3d 13 6b 0f bd 99 be 8a bc 93 84 4b bd
       0.08475119 -0.035014223 -0.016936587 -0.04968698
000260 20 66 19 be 4a 17 f5 3d 8d c1 7b 3d 86 05 1e 3d
       -0.14980364 0.11967333 0.06146388 0.038579486
000270 2e 7f ef bd c4 4b c3 3e a4 fe ec bd 27 c5 a9 3d
       -0.116941795 0.38143742 -0.11572006 0.08289557
000280 ca 7b b1 3d 04 26 74 3d 3a 0a f0 bc c7 66 16 3e
       0.08666189 0.059606567 -0.029301751 0.14687644
000290 a5 51 f0 bc c3 b7 64 3e 67 98 d5 3d 58 ab 01 be
       -0.029335806 0.22335725 0.10429459 -0.12663019
0002a0 ce 0f 2a 3e fd 57 28 3d ad b9 db bd 21 dc 38 3d
       0.16607592 0.041099537 -0.10728774 0.045131806
0002b0 63 78 30 bd 47 41 a9 bd ec f5 9a bd df db 72 3e
       -0.04308356 -0.08264404 -0.07566437 0.23716687
0002c0 f2 83 9e bd 1d 6b 2d bd 71 17 28 3e 67 9e 35 bd
       -0.0774001 -0.04233848 0.16415192 -0.044340517
0002d0 bb 43 8d bb 3b e8 53 be 6a ff 51 bd 82 d7 07 bd
       -0.0043110526 -0.20694058 -0.051268972 -0.03316451
0002e0 91 4d 6b bd b2 72 bc 3d bc 16 c9 bd 64 47 35 bc
       -0.05744702 0.09201564 -0.09818789 -0.011064384
0002f0 d9 e8 45 3d a1 71 92 3d 3f a2 3b be c3 2e dd 3c
       0.048317764 0.07150579 -0.1832361 0.026999837
000300 9b 96 12 3c 0c 9f 0a 3d 53 e1 6a bd 8e a9 85 bd
       0.00894704 0.033843085 -0.057343792 -0.065264806
000310 9f f2 7f bd 48 e7 29 3d 26 16 6c bd 58 f9 9b bd
       -0.06248724 0.041480333 -0.05763831 -0.07615918
000320 c8 d4 73 be ee 48 4c be 39 08 22 3c 11 97 4a 3d
       -0.23811638 -0.19949695 0.009889656 0.049460474
000330 57 52 86 3d 3f d8 84 3d 01 7b a2 3d 36 9c 08 be
       0.06558674 0.06486558 0.079336174 -0.1334084
000340 42 22 16 bd 19 73 54 3d fe 7a 4d bd dc f9 13 3d
       -0.036653765 0.05186758 -0.050166123 0.036126956
000350 d4 4e 0b be c3 07 0f 3e 77 99 9a bd eb bc 32 3e
       -0.1360429 0.13967805 -0.07548802 0.17454879
000360 34 68 c2 bb db 9b c3 bd c7 c6 db 3d 59 f2 95 3d
       -0.005932832 -0.095512114 0.10731273 0.07321615
000370 38 6a c5 bc 44 f3 05 be 74 bd 80 3d 2b b7 a7 bd
       -0.0240985 -0.1308108 0.06286135 -0.081892334
000380 9f c6 5c 3d 57 23 98 3d 12 b8 00 3d 51 c0 a7 bd
       0.053900357 0.074286155 0.031425543 -0.08190978
000390 a2 3d e1 3d 65 0c ad 3c bd e3 a3 bc 00 bf e4 3d
       0.10998084 0.021124074 -0.020006055 0.11169243
0003a0 96 7e 44 be fb f2 e2 3d e4 9a 40 bd b8 29 03 3e
       -0.19188914 0.11081501 -0.047022715 0.12808883
0003b0 3f 9c 9c 3b 64 52 a3 bd 6d ef 0d 3c ea 18 a0 3c
       0.004779368 -0.07974699 0.008663041 0.01954313
0003c0 77 4a aa 3d 89 2a c5 bd a7 51 0d 3e d9 29 db bd
       0.08314984 -0.096272536 0.13800679 -0.10701341
0003d0 d0 35 94 bd 93 42 6c 3d eb 2e b9 3b e9 2a 93 3c
       -0.072368264 0.057680678 0.005651345 0.017964797
0003e0 b8 ed 71 bd 47 ee cb bd 53 ce a1 3c c4 2f 82 3d
       -0.059064597 -0.09957557 0.019751703 0.06356767
0003f0 5d 41 d7 bd 00 28 dd 3d 34 74 9a 3d 51 07 67 bc
       -0.10510514 0.10798645 0.07541695 -0.014100865

actor.2.bias f4 [64]
000000 a5 be 0b 3e fb c6 a6 3d 0f 3f 9c bc d2 67 0f 3d
       0.13646944 0.08143421 -0.019073037 0.03501112
000010 b6 f9 74 3d 1e 49 2d 3d 86 2e 3d bd 54 dc c0 3c
       0.059808455 0.042306058 -0.046186946 0.02354256
000020 c8 8c b8 3d b8 b9 cb 3b 2d e4 d4 bd 1e 06 2e bd
       0.09011227 0.0062172078 -0.103950836 -0.042486303
000030 7d 2b cb 3d 97 a9 89 3d ee 31 02 bc 81 9a e1 bd
       0.09920404 0.067218 -0.0079464745 -0.110157974
000040 36 c0 87 3d ab c0 c0 3d e2 22 c3 3d 40 25 10 be
       0.06628458 0.094117485 0.09528138 -0.1407671
000050 47 4c f2 3b 85 ac 93 bd cb 58 fc 3d fc 27 f9 3d
       0.007394347 -0.0721064 0.123216234 0.121658295
000060 e7 9e 25 bd 59 22 cd 3d de 5b 6d bd d1 47 bb bd
       -0.040434744 0.10016317 -0.05794894 -0.09144557
000070 fb 1c ec 3d 0c e0 e7 3c 97 0c 63 3c cf 34 ae 3d
       0.11528965 0.028305076 0.013857982 0.08506166
000080 99 b9 9a bd e7 36 a8 bd 9f bf 60 bd a0 62 9d bd
       -0.07554931 -0.08213597 -0.054870244 -0.07684827
000090 1a fc ee 3c 14 79 85 bd 94 74 42 bd 77 b3 db bd
       0.029172946 -0.065172344 -0.04747446 -0.107275896
0000a0 f5 49 4b 3d e2 a9 1a 3d 45 bd 21 bd 6a e3 8f 3c
       0.049631078 0.03775967 -0.039487142 0.017564494
0000b0 ad 45 c0 bc 81 fd 08 be b9 6f 4d 3c 08 26 c6 3c
       -0.023470724 -0.13377954 0.012538844 0.024188057
0000c0 1f cd e0 3d fd 9e b3 bc 3b cb 98 3d 15 ae 15 bd
       0.10976624 -0.021926397 0.07460638 -0.03654297
0000d0 70 a2 8e bd 45 3a bb 3d 84 56 f1 bc c4 ef 7a 3c
       -0.06964576 0.091419734 -0.0294602 0.015315954
0000e0 ff b8 b8 3d 15 b0 92 3d f7 e7 83 bd 28 29 fd bd
       0.0901966 0.07162491 -0.06440728 -0.123613656
0000f0 79 74 ae bd 5d 47 6f bd 9d 5f c8 bc e6 a2 03 be
       -0.08518309 -0.058417667 -0.024459654 -0.1285511

actor.4.weight f4 [64, 64]
000000 0f 6d 9c 3c bc d5 90 be 5f ae 1a be 21 96 39 3d
       0.019094972 -0.28288066 -0.1510558 0.04530919
000010 b1 11 40 3d 4c 9f 26 3c 61 48 ed 3d 6f 48 08 3e
       0.04689187 0.010169815 0.11586071 0.13308881
000020 8f 55 36 3d ae 92 82 3d 9d ca dc 3d 58 3d bd 3d
       0.04451519 0.06375633 0.10780833 0.09240216
000030 ff 16 24 3d 12 0e 0f 3e cc 60 8b 3c 5a 5e a2 bd
       0.040060993 0.13970211 0.01701393 -0.079281524
000040 36 50 7a 3d b9 ce c0 3d db 74 f6 3d 0f 19 85 bd
       0.06111165 0.09414429 0.12034007 -0.0649892
000050 55 61 0a 3d 38 c7 a9 bd e7 ae 60 bb 62 e5 61 bd
       0.03378423 -0.08289951 -0.0034283937 -0.055150397
000060 9c c5 b4 3d a6 cb 8b 3b f6 05 05 3d 73 74 a7 3e
       0.088267535 0.00426622 0.032476388 0.3270603
000070 9c 3a 48 bc 90 d2 10 3e 59 06 1b 3d cd ef a7 3d
       -0.012221005 0.14142823 0.03784785 0.08200035
000080 1f 8a a9 bd c5 86 2d bd 75 b6 ab bd a5 1c 0d bc
       -0.08278298 -0.042364854 -0.0838441 -0.008612786
000090 48 d9 dc 3d 0d b7 7a 3d c9 92 49 3c 54 a7 17 be
       0.107836306 0.061209727 0.012303063 -0.14809924
0000a0 01 17 f0 3d 4d 27 bc bd 90 ac c3 bd d7 a3 09 bc
       0.11723138 -0.091871835 -0.09554398 -0.008400879
0000b0 e8 0c 52 bd 7c 65 40 3e c1 af 6a 3d 90 40 86 bc
       -0.05128184 0.18788713 0.05729652 -0.016388208
0000c0 29 fe a5 3d 32 10 bb 3d b2 a9 71 bd d2 71 25 3e
       0.08105118 0.091339484 -0.058999725 0.161567
0000d0 ec d9 76 3d 5f 2b f4 3d 36 f9 07 3d 17 ae 8c 3d
       0.06026642 0.11922335 0.03319665 0.068691425
0000e0 66 22 63 3d 32 4d c4 3d 94 f2 76 bd ad fb fb 3d
       0.055452727 0.09585036 -0.060289934 0.12303863
0000f0 4f 12 06 bb 68 db 73 3e d8 d1 e5 3b cc 9c bc 3d
       -0.002045769 0.23814166 0.0070135407 0.09209594
000100 0b a7 72 3d 04 f7 71 be 6b 2b ef 3c f5 ea 97 3c
       0.059241336 -0.23629385 0.029195508 0.018544653
000110 73 1a f0 bd 7c d3 5e 3d 93 ae 3e 3e f7 e6 03 bd
       -0.11723795 0.054400906 0.18621282 -0.032202687
000120 aa 78 74 bd d7 d4 0b 3e b5 d8 6b bd 6a d3 b9 3a
       -0.059685387 0.1365541 -0.057579715 0.0014177386
000130 91 1a e4 bd 4e 9c 2d bd 96 c5 97 bc c4 71 70 bd
       -0.1113788 -0.042385392 -0.018526834 -0.058702245
000140 b6 5e 69 3d 5c 82 dc bd 7d a8 7b 3d aa 9a 42 bc
       0.05697509 -0.107670516 0.06143998 -0.011877695
000150 e2 2d 8d 3d f8 82 1c bd ea 23 83 3d 37 84 c5 3d
       0.06893517 -0.03821084 0.064033344 0.096443586
000160 9a 70 18 bb b7 92 b6 bc c8 82 20 be a5 a7 8a 3e
       -0.0023260475 -0.022286756 -0.15674889 0.27081028
000170 4e bd 6a 3b 2d 68 b8 3d 6a 0c 99 3e fa b3 99 bd
       0.00358184 0.09004245 0.29892284 -0.07505031
000180 09 a9 06 bd 44 60 57 be d4 f5 a5 bb 20 56 18 3e
       -0.03287605 -0.21032816 -0.0050647054 0.14876604
000190 8e 30 68 3d 96 42 61 be c3 be 50 3d f9 a2 67 3c
       0.05668693 -0.21998057 0.050963175 0.014137977
0001a0 14 73 2b 3d dc 10 cc bc 49 6e 6c bc b1 e1 e6 bc
       0.041857794 -0.024910383 -0.014430591 -0.02818379
0001b0 7d 70 ec bd 1a dc 05 3d ca 05 2f be 40 58 f8 3d
       -0.11544893 0.03268061 -0.17092052 0.12126207
0001c0 10 3e b3 3d 19 3e 5e 3d 83 d8 b7 3c 39 96 6f 3d
       0.08752072 0.05425844 0.022442108 0.058492873
0001d0 d5 64 86 bd 5e 3b 11 3e bb a5 ba 3d 9b 52 b7 3e
       -0.06562201 0.14182803 0.09113642 0.3580521
0001e0 11 87 0f 3e fe 2a 55 bd a7 b3 17 3c 95 93 06 39
       0.14016367 -0.052042954 0.009259141 0.00012834214
0001f0 66 f7 13 be b7 9b 92 3e bd 75 18 3d 28 1b 29 3e
       -0.14449844 0.28634426 0.03722166 0.16514266
000200 c4 b5 4b 3e a8 77 0f be 10 19 04 be b4 46 5e 3d
       0.19893557 -0.14010489 -0.12900186 0.054266647
000210 b1 f6 45 bf 12 43 ea 3d ff 37 48 3c cc ad c4 3d
       -0.77329546 0.11438574 0.012220382 0.096034616
000220 af 55 9f bd 34 e2 a2 bd 65 c5 8d be 7f aa 83 bb
       -0.07780015 -0.07953301 -0.27689663 -0.0040181275
000230 01 5d d6 bc bc 8c 01 bd ad 4e 7c bd a1 31 05 3e
       -0.026167395 -0.031628355 -0.06159847 0.13007213
000240 8c b4 0a be a4 ec 5f 3d ec 2b 37 3d 78 7e 7d 3d
       -0.13545436 0.054669037 0.04471962 0.061888188
000250 41 52 31 bc dc 35 fc 3d 12 7c ea bd da 5e 9f 3d
       -0.0108228335 0.1231496 -0.11449446 0.077817634
000260 45 1a 54 be 22 ec 06 3e 06 18 8b 3d 0e a2 41 3e
       -0.20713146 0.13176015 0.067916915 0.18909475
000270 1f bd 9b bd 0d 7f 5b be f5 83 53 bc 03 bb ad bd
       -0.07604431 -0.21435185 -0.012909879 -0.08482935
000280 5a 8f f5 3d 43 75 c1 3d b9 8f 3f 3e 51 df c5 3c
       0.11990233 0.09446194 0.1870717 0.024154337
000290 0d 81 fa bd 64 3f 0d bd c2 32 18 bd 47 ce 4c be
       -0.12231646 -0.034484282 -0.03715778 -0.20000564
0002a0 33 21 f0 bd ed 68 38 be 54 69 5d be fb 2b 01 3e
       -0.11725082 -0.18008776 -0.2162221 0.12614433
0002b0 ff ef 49 be cd d6 a5 bd d3 f5 77 3d 10 1c 8d 3d
       -0.19720457 -0.080976106 0.06053717 0.06890118
0002c0 f7 ac cb bd 91 c0 55 3d 5e dd 07 3e fb a7 16 3d
       -0.099451 0.0521856 0.13268039 0.036781292
0002d0 f6 9a f0 3d f7 22 9b bc cf 31 b2 3d 08 dc 01 be
       0.117483065 -0.018937571 0.087009065 -0.12681592
0002e0 3c 60 db 38 62 6e d0 bd dd 7d a4 bd 80 c9 a4 3d
       0.00010460659 -0.10177304 -0.08031819 0.080462456
0002f0 91 62 99 bd 68 a4 ed 3d 52 ce 41 3d 54 f6 17 3e
       -0.07489503 0.11603624 0.047315903 0.1484006
000300 a4 4a 02 be db 3d 66 3e 4b 5d 8d 3d 3d 87 1d 3c
       -0.12723786 0.22484533 0.0690256 0.009614763
000310 db 2a d2 3c 09 f5 42 bd b8 c8 7c bd 6e 93 9a bd
       0.0256552 -0.047596965 -0.061714858 -0.07547651
000320 14 7a ac bd 98 c7 03 be ce a4 51 bd dd d2 9a bd
       -0.08421722 -0.12869108 -0.05118256 -0.0755975
000330 14 2d 89 3d 1f 31 6e bd 83 b9 e7 3d b7 a4 a5 3d
       0.06698051 -0.058152314 0.113146804 0.080880575
000340 d7 f6 1a bc 7c ed 48 bd 7a f2 d8 bd 1f d6 71 3e
       -0.009458265 -0.049054608 -0.10593124 0.23616837
000350 fb 3c cb bd c3 32 ab 3b fb b4 51 bd 32 5f 03 3d
       -0.099237405 0.005224557 -0.051197987 0.032073207
000360 b8 95 5f bc 9e 28 10 3e d1 fb ae 3d 34 49 d5 be
       -0.013646536 0.14077994 0.08544124 -0.41657412
000370 b5 6a ff 3d 65 9b 96 3d 92 30 ff bd a5 9d ab bd
       0.124715246 0.07353858 -0.12460436 -0.08379678
000380 18 cd 23 3d e5 07 a1 3d 7d 86 ea 3d 13 d6 b5 bd
       0.039990515 0.07862834 0.11451433 -0.08878722
000390 f8 30 3e 3d a1 af 1f 3c f4 b7 20 bd 02 af 1f 3e
       0.04643342 0.009746463 -0.03923793 0.15594104
0003a0 a7 e5 49 bb 00 47 02 3e 88 44 04 3e 6a 70 84 3d
       -0.003080705 0.12722397 0.12916768 0.06466754
0003b0 37 6a 64 3e 53 51 62 be bc 8b 9c 3d 32 21 6e 3d
       0.22306143 -0.22101335 0.0764384 0.058137126
0003c0 6c ea 7d bc 0e de 94 bd fa 1a df 3d 4e 87 03 3e
       -0.015497785 -0.07268916 0.10893817 0.12844583
0003d0 ca 10 3a bd 7b 9f 19 be d9 b8 53 3d 6c 76 ad be
       -0.045426168 -0.15002243 0.051689956 -0.3387941
0003e0 df f6 f0 bd a3 3d d7 3d df 6d 14 3b 4a 70 99 3d
       -0.11765837 0.10509803 0.0022648496 0.074921206
0003f0 b5 ea 28 3d cb 85 97 bd 4e 50 21 be e4 20 86 be
       0.04123946 -0.07398566 -0.1575329 -0.2619697

actor.4.bias f4 [64]
000000 a6 83 7a 3d 17 03 a7 bd 64 7e 91 3d 6e 36 c0 3c
       0.061160706 -0.08154886 0.07104185 0.023463454
000010 7a 29 01 3d c7 ca 91 3c f1 0d 53 bd 5e 7c 31 3d
       0.031533696 0.017796887 -0.051526967 0.043331496
000020 0b 93 b1 bd 7c bf aa 3d 90 2a a4 bd 2f a7 6c bd
       -0.08670624 0.08337304 -0.08015931 -0.057776626
000030 38 27 4e 3d 09 bb 95 3d 0b 5a 26 3c ce d8 02 be
       0.05033037 0.07311065 0.010153304 -0.12778017
000040 14 06 57 bc c8 45 cf 3d da 0a 2d be 54 84 ca 3d
       -0.013124008 0.101207316 -0.16898671 0.09888521
000050 0b 19 16 be 2d 4e 9f bd 89 9b 5c 3d 7c f7 a6 3d
       -0.1465799 -0.07778583 0.053859267 0.08152673
000060 73 c5 d1 bd 98 ad b2 bd cc b8 23 be 42 90 52 bd
       -0.102427386 -0.08724517 -0.15988463 -0.051407106
000070 24 ef e6 3d f5 6e 33 3d c6 00 fa 3d 5c 4c 47 bd
       0.11276081 0.04380699 0.12207179 -0.048656806
000080 ef ac a6 bd 01 27 2a be fa e9 90 bc 89 13 c0 bd
       -0.08138453 -0.16616441 -0.017689694 -0.09378726
000090 4d f2 92 bd bf bb e2 3c 21 96 99 bd 3d ff ee bd
       -0.071751215 0.027677415 -0.07499338 -0.116697766
0000a0 88 cb a5 bd 4a 5c c5 3d 04 18 c6 3d 3d 4a b9 bc
       -0.08095461 0.09636743 0.09672549 -0.022618407
0000b0 5f b3 0c 3d 73 3c ed 3b d7 5c fb 3d ce ba bc bd
       0.03435075 0.007239872 0.12273567 -0.09215318
0000c0 87 16 0a bd 48 4a c0 3c 5b ba 09 3e 51 20 5a bd
       -0.03371289 0.02347292 0.13449995 -0.053253476
0000d0 66 3e 92 3d 03 54 4c bd 2e 06 08 bd 23 95 03 bd
       0.07140808 -0.049884807 -0.03320902 -0.03212465
0000e0 fa 5b 86 3d 48 42 36 bd fb a7 7c bd 4c 2f 9e 3d
       0.06560512 -0.044496804 -0.061683636 0.07723865
0000f0 9e 30 ab 3d dd 61 c9 bc 00 a1 cf 3d 7c b6 8f bd
       0.08358882 -0.024582798 0.1013813 -0.07017228

actor.6.weight f4 [64, 64]
000000 9b 03 d8 3d db b0 2e be 9b e6 da be 56 57 82 bb
       0.10547563 -0.17059653 -0.42754063 -0.0039776964
000010 8f 5f 9a bd a4 63 a0 3c d5 58 75 3d 13 98 9c 3d
       -0.075377576 0.019578762 0.05989917 0.07646193
000020 0f 06 49 3e 1c 02 5b be d6 f6 7c be 8d af 1d be
       0.19631217 -0.21387523 -0.24703535 -0.15398999
000030 c2 85 ba 3d f8 bd 2a be 86 84 a7 bc 14 3c 38 be
       0.091075435 -0.1667403 -0.020448934 -0.17991668
000040 bb 72 ba bd 79 c2 98 bc f8 e1 10 3d 5f 3f 14 3d
       -0.09103914 -0.01864742 0.03537175 0.036193248
000050 15 41 e1 bd e4 1d 9c bd 11 f5 0a be af 6b b6 bc
       -0.109987415 -0.07622889 -0.13570048 -0.022268144
000060 88 f8 cb be 94 83 e4 3d 90 b7 29 3e d2 f8 3c 3d
       -0.39838052 0.11157909 0.1657393 0.04613573
000070 49 df 50 bc c7 2c 80 bd 9b 88 2b be 78 1d c5 bd
       -0.012748548 -0.062585406 -0.1675133 -0.09624761
000080 ad 28 b5 3d e0 f7 23 be f8 66 23 be e5 91 ad bd
       0.08845649 -0.16012526 -0.15957248 -0.08475093
000090 05 6f 43 3d d7 8d 74 3e 86 10 e7 3d 8d 8e ba be
       0.0477133 0.23882233 0.112824485 -0.36436883
0000a0 a2 6b 1a be 59 6a 71 be 1e c1 8a be 61 b5 33 3e
       -0.15080121 -0.23575725 -0.27100462 0.1754966
0000b0 19 83 05 3e e4 a2 9b 3d 67 b5 85 be 6e 72 f6 3e
       0.13038291 0.07599428 -0.26114962 0.48134178
0000c0 46 e0 c6 3d 51 03 b0 3c 2b 30 86 bd d1 3b 1e be
       0.097107455 0.021485956 -0.06552156 -0.15452506
0000d0 f7 d4 29 be 1b 78 22 bc 01 fa fe bd d9 f4 b0 3d
       -0.16585146 -0.009916331 -0.12450028 0.08640451
0000e0 f6 93 d4 3d 57 e2 eb 3b 5d 8b db bb 38 65 98 3a
       0.10379784 0.0071986127 -0.006699963 0.0011626845
0000f0 24 5c 9e bd 2b dc a4 be d0 1c 3c 3d c9 62 b3 bd
       -0.07732418 -0.32199225 0.045925915 -0.08759076
000100 3e 76 96 bd e2 da dd 3c 0b 14 62 be 89 fe f6 3d
       -0.07346772 0.02708191 -0.22077958 0.120602675
000110 aa a1 26 be 75 76 07 3d 65 74 55 3d 0e 57 2d bc
       -0.16272607 0.033071954 0.052112956 -0.0105798375
000120 22 20 a0 3d 8d 43 20 be cd 61 0b be f7 78 0f 3d
       0.07818629 -0.15650769 -0.13611527 0.03502747
000130 11 09 5f bd eb 94 7e 3c f9 ba 76 bd 44 39 28 be
       -0.054452006 0.0155384345 -0.060236905 -0.16428095
000140 02 e1 d3 3d 7c 65 c3 bd 3d 4e 83 bb 97 b3 34 bd
       0.10345651 -0.09540841 -0.0040071295 -0.044116583
000150 1c 0b a3 bd 07 a0 0c 3e a6 dd ba 3d dd ba 15 3e
       -0.07961103 0.1373292 0.09124307 0.14622064
000160 db e9 b6 be dd 4e 28 be 71 e2 0b 3d ef 2f d1 bd
       -0.35725293 -0.16436334 0.0341515 -0.10214221
000170 94 7a ac 3d 7e ef 9e bd 97 d3 37 bc 09 6b ae be
       0.084218174 -0.07760523 -0.011219881 -0.34066036
000180 45 c6 fc bd 83 d9 6b be 64 be 1d be 93 2c f7 bd
       -0.123425044 -0.23032193 -0.1540466 -0.12069049
000190 1c 0d a1 bc 6d b3 bb 3c f0 34 02 3e 63 f4 3c be
       -0.019659571 0.022912705 0.12715507 -0.18452601
0001a0 a7 1e 5a 3d 15 f3 86 be 9b 86 be bd 90 c3 2d 3e
       0.05325189 -0.26357332 -0.09303018 0.16969132
0001b0 4c f8 0d 3e 48 9f 1b 3e 22 83 ac bc b0 5b 02 3f
       0.13864249 0.1519748 -0.021058623 0.50921154
0001c0 a9 ad b9 bd 25 d0 e1 bc 2b 51 10 3e b1 b1 80 be
       -0.09066326 -0.027565071 0.14093463 -0.25135568
0001d0 9b 0b b4 3b b0 5c 03 bd 1e d0 15 bb f6 96 b4 3d
       0.0054945475 -0.032070816 -0.0022859643 0.08817856
0001e0 e1 b3 1d 3e b0 4b c5 bd a7 26 a1 bd 44 dc 8b bb
       0.1540065 -0.09633577 -0.078687005 -0.004268201
0001f0 07 ff e9 3d bc 10 49 be f4 6e ea bc d3 a1 a8 3d
       0.11425596 -0.1963529 -0.02861736 0.082339905
000200 dd 2c b9 bc 58 5f fd bd d6 6b 86 be 52 d5 7d bd
       -0.0226044 -0.12371701 -0.26254147 -0.061971016
000210 0b ba 0d be 6d 3c d5 3c 89 eb a9 3c ca 47 e1 3d
       -0.13840501 0.02602979 0.020742195 0.11000021
000220 52 b4 20 3e 66 7e 3b bd e8 f0 75 bc eb 29 c7 3d
       0.15693787 -0.04577484 -0.01501105 0.09724792
000230 fb 95 4d bd 45 c5 17 be b4 5a 8b 3d 93 f7 2d bd
       -0.05019186 -0.14821346 0.068044096 -0.042472433
000240 48 f7 80 bd c9 28 6f bd cc f7 5b 3e a2 79 19 3d
       -0.06297165 -0.058388505 0.21481246 0.037469514
000250 48 b2 ec 3c 2e 87 1c 3e d5 40 11 be d4 27 77 bd
       0.028893605 0.15285942 -0.14184888 -0.060340717
000260 52 5a 83 be b4 66 09 be 38 43 0c 3d 68 7e 2d be
       -0.25654846 -0.13418084 0.034243792 -0.16942751
000270 83 96 0e 3e c3 36 98 bd c2 40 41 bd 0b 9e 5c be
       0.13924603 -0.0743232 -0.0471809 -0.21544664
000280 aa f0 33 be 78 a0 2d bd 0b d9 06 be 71 f1 27 3d
       -0.17572275 -0.042389363 -0.13168733 0.04100174
000290 28 f9 43 bd 35 8e ac 3d 6c c6 4b bd b2 08 fe bd
       -0.047845036 0.08425561 -0.049749777 -0.12404002
0002a0 a7 57 8a 3d db 98 86 be 68 1b 2a be a2 7d c6 3c
       0.067549996 -0.26288494 -0.16612017 0.024229828
0002b0 c8 88 f2 3d b9 de 49 3e f3 ea e7 bd 50 26 1c 3f
       0.11842495 0.19713868 -0.1132411 0.6099596
0002c0 2b 57 bd 3d e4 cc 28 bd 4c 92 d4 3c 18 2a 4a be
       0.092451416 -0.041211024 0.025948666 -0.1974262
0002d0 ec c3 22 3e e3 4d d1 3d 5f 35 0a 3d 9a 61 82 3d
       0.15895051 0.10219934 0.033742305 0.06366272
0002e0 6a 5c ed 3d ba 37 4f 3b d0 6a 11 3e 4a 59 0c be
       0.11589892 0.003161891 0.14200902 -0.13705936
0002f0 cc 4f 71 bd ec 7d 61 be 87 10 26 3d fd 4d 84 3d
       -0.05891399 -0.22020692 0.040543105 0.064601876
000300 e6 75 14 be 44 3e 2b be 2e b0 7d 3d db ee b2 3c
       -0.144981 -0.16722971 0.061935596 0.02184241
000310 e1 2b cc bd 7c 4d 91 3d 61 3a 5a be 6c e3 c3 bc
       -0.09969307 0.07094857 -0.21311332 -0.023912154
000320 4f 62 07 3f 6a 0f 28 bc 01 29 43 be db 0a fd bc
       0.5288438 -0.010257581 -0.1905861 -0.030888965
000330 c7 67 bd 3d ef 6d a9 bd b9 b4 38 bd 9f c7 09 be
       0.092483096 -0.08272921 -0.045094226 -0.13455056
000340 05 3c f9 3d e7 c4 e1 bd 56 c9 95 3e 65 8c 8d 3d
       0.12169651 -0.11023884 0.2925517 0.06911544
000350 71 71 1a be bd 30 c7 bd cf 0e dd ba 63 cb 71 bd
       -0.15082337 -0.09726093 -0.0016865375 -0.059031855
000360 f0 f2 bb bd f9 6b b6 be 1c 72 61 be 19 f8 93 bd
       -0.09177196 -0.35629252 -0.22016186 -0.07225055
000370 ad 64 a3 3d bf 58 94 3d d9 f9 7d 3d e2 ed ce be
       0.07978187 0.072434895 0.06200585 -0.40415865
000380 0f 2f 7c be 12 07 53 3d 61 72 9b be c0 b6 ad 3d
       -0.24627326 0.051520415 -0.30360702 0.084821224
000390 80 51 8a be 98 7e b4 3d 38 9e f6 3d d2 e1 3c be
       -0.27015305 0.08813208 0.120418966 -0.18445519
0003a0 47 b1 d9 3c 2e c2 c8 be d8 5d 8b bd bf bc 1d 3d
       0.02657379 -0.39210647 -0.06805009 0.03851008
0003b0 2e 5e 64 3d 90 a3 bd 3e 41 93 fe 3d 8a e6 2e 3f
       0.05575388 0.3703885 0.1243043 0.68320525
0003c0 e0 7c c4 be 72 bf a6 3c 5e eb 0b 3e 14 52 62 3c
       -0.38376522 0.02035496 0.13664004 0.013813514
0003d0 49 b7 41 be da 0b 4d 3d 8a 0c 33 bd e7 f7 05 3e
       -0.18917574 0.05006013 -0.04371313 0.13082848
0003e0 90 33 90 3d 51 68 b0 be 80 c4 50 3d 9e 4b 44 be
       0.07041085 -0.34454587 0.050968647 -0.1916947
0003f0 af f9 07 be 62 d7 41 be 94 e1 66 bd 8c ce 86 bd
       -0.1327884 -0.18929818 -0.05636747 -0.065823644

actor.6.bias f4 [64]
000000 c8 4b 07 be a9 43 a8 3d 90 60 85 3d a5 f2 a2 3d
       -0.13212502 0.0821603 0.065125585 0.07956437
000010 60 81 1f bd 98 19 5c 3d 5f 25 d3 3d 1a bc 84 bc
       -0.03894174 0.053735346 0.10309862 -0.016202975
000020 32 3a 8d 3c f3 38 21 be bc 7c 17 bd d1 ca 04 be
       0.017239664 -0.1574438 -0.03698419 -0.12967993
000030 fa eb 52 3d 6c 85 a6 3c 80 e3 9c 3d cf ee d7 3d
       0.051494576 0.020327292 0.0766058 0.10543596
000040 9d ce 50 bc a4 87 b5 bd ab 4e d7 b9 d3 b3 c9 3d
       -0.012744573 -0.08863762 -0.00041066608 0.09848752
000050 4e 73 83 bc 0d 7d 44 3c 1d 6b c5 bd 03 1d f5 3b
       -0.016046192 0.011992705 -0.09639571 0.007480265
000060 a1 7c 11 bd 61 02 a1 bc fa 61 d9 3d 4d 5a af bd
       -0.035519246 -0.019654455 0.10614391 -0.085621454
000070 dd e2 09 3e d8 d1 bf 3d eb ff 1e bd 45 09 4f 3d
       0.13465448 0.093661964 -0.03881828 0.05054595
000080 cb 56 ae 3d a3 24 eb bc 3b 9e ef 3d 1b 1c e5 bb
       0.08512648 -0.028703993 0.11700102 -0.006991876
000090 0d 34 fa 3d 3b c5 ea bd 30 d0 2c 3d 59 d7 ed 3d
       0.12216959 -0.114634 0.04219073 0.1161334
0000a0 3a 53 ac 3c bd 34 c1 3d bd 2f 3e bc f7 19 be 3d
       0.02103578 0.09433887 -0.011608061 0.09282296
0000b0 25 3d fe bd 22 65 32 bd 5f 6b fe bd ee d0 8a 3c
       -0.12414006 -0.04355348 -0.12422823 0.016945329
0000c0 e5 0e f2 3d 86 4b 69 bb 9e 47 66 bd d3 16 15 bd
       0.11819247 -0.0035597994 -0.056220643 -0.03639872
0000d0 cd d4 9c bd 25 a4 90 bb e4 8a 04 bc 77 be 69 bc
       -0.07657776 -0.004414099 -0.008089755 -0.014266602
0000e0 c2 c1 b9 3c 3b 6d 15 be e4 97 94 bd 09 d6 48 3d
       0.022675399 -0.1459245 -0.07255533 0.049032245
0000f0 d9 db a8 bd 6f 8b e6 bd da 15 b7 3d a1 9d 19 bd
       -0.082450576 -0.112570636 0.08939715 -0.037503842

actor.8.weight f4 [1, 64]
000000 a6 66 f5 be 26 30 24 be e7 c3 3c be 8b 7c d6 be
       -0.47929877 -0.16033992 -0.18434106 -0.41891894
000010 dd 95 e4 bd 6e a2 20 bf 1a 52 0d be fb 9d 7f 3e
       -0.11161397 -0.6274785 -0.1380085 0.24962609
000020 14 65 15 be e2 6e ff be 65 de 03 be 81 b1 99 3e
       -0.1458934 -0.49889284 -0.12877806 0.30018237
000030 af 4d b6 3d f2 92 c1 3d a7 c9 d5 3d b8 05 a1 be
       0.08901536 0.09451856 0.10438853 -0.31449676
000040 7f 63 94 be 72 3c b6 3d b1 1a 08 3e 06 4a 24 be
       -0.2898216 0.08898248 0.13291432 -0.16043863
000050 e1 73 91 be 2d fa 0a bf 1c 26 69 be 67 33 7f 3d
       -0.2840872 -0.5428799 -0.22768444 0.06230488
000060 3c ac 91 3e 57 99 12 3e 88 52 a1 bc da 06 5d 3e
       0.28451717 0.14316307 -0.019692674 0.21584645
000070 b9 63 e8 bd 77 0f c1 3d 48 c3 e6 3d 02 1b 3e 3e
       -0.113471456 0.09426778 0.11267716 0.1856499
000080 83 38 24 3e ea c6 84 bd 73 15 f6 3d 8e ad 33 3e
       0.16037183 -0.06483252 0.1201581 0.17546675
000090 f2 77 dd 3d 1c d1 21 bf 5b 99 e7 3e 89 b6 0e be
       0.108138934 -0.632097 0.45234188 -0.13936819
0000a0 ae 97 f5 3d ba c1 f5 3d 7b de 88 be 94 27 b9 bd
       0.11991821 0.11999841 -0.2673224 -0.09040752
0000b0 96 f7 56 be a5 6f 50 3e cf 68 01 bf f7 8c 31 be
       -0.20992884 0.20355089 -0.5055055 -0.1733893
0000c0 94 52 08 be 68 a1 13 3f d1 3c 1d 3f b9 db a4 bd
       -0.13312751 0.5766816 0.61420923 -0.08049721
0000d0 cf 12 1b bf 01 bd cb bc a8 87 ad be e5 0e 6a be
       -0.60575575 -0.024870398 -0.3389256 -0.22857244
0000e0 b3 4f 60 3d 9a a2 b6 be 57 46 4c be 3b 15 76 be
       0.054763507 -0.3567093 -0.19948708 -0.24031536
0000f0 ca 68 0b 3e 86 e1 f2 3e 4d bc 28 be 59 c5 88 be
       0.13614193 0.47437686 -0.16478081 -0.26713064

critic.0.weight f4 [64, 6]
000000 61 e9 bc 3f d1 88 a1 bd 36 5d 32 3e 83 03 f3 bd
       1.4758722 -0.07887424 0.1741837 -0.11865904
000010 a4 67 07 3e 51 84 a6 3f 68 2b 15 40 3d 13 ef be
       0.1322313 1.300913 2.3307743 -0.46694365
000020 26 be b4 be ed d4 28 be 09 a8 94 3e 2a d6 c4 be
       -0.35301322 -0.16487475 0.2903445 -0.38444644
000030 8e a6 39 bf c2 59 85 bd bd c1 19 3e 78 d4 08 3e
       -0.7251977 -0.065112606 0.15015312 0.133623
000040 02 7d 18 be 86 e0 47 bf 02 55 1d bf a3 74 83 3e
       -0.14891437 -0.7807697 -0.61457837 0.25674924
000050 7d 94 69 bc cb 06 83 3e db ad 7e be 23 c7 01 be
       -0.014256594 0.2559112 -0.24871008 -0.12673621
000060 40 f1 9b 3e 61 5a c9 3e 17 ab 8f be fd 7d 95 3e
       0.30457497 0.39326766 -0.2806022 0.29197684
000070 24 3c 96 be 66 d7 79 bf c5 7c a7 3f 5d d5 e1 be
       -0.2934276 -0.97594297 1.3084952 -0.44108096
000080 4f 59 ac bd ca 1e c5 bd 20 39 aa 3d 06 54 0d c0
       -0.08415472 -0.09625013 0.08311677 -2.2082534
000090 fc 53 ef 3e 73 b0 a1 3e 07 7f d0 be 1e 4e 96 3e
       0.46743762 0.31579933 -0.40721914 0.29356474
0000a0 55 99 90 be b0 b1 c5 3d 48 0d 83 bf 89 42 85 be
       -0.28241983 0.09653032 -1.0238428 -0.26027325
0000b0 9b b2 1c 3e 36 8e a2 be 1d 34 a5 3e 93 4a 60 bf
       0.15302508 -0.31749123 0.32266322 -0.8761379
0000c0 11 e8 b8 3f 86 99 45 be 24 a8 83 be 70 29 ff bd
       1.4445821 -0.19296846 -0.2571422 -0.124590755
0000d0 64 22 42 3e d0 a4 5b 3f db b9 4b 3e e0 73 bf be
       0.18958431 0.8579836 0.19895117 -0.37393093
0000e0 cc 3e 62 3d 1d 24 84 bc 35 67 89 be 29 32 e2 3e
       0.05523567 -0.016130501 -0.26836553 0.44178894
0000f0 a2 a0 ab bf 8a 81 4a 3b 7e f3 cd be f9 37 3f be
       -1.3408396 0.0030899965 -0.40224832 -0.18673696
000100 0e 5a 8d be 05 fd df be 70 c0 2d bf e2 42 fc be
       -0.2760777 -0.43747726 -0.6787176 -0.49269778
000110 84 0a 18 bd bf 7b bf bc dc a9 b6 3d 9d 14 1b c0
       -0.037119403 -0.023374436 0.08919117 -2.4231331
000120 7c 5a 0c c0 fb 8d 0a be c0 7c 95 3e e2 98 af 3e
       -2.1930227 -0.13530724 0.2919674 0.34296328
000130 b1 96 ae be ea 4f b4 3e ac 70 20 3f b6 a6 5a 3e
       -0.34099343 0.3521722 0.62671924 0.21352658
000140 be 6f 07 be 6e 50 ed bd e9 3d 18 bd 93 ae 5f 3f
       -0.1322622 -0.11587606 -0.037168417 0.87375754
000150 87 3b 86 bf 29 e6 92 3d 36 36 ec bd 5e be b1 bc
       -1.0486916 0.07172806 -0.115337774 -0.02169722
000160 91 79 4b 3d 67 d9 8b 3f 1a 56 4c bf 89 f3 f1 be
       0.04967648 1.0925721 -0.7981888 -0.47256115
000170 cb f5 a1 3e f3 6d 55 3e 79 c3 4c be 8c 0f 8e bf
       0.31632838 0.20842724 -0.19996442 -1.1098495
000180 f1 ef ba 3f cb fb 02 bf 93 e6 40 3d 2a 51 91 3e
       1.4604474 -0.51165456 0.047094893 0.28382236
000190 99 4e b4 3b be c0 79 bf a1 e0 f9 3e ab 82 0e 3e
       0.0055025336 -0.97559726 0.4880419 0.13917033
0001a0 32 79 7a be a2 d0 c6 3e 48 32 cf be ec b4 c3 3e
       -0.24460295 0.3883105 -0.4046805 0.3822397
0001b0 8e bd f4 bd 52 0f db 3e 9e 11 8b be 8e 67 b3 3e
       -0.11950217 0.42785126 -0.27161878 0.35039943
0001c0 f2 f0 ae be 24 a9 aa 3f 47 4b db 3e bc 1e bf be
       -0.34168202 1.3332868 0.4283087 -0.37328136
0001d0 05 45 00 3b ed f7 03 3b 3a dd 0f 3e da 8d 78 3f
       0.001957239 0.002013679 0.14049235 0.9709145
0001e0 70 ca f7 3e 5a 41 94 be 18 50 cc be 6a fd 72 3e
       0.48396635 -0.2895611 -0.39904857 0.23729482
0001f0 88 d7 a5 bc b1 40 42 bf e3 50 1a bd 03 27 38 3e
       -0.020244375 -0.7587996 -0.037674796 0.17983632
000200 8d ba 02 be 1e 52 58 be 07 f1 a6 bd d8 66 25 3f
       -0.12766476 -0.21125075 -0.08151441 0.6461005
000210 0c 25 84 3f d9 3e 35 be b7 39 f1 be f9 05 8a 3d
       1.0323806 -0.17699756 -0.47114345 0.067394204
000220 e7 6a 15 3e 45 c2 33 be 75 d4 92 bf 9f dd 93 be
       0.14591561 -0.17554577 -1.1471087 -0.2888002
000230 7b a6 72 3e dd 00 62 3e b9 52 59 be e6 76 7e 3e
       0.2369632 0.22070642 -0.21222962 0.24850044
000240 b7 9b c9 be 58 ca 66 be 74 8b 74 be 9b 41 80 be
       -0.39376613 -0.22538126 -0.23881322 -0.25050053
000250 3a c4 ce 3e 4b 99 37 3f e6 ed 21 3f 39 28 39 be
       0.40384084 0.7171828 0.6325363 -0.1808175
000260 b5 d9 86 be 13 e6 9c 3d 99 f8 78 bd 3c 62 85 3f
       -0.26337972 0.07661071 -0.060783956 1.0420604
000270 12 26 39 40 57 5f 08 be af cd 98 be d0 08 9e bd
       2.8929486 -0.1331762 -0.29844424 -0.077165246
000280 c4 8b 4b 3d d3 91 bc be 61 1f 37 be 9d ba 3a 3e
       0.049693838 -0.36830005 -0.17883064 0.1823525
000290 a1 45 a4 be 98 40 7a 3e de 93 7a be 83 4e 91 be
       -0.32084373 0.24438703 -0.2447047 -0.28380212
0002a0 06 cb 4f be cb da 63 3e e2 3f 7f be f7 9c 38 be
       -0.20292291 0.22251432 -0.24926713 -0.18028627
0002b0 4f ac bb 3e b1 0c 10 3f 19 6f 19 3f d7 3d 94 3e
       0.366549 0.56269366 0.59935147 0.2895343
0002c0 32 6d 8e bc a5 30 60 3d cc 81 57 bd bb 94 49 3f
       -0.017386053 0.05473389 -0.05261402 0.7874257
0002d0 73 a5 2b bf 63 66 85 be 7d 62 da bd b2 91 db 3d
       -0.6704933 -0.26054677 -0.106633164 0.107211486
0002e0 51 cf 90 bd 43 c2 90 3f 7c f1 d1 3e 98 56 77 3e
       -0.070707925 1.1309284 0.4100455 0.24154127
0002f0 b7 37 f0 3d 0a bd 04 3e 35 d7 f7 bd a7 01 cd bf
       0.11729377 0.12962738 -0.12101594 -1.6016129
000300 24 50 43 3e 21 5c b9 3e f3 b5 0a 3e 49 cf 8c 3e
       0.1907354 0.362031 0.1354597 0.27501896
000310 bf 99 9f be d3 97 07 bf a8 1c 2f 3f 97 96 0a bf
       -0.31171986 -0.5296604 0.684031 -0.5413603
000320 fc 37 37 3d f2 89 35 3e 84 89 67 bd ed 42 88 3f
       0.044731125 0.17728403 -0.05652763 1.0645424
000330 db b4 12 c0 a2 da dd bc b8 05 b5 3d d5 84 35 bb
       -2.2922885 -0.027081791 0.088389814 -0.0027697582
000340 0a 5e ee bd ab 4b a0 3d 7c b9 1a be 16 0e 8d bc
       -0.1163903 0.078269325 -0.15109819 -0.01721863
000350 4b f4 e8 be 46 4f c1 3d ee a7 4c be fc c2 a0 be
       -0.4549888 0.09438948 -0.19985935 -0.3139876
000360 76 56 a2 3e 17 84 b4 bd f0 9c 99 3e 19 e9 9a be
       0.3170659 -0.08814257 0.30002546 -0.30255964
000370 37 73 6a 3c 2c 38 4b 3f 80 4d 4a 3f 23 0d c1 be
       0.014309696 0.79382586 0.79024506 -0.37705335
000380 20 b6 a5 3d fa fd 5c 3d 25 9e 33 3e 16 cd 84 3c
       0.08091378 0.05395315 0.17540796 0.016211074
000390 a4 26 d0 3e 82 33 84 be 40 b7 58 be 46 92 91 3e
       0.4065448 -0.25820547 -0.21163654 0.2843191
0003a0 48 05 7e be d3 05 27 bf d7 8c ae be 7b 0d f6 be
       -0.24806702 -0.6524326 -0.34091827 -0.4805716
0003b0 ac a9 f2 3c f7 c1 2e 3e 9d f9 e7 3c 1b 9e 89 3d
       0.029621921 0.17066179 0.028317267 0.06719609
0003c0 83 dd 09 c0 d5 ca 86 be 28 be 01 3e 40 89 df bd
       -2.154145 -0.26326624 0.12670195 -0.1091485
0003d0 0f 47 14 be 94 d9 c4 3f 99 bd bf bf a2 6b 66 3d
       -0.14480232 1.53789 -1.4979736 0.05625499
0003e0 5d 71 31 3e d6 a5 41 3e cf 8a 4c be 87 dd 0c 3f
       0.17328401 0.18910918 -0.19974826 0.55025524
0003f0 14 9c 1c 3e c8 39 2f 3d 66 3a e2 3e 81 1d 41 bd
       0.15293914 0.042779714 0.4418518 -0.047147278

critic.0.bias f4 [64]
000000 74 37 46 3d d2 9f 65 be a4 c9 4d 3c 13 79 03 be
       0.048392728 -0.22424248 0.012560282 -0.12839155
000010 d7 27 2e 3d 69 8d 6a 3e 4b 7f ba 3e 56 71 9b 3e
       0.042518463 0.22905506 0.36425242 0.30359906
000020 9b 77 07 bf 54 19 46 3d 46 e1 82 3e 43 ac b4 bd
       -0.5291688 0.048364 0.25562495 -0.08821919
000030 40 2f b0 be 8e fc ce 3d ca 66 04 3f ac 58 b4 3e
       -0.3441105 0.10106765 0.51719344 0.352239
000040 ff 58 64 3e 6c 77 d0 3e 35 b4 18 be 1c 7e d8 be
       0.22299574 0.40716112 -0.14912494 -0.42283714
000050 63 e6 57 bb 90 e4 e2 be 5b e6 30 bf fa da 16 ba
       -0.0032943718 -0.44315004 -0.69101495 -0.0005754676
000060 83 45 7f be 63 0b be bc 16 aa ff bd ba a9 60 3e
       -0.2492886 -0.023198789 -0.12483613 0.21939746
000070 98 0c 5a 3e 4b ab 60 3e b0 c0 03 3d e1 25 dc be
       0.21293867 0.21940343 0.032166183 -0.4299765
000080 ac 55 67 be 1f 31 93 be f5 ba ef be df 20 af be
       -0.22591275 -0.28748414 -0.46822324 -0.34204766
000090 ff ac 08 3e 0f f4 f7 be 91 40 fe 3c 38 c8 0d 3e
       0.13347243 -0.4842839 0.031036647 0.13845909
0000a0 c5 05 b8 be da af 54 be 2a 80 b7 bc a9 25 a6 be
       -0.35941902 -0.20770207 -0.02239998 -0.32450607
0000b0 06 26 bd bd 8a 89 36 3e df 5a c2 bd 0b 0d 15 3d
       -0.09235768 0.17825904 -0.094899885 0.036389392
0000c0 ec 18 af be e3 0f ee bc 38 0c b2 be e0 a0 7c 3e
       -0.341987 -0.02906031 -0.34774947 0.24670744
0000d0 a1 8e 4d 3e dc 59 6b bd eb 06 04 be b7 e6 97 be
       0.2007394 -0.057458743 -0.12893264 -0.2966821
0000e0 65 7d a9 3e 58 7a 4a be 76 03 63 be 98 d5 f1 be
       0.3310348 -0.19773233 -0.22169289 -0.47233272
0000f0 ee ab 43 be e1 c6 b5 3e d0 a1 a5 3d ec b1 fd 3c
       -0.19108555 0.35503295 0.08087504 0.030968629
