PPO/PPO2_Trained/PPO_DoubleInvPendulum_700K.pth (torch, 109673 bytes, 18 tensors)

actor.0.weight f4 [64, 6]
-0.18096846 -0.38518766 -0.20893046 0.1270784 0.123957224 0.05376144 0.36431322 -0.4062477
-0.052471936 0.21656658 -0.15191935 0.18319336 0.8089709 -0.075203866 -0.13502614 -0.3487368
-0.21860807 0.3851963 0.68413615 -0.22110663 -0.010895137 -0.37628034 -0.35685602 -0.06679666
-0.5726501 -0.1605752 -0.1032131 0.31096262 0.04010012 -0.14765291 -0.24739496 -0.37713286
-0.050917443 0.15260294 0.13355656 -0.5250789 -0.16162297 -0.08170878 0.052995943 0.20483963
0.33484134 -0.4138397 0.7099799 -0.43886685 -0.25603542 -0.36443132 -0.05458754 -0.036258284
0.6822897 -0.22161555 -0.12719978 -0.23135936 0.029752977 0.2454978 0.3508394 -0.11169163
0.44406644 0.32526058 0.2728532 0.15051053 0.5452995 0.021223271 0.1749912 -0.116620846
-0.31796345 0.21458155 -0.42066833 -0.3581061 0.22038502 0.30370492 -0.07776053 -0.14148793
0.64536625 0.372256 -0.07744913 -0.08415929 0.06527211 -0.23381232 -0.26301727 -0.2375971
-0.027977394 -0.191399 0.32834384 -0.40430978 -0.4483987 0.24624643 0.17465112 0.3711569
-0.32643476 0.5087197 0.14597091 0.36563462 -0.20562966 0.22613166 0.33983088 0.07393233
-0.5219303 -0.240242 -0.33291823 -0.18403512 -0.29854277 -0.1505533 1.2872099 -0.22427753
-0.42268363 -0.04851848 0.31618965 -0.23464051 0.07959881 0.1721632 -0.21867338 -0.37533554
0.37335816 -0.3459023 -0.06849685 0.28791887 0.0681443 -0.19677424 0.15972824 -0.23499846
0.5986548 0.1302154 -0.2886685 0.37781763 -0.11434384 -0.0004593685 -1.0044382 -0.3895567
-0.22211404 -0.16527861 -0.04809618 -0.32776204 0.13010545 0.08494303 0.31495938 -0.09414751
0.29452673 0.17164354 -0.21428059 -0.19412038 -0.45670405 -0.033768702 0.075078964 -0.21405563
0.09624365 -0.3809833 -0.32347435 -0.35042736 -0.4141267 -0.34934586 0.99156225 0.003061713
0.37212515 0.114794984 0.12631439 -0.50754935 -1.2852275 -0.054816846 0.3184996 -0.00076515874
-0.1822794 -0.551184 -0.6869909 0.24127083 -0.41633916 0.20101179 -0.028696287 0.24387127
-0.01316779 -0.28426018 -0.26397225 -0.13386597 0.15269479 -0.1503024 -0.018165044 0.2291932
-0.10989737 -0.30645558 0.31216136 -1.6243299 0.2594911 0.08241923 -0.23053247 0.09721088
0.32612303 -0.38765776 -0.20660685 -0.40235066 0.18553075 0.0017491573 0.21322776 -0.37165087
-0.42071733 -0.0024052786 -0.2967561 0.14998966 -0.24879396 0.5525574 -0.6233034 -0.18051249
0.11716602 0.08736372 0.024631089 -0.3827284 0.87413335 -0.41040462 0.3494847 0.025350194
0.15022212 0.5307643 -0.35934967 0.39760712 -0.38313645 -0.24557872 0.26304126 -1.564404
0.16996859 -0.12920061 0.16688639 0.13477731 -0.41383094 -0.24138542 0.38287732 -0.08793958
-0.13817766 0.3477741 -0.38855115 0.8988694 -0.030073583 0.18014115 0.39354134 0.22109853
0.2864312 0.2715222 -0.7746255 -0.35706335 0.12643121 -0.2800833 -0.06976584 -0.89574003
-0.10565455 0.38921022 -0.15675268 -0.3889354 0.3739476 0.23981072 -0.36785033 0.0076903948
-0.14587173 -0.18057413 0.19208759 -0.19855778 -0.45925337 -0.24085858 -0.28344995 -0.09217376
00000000: cc4f 39be 5137 c5be def1 55be d720 023e
00000010: 49dd fd3d f534 5c3d 4387 ba3e b3ff cfbe
00000020: d0ec 56bd a1c3 5d3e bf90 1bbe 0a97 3b3e
00000030: b818 4f3f 7c04 9abd 4b44 0abe a18d b2be
00000040: cbda 5fbe 7338 c53e 8c23 2f3f c769 62be
00000050: 8481 32bc d1a7 c0be d5b5 b6be b0cc 88bd
00000060: 3299 12bf d36d 24be 6461 d3bd 7e36 9f3e
00000070: 0640 243d 5332 17be 1b55 7dbe 8f17 c1be
00000080: cf8e 50bd f243 1c3e 0dc3 083e 926b 06bf
00000090: 7e80 25be ef56 a7bd 4612 593d 7bc1 513e
000000a0: 5370 ab3e cce2 d3be 3ec1 353f 28b3 e0be
000000b0: 1317 83be be96 babe 2f97 5fbd 9183 14bd
000000c0: 8aaa 2e3f 30ef 62be a940 02be 78e9 6cbe
000000d0: 84bc f33c c663 7b3e 39a1 b33e 95be e4bd
000000e0: ad5c e33e 8e88 a63e 6ab3 8b3e 6f1f 1a3e
000000f0: bf98 0b3f 6ddc ad3c e530 333e e9d6 eebd
00000100: 1bcc a2be 44bb 5b3e d761 d7be af59 b7be
00000110: 9cac 613e 367f 9b3e ea40 9fbd 36e2 10be
00000120: b936 253f 5798 be3e a69d 9ebd b55b acbd
00000130: 62ad 853d 7f6c 6fbe 33aa 86be a74c 73be
00000140: d930 e5bc 19fe 43be af1c a83e b101 cfbe
00000150: 8494 e5be 0628 7c3e bed7 323e 4708 be3e
00000160: 7522 a7be 743b 023f 6679 153e 7634 bb3e
00000170: 9590 52be 0f8f 673e 50fe ad3e d569 973d
00000180: 399d 05bf 0002 76be 4274 aabe b473 3cbe
00000190: 99da 98be a52a 1abe 4bc3 a43f 02a9 65be
000001a0: fd69 d8be 50bb 46bd 9ce3 a13e 9a45 70be
000001b0: b304 a33d 8d4b 303e eaeb 5fbe fb2b c0be
000001c0: cd28 bf3e 1b1a b1be 1448 8cbd 1a6a 933e
000001d0: 3d8f 8b3d 307f 49be cd8f 233e 70a3 70be
000001e0: 7141 193f 3057 053e 5ccc 93be 5071 c13e
000001f0: 1a2d eabd 65d7 f0b9 6e91 80bf fa73 c7be
00000200: dd71 63be cc3e 29be 8000 45bd 6dd0 a7be
00000210: 5d3a 053e 9cf6 ad3d 5b42 a13e 69d0 c0bd
00000220: 35cc 963e 53c3 2f3e 5f6c 5bbe 7ec7 46be
00000230: 1dd5 e9be 0d51 0abd 00c3 993d 6631 5bbe
00000240: 641b c53d 3e10 c3be 6e9e a5be 376b b3be
00000250: 6a08 d4be 76dd b2be 06d7 7d3f 05a7 483b
00000260: 3087 be3e a219 eb3d 8f58 013e c1ee 01bf
00000270: 5682 a4bf a187 60bd 6112 a33e ef94 48ba
00000280: 73a7 3abe 651a 0dbf a3de 2fbf b30f 773e
00000290: 682a d5be 09d6 4d3e 7a14 ebbc 64b9 793e
000002a0: b7bd 57bc 8d8a 91be 5f27 87be 2914 09be
000002b0: 065c 1c3e dfe8 19be dcce 94bc 9fb1 6a3e
000002c0: df11 e1bd bfe7 9cbe 9dd3 9f3e 0bea cfbf
000002d0: 04dc 843e 6acb a83d b410 6cbe 7f16 c73d
000002e0: 99f9 a63e 147b c6be bf90 53be e800 cebe
000002f0: c6fb 3d3e fb43 e53a 6158 5a3e 0649 bebe
00000300: 4368 d7be e1a1 1dbb 6af0 97be e496 193e
00000310: d8c3 7ebe 6774 0d3f d090 1fbf 44d8 38be
00000320: bdf4 ef3d c0eb b23d 23c7 c93c faf4 c3be
00000330: 34c7 5f3f 8e20 d2be a9ef b23e 36ab cf3c
00000340: d4d3 193e 2be0 073f aefc b7be 2993 cb3e
00000350: 762a c4be fd78 7bbe 58ad 863e 643e c8bf
00000360: 3f0c 2e3e 2a4d 04be 44e4 2a3e 1003 0a3e
00000370: a6e1 d3be bd2d 77be 7f08 c43e ab19 b4bd
00000380: 727e 0dbe 720f b23e 2df0 c6be 4e1c 663f
00000390: e05c f6bc ec76 383e 407e c93e a767 623e
000003a0: 1ca7 923e f504 8b3e db4d 46bf 02d1 b6be
000003b0: 2f77 013e 1467 8fbe 65e1 8ebd 384f 65bf
000003c0: 6a61 d8bd 9046 c73e c683 20be 8a22 c7be
000003d0: 0f76 bf3e f190 753e e156 bcbe b5ff fb3b
000003e0: 665f 15be 6de8 38be 9cb2 443e bb52 4bbe
000003f0: 4223 ebbe a2a3 76be 5a20 91be 99c5 bcbd

actor.0.bias f4 [64]
0.23842621 -0.017687993 -0.27240455 0.16346501 -0.22219497 -0.14805059 -0.0412493 0.14226565
-0.31195575 0.3217034 -0.2058049 0.19422288 0.36332294 0.31164914 -0.33048582 -0.28936163
-0.21824282 -0.29234454 0.29871264 0.24278244 0.3917277 0.12040109 0.2187737 0.12858644
0.11546208 -0.2742009 -0.02917225 0.20917858 -0.086476505 -0.13880393 0.39120227 -0.028233891
0.25614992 0.020588998 0.20736378 0.103618234 0.064244345 0.24319842 0.020110443 0.1376452
-0.21067785 0.40989825 0.25733352 -0.34629384 0.0014759274 -0.041144777 0.20088868 -0.0035174033
-0.13744259 -0.06694553 -0.39526156 0.20410776 -0.2869014 0.069284886 0.14867204 0.06985831
0.40333572 0.17949812 -0.36262316 0.2595922 -0.11131148 -0.16766845 -0.18271446 0.31445777
00000000: 0026 743e 69e6 90bc 9c78 8bbe 5f63 273e
00000010: 1487 63be 939a 17be 07f5 28bd 16ae 113e
00000020: aab8 9fbe 4fb6 a43e 85be 52be 5de2 463e
00000030: 7705 ba3e 7a90 9f3e 7035 a9be 3527 94be
00000040: 0c7b 5fbe 2fae 95be ddf0 983e f69b 783e
00000050: 8890 c83e d994 f63d 3606 603e 2aac 033e
00000060: 6277 ec3d 0f64 8cbe a4fa eebc e932 563e
00000070: 981a b1bd 9e22 0ebe aa4b c83e c34a e7bc
00000080: 1526 833e 42aa a83c 2c57 543e cc35 d43d
00000090: 8a92 833d 0209 793e a8be a43c ddf2 0c3e
000000a0: efbb 57be 2fde d13e 38c1 833e 6d4d b1be
000000b0: e873 c13a 6d87 28bd c3b5 4d3e 3c84 66bb
000000c0: c0bd 0cbe bd1a 89bd b95f cabe a001 513e
000000d0: bee4 92be 3ce5 8d3d 7c3d 183e e011 8f3d
000000e0: 0582 ce3e 5bce 373e bea9 b9be 45e9 843e
000000f0: 46f7 e3bd 47b1 2bbe 8019 3bbe 9c00 a13e

actor.2.weight f4 [64, 64]
0.13295388 -0.12036338 0.14164002 -0.025187535 -0.010184503 0.11498219 -0.08458942 -0.076099746
-0.13090476 0.057040893 -0.01377874 0.064709485 -6.391407e-05 -0.031982657 -0.002042395 -0.0020303063
-0.31080633 0.06744306 -0.080283016 -0.03811674 0.05175536 -0.090419486 0.034868825 -0.08245919
-0.1336266 0.01789693 0.033366796 0.0053609107 -0.042087786 -0.06478004 -0.059041917 0.018284531
-0.11325167 0.076218404 0.11595909 -0.05143044 -0.093545154 0.1339634 -0.06121445 -0.13728486
-0.10275706 0.14528273 0.20481935 -0.022111982 0.09765598 -0.0023979137 0.075170636 -0.12866385
-0.16986123 0.09589816 -0.15423138 -0.16835526 -0.04837597 -0.050088946 0.003709452 -0.10321142
0.07626434 0.017071228 -0.10253186 0.13322979 -0.09248051 0.10614564 0.11582724 -0.00020310041
-0.098554425 -0.13851553 0.031163976 -0.017713796 -0.3207972 -0.053563625 -0.008520365 -0.0034376748
0.15185201 0.15893225 -0.1779351 0.030593285 -0.062491424 -0.23535466 -0.0040795035 -0.021954825
0.12130973 0.015161451 -0.061198562 -0.10786797 0.10943184 -0.08333395 -0.10373605 -0.11577326
0.052502975 -0.121442065 0.056353584 0.18744214 -0.112048306 0.10361919 -0.018717926 -0.1619077
0.05117234 0.15387325 -0.07687427 0.03496664 -0.23647326 -0.017258914 -0.033318736 0.12360858
0.04014626 -0.04268789 0.13085671 0.03572484 0.0037185585 0.06299361 -0.21412483 0.030809889
0.05824142 0.22579162 -0.07420219 -0.10446909 -0.11041529 -0.08672414 -0.19497333 0.00014163346
0.088214256 -0.13550232 -0.24207345 0.022435604 -0.19412132 -0.22412689 -0.2898003 0.097769514
-0.20811029 0.03439573 -0.23021743 0.07383817 -0.044961732 -0.15929756 0.012927274 -0.2674011
-0.07609361 0.095182896 0.1928461 -0.08090837 0.018941833 -0.052067734 0.066463955 0.037037823
-0.15182659 -0.06556385 -0.04568114 0.038684856 0.082099326 -0.03479786 -0.017653098 -0.049296964
-0.154199 0.11751676 0.06526352 0.03873219 -0.11701155 0.3602773 -0.11655357 0.07432808
0.1435729 0.05430858 -0.03508694 0.13654348 -0.028930822 0.23021089 0.103489295 -0.13534574
0.16781531 0.042362183 -0.10473926 0.045539115 -0.044107683 -0.08416549 -0.07588981 0.24207896
-0.07388597 -0.043182507 0.16365913 -0.046897717 -0.006084579 -0.20706801 -0.0485875 -0.03822885
-0.056642406 0.0921712 -0.09929117 -0.011471252 0.04701658 0.07053263 -0.1866995 0.02918152
-0.0015874251 0.032208968 -0.05754114 -0.06478005 -0.0723633 0.02645661 -0.069944136 -0.07999655
-0.23309232 -0.20305216 0.011128115 0.04089446 0.067119285 0.066580765 0.077326074 -0.14858806
-0.04229776 0.05216151 -0.04685559 0.03800876 -0.1470248 0.12713745 -0.0741602 0.17239472
-0.007320079 -0.10115579 0.10859576 0.06258691 -0.02546811 -0.15239736 0.050977968 -0.090940766
0.037484873 0.06918613 0.031897727 -0.0892618 0.109890945 -0.0030848875 -0.02273159 0.11364291
-0.18389133 0.11176165 -0.059294336 0.12587424 -0.021700926 -0.08875087 0.008929689 0.022305863
0.07162895 -0.110041745 0.13574547 -0.10882975 -0.095875025 0.049670108 0.0034960497 0.01700753
-0.057072625 -0.09858692 -0.0013409337 0.065911 -0.10446116 0.08271528 0.077325374 -0.014205302
00000000: 1025 083e 1381 f6bd 150a 113e 1756 cebc
00000010: e7dc 26bc c87b eb3d 383d adbd 2fda 9bbd
00000020: e60b 06be b6a3 693d 39c0 61bc 6886 843d
00000030: 9b09 86b8 3f00 03bd b4d9 05bb e30e 05bb
00000040: 0222 9fbe 961f 8a3d 6c6b a4bd 4c20 1cbd
00000050: 6efd 533d da2d b9bd 9dd2 0e3d 5de0 a8bd
00000060: 69d5 08be 959c 923c 9fab 083d 94aa af3b
00000070: 3e64 2cbd 66ab 84bd f0d5 71bd 71c9 953c
00000080: 7ef0 e7bd 6518 9c3d f67b ed3d baa8 52bd
00000090: 9a94 bfbd b42d 093e 01bc 7abd 6794 0cbe
000000a0: 4b72 d2bd ffc4 143e 2abc 513e 3024 b5bc
000000b0: dcff c73d 5126 1dbb 10f3 993d 75c0 03be
000000c0: 1af0 2dbe 4166 c43d d5ee 1dbe 5265 2cbe
000000d0: e225 46bd 112a 4dbd 471a 733b 8260 d3bd
000000e0: 7a30 9c3d f6d8 8b3c 39fc d1bd 646d 083e
000000f0: 6c66 bdbd e362 d93d d536 ed3d 5af7 54b9
00000100: e7d6 c9bd 04d7 0dbe 984b ff3c 861c 91bc
00000110: 883f a4be 8865 5bbd 0099 0bbc 9d4a 61bb
00000120: 187f 1b3e 23bf 223e 9e34 36be c59e fa3c
00000130: 02f7 7fbd d000 71be 5bad 85bb 9bda b3bc
00000140: 3c71 f83d bc67 783c 58ab 7abd e2e9 dcbd
00000150: cd1d e03d fdaa aabd 9173 d4bd 881a edbd
00000160: 5c0d 573d 9eb6 f8bd 04d3 663d d5f0 3f3e
00000170: 9579 e5bd 4c36 d43d 5656 99bc 22cb 25be
00000180: 169a 513d f390 1d3e 4270 9dbd 2e39 0f3d
00000190: 0c26 72be 9162 8dbc 3a79 08bd 7f26 fd3d
000001a0: 6870 243d 7fd9 2ebd 4dff 053e 3654 123d
000001b0: 0fb3 733b cb02 813d 8a43 5bbe 0565 fc3c
000001c0: 8e8e 6e3d eb35 673e 51f7 97bd e4f3 d5bd
000001d0: 6921 e2bd 6d9c b1bd 17a7 47be 7183 1439
000001e0: ada9 b43d 1fc1 0abe 1ae2 77be dfca b73c
000001f0: bdc7 46be 8581 65be b460 94be 623b c83d
00000200: dd1a 55be 89e2 0c3d 1ebe 6bbe 7738 973d
00000210: cb29 38bd e61e 23be ebcc 533c cce8 88be
00000220: f7d6 9bbd 40ef c23d 7379 453e 4ab3 a5bd
00000230: e72b 9b3c fa44 55bd 411e 883d f9b4 173d
00000240: 6e78 1bbe 5746 86bd 261c 3bbd 0374 1e3d
00000250: b123 a83d 3388 0ebd 3b9d 90bc 9deb 49bd
00000260: 58e6 1dbe a1ac f03d e1a8 853d a5a5 1e3d
00000270: c0a3 efbd 4476 b83e a3b3 eebd 5239 983d
00000280: c604 133e ac72 5e3d 53b7 0fbd 0ed2 0b3e
00000290: 5500 edbc 67bc 6b3e 32f2 d33d 1398 0abe
000002a0: c7d7 2b3e f883 2d3d 8a81 d6bd 3987 3a3d
000002b0: 42aa 34bd f55e acbd 1e6c 9bbd 8ce3 773e
000002c0: 8751 97bd 24e0 30bd 4296 273e d217 40bd
000002d0: 2661 c7bb a309 54be b003 47bd db95 1cbd
000002e0: de01 68bd 41c4 bc3d 2b59 cbbd ebf1 3bbc
000002f0: 7594 403d 6973 903d 272e 3fbe 150e ef3c
00000300: 2611 d0ba 8ded 033d 42b0 6bbd 67ab 84bd
00000310: 3633 94bd 88bb d83c df3e 8fbd 3bd5 a3bd
00000320: c1af 6ebe e8ec 4fbe b252 363c f380 273d
00000330: d675 893d 7f5b 883d 225d 9e3d 7827 18be
00000340: 6a40 2dbd 4fa7 553d a6eb 3fbd 13af 1b3d
00000350: ab8d 16be 5230 023e 4ee1 97bd 3e88 303e
00000360: 46dd efbb c42a cfbd 7467 de3d 912d 803d
00000370: 7fa2 d0bc 0e0e 1cbe 46ce 503d 273f babd
00000380: bd89 193d 75b1 8d3d 31a7 023d e4ce b6bd
00000390: 810e e13d d32b 4abb 9937 babc 9dbd e83d
000003a0: 024e 3cbe 4be3 e43d 9ede 72bd 2de5 003e
000003b0: 24c6 b1bc 04c3 b5bd d54d 123c c9ba b63c
000003c0: 33b2 923d 915d e1bd dc00 0b3e 22e2 debd
000003d0: 205a c4bd e272 4b3d fb1d 653b 6053 8b3c
000003e0: fcc4 69bd f0e7 c9bd 45c2 afba 59fc 863d
000003f0: bcef d5bd a166 a93d c45c 9e3d 5bbd 68bc

actor.2.bias f4 [64]
0.13487177 0.0896442 -0.01945762 0.036421128 0.059513528 0.075527295 -0.044629037 0.0157977
0.09244143 0.0106523745 -0.10223136 -0.033573233 0.10094451 0.073975846 -0.0084618125 -0.11053452
0.067630276 0.09302379 0.08023421 -0.14032148 0.010372145 -0.06561197 0.12666902 0.12063822
-0.026155256 0.0978428 -0.057021722 -0.09684568 0.114702314 0.027058214 0.011439103 0.08017524
-0.07414606 -0.08350504 -0.057961565 -0.07515491 0.03313972 -0.06524497 -0.050665997 -0.109033905
0.066322386 0.031903435 -0.042561736 0.027902847 -0.035325065 -0.13317803 0.016559152 0.02760824
0.10145112 -0.03952677 0.07231112 -0.038984835 -0.07740793 0.091987446 -0.03043595 0.03572802
0.0867031 0.0759481 -0.06995054 -0.1241214 -0.08587017 -0.059783075 -0.016233731 -0.1289365
00000000: d31b 0a3e 6197 b73d 9665 9fbc 522e 153d
00000010: 75c4 733d 0eae 9a3d f0cc 36bd 2e6a 813c
00000020: ef51 bd3d 4c87 2e3c ad5e d1bd 1684 09bd
00000030: ffbb ce3d a680 973d 6aa3 0abc ec5f e2bd
00000040: be81 8a3d 4283 be3d d551 a43d 6fb0 0fbe
00000050: eeef 293c 925f 86bd 86b5 013e 2c11 f73d
00000060: 8c43 d6bc ce61 c83d 9c8f 69bd 0757 c6bd
00000070: 0ce9 ea3d 30a9 dd3c 136b 3b3c eb32 a43d
00000080: e4d9 97bd b104 abbd 1b69 6dbd d1ea 99bd
00000090: 84bd 073d 289f 85bd 2687 4fbd 2b4d dfbd
000000a0: 08d4 873d 2dad 023d 3755 2ebd 8394 e43c
000000b0: 04b1 10bd d25f 08be 0fa7 873c ad2a e23c
000000c0: 9bc5 cf3d d3e6 21bd da17 943d 90ae 1fbd
000000d0: 0c88 9ebd ea63 bc3d d054 f9bc 8b57 123d
000000e0: 6591 b13d ad8a 9b3d 3b42 8fbd 5c33 febd
000000f0: b3dc afbd 19df 74bd 9afc 84bc ee07 04be

actor.4.weight f4 [64, 64]
0.0156178335 -0.2655296 -0.15440328 0.048751444 0.04336619 0.007069864 0.11110091 0.13028087
0.043964762 0.06412625 0.10048743 0.11116118 0.040015493 0.1444944 0.013318353 -0.07724407
0.05859833 0.08364258 0.11167376 -0.062125888 0.03265007 -0.089571595 -0.007285315 -0.05721773
0.07766964 0.0041957805 0.02711905 0.33165902 -0.018441163 0.1343163 0.035086486 0.08733209
-0.083688065 -0.04248102 -0.08754872 -0.011974559 0.10456413 0.05944034 0.012087425 -0.16528024
0.118451126 -0.10039949 -0.096385166 -0.012962193 -0.061637983 0.18988228 0.05699698 -0.021924077
0.081201605 0.094490506 -0.06498114 0.1293327 0.051569775 0.11840952 0.031703644 0.09175432
0.051218573 0.09192144 -0.06365811 0.11357913 0.0013721454 0.2333319 0.023212167 0.096150935
0.060382765 -0.22376944 0.0315009 0.013532988 -0.11330545 0.05479538 0.18619499 -0.035417486
-0.055801157 0.13911597 -0.05570625 0.022702107 -0.10995291 -0.033966213 -0.017899163 -0.059747875
0.051684555 -0.10676117 0.06299945 -0.012106205 0.07144635 -0.041425694 0.06479901 0.09946963
0.024523914 -0.020642772 -0.16833474 0.2655737 0.008123331 0.09264974 0.31268746 -0.07559675
-0.023770705 -0.20701097 -0.010054946 0.15131252 0.057930354 -0.21216482 0.053099014 0.015450295
0.049654327 -0.022884047 -0.0050827 -0.027775554 -0.11909503 0.030760191 -0.16601677 0.11719997
0.092704505 0.059560444 0.011680262 0.046622187 -0.059904277 0.1444512 0.096596174 0.38706177
0.14336826 -0.053020924 0.011242591 0.05428534 -0.1443181 0.2877327 0.057155993 0.17133184
0.2022623 -0.1396164 -0.12677456 0.03615888 -0.7727842 0.12004338 0.0063914442 0.098444216
-0.07205978 -0.077632934 -0.27789384 -0.008205324 -0.013540874 -0.035090383 -0.056493662 0.123735495
-0.14818634 0.058669955 0.03729662 0.057369746 -0.0059558735 0.12286255 -0.11242665 0.08005771
-0.18665116 0.13492577 0.070178576 0.18453962 -0.0787653 -0.21583444 -0.0053251167 -0.08762958
0.14775166 0.10527941 0.19704145 0.037585728 -0.11945079 -0.025543945 -0.027304046 -0.1889757
-0.056950882 -0.18339384 -0.19568023 0.12483226 -0.20224935 -0.08651027 0.073448405 0.07091159
-0.10673416 0.047385782 0.13686508 0.032572236 0.113594905 -0.012177111 0.10151518 -0.13007273
-0.012409135 -0.09659765 -0.075688146 0.085941434 -0.07907267 0.10868505 0.060717054 0.14188564
-0.1278803 0.23973994 0.0715462 0.009975906 0.025405169 -0.0472844 -0.060040582 -0.077534
-0.08014813 -0.12792125 -0.050508805 -0.08738527 0.06153976 -0.06485835 0.11368493 0.081061736
-0.006319234 -0.049032707 -0.10595486 0.23544258 -0.10098372 0.006216758 -0.04900412 0.03609015
-0.0017406787 0.14335115 0.08423821 -0.41730234 0.12645687 0.073102616 -0.12249876 -0.08675194
0.044254795 0.077968694 0.11050074 -0.08768386 0.04672718 0.008057588 -0.039315995 0.1700097
-0.0056329314 0.12883347 0.13561699 0.066281 0.24296759 -0.2212488 0.07670559 0.059617504
-0.015408067 -0.07605838 0.109901726 0.13651405 -0.051664688 -0.14685245 0.051096577 -0.34846386
-0.11496827 0.10612234 0.003200786 0.08856666 0.039836656 -0.070774235 -0.17257938 -0.26622435
00000000: f1e1 7f3c 7ff3 87be e51b 1ebe 98af 473d
00000010: bfa0 313d 51aa e73b e088 e33d 5968 053e
00000020: 6514 343d a054 833d 5bcc cd3d 79a8 e33d
00000030: 49e7 233d 57f6 133e 3935 5a3c 2432 9ebd
00000040: cd04 703d cd4c ab3d 36b5 e43d b777 7ebd
00000050: 14bc 053d 5071 b7bd a7b9 eebb 235d 6abd
00000060: 4311 9f3d c27c 893b c528 de3c 36cf a93e
00000070: ec11 97bc 368a 093e d9b6 0f3d 2bdb b23d
00000080: a664 abbd 9400 2ebd be4c b3bd f130 44bc
00000090: b825 d63d b777 733d 560a 463c 393f 29be
000000a0: 8196 f23d 3f9e cdbd 9665 c5bd 615f 54bc
000000b0: 1c78 7cbd 8070 423e aa75 693d 1f9a b3bc
000000c0: 074d a63d 3d84 c13d d514 85bd cb6f 043e
000000d0: d43a 533d b180 f23d aedb 013d b0e9 bb3d
000000e0: 91ca 513d 4f41 bc3d 2f5f 82bd 2d9c e83d
000000f0: 8fd9 b33a 8fee 6e3e 7127 be3c c8ea c43d
00000100: eb53 773d d123 65be 1607 013d 77b9 5d3c
00000110: b00c e8bd 1f71 603d e6a9 3e3e ed11 11bd
00000120: c18f 64bd 6b74 0e3e 3d2c 64bd c5f9 b93c
00000130: fe2e e1bd 2820 0bbd 44a1 92bc 30ba 74bd
00000140: 2fb3 533d 9aa5 dabd db05 813d 1b59 46bc
00000150: 7752 923d fdad 29bd 58b5 843d bcb6 cb3d
00000160: 60e6 c83c 081b a9bc f15f 2cbe 47f9 873e
00000170: b817 053c 26bf bd3d 9218 a03e 78d2 9abd
00000180: c8ba c2bc affa 53be 80bd 24bc abf1 1a3e
00000190: 6148 6d3d bc41 59be 5a7e 593d 3c23 7d3c
000001a0: 5662 4b3d 5377 bbbc c78c a6bb 8f89 e3bc
000001b0: 18e8 f3bd ccfc fb3c 4d00 2abe 8a06 f03d
000001c0: dcdb bd3d a7f5 733d 925e 3f3c e8f6 3e3d
000001d0: 305e 75bd 04eb 133e 37d4 c53d f62c c63e
000001e0: 21cf 123e 782c 59bd d832 383c 4e5a 5e3d
000001f0: 20c8 13be b351 933e 671c 6a3d 9d71 2f3e
00000200: d91d 4f3e 9af7 0ebe 31d1 01be 551b 143d
00000210: 2fd5 45bf 4ed9 f53d 526f d13b 1f9d c93d
00000220: 1494 93bd 04fe 9ebd 1a48 8ebe a06f 06bc
00000230: 8bda 5dbc efba 0fbd e665 67bd 0969 fd3d
00000240: 29be 17be e84f 703d 57c4 183d 8afc 6a3d
00000250: 7d29 c3bb 5c9f fb3d f23f e6bd 4cf5 a33d
00000260: 7b21 3fbe fb29 0a3e c9b9 8f3d f4f7 3c3e
00000270: b44f a1bd b403 5dbe 517e aebb 2377 b3bd
00000280: 364c 173e bb9c d73d 3cc5 493e 7ef3 193d
00000290: 9ea2 f4bd 8941 d1bc bcac dfbc d982 41be
000002a0: 5445 69bd 98cb 3bbe 6660 48be 0ea8 ff3d
000002b0: 741a 4fbe 4c2c b1bd 1e6c 963d 183a 913d
000002c0: 7097 dabd 9817 423d 5c26 0c3e 776a 053d
000002d0: 72a4 e83d 8182 47bc 31e7 cf3d c931 05be
000002e0: af4f 4bbc fdd4 c5bd 6302 9bbd 1002 b03d
000002f0: daf0 a1bd 4496 de3d 72b2 783d 784a 113e
00000300: 0ef3 02be 637e 753e d086 923d fc71 233c
00000310: 801e d03c 49ad 41bd 1ded 75bd 25ca 9ebd
00000320: b424 a4bd cafd 02be 52e2 4ebd 0cf7 b2bd
00000330: 1e11 7c3d 74d4 84bd a5d3 e83d b203 a63d
00000340: 9411 cfbb 85d6 48bd ddfe d8bd dc17 713e
00000350: 8dd0 cebd f2b5 cb3b 8bb8 48bd 44d3 133d
00000360: 7c27 e4ba a5ca 123e 1585 ac3d a7a8 d5be
00000370: e97d 013e d3b6 953d a1e0 fabd 00ab b1bd
00000380: 8444 353d 0dae 9f3d 364e e23d 9893 b3bd
00000390: 0065 3f3d f903 043c cf09 21bd 0617 2e3e
000003a0: 7494 b8bb ecec 033e 2edf 0a3e 55be 873d
000003b0: 7fcc 783e 0c8f 62be d217 9d3d 7c31 743d
000003c0: 1e72 7cbc 7fc4 9bbd 2814 e13d 57ca 0b3e
000003d0: 5a9e 53bd 7d60 16be a54a 513d db69 b2be
000003e0: 7c74 ebbd ab56 d93d 47c4 513b 7062 b53d
000003f0: c32b 233d 15f2 90bd a6b8 30be 8f4e 88be

actor.4.bias f4 [64]
0.05838561 -0.08094312 0.07545529 0.023576215 0.03030717 0.021621522 -0.051507045 0.04976713
-0.08863908 0.08371135 -0.07799211 -0.06551429 0.050733093 0.065838225 0.013746185 -0.114151075
-0.013810267 0.09523782 -0.18007307 0.09881418 -0.15082139 -0.09025754 0.06258408 0.07118091
-0.097996265 -0.079276584 -0.1663272 -0.049703196 0.109461695 0.035507217 0.12931192 -0.052033946
-0.079943046 -0.17091809 -0.017629912 -0.09039382 -0.0669024 0.010467818 -0.075745285 -0.10506617
-0.08734458 0.10317248 0.09564338 -0.023166252 0.03321481 0.0053036143 0.09658607 -0.089066744
-0.03244851 0.021283528 0.13891354 -0.053441323 0.07029917 -0.049326193 -0.035265833 -0.03748858
0.068428345 -0.041234888 -0.058239467 0.078165315 0.091264635 -0.024696875 0.100318216 -0.061899036
00000000: c025 6f3d 82c5 a5bd 4e88 9a3d e822 c13c
00000010: be46 f83c 9e1f b13c 0df9 52bd 9ed8 4b3d
00000020: 6888 b5bd db70 ab3d 54ba 9fbd 5b2c 86bd
00000030: 81cd 4f3d 31d6 863d ae37 613c 0ac8 e9bd
00000040: 7544 62bc 0c0c c33d 1365 38be 175f ca3d
00000050: ec70 1abe f2d8 b8bd 152c 803d 4cc7 913d
00000060: 44b2 c8bd c35b a2bd ad51 2abe 9495 4bbd
00000070: 742d e03d 0470 113d 586a 043e 8c21 55bd
00000080: 2eb9 a3bd 2705 2fbe 9b6c 90bc 6520 b9bd
00000090: 2004 89bd 3681 2b3c 5820 9bbd ef2c d7bd
000000a0: b7e1 b2bd 184c d33d ade0 c33d 27c7 bdbc
000000b0: 410c 083d f1c9 ad3b ebce c53d a068 b6bd
000000c0: bbe8 04bd cb5a ae3c 5a3f 0e3e 4ae5 5abd
000000d0: 03f9 8f3d 430a 4abd e872 10bd a08d 19bd
000000e0: 2924 8c3d eae5 28bd 828c 6ebd 2315 a03d
000000f0: f4e8 ba3d 1a51 cabc a373 cd3d d889 7dbd

actor.6.weight f4 [64, 64]
0.10520758 -0.2264669 -0.5058635 -0.0016936847 -0.081606396 0.0073908414 0.059481267 0.07755522
0.19258443 -0.21396159 -0.2400679 -0.15205216 -0.00032283334 -0.16592264 -0.018585987 -0.17094973
-0.09321659 -0.017663026 0.036665305 0.029764155 -0.11075902 -0.07233118 -0.1450388 -0.018034946
-0.62697417 0.1142115 0.17113514 0.05507902 -0.013761355 -0.06453517 -0.18384469 -0.09841207
0.09211133 -0.15905322 -0.15073003 -0.085516475 0.049539912 0.23872894 0.11506626 -0.34779245
-0.15725628 -0.22080487 -0.27673697 0.17585687 0.13245353 0.07404259 -0.26785496 0.4805519
0.1007429 0.02699838 -0.067445 -0.154801 -0.16880912 -0.006718418 -0.1348633 0.08900882
0.103880525 0.009896234 -0.0036578104 -0.079371445 -0.07772318 -0.31520802 0.046670992 -0.08905597
-0.06464158 0.038670238 -0.21723357 0.12560333 -0.15913633 0.03476644 0.04762924 -0.008717073
0.07783688 -0.14993575 -0.12632746 0.0302011 -0.050325308 0.025115833 -0.056236133 -0.1547418
0.11023836 -0.09000837 -0.011726655 -0.03567929 -0.08610322 0.13280426 0.10165021 0.15488862
-0.37872085 -0.1610785 0.041194044 -0.091042496 0.08670562 -0.08277214 -0.003947267 -0.34883994
-0.12172747 -0.30579433 -0.1428456 -0.1281739 -0.017405631 0.032962583 0.1344421 -0.15432292
0.04388618 -0.27432126 -0.08834015 0.17273171 0.14863555 0.14330097 -0.017279528 0.5658527
-0.086881 -0.01639706 0.1461585 -0.25463775 -0.0038570974 -0.023176767 0.0035995133 0.0909008
0.15782055 -0.08611178 -0.07321393 -0.07677135 0.120784946 -0.18543741 -0.0258095 0.09120567
-0.022784222 -0.15473215 -0.32615834 -0.05659328 -0.1470905 0.029990872 0.015415684 0.11607724
0.14687264 -0.04677909 -0.023242902 0.09368986 -0.03644885 -0.16016552 0.07428116 -0.03444948
-0.060918313 -0.056564666 0.21503581 0.026107024 0.026714915 0.15155187 -0.16233541 -0.068866804
-0.42497805 -0.13295503 0.040817212 -0.16179086 0.14326534 -0.07948374 -0.023685249 -0.21647179
-0.17963529 -0.036666043 -0.14879058 0.04166935 -0.04321982 0.074068375 -0.038012985 -0.082564905
0.058577057 -0.26854736 -0.16541384 0.028781043 0.10649659 0.19727866 -0.11158345 0.5958249
0.097380124 -0.0518034 0.027268084 -0.20117709 0.15925753 0.093112886 0.024635391 0.06762493
0.117944375 0.0021408228 0.14932518 -0.2238321 -0.057242647 -0.23878741 0.04558012 0.052299146
-0.14768451 -0.1623714 0.065367825 0.020768011 -0.14256305 0.079937465 -0.21659431 -0.027714768
0.5673081 -0.0056837173 -0.17983964 -0.03904303 0.10177851 -0.07360075 -0.040065944 -0.11833853
0.12938425 -0.10728066 0.28810316 0.07180309 -0.15593286 -0.10087056 0.00082245376 -0.045804106
-0.10139241 -0.38537323 -0.24406114 -0.08062238 0.07751739 0.07027479 0.07099954 -0.4065921
-0.29684538 0.04486347 -0.29453212 0.084732495 -0.28196043 0.092200816 0.1294908 -0.19176975
0.023901025 -0.50448734 -0.057066396 0.040288635 0.067738615 0.36798573 0.12807445 0.7579656
-0.5133082 0.032535374 0.14176163 0.011503039 -0.19406003 0.06248079 -0.07771661 0.14196752
0.0705339 -0.337327 0.051609743 -0.19677913 -0.12953278 -0.1825763 -0.05331894 -0.036194026
00000000: 1277 d73d f0e6 67be 4580 01bf a1fe ddba
00000010: 4121 a7bd df2e f23b a1a2 733d 45d5 9e3d
00000020: da34 453e bf18 5bbe 5cd4 75be 90b3 1bbe
00000030: f541 a9b9 a0e7 29be a441 98bc 720d 2fbe
00000040: 57e8 bebd 0db2 90bc 5c2e 163d f5d3 f33c
00000050: a0d5 e2bd 5f22 94bd 0d85 14be 06be 93bc
00000060: 6181 20bf b8e7 e93d 0d3e 2f3e 8a9a 613d
00000070: 4e77 61bc 042b 84bd c841 3cbe 448c c9bd
00000080: dda4 bc3d d9de 22be f958 1abe 4323 afbd
00000090: 5dea 4a3d 5c75 743e dca7 eb3d da11 b2be
000000a0: ca07 21be ac1a 62be 78b0 8dbe d313 343e
000000b0: e6a1 073e a4a3 973d 4924 89be e60a f63e
000000c0: 4b52 ce3d b52b dd3c 9b20 8abd 2784 1ebe
000000d0: 4cdc 2cbe 2d26 dcbb 9b19 0abe 424a b63d
000000e0: 50bf d43d d023 223c e0b7 6fbb 7f8d a2bd
000000f0: 552d 9fbd f262 a1be 152a 3f3d fa62 b6bd
00000100: ce62 84bd af64 1e3d 7a72 5ebe 299e 003e
00000110: a2f4 22be 4167 0e3d e116 433d 0ed2 0ebc
00000120: f168 9f3d c288 19be fc5b 01be 4c68 f73c
00000130: e921 4ebd b8bf cd3c dc57 66bd a274 1ebe
00000140: a6c4 e13d 4f56 b8bd 2821 40bc 7224 12bd
00000150: e356 b0bd d7fd 073e fc2d d03d 1f9b 1e3e
00000160: b3e7 c1be c3f1 24be 16bb 283d 7d74 babd
00000170: b792 b13d 7184 a9bd 1358 81bb 269b b2be
00000180: 404c f9bd 1391 9cbe 1e46 12be 0540 03be
00000190: 4196 8ebc c603 073d 31ab 093e d406 1ebe
000001a0: ffc1 333d d673 8cbe aeeb b4bd 95e0 303e
000001b0: eb33 183e 7dbd 123e cc8d 8dbc b9db 103f
000001c0: aaee b1bd 2153 86bc 93aa 153e e15f 82be
000001d0: 5bc7 7cbb 34dd bdbc d0e5 6b3b 332a ba3d
000001e0: b69b 213e 5f5b b0bd 2ff1 95bd 4c3a 9dbd
000001f0: 195e f73d 4ee3 3dbe 726e d3bc 0aca ba3d
00000200: faa5 babc 1b72 1ebe 3afe a6be 5bce 67bd
00000210: e49e 16be 6baf f53c 1192 7c3c e7b9 ed3d
00000220: c865 163e 6e9b 3fbd e667 bebc 78e0 bf3d
00000230: 644b 15bd 6e02 24be b920 983d e61a 0dbd
00000240: 7b85 79bd 5ab0 67bd 5932 5c3e 66de d53c
00000250: 3dd9 da3c 6a30 1b3e 413b 26be 0a0a 8dbd
00000260: b996 d9be 5d25 08be f32f 273d 81ac 25be
00000270: 26b4 123e 5fc8 a2bd 9107 c2bc c8aa 5dbe
00000280: 50f2 37be 222f 16bd 8f5c 18be 7bad 2a3d
00000290: 4407 31bd 29b1 973d 81b3 1bbd ca17 a9bd
000002a0: 7fee 6f3d 0a7f 89be 3f62 29be 39c6 eb3c
000002b0: e21a da3d 6b03 4a3e dd85 e4bd fb87 183f
000002c0: 3b6f c73d cd2f 54bd 5161 df3c 5e01 4ebe
000002d0: 6814 233e f8b1 be3d 29d0 c93c f07e 8a3d
000002e0: d28c f13d 0c4d 0c3b b3e8 183e 3e34 65be
000002f0: 4477 6abd b084 74be 38b2 3a3d a137 563d
00000300: 9c3a 17be b044 26be 91df 853d ad21 aa3c
00000310: 0cfc 11be 41b6 a33d e6ca 5dbe 150a e3bc
00000320: 1b3b 113f 7a3e babb e227 38be 96eb 1fbd
00000330: 4071 d03d fdbb 96bd 301c 24bd 795b f2bd
00000340: 4e7d 043e f6b5 dbbd 4282 933e 800d 933d
00000350: ddac 1fbe 3995 cebd f099 573a 169d 3bbd
00000360: d3a6 cfbd a44f c5be 2aeb 79be 591d a5bd
00000370: 70c1 9e3d 3bec 8f3d 3568 913d d72c d0be
00000380: 1efc 97be c2c2 373d eacc 96be 3b88 ad3d
00000390: 1e5d 90be c8d3 bc3d 3c99 043e 4a5f 44be
000003a0: 15cc c33c 1526 01bf 74be 69bd b205 253d
000003b0: 8bba 8a3d a068 bc3e f325 033e 090a 423f
000003c0: 2b68 03bf d043 053d f629 113e 3e77 3c3c
000003d0: acb7 46be dbeb 7f3d e329 9fbd ef5f 113e
000003e0: 1474 903d 20b6 acbe bd64 533d 7880 49be
000003f0: 3ea4 04be 48f5 3abe f664 5abd 3040 14bd

actor.6.bias f4 [64]
-0.13439664 0.08772461 0.06427666 0.084420264 -0.036807485 0.049202263 0.10485404 -0.01707765
0.020770201 -0.17518397 -0.03979396 -0.11767561 0.049319297 0.017629901 0.050530672 0.08372784
-0.015129994 -0.09676185 -0.002196012 0.10155192 -0.01815908 0.02322634 -0.10710283 0.005238236
-0.008668546 -0.021646773 0.10745319 -0.08739973 0.13820575 0.088235855 -0.04056428 0.049019545
0.08938946 -0.044400558 0.11487443 -0.00908225 0.12002593 -0.108393826 0.04453082 0.117750704
0.015350906 0.09219918 -0.0067691985 0.09361029 -0.12172478 -0.04559641 -0.11100649 0.033148956
0.11631194 0.010554292 -0.06764146 -0.033581305 -0.08570601 -0.0017742031 -0.003909314 -0.01524407
0.020397685 -0.14452738 -0.0704908 0.049044874 -0.10617901 -0.10956855 0.09293708 -0.049184993
00000000: 469f 09be f6a8 b33d 7ba3 833d 88e4 ac3d
00000010: 72c3 16bd 5088 493d b7bd d63d 6ee6 8bbc
00000020: 4526 aa3c 6d63 33be fefe 22bd e9ff f0bd
00000030: 0803 4a3d 956c 903c 40f9 4e3d 8079 ab3d
00000040: cbe3 77bc 142b c6bd f8ea 0fbb 74fa cf3d
00000050: 5ac2 94bc 2a45 be3c bb58 dbbd 82a5 ab3b
00000060: 8406 0ebc 9354 b1bc 6b10 dc3d a1fe b2bd
00000070: cf85 0d3e 00b5 b43d bb26 26bd b8c8 483d
00000080: d211 b73d 5cdd 35bd 4943 eb3d b8cd 14bc
00000090: 28d0 f53d 95fd ddbd f365 363d 4827 f13d
000000a0: 5e82 7b3c ecd2 bc3d 27d0 ddbb c0b6 bf3d
000000b0: d74a f9bd 4dc3 3abd 5f57 e3bd 33c7 073d
000000c0: f434 ee3d e9eb 2c3c 9b87 8abd 8d8c 09bd
000000d0: a286 afbd 618c e8ba b419 80bb 44c2 79bc
000000e0: 0c19 a73c fcfe 13be 7b5d 90bd 47e3 483d
000000f0: 6174 d9bd 7a65 e0bd cc55 be3d 3476 49bd

actor.8.weight f4 [1, 64]
-0.5033357 -0.16245867 -0.22178021 -0.43523327 -0.111065194 -0.61944956 -0.13921607 0.2553953
-0.18261752 -0.5265021 -0.13474306 0.3024482 0.08646618 0.09203072 0.12454523 -0.3312507
-0.31105897 0.095004044 0.12801246 -0.15786578 -0.29313162 -0.54725784 -0.27081951 0.06368523
0.312605 0.13943063 -0.020886302 0.2514799 -0.117547065 0.09511975 0.11375739 0.18694545
0.1646262 -0.08269761 0.11719823 0.17307019 0.105813004 -0.6680406 0.45167616 -0.13962072
0.12233141 0.117255025 -0.27718532 -0.093383536 -0.2068606 0.20332769 -0.5309156 -0.17181799
-0.12997438 0.5816892 0.6501731 -0.08083889 -0.6354876 -0.023839157 -0.33568028 -0.23008269
0.052829053 -0.37370124 -0.19722296 -0.28058743 0.16611016 0.47824037 -0.16787821 -0.2698776
00000000: 9cda 00bf 915b 26be 5a1a 63be e5d6 debe
00000010: 2676 e3bd 3f94 1ebf a88e 0ebe 2cc3 823e
00000020: 1600 3bbe d7c8 06bf 16fa 09be 7eda 9a3e
00000030: 2e15 b13d 9a7a bc3d 9211 ff3d b199 a9be
00000040: 1f43 9fbe 7b91 c23d b315 033e 91a7 21be
00000050: 5915 96be 1719 0cbf dba8 8abe 676d 823d
00000060: c30d a03e e7c6 0e3e c019 abbc f9c1 803e
00000070: 84bc f0bd 25ce c23d a2f9 e83d a16e 3f3e
00000080: c593 283e 5d5d a9bd a005 f03d 5039 313e
00000090: 7db4 d83d b504 2bbf 1942 e73e bcf8 0ebe
000000a0: e488 fa3d 6723 f03d 3ceb 8dbe de3f bfbd
000000b0: 44d3 53be 2235 503e 16ea 07bf 0ef1 2fbe
000000c0: 0118 05be 95e9 143f bf71 263f dc8e a5bd
000000d0: 51af 22bf 564a c3bc 49de abbe cc9a 6bbe
000000e0: 4763 583d c555 bfbe d1f4 49be 28a9 8fbe
000000f0: c818 2a3e ecdb f43e 44e8 2bbe 662d 8abe

critic.0.weight f4 [64, 6]
1.5734516 -0.08268637 0.174399 -0.12908071 0.13472494 1.2912872 2.5090287 -0.46281928
-0.34527275 -0.17184883 0.29054534 -0.38097864 -1.0487032 -0.09582837 0.11080786 0.15056844
-0.1475648 -0.7407616 -0.7113905 0.24654955 -0.03035189 0.25729448 -0.26102334 -0.13806105
0.3219707 0.38681954 -0.28745756 0.30107415 -0.3055367 -1.017474 1.1352102 -0.46592963
-0.10615071 -0.08937445 0.09389878 -1.967779 0.2876794 0.30313188 -0.42342794 0.29581267
-0.30259597 0.18952563 -0.9240409 -0.26533285 0.14568809 -0.34055015 0.32071355 -0.86539686
1.5525644 -0.227311 -0.28471494 -0.16525394 0.16190712 0.74656653 0.12261071 -0.33085778
0.1081775 -0.0034541565 -0.26185006 0.26255983 -1.5651628 0.009451638 -0.39785418 -0.17813723
-0.2590765 -0.54206806 -0.6867609 -0.49990883 -0.04359635 -0.03189814 0.063168764 -2.2888281
-2.3822656 -0.14933671 0.23273991 0.3190089 -0.34476832 0.42754367 0.71020234 0.2085549
-0.12735853 -0.057808362 0.0003719884 0.98417234 -1.1329249 0.059528265 -0.1459893 -0.04990568
0.060411304 1.1082574 -0.74831915 -0.47381178 0.32391873 0.22409275 -0.21319205 -1.2999443
1.3253992 -0.5382982 0.017604636 0.19251758 -0.08532033 -1.120879 0.4580563 0.13416399
-0.24915342 0.4029966 -0.40836585 0.3677656 -0.1759123 0.42518076 -0.2727687 0.35702187
-0.35596192 1.39341 0.38485292 -0.32698172 0.069648854 -0.09340846 0.054711252 1.0344211
0.3635381 -0.3221216 -0.42943496 0.21913356 -0.038319055 -0.9831218 -0.046782922 0.20208089
-0.10489007 -0.22081001 -0.08288486 0.5953094 1.1092576 -0.22809121 -0.5197136 0.06762374
0.14485666 0.048386097 -1.3140945 -0.3364066 0.1849125 0.20356606 -0.22480011 0.29565382
-0.5138347 -0.21516857 -0.2190086 -0.3329567 0.34053072 0.7898709 0.5467452 -0.17463301
-0.25220484 0.026719384 -0.10678245 1.0834665 3.4912734 0.0067801224 -0.14802562 -0.036471143
0.024237877 -1.1453638 -0.1431216 0.1812636 -0.3241399 0.25015295 -0.25085166 -0.20725302
-0.16925526 0.21137948 -0.25832817 -0.21189527 0.3496669 0.5190689 0.89039904 0.24899796
-0.039117604 0.057701737 -0.047782134 0.4395615 -0.7262914 -0.264097 -0.111545704 0.073393114
-0.05354111 1.1701553 0.5620672 0.22811 0.10159784 0.13341083 -0.14565073 -1.7738737
0.18614918 0.35073245 0.12317655 0.29220065 -0.31564483 -0.6608584 0.74963784 -0.52608657
0.072741486 0.14107506 -0.083573446 1.0528766 -2.5347557 -0.008055677 0.07968714 0.055214383
-0.063690044 0.3221204 -0.10812199 -0.016863817 -0.4571911 0.10608992 -0.20676401 -0.23268531
0.24175164 -0.08959089 0.30126926 -0.26965714 0.06726716 0.7562856 1.1701276 -0.4212189
0.035677142 0.0064002713 0.12688634 -0.11386911 0.44360062 -0.25074127 -0.20384815 0.30969155
-0.23487364 -0.6274542 -0.3958777 -0.54464203 -0.038141027 0.11650469 -0.022818478 -0.06729741
-2.7692337 -0.24550846 0.13949557 -0.026321169 -0.028440254 1.653624 -1.7721558 0.015767751
0.10820992 0.19235115 -0.18764697 0.5090274 0.15052414 0.033800106 0.42703205 -0.03439317
00000000: dd66 c93f 7957 a9bd a795 323e bc2d 04be
00000010: 56f5 093e e648 a53f ed93 2040 a6f6 ecbe
00000020: 97c7 b0be 24f9 2fbe 5cc2 943e a20f c3be
00000030: e83b 86bf aa41 c4bd 3bef e23d 9d2e 1a3e
00000040: 3a1b 17be 8da2 3dbf b01d 36bf 7c77 7c3e
00000050: 87a4 f8bc 1abc 833e daa4 85be e05f 0dbe
00000060: 58d9 a43e 360d c63e a32d 93be 6426 9a3e
00000070: 4e6f 9cbe 973c 82bf 914e 913f 548e eebe
00000080: 8b65 d9bd f409 b7bd 014e c03d 2fe0 fbbf
00000090: b74a 933e 1a34 9b3e 8ccb d8be c274 973e
000000a0: dced 9abe 0213 423e f28d 6cbf b5d9 87be
000000b0: 422f 153e 975c aebe 9134 a43e a68a 5dbf
000000c0: 6eba c63f 37c4 68be 28c6 91be 5438 29be
000000d0: fbca 253e fc1e 3f3f 531b fb3d 3166 a9be
000000e0: 2a8c dd3d 215f 62bb 3611 86be 3e6e 863e
000000f0: 4157 c8bf 0bdb 1a3c 8bb3 cbbe 9b69 36be
00000100: ada5 84be f9c4 0abf 90cf 2fbf 0df4 ffbe
00000110: 1692 32bd a0a7 02bd a05e 813d 297c 12c0
00000120: 0a77 18c0 b9eb 18be 5f53 6e3e 2255 a33e
00000130: 7985 b0be 01e7 da3e d2cf 353f 6a8f 553e
00000140: 466a 02be 76c8 6cbd 7007 c339 b8f2 7b3f
00000150: af03 91bf e9d3 733d 387e 15be e669 4cbd
00000160: d871 773d 61db 8d3f d891 3fbf 7597 f2be
00000170: add8 a53e 9278 653e 044f 5abe 9364 a6bf
00000180: aea6 a93f e9cd 09bf 9937 903c 5423 453e
00000190: 6dbc aebd f778 8fbf 5b86 ea3e 4962 093e
000001a0: 1322 7fbe 9255 ce3e 5415 d1be c64b bc3e
000001b0: 5b22 34be 4bb1 d93e 57a8 8bbe 92cb b63e
000001c0: a440 b6be 425b b23f 710b c53e 266a a7be
000001d0: 0fa4 8e3d ef4c bfbd e818 603d e967 843f
000001e0: aa21 ba3e 1fed a4be e6de dbbe 8c64 603e
000001f0: 71f4 1cbd dfad 7bbf 739f 3fbd 4bee 4e3e
00000200: 9bd0 d6bd 051c 62be 8abf a9bd 3266 183f
00000210: 27fc 8d3f be90 69be f30b 05bf 517e 8a3d
00000220: 4e55 143e 8030 463d 4034 a8bf 7c3d acbe
00000230: b459 3d3e 9f73 503e 0032 66be f05f 973e
00000240: ac8a 03bf 2655 5cbe ca43 60be 4d79 aabe
00000250: 0b5a ae3e fb34 4a3f 7ef7 0b3f ffd2 32be
00000260: fe20 81be 9ce2 da3c c2b0 dabd 08af 8a3f
00000270: 0671 5f40 ca2b de3b 0794 17be c462 15bd
00000280: 838e c63c 489b 92bf 788e 12be 2a9d 393e
00000290: aaf5 a5be 0c14 803e a16f 80be 233a 54be
000002a0: 4051 2dbe dd73 583e 9743 84be 13fb 58be
000002b0: 8a07 b33e b3e1 043f 31f1 633f 52f9 7e3e
000002c0: c839 20bd a858 6c3d 33b7 43bd 340e e13e
000002d0: 3cee 39bf b937 87be 1372 e4bd 214f 963d
000002e0: ec4d 5bbd a6c7 953f a3e3 0f3f ab95 693e
000002f0: 8712 d03d d99c 083e 7725 15be 4b0e e3bf
00000300: e49d 3e3e 3493 b33e fd43 fc3d 539b 953e
00000310: 339c a1be 042e 29bf 44e8 3f3f 9cad 06bf
00000320: 7df9 943d fb75 103e 8e28 abbd a9c4 863f
00000330: 7039 22c0 f5fb 03bc 0333 a33d 7a28 623d
00000340: ed6f 82bd f7ec a43e 106f ddbd fd25 8abc
00000350: f414 eabe ac45 d93d f2b9 53be 0f45 6ebe
00000360: be8d 773e 6e7b b7bd f73f 9a3e 8010 8abe
00000370: 5dc3 893d ef9b 413f bec6 953f 01aa d7be
00000380: 3222 123d 5eb9 d13b 7eee 013e 3534 e9bd
00000390: 9f1f e33e 2961 80be 92bd 50be e48f 9e3e
000003a0: b782 70be d7a0 20bf 7bb0 cabe a96d 0bbf
000003b0: c439 1cbd 039a ee3d d1ed babc 39d3 89bd
000003c0: 203b 31c0 9266 7bbe edd7 0e3e 7e9f d7bc
000003d0: 89fb e8bc f4a9 d33f 00d6 e2bf 5f2b 813c
000003e0: 2a9d dd3d b3f7 443e 8726 40be 9f4f 023f
000003f0: 0023 1a3e fb71 0a3d f2a3 da3e dadf 0cbd

critic.0.bias f4 [64]
0.04443789 -0.22088192 -0.02026898 -0.13990343 0.040981058 0.20492218 0.3546743 0.29121017
-0.55152434 0.10319114 0.25594828 -0.09087521 -0.4072131 0.109279126 0.4792985 0.36654
0.19542725 0.4073818 -0.14520496 -0.36916867 -0.032652497 -0.42526942 -0.7416121 -0.05354323
-0.24643011 -0.015744386 0.0356281 0.22015445 0.19918136 0.19403177 0.0063999705 -0.43756348
-0.2324653 -0.2698324 -0.47816503 -0.3396731 0.12929232 -0.52951264 0.04159367 0.07133774
-0.3621418 -0.2705031 -0.03994809 -0.34728605 -0.10067304 0.18321028 -0.11913381 0.043916754
-0.32843935 -0.033511043 -0.35901126 0.24130036 0.1401454 -0.06400329 -0.1494409 -0.27204323
0.32533017 -0.22372358 -0.19713694 -0.51939964 -0.19659397 0.35098255 0.06050565 0.02431183
00000000: 8104 363d df2e 62be 220b a6bc d842 0fbe
00000010: c1db 273d 1fd7 513e df97 b53e 8019 953e
00000020: b330 0dbf e055 d33d a70b 833e c81c babd
00000030: 3c7e d0be bccd df3d 9d66 f53e 22ab bb3e
00000040: 151e 483e 5994 d03e 9cb0 14be ad03 bdbe
00000050: a0be 05bd eabc d9be 4ada 3dbf 2550 5bbd
00000060: 2d58 7cbe 5ffa 80bc c5ee 113d 2b70 613e
00000070: 33f6 4b3e 44b0 463e d8b6 d13b 5208 e0be
00000080: 620b 6ebe 7927 8abe 0cd2 f4be a2e9 adbe
00000090: 3565 043e 248e 07bf 205e 2a3d 8519 923d
000000a0: a66a b9be 627f 8abe 9ca0 23bd 7acf b1be
000000b0: ab2d cebd 7a9b 3b3e 6dfc f3bd 0ee2 333d
000000c0: 3429 a8be e042 09bd 53d0 b7be 7117 773e
000000d0: 4782 0f3e 2814 83bd 0907 19be 4049 8bbe
000000e0: ad91 a63e cb17 65be 44de 49be 60f7 04bf
000000f0: ee4f 49be fcb3 b33e c6d4 773d 9a29 c73c

critic.2.weight f4 [64, 64]
0.17332564 -0.18250886 0.16622332 0.002952249 -0.14440894 0.30012986 -0.10383809 0.17517865
-0.11806913 0.040214222 0.071304545 0.030065602 0.26721358 -0.24222557 0.123967126 -0.046079468
-0.0013426361 -0.092678264 -0.31221527 -0.03157619 -0.0007798886 0.06864251 0.013182522 0.07559976
-0.15168142 0.12879997 0.0015351879 4.7178745 0.05551805 -0.0411624 0.0017887559 0.093642816
-0.10126707 0.07352018 0.02266428 0.11417648 0.035790708 0.043943033 -0.018700317 0.084688805
0.102543324 0.28762168 0.092197895 0.072310336 0.032917008 -0.013673877 0.053067688 0.06798696
-0.009190281 0.052151415 0.13485274 0.06817436 0.09019641 -0.03154424 0.14494842 0.04123644
-0.02702129 -0.054330036 -0.15427162 0.17306702 0.1300947 0.035484947 -0.051514436 -0.034117334
0.13037531 0.0068595754 -0.01729994 -0.0056337058 -0.48480925 -0.088322416 -0.16677144 0.21655664
-0.2148977 0.10436191 -0.015608285 -0.085326284 -1.5666975 0.010364747 0.18379793 -0.11116376
-0.013403617 -0.13713594 -0.28413573 0.039188527 -0.21102251 0.033178214 -0.11006159 -0.21227284
-0.13548605 -0.17357375 0.13677005 -2.6217759 -0.02188517 -0.007233029 -0.12564915 -0.15998724
-0.07529039 -0.36970425 -0.16033006 0.1266204 0.04314211 0.0095943995 0.20201643 -0.034287617
-0.20339444 0.008472155 0.11124089 0.0147470925 0.19876309 0.037545245 -0.11590864 0.12339693
0.035945598 -0.1965829 0.16823767 -0.14918412 -0.010861373 0.024781574 -0.60104704 -0.3216195
-0.06872338 -0.06530024 0.098169096 -0.14453615 -0.13483219 -0.04352631 -0.17095399 0.15342064
-0.13666134 -0.23056164 0.13169074 0.17116629 -0.3598964 -0.28279698 -0.05325694 0.28641963
-0.18574545 -0.04080272 -0.056711644 -0.098577864 0.31447953 0.074781165 0.2486785 -0.06837296
-0.03791631 -0.26517478 -0.43130508 0.13842215 0.027845846 -0.10383236 -0.1995807 -0.48832688
0.13704006 -0.18916671 -0.14897913 3.095348 0.08807214 0.018968912 -0.03664256 -0.08691734
-0.103031725 -0.27669406 -0.12885591 -0.1114029 0.014507393 -0.13180065 -0.21923237 0.030535178
-0.026346233 0.21090995 -0.03386693 0.0077577108 -0.13817427 0.052059103 -0.04931042 -0.14395806
-0.8638028 -0.27786905 0.2078035 -0.15795873 0.10745395 0.04129394 0.06851591 -0.06975039
-0.067656934 -0.21003234 -0.112103954 0.16995873 0.13109402 0.12164974 -0.08289299 -0.090234734
-0.07062603 -0.16235259 0.10310478 -0.113425694 -0.1286773 -0.49292582 -0.0299027 0.09582012
-0.2560152 -0.20706731 -0.058983434 0.076629885 0.041270442 -0.25322866 0.1008724 -0.14211659
0.11261832 0.037189797 -0.27536574 -0.16499908 -0.14083105 0.08945312 -0.16960156 0.14311627
-0.110623166 -0.16372904 -0.25111428 -4.282442 -0.17306128 -0.050150804 0.025091534 -0.0028867065
0.0739584 -0.14276499 -0.06216488 0.009438074 -0.12780175 -0.09951326 -0.074379504 -0.040807296
-0.5311466 -0.060851134 -0.13770689 -0.026318492 -0.09221045 -0.02298958 0.12627998 -0.15264522
-0.053743258 0.27755246 0.03873812 0.11529522 0.082113795 -0.030046206 0.080395296 0.037127003
0.08416155 -0.11459303 0.07244215 -0.05880249 0.13701262 -0.10083795 0.03671768 -0.039802827
00000000: 477c 313e 9ae3 3abe 7236 2a3e 857a 413b
00000010: f0df 13be 9faa 993e 11a9 d4bd 0862 333e
00000020: 3ace f1bd abb7 243d 1e08 923d 234c f63c
00000030: 38d0 883e fb09 78be 7ae2 fd3d d3bd 3cbd
00000040: 64fb afba 1ace bdbd aeda 9fbe 0956 01bd
00000050: 7071 4cba 7294 8c3d 81fb 573c 0cd4 9a3d
00000060: 6052 1bbe 24e4 033e 5c38 c93a d4f8 9640
00000070: e566 633d e899 28bd b074 ea3a cec7 bf3d
00000080: 1c65 cfbd c091 963d 71aa b93c 5cd5 e93d
00000090: 4799 123d 9cfd 333d 6831 99bc 5371 ad3d
000000a0: 3c02 d23d 2643 933e 40d2 bc3d 7117 943d
000000b0: fcd3 063d 6608 60bc 815d 593d bf3c 8b3d
000000c0: d592 16bc b99c 553d d616 0a3e 009f 8b3d
000000d0: e5b8 b83d 8834 01bd 5c6d 143e 8be7 283d
000000e0: c15b ddbc 2c89 5ebd 61f9 1dbe 7b38 313e
000000f0: 8c37 053e aa58 113d cd00 53bd 9ebe 0bbd
00000100: 1b81 053e 4ac6 e03b 9bb8 8dbc f39a b8bb
00000110: eb38 f8be 62e2 b4bd 22c6 2abe 06c1 5d3e
00000120: 250e 5cbe b2bb d53d e4b9 7fbc 8cbf aebd
00000130: 8b89 c8bf e6d0 293c 8635 3c3e d3a9 e3bd
00000140: d89a 5bbc 5d6d 0cbe 3d7a 91be 2684 203d
00000150: 4916 58be e1e5 073d f967 e1bd 0d5e 59be
00000160: dbbc 0abe 51bd 31be 730d 0c3e 2dcb 27c0
00000170: 8748 b3bc 0c03 edbb 2caa 00be b2d3 23be
00000180: d931 9abd e049 bdbe 902d 24be c7a8 013e
00000190: c8b5 303d d431 1d3c 65dd 4e3e 2c71 0cbd
000001a0: a246 50be cbce 0a3c 44d2 e33d ca9d 713c
000001b0: 8d88 4b3e 0bc9 193d 8261 edbd 88b7 fc3d
000001c0: b13b 133d 074d 49be 7f46 2c3e b9c3 18be
000001d0: e6f3 31bc ba02 cb3c 38de 19bf 50ab a4be
000001e0: d8be 8cbd 22bc 85bd e10c c93d 4901 14be
000001f0: 7311 0abe a548 32bd 900e 2fbe 4d1a 1d3e
00000200: f3f0 0bbe 5a18 6cbe f0d9 063e 3746 2f3e
00000210: 5744 b8be c4ca 90be f323 5abd 98a5 923e
00000220: 0e34 3ebe c120 27bd 784a 68bd 31e3 c9bd
00000230: 7603 a13e de26 993d 94a5 7e3e 1f07 8cbd
00000240: 224e 1bbd fdc4 87be 05d4 dcbe 89be 0d3e
00000250: f91c e43c 0fa6 d4bd e25e 4cbe fb05 fabe
00000260: 3b54 0c3e ebb4 41be fc8d 18be 2e1a 4640
00000270: 2b5f b43d b164 9b3c 8216 16bd b801 b2bd
00000280: 4c02 d3bd d8aa 8dbe cef2 03be 3427 e4bd
00000290: 6bb0 6d3c c0f6 06be 737e 60be e924 fa3c
000002a0: 0ed4 d7bc c7f8 573e 0db8 0abd 6534 fe3b
000002b0: 8e7d 0dbe ed3b 553d b9f9 49bd be69 13be
000002c0: 2e22 5dbf da44 8ebe 71ca 543e efbf 21be
000002d0: d110 dc3d d623 293d 1252 8c3d 4bd9 8ebd
000002e0: b88f 8abd b812 57be c296 e5bd a909 2e3e
000002f0: 833d 063e 8023 f93d cdc3 a9bd fdcc b8bd
00000300: 61a4 90bd c23f 26be 9928 d33d bb4b e8bd
00000310: fbc3 03be c660 fcbe 82f6 f4bc 573d c43d
00000320: 6d14 83be 7409 54be 9d98 71bd 21f0 9c3d
00000330: 320b 293d 30a7 81be 3096 ce3d 0387 11be
00000340: 6fa4 e63d 5454 183d bdfc 8cbe 85f5 28be
00000350: 0436 10be 3333 b73d 08ac 2dbe 128d 123e
00000360: 668e e2bd 96a8 27be 0d92 80be c409 89c0
00000370: fa36 31be ee6a 4dbd c38c cd3c e62e 3dbb
00000380: 8077 973d fc30 12be 9aa0 7ebd 27a2 1a3c
00000390: 76de 02be 9ccd cbbd 4854 98bd 8d25 27bd
000003a0: 39f9 07bf 0a3f 79bd 0903 0dbe e199 d7bc
000003b0: d5d8 bcbd a554 bcbc 8a4f 013e 074f 1cbe
000003c0: e421 5cbd 5b1b 8e3e ddab 1e3d e61f ec3d
000003d0: 472b a83d 7623 f6bc 4aa6 a43d 7c12 183d
000003e0: e45c ac3d c0af eabd 8d5c 943d e1da 70bd
000003f0: 094d 0c3e 2184 cebd 4765 163d 4a08 23bd

critic.2.bias f4 [64]
0.12366869 0.19429418 -0.07322536 0.07518686 0.02658558 0.10513397 -0.03084237 0.09609759
0.044669554 0.14317268 0.03780356 -0.03636155 -0.096786276 0.0595178 -0.21106546 -0.18338074
0.023733702 -0.16580357 -0.1586349 0.0901058 -0.06171488 0.0941736 0.064399906 -0.13841493
-0.017556602 -0.19104509 -0.052018516 -0.06538535 -0.20443738 0.11552378 0.013062253 0.05882588
0.09215886 -0.32672474 -0.12699677 0.07392267 -0.036107462 -0.051116943 -0.08917324 0.15660596
-0.12809442 0.09447883 -0.05276846 0.026266824 -0.028046517 0.030322868 0.011988715 0.045073733
-0.057337116 -0.026891217 -0.2168844 -0.018673606 -0.18502858 -0.03279491 0.20472732 -0.044461697
-0.030369202 -0.003655376 -0.040921 -0.21914406 -0.045106553 0.07000734 -0.087406315 0.082381785
00000000: 0346 fd3d 0ef5 463e 2df7 95bd 92fb 993d
00000010: 01ca d93c 7b50 d73d 23a9 fcbc d0ce c43d
00000020: 6cf7 363d dc9b 123e e8d7 1a3d d9ef 14bd
00000030: e237 c6bd f0c8 733d 8b21 58be 29c8 3bbe
00000040: 2e6d c23c 69c8 29be 3071 22be 6489 b83d
00000050: bec8 7cbd 17de c03d 19e4 833d a5bc 0dbe
00000060: ddd2 8fbc 53a1 43be 5e11 55bd c1e8 85bd
00000070: 0858 51be bb97 ec3d 0f03 563c 68f3 703d
00000080: c9bd bc3d 7748 a7be 710b 02be c564 973d
00000090: 6be5 13bd 0060 51bd 76a0 b6bd 505d 203e
000000a0: 2f2b 03be 1e7e c13d be23 58bd 862d d73c
000000b0: cfc1 e5bc aa67 f83c 516c 443c 3c9f 383d
000000c0: 53da 6abd f84a dcbc f216 5ebe 64f9 98bc
000000d0: 2278 3dbe f553 06bd 0aa4 513e 781d 36bd
000000e0: d5c8 f8bc 088f 6fbb c79c 27bd 4d67 60be
000000f0: a6c1 38bd 0260 8f3d 1502 b3bd c8b7 a83d
